results/90RC1/Park90RC/Park90RC-1499964.pt (torch, 825364 bytes, 52 tensors)

network_body.observation_encoder.processors.0.normalizer.running_mean f4 [90]
0	0x3f5d4303	0.86430377
1	0x3f5f44fb	0.8721463
2	0x3f614e1e	0.8800982
3	0x3f636f9c	0.8884218
4	0x3f65b9ad	0.89736444
5	0x3f6842bb	0.9072682
6	0x3f6b8872	0.92005074
7	0x3f70415c	0.9384973
8	0x3f7f7ab5	0.9979661
9	0x3f7fce74	0.999244
10	0x3f7ff12f	0.9997739
11	0x3f7ff8b5	0.9998887
12	0x3f7ffac4	0.9999201
13	0x3f7ffbee	0.9999379
14	0x3f7ffd41	0.9999581
15	0x3f7ffd86	0.9999622
16	0x3f7ffdf0	0.9999685
17	0x3f7ffe10	0.99997044
18	0x3f7ffe10	0.99997044
19	0x3f7ffdd7	0.99996704
20	0x3f7ffde6	0.99996793
21	0x3f7ffde6	0.99996793
22	0x3f7ffe1d	0.9999712
23	0x3f7ffe43	0.9999735
24	0x3f7ffe1d	0.9999712
25	0x3f7ffe1c	0.99997115
26	0x3f7ffe2b	0.99997205
27	0x3f7ffe37	0.99997276
28	0x3f7ffe36	0.9999727
29	0x3f7ffe1c	0.99997115
30	0x3f7ffe06	0.99996984
31	0x3f7ffdf8	0.999969
32	0x3f7ffe09	0.99997
33	0x3f7ffe0e	0.9999703
34	0x3f7ffe0b	0.99997014
35	0x3f7ffde0	0.9999676
36	0x3f7ffdc1	0.9999657
37	0x3f7ffda8	0.99996424
38	0x3f7ffd92	0.9999629
39	0x3f7ffd6d	0.9999607
40	0x3f7ffd4e	0.9999589
41	0x3f7ffd3e	0.9999579
42	0x3f7ffd4d	0.9999588
43	0x3f7ffd4f	0.99995893
44	0x3f7ffd6a	0.99996054
45	0x3f7ffd73	0.9999611
46	0x3f5b6781	0.8570481
47	0x3f59b587	0.85042614
48	0x3f5820f0	0.8442526
49	0x3f569d76	0.83834016
50	0x3f5532c5	0.83280593
51	0x3f53a5b7	0.82674736
52	0x3f51ea58	0.81998205
53	0x3f4f9698	0.8108916
54	0x3f4bc5e7	0.7959885
55	0x3f4697a5	0.7757514
56	0x3f407fcd	0.7519501
57	0x3f3a41b4	0.72756505
58	0x3f35326d	0.7078007
59	0x3f33317e	0.69997394
60	0x3f3220cc	0.69581294
61	0x3f31d159	0.69460064
62	0x3f325c87	0.69672436
63	0x3f31d16b	0.6946017
64	0x3f33db73	0.7025673
65	0x3f362915	0.71156436
66	0x3f38ac4f	0.7213792
67	0x3f3bdab7	0.7338061
68	0x3f3b2c20	0.73114204
69	0x3f39ac99	0.7252899
70	0x3f38b379	0.72148854
71	0x3f3a075a	0.7266747
72	0x3f40086c	0.7501285
73	0x3f48eec4	0.7848933
74	0x3f52006f	0.8203191
75	0x3f59dd6b	0.8510348
76	0x3f604e48	0.8761945
77	0x3f672cae	0.9030255
78	0x3f6fb72a	0.9363886
79	0x3f77cab6	0.9679369
80	0x3f7cce29	0.98752075
81	0x3f7ead0a	0.99482787
82	0x3f7f6b31	0.99772936
83	0x3f7fc995	0.99916965
84	0x3f7ff543	0.99983615
85	0x3f7ffdf3	0.9999687
86	0x3f7ffe3f	0.99997324
87	0x3f7ffe23	0.99997157
88	0x3f7ffdc0	0.99996567
89	0x3f7ffd98	0.9999633

network_body.observation_encoder.processors.0.normalizer.running_variance f4 [90]
0	0x47db1aa3	112181.27
1	0x47d00724	106510.28
2	0x47c33970	99954.875
3	0x47b46c22	92376.266
4	0x47a34b18	83606.19
5	0x478f80a6	73473.3
6	0x476e2f97	60975.59
7	0x472c6317	44131.09
8	0x44e6edb1	1847.4279
9	0x442a2299	680.5406
10	0x43413058	193.18884
11	0x42894d3e	68.65086
12	0x421e35a4	39.552383
13	0x41de6055	27.797037
14	0x41b59986	22.699963
15	0x41a4fdff	20.624022
16	0x418f22f1	17.892061
17	0x41838b8d	16.44314
18	0x41830b87	16.380629
19	0x4182fd3b	16.373648
20	0x417b2097	15.6954565
21	0x417a0046	15.625067
22	0x415cc1cd	13.797315
23	0x414e6639	12.899957
24	0x41557025	13.339879
25	0x4156334a	13.387522
26	0x41475dd8	12.460411
27	0x4139c35f	11.610198
28	0x4139ca94	11.611958
29	0x413db330	11.856247
30	0x414fd2ab	12.988933
31	0x414064a8	12.024574
32	0x41375a19	11.4594965
33	0x412366d4	10.2126045
34	0x412527a0	10.322174
35	0x4133dea3	11.241855
36	0x414b5bf7	12.709952
37	0x4154aa26	13.29154
38	0x4163358c	14.200573
39	0x4161658e	14.087294
40	0x415d8e6e	13.847273
41	0x416991a2	14.598055
42	0x414ff673	12.997668
43	0x414c0f60	12.753754
44	0x413ac198	11.672264
45	0x4132be84	11.171513
46	0x47e4a2ef	117061.87
47	0x47ecfd91	121339.13
48	0x47f46087	125121.055
49	0x47fabce9	128377.82
50	0x48000955	131109.33
51	0x4802280c	133280.19
52	0x48038628	134680.62
53	0x48037693	134618.3
54	0x4800b646	131801.1
55	0x47f72364	126534.78
56	0x47e8b3be	119143.484
57	0x47d6845f	109832.74
58	0x47c19307	99110.055
59	0x47b34ccc	91801.59
60	0x47a621c5	85059.54
61	0x479ac431	79240.38
62	0x47941756	75822.67
63	0x478b55a4	71339.28
64	0x47883fef	69759.87
65	0x4780b01e	65888.234
66	0x4764a4d1	58532.816
67	0x474b78b0	52088.688
68	0x472ae5ae	43749.68
69	0x471f9ba3	40859.637
70	0x470bc73a	35783.227
71	0x46f3f44a	31226.145
72	0x46dd3e22	28319.066
73	0x46d1380c	26780.023
74	0x46c987a9	25795.83
75	0x46bff7ff	24571.998
76	0x46a7ca8f	21477.28
77	0x46885bc8	17453.89
78	0x46407fc4	12319.941
79	0x45d56827	6829.019
80	0x4537705e	2935.023
81	0x44974ae2	1210.3401
82	0x43ede574	475.7926
83	0x430a72a2	138.44778
84	0x419c1436	19.509869
85	0x40d1fa2d	6.561789
86	0x40d887cc	6.766577
87	0x40e455ab	7.1354575
88	0x410d347f	8.825316
89	0x411aadb3	9.667407

network_body.processors.0.normalizer.running_mean f4 [90]
0	0x3f5d4303	0.86430377
1	0x3f5f44fb	0.8721463
2	0x3f614e1e	0.8800982
3	0x3f636f9c	0.8884218
4	0x3f65b9ad	0.89736444
5	0x3f6842bb	0.9072682
6	0x3f6b8872	0.92005074
7	0x3f70415c	0.9384973
8	0x3f7f7ab5	0.9979661
9	0x3f7fce74	0.999244
10	0x3f7ff12f	0.9997739
11	0x3f7ff8b5	0.9998887
12	0x3f7ffac4	0.9999201
13	0x3f7ffbee	0.9999379
14	0x3f7ffd41	0.9999581
15	0x3f7ffd86	0.9999622
16	0x3f7ffdf0	0.9999685
17	0x3f7ffe10	0.99997044
18	0x3f7ffe10	0.99997044
19	0x3f7ffdd7	0.99996704
20	0x3f7ffde6	0.99996793
21	0x3f7ffde6	0.99996793
22	0x3f7ffe1d	0.9999712
23	0x3f7ffe43	0.9999735
24	0x3f7ffe1d	0.9999712
25	0x3f7ffe1c	0.99997115
26	0x3f7ffe2b	0.99997205
27	0x3f7ffe37	0.99997276
28	0x3f7ffe36	0.9999727
29	0x3f7ffe1c	0.99997115
30	0x3f7ffe06	0.99996984
31	0x3f7ffdf8	0.999969
32	0x3f7ffe09	0.99997
33	0x3f7ffe0e	0.9999703
34	0x3f7ffe0b	0.99997014
35	0x3f7ffde0	0.9999676
36	0x3f7ffdc1	0.9999657
37	0x3f7ffda8	0.99996424
38	0x3f7ffd92	0.9999629
39	0x3f7ffd6d	0.9999607
40	0x3f7ffd4e	0.9999589
41	0x3f7ffd3e	0.9999579
42	0x3f7ffd4d	0.9999588
43	0x3f7ffd4f	0.99995893
44	0x3f7ffd6a	0.99996054
45	0x3f7ffd73	0.9999611
46	0x3f5b6781	0.8570481
47	0x3f59b587	0.85042614
48	0x3f5820f0	0.8442526
49	0x3f569d76	0.83834016
50	0x3f5532c5	0.83280593
51	0x3f53a5b7	0.82674736
52	0x3f51ea58	0.81998205
53	0x3f4f9698	0.8108916
54	0x3f4bc5e7	0.7959885
55	0x3f4697a5	0.7757514
56	0x3f407fcd	0.7519501
57	0x3f3a41b4	0.72756505
58	0x3f35326d	0.7078007
59	0x3f33317e	0.69997394
60	0x3f3220cc	0.69581294
61	0x3f31d159	0.69460064
62	0x3f325c87	0.69672436
63	0x3f31d16b	0.6946017
64	0x3f33db73	0.7025673
65	0x3f362915	0.71156436
66	0x3f38ac4f	0.7213792
67	0x3f3bdab7	0.7338061
68	0x3f3b2c20	0.73114204
69	0x3f39ac99	0.7252899
70	0x3f38b379	0.72148854
71	0x3f3a075a	0.7266747
72	0x3f40086c	0.7501285
73	0x3f48eec4	0.7848933
74	0x3f52006f	0.8203191
75	0x3f59dd6b	0.8510348
76	0x3f604e48	0.8761945
77	0x3f672cae	0.9030255
78	0x3f6fb72a	0.9363886
79	0x3f77cab6	0.9679369
80	0x3f7cce29	0.98752075
81	0x3f7ead0a	0.99482787
82	0x3f7f6b31	0.99772936
83	0x3f7fc995	0.99916965
84	0x3f7ff543	0.99983615
85	0x3f7ffdf3	0.9999687
86	0x3f7ffe3f	0.99997324
87	0x3f7ffe23	0.99997157
88	0x3f7ffdc0	0.99996567
89	0x3f7ffd98	0.9999633

network_body.processors.0.normalizer.running_variance f4 [90]
0	0x47db1aa3	112181.27
1	0x47d00724	106510.28
2	0x47c33970	99954.875
3	0x47b46c22	92376.266
4	0x47a34b18	83606.19
5	0x478f80a6	73473.3
6	0x476e2f97	60975.59
7	0x472c6317	44131.09
8	0x44e6edb1	1847.4279
9	0x442a2299	680.5406
10	0x43413058	193.18884
11	0x42894d3e	68.65086
12	0x421e35a4	39.552383
13	0x41de6055	27.797037
14	0x41b59986	22.699963
15	0x41a4fdff	20.624022
16	0x418f22f1	17.892061
17	0x41838b8d	16.44314
18	0x41830b87	16.380629
19	0x4182fd3b	16.373648
20	0x417b2097	15.6954565
21	0x417a0046	15.625067
22	0x415cc1cd	13.797315
23	0x414e6639	12.899957
24	0x41557025	13.339879
25	0x4156334a	13.387522
26	0x41475dd8	12.460411
27	0x4139c35f	11.610198
28	0x4139ca94	11.611958
29	0x413db330	11.856247
30	0x414fd2ab	12.988933
31	0x414064a8	12.024574
32	0x41375a19	11.4594965
33	0x412366d4	10.2126045
34	0x412527a0	10.322174
35	0x4133dea3	11.241855
36	0x414b5bf7	12.709952
37	0x4154aa26	13.29154
38	0x4163358c	14.200573
39	0x4161658e	14.087294
40	0x415d8e6e	13.847273
41	0x416991a2	14.598055
42	0x414ff673	12.997668
43	0x414c0f60	12.753754
44	0x413ac198	11.672264
45	0x4132be84	11.171513
46	0x47e4a2ef	117061.87
47	0x47ecfd91	121339.13
48	0x47f46087	125121.055
49	0x47fabce9	128377.82
50	0x48000955	131109.33
51	0x4802280c	133280.19
52	0x48038628	134680.62
53	0x48037693	134618.3
54	0x4800b646	131801.1
55	0x47f72364	126534.78
56	0x47e8b3be	119143.484
57	0x47d6845f	109832.74
58	0x47c19307	99110.055
59	0x47b34ccc	91801.59
60	0x47a621c5	85059.54
61	0x479ac431	79240.38
62	0x47941756	75822.67
63	0x478b55a4	71339.28
64	0x47883fef	69759.87
65	0x4780b01e	65888.234
66	0x4764a4d1	58532.816
67	0x474b78b0	52088.688
68	0x472ae5ae	43749.68
69	0x471f9ba3	40859.637
70	0x470bc73a	35783.227
71	0x46f3f44a	31226.145
72	0x46dd3e22	28319.066
73	0x46d1380c	26780.023
74	0x46c987a9	25795.83
75	0x46bff7ff	24571.998
76	0x46a7ca8f	21477.28
77	0x46885bc8	17453.89
78	0x46407fc4	12319.941
79	0x45d56827	6829.019
80	0x4537705e	2935.023
81	0x44974ae2	1210.3401
82	0x43ede574	475.7926
83	0x430a72a2	138.44778
84	0x419c1436	19.509869
85	0x40d1fa2d	6.561789
86	0x40d887cc	6.766577
87	0x40e455ab	7.1354575
88	0x410d347f	8.825316
89	0x411aadb3	9.667407

network_body._body_endoder.seq_layers.0.weight f4 [128, 90]
0	0xbd9086ac	-0.070569366
1	0xbe1fa83a	-0.15591517
2	0xbe4c92ce	-0.19977877
3	0x3e223c52	0.15843323
4	0x3d8014b3	0.06253948
5	0xbdd1c458	-0.10242528
6	0xbe195f84	-0.14977843
7	0xbd5a4e73	-0.05329747
8	0x3dd0c4ff	0.10193824
9	0xbd5cf8cd	-0.053948212
10	0x3de09d99	0.10967559
11	0x3d01bc3e	0.031673662
12	0xbde66cb7	-0.112512045
13	0xbdc6716f	-0.096896045
14	0x3c8ea71f	0.017413674
15	0xbe3efaac	-0.18650311
16	0xbe06798f	-0.13132308
17	0xbe98dc85	-0.29855743
18	0x3e063142	0.13104728
19	0xbcbf0bfa	-0.02332114
20	0x3e2011e0	0.15631819
21	0x3bbe4f5b	0.0058077998
22	0xbcf60f04	-0.030036457
23	0x3e5cd454	0.21565372
24	0xbdd23c86	-0.1026545
25	0xbe5cd7b0	-0.21566653
26	0xbe3be577	-0.18349253
27	0xbe1d0307	-0.15333186
28	0x3d858342	0.06519176
29	0xbd7b43ad	-0.061343838
30	0x3c15f376	0.009152284
31	0x3d6e2402	0.05813981
32	0x3e5cb14d	0.2155201
33	0xbc0d3983	-0.008619669
34	0x3e397941	0.18112661
35	0xbcb32841	-0.02186978
36	0x3e46bc41	0.1940775
37	0x3e0d4b1e	0.13798186
38	0x3e0b3055	0.13592656
39	0xbe83b693	-0.2572523
40	0xbdebd64f	-0.115154855
41	0xbdf4c4b9	-0.11951584
42	0xbd650e19	-0.055921648
43	0xbe1b9d74	-0.15196782
44	0xbd9c3bf2	-0.07628621
45	0xbdc4ba3c	-0.09605834
46	0x3c999b56	0.018750828
47	0x3e6ee38b	0.23328988
48	0xbdb92106	-0.09039502
49	0xbc05017e	-0.008118032
50	0xbd8c6689	-0.068554945
51	0x3cfe60fe	0.031052109
52	0x3e1dacd6	0.15397963
53	0x3e3ad35b	0.18244688
54	0xbdad0865	-0.08448867
55	0x3e04bb66	0.12962112
56	0x3dd752a3	0.105138086
57	0xbbf493c4	-0.007463904
58	0x3e8e6ef2	0.2781902
59	0x3df5dccb	0.120050035
60	0xbd6f1613	-0.05837066
61	0x3d2376d9	0.039908264
62	0x3c9ab3a7	0.018884493
63	0x3e5d89bf	0.21634577
64	0x3e3fe751	0.18740584
65	0x3d7bd5a8	0.061483055
66	0x3dae9e8a	0.08526333
67	0x3d966d97	0.07345121
68	0x3dc4f9ad	0.096179344
69	0xbbc28e12	-0.0059373463
70	0x3e0832ae	0.13300583
71	0x3cd4448f	0.025911598
72	0xbe3ac6c0	-0.1823988
73	0x3d87c378	0.066290796
74	0xbd665edd	-0.056242812
75	0xbdb7caf7	-0.08974259
76	0x3c980f09	0.018561857
77	0x3cd8567e	0.02640843
78	0x3c90c8f9	0.017673956
79	0xbe0ec933	-0.13943939
80	0x3e2368ef	0.15957998
81	0x3cf93309	0.030419843
82	0xbd261acb	-0.040552896
83	0x3e0e3a51	0.13889433
84	0xbe043ae4	-0.1291309
85	0xbdbfba83	-0.09361746
86	0xbc46fb25	-0.012144838
87	0x3c05a5f5	0.008157243
88	0xbdfefeb2	-0.12450923
89	0x3e6849b8	0.22684371
90	0xbcc361d3	-0.023850357
91	0xbda79004	-0.08181766
92	0xbcbe1b98	-0.023206517
93	0x3e192bb2	0.14958075
94	0xbc9431f4	-0.018090226
95	0xbd6ab1db	-0.057298522
96	0x3d96b999	0.07359619
97	0x3b2b9003	0.0026178367
98	0xbe41020f	-0.18848442
99	0x3c869068	0.01642628
100	0x3e69fec4	0.22851092
101	0x3d99bfa1	0.075072534
102	0x3e05d4e7	0.13069497
103	0x3e3ceb91	0.18449236
104	0xbd8c8123	-0.068605684
105	0xbe30e9df	-0.17276715
106	0xbdfa856a	-0.12232478
107	0x3c706277	0.014671913
108	0xbb857510	-0.004072793
109	0xbe40499f	-0.18778084
110	0x3e07e59b	0.13271181
111	0x3d1391e7	0.036027815
112	0x3d4f5394	0.050616816
113	0x3d539243	0.051653158
114	0x3ce75c3f	0.028242229
115	0xbd1daeae	-0.038496666
116	0xbd290520	-0.041264653
117	0x3d39606e	0.04525798
118	0x3e7d09a5	0.2471071
119	0xbd43e34b	-0.047824185
120	0x3d53d542	0.05171705
121	0x3cd8d667	0.026469423
122	0xbd844079	-0.0645761
123	0xbcd4731f	-0.0259338
124	0x3d5db05e	0.054123275
125	0x3d8c5636	0.06852381
126	0x3daa0efa	0.08303638
127	0xbda01008	-0.07815558
128	0x3c3da4c4	0.011574928
129	0x3e44e9d9	0.19229831
130	0x3cafb3d6	0.021448057
131	0xbdf0c619	-0.11756534
132	0xbcb275c9	-0.02178468
133	0x3e187af6	0.14890656
134	0xbe3b6f35	-0.18304141
135	0x3dff7c20	0.12474847
136	0xbcf9716f	-0.030449597
137	0xbd9f8745	-0.077894725
138	0x3d3190c6	0.043350957
139	0x3d22b72b	0.039725464
140	0xbbf33853	-0.007422486
141	0xbe03986e	-0.12851116
142	0xbdfa1293	-0.12210574
143	0x3e143ffa	0.1447753
144	0x3e3e9c68	0.18614352
145	0xbe4805e0	-0.19533491
146	0xbde797ff	-0.11308288
147	0x3d97c665	0.07410888
148	0xbc3f0157	-0.011658034
149	0xbda4516b	-0.08023342
150	0xbcb5cda0	-0.022192776
151	0x3dee380b	0.11631783
152	0x3d729336	0.059222423
153	0x3e4e7ab8	0.20164001
154	0x3dc39b20	0.09551072
155	0x3dae21bd	0.08502529
156	0xbddd3a20	-0.10802102
157	0x3ca05baf	0.019574968
158	0xbe42c371	-0.19019867
159	0xbd0341a5	-0.032045025
160	0x3c0d9736	0.0086420085
161	0xbdcf879a	-0.10133286
162	0xbd0341c0	-0.032045126
163	0x3e84e2ed	0.2595438
164	0xbd4f7aee	-0.050654344
165	0x3df50842	0.11964466
166	0x3da738ba	0.081651166
167	0xbc788639	-0.01516872
168	0x3e92f070	0.28699064
169	0x3da94952	0.08265938
170	0xbdc6e0b3	-0.09710827
171	0x3deec767	0.11659127
172	0x3d26cb0c	0.040720984
173	0xbdccf737	-0.1000809
174	0xbe0e3155	-0.13886006
175	0xbdf4e695	-0.119580425
176	0xbdcf6585	-0.10126785
177	0xbe49e7c1	-0.19717313
178	0xbd090e92	-0.03346116
179	0xbd43c8b5	-0.04779883
180	0xbe25692e	-0.16153404
181	0x3e7b95e1	0.24568893
182	0x3e09e97f	0.13467978
183	0xb96ea3b1	-0.00022758429
184	0xbdba474e	-0.090956315
185	0x3d3f8347	0.046756055
186	0xbe4caabb	-0.19987004
187	0xbd12803e	-0.035766833
188	0xbcfcb83b	-0.030849567
189	0xbd6e3ae8	-0.058161646
190	0xbe2f30fc	-0.1710853
191	0xbe3a91c0	-0.18219662
192	0xba8bb16e	-0.0010657737
193	0x3cc29d1e	0.02375656
194	0x3df0b2d3	0.11752858
195	0xbcf9593d	-0.03043806
196	0xbc2be181	-0.010490776
197	0xbc575a26	-0.013144052
198	0xbe2cc17e	-0.16870686
199	0x3c14b896	0.009077212
200	0x3cb0e030	0.021591276
201	0xbde3a3de	-0.111152396
202	0xbd64eeef	-0.055891927
203	0xbe609283	-0.2193089
204	0xbe2eb075	-0.170595
205	0xbe2e5f85	-0.17028625
206	0x3c6bc740	0.014390767
207	0xbb97908d	-0.004625386
208	0x3d8ca41b	0.06867238
209	0x3c99a3c8	0.018754855
210	0x3e2e5444	0.17024332
211	0xbe70caf6	-0.23514923
212	0x3e3b7bf1	0.18308999
213	0xbdc2695a	-0.094927505
214	0xbdce516e	-0.10074125
215	0xbcdee7b4	-0.027210094
216	0x3e46d253	0.1941617
217	0x3e1c4abb	0.15262882
218	0x3e6862d0	0.22693944
219	0xbdce1594	-0.100627095
220	0x3cbf38d7	0.023342533
221	0xbe03682c	-0.12832707
222	0x3d3aeadf	0.045634147
223	0xbd909b5c	-0.070608824
224	0xbda4919c	-0.08035585
225	0xbda2915d	-0.07937882
226	0xbe505ff9	-0.2034911
227	0xbe2ceab3	-0.16886406
228	0xbd853a23	-0.06505229
229	0xbd9a1fe8	-0.07525617
230	0x3b4db3be	0.0031387652
231	0x3d4053af	0.046954807
232	0x3d94415e	0.0723903
233	0x3e61f9c6	0.22067937
234	0x3dd62150	0.104555726
235	0xbd3b6b4f	-0.045756634
236	0x3ecd2897	0.4007003
237	0x3dfe8def	0.124294154
238	0xbcc47500	-0.023981571
239	0xbd68bfd8	-0.05682358
240	0x3d80d503	0.06290629
241	0x3e3bc90d	0.18338414
242	0xbc36afee	-0.011150343
243	0xbdb64019	-0.088989444
244	0x3e59693e	0.21231553
245	0xbd296c16	-0.041362844
246	0x3e7db35d	0.24775453
247	0x3c967e23	0.018370694
248	0x3e8adc17	0.2712104
249	0x3d7f18ad	0.062279392
250	0xbe1baa16	-0.15201601
251	0x3d28cd1f	0.041211244
252	0x3ab196d2	0.0013548976
253	0x3e0582a8	0.13038123
254	0xbd9528e4	-0.0728319
255	0x3d3e85a5	0.046514172

network_body._body_endoder.seq_layers.0.bias f4 [128]
0	0xbd30efd3	-0.043197464
1	0x3d13ab82	0.036052234
2	0xbbf76360	-0.007549688
3	0x3d6f3e4d	0.058409024
4	0x3d048644	0.03235461
5	0xbc910f50	-0.017707497
6	0x3d663408	0.056201965
7	0x3cb21910	0.021740466
8	0xbc2b4470	-0.0104533285
9	0x3d0426cf	0.032263573
10	0x3a53dc18	0.0008081808
11	0x3d4206a0	0.0473696
12	0x3d5dad4c	0.054120347
13	0x3d1f2b1e	0.03885948
14	0x3d48072c	0.048834965
15	0x3d298f29	0.041396294
16	0xbd41a41e	-0.047275655
17	0xbd0afa4a	-0.0339301
18	0xbd78667f	-0.060644623
19	0x3d837e69	0.06420595
20	0xbbb89e28	-0.005634088
21	0x3d8587cd	0.065200426
22	0x3d4644eb	0.04840557
23	0x3cd16fed	0.025566066
24	0x3dae359a	0.085063174
25	0x3c675dea	0.014121512
26	0x3dba49f9	0.090961404
27	0x3d285e4f	0.041105565
28	0x3dca94c1	0.09891654
29	0x3cdefa01	0.02721882
30	0xbd3a0b69	-0.045421038
31	0xbcadba40	-0.021206975
32	0xbb9b6962	-0.004742787
33	0xbd4ddd15	-0.05025967
34	0x3ca41934	0.020031549
35	0x3cce4a90	0.025182039
36	0xbd7c7680	-0.061636448
37	0xbc5919ca	-0.0132507775
38	0xbd83cdd0	-0.0643574
39	0xbd3e0695	-0.046392996
40	0x3bbe5145	0.005808028
41	0x3d45e3ee	0.048313074
42	0x3be7606c	0.007061055
43	0xbd2f0db5	-0.04273768
44	0x3d7e5519	0.062092874
45	0xbcfec50f	-0.031099824
46	0xbd24f714	-0.040274695
47	0xbd5e0679	-0.05420539
48	0x3cef91af	0.029244272
49	0x3d494b4e	0.04914408
50	0xbd40d4f5	-0.04707809
51	0xbc788926	-0.0151694175
52	0xbc54f801	-0.012998582
53	0x3d7e4e8d	0.06208663
54	0xbcc94c7f	-0.024572609
55	0xbc8474a5	-0.016168902
56	0x3d3cf0b0	0.046127975
57	0x3d2af4dd	0.041737426
58	0xbcd9c303	-0.026582247
59	0xbccbc543	-0.024874335
60	0xbd01e3eb	-0.0317115
61	0xbd19e470	-0.03757137
62	0x3d67b66b	0.05657045
63	0x3d36240d	0.044467974
64	0x3d84f38b	0.06491765
65	0x3d31df7f	0.043426033
66	0xbbf1fabf	-0.0073846276
67	0x3b30919a	0.0026942254
68	0x3c496505	0.012292151
69	0xbd83ad09	-0.06429488
70	0x3d33397d	0.043755997
71	0x3d379af8	0.044825524
72	0xbdbd6bca	-0.09249075
73	0xbccbdae4	-0.024884649
74	0xbd5520b9	-0.05203316
75	0x3ba75fcf	0.005107857
76	0xbd18ecf8	-0.037335366
77	0x3ddcd3b5	0.107825674
78	0x3d56142d	0.052265335
79	0x3d0ebfaf	0.034850772
80	0xbce55b74	-0.02799771
81	0xbd542b29	-0.051798973
82	0xbbf00ca7	-0.007325727
83	0xbc1166a0	-0.008874565
84	0xbbc414bb	-0.0059839166
85	0xbcef6aaa	-0.029225666
86	0x3da6dc76	0.08147518
87	0x3cdbb06d	0.026817525
88	0x3cf3e8c1	0.029774072
89	0xbd0dacd3	-0.034588646
90	0xbcc39366	-0.023873996
91	0x3d696868	0.056984335
92	0x3d8510fd	0.06497381
93	0xbd7a8754	-0.061164215
94	0x3da04c77	0.078270845
95	0x3d77da25	0.060510773
96	0x3c065232	0.008198308
97	0xbc27bfde	-0.010238616
98	0x3da39494	0.079873234
99	0xbd197175	-0.037461717
100	0xbc0f5701	-0.008748771
101	0xbc6cb262	-0.014446827
102	0x3d4f22f1	0.050570432
103	0xbc55d0c7	-0.013050265
104	0xbcef9480	-0.029245615
105	0xbd40fb93	-0.04711492
106	0x3cf94e20	0.03043276
107	0x3d83dc17	0.06438463
108	0x3c1c4e6d	0.009540183
109	0x3bcf4686	0.0063255457
110	0xbcc03396	-0.023462098
111	0x3d018c8a	0.03162817
112	0xbd7d8fd3	-0.06190474
113	0x3abea8b5	0.0014546128
114	0xbcebbee8	-0.028777555
115	0xbc2ee569	-0.010674813
116	0xbd3ad7e9	-0.045616064
117	0x39024a14	0.00012425362
118	0xbd8204b5	-0.06348554
119	0x3da130fe	0.07870673
120	0xbcb85544	-0.022501595
121	0x3c8e9029	0.017402725
122	0xbb852ddc	-0.0040643048
123	0x3c8c52ed	0.017129386
124	0x3dc45620	0.095867395
125	0xbd2a0eb4	-0.04151793
126	0xbd7c2aba	-0.061564185
127	0x3d245b23	0.040125977

network_body._body_endoder.seq_layers.2.weight f4 [128, 128]
0	0xbd8aabce	-0.067710504
1	0x3d66cf60	0.056350112
2	0x3d30708a	0.043076076
3	0x3db648ab	0.08900579
4	0xbe0b42bd	-0.13599677
5	0xbe211e10	-0.15734124
6	0x3df42779	0.11921591
7	0x3df52476	0.11969845
8	0xbbc95820	-0.0061445385
9	0x3cad01f9	0.021119105
10	0x3d654f91	0.055984084
11	0x3d61e99f	0.05515444
12	0x3d6b97f2	0.057517953
13	0x3de09662	0.10966183
14	0x3df724ef	0.120675914
15	0x3d196a56	0.037454925
16	0xbe13e348	-0.1444217
17	0xbc7ad793	-0.015310186
18	0xbdb328fd	-0.08748052
19	0x3de29de3	0.11065271
20	0xbd15ebc9	-0.036601815
21	0x3e220553	0.15822344
22	0xbd471c57	-0.04861101
23	0xbdd58d20	-0.10427308
24	0x3e5cb627	0.2155386
25	0x3dbfe126	0.093691155
26	0x3e9e8ec3	0.30968294
27	0x3d7f46e5	0.06232347
28	0x3d6488b6	0.05579444
29	0x3d1d857b	0.038457375
30	0xbd7fca67	-0.062448885
31	0xbc801466	-0.015634727
32	0x3e0b86d1	0.13625647
33	0xbe1b8e0b	-0.15190904
34	0xbd53f9e4	-0.051751986
35	0x3db9b197	0.09067076
36	0xbdb8a855	-0.09016482
37	0x3dd768fd	0.10518072
38	0x3d5c757e	0.053822987
39	0xbe6315a2	-0.22176221
40	0x3d382048	0.04495266
41	0xbe042dfb	-0.12908165
42	0x3d9cefe4	0.07662943
43	0xbc87e092	-0.016586576
44	0xbd0bf617	-0.034170236
45	0x3da7cc82	0.08193304
46	0xbda2b8d0	-0.079454064
47	0x3d0892ff	0.03334331
48	0xbe03c9a9	-0.12869896
49	0x3d69b244	0.057054773
50	0xbde30130	-0.11084211
51	0x3d9b2f09	0.075773306
52	0xbe0bd9d7	-0.13657318
53	0x3d66669f	0.05625021
54	0x3cef7ac0	0.029233336
55	0xbd9c8f3f	-0.076445095
56	0xbcc619f9	-0.024182307
57	0x3d85c14e	0.065310106
58	0xbe895bf3	-0.26827964
59	0x3cecdf69	0.028915124
60	0x3d23c153	0.03997929
61	0xbd62b75a	-0.05535064
62	0x3d56a243	0.05240084
63	0x3deea8e8	0.1165331
64	0x3d69c1eb	0.0570697
65	0x3e7fc95c	0.24979156
66	0xbd69928c	-0.057024524
67	0x3d48790c	0.048943564
68	0xbdc3466a	-0.09534915
69	0x3d9042fe	0.07044028
70	0x3eb60fb4	0.35558856
71	0x3c892464	0.016740985
72	0xbd8b661c	-0.06806585
73	0x3d8a0d05	0.067407645
74	0xbcfb053e	-0.030642148
75	0xbe2e11a8	-0.16998923
76	0xbd6b3f16	-0.05743321
77	0xbd4f5ddf	-0.05062663
78	0x3e3eb931	0.18625332
79	0x3c8b4bd3	0.01700393
80	0xbd3a6c3f	-0.045513388
81	0xbe37c5b3	-0.1794651
82	0xbe3147da	-0.17312565
83	0xbdc0fe10	-0.094234586
84	0xbdb3ecaa	-0.087853745
85	0xbd51e212	-0.051240988
86	0x3d18d35d	0.037310947
87	0xbd9934a2	-0.07480742
88	0x3d3b29ee	0.045694284
89	0xbdce74b0	-0.1008085
90	0x3ce23bb5	0.027616361
91	0x3de0f4df	0.109842055
92	0xbdac877f	-0.08424281
93	0xbe5678e2	-0.2094455
94	0x3e881a95	0.2658278
95	0xbdada0e3	-0.08477952
96	0xbde98f91	-0.11404336
97	0xbe1a5eee	-0.15075275
98	0x3e89d17f	0.26917645
99	0xbdccb4dd	-0.099954344
100	0xbd5ca472	-0.053867765
101	0xbdc14485	-0.09436897
102	0x3e1e1191	0.15436389
103	0xbdab8d8b	-0.083766066
104	0x3d597a89	0.053095374
105	0xbc18f46d	-0.009335619
106	0xbd216b92	-0.039409228
107	0x3caa5b12	0.020795379
108	0x3c2bcc70	0.010485753
109	0x3e1b86bb	0.15188114
110	0xbca1a081	-0.019729855
111	0x3aa6b60e	0.0012719051
112	0xbe85b763	-0.26116475
113	0xbc584bd7	-0.013201675
114	0xbe1c9d45	-0.15294369
115	0x3dabe81f	0.08393883
116	0x3cdc59b6	0.026898246
117	0xbd60346e	-0.0547375
118	0xbdda505d	-0.10659859
119	0x3dae943c	0.08524367
120	0xbdb18ea8	-0.08669788
121	0xbdfc62ff	-0.123235695
122	0x3b2646a7	0.0025371702
123	0x3ce8ad39	0.028402911
124	0x3e1fc059	0.15600719
125	0x3c380d3e	0.011233626
126	0x3d13c612	0.036077566
127	0x3d704c6a	0.058666624
128	0xbaf8b5da	-0.0018975094
129	0xbe031c39	-0.12803735
130	0x3e036ebe	0.12835214
131	0x3d9d06e6	0.076673314
132	0xbb4057ee	-0.0029349285
133	0xbdbe7604	-0.092998534
134	0xbd1cc1af	-0.03827065
135	0xbb854118	-0.0040665977
136	0x3dffadfc	0.12484357
137	0xbc9b9684	-0.01899267
138	0x3e8aa9e0	0.2708273
139	0xbda512ab	-0.08060201
140	0x3e19f2db	0.15034048
141	0xbd9a6c6e	-0.075402126
142	0xbc3c9692	-0.011510508
143	0xbe252ecd	-0.16131134
144	0xbe27446d	-0.16334696
145	0xbccbf260	-0.024895847
146	0xbd195cda	-0.037442066
147	0xbd94af75	-0.07260028
148	0xbe0279da	-0.12741795
149	0xbe0a09cc	-0.134803
150	0x3e09c5e9	0.13454403
151	0xbdb242bb	-0.08704134
152	0xbde4f47f	-0.111794464
153	0x3c213e46	0.009841507
154	0xbdb0def5	-0.08636276
155	0xbe1da11a	-0.15393487
156	0xbb141e90	-0.0022601224
157	0xbce115bf	-0.02747619
158	0x3e6cdcd3	0.23131113
159	0x3d99ff6a	0.075194195
160	0xbcf9d620	-0.03049761
161	0xbd949e13	-0.07256713
162	0xbe013fc3	-0.1262198
163	0x3dae4411	0.085090764
164	0xbd653cb5	-0.055966098
165	0x3b005ab3	0.001958531
166	0xbcc29e64	-0.023757167
167	0xbcf4574d	-0.029826785
168	0xbd64fb92	-0.05590398
169	0xbe1ff1a1	-0.15619518
170	0xbe7f0b3d	-0.24906631
171	0xbd1181c7	-0.035524156
172	0x3e26b8e2	0.16281465
173	0x3da26a9f	0.079304926
174	0x3e082571	0.13295533
175	0x3cf946bb	0.030429235
176	0xbe3bfc87	-0.1835805
177	0xbe290867	-0.16507111
178	0x3d2db575	0.04240938
179	0x3b23f9a3	0.0025020621
180	0x3dc0de29	0.09417374
181	0xbdcf41f2	-0.1012
182	0xbda733c4	-0.081641704
183	0xbe17f0bc	-0.14837927
184	0xbd94829a	-0.07251473
185	0xbdc5f339	-0.09665532
186	0x3cc9faa6	0.024655651
187	0xbe4201a3	-0.18945937
188	0x3dc4cbf1	0.09609211
189	0x3d2260c7	0.039643075
190	0xbdc556d1	-0.096356995
191	0xbd150b15	-0.03638752
192	0x3cd4717f	0.025933025
193	0x3c2a1763	0.010381552
194	0x3d5d0eb0	0.053969085
195	0xbd216496	-0.039402567
196	0x3c5b0f27	0.013370312
197	0xbd9267f8	-0.07148737
198	0xbe1bfb60	-0.1523261
199	0xbe17e9bf	-0.14835261
200	0xbd588bee	-0.052867822
201	0x3e1258cc	0.14291686
202	0x3defc6b7	0.11707824
203	0x3d72a4f6	0.05923935
204	0x3e203172	0.15643862
205	0xbc270e67	-0.010196305
206	0xbe066adb	-0.131267
207	0xbdb2a3c6	-0.087226436
208	0x3d0d4279	0.03448722
209	0x3e218253	0.15772371
210	0xbd237d1b	-0.03991423
211	0xbe40cb72	-0.18827608
212	0xbcee75f3	-0.029108977
213	0x3e1ae54d	0.15126534
214	0xbd2357ed	-0.039878774
215	0xbdb16b37	-0.08663028
216	0x3d2795fb	0.040914517
217	0xbc1b6d46	-0.009486502
218	0xbdb38dae	-0.08767258
219	0xbe371330	-0.17878413
220	0x3d8476fb	0.06468006
221	0x3d6c4e4f	0.05769187
222	0xbe218567	-0.15773545
223	0xbe1df9b0	-0.1542728
224	0xbcd812c2	-0.026376132
225	0xbe23e590	-0.1600554
226	0xbdc81945	-0.09770445
227	0xbbc6b175	-0.006063635
228	0x3d2ffbca	0.042964734
229	0x3d883d03	0.06652262
230	0x3e183b09	0.1486627
231	0x3d16f441	0.036854032
232	0xbdb12a09	-0.08650596
233	0xbcc680a1	-0.024231257
234	0x3d4d59f7	0.050134625
235	0xbcda5fc3	-0.02665699
236	0x3cbab4b7	0.02279125
237	0xbe1b551b	-0.15169184
238	0x3c8ec2e0	0.017426908
239	0x3db41f8c	0.087950796
240	0x3d423313	0.04741199
241	0xbdb91101	-0.09036446
242	0xbd75d2a1	-0.060015325
243	0xbdfa0a82	-0.122090355
244	0x3c8aa05e	0.016922172
245	0xbaa1203c	-0.0012292932
246	0xbe233328	-0.15937483
247	0xbc170986	-0.009218579
248	0x3e1354c6	0.14387807
249	0xbdbd2b40	-0.09236765
250	0xbd609548	-0.054829866
251	0xbd33be92	-0.043882914
252	0xbc6e6372	-0.014550077
253	0xbe75c007	-0.23999034
254	0x3dd01d43	0.10161831
255	0x3c82e1b7	0.01597677

network_body._body_endoder.seq_layers.2.bias f4 [128]
0	0x3d9ad5b8	0.07560295
1	0xbbdba010	-0.0067024305
2	0xbd4926ce	-0.049109273
3	0xbcbcedfd	-0.0230627
4	0x3bf3c067	0.0074387076
5	0xbd19f6a0	-0.037588716
6	0x3c22921f	0.009922533
7	0xbc1f2852	-0.009714203
8	0xbcb94712	-0.022616897
9	0x3d9778a0	0.07396054
10	0x3cd6f76e	0.02624103
11	0xbd3545fd	-0.0442562
12	0xbc8dd832	-0.017315004
13	0x3d21384e	0.039360337
14	0x3d807dd0	0.06273997
15	0xbca72285	-0.020402202
16	0x3cfeeb20	0.031117976
17	0xbc7177ed	-0.014738065
18	0x3ca8c965	0.020603845
19	0x3d8c58f1	0.06852902
20	0x3d7b6679	0.061377022
21	0x3b9ca181	0.004779995
22	0xbb1398b0	-0.0022521429
23	0x3d89eec6	0.067349955
24	0xbc49bb6b	-0.01231275
25	0x3c593f55	0.013259728
26	0x3b409a8d	0.0029388994
27	0x3d715a92	0.058924265
28	0xbd69bb59	-0.057063434
29	0x3c9e5a3d	0.019330138
30	0x3bfd0130	0.007721089
31	0x3c1d4c07	0.009600646
32	0xbd0123f4	-0.03152843
33	0xbd0c478b	-0.034247916
34	0x3d893c19	0.06700916
35	0x3daa1e67	0.0830658
36	0xbc2c8365	-0.010529374
37	0x3d01cba4	0.031688347
38	0xbbab5dbd	-0.0052296803
39	0x3d1f964c	0.038961694
40	0xbb6ab98b	-0.0035816159
41	0x3d6af33c	0.057360873
42	0x3dbba022	0.09161402
43	0x3afa9b90	0.0019119848
44	0x3d5019f6	0.05080601
45	0xbd0c25c6	-0.03421571
46	0x3cc79f79	0.024368035
47	0x3ca662de	0.020310815
48	0xbcb328a9	-0.021869974
49	0xbcfbe2f5	-0.03074787
50	0xbcfe0b78	-0.031011328
51	0xbd03ccea	-0.032177843
52	0x3db9142b	0.0903705
53	0x3d0963df	0.03354251
54	0x3d8bbf71	0.06823624
55	0xbcbf0364	-0.023317046
56	0x3cf211fa	0.029549588
57	0x3d24f12a	0.040269054
58	0x3d6855f4	0.056722596
59	0x3d3f3a87	0.046686675
60	0xbc93515b	-0.01798313
61	0xbd286358	-0.041110367
62	0x3daea15d	0.08526871
63	0x3d122395	0.035678465
64	0x3d98068c	0.07423124
65	0x3d0502a6	0.03247323
66	0xbcf6f448	-0.03014578
67	0xb955755c	-0.00020356983
68	0x3b5502fc	0.0032503
69	0x3d1f38fb	0.0388727
70	0x3b0038ee	0.0019565183
71	0xbc410fa7	-0.011783517
72	0xbc51d26d	-0.012806517
73	0xbd2639d4	-0.040582493
74	0x3bf37c74	0.0074306075
75	0x3d0daf18	0.03459081
76	0x3d2c6804	0.042091385
77	0x3d6d4783	0.057929527
78	0xbc27b823	-0.010236773
79	0x3d59b371	0.053149644
80	0xba164a81	-0.0005733148
81	0x3c5b9a51	0.013403491
82	0xbcd305e0	-0.025759637
83	0x3cbc7df8	0.023009285
84	0x3d657a69	0.056024943
85	0x3d2e067a	0.042486645
86	0x3da80111	0.082033284
87	0x3cbf8cad	0.02338251
88	0x3d98ba06	0.07457356
89	0x3c0984ff	0.008393525
90	0x3c8620ae	0.016373005
91	0x3d0ce16b	0.034394663
92	0x3d015b48	0.031581193
93	0x3d951d7f	0.072810166
94	0xbd18bb79	-0.037288163
95	0xbc460a91	-0.01208748
96	0x3db4ad4e	0.08822118
97	0xbbb4ef7a	-0.005521712
98	0x3d7dc39c	0.061954126
99	0xbc218e78	-0.009860627
100	0xbbda15f8	-0.006655451
101	0xbd001bbc	-0.03127645
102	0xbc529293	-0.012852329
103	0x3cd7f604	0.026362427
104	0x3c9c14d6	0.019052904
105	0xbc06a628	-0.008218326
106	0x3c4c270b	0.01246048
107	0x3d034581	0.032048706
108	0x3d4a5a15	0.049402315
109	0xbcda84aa	-0.026674587
110	0xbcd28884	-0.025699861
111	0x3bfa74f7	0.007643338
112	0x3c104110	0.008804575
113	0xbd095a5b	-0.033533435
114	0x3a9a5678	0.0011775037
115	0xbd13d917	-0.036095705
116	0xbbbb3b0e	-0.005713827
117	0x3d12e456	0.03586229
118	0x3d2e6e26	0.042585514
119	0x3c7a0c5c	0.015261736
120	0xbd2925f2	-0.041295953
121	0x3ba901f2	0.0051577026
122	0x3d9d0855	0.07667605
123	0xbce55ecd	-0.027999306
124	0xbcb20137	-0.021729095
125	0xbd10272d	-0.03519361
126	0x3c89167f	0.01673436
127	0x3d9d01cb	0.076663576

action_model._continuous_distribution.log_sigma f4 [1, 2]
0	0x3d6360f1	0.055512372
1	0xbc7f0a49	-0.015566417

action_model._continuous_distribution.mu.weight f4 [2, 128]
0	0xbd0f9f35	-0.03506394
1	0x3d63e78a	0.055640735
2	0x3a13d9b6	0.00056400464
3	0xbd4e5a42	-0.050379045
4	0xbd767cec	-0.06017773
5	0x3cd76cdb	0.026297024
6	0x3dd12619	0.10212345
7	0x3d1e95aa	0.03871695
8	0x3d54b6fa	0.051932313
9	0x3c84080c	0.016117118
10	0xbd79a18d	-0.060945082
11	0xbd55f68a	-0.05223707
12	0x3cfd7b27	0.030942513
13	0xbb16353d	-0.0022919916
14	0x3d88c0cb	0.06677397
15	0xbcda410e	-0.026642349
16	0x3d053522	0.032521375
17	0x3ca13551	0.019678744
18	0xbd2dbfb7	-0.04241916
19	0x3da268c8	0.07930142
20	0xbd819c96	-0.063286945
21	0xbd5cf5f9	-0.053945515
22	0xbd20efa1	-0.039291028
23	0xbda2adbc	-0.079432935
24	0xbd806378	-0.06268972
25	0x3d8d1ab5	0.068898596
26	0x3da7171f	0.08158707
27	0xbda50967	-0.08058434
28	0xbd1b92b5	-0.037981708
29	0x3d55efbb	0.052230578
30	0xbd9ae472	-0.07563104
31	0x3d390a52	0.045175858
32	0x3cb9870a	0.0226474
33	0x3ce1e479	0.027574765
34	0xbbe408e1	-0.0069590663
35	0xbce31278	-0.027718768
36	0xbd82a986	-0.0637999
37	0xbd704d77	-0.058667626
38	0xbd35566b	-0.044271868
39	0xbd00a273	-0.031404924
40	0x3dac90ad	0.08426032
41	0xbd740026	-0.059570454
42	0xbd61c8b5	-0.05512305
43	0x3d5056e1	0.050864104
44	0xbd3c55c9	-0.04598025
45	0x3c9c1e39	0.01905738
46	0x3d5383e7	0.051639464
47	0x3d507e88	0.05090192
48	0x3c3c0803	0.0114765195
49	0x3d1d6e90	0.03843552
50	0x3cf91fc5	0.030410657
51	0xbd3e6ac9	-0.046488557
52	0xbd522da6	-0.051313065
53	0x3d59951d	0.05312072
54	0xbcccbe89	-0.024993198
55	0x3ce6fb18	0.028195903
56	0xbda4d9c8	-0.08049351
57	0xbd4fee75	-0.05076452
58	0xbca3f308	-0.020013347
59	0xbdab284d	-0.08357296
60	0xbd557fde	-0.052123897
61	0xbcd19f52	-0.025588665
62	0xbd95d87c	-0.07316682
63	0x3b9b3c83	0.004737438
64	0xbdc4945b	-0.09598609
65	0xbd88653e	-0.066599354
66	0x3cbe0d96	0.023199838
67	0x3d74a5a9	0.0597283
68	0x3da0dbb7	0.07854407
69	0xbc36ba44	-0.011152808
70	0x3d311256	0.043230377
71	0xbcb4b0b3	-0.022056913
72	0xbd3a48bc	-0.04547952
73	0x3c753fd0	0.014968827
74	0x3da0d74b	0.07853564
75	0xbd07b075	-0.033127267
76	0xbd8b1c38	-0.06792492
77	0x3c14f293	0.009091037
78	0x3d2cd3f3	0.042194318
79	0x3ca8d7e7	0.020610763
80	0x3d838254	0.064213425
81	0x3d9dd722	0.07707049
82	0x3c75d6de	0.015004842
83	0xbdb450a4	-0.088044435
84	0xbdaf9451	-0.08573211
85	0xbda19265	-0.07889251
86	0xbd95eb32	-0.073202506
87	0x3d9f10a2	0.07766844
88	0x3d75ffe9	0.060058508
89	0x3d2e144c	0.042499825
90	0x3d8da66b	0.06916507
91	0xbd2aa526	-0.041661404
92	0xbceb2b30	-0.028707117
93	0xbcff6b2e	-0.031179037
94	0x3b394648	0.002827065
95	0x3d2d2575	0.04227205
96	0xbd6f96bb	-0.058493357
97	0x3d6f6662	0.05844725
98	0x3c4771cc	0.012173127
99	0x3d5e851c	0.05432616
100	0x3d731b62	0.059352286
101	0x3cf6fca7	0.03014977
102	0x3bdb9efa	0.006702301
103	0x3d59b5a4	0.05315174
104	0x3d457e83	0.048216354
105	0xbd7d9dc4	-0.061918035
106	0x3d80b724	0.06284931
107	0xbe02075b	-0.12698118
108	0x3bbb0829	0.00570776
109	0x3cb46f0f	0.022025613
110	0xbc073fc2	-0.008254947
111	0x3d60ffd7	0.054931488
112	0xbdfc72e1	-0.12326599
113	0x3c54823b	0.0129705025
114	0x3d821c25	0.063530244
115	0x3c901bec	0.01759144
116	0x3d22dbff	0.039760586
117	0xbd15db73	-0.036586236
118	0x3db4bfa1	0.08825613
119	0xbbf40c67	-0.0074477675
120	0x3c9725ec	0.0184507
121	0x3db3ea43	0.08784916
122	0xbd144935	-0.03620263
123	0x3c8f8e69	0.017523961
124	0x3c8ba95c	0.01704853
125	0x3d4745b0	0.048650444
126	0x3c8f799a	0.017514039
127	0xbdd61758	-0.10453671
128	0x3df14ba5	0.11782006
129	0xbd52c43e	-0.051456682
130	0xbd237ac4	-0.039912
131	0xbdacbf3d	-0.08434913
132	0x3bf65561	0.007517502
133	0xbd7ed211	-0.062212054
134	0xbdc72954	-0.097246796
135	0xbd97d2ff	-0.07413291
136	0xbd687d8a	-0.05676035
137	0x3dd1902c	0.10232577
138	0x3d182d3a	0.037152506
139	0xbd2fbea4	-0.04290642
140	0xbd1848ed	-0.037178922
141	0x3d5393de	0.05165469
142	0x3dba3fb0	0.09094179
143	0x3cbb5b0e	0.022870567
144	0x3c9f0e73	0.01941607
145	0xbdc9a635	-0.098461546
146	0x3c86f717	0.016475243
147	0x3dc277fa	0.0949554
148	0x3db980e3	0.09057786
149	0x3d035dc9	0.032071862
150	0xbc27e8fa	-0.010248417
151	0x3d4f617c	0.050630078
152	0x3b41afce	0.002955425
153	0xbd998449	-0.074959345
154	0xbd95b537	-0.073099546
155	0x3d6ffe80	0.05859232
156	0xbbc61378	-0.0060448013
157	0xbd9904bb	-0.074716054
158	0x3d234c0b	0.039867442
159	0xbb73cfa0	-0.0037202612
160	0xbd25b095	-0.040451605
161	0xbd6ec992	-0.0582977
162	0x3d9c9383	0.07645323
163	0x3db6006a	0.08886798
164	0x3c26a61a	0.010171438
165	0x3ca65557	0.020304365
166	0x3c3b11bd	0.011417803
167	0x3d0bdf0b	0.034148257
168	0xbd84ddaf	-0.06487595
169	0x3db88647	0.09009986
170	0x3dbd64b1	0.09247721
171	0xbd0ab14b	-0.033860486
172	0x3da498ab	0.080369316
173	0xbd00bce2	-0.031430133
174	0x3d6097ee	0.05483239
175	0x3ccac68b	0.024752876
176	0xbd887334	-0.06662598
177	0xbd24cef0	-0.040236413
178	0xbd963c59	-0.07335729
179	0xbd45f035	-0.048324782
180	0x3d95225b	0.072819434
181	0x3d202697	0.039099302
182	0x3da6a7ba	0.0813746
183	0xbdc408d1	-0.09571994
184	0x3d0b7efe	0.034056656
185	0x3d8eda38	0.06975216
186	0x3d938d8f	0.072047345
187	0x3d645105	0.05574133
188	0xbd4936d2	-0.049124546
189	0xbca9108f	-0.020637779
190	0x3d741fe8	0.05960074
191	0x3d18bcc9	0.037289415
192	0x3ddf2dd8	0.10897416
193	0x3d431f93	0.047637533
194	0xbd17e75d	-0.03708588
195	0xbd233e86	-0.03985455
196	0xbd5f7e91	-0.054564063
197	0x3d10e5e1	0.03537548
198	0xbe06c0e1	-0.13159515
199	0x3cfe9014	0.031074561
200	0x3cb6da88	0.022321
201	0xbd477b7d	-0.048701752
202	0xbcb2a988	-0.021809354
203	0x3d377251	0.044786755
204	0x3d995e5f	0.07488703
205	0x3dad0b37	0.08449405
206	0xbd465f4b	-0.048430722
207	0x3d69d51b	0.057088
208	0xbd5ac790	-0.053412974
209	0xbdc47d11	-0.09594167
210	0xbd98ab36	-0.07454531
211	0x3d49e845	0.049293775
212	0x3d99a203	0.075016044
213	0x3d546601	0.05185509
214	0x3db047c7	0.086074404
215	0xbcf98e8c	-0.03046348
216	0x3daef363	0.08542516
217	0x3c8d9c2e	0.017286386
218	0x3c2a9861	0.0104123065
219	0x3d61a81c	0.055091962
220	0x3d2960e4	0.041352168
221	0x3d38cab6	0.045115195
222	0xbcc8133e	-0.024423238
223	0xbd487565	-0.04894008
224	0x3dc25637	0.094891004
225	0x3b219c1a	0.0024659694
226	0x3ddafe03	0.1069298
227	0xbd5ebe88	-0.054380924
228	0xbd648b8a	-0.055797137
229	0xbd306021	-0.043060426
230	0xbce7c8dc	-0.02829402
231	0xbdae181c	-0.08500692
232	0x3c91e1f1	0.017807933
233	0x3c14f5ff	0.009091853
234	0xbbae78f4	-0.0053244773
235	0x3d29fd13	0.041501116
236	0x3d607f1f	0.054808732
237	0x3bc9d226	0.006159085
238	0xbd54244a	-0.05179242
239	0xbdc3c7c1	-0.095595844
240	0x3abc4abe	0.0014365537
241	0xbd158f05	-0.036513347
242	0xbd5110a2	-0.051041253
243	0xbd3708d2	-0.044686146
244	0xbd55d5fa	-0.052206017
245	0x3d711b89	0.05886415
246	0x3cf7b964	0.030239768
247	0x3bfe2618	0.007756006
248	0xbd5864cf	-0.052830514
249	0xbd88ff07	-0.066892676
250	0x3dab51d8	0.0836522
251	0xbd69b272	-0.057054944
252	0xbdf312f6	-0.11868851
253	0xbdb00c01	-0.085960396
254	0x3cac8700	0.021060467
255	0x3e030d22	0.12797979

action_model._continuous_distribution.mu.bias f4 [2]
0	0xbb88825c	-0.0041659307
1	0x3d4f63a1	0.050632123

exp_avg f4 [128, 90]
0	0x385bbc0e	5.238881e-05
1	0x3852ced7	5.0260536e-05
2	0x3846df7e	4.7415022e-05
3	0x38420ad7	4.62633e-05
4	0x383a1586	4.43659e-05
5	0x3829f172	4.0517603e-05
6	0x383be315	4.479576e-05
7	0x380c8c84	3.3509466e-05
8	0x36dacbc0	6.520626e-06
9	0x3680b866	3.836164e-06
10	0x361088b7	2.153725e-06
11	0x35ee6ca7	1.7764004e-06
12	0x35e172f1	1.6797259e-06
13	0x35d11f1d	1.5580769e-06
14	0x359c2001	1.163222e-06
15	0x3593b7b9	1.1005824e-06
16	0x35841432	9.840644e-07
17	0x35816cd9	9.642928e-07
18	0x3581ac02	9.66131e-07
19	0x35909ac7	1.0773882e-06
20	0x358fb07b	1.0705693e-06
21	0x35900343	1.0729785e-06
22	0x35899676	1.0251085e-06
23	0x35831908	9.767546e-07
24	0x358bed3b	1.042535e-06
25	0x358bf772	1.0428323e-06
26	0x358c9593	1.0474345e-06
27	0x358dea15	1.0573445e-06
28	0x358e36c9	1.0595769e-06
29	0x3594bb1b	1.1081314e-06
30	0x3595fc37	1.1174769e-06
31	0x35a01af9	1.1928779e-06
32	0x359ea8b0	1.1821012e-06
33	0x35a65471	1.239254e-06
34	0x35a670f3	1.2400836e-06
35	0x35ad1e33	1.2898294e-06
36	0x35ac189c	1.2822161e-06
37	0x35af93a1	1.3081482e-06
38	0x35b01636	1.3119486e-06
39	0x35bb38b3	1.3949087e-06
40	0x35c5a480	1.472552e-06
41	0x362d4472	2.581885e-06
42	0x3630ebb6	2.6363246e-06
43	0x36319759	2.6463151e-06
44	0x36320943	2.6529458e-06
45	0x3632e280	2.6655907e-06
46	0x38500da0	4.9603754e-05
47	0x3850e801	4.9807135e-05
48	0x383301e7	4.2678697e-05
49	0x3824196d	3.9124327e-05
50	0x3835ee43	4.337566e-05
51	0x3832b47c	4.2606596e-05
52	0x375e989a	1.32677615e-05
53	0xb829d4ec	-4.049104e-05
54	0x353ea3de	7.1018974e-07
55	0x384eb6a0	4.928431e-05
56	0x3844325d	4.6776946e-05
57	0x3860b01b	5.3569773e-05
58	0x3882b2c6	6.232182e-05
59	0x386979a7	5.5664827e-05
60	0x38a0e5d4	7.672203e-05
61	0x3864468c	5.4425138e-05
62	0x384e8d1a	4.924564e-05
63	0x38ddba34	0.00010572784
64	0x390be6d3	0.00013342062
65	0x3824afb5	3.9264287e-05
66	0xb8aafed2	-8.153696e-05
67	0xb8dd532e	-0.000105535946
68	0xb9c3f158	-0.00037373113
69	0xb98247d1	-0.0002484904
70	0xb92f3868	-0.00016710314
71	0xb8d06338	-9.936694e-05
72	0xb90290e3	-0.0001245174
73	0xb929e32a	-0.00016201721
74	0xb9470fad	-0.00018983959
75	0xb95bc687	-0.00020959425
76	0xb955716e	-0.00020355519
77	0xb984af51	-0.00025307623
78	0xba54373f	-0.00080953905
79	0x3889225a	6.5390675e-05
80	0x37e0914c	2.677054e-05
81	0x37a94976	2.0180578e-05
82	0x37662f86	1.3720133e-05
83	0x371cb5c6	9.340647e-06
84	0x36a4a21b	4.9064524e-06
85	0x35d8dbed	1.6157261e-06
86	0x35b6a35c	1.36076e-06
87	0x35bcf212	1.4077543e-06
88	0x35cd2848	1.5285414e-06
89	0x35d30f85	1.5725242e-06
90	0xb7b2d15a	-2.131674e-05
91	0xb809f04b	-3.2887136e-05
92	0xb883a8fb	-6.278042e-05
93	0xb886b1e8	-6.4227555e-05
94	0xb6d4f626	-6.346748e-06
95	0xb8f24b1f	-0.000115534516
96	0x390b7b43	0.00013301992
97	0x37db92d9	2.6175216e-05
98	0x3705d17d	7.976193e-06
99	0x35e41cb5	1.6995679e-06
100	0x35801675	9.543279e-07
101	0x355321be	7.8652727e-07
102	0x3547a444	7.4372315e-07
103	0x35392f11	6.898636e-07
104	0x350a40d5	5.150335e-07
105	0x3502cf13	4.8730107e-07
106	0x34e9ebb6	4.3571134e-07
107	0x34e5385e	4.2695586e-07
108	0x34e5a831	4.277695e-07
109	0x35000d5f	4.7703173e-07
110	0x34fe7b96	4.7401107e-07
111	0x34ff0e99	4.7508072e-07
112	0x34f3ad0e	4.538819e-07
113	0x34e82efc	4.3247553e-07
114	0x34f7d22e	4.616026e-07
115	0x34f7e413	4.617328e-07
116	0x34f8fbce	4.6376812e-07
117	0x34fb5746	4.6815893e-07
118	0x34fbdecf	4.6914508e-07
119	0x3503b4a6	4.906418e-07
120	0x3474ae53	2.278769e-07
121	0x348c360d	2.611636e-07
122	0x3489a2f3	2.56368e-07
123	0x34972e0b	2.8159442e-07
124	0x34975f57	2.819531e-07
125	0x34a32fbe	3.0395853e-07
126	0x34a165b7	3.0062594e-07
127	0x34a78df3	3.1209456e-07
128	0x34a8773d	3.1379196e-07
129	0x34bc25a5	3.504512e-07
130	0x34ce9047	3.8475466e-07
131	0xb58a7cb6	-1.0318097e-06
132	0xb5874a4f	-1.007991e-06
133	0xb586b40f	-1.0036182e-06
134	0xb58650f6	-1.0007341e-06
135	0xb5859195	-9.951642e-07
136	0xb73cbfcd	-1.125033e-05
137	0x36f1194c	7.1853046e-06
138	0xb39bece3	-7.2608394e-08
139	0xb710896a	-8.615063e-06
140	0xb647dff4	-2.9783669e-06
141	0x35b3f364	1.3407375e-06
142	0x3724f6c0	9.832613e-06
143	0xb8fc7a78	-0.00012039108
144	0x39175127	0.00014430714
145	0x3968be5c	0.00022196159
146	0x39307fc1	0.0001683226
147	0x3977a64a	0.00023617703
148	0x398c9a09	0.00026817646
149	0x39cb7b26	0.0003881093
150	0xb84a30e8	-4.82061e-05
151	0xb8e6aa55	-0.000109989815
152	0x3898af4d	7.280577e-05
153	0xb90e1d1e	-0.00013553022
154	0x392ffe99	0.00016784146
155	0xb9041570	-0.00012596487
156	0xb8d00559	-9.919209e-05
157	0xb98551e5	-0.00025428753
158	0x38923944	6.972489e-05
159	0xb914e400	-0.00014199317
160	0xb9a8abfd	-0.00032171598
161	0xb9009602	-0.00012262914
162	0xb981120c	-0.00024618243
163	0xb9f34b6e	-0.0004640477
164	0xba0bb46a	-0.0005329313
165	0xba23791a	-0.0006236002
166	0xba862fec	-0.001023767
167	0xba52b1a0	-0.00080373324
168	0x39a916a7	0.0003225107
169	0x37494ee9	1.1998906e-05
170	0x377d5b06	1.5101168e-05
171	0x37184050	9.07488e-06
172	0x36cc7162	6.0928733e-06
173	0x368ad984	4.1380426e-06
174	0x3611c9de	2.1724186e-06
175	0x35400918	7.1538807e-07
176	0x3521bb36	6.02496e-07
177	0x35275117	6.233035e-07
178	0x3535ac6d	6.7678667e-07
179	0x34e66300	4.291287e-07
180	0xb88616db	-6.393875e-05
181	0xb88143d7	-6.1638355e-05
182	0xb867b4d9	-5.524312e-05
183	0xb8453e0c	-4.7026246e-05
184	0xb852b32e	-5.0234776e-05
185	0xb825047f	-3.9343253e-05
186	0xb7be6121	-2.2694994e-05
187	0xb78436a4	-1.576107e-05
188	0xb6894b03	-4.0916507e-06
189	0xb5b9ebd4	-1.3852209e-06
190	0xb550d9ce	-7.7802986e-07
191	0xb52be904	-6.4041546e-07
192	0xb5228dca	-6.0556033e-07
193	0xb516c80e	-5.617047e-07
194	0xb4e12343	-4.1935172e-07
195	0xb4d503ee	-3.96772e-07
196	0xb4be76e4	-3.5476762e-07
197	0xb4baa30e	-3.4763838e-07
198	0xb4bafe38	-3.4830168e-07
199	0xb4d086bb	-3.8841048e-07
200	0xb4cf352c	-3.8595442e-07
201	0xb4cfac9a	-3.868234e-07
202	0xb4c66851	-3.6956274e-07
203	0xb4bd0c62	-3.5213003e-07
204	0xb4c9c7d1	-3.7584553e-07
205	0xb4c9d6a2	-3.7595333e-07
206	0xb4cabaa3	-3.7761228e-07
207	0xb4cca584	-3.811839e-07
208	0xb4cd147a	-3.8199124e-07
209	0xb4d67a54	-3.9949612e-07
210	0xb392aac6	-6.829718e-08
211	0xb3ccf9ac	-9.544905e-08
212	0xb3c4a9f7	-9.157878e-08
213	0xb3f0dd0b	-1.12160784e-07
214	0xb3f181a4	-1.12460185e-07
215	0xb40bf9b2	-1.3036222e-07
216	0xb40905da	-1.2761248e-07
217	0xb4130b8a	-1.369464e-07
218	0xb414828e	-1.383107e-07
219	0xb4349381	-1.6817468e-07
220	0xb45297d9	-1.9613016e-07
221	0x3659cf5d	3.245622e-06
222	0x36588514	3.226397e-06
223	0x36584883	3.2228716e-06
224	0x3658203f	3.2205278e-06
225	0x3657d396	3.2160656e-06
226	0xb8a03d99	-7.640868e-05
227	0xb8a995bb	-8.0864374e-05
228	0xb8a5d2de	-7.90709e-05
229	0xb8a798d3	-7.991646e-05
230	0xb8addf6c	-8.2908984e-05
231	0xb8b66267	-8.696765e-05
232	0xb8e2ef48	-0.000108210894
233	0xb960ebac	-0.000214501
234	0xb973b377	-0.00023241142
235	0xb989a418	-0.00026252936
236	0xb944fff0	-0.00018787361
237	0xb9574bcb	-0.00020532233
238	0xb94d07a3	-0.00019553168
239	0xb9579883	-0.00020560813
240	0xb8a8cf9a	-8.049533e-05
241	0xb88acf6d	-6.618989e-05
242	0xb9045d7f	-0.00012623331
243	0x369323ee	4.385124e-06
244	0x3875fa05	5.86454e-05
245	0xb981bfe2	-0.0002474776
246	0xb8a7b051	-7.996022e-05
247	0x3878796a	5.9240883e-05
248	0xba1753fa	-0.00057727064
249	0x386719fa	5.5098884e-05
250	0x3889aaf3	6.564511e-05
251	0xb848d058	-4.787775e-05
252	0xb84885f4	-4.780847e-05
253	0xb51f2a83	-5.929398e-07
254	0x3861eaf8	5.3863012e-05
255	0x38d6605d	0.00010222264
