results/90RC1/Park90RC/Park90RC-8449862.pt (torch, 825364 bytes, 52 tensors)

network_body.observation_encoder.processors.0.normalizer.running_mean f4 [90]
00000000: 0145 263f c018 2c3f c5ba 313f 5b25 383f
00000010: 77ca 3e3f f7ca 483f 3aa6 713f a00f 7b3f
00000020: 88d9 7f3f 14e8 7f3f a1f2 7f3f c8f7 7f3f
00000030: ccf9 7f3f fcfa 7f3f 6ffc 7f3f b7fc 7f3f
00000040: 3bfd 7f3f 58fd 7f3f 6bfd 7f3f 2efd 7f3f
00000050: 48fd 7f3f 45fd 7f3f 7afd 7f3f affd 7f3f
00000060: 85fd 7f3f 89fd 7f3f 89fd 7f3f 79fd 7f3f
00000070: 5bfd 7f3f 27fd 7f3f fafc 7f3f c5fc 7f3f
00000080: b1fc 7f3f 6efc 7f3f a5fb 7f3f 6bf9 7f3f
00000090: 80f6 7f3f 98f3 7f3f abf1 7f3f dff0 7f3f
000000a0: dff0 7f3f eaf1 7f3f 08f4 7f3f caf6 7f3f
000000b0: 3efa 7f3f d5fb 7f3f 8831 203f 5dee 1a3f
000000c0: caa8 163f b84c 133f 7364 103f 02cd 0d3f
000000d0: c660 0b3f f6e1 083f 3309 063f 1afb 023f
000000e0: 181d 003f 012d fc3e 04ae fc3e 3b5c 013f
000000f0: 802b 053f 29a4 083f a8a1 0b3f 8912 0b3f
00000100: 174a 0b3f a6a8 0f3f c24e 153f aa70 1a3f
00000110: 47e3 1f3f ed92 263f 790d 303f a0e6 363f
00000120: 9893 3f3f 9ac5 4a3f 4cbf 583f 22e4 673f
00000130: a8dc 723f e087 783f 088c 7b3f bfc8 7d3f
00000140: f30e 7f3f 418b 7f3f 1dc9 7f3f eddf 7f3f
00000150: fbf2 7f3f 49fd 7f3f 7afd 7f3f 3ffd 7f3f
00000160: a3fc 7f3f 56fc 7f3f
0.6494904 0.67225266 0.6942561 0.71932 0.74527687 0.784347 0.94394267 0.98070717
0.999413 0.999635 0.999796 0.9998746 0.99990535 0.99992347 0.9999456 0.9999499
0.99995774 0.99995947 0.9999606 0.99995697 0.9999585 0.99995834 0.9999615 0.99996465
0.99996215 0.9999624 0.9999624 0.99996144 0.99995965 0.99995655 0.99995387 0.9999507
0.9999495 0.9999455 0.99993354 0.99989957 0.99985504 0.9998107 0.9997813 0.99976915
0.99976915 0.99978507 0.9998174 0.99985945 0.99991214 0.9999364 0.6257558 0.60519964
0.588513 0.5753894 0.56403273 0.5539094 0.5444454 0.5346979 0.52357787 0.511644
0.50044394 0.49253085 0.49351513 0.5053136 0.520195 0.5337549 0.5454354 0.5432516
0.5440993 0.5611671 0.583233 0.6032816 0.6245617 0.6506794 0.6877056 0.71445656
0.74834585 0.79207766 0.84666896 0.9058248 0.94867945 0.9708233 0.98260546 0.9913444
0.99632186 0.9982186 0.9991625 0.9995106 0.99980134 0.9999586 0.9999615 0.999958
0.9999487 0.9999441

network_body.observation_encoder.processors.0.normalizer.running_variance f4 [90]
00000000: fb87 7749 2105 7249 7666 6749 f685 5849
00000010: 6234 4449 965d 2749 4a74 6a48 e547 a047
00000020: 6999 ef44 4e27 3944 8211 7943 30a2 f342
00000030: 3619 b642 382c 9942 9539 8442 d022 7742
00000040: 4f36 5842 2bb8 5342 42f7 4642 b79c 4842
00000050: 6a2a 3b42 9a01 3b42 0fc9 3442 b0d5 2942
00000060: e51d 2b42 c8dc 2642 5791 2942 0083 2f42
00000070: db6f 3942 0b84 4142 3483 4b42 178f 5342
00000080: 948f 5542 2635 5e42 07ad 7142 8393 8642
00000090: 182b 9f42 2cd8 bc42 e91d d742 28b1 db42
000000a0: d7b8 e042 98c0 d842 843a bc42 f48a a542
000000b0: f0d5 8b42 68dc 7842 0c26 7849 36c9 7649
000000c0: 400a 7549 a201 7449 3b97 7249 415a 7049
000000d0: f5a4 6c49 1b13 6649 47e7 5a49 8bef 4b49
000000e0: de35 3b49 299d 2b49 379f 2349 a12c 2849
000000f0: 2a3b 2e49 a734 3049 a617 2e49 13a9 1a49
00000100: 4b70 0a49 4c0d 0749 40ad 0049 a739 e748
00000110: 4651 b948 669b 8648 b2d5 3548 d403 4848
00000120: 1be7 7948 89fa 8248 7e29 5548 cd8c 0848
00000130: 1164 9547 0096 2847 b800 c546 8c25 3f46
00000140: c5fb a245 b12a 0945 9668 4e44 6003 6a43
00000150: d63e 4842 4212 0c42 4931 1e42 2dbb 2f42
00000160: 53ec 4b42 57e9 5c42
1.0138877e+06 991314.06 947815.4 886879.4 803654.1 685529.4 240081.16 82063.79
1916.7941 740.61414 249.06839 121.81677 91.04924 76.586365 66.112465 61.783997
54.053036 52.92985 49.741463 50.15304 46.79142 46.751564 45.196346 42.45868
42.779194 41.715607 42.391933 43.87793 46.359234 48.37895 50.878128 52.889736
53.390213 55.551903 60.418972 67.28811 79.58417 94.42221 107.55842 109.84601
112.361015 108.37616 94.11429 82.77139 69.91785 62.21524 1.01641675e+06 1.0108354e+06
1.003684e+06 999450.1 993651.7 984484.06 969295.3 942385.7 896628.44 835320.7
766813.9 702930.56 670195.44 688842.06 713650.6 721738.44 713082.4 633489.2
567044.7 553172.75 527060.0 473549.22 379530.2 275675.2 186198.78 204815.31
255900.42 268244.28 218277.97 139827.2 76488.13 43158.0 25216.36 12233.387
5215.471 2194.6682 825.63416 234.01318 50.061363 35.01783 39.54813 43.93279
50.980785 55.22787

network_body.processors.0.normalizer.running_mean f4 [90]
00000000: 0145 263f c018 2c3f c5ba 313f 5b25 383f
00000010: 77ca 3e3f f7ca 483f 3aa6 713f a00f 7b3f
00000020: 88d9 7f3f 14e8 7f3f a1f2 7f3f c8f7 7f3f
00000030: ccf9 7f3f fcfa 7f3f 6ffc 7f3f b7fc 7f3f
00000040: 3bfd 7f3f 58fd 7f3f 6bfd 7f3f 2efd 7f3f
00000050: 48fd 7f3f 45fd 7f3f 7afd 7f3f affd 7f3f
00000060: 85fd 7f3f 89fd 7f3f 89fd 7f3f 79fd 7f3f
00000070: 5bfd 7f3f 27fd 7f3f fafc 7f3f c5fc 7f3f
00000080: b1fc 7f3f 6efc 7f3f a5fb 7f3f 6bf9 7f3f
00000090: 80f6 7f3f 98f3 7f3f abf1 7f3f dff0 7f3f
000000a0: dff0 7f3f eaf1 7f3f 08f4 7f3f caf6 7f3f
000000b0: 3efa 7f3f d5fb 7f3f 8831 203f 5dee 1a3f
000000c0: caa8 163f b84c 133f 7364 103f 02cd 0d3f
000000d0: c660 0b3f f6e1 083f 3309 063f 1afb 023f
000000e0: 181d 003f 012d fc3e 04ae fc3e 3b5c 013f
000000f0: 802b 053f 29a4 083f a8a1 0b3f 8912 0b3f
00000100: 174a 0b3f a6a8 0f3f c24e 153f aa70 1a3f
00000110: 47e3 1f3f ed92 263f 790d 303f a0e6 363f
00000120: 9893 3f3f 9ac5 4a3f 4cbf 583f 22e4 673f
00000130: a8dc 723f e087 783f 088c 7b3f bfc8 7d3f
00000140: f30e 7f3f 418b 7f3f 1dc9 7f3f eddf 7f3f
00000150: fbf2 7f3f 49fd 7f3f 7afd 7f3f 3ffd 7f3f
00000160: a3fc 7f3f 56fc 7f3f
0.6494904 0.67225266 0.6942561 0.71932 0.74527687 0.784347 0.94394267 0.98070717
0.999413 0.999635 0.999796 0.9998746 0.99990535 0.99992347 0.9999456 0.9999499
0.99995774 0.99995947 0.9999606 0.99995697 0.9999585 0.99995834 0.9999615 0.99996465
0.99996215 0.9999624 0.9999624 0.99996144 0.99995965 0.99995655 0.99995387 0.9999507
0.9999495 0.9999455 0.99993354 0.99989957 0.99985504 0.9998107 0.9997813 0.99976915
0.99976915 0.99978507 0.9998174 0.99985945 0.99991214 0.9999364 0.6257558 0.60519964
0.588513 0.5753894 0.56403273 0.5539094 0.5444454 0.5346979 0.52357787 0.511644
0.50044394 0.49253085 0.49351513 0.5053136 0.520195 0.5337549 0.5454354 0.5432516
0.5440993 0.5611671 0.583233 0.6032816 0.6245617 0.6506794 0.6877056 0.71445656
0.74834585 0.79207766 0.84666896 0.9058248 0.94867945 0.9708233 0.98260546 0.9913444
0.99632186 0.9982186 0.9991625 0.9995106 0.99980134 0.9999586 0.9999615 0.999958
0.9999487 0.9999441

network_body.processors.0.normalizer.running_variance f4 [90]
00000000: fb87 7749 2105 7249 7666 6749 f685 5849
00000010: 6234 4449 965d 2749 4a74 6a48 e547 a047
00000020: 6999 ef44 4e27 3944 8211 7943 30a2 f342
00000030: 3619 b642 382c 9942 9539 8442 d022 7742
00000040: 4f36 5842 2bb8 5342 42f7 4642 b79c 4842
00000050: 6a2a 3b42 9a01 3b42 0fc9 3442 b0d5 2942
00000060: e51d 2b42 c8dc 2642 5791 2942 0083 2f42
00000070: db6f 3942 0b84 4142 3483 4b42 178f 5342
00000080: 948f 5542 2635 5e42 07ad 7142 8393 8642
00000090: 182b 9f42 2cd8 bc42 e91d d742 28b1 db42
000000a0: d7b8 e042 98c0 d842 843a bc42 f48a a542
000000b0: f0d5 8b42 68dc 7842 0c26 7849 36c9 7649
000000c0: 400a 7549 a201 7449 3b97 7249 415a 7049
000000d0: f5a4 6c49 1b13 6649 47e7 5a49 8bef 4b49
000000e0: de35 3b49 299d 2b49 379f 2349 a12c 2849
000000f0: 2a3b 2e49 a734 3049 a617 2e49 13a9 1a49
00000100: 4b70 0a49 4c0d 0749 40ad 0049 a739 e748
00000110: 4651 b948 669b 8648 b2d5 3548 d403 4848
00000120: 1be7 7948 89fa 8248 7e29 5548 cd8c 0848
00000130: 1164 9547 0096 2847 b800 c546 8c25 3f46
00000140: c5fb a245 b12a 0945 9668 4e44 6003 6a43
00000150: d63e 4842 4212 0c42 4931 1e42 2dbb 2f42
00000160: 53ec 4b42 57e9 5c42
1.0138877e+06 991314.06 947815.4 886879.4 803654.1 685529.4 240081.16 82063.79
1916.7941 740.61414 249.06839 121.81677 91.04924 76.586365 66.112465 61.783997
54.053036 52.92985 49.741463 50.15304 46.79142 46.751564 45.196346 42.45868
42.779194 41.715607 42.391933 43.87793 46.359234 48.37895 50.878128 52.889736
53.390213 55.551903 60.418972 67.28811 79.58417 94.42221 107.55842 109.84601
112.361015 108.37616 94.11429 82.77139 69.91785 62.21524 1.01641675e+06 1.0108354e+06
1.003684e+06 999450.1 993651.7 984484.06 969295.3 942385.7 896628.44 835320.7
766813.9 702930.56 670195.44 688842.06 713650.6 721738.44 713082.4 633489.2
567044.7 553172.75 527060.0 473549.22 379530.2 275675.2 186198.78 204815.31
255900.42 268244.28 218277.97 139827.2 76488.13 43158.0 25216.36 12233.387
5215.471 2194.6682 825.63416 234.01318 50.061363 35.01783 39.54813 43.93279
50.980785 55.22787

network_body._body_endoder.seq_layers.0.weight f4 [128, 90]
00000000: 2367 dfbd e432 4fbe 5dc1 7dbe 6d7c ed3d
00000010: 236f 843c 7702 1dbe 11ae 65be 8d2a 0ebe
00000020: 9379 913d fa2e 5cbd 6fd4 cc3d e966 093d
00000030: d10a c1bd dc3b aabd a8f7 403d c532 17be
00000040: 0172 ecbd 59f0 93be 8e3c 073e b6a1 13bd
00000050: a45c 0f3e b00a 343b acc9 36bd 7b3d 5d3e
00000060: 0378 bebd b6c2 52be 0430 42be 2571 26be
00000070: 60b8 823d 0c3f b2bd 8cb2 d8bc 5241 133c
00000080: add0 5c3e 5028 56ba cd13 683e 94dd a33c
00000090: 7243 6f3e 39c5 363e c6f9 293e 3d47 6cbe
000000a0: 5207 f3bd 6d1f e0bd 6e36 89bd 9cf1 18be
000000b0: be0b afbd 0d58 1dbe 7c48 40bc 09c1 533e
000000c0: 8ce9 ddbd 64d0 b1bc 646e b9bd 222c 7a3c
000000d0: 3946 133e a036 333e 1940 babd 036f 093e
000000e0: c553 da3d df34 aabb 2385 773e 791e 913d
000000f0: 4a25 dcbd 7da9 3fbc bdd2 1d3d 6efa 663e
00000100: f0c9 613e c135 d83d 7a0c 273e 4b2a e93d
00000110: b5b9 033e a957 ea3c 21ef 0f3e 8b1a ebbb
00000120: 1e52 4dbe 90bd 0fbc b28f a8bd 9d9c 0abe
00000130: 09b2 06bd 1800 363d ffdb 8c3d c7f4 fbbd
00000140: facf 553e bcb2 9a3d 6653 a33c b3bb 4a3e
00000150: 4f2a 0dbe d239 b6bd 9a39 9dbc b5fd 88bc
00000160: 35c8 32be 27f2 363e 92b8 cfbc 6839 8ebd
00000170: ffa8 3cbc 4664 2b3e d85e 6cbb 907f 2cbd
00000180: fab7 b03d 4a15 e23c ba9d 4abe dd0a f33c
00000190: e5cf 843e 5147 cb3d e68b 1d3e 4de5 503e
000001a0: f91a 56bd 3c8f 1fbe 0545 debd 3389 f63c
000001b0: 71ce 213c 4d4a 31be 5f4f 1b3e 31c3 663d
000001c0: 404c 923d 0ae7 953d dee1 503d 3a65 01bc
000001d0: 1d4a c13c 694d cc3d 7c33 973e 8868 543d
000001e0: 7d98 1f3e f082 df3d c96a fabc 55aa 533c
000001f0: f56f 573d 4f6c 7b3d 18ba f33d 3261 0cbd
00000200: 6393 263d a07b 523e 361e b03c 7587 10be
00000210: 44cd febc 2a35 213e 91dc 21be 5d5e 563e
00000220: 4669 46bd fd0f 94bd 12a1 563d d69b 843d
00000230: aa4b 463d 7533 acbd 117f a8bd 46e1 323e
00000240: 45cc 423e 8ec3 4ebe 02db debd 159e b53d
00000250: 1f78 0d3d 9353 8fbc c7f1 5c3d 1763 1c3e
00000260: 41f2 623d 6ebf 553e 70b5 043e 1de2 1c3e
00000270: 79ff 69bd a926 883d ed20 57be d7b5 83bd
00000280: c536 43bd e3eb c5bd 595b e6bb 3349 aa3e
00000290: f8ed cf3c bb04 7f3e d14c 0f3e 9d6b c53d
000002a0: d42b c83e 3ff3 1a3e 5811 2c3c d154 333e
000002b0: 8b11 073e 7dee f03b 1c09 24bd bc8e 06bd
000002c0: b732 f5bc c9b6 edbd 84c1 403d 3f8e 113d
000002d0: b458 28be 56ba 683e 7c95 f73d a01d 2fbc
000002e0: 0f0e ccbd f913 243d 8efa 61be b8b3 89bd
000002f0: 7107 a3bc 0e6f 62bd daa6 4dbe 03ec 45be
00000300: 07d6 b7bb 09c8 543c 3863 e03d 14b1 1dbd
00000310: df25 f6bc da96 00bd ea2e 46be c343 86bc
00000320: e97e a6bc 4793 1abe 6d24 a6bd b1a4 79be
00000330: d916 54be 61f5 5cbe 646d 87bd de37 9abd
00000340: 1a75 e738 aea5 93bd aa14 b83d 5de9 9abe
00000350: b2d1 083e 904f 1cbe 88c3 05be dddf 2ebd
00000360: bfcc 183e 9f19 c13d 1cd0 4a3e bd1c 04be
00000370: 64f7 b83b 7d37 2ebe 0916 f73c a8d4 dcbd
00000380: bf2f fabd 9700 01be 6975 53be 7636 3abe
00000390: 0175 a6bd 148e ccbd 725f 14bd 1e1f 9c3c
000003a0: 1ebf 563d 22f4 593e 627c f93d c4c3 5cbc
000003b0: b090 d83e 7b18 0e3e 7ced 08bd c955 aebd
000003c0: 3409 c63b 6d4f 063e 85c3 d8bc 5f25 cebd
000003d0: 9f1b 563e ae54 67bd b8fd 7c3e d5d0 18bd
000003e0: 734a 9f3e eae8 c53d 115d c5bd a295 813d
000003f0: 2bd0 e03c dbdd e23d 1fa1 8cbd 3338 1d3c
-0.10908344 -0.20234257 -0.24780793 0.11595998 0.016166275 -0.15332972 -0.22429682 -0.1388342
0.071032666 -0.053755738 0.10001456 0.03354541 -0.09425891 -0.083121985 0.047111183 -0.14765461
-0.11545182 -0.28894308 0.13206694 -0.03604289 0.14000183 0.002747219 -0.044625923 0.21605484
-0.09300234 -0.20582089 -0.18963629 -0.16254099 0.06382823 -0.087034315 -0.026452325 0.008987742
0.21563978 -0.0008169459 0.22663803 0.020003118 0.23365572 0.17848672 0.16599187 -0.2307405
-0.118666306 -0.10943494 -0.06699835 -0.14935917 -0.085471615 -0.1536562 -0.011736032 0.20679106
-0.10835561 -0.021705814 -0.090542585 0.015269311 0.14382257 0.17501307 -0.09094257 0.13421254
0.10660509 -0.005194291 0.24171881 0.0708589 -0.107493 -0.011698124 0.038531054 0.22556469
0.2204969 0.10557128 0.16313353 0.1138502 0.1286381 0.028606253 0.14056064 -0.007174795
-0.20050856 -0.008773223 -0.08230533 -0.13536306 -0.03288463 0.044433683 0.068778984 -0.12302547
0.20880118 0.07553622 0.019937228 0.19798164 -0.1378567 -0.08897747 -0.019192506 -0.01672254
-0.17459185 0.17865811 -0.025356565 -0.06944543 -0.011514901 0.1673747 -0.0036067273 -0.04211384
0.08628841 0.027598042 -0.1978673 0.029668266 0.2593986 0.09925712 0.15385398 0.20399971
-0.052271817 -0.15581983 -0.10853008 0.030094719 0.00987588 -0.173135 0.15166996 0.056338493
0.0714345 0.07319458 0.050996654 -0.007897669 0.02359491 0.09975702 0.29531467 0.0518575
0.15585513 0.10913646 -0.030568497 0.012919028 0.052597005 0.061382588 0.11900729 -0.03427238
0.040667903 0.20554972 0.02149878 -0.14114173 -0.031103738 0.15742937 -0.15806796 0.20934434
-0.04844024 -0.07229612 0.052399702 0.06475036 0.048412003 -0.08408252 -0.08227361 0.17468747
0.19023235 -0.20191786 -0.10881616 0.088680424 0.034538385 -0.017495906 0.053941514 0.15272175
0.055406813 0.20873806 0.12959838 0.1532063 -0.057128403 0.06647999 -0.21008654 -0.064311676
-0.047659654 -0.096641324 -0.0070299325 0.33258972 0.025382027 0.24904148 0.13994147 0.09639666
0.39095938 0.15131854 0.010502182 0.17512824 0.13190286 0.007352649 -0.04004775 -0.032850966
-0.02993141 -0.11607129 0.04705955 0.035536047 -0.16440088 0.22727332 0.12089059 -0.0106882155
-0.09963619 0.04005811 -0.22068235 -0.06723732 -0.01990101 -0.05528169 -0.2008318 -0.19328313
-0.005610231 0.012987145 0.109564245 -0.038498953 -0.030047355 -0.031393863 -0.19353834 -0.016389733
-0.020324187 -0.15095244 -0.081124164 -0.24379231 -0.2071184 -0.2157798 -0.066126615 -0.07530187
0.0001103675 -0.07209335 0.08988316 -0.30256167 0.13361242 -0.15264726 -0.1306287 -0.04269396
0.14921854 0.09428715 0.1980595 -0.12901588 0.0056447256 -0.17013355 0.030161874 -0.107827485
-0.12216138 -0.12597881 -0.20650257 -0.18184838 -0.081277855 -0.09988037 -0.036223836 0.019057807
0.052428357 0.21284536 0.12181927 -0.013474409 0.42297888 0.13876526 -0.033429608 -0.08512456
0.0060435776 0.13116236 -0.026460418 -0.10065722 0.20908974 -0.05647724 0.24706161 -0.037308533
0.31111488 0.096635655 -0.09636892 0.06327368 0.027443012 0.11077472 -0.06866669 0.0095959185

network_body._body_endoder.seq_layers.0.bias f4 [128]
00000000: 925b fdbd c299 543d a1b5 21bd d7d0 213d
00000010: bec5 cb3d 1f58 a2bd 32a2 413d 077f 0c3e
00000020: 4a09 71bd dce2 a23d ee39 1d3c 2f90 183e
00000030: bf85 883d 2409 eb3b 0d9c 353d 77e9 293c
00000040: 5e0f 99bd 63d1 4cbd 8c1d dbbd 06ad 9abc
00000050: 36b1 bdbc 3840 ce3d 68b5 a93c 637f d43c
00000060: 45a8 803d 84a2 5a3d e693 e63d f5df 0f3e
00000070: 3749 fa3d 2b04 a43d 4db1 93bd 02e3 9cbd
00000080: b5b2 ccbc 8f3a 2dbd d848 4abd edc8 c13d
00000090: d9bd a3bd dc67 ecba 2541 13be 6c1f 97bd
000000a0: d04b 33bd 6992 893d 5a00 baba 1834 14bd
000000b0: ce89 a53d 1e43 a3bd b1e1 10be 2984 81bd
000000c0: d816 75bd 8c16 513d 9ac9 13be b80b 57bd
000000d0: 70f1 acbc 5b7e 9d3d edd2 9cbc a583 093c
000000e0: cf8c 573d 1189 393d a134 2dbd 47af d7bc
000000f0: 177a 75bd fcb8 08be 9cdb 383d 8969 593d
00000100: 583d 493e bf88 4e3d 5914 a5bd f839 91bc
00000110: 09e2 a5bc f02d edbd f95f 1c3c 45ac 8e3d
00000120: 550f 36be 2721 3a3d 080e f2bd be4d 673c
00000130: fa85 eabc b5e4 153e 2088 3b3e ef73 ae3c
00000140: cb58 aebd e6e6 b0bd f300 44bc 8b5a 89bd
00000150: 8337 abbc 2938 57bd 5514 a83d 8bfb 8e3d
00000160: 7baa 143d 14c8 7ebd e633 87bd 7795 b23d
00000170: 143f 3c3d 542f 1cbe 32c5 a73d 1058 863c
00000180: 1bce 3d3d 7769 e4bc f8c2 a43d 2f7f 95bd
00000190: 637e 39bd b2c9 11bd 9aed ff3d 0d4b d03c
000001a0: 23e9 fdbd 8880 cbbd 36ce fd3d 679b 273e
000001b0: ac77 e13c b8b4 bd3c f971 fbbb 9558 4c3d
000001c0: 71d1 dabd e54b 8c3d 9ac1 cfbd f1e3 6e3c
000001d0: cd96 a1bd 2055 edbc b564 0abe 5f53 a43d
000001e0: 3c7b 24bd 87ad f73c 8b58 483d 7ccb 27b9
000001f0: 5ad2 073e 8216 c6bd fba8 1ebd e205 b7bb
-0.12370981 0.051904447 -0.039479855 0.039505806 0.09949826 -0.07926964 0.047273822 0.13720332
-0.05884675 0.07953426 0.009596331 0.14898752 0.06666135 0.0071727205 0.044338275 0.010370604
-0.07473634 -0.050004374 -0.10698995 -0.018881332 -0.02315579 0.100708425 0.020716384 0.025939649
0.06282095 0.053377643 0.11258678 0.14050277 0.12220996 0.080086075 -0.07211552 -0.07660486
-0.024987558 -0.042292174 -0.049385875 0.09462152 -0.07995195 -0.0018036324 -0.1438032 -0.0737904
-0.043773472 0.06717379 -0.0014190779 -0.036182493 0.08082925 -0.07971786 -0.14148594 -0.06324036
-0.05983624 0.051046893 -0.14432374 -0.05250141 -0.02111122 0.07690116 -0.019143546 0.008393203
0.05262452 0.045296732 -0.04228652 -0.026328696 -0.059930887 -0.13351816 0.04513131 0.05307916
0.19652307 0.05042338 -0.08060522 -0.017727837 -0.020249384 -0.115810275 0.009544366 0.069664516
-0.17779286 0.045441773 -0.118190825 0.014117656 -0.028628338 0.14638026 0.18313646 0.021295516
-0.0851303 -0.086377904 -0.011963117 -0.06706723 -0.020900493 -0.052543793 0.08207003 0.06981572
0.036295395 -0.062202528 -0.06601696 0.087199144 0.045958593 -0.15252429 0.08191909 0.016399413
0.046339136 -0.02788232 0.08045 -0.07299649 -0.045286547 -0.035592742 0.12496491 0.025426412
-0.12397983 -0.09936625 0.12392847 0.16367875 0.027522884 0.023157462 -0.0076734987 0.049889166
-0.10684479 0.06850413 -0.101443484 0.014580713 -0.07890091 -0.028971255 -0.13514979 0.08023714
-0.040156588 0.030234111 0.048912566 -0.00016002165 0.13263837 -0.09672262 -0.03873537 -0.005585418

network_body._body_endoder.seq_layers.2.weight f4 [128, 128]
00000000: a1ea 85bd 873e a43d c6d6 993d b42c ae3d
00000010: 68e5 23be e8e7 c2bd e987 283e c8f8 403e
00000020: 2c6e 493c 28ed 483d 446d 073d 0d4e aa3d
00000030: 4597 b93d df01 d03d 83f9 f23d e37c 663b
00000040: 75d1 c5bd d15e 48bd c03f 7dbd 0234 433e
00000050: bc9b bf3b 87b6 423e 006a 09bd 7a0d b0bd
00000060: f9cf 4e3e 6ff5 f43d ed33 a53e 0ec3 a93d
00000070: cb4f 153e 21f9 af3d 5a7e e2bd 2e58 81bc
00000080: 7077 373e 5ca7 16be f6d4 b4bd ee22 0d3e
00000090: dfd3 0dbe 044a bd3d a2cc 82bc 2997 87be
000000a0: 879f c2ba d58f bcbd d1f3 0e3e e41a b03b
000000b0: 7386 9dbb 7d59 8e3d 7ca4 a8bd b9ba 3f3d
000000c0: 2781 e8bd 9563 853d 3842 c4bd de00 d43d
000000d0: 7911 2bbe 8be9 8e3d 7471 b03d 670e 80bc
000000e0: ab35 a93c c383 c83d ebf1 8bbe 89a5 513d
000000f0: 89a9 823d be0c acbd 005d f93d 6047 983d
00000100: a99b f63d 656c 8b3e bfcf 31bd ef6c 913d
00000110: a890 04be 656e 953d 912e ae3e a916 323d
00000120: 822c 9bbd e273 3dbd ff2b bfbc a635 04be
00000130: 0046 b4bd 7dbb 93bd 0952 8d3e 4c80 ba3c
00000140: f178 4ebd 94e1 13be 89f6 34be 7790 c3bd
00000150: 78a3 6bbd 7f5c f2bc 1434 833d a970 35bd
00000160: c74a df3c 8dc5 b6bd 21cd c43d 8f09 183e
00000170: ac3e aabd ae1f 5cbe 68b5 913e 52b9 89bd
00000180: c88f d4bd fd30 e3bd 71d2 943e 9c03 c1bd
00000190: 5c3d bcbc 8865 9ebd e8bc 343e ea2d 9839
000001a0: 38ad 0e3d efc2 8fbd 8ab0 613d f3c9 4c3d
000001b0: b18a a1bc c259 823e 9c54 e6bd 14a4 db3b
000001c0: bd49 99be 7806 9e3b 1de1 3abe 2892 c03d
000001d0: 8760 8d3d 40b4 debd 35e9 11be e501 0b3e
000001e0: 6045 a8bd 8e58 cfbd e1b1 00bd 30af 433d
000001f0: b936 523e 4230 8b3c 05ab 223c c376 323d
00000200: bdde f3bc ddcd 1abe af66 c83d 71b2 233d
00000210: 7c26 97bc d132 a2bd b424 95bd 4ef1 22bd
00000220: 6bff b83d 0992 863c 7753 ad3e 9f93 90bd
00000230: 8fc9 0d3e 173d 85bd 72ad 543c 3506 34be
00000240: 4414 68be f58c 87bd c6c4 d2bd a1d1 6fbd
00000250: f786 2fbe e8ab 06be a38d 093e 4fae 39be
00000260: d76f 02be f0ab 1ebd 8118 c2bd 25de 05be
00000270: a821 93bd 052b bfbd 6489 243e 3c9d 7b3d
00000280: 44c4 81bd 4d1c 74bd 4e22 e7bd 0fe8 103e
00000290: 00cf 23be fa61 9b3a 4557 adbc 803c d2bd
000002a0: fb9f 91bd 1131 17be 22b2 5dbe 2b59 25bd
000002b0: 0077 1e3e 8641 133d a8c1 d83d 3ece 393d
000002c0: f4c8 4bbe b780 63be 038e 973c 0e67 0fbd
000002d0: a31d 023e e236 02be 8b11 f23b be63 20be
000002e0: 5421 f8bd 5435 2fbe 9b68 153c 733b 58be
000002f0: f0dd 583d a3eb 173d 7ef4 0cbe 135d acbd
00000300: 315d 8b3d f29f e83a ab9a 33bc 8e7c 81bc
00000310: a906 65bd f8d1 9bbd 1384 15be e7f2 2bbe
00000320: 22c2 eebd dbba a63d b06e 8b3d 4ee5 da3d
00000330: 50b5 223e 49cf 4abd dba2 05be cbf1 ddbd
00000340: 03bd ce3c 6ec3 673e 27a1 43bd ca9d 25be
00000350: 427c 56bd 8776 f53d d2b3 d1bd 7320 c8bd
00000360: a99c b2bc 3249 0b3d ddb3 afbd f29c 1ebe
00000370: c141 863c 2c2b 623d 1d52 61be e26f fcbd
00000380: fe04 1ebd f81a 2ebe a0db 0ebe 26f9 043d
00000390: bcad 5a3c accd cb3c 972a ee3d 8d16 003e
000003a0: 9978 fabd f8e7 8fbc 6079 413c 903f 663c
000003b0: 2b9f 22bd 052e 51be faa9 af3d 7cea bf3d
000003c0: 389e 753c ed38 c7bd 7dd3 93bd 7da0 2bbe
000003d0: 6899 a03b 39f6 1cbd 5bdf 6cbe f08a e4bc
000003e0: 00a2 f53d d5e6 84bd e6b0 f1bd 8bab 15bc
000003f0: 9183 c7bd 9ce8 84be 4ef8 833d b2b3 6fbb
-0.065388925 0.08019739 0.07511668 0.0850462 -0.1600548 -0.09516889 0.16458096 0.18844903
0.012294333 0.049054295 0.03306319 0.08315668 0.090620555 0.10156607 0.11863997 0.0035169653
-0.096590914 -0.04891855 -0.061828375 0.19062808 0.0058474224 0.19014941 -0.033548355 -0.085963205
0.20196523 0.11960875 0.3226618 0.08289157 0.1458122 0.085924394 -0.11059256 -0.015789118
0.17916656 -0.1471228 -0.088296816 0.13782856 -0.13850354 0.09242633 -0.015966717 -0.26482514
-0.0014848568 -0.09207121 0.13960196 0.0053742994 -0.0048072874 0.06950662 -0.08234498 0.046808932
-0.11352759 0.065131344 -0.09582943 0.10351728 -0.16705884 0.069781385 0.086153895 -0.015631868
0.020655474 0.097907566 -0.27333006 0.051183257 0.063799925 -0.08400868 0.121759415 0.07435489
0.120414086 0.27231136 -0.043411013 0.071008556 -0.12945807 0.07296447 0.34019902 0.04347864
-0.075768486 -0.046253093 -0.023336409 -0.1291109 -0.08802414 -0.07213495 0.2760165 0.022766255
-0.050408307 -0.1444152 -0.1767217 -0.09549039 -0.057528943 -0.029585121 0.064064175 -0.044296894
0.027257336 -0.089243986 0.09609438 0.14847396 -0.08312735 -0.2149646 0.28458714 -0.067248
-0.103789866 -0.11093328 0.29066804 -0.094245166 -0.022978477 -0.07734209 0.17650187 0.00029025908
0.034833163 -0.070196025 0.0551 0.04999728 -0.019719454 0.25459105 -0.11246607 0.0067029092
-0.2993907 0.0048225485 -0.18249936 0.09402877 0.06903177 -0.10874224 -0.14249118 0.13574941
-0.08216357 -0.10124312 -0.03141964 0.047774494 0.20528688 0.016990785 0.00992847 0.04357029
-0.029769296 -0.15117593 0.0978521 0.039965097 -0.018450968 -0.07919849 -0.07282391 -0.039780907
0.09033092 0.016427057 0.3385274 -0.070594065 0.1384642 -0.065057926 0.012980806 -0.17580493
-0.2266398 -0.06618682 -0.10291438 -0.058549527 -0.17141329 -0.13151515 0.13432936 -0.181329
-0.12737976 -0.03873819 -0.0947733 -0.13073023 -0.07184154 -0.09334377 0.16068035 0.061429247
-0.06336263 -0.059597302 -0.1128584 0.14151023 -0.15996933 0.0011854761 -0.021159777 -0.10265446
-0.07110592 -0.14764811 -0.21649984 -0.04036824 0.15475082 0.03595116 0.10583812 0.045362704
-0.19900876 -0.2221707 0.018500334 -0.03501039 0.12706618 -0.12716249 0.007387345 -0.15663049
-0.12115732 -0.17110187 0.009119178 -0.21116428 0.05294603 0.037089955 -0.13765141 -0.0841619
0.06804884 0.0017747863 -0.010962169 -0.015806463 -0.055914555 -0.07608408 -0.14601164 -0.16791879
-0.11658122 0.081411086 0.06808221 0.10688268 0.15889478 -0.04951409 -0.13050406 -0.10837134
0.025236612 0.22633144 -0.04776111 -0.16173473 -0.052364595 0.11985498 -0.10239376 -0.09771814
-0.021803217 0.03400535 -0.08579228 -0.15489557 0.016388776 0.055216953 -0.2200398 -0.123260275
-0.03857898 -0.17002475 -0.13950968 0.03246417 0.013347086 0.024878345 0.11629217 0.12508602
-0.122300334 -0.017566666 0.011808723 0.01405324 -0.039702576 -0.20427711 0.08577342 0.09370896
0.014991336 -0.097276546 -0.072180726 -0.1676044 0.0049011 -0.038320754 -0.23132078 -0.027898282
0.1199379 -0.0648934 -0.11801319 -0.009135137 -0.09741891 -0.25958717 0.06443845 -0.0036575613

network_body._body_endoder.seq_layers.2.bias f4 [128]
00000000: 6675 0b3e fe1c d6ba 16a0 abbd 538d b2bd
00000010: 34d9 43bd fd46 3ebd c518 643d 0b9d 103c
00000020: 2dce 99bc 700c 363e d9b5 b33c 0534 0cbe
00000030: 3056 c8bb 73dd 383e 4b77 0e3e d9ed 52bd
00000040: be0d ca3d f406 b3bc 3808 febc 2029 5e3e
00000050: a9d0 583d cb4d 65bc 95e2 2fbd ff92 483d
00000060: b21e 10be fb1c 643d 09fe 363b 5955 e23c
00000070: 305e 6fbd eb8b dc3c ff32 83bc 0133 b33c
00000080: b93a 9ebc ed13 ffbb c43e d23d d898 0e3e
00000090: 9b7d 9fbd 3906 0fbd 78a9 8fbd 7d39 8f3c
000000a0: bf73 bc3c 3465 723d bda0 e83d e028 b43b
000000b0: db7f 703d 33a1 05bd 9221 073e acb8 913d
000000c0: 8ebb 24bd 50ec 94bc 8c2d 94bb 5dc0 0dbe
000000d0: 7e3c dc3d 9c1e f03d 3bd6 ac3d c10f 02bd
000000e0: a050 e5bc 231a 5a3d 1bd9 983d 6948 1a3d
000000f0: c2a3 85bd 0df9 8bbd 80f0 b93d 909d 873c
00000100: 7282 bc3d a87c f93b 0093 61bd f4ae 8d3c
00000110: ef57 e13c d9d9 a13d bc5d a139 c74e 23bd
00000120: ff6a 80bd 559c 01bd 71b3 3e3d 6733 253d
00000130: 54cf 0f3d ca71 223e 328c 683c 630d ca3d
00000140: 6b57 293c f657 aa3c 9372 1fbd bab0 42bb
00000150: 689b 3b3d 2080 e13c 8b93 b03d 8b65 703d
00000160: aefa 1a3e 6f32 813d c2b8 443d a8b4 653b
00000170: 64e8 ef3c 3b63 873d 3563 67bd d858 2ebc
00000180: 18aa 023e 9aba 833c 08c7 df3d 8871 833c
00000190: 350b ee3c 3afe 1fbd 735e 15bd 91c9 8f3d
000001a0: 6003 873d d234 51bd 9d41 d93c 4e5b edbb
000001b0: eaf0 a43d 6b30 aabc 7d61 103c 8aba 063d
000001c0: c6ca 9abd e4e6 c2bd f5fb ee3c 235a 63bd
000001d0: 6438 1ebb 5b38 213d fff5 163e 433e 5dbc
000001e0: a9f8 74bd 206a 5a3c f6b8 063e a800 ffbc
000001f0: 867c 1cbd a772 05bd fb73 a5ba c856 bb3d
0.13619003 -0.0016335545 -0.08380143 -0.08718362 -0.047814563 -0.04645442 0.055687685 0.008826504
-0.01877507 0.17778182 0.021937298 -0.13691719 -0.00611379 0.18053226 0.13912694 -0.05149636
0.09865902 -0.021853901 -0.031009778 0.21695375 0.05293337 -0.013995598 -0.042940695 0.04896831
-0.1407421 0.0556917 0.0027922413 0.027628588 -0.058439434 0.026922187 -0.016015528 0.021874906
-0.01931511 -0.0077843578 0.10265878 0.13925493 -0.07787629 -0.034918044 -0.070147455 0.017483467
0.02300441 0.059178546 0.113587834 0.0054980367 0.058715682 -0.032624435 0.131964 0.071153015
-0.04021793 -0.018179089 -0.004522031 -0.13842912 0.107537255 0.11724588 0.08439299 -0.031753305
-0.027992547 0.053247582 0.074632846 0.037666712 -0.06525375 -0.06834612 0.09079075 0.016554624
0.09204568 0.007613737 -0.05507183 0.017295338 0.02750775 0.07902879 0.0003077815 -0.03987005
-0.06270408 -0.03164323 0.046557847 0.040332224 0.035109833 0.1586372 0.014193581 0.098658346
0.0103357835 0.020793896 -0.038927626 -0.0029707388 0.045802504 0.027526915 0.086218916 0.05869059
0.15134689 0.063084476 0.04802776 0.0035050306 0.029285617 0.066107236 -0.056491096 -0.010641299
0.12760198 0.01608019 0.10926634 0.016045347 0.029058078 -0.03906081 -0.036467027 0.070208676
0.065924406 -0.051075764 0.026520545 -0.0072435504 0.08053763 -0.02077504 0.0088123055 0.03289274
-0.07558207 -0.09516695 0.029172877 -0.055505883 -0.0024142498 0.039360385 0.14742278 -0.013503614
-0.059807453 0.013330966 0.13156494 -0.031128243 -0.038204692 -0.032580044 -0.0012623066 0.091474116

action_model._continuous_distribution.log_sigma f4 [1, 2]
00000000: 471b 073e 520f e03d
0.13193999 0.10940422

action_model._continuous_distribution.mu.weight f4 [2, 128]
00000000: d309 69bd 7469 813d e027 1a3c ddc7 22bd
00000010: dc8f e4bd 5d96 753c aa57 fe3d 1444 473d
00000020: 5d6d 9f3d 1ce0 e23d 2b21 f3bd 96ec b1bd
00000030: 3ad7 9f3d 2c8f df3d bae0 253e 8c84 babd
00000040: b8ac 223d 96c7 ce3c 4bcd 62bd d838 6e3e
00000050: 5a7c e2bd 9e1a 00bd bff9 8cbd d4b3 e9bd
00000060: a517 49bb 8bc0 ce3d 9682 ac3d d9e2 f0bd
00000070: ebcb adbd d9f2 d33c 6c52 d7bd 607e 843d
00000080: 371d 3f3c d8f5 e23d dfe0 f0bc cf72 6dbd
00000090: fae2 d1bd 697f adbd 331f acbd 15e9 4cbd
000000a0: e993 bf3d d260 d6bd b851 a8bd 0a1a 413d
000000b0: 6a49 93bd a8df 1d3d edbf 2b3e f1a9 0d3e
000000c0: 0b9d 1a3d fc34 413d f5a8 9a3d 842c 5bbd
000000d0: 8ee1 a0bd 9930 1a3e 53f3 e7bc 43d2 e53c
000000e0: aa9e 08be b065 a4bd a8c8 3fbd 1407 1dbe
000000f0: f330 40bd d19b 53bd 0ce7 32be 530a 66bd
00000100: 2ad4 08be 6162 debd 5cf5 b83b 2e32 ab3d
00000110: 6396 c23d a778 45bd fff0 603d 5cdc 96bd
00000120: bfbb b9bd f89a 79bc 022b d93d 5a3a 56bd
00000130: 503a c7bd a5a1 d23d a3d4 743d e539 3f3d
00000140: 6595 8a3d 8124 963d 9165 a43c c00c 0bbe
00000150: b0a7 07be 9e6d 23be f70f e4bd b5ca c43d
00000160: 788a 463e c792 d83d a4fa c93d b055 d0bd
00000170: e144 e4bc 90ff 67bd 21fc a03d e4e9 4e3d
00000180: 2a66 b3bd 9957 eb3d a714 9d3b 071c a13d
00000190: ce3c bd3d 8cfc 8b3b 0fcb 4c3d 81c5 be3d
000001a0: 7310 0a3e 76a5 d1bd 219e 873d c323 24be
000001b0: bfa2 8abd 6d68 7d3c dc32 76bd a80d 9a3d
000001c0: 86af 00be 4e17 863c d110 7b3d a0e9 323d
000001d0: 0be8 703d d77f a6bd 096a 5b3e 8796 57bd
000001e0: f0f5 d13c e777 bc3d 0a51 82bd 1e6a 0a3d
000001f0: 0951 ec3c 3b26 903d a136 8d3c 81c1 f9bd
00000200: 93f3 023e 7714 83bd e079 2fbd 2d15 b9bd
00000210: b320 83bb aa76 b33c b91e c5bd 539c d7bd
00000220: d3d6 82bd df3d 703e 6b3e 1c3d 316c 07be
00000230: e958 bcbd 7304 c33d 0ce1 313e 0126 c93b
00000240: 9d7c 483d 8c13 9cbd 4260 e1bc 4595 2d3e
00000250: e84d 9d3d 91f9 213d b37c adbd 9576 243d
00000260: 7f74 51bc e4d5 91bd 5053 bfbd 98c5 df3c
00000270: 2c85 b4bd daf5 77bd 9239 d33c 0044 5bbd
00000280: fe78 a6bd f829 f7bd 42fc c03d 359a d83d
00000290: 4289 5dbd 8592 2039 73c9 973b e859 bf3c
000002a0: 8865 54bd bd2a b43d b4bb f33d 28c0 a2bd
000002b0: 368c a23d 0df4 babd e0f0 e03d d0d0 a93d
000002c0: dfa3 40bd a5ab 54bd d55a debd 018e edbd
000002d0: 04cc 5d3d 81d9 c23d b3b6 c33d 562b afbd
000002e0: 8534 afbc ef95 b33d 3606 883d cb7a 003e
000002f0: 7966 85bd fd24 b2bd d2b9 b73d b320 873c
00000300: 6f5d 003e 9407 473d 7ca3 3dbc 0b2f eabd
00000310: 4131 5fbd 1659 273d dde8 10be 2775 343d
00000320: 4bd4 e93c e243 babd 1b6d c8bb b575 173d
00000330: 8c8c b73d a726 2d3e 25a8 66bd c62e 113e
00000340: ce90 70bd 6d30 cebd 2a1f 96bd 26ef 703d
00000350: 4897 b63d 31a9 d03d 20d5 bf3d be78 7dbd
00000360: 3446 3e3e 5994 8e3d a165 8abd 0b2a 843c
00000370: e983 033d bf28 133d a7d8 6ebb 9de0 1bbd
00000380: 1500 ee3d fd68 19bd b32f 2a3e 6208 61bd
00000390: 51e0 94bd 36e0 9fbd 5772 97bd a38a c5bd
000003a0: 397b d53c fcfa 3abc aa52 033b 79ea 2e3d
000003b0: 65b3 9c3d d25c 143b dc03 34be 12a0 a2bd
000003c0: 8b86 23bd d9fa 49bd 8313 38bd 2fbd 5bbd
000003d0: 9e8d 2fbd c850 353d f0e3 843d 50e1 b5ba
000003e0: 3703 28bd 5e27 a2bd 0b47 d73d d16f 0fbd
000003f0: 6fd7 dcbd eecf a2bd f6ad 403d fce7 253e
-0.056894135 0.06318942 0.009408921 -0.039741386 -0.111602515 0.014989463 0.12419064 0.04864891
0.07784531 0.11077902 -0.11871561 -0.08687703 0.07804723 0.1091598 0.16199008 -0.091073126
0.0397155 0.025241654 -0.055371564 0.23263872 -0.110588744 -0.031275384 -0.06883573 -0.114112526
-0.003068426 0.100953184 0.08423345 -0.11762018 -0.0848616 0.025872635 -0.105137676 0.064694166
0.01166468 0.11082047 -0.029404102 -0.057970818 -0.102483705 -0.08471567 -0.08404388 -0.05002697
0.093543835 -0.10467686 -0.082187116 0.047143973 -0.07191737 0.038543373 0.16772433 0.13834359
0.037747424 0.04716967 0.07551757 -0.05350925 -0.07855521 0.15057601 -0.028314268 0.028054362
-0.13341776 -0.08027208 -0.04682222 -0.15334731 -0.04692168 -0.05166227 -0.1747095 -0.05616219
-0.13362184 -0.10858608 0.0056444835 0.083591804 0.0950134 -0.048210766 0.05491733 -0.07366249
-0.09069013 -0.015234701 0.10603906 -0.052301742 -0.09727919 0.102847375 0.0597731 0.046686072
0.06766776 0.07331181 0.020067962 -0.13579082 -0.13247561 -0.15959784 -0.111358576 0.09608976
0.19388759 0.105748706 0.09862259 -0.101725936 -0.027864875 -0.056640208 0.0786059 0.050516024
-0.087597206 0.11491317 0.0047937217 0.07866674 0.09240113 0.0042720493 0.04999834 0.09315015
0.13482837 -0.10236637 0.066219576 -0.16029267 -0.067693226 0.015466792 -0.060107097 0.07522136
-0.12566957 0.016368534 0.061295334 0.043679833 0.058815043 -0.08129852 0.21427168 -0.05263379
0.025629967 0.09202557 -0.06363113 0.033792607 0.028847234 0.07038542 0.017237963 -0.12195111
0.12788229 -0.06400388 -0.04284084 -0.09037242 -0.004001701 0.02190717 -0.096250005 -0.10527863
-0.06388631 0.23461102 0.038145464 -0.13224865 -0.09196646 0.09522333 0.17371005 0.0061385636
0.048946965 -0.07620916 -0.02751172 0.16951473 0.07680875 0.039544646 -0.0847105 0.04015215
-0.0127841225 -0.071208745 -0.093420625 0.0273159 -0.08814463 -0.060537197 0.025784288 -0.053531647
-0.08128546 -0.12068552 0.09423114 0.10576288 -0.054085977 0.00015313372 0.004632169 0.0233583
-0.05185464 0.08797214 0.11901036 -0.07946807 0.07936899 -0.0912858 0.10983443 0.08291781
-0.04703128 -0.051921505 -0.108571686 -0.11599351 0.054149643 0.09514142 0.095563315 -0.085531875
-0.021387348 0.08768832 0.0664181 0.12546842 -0.06513686 -0.08698461 0.08970989 0.016495084
0.12535642 0.04859121 -0.011574622 -0.11434754 -0.05449033 0.040856443 -0.1415133 0.044057038
0.028543612 -0.09094979 -0.006116522 0.03697749 0.08962354 0.16909276 -0.0563127 0.14177999
-0.058731847 -0.1006783 -0.07330163 0.05882182 0.08915573 0.10188521 0.09366822 -0.061882727
0.18581468 0.06961889 -0.067576654 0.016133329 0.03210822 0.03592753 -0.0036445053 -0.038056005
0.116211094 -0.03745364 0.16619758 -0.054939635 -0.072693475 -0.07806437 -0.073948555 -0.096455835
0.026059734 -0.011412378 0.0020038285 0.04270408 0.07651404 0.0022638333 -0.17579597 -0.07940687
-0.039923232 -0.049311493 -0.044940483 -0.053647216 -0.042859666 0.044266492 0.06488788 -0.0013876352
-0.04101869 -0.07917665 0.10511597 -0.035018746 -0.10783278 -0.07949816 0.047040902 0.16201776

action_model._continuous_distribution.mu.bias f4 [2]
00000000: f989 653d 001a 853d
0.056039784 0.064991

exp_avg f4 [128, 90]
00000000: 8e1a 41ba d17c 2dba b05c 20ba bc86 19ba
00000010: 7c5b 0eba 7537 feb9 03e2 49b9 b9cd cbb8
00000020: a6b8 deb7 22d0 deb7 fcc1 d6b7 b6c0 bcb7
00000030: 94c8 a4b7 5e46 91b7 a65c 5eb7 34e1 53b7
00000040: 98f8 3eb7 ce17 39b7 1f99 39b7 6fe4 49b7
00000050: e97d 49b7 5572 4ab7 cd49 3eb7 4b38 34b7
00000060: 8642 40b7 0f78 41b7 62eb 3fb7 ce6c 41b7
00000070: 1ae7 44b7 c78d 4fb7 9ee2 56b7 eb30 61b7
00000080: b18d 65b7 2bd8 72b7 7a08 8eb7 2164 cbb7
00000090: 12f7 06b8 40d0 21b8 0325 2fb8 94f2 36b8
000000a0: 7ae3 34b8 937c 2bb8 c55c 1cb8 7550 00b8
000000b0: 3f8b aeb7 35f1 85b7 6346 5aba 730a 6bba
000000c0: 2204 7cba 2f18 88ba c044 8fba 0c16 96ba
000000d0: fa94 95ba 2236 7bba 2743 6cba 5edb 5aba
000000e0: 3261 4bba 26b9 30ba 41ab 05ba 0939 23ba
000000f0: 8d12 74ba 2072 8eba 3b0c 65ba b1ca 73ba
00000100: 4b9e 71b9 7b9c f0b9 ce6b f6b9 ae1d 08ba
00000110: 2369 97b9 f1b3 7236 0482 8f39 b5e0 b539
00000120: e966 8d39 b332 b039 ff58 ce39 8c81 2e3a
00000130: d7c8 80b9 418e 5938 8f6c 1539 5e6c 9a39
00000140: 940a f837 fce9 88b8 33f3 89b8 ecaf 7db8
00000150: dc36 69b8 5594 68b7 656c 4bb7 03a2 52b7
00000160: 5bcc 6eb7 71f3 79b7 ead7 f439 bb11 b439
00000170: bcfa aa39 a256 b939 bb4f 5f39 e97c b738
00000180: f92d f938 5a90 1838 09c6 ae37 73d8 ae37
00000190: 3d86 a837 241e 9437 fe4e 8137 fbff 6337
000001a0: d47d 2e37 0c44 2637 cddb 1537 ed3e 1137
000001b0: 6ca4 1137 c36d 1e37 3f1d 1e37 13dd 1e37
000001c0: a152 1537 046c 0d37 bcde 1637 a7d1 1737
000001d0: 4d9a 1637 bdc8 1737 6583 1a37 19df 2237
000001e0: d69f 2837 3bb6 3037 8c22 3437 8c90 3e37
000001f0: 81e9 5e37 d09a 9f37 ced1 d337 c8f4 fd37
00000200: 7670 0938 0090 0f38 57f2 0d38 a291 0638
00000210: af66 f537 a761 c937 c8f7 8837 c536 5237
00000220: a1e1 c039 6a99 9c39 0ddc 9439 92fd 9c39
00000230: 1130 9c39 3384 a439 9b1a a239 1bb3 9a39
00000240: 6143 7c39 3c3f 8239 7f67 7039 f8ec 9139
00000250: 302e e038 034c 9939 c85d 5139 9211 013a
00000260: 149b 9139 c553 8839 7bcf 58b9 dd7a 80b9
00000270: 2f3f 8038 cc60 edb9 5d8f 9fb8 e63c e9b9
00000280: 9f37 1238 1d47 51b9 78ad 47b9 c403 e0b9
00000290: 5e4d c5b9 6ca0 73ba 3d9d 0fba 931d 34ba
000002a0: a290 7cba a682 08b8 23c3 2038 4d36 6938
000002b0: 643a 5138 0cb2 6e38 f301 3738 6782 3637
000002c0: 53a1 1f37 a649 2537 aa63 3b37 3424 4437
000002d0: 6183 74b9 5dd4 43b9 dbf1 58b9 39b3 66b9
000002e0: c13e 5ab9 5fd3 29b9 58f2 58b8 9287 1cb7
000002f0: 4b3d 19b7 724d 19b7 9cc2 13b7 37de 01b7
00000300: acc0 e2b6 5de8 c7b6 f9fd 98b6 acc7 91b6
00000310: e864 83b6 21b3 7eb6 1165 7fb6 8de8 8ab6
00000320: ffa1 8ab6 294a 8bb6 a3ec 82b6 79fe 77b6
00000330: ee47 84b6 e81c 85b6 f20b 84b6 2015 85b6
00000340: b379 87b6 b9cd 8eb6 15d9 93b6 49f0 9ab6
00000350: aaf0 9db6 af15 a7b6 5872 c3b6 85f0 0bb7
00000360: 7cb8 39b7 63aa 5eb7 9d02 71b7 6abf 7bb7
00000370: 0cea 78b7 f2f9 6bb7 202a 57b7 9391 30b7
00000380: 012f f0b6 1950 b8b6 a710 41b9 bec0 2ab9
00000390: 9fb8 30b9 3826 43b9 58ea 49b9 1198 56b9
000003a0: bbb9 60b9 57ac 88b9 4d13 60b9 91c2 68b9
000003b0: 951c 61b9 57e5 3eb9 8c50 d4b8 36cb 12b9
000003c0: d0dd fdb8 e168 3eb9 d88b c8b8 e484 f5b8
000003d0: ed65 edb8 b1d6 cfb8 5331 28b9 0423 dd38
000003e0: eb0a 97b9 8414 0cb9 f6d1 b1b9 883b 56b9
000003f0: 95c0 24b9 f356 9ab8 7b4a feb8 1db2 52b7
-0.00073663227 -0.00066180254 -0.0006117327 -0.0005856564 -0.00054305024 -0.00048487974 -0.0001925305 -9.718113e-05
-2.6550446e-05 -2.6561382e-05 -2.5601119e-05 -2.2501084e-05 -1.9643725e-05 -1.7318114e-05 -1.32538025e-05 -1.2629014e-05
-1.1382763e-05 -1.1032402e-05 -1.1062511e-05 -1.203372e-05 -1.2009849e-05 -1.2066758e-05 -1.1342066e-05 -1.0741943e-05
-1.14595805e-05 -1.153165e-05 -1.14392915e-05 -1.15290295e-05 -1.1736318e-05 -1.2371172e-05 -1.2808157e-05 -1.3422435e-05
-1.3682454e-05 -1.4474655e-05 -1.6931666e-05 -2.4246112e-05 -3.217819e-05 -3.857934e-05 -4.175772e-05 -4.36181e-05
-4.31272e-05 -4.0885596e-05 -3.7279697e-05 -3.059251e-05 -2.0807258e-05 -1.5967156e-05 -0.00083265285 -0.00089660956
-0.0009613653 -0.0010383184 -0.0010930523 -0.0011450662 -0.0011412196 -0.00095829566 -0.0009012692 -0.00083487283
-0.00077583187 -0.00067414565 -0.0005099066 -0.00062264554 -0.00093106256 -0.0010867752 -0.0008737479 -0.0009299918
-0.0002304252 -0.00045892954 -0.00047001097 -0.0005192411 -0.00028879297 3.616555e-06 0.00027371955 0.0003469043
0.0002697029 0.0003360711 0.0003935769 0.0006656877 -0.000245637 5.1869316e-05 0.00014250189 0.0002945391
2.956883e-05 -6.528568e-05 -6.5779685e-05 -6.048374e-05 -5.560262e-05 -1.3862814e-05 -1.21249805e-05 -1.2554697e-05
-1.4233486e-05 -1.4898237e-05 0.00046700175 0.00034345486 0.00032611738 0.00035350496 0.00021296639 8.749386e-05
0.00011881808 3.6374062e-05 2.0834634e-05 2.0843208e-05 2.008967e-05 1.765701e-05 1.5414782e-05 1.35898545e-05
1.0400505e-05 9.910214e-06 8.932268e-06 8.6573245e-06 8.680956e-06 9.44309e-06 9.424343e-06 9.469007e-06
8.900331e-06 8.429404e-06 8.992556e-06 9.049115e-06 8.976623e-06 9.047039e-06 9.209708e-06 9.707896e-06
1.0050795e-05 1.0532846e-05 1.073688e-05 1.1358537e-05 1.3286598e-05 1.9026367e-05 2.5250858e-05 3.0273935e-05
3.2768083e-05 3.4227967e-05 3.3842716e-05 3.208372e-05 2.9254092e-05 2.400654e-05 1.6327846e-05 1.2529727e-05
0.000367892 0.0002986894 0.0002839271 0.00029943563 0.0002979045 0.00031379014 0.0003091887 0.00029506613
0.00024057693 0.00024842646 0.00022926739 0.0002783311 0.000106897554 0.00029239067 0.0001996673 0.00049235777
0.00027772097 0.00026002355 -0.00020676658 -0.00024505603 6.1152845e-05 -0.00045276282 -7.608414e-05 -0.00044486596
3.4860914e-05 -0.00019958285 -0.00019042741 -0.00042727415 -0.0003763241 -0.0009293619 -0.00054784474 -0.0006870862
-0.0009634589 -3.2546603e-05 3.8328708e-05 5.56021e-05 4.9883864e-05 5.690944e-05 4.3632415e-05 1.0878407e-05
9.5147e-06 9.851914e-06 1.1169273e-05 1.169094e-05 -0.00023318596 -0.0001867576 -0.00020689463 -0.00022001275
-0.00020813478 -0.00016195838 -5.1724113e-05 -9.3298895e-06 -9.1337815e-06 -9.137542e-06 -8.807194e-06 -7.740738e-06
-6.757755e-06 -5.957713e-06 -4.5595193e-06 -4.3445816e-06 -3.9158513e-06 -3.7953216e-06 -3.805679e-06 -4.139793e-06
-4.1315793e-06 -4.151156e-06 -3.90185e-06 -3.695399e-06 -3.9422803e-06 -3.967074e-06 -3.935297e-06 -3.966168e-06
-4.037481e-06 -4.255879e-06 -4.406213e-06 -4.6175305e-06 -4.7069816e-06 -4.979512e-06 -5.8247642e-06 -8.341046e-06
-1.1069813e-05 -1.3271902e-05 -1.4365328e-05 -1.5005333e-05 -1.4836445e-05 -1.4065286e-05 -1.2824807e-05 -1.0524312e-05
-7.1580293e-06 -5.492952e-06 -0.00018412118 -0.00016284265 -0.00016853445 -0.00018610887 -0.00019256154 -0.0002046528
-0.00021431495 -0.00026068345 -0.00021369495 -0.00022197726 -0.0002146832 -0.00018205248 -0.00010123951 -0.00013999347
-0.00012105296 -0.00018158882 -9.562791e-05 -0.00011707263 -0.00011320026 -9.9105186e-05 -0.00016040103 0.000105446234
-0.000288091 -0.00013359083 -0.00033916504 -0.00020430807 -0.00015712001 -7.359488e-05 -0.00012125537 -1.2558446e-05

exp_avg_sq f4 [128, 90]
00000000: 8aff f136 df87 d836 1fa9 c536 939a b236
00000010: 32a0 a236 5f31 8936 207d 7135 f1fd fc34
00000020: fb44 f532 51c2 7b32 b107 5232 4ee0 2732
00000030: dfa0 0932 a451 e731 c019 a931 6506 9d31
00000040: 6c53 8e31 3656 8a31 ffc8 8a31 18e9 9531
00000050: cabc 9531 3a61 9631 559f 8a31 c9e6 8131
00000060: 59cb 8931 02ac 8a31 8bba 8931 0fb0 8b31
00000070: 9107 9231 d634 9531 1b6d 9a31 551b a231
00000080: 8c89 a531 5cab b031 aad8 9931 c721 1b32
00000090: f185 8732 a407 c232 a6e2 e232 2673 f632
000000a0: a1dc f032 25a1 d832 8060 b432 f5a9 7332
000000b0: 34c5 e331 7d39 8331 ea06 0937 d0b5 1837
000000c0: d031 2637 5982 3137 267a 3b37 2fe2 4437
000000d0: 5c45 4e37 fdfd 5737 5e0b 6437 8222 7237
000000e0: 352c 8137 feae 8637 69be 8337 c087 6737
000000f0: dcd2 4a37 172d 3b37 34ef 1937 23ab 1a37
00000100: f3ff 0a37 08a8 e336 6394 b036 618c 8d36
00000110: e293 8536 3cbe 9236 d3b9 9c36 342c 7236
00000120: 2572 4036 ae10 1d36 b498 2e36 c898 6936
00000130: 54d1 7b36 870b 5b36 49bd 3736 bfa6 0b36
00000140: fb6d a835 6440 0135 54e0 2f34 f66a ba33
00000150: fc46 9633 0d1c ba32 2532 1731 ff16 2231
00000160: 6c66 5031 868d 6431 c1f6 a737 4a8e 9737
00000170: bf03 8b37 8374 7d37 9ed5 6737 9be9 4137
00000180: 6f67 2136 f997 9635 357b 6333 1fe9 0033
00000190: 88b2 f032 94fb b932 6f12 8e32 ec1b 5d32
000001a0: 1aa9 0132 77d2 ea31 2942 bf31 0bb4 b331
000001b0: 0406 b531 7554 d631 54e3 d531 22d6 d731
000001c0: 8573 be31 fadb aa31 6e86 c231 0725 c531
000001d0: 321e c231 3eeb c631 fd43 d131 4dc2 e531
000001e0: 0e2b f731 d801 0832 ff53 1332 764b 2b32
000001f0: 520e 6232 8a31 df32 3912 4133 b399 8933
00000200: 1a83 a033 730c ae33 0910 aa33 5dcd 9833
00000210: 5e56 7d33 b8be 2933 1210 9d32 da4c 3832
00000220: c567 bc37 c155 cf37 7ead e037 48c3 ec37
00000230: 69a6 f837 07d7 0138 62f7 0738 2f4d 0e38
00000240: 8cb4 1638 3eb8 2138 8ba9 2c38 260c 3538
00000250: 5472 2d38 8374 1838 3b81 0638 2d99 f837
00000260: da36 ce37 ae99 bc37 a857 bf37 a2fe 9a37
00000270: 3d8f 7837 f620 6037 f831 5537 99d1 7037
00000280: 35ec 8937 a886 6037 a65c 2e37 642a 0837
00000290: 0ebd 0737 564e 0b37 193d e536 5f43 ae36
000002a0: 7918 5836 170c e635 1682 8035 35c8 be34
000002b0: 5269 3b34 7458 4a34 c388 1234 4cdb 3f32
000002c0: 6095 d431 a1e8 e331 ba75 1232 ef74 2032
000002d0: 35dd 5036 ecf1 3a36 f39b 2b36 fe93 1b36
000002e0: 11a0 0d36 da96 ee35 9cc7 cf34 2987 5f34
000002f0: 1510 9532 f288 4d32 1cfa 4732 c7c2 3632
00000300: 5eda 2832 6d96 1e32 05e8 0f32 c29d 0c32
00000310: 1216 0932 6c23 0832 5540 0832 5bf5 0a32
00000320: f2bb 0a32 57e3 0a32 b26c 0632 698c 0232
00000330: 9e75 0432 29ac 0432 dd69 0432 acd3 0432
00000340: 87b7 0732 c193 0f32 69cc 1b32 f6b3 2732
00000350: 5255 6932 eda3 8932 6496 6032 daae 7d32
00000360: 4b0b 9732 900d ad32 22ab b632 0b8d 9b32
00000370: cb14 8932 9b1c 5b32 1abf 2e32 29bd d331
00000380: da87 4431 997b e730 7227 6c36 5952 8336
00000390: b7e3 8e36 1759 9836 b2e3 a036 8608 a936
000003a0: f2cb b036 e1b7 b836 768d c236 620c ce36
000003b0: f3e7 dd36 3d2a e836 ec35 e036 1a14 bf36
000003c0: 873b a136 bd05 8e36 8a7b 5936 eb40 5436
000003d0: eb0b 5836 ef5b 3536 ec91 1c36 6d06 0436
000003e0: 7689 0436 ed2d 1736 36cf 2836 c06f 0836
000003f0: 69fd da35 cc1b bd35 5416 da35 5dde 2536
7.2121084e-06 6.453119e-06 5.890746e-06 5.322808e-06 4.8466254e-06 4.0886657e-06 8.9961577e-07 4.7123424e-07
2.8553123e-08 1.4654305e-08 1.2225358e-08 9.77168e-09 8.011027e-09 6.7322663e-09 4.921475e-09 4.5700284e-09
4.142228e-09 4.0261297e-09 4.039179e-09 4.3629704e-09 4.3579336e-09 4.376628e-09 4.0344426e-09 3.7806314e-09
4.0103427e-09 4.0358836e-09 4.0084323e-09 4.065448e-09 4.2500194e-09 4.3424775e-09 4.4943937e-09 4.717928e-09
4.8177693e-09 5.1417555e-09 4.477518e-09 9.0298675e-09 1.5776978e-08 2.2588047e-08 2.641293e-08 2.8690533e-08
2.8040008e-08 2.521899e-08 2.0998641e-08 1.4183105e-08 6.628989e-09 3.8191375e-09 8.167446e-06 9.1022375e-06
9.905969e-06 1.0580371e-05 1.11745085e-05 1.1735173e-05 1.2294706e-05 1.2874135e-05 1.3592506e-05 1.44323585e-05
1.5398584e-05 1.6055532e-05 1.5705084e-05 1.380028e-05 1.2089233e-05 1.1156567e-05 9.1752045e-06 9.218961e-06
8.285034e-06 6.7846886e-06 5.2624832e-06 4.2184697e-06 3.9809247e-06 4.3732853e-06 4.670795e-06 3.608654e-06
2.867667e-06 2.3404532e-06 2.6016905e-06 3.4808636e-06 3.752376e-06 3.2640253e-06 2.7379303e-06 2.0809673e-06
1.2548984e-06 4.8149946e-07 1.6379755e-07 8.680756e-08 6.997831e-08 2.1666006e-08 2.2001896e-09 2.3587174e-09
3.0326204e-09 3.3258813e-09 2.0022855e-05 1.8066861e-05 1.6571836e-05 1.5107103e-05 1.381841e-05 1.1558087e-05
2.4051076e-06 1.1220101e-06 5.2964612e-08 3.0014345e-08 2.8020864e-08 2.1651239e-08 1.6539358e-08 1.2870242e-08
7.5472375e-09 6.8342234e-09 5.566353e-09 5.230054e-09 5.268477e-09 6.2378214e-09 6.22496e-09 6.2816676e-09
5.542861e-09 4.9726596e-09 5.661426e-09 5.737664e-09 5.649576e-09 5.7893024e-09 6.09043e-09 6.6868666e-09
7.193541e-09 7.916661e-09 8.575625e-09 9.970668e-09 1.3158187e-08 2.5983145e-08 4.4952888e-08 6.4075174e-08
7.474428e-08 8.104771e-08 7.919159e-08 7.115407e-08 5.8984703e-08 3.9521836e-08 1.8284513e-08 1.0727684e-08
2.2459668e-05 2.4716255e-05 2.678367e-05 2.8224327e-05 2.9641395e-05 3.0956257e-05 3.24169e-05 3.392732e-05
3.5930934e-05 3.855698e-05 4.1165895e-05 4.3165077e-05 4.135289e-05 3.6348134e-05 3.2068445e-05 2.9635232e-05
2.4582656e-05 2.248291e-05 2.2809792e-05 1.8476803e-05 1.4815302e-05 1.3359115e-05 1.2707424e-05 1.43539155e-05
1.6441665e-05 1.33827925e-05 1.039278e-05 8.1161015e-06 8.090645e-06 8.303285e-06 6.8318445e-06 5.193447e-06
3.2200753e-06 1.7139854e-06 9.574603e-07 3.5535928e-07 1.7454047e-07 1.8844895e-07 1.3647063e-07 1.1167526e-08
6.186994e-09 6.6330164e-09 8.525086e-09 9.339813e-09 3.1123175e-06 2.7856977e-06 2.557176e-06 2.3182943e-06
2.1103808e-06 1.7776285e-06 3.870199e-07 2.0817664e-07 1.7353196e-08 1.1963708e-08 1.1640193e-08 1.06380815e-08
9.828538e-09 9.231013e-09 8.376451e-09 8.1849425e-09 7.979468e-09 7.924296e-09 7.930869e-09 8.088445e-09
8.075391e-09 8.084348e-09 7.824541e-09 7.5989215e-09 7.710154e-09 7.722556e-09 7.707482e-09 7.73154e-09
7.8997635e-09 8.357291e-09 9.068665e-09 9.761598e-09 1.3581785e-08 1.6023444e-08 1.3072711e-08 1.4766295e-08
1.7583849e-08 2.0146018e-08 2.126541e-08 1.8108514e-08 1.5958355e-08 1.2753982e-08 1.01715845e-08 6.1624132e-09
2.8598977e-09 1.6842591e-09 3.51897e-06 3.9136908e-06 4.2584393e-06 4.5403244e-06 4.794879e-06 5.0375847e-06
5.268951e-06 5.5050336e-06 5.7981188e-06 6.14072e-06 6.6133157e-06 6.919056e-06 6.6819975e-06 5.6945837e-06
4.805104e-06 4.232598e-06 3.240743e-06 3.162825e-06 3.2193445e-06 2.7024614e-06 2.333075e-06 1.9673273e-06
1.9749546e-06 2.2527486e-06 2.5154563e-06 2.0330626e-06 1.6316018e-06 1.4089687e-06 1.6248764e-06 2.4716348e-06
