results/90RC1/Park90RC/Park90RC-2499888.pt (torch, 825364 bytes, 52 tensors)

network_body.observation_encoder.processors.0.normalizer.running_mean f4 [90]
0	0x3f487704	0.78306603
1	0x3f4b5751	0.7943011
2	0x3f4e6000	0.80615234
3	0x3f51b86f	0.8192205
4	0x3f55b68a	0.8348166
5	0x3f5c973f	0.86168283
6	0x3f68463f	0.9073219
7	0x3f70e387	0.9409718
8	0x3f7faffe	0.9987792
9	0x3f7fe095	0.9995206
10	0x3f7ff362	0.9998075
11	0x3f7ff886	0.9998859
12	0x3f7ffa85	0.9999164
13	0x3f7ffbb6	0.99993455
14	0x3f7ffd18	0.99995565
15	0x3f7ffd5d	0.99995977
16	0x3f7ffdc7	0.9999661
17	0x3f7ffde7	0.999968
18	0x3f7ffdf0	0.9999685
19	0x3f7ffdb7	0.99996513
20	0x3f7ffdc6	0.999966
21	0x3f7ffdbc	0.9999654
22	0x3f7ffdf3	0.9999687
23	0x3f7ffe1a	0.99997103
24	0x3f7ffdee	0.9999684
25	0x3f7ffde8	0.99996805
26	0x3f7ffdec	0.9999683
27	0x3f7ffde8	0.99996805
28	0x3f7ffdd9	0.99996716
29	0x3f7ffdab	0.9999644
30	0x3f7ffd89	0.9999624
31	0x3f7ffd6f	0.99996084
32	0x3f7ffd79	0.99996144
33	0x3f7ffd7c	0.9999616
34	0x3f7ffd75	0.9999612
35	0x3f7ffd48	0.9999585
36	0x3f7ffd29	0.99995667
37	0x3f7ffd08	0.9999547
38	0x3f7ffceb	0.999953
39	0x3f7ffccb	0.99995106
40	0x3f7ffca4	0.99994874
41	0x3f7ffc90	0.99994755
42	0x3f7ffcae	0.99994934
43	0x3f7ffca8	0.999949
44	0x3f7ffce1	0.9999524
45	0x3f7ffcf7	0.9999537
46	0x3f45df8b	0.77294225
47	0x3f438a4c	0.763829
48	0x3f416a11	0.7555247
49	0x3f3f7000	0.74780273
50	0x3f3d9cc0	0.74067307
51	0x3f3bcc16	0.73358285
52	0x3f39f0b8	0.7263293
53	0x3f37b48c	0.7175987
54	0x3f348007	0.70507854
55	0x3f302e95	0.6882108
56	0x3f2b165e	0.66831005
57	0x3f260f8e	0.64867485
58	0x3f22f55e	0.6365565
59	0x3f234986	0.6378406
60	0x3f247f4a	0.6425673
61	0x3f2558c5	0.64588577
62	0x3f259307	0.6467747
63	0x3f239055	0.6389211
64	0x3f245ab9	0.6420093
65	0x3f27cc48	0.65546083
66	0x3f2c5d5b	0.6732995
67	0x3f31b8d7	0.6942267
68	0x3f34bca4	0.7060034
69	0x3f350133	0.70704955
70	0x3f359cf3	0.7094261
71	0x3f37f4b6	0.71857774
72	0x3f3e98a1	0.74451643
73	0x3f48f84a	0.7850386
74	0x3f5521f3	0.8325493
75	0x3f6131f8	0.8796687
76	0x3f692013	0.91064566
77	0x3f6e9957	0.9320273
78	0x3f74e3e5	0.9566024
79	0x3f7a73cf	0.9783296
80	0x3f7dc735	0.9913209
81	0x3f7f0a95	0.9962552
82	0x3f7f94f8	0.99836683
83	0x3f7fd8c8	0.99940157
84	0x3f7ff46a	0.9998232
85	0x3f7ffdbc	0.9999654
86	0x3f7ffdfd	0.9999693
87	0x3f7ffdd8	0.9999671
88	0x3f7ffd53	0.9999592
89	0x3f7ffd29	0.99995667

network_body.observation_encoder.processors.0.normalizer.running_variance f4 [90]
0	0x487a5f1c	256380.44
1	0x486f498c	245030.19
2	0x48619915	231012.33
3	0x4850fca8	214002.62
4	0x483c4d58	192821.38
5	0x481dc3d0	161551.25
6	0x47db992d	112434.35
7	0x47880a14	69652.16
8	0x44e7f828	1855.7549
9	0x442b6ec8	685.73096
10	0x4346876c	198.52899
11	0x4293cf57	73.90496
12	0x423a1521	46.520634
13	0x42071bee	33.777275
14	0x41d9e6c5	27.23768
15	0x41c95eb4	25.171242
16	0x41b38a2e	22.44247
17	0x41a7ea3a	20.989368
18	0x41a0179a	20.011524
19	0x41a00496	20.00224
20	0x419a8c4a	19.3185
21	0x41a193bf	20.197142
22	0x4192e9bc	18.364128
23	0x418b9d84	17.451912
24	0x41949351	18.571932
25	0x4199c4b8	19.221054
26	0x41986f9d	19.054499
27	0x4190d841	18.105593
28	0x4191da08	18.23146
29	0x41996bdf	19.177671
30	0x41a38195	20.438272
31	0x41a14c54	20.16227
32	0x41a1e90c	20.238792
33	0x419badb2	19.459812
34	0x41a3a239	20.45421
35	0x41af99fe	21.950191
36	0x41c0f475	24.119364
37	0x41cce9ad	25.6141
38	0x41da1593	27.260534
39	0x41d6fed3	26.874426
40	0x41dd54fd	27.666498
41	0x41e98d01	29.19385
42	0x41d0fc79	26.123278
43	0x41d0edb5	26.116068
44	0x41b74946	22.910778
45	0x41a93ade	21.153744
46	0x4881c506	265768.2
47	0x48859db3	273645.6
48	0x4888d9a1	280269.03
49	0x488b75f6	285615.7
50	0x488d7f58	289786.75
51	0x488ed7e8	292543.25
52	0x488f573b	293561.84
53	0x488e4a2e	291409.44
54	0x488a7086	283524.2
55	0x488374f1	269223.53
56	0x48737985	249318.08
57	0x485ca6c5	225947.08
58	0x48484583	205078.05
59	0x483f3f6b	195837.67
60	0x48375e1d	187768.45
61	0x482e1362	178253.53
62	0x48232fc7	167103.11
63	0x48112aff	148651.98
64	0x48086e7e	139705.97
65	0x4804c1ce	135943.22
66	0x47f96e16	127708.17
67	0x47de83c9	113927.57
68	0x47ae4fcb	89247.586
69	0x478f8eb3	73501.4
70	0x4775cdac	62925.67
71	0x47688684	59526.516
72	0x476378d0	58232.812
73	0x474fa9e6	53161.9
74	0x472bc420	43972.125
75	0x4711ba20	37306.125
76	0x46f8e894	31860.29
77	0x46bf4572	24482.723
78	0x46795529	15957.29
79	0x46015603	8277.503
80	0x455b4835	3508.513
81	0x44b5a717	1453.2216
82	0x440b4735	557.1126
83	0x431d5ab8	157.35437
84	0x41c562d2	24.673252
85	0x41366849	11.40046
86	0x414a66a9	12.6500635
87	0x41585fdc	13.523403
88	0x418bb117	17.46147
89	0x41953a2e	18.653408

network_body.processors.0.normalizer.running_mean f4 [90]
0	0x3f487704	0.78306603
1	0x3f4b5751	0.7943011
2	0x3f4e6000	0.80615234
3	0x3f51b86f	0.8192205
4	0x3f55b68a	0.8348166
5	0x3f5c973f	0.86168283
6	0x3f68463f	0.9073219
7	0x3f70e387	0.9409718
8	0x3f7faffe	0.9987792
9	0x3f7fe095	0.9995206
10	0x3f7ff362	0.9998075
11	0x3f7ff886	0.9998859
12	0x3f7ffa85	0.9999164
13	0x3f7ffbb6	0.99993455
14	0x3f7ffd18	0.99995565
15	0x3f7ffd5d	0.99995977
16	0x3f7ffdc7	0.9999661
17	0x3f7ffde7	0.999968
18	0x3f7ffdf0	0.9999685
19	0x3f7ffdb7	0.99996513
20	0x3f7ffdc6	0.999966
21	0x3f7ffdbc	0.9999654
22	0x3f7ffdf3	0.9999687
23	0x3f7ffe1a	0.99997103
24	0x3f7ffdee	0.9999684
25	0x3f7ffde8	0.99996805
26	0x3f7ffdec	0.9999683
27	0x3f7ffde8	0.99996805
28	0x3f7ffdd9	0.99996716
29	0x3f7ffdab	0.9999644
30	0x3f7ffd89	0.9999624
31	0x3f7ffd6f	0.99996084
32	0x3f7ffd79	0.99996144
33	0x3f7ffd7c	0.9999616
34	0x3f7ffd75	0.9999612
35	0x3f7ffd48	0.9999585
36	0x3f7ffd29	0.99995667
37	0x3f7ffd08	0.9999547
38	0x3f7ffceb	0.999953
39	0x3f7ffccb	0.99995106
40	0x3f7ffca4	0.99994874
41	0x3f7ffc90	0.99994755
42	0x3f7ffcae	0.99994934
43	0x3f7ffca8	0.999949
44	0x3f7ffce1	0.9999524
45	0x3f7ffcf7	0.9999537
46	0x3f45df8b	0.77294225
47	0x3f438a4c	0.763829
48	0x3f416a11	0.7555247
49	0x3f3f7000	0.74780273
50	0x3f3d9cc0	0.74067307
51	0x3f3bcc16	0.73358285
52	0x3f39f0b8	0.7263293
53	0x3f37b48c	0.7175987
54	0x3f348007	0.70507854
55	0x3f302e95	0.6882108
56	0x3f2b165e	0.66831005
57	0x3f260f8e	0.64867485
58	0x3f22f55e	0.6365565
59	0x3f234986	0.6378406
60	0x3f247f4a	0.6425673
61	0x3f2558c5	0.64588577
62	0x3f259307	0.6467747
63	0x3f239055	0.6389211
64	0x3f245ab9	0.6420093
65	0x3f27cc48	0.65546083
66	0x3f2c5d5b	0.6732995
67	0x3f31b8d7	0.6942267
68	0x3f34bca4	0.7060034
69	0x3f350133	0.70704955
70	0x3f359cf3	0.7094261
71	0x3f37f4b6	0.71857774
72	0x3f3e98a1	0.74451643
73	0x3f48f84a	0.7850386
74	0x3f5521f3	0.8325493
75	0x3f6131f8	0.8796687
76	0x3f692013	0.91064566
77	0x3f6e9957	0.9320273
78	0x3f74e3e5	0.9566024
79	0x3f7a73cf	0.9783296
80	0x3f7dc735	0.9913209
81	0x3f7f0a95	0.9962552
82	0x3f7f94f8	0.99836683
83	0x3f7fd8c8	0.99940157
84	0x3f7ff46a	0.9998232
85	0x3f7ffdbc	0.9999654
86	0x3f7ffdfd	0.9999693
87	0x3f7ffdd8	0.9999671
88	0x3f7ffd53	0.9999592
89	0x3f7ffd29	0.99995667

network_body.processors.0.normalizer.running_variance f4 [90]
0	0x487a5f1c	256380.44
1	0x486f498c	245030.19
2	0x48619915	231012.33
3	0x4850fca8	214002.62
4	0x483c4d58	192821.38
5	0x481dc3d0	161551.25
6	0x47db992d	112434.35
7	0x47880a14	69652.16
8	0x44e7f828	1855.7549
9	0x442b6ec8	685.73096
10	0x4346876c	198.52899
11	0x4293cf57	73.90496
12	0x423a1521	46.520634
13	0x42071bee	33.777275
14	0x41d9e6c5	27.23768
15	0x41c95eb4	25.171242
16	0x41b38a2e	22.44247
17	0x41a7ea3a	20.989368
18	0x41a0179a	20.011524
19	0x41a00496	20.00224
20	0x419a8c4a	19.3185
21	0x41a193bf	20.197142
22	0x4192e9bc	18.364128
23	0x418b9d84	17.451912
24	0x41949351	18.571932
25	0x4199c4b8	19.221054
26	0x41986f9d	19.054499
27	0x4190d841	18.105593
28	0x4191da08	18.23146
29	0x41996bdf	19.177671
30	0x41a38195	20.438272
31	0x41a14c54	20.16227
32	0x41a1e90c	20.238792
33	0x419badb2	19.459812
34	0x41a3a239	20.45421
35	0x41af99fe	21.950191
36	0x41c0f475	24.119364
37	0x41cce9ad	25.6141
38	0x41da1593	27.260534
39	0x41d6fed3	26.874426
40	0x41dd54fd	27.666498
41	0x41e98d01	29.19385
42	0x41d0fc79	26.123278
43	0x41d0edb5	26.116068
44	0x41b74946	22.910778
45	0x41a93ade	21.153744
46	0x4881c506	265768.2
47	0x48859db3	273645.6
48	0x4888d9a1	280269.03
49	0x488b75f6	285615.7
50	0x488d7f58	289786.75
51	0x488ed7e8	292543.25
52	0x488f573b	293561.84
53	0x488e4a2e	291409.44
54	0x488a7086	283524.2
55	0x488374f1	269223.53
56	0x48737985	249318.08
57	0x485ca6c5	225947.08
58	0x48484583	205078.05
59	0x483f3f6b	195837.67
60	0x48375e1d	187768.45
61	0x482e1362	178253.53
62	0x48232fc7	167103.11
63	0x48112aff	148651.98
64	0x48086e7e	139705.97
65	0x4804c1ce	135943.22
66	0x47f96e16	127708.17
67	0x47de83c9	113927.57
68	0x47ae4fcb	89247.586
69	0x478f8eb3	73501.4
70	0x4775cdac	62925.67
71	0x47688684	59526.516
72	0x476378d0	58232.812
73	0x474fa9e6	53161.9
74	0x472bc420	43972.125
75	0x4711ba20	37306.125
76	0x46f8e894	31860.29
77	0x46bf4572	24482.723
78	0x46795529	15957.29
79	0x46015603	8277.503
80	0x455b4835	3508.513
81	0x44b5a717	1453.2216
82	0x440b4735	557.1126
83	0x431d5ab8	157.35437
84	0x41c562d2	24.673252
85	0x41366849	11.40046
86	0x414a66a9	12.6500635
87	0x41585fdc	13.523403
88	0x418bb117	17.46147
89	0x41953a2e	18.653408

network_body._body_endoder.seq_layers.0.weight f4 [128, 90]
0	0xbd8a133b	-0.06741949
1	0xbe1ce08e	-0.15320036
2	0xbe4823fd	-0.19544978
3	0x3e2a03d8	0.16603029
4	0x3d8ae6d4	0.06782308
5	0xbdc8181b	-0.09770223
6	0xbe12a044	-0.14318949
7	0xbd4f6e96	-0.050642572
8	0x3df934d9	0.12168283
9	0xbd24c32d	-0.040225197
10	0x3dec4271	0.1153611
11	0x3d12df3c	0.035857424
12	0xbdd8d406	-0.10587315
13	0xbdbe8c63	-0.093041204
14	0x3ca7bff2	0.020477269
15	0xbe3ba6ff	-0.18325423
16	0xbe02ca85	-0.12772568
17	0xbe96fcd9	-0.29489782
18	0x3e09d4e3	0.13460116
19	0xbca4cbe3	-0.020116752
20	0x3e235ed3	0.15954141
21	0x3c80de34	0.015730955
22	0xbca2ec5f	-0.019888101
23	0x3e67740c	0.22602862
24	0xbdb769b7	-0.089557104
25	0xbe4ef524	-0.20210701
26	0xbe2f980b	-0.17147844
27	0xbe022ca9	-0.12712349
28	0x3da78090	0.08178818
29	0xbd41d1a0	-0.047319055
30	0x3cb95fd7	0.022628708
31	0x3d8d2790	0.068923116
32	0x3e60d59d	0.21956487
33	0xbc546e05	-0.012965684
34	0x3e42f861	0.19040062
35	0xbc596c18	-0.0132704
36	0x3e5771cc	0.21039504
37	0x3e1e95b5	0.15486796
38	0x3e151e11	0.1456225
39	0xbe813166	-0.25233
40	0xbdf499be	-0.119433865
41	0xbe036011	-0.12829615
42	0xbdb93468	-0.09043199
43	0xbe3f293a	-0.1866807
44	0xbdea9539	-0.11454243
45	0xbdf72e41	-0.12069369
46	0x3cba7273	0.022759652
47	0x3e70d8eb	0.23520248
48	0xbdb345fb	-0.08753582
49	0xbb825711	-0.0039776643
50	0xbd897ccf	-0.067132585
51	0x3cdf20e3	0.027237361
52	0x3e2049a5	0.15653093
53	0x3e391407	0.18074046
54	0xbda8ffc4	-0.082519084
55	0x3e0b8277	0.13623987
56	0x3ddbc480	0.10730839
57	0xbb5f1b00	-0.0034043193
58	0x3e8c830d	0.27443734
59	0x3ddf43fe	0.1090164
60	0xbd9b8371	-0.0759343
61	0x3c9cc880	0.019138575
62	0x3cfe6765	0.031055162
63	0x3e786e5d	0.2426085
64	0x3e4b1c8b	0.19835107
65	0x3d9705ee	0.07374178
66	0x3db3d32e	0.08780514
67	0x3d78b8f5	0.060723264
68	0x3dd93cfc	0.10607335
69	0xbc41b10b	-0.0118219955
70	0x3e016e7d	0.12639804
71	0x3ae98468	0.0017815949
72	0xbe4cd993	-0.20004873
73	0x3d593af1	0.053034727
74	0xbd8078f6	-0.062730715
75	0xbde71e73	-0.112851046
76	0xbc218187	-0.009857542
77	0xbb16dd2a	-0.0023020008
78	0x3c82375d	0.01589554
79	0xbe066c87	-0.13127337
80	0x3e56bb81	0.20969965
81	0x3d8ececc	0.06973037
82	0xbcb4e2fc	-0.02208089
83	0x3df3c215	0.119022526
84	0xbe158f42	-0.1460543
85	0xbe051f9b	-0.13000338
86	0xbc58bfe7	-0.013229347
87	0x3c10a178	0.00882756
88	0xbe071564	-0.13191754
89	0x3e60ceaa	0.21953836
90	0xbca9fe99	-0.020751284
91	0xbda4689e	-0.08027767
92	0xbcd8969e	-0.026439007
93	0x3e150c7c	0.14555544
94	0xbcb18626	-0.021670412
95	0xbd6187a4	-0.055060998
96	0x3da136af	0.07871758
97	0xbbe69f14	-0.0070380066
98	0xbe551774	-0.20809728
99	0x3c0171ab	0.007900636
100	0x3e72f12a	0.2372481
101	0x3dae9a0f	0.08525478
102	0x3e110189	0.14160742
103	0x3e456e72	0.19280413
104	0xbd824f90	-0.063628316
105	0xbe2bade9	-0.1676556
106	0xbdef7da0	-0.11693883
107	0x3ca4d437	0.020120723
108	0x3aa8b5fb	0.0012871617
109	0xbe3b0d49	-0.18266787
110	0x3e0d2f0a	0.13787475
111	0x3d2ccac8	0.042185575
112	0x3d6944e5	0.05695047
113	0x3d6e384e	0.058159165
114	0x3d11a9bd	0.035562266
115	0xbd01ace7	-0.031659033
116	0xbcbd8568	-0.023134902
117	0x3d5eac26	0.054363392
118	0x3e9004d0	0.28128672
119	0xbc884a52	-0.016637001
120	0x3daae444	0.083443195
121	0x3d71a070	0.058990896
122	0xbd226d1b	-0.039654832
123	0xbb7e7944	-0.0038829604
124	0x3d81eff9	0.06344599
125	0x3da0b402	0.07846834
126	0x3dd60e55	0.10451952
127	0xbd40bcc4	-0.04705502
128	0x3cbdc07a	0.023163069
129	0x3e4b891b	0.1987652
130	0x3cb85767	0.022502614
131	0xbdf30bc6	-0.1186748
132	0xbc9ed2ab	-0.019387564
133	0x3e248955	0.16068013
134	0xbe2ccd40	-0.16875172
135	0x3e1996fd	0.14999004
136	0xbce969ac	-0.028492771
137	0xbd9ad76a	-0.07560618
138	0x3d464701	0.04840756
139	0x3d321c12	0.0434838
140	0x3b92706e	0.004468969
141	0xbdecf8a5	-0.11570863
142	0xbde54e08	-0.11196524
143	0x3e1e08f6	0.15433106
144	0x3e3bc8c9	0.18338312
145	0xbe5462b0	-0.20740771
146	0xbe01da46	-0.12680921
147	0x3d7efdfe	0.062253945
148	0xbc1f9cda	-0.009741986
149	0xbd807461	-0.062721975
150	0xba571862	-0.00082052324
151	0x3e057907	0.1303445
152	0x3d781e6c	0.060575888
153	0x3e429cc1	0.1900511
154	0x3de4045e	0.111336455
155	0x3de55467	0.11197739
156	0xbdde32ac	-0.10849509
157	0x3d83c490	0.06433976
158	0xbe48c139	-0.19604959
159	0xbd1650b9	-0.036698077
160	0x3c81bbd9	0.015836643
161	0xbdc594d2	-0.09647526
162	0xbd4f099e	-0.05054628
163	0x3e7b1e23	0.24523215
164	0xbd7ca59f	-0.061681386
165	0x3e1393dd	0.14411874
166	0x3dbc7a70	0.092030406
167	0x3c330dcd	0.010928583
168	0x3e961e2d	0.29319897
169	0x3de05b06	0.10954861
170	0xbd86e2ce	-0.06586228
171	0x3e19a819	0.1500553
172	0x3da5feac	0.081052154
173	0xbd8279cf	-0.063708894
174	0xbde968cb	-0.11396941
175	0xbd993eca	-0.07482679
176	0xbdc30efb	-0.09524342
177	0xbe3a4e67	-0.1819397
178	0xbcbad9c8	-0.022808924
179	0xbd190c38	-0.03736517
180	0xbe226f14	-0.15862685
181	0x3e7f71d8	0.24945772
182	0x3e104de4	0.14092213
183	0x3c06f548	0.008237191
184	0xbda55f1c	-0.08074781
185	0x3d6b5a46	0.05745914
186	0xbe3fdddf	-0.18736981
187	0xbcce1c63	-0.02516002
188	0xbc77ef47	-0.015132732
189	0xbd439b90	-0.047755778
190	0xbe2d1fe4	-0.16906697
191	0xbe395c94	-0.18101722
192	0x3a9de141	0.001204528
193	0x3ce9e27c	0.028550379
194	0x3dfb49fb	0.1226997
195	0xbcce3fef	-0.02517697
196	0xbb98e80a	-0.004666333
197	0xbbeea95c	-0.007283373
198	0xbe268697	-0.1626228
199	0x3c76122c	0.015018981
200	0x3ce1e6df	0.027575908
201	0xbdcc8321	-0.09985948
202	0xbd364783	-0.044501793
203	0xbe54d74b	-0.20785253
204	0xbe2340d0	-0.15942693
205	0xbe2277bf	-0.15865992
206	0x3c32a9b8	0.010904722
207	0xbbb5cd00	-0.0055481195
208	0x3d82ad5d	0.06380723
209	0x3cc6a68b	0.024249336
210	0x3e343d1b	0.17601435
211	0xbe6ef20d	-0.23334523
212	0x3e3559ae	0.17709991
213	0xbdda4c3f	-0.10659074
214	0xbdd1dfcb	-0.10247763
215	0xbce70bcc	-0.028203867
216	0x3e3aca5c	0.18241256
217	0x3df78d6d	0.12087522
218	0x3e62ffbb	0.22167866
219	0xbdcd1ce2	-0.100152746
220	0x3d0f1f45	0.03494193
221	0xbe06ab08	-0.1315118
222	0x3d78f0a3	0.060776364
223	0xbda04029	-0.078247376
224	0xbda758f1	-0.08171261
225	0xbdadec95	-0.0849239
226	0xbe4e86a2	-0.20168546
227	0xbe2ced11	-0.16887309
228	0xbd89ef1a	-0.06735058
229	0xbd9ff98f	-0.078112714
230	0xbae526e1	-0.00174829
231	0x3d2446d4	0.04010661
232	0x3d85cbee	0.06533037
233	0x3e59ed2c	0.2128188
234	0x3de3c0e9	0.11120779
235	0xbcc74a1e	-0.024327334
236	0x3eda28e8	0.42609334
237	0x3e1e3a23	0.15451865
238	0xbbf63915	-0.007514129
239	0xbd698ae5	-0.057017226
240	0x3d62cce9	0.0553712
241	0x3e30afb7	0.1725453
242	0xbc37965f	-0.011205285
243	0xbd913481	-0.070900925
244	0x3e5876c9	0.21139063
245	0xbd453a82	-0.0481515
246	0x3e870929	0.26374176
247	0xbc885122	-0.01664025
248	0x3e945f99	0.28979185
249	0x3d82e6cb	0.063916765
250	0xbe21b83c	-0.15792936
251	0x3d2e59e0	0.04256618
252	0x3caa4d54	0.020788826
253	0x3e18abc0	0.14909267
254	0xbd60a18a	-0.054841556
255	0x3ce28dda	0.02765553

network_body._body_endoder.seq_layers.0.bias f4 [128]
0	0xbd52861d	-0.05139743
1	0x3d1b88fc	0.037972435
2	0xbc143586	-0.009045964
3	0x3d6369ac	0.0555207
4	0x3d3e61e5	0.04648008
5	0xbcef467a	-0.02920841
6	0x3d5469ea	0.05185882
7	0x3d212c29	0.039348755
8	0xbc7f7dbc	-0.015593942
9	0x3d209bf2	0.03921122
10	0x3b389b80	0.0028168857
11	0x3d9e49c5	0.07728914
12	0x3d8b2c68	0.06795579
13	0x3ce24d2a	0.027624685
14	0x3d60898b	0.05481867
15	0x3d201d42	0.039090402
16	0xbd5d2a09	-0.053995166
17	0xbcdf4637	-0.02725516
18	0xbd8e22b2	-0.06940211
19	0x3cfe0d57	0.03101222
20	0xbce090a9	-0.02741273
21	0x3d9a8e4a	0.07546671
22	0x3d7b31b6	0.061326705
23	0x3ccd7b46	0.025083195
24	0x3da7289d	0.08162043
25	0x3d1df0f0	0.038559854
26	0x3dbcdc9d	0.09221766
27	0x3d8cbc72	0.068718806
28	0x3dcf51d5	0.1012303
29	0x3d27fcc0	0.041012526
30	0xbd40c4e2	-0.047062762
31	0xbcc496cf	-0.023997692
32	0x3b8fc7bf	0.0043878253
33	0xbd2d54d4	-0.042317227
34	0x3c39a901	0.011331798
35	0x3d29bf85	0.041442413
36	0xbd8eee5d	-0.06979058
37	0xbc848d8b	-0.016180774
38	0xbda567b1	-0.08076418
39	0xbd4a45ae	-0.049382858
40	0x3bb2bff4	0.0054550115
41	0x3d44e5a5	0.04807057
42	0x3affbdf3	0.0019511565
43	0xbcad0c32	-0.02112398
44	0x3da4ad02	0.08040811
45	0xbd1441ca	-0.036195554
46	0xbd627dd3	-0.055295777
47	0xbd81ab85	-0.06331543
48	0x3cd88f59	0.026435541
49	0x3d5968e6	0.053078555
50	0xbd940a46	-0.07228522
51	0xbca8204e	-0.020523217
52	0xbc24d19b	-0.010059739
53	0x3d84c4e9	0.0648287
54	0xbd148727	-0.036261704
55	0xbcfcf824	-0.030880041
56	0x3d281643	0.041036855
57	0x3d44e46e	0.04806941
58	0xbccbe44b	-0.024889132
59	0xbc73c0ce	-0.014877511
60	0xbd1c5a40	-0.038172007
61	0xbd20c079	-0.039246056
62	0x3d4539e0	0.048150897
63	0x3d3802a3	0.04492439
64	0x3d978b25	0.073995866
65	0x3d45027a	0.048098065
66	0xbd46e2a4	-0.048555985
67	0xbb4515ed	-0.0030072883
68	0x3c46d9e7	0.012136913
69	0xbdafd2c0	-0.08585119
70	0x3d0f6e14	0.035017088
71	0x3d615e41	0.05502153
72	0xbdf145c5	-0.117808856
73	0xbc953f9e	-0.018218812
74	0xbd7c6567	-0.061620142
75	0x3c637f92	0.013885396
76	0xbc9dabc9	-0.019246953
77	0x3dd5c74c	0.104384035
78	0x3da80c86	0.08205514
79	0x3d1338c0	0.035942793
80	0xbd47d77d	-0.04878949
81	0xbd6cc15e	-0.057801597
82	0xbb7c15a9	-0.003846506
83	0xbc56accc	-0.013102721
84	0xbbe5cbaa	-0.007012804
85	0xbcea9728	-0.02863653
86	0x3dab7864	0.08372572
87	0x3d6049b4	0.05475779
88	0x3d313c21	0.043270234
89	0xbd713a87	-0.058893707
90	0xbd420969	-0.047372255
91	0x3d80cbc9	0.06288869
92	0x3d76190b	0.060082477
93	0xbdb092e9	-0.08621771
94	0x3da938db	0.082627974
95	0x3cfe12e3	0.031014865
96	0x3d06c10b	0.032898944
97	0xbb2b49d1	-0.0026136527
98	0x3daed916	0.085374996
99	0xbce4055a	-0.027834583
100	0xbc34cf85	-0.011035805
101	0xbc87ee81	-0.01659322
102	0x3da7c365	0.081915654
103	0xbcbb28fd	-0.022846693
104	0xbd0877e4	-0.03331746
105	0xbd663ea4	-0.056212083
106	0x3d4c7bc4	0.04992272
107	0x3d85e876	0.06538479
108	0x3c8294ca	0.015940089
109	0x3ac9b2b4	0.0015388341
110	0xbc90db44	-0.017682679
111	0x3d46892b	0.048470657
112	0xbd78495d	-0.06061684
113	0x3c13d8c6	0.009023851
114	0xbd43ac2a	-0.04777161
115	0x3bae30d5	0.00531588
116	0xbd754038	-0.059875697
117	0xba5e1166	-0.00084712205
118	0xbdbfaee6	-0.09359531
119	0x3d9f4ffd	0.077789284
120	0xbcd55563	-0.026041692
121	0x3ce5bfc5	0.028045544
122	0x3b8fed94	0.004392335
123	0xbbc0e65b	-0.0058868355
124	0x3dd65aae	0.104665145
125	0xbd35cfa3	-0.04438747
126	0xbd59a5fc	-0.05313681
127	0x3d0b5ca6	0.034023903

network_body._body_endoder.seq_layers.2.weight f4 [128, 128]
0	0xbd8017b8	-0.06254524
1	0x3d7d2a7d	0.061808098
2	0x3d2ee2a5	0.042696614
3	0x3dc84bc9	0.0978008
4	0xbe13ecbb	-0.14445774
5	0xbe1e1d4e	-0.15440866
6	0x3e01d992	0.12680653
7	0x3e0ce549	0.1375934
8	0xbbff5209	-0.007791762
9	0x3d233690	0.039846957
10	0x3d746bdd	0.05967318
11	0x3d77cce2	0.060498126
12	0x3da218d8	0.07914895
13	0x3df8f91c	0.12156889
14	0x3e01512f	0.12628625
15	0x3d55bd37	0.052182402
16	0xbe12bbc9	-0.14329447
17	0xbd5f2869	-0.054481898
18	0xbd8a5b8c	-0.067557424
19	0x3de90635	0.11378137
20	0xbd0f4b8a	-0.03498415
21	0x3e32974b	0.17440526
22	0xbd07aea2	-0.033125527
23	0xbdbb22f4	-0.09137526
24	0x3e59cc77	0.21269403
25	0x3dccf6a8	0.100079834
26	0x3e9dd64c	0.30827558
27	0x3d9af826	0.07566862
28	0x3dab3ea3	0.083615564
29	0x3d55c3d0	0.052188694
30	0xbdb93c53	-0.09044709
31	0xbca1e319	-0.019761609
32	0x3e285f72	0.1644266
33	0xbe30796c	-0.17233819
34	0xbdb97870	-0.09056175
35	0x3dba000d	0.09082041
36	0xbdcadd9c	-0.0990555
37	0x3dece963	0.115679525
38	0x3d07d299	0.033159826
39	0xbe853a7f	-0.2602119
40	0x3c9f0f40	0.019416451
41	0xbdf3aaff	-0.11897849
42	0x3db8828d	0.090092756
43	0xbcf68be5	-0.030096004
44	0xbc1eb0e5	-0.00968573
45	0x3df1ac79	0.11800475
46	0xbdc8690f	-0.09785663
47	0x3cb757d1	0.022380741
48	0xbe261815	-0.16220124
49	0x3dadb232	0.08481254
50	0xbdd3a825	-0.103348054
51	0x3dbce5bb	0.09223505
52	0xbe49f511	-0.19722392
53	0x3d9fc070	0.078003764
54	0x3cb67bdf	0.022275863
55	0xbdb6e9b9	-0.08931298
56	0xbae8b809	-0.0017755042
57	0x3db40aa9	0.08791096
58	0xbe946f9e	-0.28991407
59	0x3c927f92	0.017883096
60	0x3d12fcf3	0.035885762
61	0xbd916478	-0.07099241
62	0x3d756d84	0.059918895
63	0x3dd4050a	0.103525236
64	0x3d898c15	0.06716172
65	0x3e87a6fe	0.26494592
66	0xbd9b9709	-0.07597167
67	0x3d58b141	0.052903417
68	0xbde68cd7	-0.11257332
69	0x3d6768d7	0.056496467
70	0x3eb1cb00	0.3472519
71	0x3bd272ef	0.0064223926
72	0xbd8fd644	-0.0702329
73	0x3d7055a0	0.05867541
74	0xbc88c115	-0.016693631
75	0xbe300fd9	-0.17193545
76	0xbdbfefe4	-0.093719274
77	0xbd6fed9b	-0.058576208
78	0x3e504723	0.20339637
79	0x3d19bcbd	0.03753351
80	0xbd4e4e6b	-0.050367754
81	0xbe48ecfd	-0.19621654
82	0xbe42331f	-0.18964814
83	0xbdc14766	-0.09437446
84	0xbdb4f0d3	-0.08834996
85	0xbd18efa6	-0.03733792
86	0x3d8ac267	0.067753606
87	0xbdb8db05	-0.0902615
88	0x3d401849	0.04689816
89	0xbde9ff96	-0.11425702
90	0x3d2cf7ab	0.042228382
91	0x3dff1b5f	0.124563925
92	0xbd7b73e4	-0.06138982
93	0xbe639de1	-0.22228195
94	0x3e93d010	0.28869677
95	0xbdbc2a80	-0.09187794
96	0xbde6b68c	-0.11265287
97	0xbe30f58f	-0.17281173
98	0x3e921175	0.28528944
99	0xbe1aea13	-0.15128355
100	0xbd08bd93	-0.033383917
101	0xbde6a4fe	-0.112619385
102	0x3e237db9	0.15965928
103	0xbd76cb0e	-0.06025224
104	0x3d46b74a	0.04851464
105	0xbd16291f	-0.03666031
106	0xbccf6ed2	-0.025321398
107	0x3ccb9b6d	0.024854386
108	0x3bac9d2a	0.005267759
109	0x3e0f1942	0.13974479
110	0xbd67b574	-0.05656953
111	0xb9d2590a	-0.0004012066
112	0xbe9a2175	-0.3010365
113	0xbc12264d	-0.008920264
114	0xbe3f63ae	-0.18690369
115	0x3dc2b09b	0.09506341
116	0x3d20704b	0.03916959
117	0xbd86cd71	-0.065821536
118	0xbe11641e	-0.14198348
119	0x3de6d30c	0.11270723
120	0xbdd14e43	-0.10220005
121	0xbdfa3eb9	-0.12218995
122	0xbc4820f6	-0.01221489
123	0x3cbb02e3	0.022828525
124	0x3e2e8128	0.17041457
125	0xba5614e0	-0.0008166563
126	0x3cc43ffa	0.023956288
127	0x3da167bd	0.07881115
128	0x3c710325	0.014710222
129	0xbe04b503	-0.12959675
130	0x3e0a839c	0.13526767
131	0x3da3f9af	0.08006608
132	0x3c9a7310	0.018853694
133	0xbda199cb	-0.07890662
134	0xbd098ac4	-0.033579603
135	0xbcc52bd5	-0.024068752
136	0x3e09261b	0.13393442
137	0xbcb49f30	-0.022048563
138	0x3e953cfd	0.29148093
139	0xbdaf4f6a	-0.08560069
140	0x3e19ae2b	0.15007846
141	0xbd6ca01a	-0.057769872
142	0xbb32647b	-0.0027220536
143	0xbe2340d2	-0.15942696
144	0xbe34f2fc	-0.17670816
145	0xbcea9c83	-0.028639084
146	0xbd57efe0	-0.052718997
147	0xbd7a1f3d	-0.061064947
148	0xbe3aec5c	-0.18254226
149	0xbe05b867	-0.13058625
150	0x3e1c22e1	0.1524768
151	0xbdda69c0	-0.106647015
152	0xbd9a7228	-0.07541305
153	0xbcc03d0b	-0.023466608
154	0xbd9c584b	-0.07634028
155	0xbe26adc3	-0.16277222
156	0xbac17a81	-0.001476124
157	0xbd13faeb	-0.036127966
158	0x3e6444e0	0.22291899
159	0x3db895bc	0.090129346
160	0xbd800fa3	-0.062529825
161	0xbd9b4851	-0.07582153
162	0xbe06026e	-0.13086864
163	0x3d9592f3	0.07303419
164	0xbd927113	-0.071504734
165	0xbc21c77f	-0.009874224
166	0xbd260b05	-0.040537853
167	0xbd0de7e0	-0.03464496
168	0xbd978622	-0.07398631
169	0xbe1bfe9b	-0.15233843
170	0xbe8083f1	-0.25100663
171	0xbd401778	-0.04689738
172	0x3e2675f0	0.16255927
173	0x3dafcd99	0.085841365
174	0x3e04734e	0.1293461
175	0x3d238180	0.039918423
176	0xbe336cc4	-0.1752196
177	0xbe493b30	-0.19651484
178	0x3d2b223e	0.041780703
179	0x3ad8b3b0	0.0016533043
180	0x3db79b27	0.0896514
181	0xbdd3f093	-0.1034862
182	0xbdbde4a8	-0.09272128
183	0xbe130e8b	-0.14361016
184	0xbdab93b9	-0.08377785
185	0xbdd489dc	-0.10377857
186	0x3cde07a0	0.027103245
187	0xbe5d6508	-0.21620572
188	0x3dbcf910	0.092271924
189	0x3d2fabe3	0.042888533
190	0xbdf5daee	-0.12004648
191	0xbd38fe33	-0.0451643
192	0x3d4b5b2f	0.049647506
193	0x3b81cf5e	0.0039614877
194	0x3da0b930	0.07847822
195	0xbd173f7c	-0.036925778
196	0x3a423219	0.0007407978
197	0xbd458a3d	-0.048227537
198	0xbe0ff303	-0.14057545
199	0xbe222685	-0.15835007
200	0xbd69bcfa	-0.057064988
201	0x3deedf2a	0.11663659
202	0x3dfa63c8	0.12226063
203	0x3d989e25	0.07452039
204	0x3e22de50	0.15905118
205	0x3b7f6033	0.0038967251
206	0xbdf979a7	-0.121814065
207	0xbda07adb	-0.07835933
208	0x3d3349b1	0.04377145
209	0x3e34508e	0.17608854
210	0xbd351ee9	-0.04421893
211	0xbe201be2	-0.15635636
212	0xbcc5ce7c	-0.024146311
213	0x3e291b55	0.16514333
214	0xbd62c0fd	-0.05535983
215	0xbdb7545c	-0.08951637
216	0x3d13aa53	0.036051106
217	0xbbccc79d	-0.0062493817
218	0xbd8842b5	-0.06653348
219	0xbe204ac4	-0.15653521
220	0x3d8ec3f1	0.069709666
221	0x3d600d54	0.05470021
222	0xbe3375e5	-0.17525442
223	0xbe0c900c	-0.13726825
224	0xbd340edf	-0.043959495
225	0xbe33cc30	-0.1755836
226	0xbdd742c4	-0.105107814
227	0x3c7ea0af	0.01554124
228	0x3d45ea13	0.048318934
229	0x3d6b2a0e	0.057413153
230	0x3e16912f	0.1470382
231	0x3ce7b593	0.028284824
232	0xbd8d1e72	-0.068905726
233	0xbcc05502	-0.023478035
234	0x3d3a038a	0.04541353
235	0xbc0ca377	-0.008583895
236	0x3c991df0	0.018691033
237	0xbe371321	-0.17878391
238	0x3cb0af90	0.02156809
239	0x3dbd4d00	0.09243202
240	0x3d267ce0	0.040646434
241	0xbdb84bd9	-0.08998842
242	0xbd7beaaa	-0.06150309
243	0xbe07b97b	-0.13254349
244	0x3d20de95	0.03927477
245	0xbc933a23	-0.017972058
246	0xbe249ac3	-0.16074662
247	0x3a4a18b6	0.00077093707
248	0x3e0ecccb	0.1394531
249	0xbd96466c	-0.07337651
250	0xbd7d102f	-0.061783012
251	0xbcdf9773	-0.027293896
252	0xbc9c2d83	-0.01906467
253	0xbe6e1cac	-0.23253125
254	0x3dc38f10	0.095487714
255	0xbb097df8	-0.0020979624

network_body._body_endoder.seq_layers.2.bias f4 [128]
0	0x3db66e69	0.08907778
1	0x3aec641d	0.0018035207
2	0xbd645908	-0.05574897
3	0xbd058d6e	-0.03260558
4	0xbc2c1383	-0.010502699
5	0xbd0b329b	-0.033983808
6	0x3cf53969	0.029934602
7	0x3c0dbd5b	0.008651103
8	0xbc9978c8	-0.01873435
9	0x3dc2de74	0.09515086
10	0x3d1513a6	0.03639569
11	0xbd76cc2e	-0.060253315
12	0xbc1bbe59	-0.009505832
13	0x3d52997a	0.051415898
14	0x3d97a86b	0.0740517
15	0xbd07daa8	-0.03316751
16	0x3d42c582	0.04755164
17	0xbc8534ac	-0.016260467
18	0x3c4e3b6d	0.01258741
19	0x3ddb6a1b	0.107135974
20	0x3d70c3ae	0.058780365
21	0xbb5b424a	-0.003345626
22	0xbcfd4669	-0.030917363
23	0x3d8da99d	0.06917117
24	0xbd30a47b	-0.04312561
25	0x3d00771a	0.031363584
26	0x3c1aea81	0.009455324
27	0x3d8064b2	0.06269206
28	0xbd72cacf	-0.059275445
29	0x3cf06600	0.029345512
30	0xbb9b8ada	-0.004746777
31	0x3d05616c	0.032563612
32	0xbc9a5f59	-0.018844293
33	0xbc95c304	-0.018281467
34	0x3d9a2b5a	0.075278
35	0x3dce739f	0.10080647
36	0xbd1000d6	-0.035157047
37	0x3cb47de8	0.022032693
38	0xbcb81dbb	-0.022475114
39	0x3d1b6e2e	0.037946872
40	0x3c636dee	0.01388119
41	0x3d7b0b7d	0.061290253
42	0x3dbb601f	0.09149193
43	0x3c26e4a6	0.01018635
44	0x3d3add22	0.045621045
45	0xbccc398c	-0.024929784
46	0x3d5a3b22	0.05327905
47	0x3d091e9c	0.033476457
48	0xbca6fe33	-0.020384884
49	0xbc80fd80	-0.015745878
50	0xbc82306b	-0.015892228
51	0xbd241af0	-0.040064752
52	0x3dd20d5c	0.10256454
53	0x3d427d01	0.047482494
54	0x3d9ac4a1	0.07557035
55	0xbcbece5d	-0.023291761
56	0x3cc585c7	0.024111642
57	0x3d59129b	0.05299626
58	0x3d8f540e	0.06998454
59	0x3d64ccfb	0.055859547
60	0xbd07f7d1	-0.03319532
61	0xbd84ba7d	-0.06480882
62	0x3dc53932	0.0963005
63	0x3d0d1529	0.034444008
64	0x3d9ffead	0.078122474
65	0x3ca3e7ce	0.020007994
66	0xbcd30d10	-0.025763065
67	0x3c39d980	0.01134336
68	0x3c9dc8a8	0.01926072
69	0x3d79ab22	0.06095422
70	0x3bb7712b	0.0055982075
71	0xbcf6f22a	-0.03014477
72	0xbcde74d1	-0.027155312
73	0xbd19d047	-0.037552144
74	0x3cf72e04	0.03017331
75	0x3d0bd7ec	0.034141466
76	0x3d1f4077	0.038879838
77	0x3d8f33af	0.0699228
78	0x3bd696d3	0.0065487414
79	0x3d880c56	0.06642978
80	0x3be733dd	0.007055743
81	0x3ccb3296	0.024804395
82	0xbca71849	-0.020397322
83	0x3bc37465	0.005964803
84	0x3d5ded30	0.054181278
85	0x3d3eedec	0.04661362
86	0x3dac88e5	0.08424548
87	0x3d3b4cbc	0.045727476
88	0x3daf8adc	0.08571407
89	0x3c675e3e	0.01412159
90	0x3cfa73d0	0.030572802
91	0x3d36ceb1	0.04463071
92	0x3d118e11	0.035535876
93	0x3d958ba7	0.07302027
94	0xbd44333c	-0.047900423
95	0x3ab14b60	0.0013526492
96	0x3dc4a84f	0.09602415
97	0x3c10aea0	0.008830696
98	0x3da63a7a	0.08116622
99	0x3b1eef4b	0.0024251516
100	0x3c691c54	0.014227945
101	0xbc9bdfdc	-0.019027643
102	0xbce56f5b	-0.0280072
103	0x3d34192f	0.04396933
104	0x3d088849	0.033333097
105	0xbcb4361f	-0.021998463
106	0x3ca98591	0.020693572
107	0x3c8e3b93	0.017362392
108	0x3d43619d	0.047700513
109	0xbbb20534	-0.005432749
110	0xbc9bbcae	-0.019010868
111	0x3ca50ee5	0.020148704
112	0xbc8aff7a	-0.016967524
113	0xbce43ee6	-0.027862024
114	0x3ca028c7	0.019550694
115	0xbce01c3c	-0.027357213
116	0x3c4134b9	0.011792355
117	0x3d13486e	0.035957746
118	0x3da4ac1b	0.08040639
119	0xbac17567	-0.001475972
120	0xbd22ca6e	-0.039743833
121	0x3c5f6f3d	0.013637361
122	0x3dbc390f	0.091905706
123	0xbcbd9ad8	-0.023145124
124	0xbcf6a6d9	-0.030108856
125	0xbcffc8f2	-0.031223748
126	0x3c8689d7	0.016423149
127	0x3da1e576	0.07905094

action_model._continuous_distribution.log_sigma f4 [1, 2]
0	0x3ccb0583	0.024782902
1	0xbd590585	-0.05298378

action_model._continuous_distribution.mu.weight f4 [2, 128]
0	0xbd220d6b	-0.039563578
1	0x3d8a5046	0.06753592
2	0x3be4a107	0.006977204
3	0xbd307212	-0.043077536
4	0xbd8f9ca3	-0.07012298
5	0x3d0004d9	0.031254623
6	0x3def50ac	0.11685309
7	0x3d30195f	0.042992946
8	0x3d4d8575	0.050176103
9	0x3d1a8683	0.037725937
10	0xbd96e33f	-0.073675625
11	0xbd975c4e	-0.073906526
12	0x3ce90136	0.02844296
13	0xbba51f5c	-0.0050391387
14	0x3d9b690e	0.07588397
15	0xbce2cb10	-0.027684718
16	0x3d0ccf24	0.034377232
17	0x3d25ec76	0.04050871
18	0xbd7545dd	-0.05988108
19	0x3ddebeee	0.10876261
20	0xbda30225	-0.079593934
21	0xbd633db2	-0.05547876
22	0xbd52e8fc	-0.051491722
23	0xbdce8809	-0.100845404
24	0xbd7115df	-0.05885875
25	0x3db3c1a6	0.0877717
26	0x3db3f1d6	0.08786361
27	0xbdc34bc1	-0.09535933
28	0xbd87d728	-0.06632835
29	0x3d8874be	0.06662892
30	0xbda4c4da	-0.08045359
31	0x3d815e80	0.063168526
32	0x3cd75c6f	0.026289193
33	0x3c91faf2	0.017819855
34	0xbc349f74	-0.011024345
35	0xbce66c64	-0.028127857
36	0xbd814ca1	-0.06313444
37	0xbd9575ae	-0.07297836
38	0xbd77b0d4	-0.06047137
39	0xbd395a24	-0.04525198
40	0x3dc57834	0.096420676
41	0xbd9965a4	-0.074900895
42	0xbd86e71b	-0.065870486
43	0x3d5f31f9	0.054491017
44	0xbd443e18	-0.04791078
45	0x3b9e540c	0.0048317965
46	0x3d9582e1	0.07300354
47	0x3d85b1ce	0.06528054
48	0x3d000e56	0.03126367
49	0x3d1911f1	0.037370626
50	0x3d096ebb	0.033552866
51	0xbd7bd32d	-0.06148069
52	0xbd808ef2	-0.06277265
53	0x3d90a45a	0.070625976
54	0xbcfabb94	-0.030607022
55	0x3d4d6e6e	0.050154142
56	0xbdd47541	-0.10373927
57	0xbd7aebc0	-0.061259985
58	0xbca81f1b	-0.020522645
59	0xbdc55f56	-0.096373245
60	0xbd186b74	-0.03721185
61	0xbd2a4066	-0.04156532
62	0xbdb3b43e	-0.08774613
63	0xbcc281f6	-0.02374361
64	0xbdda521f	-0.106601946
65	0xbda9aa01	-0.08284379
66	0x3d056e1f	0.032575723
67	0x3d7a2911	0.06107432
68	0x3db47338	0.08811039
69	0xbc581b7d	-0.0131901475
70	0x3d8b4bf1	0.06801594
71	0xbc8c6a72	-0.0171406
72	0xbd876617	-0.06611269
73	0x3ca372d2	0.019952212
74	0x3db34484	0.08753303
75	0xbd3349b8	-0.043771476
76	0xbda56373	-0.08075609
77	0x3cbdef5a	0.02318542
78	0x3d5b1ac2	0.053492315
79	0x3d21de96	0.039518915
80	0x3d8995fd	0.06718061
81	0x3db254e2	0.08707596
82	0x3d0bfe24	0.034177914
83	0xbdcd1539	-0.100138135
84	0xbdd93e98	-0.10607642
85	0xbdb89a9a	-0.09013863
86	0xbdb68352	-0.08911766
87	0x3da6ac38	0.08138317
88	0x3da96bd7	0.08272522
89	0x3ce98778	0.02850698
90	0x3d74b08d	0.059738684
91	0xbd89d738	-0.06730503
92	0xbcf7f0ef	-0.030266253
93	0xbd0c2ce4	-0.0342225
94	0x3c8833a8	0.016626194
95	0x3d4af85f	0.04955327
96	0xbd8b8c6e	-0.06813894
97	0x3d8fe339	0.07025761
98	0x3cbddff0	0.02317807
99	0x3d9056d9	0.07047815
100	0x3da1021e	0.07861732
101	0x3ca3fa7b	0.0200169
102	0x3c91ab7d	0.017781967
103	0x3d95a820	0.07307458
104	0x3d49ad1a	0.04923735
105	0xbdab4824	-0.08363369
106	0x3d83ea34	0.06441155
107	0xbe0cb82d	-0.13742132
108	0xbc519929	-0.012792864
109	0x3cc97e94	0.02459649
110	0xbc21809f	-0.009857326
111	0x3d9fac9a	0.07796593
112	0xbdfec302	-0.124395385
113	0x3cc82f32	0.024436567
114	0x3d8ea5d5	0.06965224
115	0x3d17f076	0.037094556
116	0x3d5a46d8	0.053290218
117	0xbd1c4c42	-0.038158663
118	0x3de2becb	0.11071547
119	0xbc364514	-0.011124868
120	0x3d1d79c1	0.03844619
121	0x3dc0961c	0.09403631
122	0xbd3b3b78	-0.04571101
123	0x3cf09bf3	0.029371237
124	0x3d30a2ac	0.043123886
125	0x3d77d635	0.060507018
126	0x3c4b49db	0.012407745
127	0xbde94252	-0.11389603
128	0x3e1097df	0.14120434
129	0xbd53e206	-0.051729225
130	0xbc9c4445	-0.019075522
131	0xbdced97b	-0.10100075
132	0x3c75a2cd	0.014992428
133	0xbd68a795	-0.056800444
134	0xbdc4581b	-0.09587117
135	0xbdb8ec91	-0.090294965
136	0xbd1e7e16	-0.038694464
137	0x3e097a06	0.13425454
138	0x3d8a17c6	0.06742816
139	0xbd5fe02e	-0.054657154
140	0xbd0f582a	-0.03499619
141	0x3d912e7f	0.070889466
142	0x3dd62be9	0.10457594
143	0x3c66b38e	0.014080895
144	0x3bbae0ce	0.0057030683
145	0xbdab7985	-0.083727874
146	0x3d02dad5	0.031946976
147	0x3df98c56	0.1218497
148	0x3de0e678	0.109814584
149	0x3d65a9ac	0.056070015
150	0xbc3bb232	-0.011456059
151	0x3da0904e	0.07840024
152	0xbc10adf1	-0.008830533
153	0xbd89ab15	-0.067220844
154	0xbd85017e	-0.06494425
155	0x3d9c45a7	0.07630473
156	0x3b096a4f	0.0020967906
157	0xbd6f4f28	-0.0584251
158	0x3d42414c	0.047425553
159	0xbceb614e	-0.028732922
160	0xbd5856af	-0.052817043
161	0xbda8d639	-0.08243985
162	0x3ddac0df	0.106813185
163	0x3dee0e5e	0.11623834
164	0x3b751c38	0.0037400853
165	0x3cbf2ab1	0.023335787
166	0x3cf12c49	0.029440062
167	0x3d5d2275	0.05398794
168	0xbd669f8c	-0.0563045
169	0x3dde79c7	0.10863071
170	0x3defdfec	0.117126316
171	0xbcf8253f	-0.030291198
172	0x3dce9cae	0.10088478
173	0xbd59f6fb	-0.053214055
174	0x3d9a0421	0.07520319
175	0x3cddee90	0.027091295
176	0xbd71323d	-0.0588858
177	0xbd50dc94	-0.05099161
178	0xbdb791b4	-0.089633375
179	0xbd81b6ef	-0.0633372
180	0x3dbaa97b	0.09114357
181	0x3d5a795f	0.053338405
182	0x3deafb15	0.11473671
183	0xbdb88e3d	-0.09011505
184	0x3d444552	0.04791767
185	0x3dc84b2f	0.09779965
186	0x3dc14fbc	0.09439036
187	0x3db880a7	0.090089135
188	0xbd2fa069	-0.04287759
189	0xbc91c846	-0.017795693
190	0x3db8db34	0.09026185
191	0x3cd79727	0.026317192
192	0x3e08c15f	0.13355015
193	0x3d7ae7da	0.061256267
194	0xbc8459fd	-0.016156191
195	0xbd517bba	-0.051143385
196	0xbd6533f8	-0.055957764
197	0x3d91f489	0.071267195
198	0xbe0590da	-0.13043538
199	0x3d13f168	0.036118895
200	0x3cc9e6d1	0.024646195
201	0xbd51ed90	-0.051251948
202	0xbd14f35a	-0.03636489
203	0x3d85bc1c	0.0653002
204	0x3dc7dae8	0.0975855
205	0x3dd96515	0.10614983
206	0xbd649766	-0.055808447
207	0x3dad9447	0.08475547
208	0xbd657f66	-0.0560297
209	0xbdabdec4	-0.083920985
210	0xbd929970	-0.07158172
211	0x3d7ccc0b	0.061718028
212	0x3dc13049	0.09433038
213	0x3da4eb1c	0.08052656
214	0x3ddcffb1	0.10790957
215	0xbd81a978	-0.06331152
216	0x3dcab928	0.09898597
217	0x3c0831f5	0.008312692
218	0xbc44c9d5	-0.012011011
219	0x3d72ea21	0.059305314
220	0x3d8632c6	0.06552653
221	0x3d7d1804	0.06179048
222	0xbc9115a0	-0.017710507
223	0xbd54d662	-0.051962264
224	0x3df47cab	0.11937841
225	0xbc9a3ff8	-0.01882933
226	0x3e0b1c5b	0.13585036
227	0xbd2a5653	-0.04158623
228	0xbd5a4c0a	-0.053295173
229	0xbd514064	-0.0510868
230	0xbc0dd86c	-0.008657556
231	0xbda79a02	-0.081836715
232	0x3cd136b0	0.025538772
233	0x3ca84453	0.020540392
234	0x3c4c4fe9	0.012470224
235	0x3d5c6a71	0.053812448
236	0x3d84dc15	0.0648729
237	0xbc810d91	-0.01575354
238	0xbd99b609	-0.075054236
239	0xbdacb742	-0.08433391
240	0xbab4db4d	-0.0013798267
241	0xbd7d7bb1	-0.06188554
242	0xbd435a6d	-0.04769366
243	0xbd5d18c2	-0.05397869
244	0xbd79ed11	-0.0610171
245	0x3db39496	0.08768575
246	0x3d1e1266	0.038591765
247	0x3c2889d2	0.010286765
248	0xbd29bb30	-0.04143828
249	0xbd5a8ce6	-0.053357027
250	0x3ddd9be2	0.10820748
251	0xbd46bab6	-0.048517905
252	0xbde4df63	-0.1117542
253	0xbdc34546	-0.09534697
254	0x3cd1fcbb	0.025633207
255	0x3e1deed9	0.15423144

action_model._continuous_distribution.mu.bias f4 [2]
0	0x3c8c5ecd	0.017135048
1	0x3d36519e	0.04451143

exp_avg f4 [128, 90]
0	0x39c8c365	0.00038292553
1	0x39c29a7a	0.00037117657
2	0x39c0a8e7	0.00036746936
3	0x39c0de8b	0.000367869
4	0x39b92f06	0.00035320985
5	0x39a5ec62	0.0003164737
6	0x398dd83e	0.0002705473
7	0x3966191b	0.00021943862
8	0x37e6c8fe	2.751173e-05
9	0x379516f0	1.7772865e-05
10	0x375e8dfc	1.3265289e-05
11	0x375825e3	1.28834245e-05
12	0x3747b38a	1.19031265e-05
13	0x37376a62	1.0932419e-05
14	0x370a6638	8.249241e-06
15	0x37029dc9	7.785341e-06
16	0x36e93693	6.9502944e-06
17	0x36e396b5	6.782672e-06
18	0x36e52d29	6.829989e-06
19	0x36fdf9db	7.5690746e-06
20	0x36fbce0f	7.5043713e-06
21	0x36fa965d	7.468085e-06
22	0x36ede034	7.089251e-06
23	0x36e1e304	6.7319506e-06
24	0x36eecb45	7.1166164e-06
25	0x36ed626e	7.074609e-06
26	0x36eca3f3	7.0524343e-06
27	0x36f49670	7.28928e-06
28	0x36fa9024	7.467361e-06
29	0x3704597b	7.888647e-06
30	0x37078120	8.076691e-06
31	0x370e0cd8	8.46685e-06
32	0x370b9f96	8.322202e-06
33	0x370dbaf4	8.447783e-06
34	0x370bbeac	8.32944e-06
35	0x3710393a	8.596393e-06
36	0x370fb6aa	8.565994e-06
37	0x3711c998	8.689611e-06
38	0x3712b56e	8.7445205e-06
39	0x3719c06b	9.164311e-06
40	0x371ebbba	9.461242e-06
41	0x371e1e6e	9.424619e-06
42	0x37217483	9.623475e-06
43	0x372af2e5	1.0189343e-05
44	0x372a63f3	1.0156061e-05
45	0x372c57cf	1.0272443e-05
46	0x39cd05b8	0.00039104908
47	0x39d3e229	0.0004041356
48	0x39d390f9	0.0004035307
49	0x39d36b64	0.00040325068
50	0x39d6a278	0.0004093831
51	0x39d7e33c	0.00041177298
52	0x39ea4a7e	0.0004468746
53	0x3a0fa3f9	0.0005479451
54	0x3a12bb1f	0.0005597341
55	0x3a177934	0.00057782535
56	0x3a328418	0.00068098446
57	0x3a47d6b8	0.0007623243
58	0x3a369a83	0.0006965773
59	0x3a48f539	0.00076659356
60	0x3a47333a	0.0007598881
61	0x3a5789b1	0.0008222117
62	0x39bcf337	0.00036039363
63	0x39d22ea6	0.00040089077
64	0x39ad6008	0.0003306868
65	0x3a0dc29c	0.0005407722
66	0x39d9b176	0.00041521684
67	0x39e3bc99	0.0004343733
68	0x39926476	0.0002792214
69	0x393495ff	0.00017222016
70	0x39614f8a	0.00021487303
71	0x39888208	0.00026036822
72	0x395ccba7	0.00021056701
73	0x3942fc35	0.00018595236
74	0x3a035823	0.0005010387
75	0x397047df	0.00022914958
76	0x38abad74	8.1862236e-05
77	0xb8488ad2	-4.7813002e-05
78	0xb8d441c8	-0.000101212005
79	0xb903ce99	-0.00012570097
80	0xb905c83f	-0.00012758466
81	0x393de527	0.0001810981
82	0x38f5b077	0.000117153795
83	0x387fac05	6.0956943e-05
84	0x3810ecdf	3.455288e-05
85	0x3726c4ae	9.940164e-06
86	0x370c9329	8.378914e-06
87	0x3711ba5a	8.686062e-06
88	0x37277a3d	9.9824365e-06
89	0x372bc01a	1.0237121e-05
90	0xb9fbf37c	-0.0004805586
91	0xb9ec3587	-0.0004505331
92	0xb9fd869b	-0.0004835621
93	0xba0d5c9e	-0.0005392524
94	0xba13203e	-0.00056124094
95	0xba3227da	-0.00067960995
96	0xb9c82c5c	-0.00038180023
97	0xb998eeed	-0.00029169713
98	0xb7f90306	-2.9684521e-05
99	0xb7a0dd37	-1.9176498e-05
100	0xb7702509	-1.4313738e-05
101	0xb7693b5a	-1.3901701e-05
102	0xb7577c2e	-1.28439115e-05
103	0xb745e981	-1.1796482e-05
104	0xb7155684	-8.901236e-06
105	0xb70cf099	-8.400669e-06
106	0xb6fba544	-7.4996224e-06
107	0xb6f593a0	-7.318755e-06
108	0xb6f74a36	-7.369813e-06
109	0xb7090653	-8.167309e-06
110	0xb707da78	-8.097493e-06
111	0xb7073253	-8.058344e-06
112	0xb70056a1	-7.649564e-06
113	0xb6f3bd83	-7.2640264e-06
114	0xb700d575	-7.679094e-06
115	0xb70012c2	-7.633762e-06
116	0xb6ff580d	-7.6098427e-06
117	0xb703f5a7	-7.865404e-06
118	0xb7072ef2	-8.057557e-06
119	0xb70ecf5c	-8.512139e-06
120	0xb71236da	-8.715049e-06
121	0xb7194701	-9.1360425e-06
122	0xb716a8a4	-8.979961e-06
123	0xb718eea5	-9.11547e-06
124	0xb716ca30	-8.987772e-06
125	0xb71b9f60	-9.275827e-06
126	0xb71b127b	-9.243023e-06
127	0xb71d4f61	-9.376411e-06
128	0xb71e4ddb	-9.435661e-06
129	0xb725e75c	-9.888634e-06
130	0xb72b4768	-1.020902e-05
131	0xb72a9da9	-1.0169498e-05
132	0xb72e373b	-1.03840675e-05
133	0xb737e1a9	-1.0960191e-05
134	0xb7374769	-1.09242765e-05
135	0xb73962c1	-1.1049852e-05
136	0xba0564fb	-0.00050885946
137	0xba161389	-0.0005724957
138	0xba272c59	-0.0006377153
139	0xba374950	-0.00069918204
140	0xba48bd0b	-0.0007657564
141	0xba5c00f5	-0.00083924766
142	0xba6ebd8d	-0.0009107225
143	0xba7aa258	-0.0009560934
144	0xba89d8d3	-0.0010516889
145	0xba8f6cf6	-0.0010942507
146	0xbaa2c754	-0.0012419024
147	0xbab4f410	-0.0013805646
148	0xba9fb730	-0.0012185331
149	0xbaa30d59	-0.0012439891
150	0xbab7b80c	-0.0014016642
151	0xbaea13fe	-0.0017858741
152	0xba587a9a	-0.0008258015
153	0xba798410	-0.0009518275
154	0xba2e063f	-0.0006638504
155	0xba31fc6d	-0.00067896285
156	0xb94d9a13	-0.0001960772
157	0xba24380d	-0.0006264456
158	0xba28eb60	-0.0006443765
159	0xba6820e9	-0.00088550017
160	0xba9afc07	-0.0011824378
161	0xba840955	-0.0010073582
162	0xba613918	-0.00085915765
163	0xba4e476f	-0.0007868921
164	0xbab1a819	-0.0013554125
165	0xba7b09d3	-0.0009576354
166	0xba695108	-0.0008900319
167	0xba3f8e0d	-0.0007307239
168	0xb9e1bf45	-0.0004305785
169	0xb9522ca1	-0.00020043786
170	0xb910fcac	-0.00013827038
171	0xb889cc3e	-6.570712e-05
172	0xb829fee7	-4.0530136e-05
173	0xb8310339	-4.220309e-05
174	0xb81c6131	-3.7283815e-05
175	0xb733f2ec	-1.0725791e-05
176	0xb717af6e	-9.041147e-06
177	0xb71d3ee1	-9.372569e-06
178	0xb73422bd	-1.0736924e-05
179	0xb738bf0d	-1.1011737e-05
180	0x3a1e8c63	0.0006048141
181	0x3a1d523c	0.00060013286
182	0x3a1e0fc1	0.0006029569
183	0x3a21822f	0.00061610615
184	0x3a1aae56	0.0005900612
185	0x3a13aa15	0.0005632949
186	0x39f40e5d	0.00046550008
187	0x39c5355e	0.0003761453
188	0x38498abb	4.8051337e-05
189	0x380232b8	3.104165e-05
190	0x37c25c92	2.3169709e-05
191	0x37bcc435	2.2502712e-05
192	0x37ae6738	2.0790481e-05
193	0x37a02e39	1.909501e-05
194	0x3771bbdd	1.440846e-05
195	0x376423cb	1.3598193e-05
196	0x374bab79	1.2139667e-05
197	0x3746c202	1.1846891e-05
198	0x374824fa	1.1929538e-05
199	0x375dcd69	1.3220452e-05
200	0x375be809	1.3107442e-05
201	0x375ad7d5	1.3044065e-05
202	0x374fbde1	1.2382371e-05
203	0x37454588	1.1758304e-05
204	0x37508b31	1.2430174e-05
205	0x374f5014	1.2356806e-05
206	0x374ea9b6	1.2318071e-05
207	0x37559a76	1.2731753e-05
208	0x375ad267	1.3042801e-05
209	0x37672acb	1.37786365e-05
210	0x376cad74	1.4107081e-05
211	0x37781c53	1.4788547e-05
212	0x3773df37	1.45359e-05
213	0x37778d49	1.4755243e-05
214	0x37741583	1.4548542e-05
215	0x377be821	1.5014813e-05
216	0x377b0415	1.4961716e-05
217	0x377ea368	1.5177626e-05
218	0x37801fae	1.5273541e-05
219	0x37864643	1.6006763e-05
220	0x378a9fe6	1.652534e-05
221	0x378a168a	1.6461378e-05
222	0x378d006c	1.6808706e-05
223	0x378c2613	1.670703e-05
224	0x378ba93f	1.6648903e-05
225	0x378d5db1	1.6852138e-05
226	0x3a2453c7	0.00062685873
227	0x3a2f6f70	0.00066923257
228	0x3a395525	0.00070698775
229	0x3a444c4f	0.00074881775
230	0x3a4ec692	0.00078878656
231	0x3a5caade	0.0008417795
232	0x3a677aa7	0.00088302273
233	0x3a699acf	0.0008911313
234	0x3a75b2b4	0.0009372637
235	0x3a70af22	0.000918137
236	0x3a978fc0	0.0011563227
237	0x3ab73e53	0.0013980366
238	0x3aa61777	0.0012671788
239	0x3aca0822	0.0015413801
240	0x3ae4d3ea	0.0017458175
241	0x3b0c371b	0.002139515
242	0x3a8c5987	0.0010707834
243	0x3a8f6497	0.0010940012
244	0x3a0a53bd	0.000527676
245	0x3a18a7e3	0.0005823357
246	0x36076959	2.0177888e-06
247	0x3a28b08c	0.0006434999
248	0x3a28e1ad	0.000644232
249	0x39cfe026	0.0003964912
250	0x3a2c61d9	0.000657586
251	0x39c983bf	0.00038435866
252	0x3974e235	0.00023353922
253	0x39a9ea51	0.0003240877
254	0x3a995a68	0.0011699917
255	0x3a48af38	0.0007655504
