results/90RC1/Park90RC/Park90RC-2999876.onnx (onnx, 119662 bytes, 9 tensors)

network_body.observation_encoder.processors.0.normalizer.running_mean f4 [90]
00000000: 39c1 413f b5f5 443f aa62 483f fd4e 4c3f
00000010: eae2 503f 092b 583f 8795 673f 0fbb 723f
00000020: 05be 7f3f 03e7 7f3f 54f3 7f3f 7cf8 7f3f
00000030: 7bfa 7f3f a7fb 7f3f 09fd 7f3f 4dfd 7f3f
00000040: b7fd 7f3f d7fd 7f3f e0fd 7f3f a7fd 7f3f
00000050: bbfd 7f3f b6fd 7f3f edfd 7f3f 14fe 7f3f
00000060: e8fd 7f3f e2fd 7f3f e6fd 7f3f e2fd 7f3f
00000070: d3fd 7f3f a4fd 7f3f 7ffd 7f3f 57fd 7f3f
00000080: 59fd 7f3f 55fd 7f3f 41fd 7f3f 14fd 7f3f
00000090: f4fc 7f3f d8fc 7f3f b9fc 7f3f 99fc 7f3f
000000a0: 71fc 7f3f 61fc 7f3f 83fc 7f3f 79fc 7f3f
000000b0: b0fc 7f3f c9fc 7f3f 93e7 3e3f d559 3c3f
000000c0: 6509 3a3f e3e6 373f 20f1 353f f708 343f
000000d0: 6d21 323f cae8 2f3f e2d3 2c3f 56ba 283f
000000e0: cad6 233f 9b49 1f3f e2dc 1c3f 54c1 1d3f
000000f0: 5b76 1f3f 7ad6 203f 749b 213f 8c6f 1f3f
00000100: 59c1 1f3f b65e 233f 7027 283f a2b3 2d3f
00000110: d6b3 313f f73b 333f ef9b 343f 6916 373f
00000120: a4e9 3d3f e603 493f 5033 563f c275 633f
00000130: eec7 6b3f 48c3 703f 5f58 763f 7434 7b3f
00000140: d610 7e3f 4629 7f3f aea3 7f3f 2bde 7f3f
00000150: 36f4 7f3f acfd 7f3f e6fd 7f3f befd 7f3f
00000160: 35fd 7f3f 0afd 7f3f
0.7568546 0.7693742 0.7827555 0.79808027 0.81596243 0.84440666 0.90462536 0.9481668
0.9989932 0.9996187 0.99980664 0.9998853 0.9999158 0.99993366 0.99995476 0.9999588
0.99996513 0.99996704 0.9999676 0.9999642 0.99996537 0.9999651 0.99996835 0.9999707
0.99996805 0.9999677 0.99996793 0.9999677 0.9999668 0.999964 0.9999618 0.9999594
0.9999595 0.9999593 0.9999581 0.9999554 0.9999535 0.99995184 0.99995 0.9999481
0.9999457 0.99994475 0.9999468 0.9999462 0.99994946 0.99995095 0.74572104 0.7357457
0.72670585 0.7183668 0.7107105 0.7032618 0.69582254 0.6871458 0.6751081 0.65909326
0.6399962 0.6222169 0.6127454 0.6162312 0.6228997 0.62827265 0.6312783 0.6227958
0.624044 0.6381639 0.65685177 0.6785222 0.6941503 0.70013374 0.70550436 0.7151857
0.7418463 0.78521574 0.83672047 0.8885156 0.92101943 0.94047976 0.96228594 0.9812691
0.9924444 0.99672353 0.9985913 0.99948376 0.9998201 0.9999645 0.99996793 0.99996555
0.9999574 0.9999548

network_body._body_endoder.seq_layers.0.weight f4 [128, 90]
00000000: 0b93 aabd 681d 2ebe 205d 5cbe 1bc1 173e
00000010: ba38 403d 5d36 f2bd 4e7d 28be 7b67 8ebd
00000020: dbe7 ec3d 39fd 56bd 7e53 d73d 6693 f03c
00000030: 82a3 e4bd dac1 d3bd c18a 3e3c 6a54 44be
00000040: 03be 0abe d4e2 9abe ebfe 013e 9fa1 e8bc
00000050: bf55 143e daa0 bb3a acd5 0abd 9166 593e
00000060: d3b5 d3bd af12 5dbe 2c6a 3dbe 4a5f 0fbe
00000070: d54d 8c3d cbc6 a6bd 8745 2bbc df21 2c3d
00000080: 4e23 533e 829f e8bc f56f 483e a1e9 78bc
00000090: 74c1 503e a376 143e 6b42 0b3e 9d53 83be
000000a0: 2fe1 08be 5533 0fbe 5e86 d3bd 90c8 43be
000000b0: 238f f4bd 3cc5 f5bd e533 eb3b 5e1a 623e
000000c0: 6ef1 ccbd 958a 98bc 5252 a6bd 9ce7 863c
000000d0: 8404 113e 6a41 2a3e d257 c2bd 3460 fd3d
000000e0: 7461 bd3d 3d1a b7bc b336 7c3e f204 9c3d
000000f0: 375d debd 1809 b2bc eb1c c83a ccb8 623e
00000100: 1dd8 4c3e 6380 b53d 056a 013e 9ec0 9c3d
00000110: cd68 e33d 1a58 39bc 5974 de3d 749d 2abb
00000120: 3d1b 41be 8c18 663d 8043 39bd 4d39 d6bd
00000130: 9976 bdb9 c6d5 023b 75ac 883c c38f 09be
00000140: 40eb 463e 7f1b 503d fedf 23bd 9579 103e
00000150: 7a23 16be 2e5e f1bd 0e9e 5dbc 3656 123c
00000160: fa6a 09be ba44 5e3e 8c2a 77bc a0a5 91bd
00000170: 861d 8dbc bb37 1f3e b4be 90bc cf64 2cbd
00000180: e153 b03d bf37 39bb 2765 58be 6240 103c
00000190: aca6 733e 1f65 b23d 1da3 123e 2687 463e
000001a0: 5c6a 82bd dafb 2bbe f71d f1bd 496d 9d3c
000001b0: dd7d d839 aa7c 3bbe de7b 123e ad84 413d
000001c0: 51e4 7d3d 1d5e 813d c53b 263d 7a4d dabc
000001d0: 5ae6 95bc 2139 713d a380 903e 140d 233c
000001e0: 7219 db3d e2fc 963d e919 39bd eb4c 17bc
000001f0: a931 273d 0a4f 8a3d 29c7 d93d cb56 45bd
00000200: b550 d43c 5c95 513e e698 db3c e825 f6bd
00000210: 1f05 76bc 968b 283e c3cd 28be abc4 1c3e
00000220: fd75 aebc 26d5 8ebd a338 573d 1603 563d
00000230: 2dc0 863c d4e7 d7bd 4afb cabd d2f6 2a3e
00000240: 6b01 423e d36f 4ebe 86c2 f7bd b1f6 963d
00000250: ca15 613b b429 3fbd 3249 3e3c 281f 133e
00000260: 6a77 953d 5e26 563e 7175 ff3d 58fb f33d
00000270: 0b96 dfbd 92c2 833d 355f 47be 7097 65bc
00000280: 0c18 c83c 68e5 b9bd ce3c 6bbd b900 7b3e
00000290: ca56 6cbd 42b6 1b3e 67af c43d 4b56 893c
000002a0: 08ca 983e 3fe3 fe3d b70a 7cbd 6058 0d3e
000002b0: 603b 703d 7f0d acbd bd3f e4bd abdf a3bd
000002c0: 6a6f bdbd b890 36be 0679 a6bc 62bb 0ebd
000002d0: bc9f 24be 7708 7a3e 3547 0e3e 548f f63b
000002e0: 5e68 a7bd 9e83 623d 7d8e 42be 75a7 e2bc
000002f0: 0213 6fbc b72b 54bd eb08 31be 9bc0 36be
00000300: 36be 803b 5011 003d 38f9 003e 19e1 b2bc
00000310: e918 98ba 9760 75bb 39e9 22be d9c4 963c
00000320: b25e d43c f517 cfbd f43f 3bbd 8309 56be
00000330: 927f 24be 2eb5 23be f700 1f3c 57e7 dcbb
00000340: 8964 853d d216 583b bef5 1f3e 4038 7abe
00000350: ef4a 3b3e b05e c4bd 0240 a9bd 15a2 a9bc
00000360: cfe1 333e 8462 f93d b676 663e 4aa2 d4bd
00000370: 4603 043d 00eb 0bbe 943b 813d 7977 9ebd
00000380: 2b88 a5bd bbae afbd 140f 53be 5e7f 31be
00000390: 25a0 92bd 0e8c aebd f14c 2ebc cd5b 053d
000003a0: c7c2 6a3d 91d9 543e 3357 e23d 1abe dcbc
000003b0: 12eb d83e bb7e 163e c995 95bc 16ed 92bd
000003c0: 8af8 333d 87a3 243e 08b1 b7bc 55d1 b7bd
000003d0: 641a 483e 634d 45bd b415 913e 36e3 6d3a
000003e0: 7086 a43e d3d1 8b3d 9907 2bbe f2b6 413d
000003f0: 2bf3 0c3d 4fab 183e b2a7 4fbd 43bc e13c
-0.083288275 -0.17003405 -0.215199 0.14819758 0.0469291 -0.11826775 -0.1645405 -0.06953331
0.115676604 -0.052487586 0.10513972 0.02936716 -0.11163999 -0.103397086 0.011629761 -0.19172826
-0.13549046 -0.3025118 0.126949 -0.02839738 0.14485835 0.0014314905 -0.03389518 0.21230532
-0.103374146 -0.21589158 -0.18497533 -0.14001194 0.06850783 -0.081433855 -0.010453588 0.04202449
0.20618936 -0.028396372 0.19573958 -0.01519242 0.20386297 0.14498381 0.13599555 -0.2564973
-0.1336715 -0.13984425 -0.10328363 -0.19119477 -0.11941364 -0.1200051 0.007177817 0.22080371
-0.100069866 -0.018620769 -0.0812117 0.016467862 0.14161879 0.16626516 -0.09489407 0.12371865
0.09247103 -0.022351379 0.24630241 0.07618131 -0.10857623 -0.021732852 0.0015267407 0.22140807
0.20004316 0.088623784 0.126381 0.07653926 0.111039735 -0.011312509 0.10862035 -0.002603379
-0.18858047 0.056175753 -0.04523039 -0.10460148 -0.0003613725 0.0019963845 0.016683796 -0.13433747
0.19425678 0.050807472 -0.040008537 0.1410888 -0.1466197 -0.117855415 -0.013526453 0.008931687
-0.13419715 0.21705905 -0.015085828 -0.071116686 -0.017225992 0.15548603 -0.01766906 -0.042088326
0.08609749 -0.0028261987 -0.21132337 0.008804413 0.23794049 0.087106936 0.14320035 0.19387493
-0.06367943 -0.16795292 -0.117732935 0.01921715 0.00041292506 -0.18309274 0.14305064 0.04724567
0.061985318 0.06316779 0.040584344 -0.026648272 -0.018298317 0.058892373 0.28223142 0.009951849
0.10698213 0.07372452 -0.045190725 -0.009234647 0.040818844 0.06753357 0.1063369 -0.048178475
0.02591739 0.20467132 0.026806306 -0.12018949 -0.015015869 0.16459498 -0.16484742 0.15309398
-0.021296496 -0.069742486 0.052544247 0.052249037 0.016449058 -0.105422646 -0.09911211 0.16695717
0.18945853 -0.20159845 -0.12097649 0.073712714 0.0034345263 -0.04667063 0.011614131 0.14367354
0.07298167 0.20913073 0.12473572 0.119131744 -0.1091729 0.06433596 -0.19469912 -0.014013156
0.024425529 -0.09076959 -0.057431035 0.24511994 -0.057699956 0.15206245 0.09603768 0.01676478
0.29841638 0.124456875 -0.061533656 0.13803244 0.058650374 -0.08401012 -0.111449696 -0.08001646
-0.09249766 -0.17828643 -0.02032138 -0.03484667 -0.16076559 0.24417292 0.13894351 0.0075244103
-0.08174203 0.0553013 -0.18999667 -0.02766774 -0.014591934 -0.051799502 -0.17288558 -0.1784691
0.003928925 0.03126651 0.1259507 -0.02183585 -0.0011604103 -0.0037441605 -0.1590928 0.018404411
0.02592406 -0.10111991 -0.045715287 -0.20902066 -0.16064289 -0.15987083 0.00970482 -0.006741445
0.06513316 0.0032972586 0.15621087 -0.2443552 0.18290304 -0.09588373 -0.08264162 -0.02070717
0.17566608 0.121769935 0.22506222 -0.10382517 0.032229684 -0.13663864 0.06310192 -0.07737631
-0.080826126 -0.08578249 -0.2061122 -0.17333743 -0.071594514 -0.08522807 -0.010638461 0.03255825
0.05731466 0.2078612 0.11051788 -0.026946116 0.42366844 0.14696781 -0.0182599 -0.07174127
0.043938197 0.16078006 -0.022423282 -0.08975474 0.19541317 -0.048169505 0.2833687 0.00090746896
0.32133818 0.0682713 -0.16702117 0.04729361 0.03441159 0.14909099 -0.050697036 0.02755559

network_body._body_endoder.seq_layers.0.bias f4 [128]
00000000: a040 8fbd d312 313d 9a7f 41bc af9e 3d3d
00000010: 6146 2c3d f73b 21bd b97c 473d b9f6 723d
00000020: 5672 aebc 3cea 4b3d 0cf0 e3ba d54a b03d
00000030: 7928 843d 9646 c13c 4862 293d 2501 0e3d
00000040: d5c7 6cbd 2aa5 dabc 54a1 bdbd 3aa0 5c3c
00000050: 82fd 0fbd ace1 9d3d fc0d 1c3d 64df cb3c
00000060: 1b9e 913d a1d7 673d 357a cd3d 17d7 d33d
00000070: a759 d03d 62b2 613d d937 27bd bfc5 2cbd
00000080: 3d75 e8ba 26c9 19bd 30f1 b73b 7fdf 5f3d
00000090: a7af 8bbd c4b0 89bc b2ea bfbd bdce 55bd
000000a0: 4888 78bb 4f9c 153d 883c 29bb 17d3 02bc
000000b0: 084a 993d 070a 3bbd e3d0 54bd dd79 39bd
000000c0: ce83 633c 8d10 563d cae7 b4bd ba9e 07bd
000000d0: f5eb 3ebb 7d97 873d feda bebc ab93 9bbc
000000e0: 631b 1a3d 499a 133d fa08 acbc b1cd 21bc
000000f0: c49a 2cbd dde6 34bd 8737 2f3d ae34 5b3d
00000100: 6f99 c33d c096 553d f808 5bbd 5eb0 22bc
00000110: 269e 453c f7a5 98bd c5ea f53c 9cec 9f3d
00000120: 7793 f4bd 9ffb 03bc 3e99 90bd 3ad8 503c
00000130: 48ba 48bc 2a32 e63d 49bc af3d ea85 dc3c
00000140: cc4e b8bc e708 73bd 4a05 02ba 9775 13bd
00000150: e64a 04bc e138 09bd dbb2 a63d 444c 923d
00000160: 7036 453d 858c 10bd 8bda 10bd c702 893d
00000170: 2f43 583d dc3e bcbd d215 a63d 0093 143d
00000180: 2ce2 253d f956 a33b 53a1 a83d e5e7 dfbc
00000190: 2b95 86bc 0ec4 32bc 24ff b43d 2fd4 42bc
000001a0: 6033 24bd 20b9 21bd 7acf 7e3d a83a 903d
000001b0: 14dc d73c e5f1 913b f027 2abc f65d 883d
000001c0: 76a1 72bd e46b d63b 87b5 65bd 5d2b 743c
000001d0: 4673 9ebd 6fc2 b2bb bb67 c4bd 5f5f 933d
000001e0: 47ea ccbc eaf8 053d cac5 433c 43b0 dfbb
000001f0: 088a e23d ea76 39bd cc91 3dbd 9755 f33c
-0.06994748 0.043230843 -0.011810208 0.04629391 0.042059306 -0.039363828 0.04870293 0.059317324
-0.021294754 0.04978393 -0.0017390265 0.08608023 0.06453032 0.023593228 0.041353494 0.03466906
-0.057807762 -0.026690084 -0.092592865 0.013465935 -0.035153873 0.07709059 0.038099274 0.024886794
0.07110234 0.056602124 0.10033075 0.103437595 0.1017335 0.05510176 -0.040824745 -0.042180773
-0.0017735135 -0.037545346 0.0056134686 0.0546565 -0.068206124 -0.016807921 -0.093709365 -0.052199114
-0.0037923027 0.03652602 -0.0025823433 -0.007984898 0.074848235 -0.04566386 -0.051957022 -0.045282234
0.013886405 0.052261878 -0.08833273 -0.033110358 -0.002913234 0.06620691 -0.023297783 -0.018991312
0.037623774 0.03603581 -0.021000374 -0.009875701 -0.042139784 -0.04416548 0.042777564 0.053517036
0.095507495 0.05214572 -0.05347535 -0.0099297445 0.012061631 -0.0745353 0.030019173 0.078088015
-0.11942189 -0.008055597 -0.07060479 0.012746865 -0.012251444 0.11240037 0.085808344 0.026919324
-0.02249851 -0.05933466 -0.00049598946 -0.036000814 -0.008074498 -0.03350151 0.08139583 0.07143453
0.04814762 -0.03529026 -0.03536467 0.06689983 0.052798446 -0.09191677 0.08109631 0.036273003
0.040498897 0.004984733 0.08233895 -0.027332256 -0.01642855 -0.010911001 0.08837727 -0.011891409
-0.040088058 -0.03948319 0.062209584 0.07042438 0.026350059 0.004453885 -0.010385498 0.066585466
-0.059236012 0.0065436233 -0.05608132 0.014902917 -0.077368304 -0.005455307 -0.095900975 0.07195925
-0.025014056 0.032708086 0.011949012 -0.006826432 0.110614836 -0.04527942 -0.04628162 0.029703898

network_body._body_endoder.seq_layers.2.weight f4 [128, 128]
00000000: 3f25 70bd 77cc 8d3d 5826 243d 4d4c ca3d
00000010: 228c 0bbe 7b9a 2fbe 884f 083e 23b7 153e
00000020: 24a5 00bb 4eab 5f3d 82ce 2d3d d4b4 883d
00000030: 4cb1 a63d 4f92 f63d 0154 fb3d a783 5b3d
00000040: 0f8b 0fbe 3919 60bd 2a4d 8dbd 0cba 003e
00000050: dea6 90bc 72ea 323e 37ff 1fbd 17f7 bfbd
00000060: b52e 573e fa51 af3d 9afa 9e3e ee5a a13d
00000070: 21d9 b63d f34f 733d 4080 dabd 67f5 c3bc
00000080: a876 2a3e b467 2abe 145b bdbd 3a32 ce3d
00000090: 32cc e7bd 7f17 013e df7e 6e3c 1129 8cbe
000000a0: dc5d fb3b 1235 f0bd 26d5 af3d 150d fbbc
000000b0: 08c2 81bc f360 ea3d 4331 d1bd fba6 d23c
000000c0: fd99 28be 4a70 ab3d 7ac0 b2bd 3459 b03d
000000d0: 69a8 4fbe 3a0b b13d d0b1 bd3c 408a 90bd
000000e0: 2162 dabb 6668 b13d fb12 96be 6254 373c
000000f0: b273 0f3d e668 99bd a712 883d 2c36 d33d
00000100: 11de 9e3d 2e58 883e afaf 99bd 45c9 2a3d
00000110: 5b36 e8bd fa9e 2e3d 5611 b23e bdf5 363c
00000120: b468 8abd 1fcb 163d 83f5 9fbc ab39 22be
00000130: 1f39 d8bd f968 52bd b284 5b3e d2dc f83c
00000140: 4c4d 54bd 4473 49be 11f5 4bbe 00d7 c5bd
00000150: 36c2 afbd d06f 25bd 8b0f 893d 20db ccbd
00000160: 14e5 d43c 2354 f8bd a178 503d 285e fb3d
00000170: 000f 8cbd 9980 63be 08d3 933e 754e bebd
00000180: 1a90 e7bd 9472 22be 19dd 923e 20aa 1fbe
00000190: 79e3 11bd 4d7e e7bd c130 283e 2c3f 43bd
000001a0: cec9 0b3d daf7 52bd 5853 0fbc f795 0b3d
000001b0: 743f 473b f529 233e 03dd a7bd fd96 fd3a
000001c0: 118d 9fbe fa78 a8bb 40ef 40be 6e97 bc3d
000001d0: 5669 1b3d 48bc 85bd dc85 1cbe ffbe eb3d
000001e0: 1598 d0bd f606 0ebe 7999 73bc b980 c13c
000001f0: f327 353e 5619 74bb da6a a53c 9306 953d
00000200: 5c39 1dbb ddfe 0abe 3e80 143e 2b54 a13d
00000210: 6683 ee3c 6419 89bd e1e2 3bbd 7e1b cdbb
00000220: bfb1 ff3d 7a26 e5bc a83f 8c3e d4b1 a4bd
00000230: 348c 113e 8813 8cbd 1c75 f5bb 7bce 28be
00000240: 2b14 30be d2b3 14bd 8296 50bd 7593 38bd
00000250: 220c 27be bfeb 01be e16e 1e3e fca7 c1bd
00000260: 19ae cebd 3c4f 70bc e51b c8bd 0fa0 34be
00000270: bb2c 71bb 5e0c 96bc a8a2 703e f4b5 d33d
00000280: 85db 47bd 23fe a1bd f13a febd e52e a13d
00000290: 5370 9abd 27ec a7bc a5ab 71bc 19a0 21bd
000002a0: c0ee 22bd 9bdf febd d2aa 7fbe e230 d7bc
000002b0: 30c4 223e 27ba 863d 2779 083e 9d93 293d
000002c0: f75c 3bbe 203b 4ebe 11fb b03b 7522 503c
000002d0: a259 d83d abf5 c5bd 2e49 c8bd 5029 1abe
000002e0: aab7 bbbd 84b3 f0bd 3f62 0c3d a1d2 45be
000002f0: bbbd c13d e3c0 ca3c 7c87 f4bd 422b 56bd
00000300: e83e 343d 0723 6bbc ba7f 593d 85a9 3ebd
00000310: 0576 773b b5b9 5fbd 696f 1cbe 09bf 1ebe
00000320: 4e7c 6abd 367e f83d 78ef e03d 7b8b 873d
00000330: 3381 2e3e 4923 16bb 0600 f7bd c474 9bbd
00000340: e2ac 2c3d 1aee 353e 783c 14bd d4db 24be
00000350: dbc1 bebc b311 233e 8c20 68bd de9a a3bd
00000360: 2f5d 793d b969 85bc c8a5 82bd 5912 23be
00000370: c531 953d c80e 6c3d 56da 37be b6ad 0ebe
00000380: 1194 a2bc 5a79 29be 1661 ebbd 5da9 423d
00000390: 7221 1c3d 428d 863d 632c 143e 0a86 123d
000003a0: 689c c4bd 3d50 8dbc 5480 7d3d e668 a4b8
000003b0: 389b 3a3c c2af 2abe 33e4 523c bb62 a53d
000003c0: 8b71 3c3d 5588 a4bd 29a9 55bd d565 f4bd
000003d0: f23b 603c 2cf2 d5bb 9041 33be 23be 29bb
000003e0: f123 143e 4f20 6abd d0f7 45bd ee3f 00bd
000003f0: 5de5 05bd d18a 80be bb52 bf3d a7a7 a6bb
-0.05862927 0.06923764 0.04007563 0.098778345 -0.13627675 -0.17148773 0.13311589 0.14620642
-0.0019629681 0.05460673 0.04243327 0.06675115 0.081392854 0.12039625 0.12271882 0.05359235
-0.1401789 -0.054711554 -0.068994835 0.12570971 -0.017657693 0.17472246 -0.03906175 -0.093733005
0.21013911 0.08560558 0.3105057 0.078786716 0.08928133 0.059402417 -0.10668993 -0.023920728
0.16646826 -0.16641122 -0.092458874 0.10068174 -0.11318244 0.1260662 0.014556616 -0.2737508
0.007671101 -0.11728872 0.08585577 -0.030645886 -0.015839592 0.11444273 -0.10214474 0.025714388
-0.16464992 0.08371027 -0.08728118 0.08610764 -0.20279087 0.086447194 0.023156077 -0.07057619
-0.00666453 0.086624905 -0.29311356 0.011189552 0.035022445 -0.07490711 0.06644183 0.10313067
0.077571996 0.26629776 -0.07504212 0.04169585 -0.113384925 0.04263208 0.3477885 0.011166987
-0.06758252 0.036814805 -0.019526249 -0.15842311 -0.1055777 -0.05136964 0.21437338 0.030378733
-0.05183153 -0.19672877 -0.19917704 -0.096601486 -0.08581965 -0.040389836 0.06692418 -0.10002732
0.02598814 -0.12125423 0.05089629 0.12273818 -0.068387985 -0.22217025 0.28871942 -0.09292308
-0.11306782 -0.1586402 0.2868431 -0.15592241 -0.035617325 -0.11303387 0.16424848 -0.047667667
0.034128003 -0.0515059 -0.008747898 0.034078564 0.0030402811 0.15933974 -0.081964515 0.0019347366
-0.31162313 -0.0051413747 -0.18841267 0.092085704 0.037942253 -0.065300524 -0.15285438 0.11511039
-0.10185257 -0.13869843 -0.014868134 0.02362095 0.1769102 -0.0037246547 0.020192552 0.072766446
-0.0023990488 -0.13573785 0.14502046 0.07877382 0.02911539 -0.06694296 -0.045870665 -0.006259381
0.12485074 -0.027972449 0.27392316 -0.080417305 0.1421364 -0.06839663 -0.007490767 -0.16485016
-0.17195193 -0.036304303 -0.050924785 -0.0450625 -0.16313222 -0.12687586 0.15471984 -0.094558686
-0.100918 -0.014667328 -0.097709455 -0.17639183 -0.0036800343 -0.018316444 0.23499548 0.10337439
-0.048793335 -0.07909801 -0.12413586 0.078702725 -0.075409554 -0.020498348 -0.014750396 -0.03945932
-0.03977847 -0.12444993 -0.24967507 -0.026268426 0.15895152 0.065784745 0.13327466 0.04140054
-0.18297182 -0.20139742 0.005401023 0.012703528 0.10563971 -0.09665998 -0.09779583 -0.15054822
-0.091658905 -0.1175299 0.034273382 -0.1931863 0.09460016 0.024750179 -0.11939904 -0.052287348
0.044005305 -0.014351613 0.053100325 -0.046548385 0.0037759554 -0.054620463 -0.15276875 -0.15502562
-0.057247452 0.12133448 0.10983175 0.06618401 0.17041473 -0.0022909215 -0.12060551 -0.07590631
0.04215706 0.1776661 -0.03619048 -0.16099483 -0.023285797 0.1592472 -0.056671664 -0.07988523
0.060879882 -0.016285764 -0.063792765 -0.15924968 0.072848834 0.057631284 -0.17954382 -0.13933453
-0.019845994 -0.16550198 -0.11493127 0.0475248 0.038117833 0.065699115 0.14470057 0.03577236
-0.096001446 -0.017250175 0.06188996 -7.839668e-05 0.011389546 -0.16668609 0.01287179 0.08075472
0.04600672 -0.08033816 -0.052163277 -0.119334854 0.013686167 -0.0065291133 -0.17505479 -0.0025900684
0.14466836 -0.057159718 -0.048332036 -0.031310968 -0.03268944 -0.2510591 0.093419515 -0.0050859037

network_body._body_endoder.seq_layers.2.bias f4 [128]
00000000: dc5c ba3d 198e 513a a9c1 63bd 466f 3dbd
00000010: 922e afbc 7f7f 31bd 9ae4 e93c 5e42 813b
00000020: 8180 a0bc 5bb6 dc3d 4a2e da3c 7316 56bd
00000030: b78f 3bbc b3ec 873d 137d ce3d ced0 fcbc
00000040: fb75 783d bff8 95bc d444 2e3b c57f 133e
00000050: 7501 443d dfed 3fbc fbae 1dbd 18f1 703d
00000060: dfd4 40bd 8212 e93c ba66 0f3c 6fdd 493d
00000070: 73e0 4fbd d99e ec3c 9e90 24bc 8cec d83c
00000080: a9a0 cfbc a680 d1bc 8fbb 9d3d 5084 cd3d
00000090: 529d 05bd ca60 423c 5ef6 e9bc 716f d83c
000000a0: 45ff 473c 9668 4f3d b5eb ae3d 089f 2d3c
000000b0: 44ee 263d fb40 0fbd 3678 953d 1871 603d
000000c0: 89d0 d6bc 8375 98bc e59d b3bc d0d1 31bd
000000d0: c378 bf3d 300c 933d 3190 963d 5b74 dbbc
000000e0: d664 083c ce4e 3d3d 25f3 883d c766 3b3d
000000f0: 5dc2 2abd 59b5 95bd c573 b13d 36a3 083d
00000100: d7f1 923d 793b e83b 8c00 f8bc 0167 023c
00000110: b6e7 903c 8a84 7f3d f526 05ba e5fb 0ebd
00000120: 3b10 f2bc a956 33bd 8eb9 fd3c a802 bf3c
00000130: 161b ef3c 2f7c be3d 8d27 b73b 32cc 9e3d
00000140: b406 db3b 58f7 c43c 3741 07bd 3013 8abb
00000150: d964 353d 8bea 0f3d 748b 953d 2faf 2e3d
00000160: 0431 e03d e6d5 d63c afa0 b53c d7ae 003d
00000170: 7101 e03c 6f7a 843d cda6 79bd 596f da39
00000180: 96ae b73d 70ad 8b3b f312 ad3d dce8 28ba
00000190: fd0b 1f3c 9594 b9bc 1985 07bd f1f2 253d
000001a0: c680 713d 3e4b 10bd 8fb5 863c be2e 053c
000001b0: 7f99 653d 4367 3bbc 9fdb e3bc c36e 953c
000001c0: 3e43 9dbc 1a0b 14bd 9578 823c 566b 07bd
000001d0: da07 f23b a21b 1c3d faab e03d a1d1 d3ba
000001e0: 5150 45bd 08df 973c 5025 b53d a29a dcbc
000001f0: 1567 f4bc fb49 11bd e2e2 e13c 95f2 933d
0.09099743 0.00079938915 -0.05560461 -0.046248697 -0.021384511 -0.04333448 0.028551389 0.003944679
-0.019592525 0.10776969 0.0266334 -0.052267503 -0.0114478385 0.06636944 0.1008245 -0.030861285
0.06065939 -0.018307088 0.0026591318 0.14404209 0.047852952 -0.011714428 -0.038496953 0.058823675
-0.04707801 0.028451208 0.008752519 0.04928344 -0.05075116 0.028884338 -0.010044245 0.026479982
-0.025345163 -0.02557404 0.077017896 0.10035002 -0.032620735 0.011863897 -0.02855986 0.026420327
0.012206857 0.05063685 0.08541051 0.010596998 0.04075457 -0.03497408 0.07298319 0.054795355
-0.026222484 -0.018610721 -0.021925876 -0.043412983 0.09349205 0.07180059 0.07351721 -0.026788881
0.008324822 0.046217732 0.06687001 0.045752313 -0.041689266 -0.0730998 0.086646594 0.033358775
0.071750335 0.007087168 -0.030273698 0.007959128 0.017688613 0.06238226 -0.00050793524 -0.034908194
-0.029548755 -0.043783817 0.030972268 0.023316696 0.02918772 0.0930103 0.0055894316 0.07753791
0.0066841487 0.024043724 -0.033021178 -0.004213713 0.04428563 0.035135787 0.07301989 0.042647537
0.10946849 0.026225042 0.022171346 0.03141674 0.027344437 0.06468665 -0.06095009 0.0004166316
0.089688465 0.0042626187 0.0845088 -0.000644339 0.009707448 -0.022653857 -0.033085916 0.04051489
0.0589607 -0.035228007 0.016443996 0.00812882 0.05605459 -0.011438194 -0.027814684 0.018241292
-0.019197103 -0.0361434 0.015926639 -0.033061348 0.00738619 0.03811229 0.10970302 -0.0016160497
-0.0481723 0.018538967 0.088450074 -0.026929203 -0.02983431 -0.035470944 0.027574006 0.07224003

action_model._continuous_distribution.log_sigma f4 [1, 2]
00000000: 26a4 003d 41f3 00bb
0.031406544 -0.001967624

action_model._continuous_distribution.mu.weight f4 [2, 128]
00000000: 4ec4 3dbd 2c6f 703d 4866 8d3c 55bd 36bd
00000010: f905 b3bd e153 ec3c 891c e23d 7575 0e3d
00000020: 83c2 633d adc3 763d 0efc b7bd d20f 9ebd
00000030: afcd 2b3d dbb9 893c c03f c93d 12da 19bd
00000040: d13a 5e3d f00c fc3c 0dc1 9bbd b1a0 0a3e
00000050: 8314 c1bd 1392 6cbd 29e6 48bd f970 f2bd
00000060: 38db 79bd e7f2 a13d 35e3 aa3d 4e3e e8bd
00000070: 6052 a3bd effd 3e3d fb76 c2bd efc9 433d
00000080: bf36 e63b d246 d03c 4fb6 2abc 5cba 0bbd
00000090: ed5a b6bd 898a adbd 1523 6fbd d6cb 55bd
000000a0: 2bac b63d fc1f b4bd 3220 93bd 5c88 253d
000000b0: d0ed 5bbd 5c71 fb3b 63d0 bb3d cd13 b13d
000000c0: c02c 323c 4beb 093d 0b07 0a3d 9f27 adbd
000000d0: c070 9ebd d984 c23d c7fd fbbc 927f 493d
000000e0: 57e9 f5bd 1544 9bbd bcc3 c3bc 5704 d8bd
000000f0: d309 41bd c919 24bd 103f c9bd a7e9 11bc
00000100: 4fd8 ecbd a686 c9bd 2c29 893c 7e9c 823d
00000110: 0a76 a63d c44c 6fbc 18ac 813d 84f9 08bd
00000120: 7a8d a6bd 8c8a bb3c 50c6 b93d f504 46bd
00000130: 6674 b3bd 5824 3b3d a8a3 1b3d 5398 433d
00000140: 8ac9 813d 37db a43d c804 d13c 66b2 e3bd
00000150: 4d94 f4bd 70f2 d3bd d8f6 d0bd b65d 853d
00000160: 0d48 dd3d 5402 023d 2008 f33c 62e4 8fbd
00000170: 3e10 13bd 6dff 38bd 5002 e8bb 7bf0 133d
00000180: 2df7 99bd 623b 6a3d a31e f53c ae23 753d
00000190: 8c6b 823d a72a 5d3c 314e 613c ccee 843d
000001a0: 821f 803d 1ebf c1bd 30a4 6c3d e952 20be
000001b0: e026 62bb 0886 cc3c a8af 9bbb 4c3c 8c3d
000001c0: 6c71 13be adb8 1b3c 61ca 7e3d 57ad 4e3c
000001d0: a4be 203d 28c8 26bd c697 063e 2467 47bc
000001e0: 8daf 113d c0de c63d bf27 4ebd 0546 673c
000001f0: 34fd 143d 220f 663d 22fd eb3c 9ecb f9bd
00000200: 4ef4 0f3e 3f00 75bd 2412 8dbc af42 b9bd
00000210: 31cd 443c d37c 19bd f781 d7bd cbe0 adbd
00000220: f3bc 19bd 8ce4 0d3e f9a0 7e3d ea84 8cbd
00000230: 7518 32bd 8463 943d 0fe2 f13d 55c6 3d3a
00000240: 1a94 073c 1f32 a7bd cdf5 9b3c af72 023e
00000250: e38c d23d ffa0 3c3d 38d9 e0bc fefb 973d
00000260: 0079 97bc 4351 9fbd e2cb 82bd 73c1 933d
00000270: dbd3 bfbc 7edd 8dbd 1b98 3f3d 0e2e c1bc
00000280: f261 10bd f86d a2bd a7fa d63d 7373 eb3d
00000290: 424f 223b 697b 993c b5c7 a93c c00f 443d
000002a0: 1c3f 8cbd 13a1 d03d 78c3 eb3d 22e5 33bd
000002b0: c748 c33d ea21 5fbd c307 ab3d d059 1c3d
000002c0: ab48 82bd 0cf4 66bd f25a b7bd 0356 5fbd
000002d0: 100d b33d 1cc4 7c3d 928c dc3d 0cdf 9cbd
000002e0: dcd6 213d 0a9f c63d e549 c53d acae b83d
000002f0: f65b b6bc 1f2e fcbc 8324 b53d aab9 d23c
00000300: 37e5 053e 5eae 633d 82d1 0abd 1dbd 49bd
00000310: e909 89bd a83e 863d b5e0 e3bd 51a3 cd3c
00000320: f0d2 903c 48dd 65bd ba7b 84bc 7778 6a3d
00000330: 12f0 be3d c0d4 dd3d 5eb2 93bd 4ddf c63d
00000340: 13e9 70bd c109 a0bd 84a4 52bd 0379 743d
00000350: a11d b83d e9d7 a43d 6106 d53d 4ee6 92bd
00000360: 9b42 ef3d f1f6 bc3c c12d 9abb 62ba 333d
00000370: 568d 7c3d 2609 6d3d 62a6 47bc b324 99bd
00000380: f380 f53d 8fac d4bc ee5f 0a3e 8e7b 60bd
00000390: 0010 9abd 1367 6fbd 7f9d a53a b004 bebd
000003a0: e2a2 063d 651a 4d3c a94c f0bb e2e1 493d
000003b0: 9396 8d3d d307 1cbc 7a37 babd fc80 c1bd
000003c0: e1c1 bdbb ad31 80bd fd2e 85bd 8285 86bd
000003d0: 7062 9ebd c929 ae3d a27e 3e3d c2d0 0c3c
000003e0: 6d5a dabc d885 84bd 8a20 da3d 527b 62bd
000003f0: 3622 c8bd c475 a7bd 748c 0f3d d2ef 1a3e
-0.04632979 0.05869977 0.017260686 -0.044614155 -0.087413736 0.02884859 0.11040599 0.034779985
0.055605423 0.060245205 -0.089836225 -0.07717861 0.041944202 0.016812256 0.098266125 -0.037561484
0.05425531 0.030767888 -0.07605181 0.13537861 -0.094277404 -0.057756495 -0.049047623 -0.11837954
-0.06100008 0.07907658 0.083441176 -0.11340009 -0.07974696 0.04662889 -0.0949535 0.0478
0.007025569 0.025424395 -0.010419442 -0.034113273 -0.089040615 -0.08473689 -0.058383066 -0.052196346
0.08919557 -0.08795163 -0.07183875 0.040413246 -0.053693593 0.0076734256 0.09170606 0.08646355
0.010874927 0.03367166 0.033698123 -0.08454823 -0.07736349 0.09497995 -0.030760659 0.049193926
-0.12007397 -0.07581345 -0.023897044 -0.10547703 -0.04712851 -0.040063653 -0.09826481 -0.008905805
-0.11564695 -0.09840135 0.016743265 0.06377505 0.08127983 -0.014605705 0.063316524 -0.03344108
-0.08132453 0.022893213 0.09071028 -0.04834457 -0.087624356 0.045688957 0.03799787 0.04775269
0.06337269 0.080496244 0.025514975 -0.11118011 -0.11942349 -0.10348976 -0.10203332 0.065120146
0.10804758 0.0317405 0.02966696 -0.070259824 -0.03590416 -0.045165468 -0.007080354 0.036118012
-0.07517848 0.057185538 0.029921835 0.05984848 0.06368169 0.013498939 0.013751552 0.064908594
0.0625601 -0.09460281 0.05777377 -0.15656628 -0.0034508035 0.024966255 -0.0047511645 0.06847438
-0.14398736 0.009504479 0.062204722 0.01261457 0.03924431 -0.040718228 0.13143834 -0.012170587
0.03556781 0.09710455 -0.050330874 0.014115815 0.036374286 0.056166776 0.028807227 -0.1219704
0.14058039 -0.059814688 -0.017220564 -0.09045922 0.012011812 -0.037472557 -0.10522836 -0.084901415
-0.03753371 0.13856715 0.062165234 -0.06861289 -0.043480355 0.072455436 0.118106954 0.00072393316
0.008275056 -0.08163857 0.019038105 0.12739061 0.10280778 0.046051975 -0.027447328 0.074211106
-0.018490314 -0.07779171 -0.06386544 0.07214632 -0.02341645 -0.06927012 0.04677592 -0.02358153
-0.035249658 -0.07931131 0.10497027 0.114966296 0.002476648 0.018735604 0.02072511 0.047866583
-0.06847975 0.101869725 0.11511892 -0.04391969 0.095353656 -0.054475702 0.0835109 0.03817159
-0.063615166 -0.056385085 -0.08952893 -0.054525387 0.08742726 0.061710462 0.10768999 -0.0765973
0.039511546 0.09698303 0.09633235 0.09017691 -0.022260647 -0.030783711 0.08844855 0.025723297
0.1307572 0.05558621 -0.03389121 -0.049252618 -0.06691343 0.065549195 -0.11126844 0.02510229
0.017678708 -0.056119233 -0.016172279 0.05724379 0.093231335 0.108315945 -0.07211755 0.0971056
-0.058816027 -0.078143604 -0.051426426 0.05968572 0.08990026 0.08048994 0.10401607 -0.071728334
0.11682626 0.02306697 -0.0047051613 0.04387892 0.061658226 0.057870053 -0.012185665 -0.07477703
0.11987486 -0.025961189 0.13513157 -0.05480533 -0.07522583 -0.05844791 0.0012635438 -0.09278238
0.03287018 0.0125185 -0.0073333574 0.049287684 0.069134854 -0.00952335 -0.090926126 -0.0944843
-0.0057909344 -0.06259475 -0.06503103 -0.06568433 -0.07733619 0.08504064 0.046507485 0.008594694
-0.026654446 -0.06470841 0.106507376 -0.05529339 -0.0977215 -0.08176759 0.035046056 0.15130547

action_model._continuous_distribution.mu.bias f4 [2]
00000000: c063 873c 3eed 483d
0.016527057 0.049054377

onnx::Div_51 f4 [90]
00000000: d502 a93e 5977 a53e 75dc a03e d7f4 9a3e
00000010: 1c35 933e 3264 873e aab9 5a3e e3b1 203e
00000020: c2ec cb3c 4b21 783c 3c07 063c 2c7f a43b
00000030: fc59 833b 8ed0 633b e13c 4e3b c1e1 463b
00000040: 22b9 3c3b f603 373b 3fff 323b dbc1 323b
00000050: 5fae 2c3b 2593 2d3b 0dd8 253b 40db 213b
00000060: 39bb 263b b57c 293b 3fc5 283b 3eae 243b
00000070: fb34 253b e33c 293b 517c 2e3b e542 303b
00000080: 28d7 303b 2be1 2f3b 02fd 3a3b 0452 413b
00000090: 3891 4a3b 9cb8 4f3b 99ee 563b ca53 563b
000000a0: 18d3 5a3b cb62 5e3b 326c 523b 49cc 543b
000000b0: ab2c 4a3b 6000 433b e1d8 ab3e 2a27 ae3e
000000c0: 8107 b03e bd7d b13e a394 b23e c03a b33e
000000d0: 005c b33e d685 b23e 21e6 af3e 5f27 ab3e
000000e0: 403d a43e 5e40 9c3e 414e 953e ecb2 923e
000000f0: 2163 903e 893d 8d3e 34f3 883e 2c3d 803e
00000100: fc56 773e 4c84 753e 11c3 6e3e 12b3 623e
00000110: b219 483e 3d59 303e a33a 223e 0aca 1f3e
00000120: a008 203e 75ad 193e e0f5 083e 5204 f53d
00000130: f8b9 df3d cb5d c23d 9b07 9b3d 20f8 5c3d
00000140: c36a 0f3d 5f3d b83c bf51 633c 197d f13b
00000150: 99f3 403b f1cb 093b 523a 143b f420 1a3b
00000160: 0c7f 2d3b cacd 323b
0.33009973 0.32317618 0.31418195 0.30264923 0.28751457 0.2644363 0.21359888 0.15692858
0.024893168 0.015144656 0.008180436 0.005020043 0.0040085297 0.003476176 0.0031469392 0.0030346962
0.0028796871 0.0027925945 0.0027312783 0.0027276191 0.002634905 0.002648541 0.0025305778 0.0024697334
0.0025441183 0.0025861685 0.0025752333 0.002512827 0.002520858 0.0025823645 0.0026624391 0.002689534
0.0026983712 0.0026837091 0.0028532152 0.0029498348 0.003090931 0.003169573 0.0032796024 0.003270375
0.0033389982 0.0033933397 0.0032107946 0.0032470396 0.0030849378 0.0029754862 0.33563903 0.34014255
0.34380725 0.34666243 0.34879026 0.3500576 0.35031128 0.34867734 0.34355262 0.33428475
0.3207798 0.30517858 0.29161265 0.28652132 0.2820063 0.2758601 0.2674805 0.2504667
0.24154276 0.23976249 0.233166 0.22138622 0.19541052 0.17221542 0.1584268 0.15604416
0.1562829 0.15007575 0.13375044 0.11963715 0.109241426 0.09490546 0.0756981 0.053947568
0.035013925 0.022490202 0.01387447 0.007369649 0.002944207 0.00210261 0.002261777 0.0023518177
0.002647343 0.0027283304
