results/90RC1/Park90RC/Park90RC-7999986.onnx (onnx, 119662 bytes, 9 tensors)

network_body.observation_encoder.processors.0.normalizer.running_mean f4 [90]
0.6526733 0.6751686 0.69667196 0.7211093 0.7467681 0.78516275 0.9410032 0.9796234
0.99941415 0.9996361 0.9997969 0.99987555 0.9999061 0.9999242 0.9999463 0.99995035
0.9999582 0.99995995 0.9999611 0.99995744 0.999959 0.9999588 0.99996185 0.999965
0.9999625 0.99996275 0.99996275 0.9999618 0.99996 0.9999569 0.9999542 0.99995106
0.9999499 0.9999459 0.9999338 0.9998998 0.9998553 0.99981093 0.99978155 0.9997693
0.9997693 0.9997852 0.9998175 0.9998596 0.99991226 0.9999364 0.62936914 0.6093773
0.59323496 0.58036673 0.5691199 0.5590684 0.5496582 0.53994125 0.5287657 0.51664805
0.50522625 0.49706522 0.49783516 0.50939554 0.5238946 0.53715396 0.5485297 0.5461159
0.5470776 0.5643886 0.58634967 0.6057954 0.62721235 0.65349996 0.6887244 0.71359015
0.7470726 0.79126894 0.8462898 0.9056894 0.9484772 0.9702791 0.9822171 0.9911549
0.9961979 0.9981777 0.9991854 0.99951965 0.9998034 0.9999588 0.9999615 0.999958
0.9999487 0.9999441
00000000: 9915 273f d9d7 2c3f 1859 323f 9e9a 383f
00000010: 322c 3f3f 6d00 493f 96e5 703f 99c8 7a3f
00000020: 9bd9 7f3f 27e8 7f3f b1f2 7f3f d8f7 7f3f
00000030: d9f9 7f3f 08fb 7f3f 7bfc 7f3f bffc 7f3f
00000040: 43fd 7f3f 60fd 7f3f 73fd 7f3f 36fd 7f3f
00000050: 50fd 7f3f 4dfd 7f3f 80fd 7f3f b5fd 7f3f
00000060: 8bfd 7f3f 8ffd 7f3f 8ffd 7f3f 7ffd 7f3f
00000070: 61fd 7f3f 2dfd 7f3f 00fd 7f3f cbfc 7f3f
00000080: b7fc 7f3f 74fc 7f3f a9fb 7f3f 6ff9 7f3f
00000090: 84f6 7f3f 9cf3 7f3f aff1 7f3f e1f0 7f3f
000000a0: e1f0 7f3f ecf1 7f3f 0af4 7f3f ccf6 7f3f
000000b0: 40fa 7f3f d5fb 7f3f 561e 213f 2700 1c3f
000000c0: 3fde 173f ea92 143f d7b1 113f 1b1f 0f3f
000000d0: 66b6 0c3f 9739 0a3f 305d 073f 0c43 043f
000000e0: 8256 013f 557f fe3e 40e4 fe3e bf67 023f
000000f0: f51d 063f ec82 093f 716c 0c3f 40ce 0b3f
00000100: 470d 0c3f c57b 103f 031b 163f 6815 1b3f
00000110: fd90 203f c64b 273f 3e50 303f d8ad 363f
00000120: 2640 3f3f 9a90 4a3f 73a6 583f 43db 673f
00000130: 67cf 723f 3664 783f 9472 7b3f 54bc 7d3f
00000140: d306 7f3f 9388 7f3f 9dca 7f3f 85e0 7f3f
00000150: 1ef3 7f3f 4dfd 7f3f 7afd 7f3f 3ffd 7f3f
00000160: a3fc 7f3f 56fc 7f3f

network_body._body_endoder.seq_layers.0.weight f4 [128, 90]
-0.10411897 -0.19781964 -0.24475177 0.12061239 0.02091695 -0.1489371 -0.21622999 -0.12533982
0.0741986 -0.045516543 0.09944206 0.032445278 -0.09583781 -0.08420934 0.04520036 -0.15479705
-0.12329116 -0.29701042 0.1240306 -0.04350762 0.13253182 -0.0046958327 -0.04662541 0.21408151
-0.09481735 -0.20761822 -0.19146481 -0.16441332 0.061816625 -0.0887056 -0.028023005 0.007558292
0.21426621 -0.0020350895 0.2311056 0.024503678 0.23817022 0.18300565 0.17051233 -0.22632176
-0.114246145 -0.105022326 -0.06259892 -0.14498842 -0.081182204 -0.14913733 -0.0076124654 0.21055622
-0.10570452 -0.021491166 -0.09039902 0.012822985 0.14058204 0.17103419 -0.09361846 0.13182622
0.10377061 -0.00829374 0.24017487 0.06678078 -0.10875897 -0.013398668 0.027886342 0.22245887
0.21048862 0.09650776 0.1541361 0.10713724 0.12712146 0.024306262 0.1421231 -0.005920543
-0.20020248 0.003819292 -0.07649598 -0.13564703 -0.03325006 0.032084305 0.05875692 -0.137343
0.22285442 0.093041874 0.016832257 0.19915572 -0.13540721 -0.07862382 -0.014666533 -0.012195942
-0.17006756 0.18317516 -0.02779777 -0.07058691 -0.012419788 0.16043976 -0.008219902 -0.04772515
0.07878301 0.017449398 -0.20040958 0.027380077 0.25755268 0.09743303 0.15203667 0.2021906
-0.054047007 -0.15772684 -0.11043317 0.028192779 0.00797533 -0.1750368 0.14976965 0.05443741
0.06960124 0.07136621 0.049162798 -0.009731458 0.021761453 0.09792351 0.29348394 0.05001804
0.15401377 0.10729232 -0.032387182 0.011131358 0.050703697 0.059460923 0.11707655 -0.036206555
0.03873218 0.20361294 0.019561658 -0.1430789 -0.033041608 0.155491 -0.16000614 0.20740499
-0.05077117 -0.07561603 0.05068427 0.06408385 0.04769644 -0.08282553 -0.079785034 0.1775532
0.18974581 -0.20457996 -0.11057372 0.088872805 0.030772772 -0.018174717 0.049562484 0.15620056
0.0629032 0.21310014 0.13547988 0.15219215 -0.05886528 0.06555467 -0.20500079 -0.04811803
-0.03036675 -0.085576735 -0.011800877 0.31763482 0.02197878 0.2461366 0.1425095 0.1012175
0.3781282 0.15087476 0.012062851 0.16625276 0.12653427 0.0070263315 -0.045156024 -0.03389915
-0.031870775 -0.118010744 0.04512019 0.03359659 -0.16039258 0.22994854 0.12505645 -0.0058954326
-0.09380318 0.04399163 -0.21463506 -0.057130843 -0.015001847 -0.03521233 -0.1812258 -0.17279017
0.01546052 0.03273683 0.1301344 -0.016528443 -0.007821949 -0.0090949265 -0.17125306 0.005696427
0.0018637831 -0.12876652 -0.06247848 -0.22388718 -0.1873978 -0.19608001 -0.04640385 -0.055697024
0.018608324 -0.055424944 0.104690574 -0.28883824 0.14382245 -0.14348058 -0.12525867 -0.03679314
0.15550703 0.10087509 0.20485513 -0.12503631 0.010008107 -0.16524681 0.035276048 -0.10207658
-0.116278976 -0.12057663 -0.20325989 -0.18103133 -0.08002061 -0.10021355 -0.03581814 0.017775688
0.049357913 0.20893493 0.119846344 -0.011812556 0.42505762 0.14182563 -0.026513658 -0.0777236
0.019395398 0.14302766 -0.024347553 -0.099129006 0.20167442 -0.058899917 0.24489088 -0.032512303
0.30489263 0.07965377 -0.1063945 0.061035614 0.033392567 0.13428931 -0.058138996 0.014774573
00000000: 543c d5bd 3b91 4abe 35a0 7abe a103 f73d
00000010: 065a ab3c f882 18be 656b 5dbe 1559 00be
00000020: 70f5 973d 8e6f 3abd 47a8 cb3d 57e5 043d
00000030: 9d46 c4bd f275 acbd 0324 393d 1e83 1ebe
00000040: 1380 fcbd c011 98be c103 fe3d 0c35 32bd
00000050: 6cb6 073e 80df 99bb 49fa 3ebd 2f38 5b3e
00000060: 992f c2bd df99 54be 5a0f 44be f75b 28be
00000070: 6e33 7d3d 48ab b5bd 8090 e5bc 8cab f73b
00000080: 9a68 5b3e 235f 05bb f2a6 6c3e f0bb c83c
00000090: e5e2 733e d565 3b3e c99a 2e3e e4c0 67be
000000a0: e2f9 e9bd f215 d7bd dd33 80bd d877 14be
000000b0: db42 a6bd 75b7 18be fd71 f9bb 0d9c 573e
000000c0: 9d7b d8bd 3e0e b0bc 1f23 b9bd 7f17 523c
000000d0: bdf4 0f3e 9623 2f3e 09bb bfbd 74fd 063e
000000e0: b085 d43d 78e2 07bc 67f0 753e 5dc4 883d
000000f0: 06bd debd 1686 5bbc e671 e43c 42cc 633e
00000100: 548a 573e dca5 c53d dbd5 1d3e c56a db3d
00000110: 212c 023e ed1d c73c b888 113e 1d01 c2bb
00000120: e101 4dbe 164d 7a3b eda9 9cbd 0ee7 0abe
00000130: 3731 08bd d56a 033d 19ab 703d a5a3 0cbe
00000140: f333 643e bd8c be3d cde3 893c 7aef 4b3e
00000150: 30a8 0abe 8605 a1bd e64b 70bc 7dd1 47bc
00000160: 3126 2ebe 4592 3b3e 26b8 e3bc df8f 90bd
00000170: 5e7c 4bbc 524a 243e c5ac 06bc 727b 43bd
00000180: fd58 a13d 0af2 8e3c 2b38 4dbe 2f4c e03c
00000190: f2dd 833e f88a c73d 80af 1b3e 0d0b 4f3e
000001a0: 6560 5dbd 2583 21be c92a e2bd 8bf4 e63c
000001b0: f5aa 023c d93c 33be 375d 193e c3f9 5e3d
000001c0: 188b 8e3d 7328 923d ee5e 493d b170 1fbc
000001d0: 1345 b23c 1f8c c83d 8743 963e b7df 4c3d
000001e0: c9b5 1d3e 13bc db3d 6ca8 04bd 4d60 363c
000001f0: aeae 4f3d 4c8d 733d d5c5 ef3d 534d 14bd
00000200: a2a5 1e3d e97f 503e c53f a03c 4683 12be
00000210: a356 07bd 0839 1f3e a6d8 23be f961 543e
00000220: 6ef5 4fbd 94dc 9abd 4f9a 4f3d 653e 833d
00000230: 585d 433d 6ea0 a9bd 5666 a3bd 82d0 353e
00000240: ba4c 423e 697d 51be 7974 e2bd f202 b63d
00000250: 2e17 fc3c 25e3 94bc 0802 4b3d 0af3 1f3e
00000260: 65d3 803d ec36 5a3e 3dbb 0a3e 42d8 1b3e
00000270: b81c 71bd 8741 863d baeb 51be 6917 45bd
00000280: b1c3 f8bc db42 afbd 7758 41bc 08a1 a23e
00000290: d80c b43c 3c0b 7c3e 03ee 113e 1f4b cf3d
000002a0: 059a c13e ea7e 1a3e 44a3 453c 2a3e 2a3e
000002b0: 3392 013e 243d e63b 86f5 38bd d6d9 0abd
000002c0: ee8a 02bd 9eaf f1bd f3cf 383d 949c 093d
000002d0: f43d 24be a177 6b3e cc0e 003e 792e c1bb
000002e0: e21b c0bd 9130 343d 4bc9 5bbe 0802 6abd
000002f0: 4fca 75bc ce3a 10bd 4293 39be e8ef 30be
00000300: 1f4e 7d3c 0e17 063d f441 053e a866 87bc
00000310: a227 00bc e302 15bc f65c 2fbe 18a9 ba3b
00000320: 2f4a f43a 5fdb 03be 6fe9 7fbd ae42 65be
00000330: 35e5 3fbe 33c9 48be f711 3ebd 9022 64bd
00000340: 7c70 983c 4405 63bd 0368 d63d 9be2 93be
00000350: 3146 133e 93ec 12be cf43 00be 67b4 16bd
00000360: 3c3d 1f3e 9997 ce3d 8bc5 513e 8509 00be
00000370: 0bf9 233c 7636 29be 9e7d 103d 870d d1bd
00000380: ac23 eebd e1f0 f6bd 5c23 50be 4760 39be
00000390: d8e1 a3bd c33c cdbd 0bb6 12bd 529e 913c
000003a0: 862b 4a3d 0af3 553e 0072 f53d 7389 41bc
000003b0: 27a1 d93e bd3a 113e 2c33 d9bc 8d2d 9fbd
000003c0: 19e3 9e3c d875 123e 8574 c7bc 2604 cbbd
000003d0: bd83 4e3e 0a41 71bd adc4 7a3e 9f2b 05bd
000003e0: e31a 9c3e 8421 a33d 5ce5 d9bd 7b00 7a3d
000003f0: a5c6 083d 2383 093e 2823 6ebd 0d11 723c

network_body._body_endoder.seq_layers.0.bias f4 [128]
-0.11923406 0.049988758 -0.034086302 0.038872216 0.10986016 -0.07556444 0.044521566 0.12469867
-0.054227956 0.08384943 0.009908359 0.15548517 0.062445097 0.0068124295 0.048218697 0.0126994625
-0.071181126 -0.050241403 -0.10976498 -0.016392369 -0.021441128 0.09111092 0.025129355 0.025954554
0.05648373 0.05616351 0.10785188 0.13864055 0.11883688 0.08076567 -0.07115606 -0.0709555
-0.023576025 -0.035489816 -0.03837561 0.093937494 -0.0852065 0.00033953696 -0.13540499 -0.07310572
-0.040434428 0.06516614 -0.00053586764 -0.028948657 0.07864438 -0.07500787 -0.11853504 -0.05795013
-0.046806376 0.05276611 -0.14576668 -0.05557719 -0.019161837 0.08016408 -0.017726177 0.01875389
0.049231373 0.044337306 -0.036945112 -0.019464348 -0.0598444 -0.1171169 0.044138733 0.053441126
0.18032761 0.04619727 -0.09094046 -0.014463711 -0.01653524 -0.10468334 0.010188338 0.07591813
-0.17071217 0.042331062 -0.116008796 0.009080852 -0.020782249 0.14423366 0.17457691 0.01907966
-0.072499484 -0.09071045 -0.0068058446 -0.064900614 -0.017729554 -0.05410353 0.0808535 0.072299205
0.032687884 -0.06071426 -0.06750151 0.073671855 0.04397316 -0.13665849 0.08194813 0.017578278
0.054662198 -0.027149903 0.07989546 -0.068418294 -0.04291029 -0.030474737 0.120600045 0.018553687
-0.11788833 -0.08950855 0.12004084 0.15692471 0.02922113 0.015184408 -0.007063192 0.051673416
-0.096726485 0.06438465 -0.09198034 0.017980248 -0.100662105 -0.018432109 -0.1415626 0.07769745
-0.03619644 0.034480985 0.059417523 -0.006475973 0.13260113 -0.08291019 -0.033635322 0.00011806705
00000000: fd30 f4bd 03c1 4c3d 149e 0bbd 7938 1f3d
00000010: 5dfe e03d 87c1 9abd 3f5c 363d 0462 ff3d
00000020: 221e 5ebd 40b9 ab3d ab56 223c 8137 1f3e
00000030: 6ec6 7f3d cd3a df3b f880 453d 6811 503c
00000040: 69c7 91bd eec9 4dbd 76cc e0bd 4a49 86bc
00000050: 4ea5 afbc 5d98 ba3d 14dc cd3c a59e d43c
00000060: 7c5b 673d b50b 663d 72e1 dc3d caf7 0d3e
00000070: c060 f33d 7968 a53d 45ba 91bd 1e51 91bd
00000080: 8222 c1bc c55d 11bd be2f 1dbd 4d62 c03d
00000090: bf80 aebd e103 b239 9ba7 0abe 74b8 95bd
000000a0: 929e 25bd d375 853d 7879 0cba bc25 edbc
000000b0: 4e10 a13d ba9d 99bd 80c2 f2bd 1e5d 6dbd
000000c0: 0bb8 3fbd 4721 583d dc43 15be e8a4 63bd
000000d0: 49f9 9cbc 112d a43d 7d36 91bc c2a1 993c
000000e0: d6a6 493d 099b 353d c253 17bd b273 9fbc
000000f0: 671f 75bd fcda efbd d1ca 343d 15e5 5a3d
00000100: cda7 383e 5939 3d3d fe3e babd 33f9 6cbc
00000110: e974 87bc 3864 d6bd fdec 263c f77a 9b3d
00000120: 2ccf 2ebe 5663 2d3d 0596 edbd dbc7 143c
00000130: 893f aabc fdb1 133e 4ac4 323e f24c 9c3c
00000140: 9c7a 94bd 67c6 b9bd 9003 dfbb 9dea 84bd
00000150: 923d 91bc aa9b 5dbd 8596 a53d 9b11 943d
00000160: bbe3 053d 84af 78bd 3b3e 8abd 45e1 963d
00000170: 331d 343d 34f0 0bbe 6cd4 a73d 5200 903c
00000180: 78e5 5f3d 7969 debc 3ba0 a33d e41e 8cbd
00000190: b3c2 2fbd 28a6 f9bc 28fd f63d e7fd 973c
000001a0: 706f f1bd 4250 b7bd f9d7 f53d dfb0 203e
000001b0: 2761 ef3c 06c8 783c 5972 e7bb 81a7 533d
000001c0: 8918 c6bd 19dc 833d 3060 bcbd 504b 933c
000001d0: ef27 cebd effe 96bc c9f5 10be d71f 9f3d
000001e0: b842 14bd ef3b 0d3d ca5f 733d 6634 d4bb
000001f0: 97c8 073e d1cc a9bd 31c5 09bd c49a f738

network_body._body_endoder.seq_layers.2.weight f4 [128, 128]
-0.06460008 0.06985809 0.069106884 0.08901889 -0.16569443 -0.10306103 0.15121806 0.17018008
0.012226719 0.051394932 0.03444149 0.0782825 0.0766206 0.09533824 0.119475625 0.005452766
-0.110790245 -0.052984998 -0.06625221 0.18226397 -0.0025219007 0.18384695 -0.03955081 -0.09613852
0.19968885 0.11541015 0.31459284 0.07592848 0.1255277 0.073924 -0.105002165 -0.014284994
0.18206881 -0.14940432 -0.09471854 0.123253204 -0.13451956 0.09183715 -0.015143934 -0.25950858
-0.0042600627 -0.08384104 0.13495192 0.0016600265 -0.004549894 0.06880481 -0.08638311 0.04130962
-0.1298221 0.059580192 -0.08011366 0.09519329 -0.16841431 0.05964402 0.07984629 -0.023986503
0.011375331 0.09902437 -0.27797353 0.042204265 0.060507223 -0.08281309 0.12469264 0.0720479
0.11344338 0.26309755 -0.032425433 0.06991762 -0.11534947 0.06373412 0.33802667 0.028137637
-0.07862869 -0.046740122 -0.018599927 -0.12889007 -0.08868075 -0.08188133 0.26342502 0.018326797
-0.051673803 -0.13538589 -0.1845288 -0.09675405 -0.06193072 -0.028192662 0.055234667 -0.043076154
0.026410233 -0.09843808 0.08871552 0.14850827 -0.09607147 -0.2199095 0.2759844 -0.07514122
-0.10219368 -0.100381464 0.28328934 -0.095712654 -0.024729919 -0.078689195 0.16802782 -0.00953959
0.038467847 -0.06930591 0.03999051 0.031604253 -0.018855976 0.25054127 -0.11242275 0.0012540646
-0.2959607 0.0048478623 -0.18524286 0.0887088 0.0689338 -0.113826975 -0.14167763 0.13057706
-0.085648105 -0.11547894 -0.03060293 0.026201185 0.19203828 0.0101111205 0.009222861 0.03780895
-0.022681562 -0.15375434 0.10586143 0.05416457 -0.023993095 -0.084485814 -0.072504096 -0.037539624
0.09918254 0.007413357 0.3277178 -0.07473471 0.14371489 -0.064456195 0.0048392992 -0.17975327
-0.2175238 -0.069384895 -0.08926245 -0.054058827 -0.16803561 -0.13199182 0.13939786 -0.17669627
-0.11022934 -0.030924944 -0.095769554 -0.15845029 -0.06345048 -0.0956272 0.17639627 0.064248405
-0.06764634 -0.063713126 -0.119716726 0.12157955 -0.15430063 -0.009914256 -0.023430804 -0.106902994
-0.06004676 -0.13892938 -0.21581212 -0.04548987 0.14508894 0.026869413 0.09973426 0.0421952
-0.1948342 -0.22964244 0.027782215 -0.029799623 0.12633763 -0.12878393 -0.0049075442 -0.16486973
-0.12237856 -0.16782174 0.01466187 -0.21908237 0.064167134 0.033695854 -0.13440461 -0.08606985
0.06932117 -0.007149525 -0.0039398745 -0.01960994 -0.04224184 -0.07990192 -0.14102063 -0.16642454
-0.11697496 0.09554114 0.08090413 0.08202229 0.16620143 -0.050739992 -0.12215532 -0.10785642
0.022340482 0.18258993 -0.041430686 -0.16715148 -0.043628376 0.12848786 -0.10144622 -0.09195341
-0.01040998 0.026504578 -0.0789241 -0.15847425 0.01965657 0.055569045 -0.22235218 -0.12501445
-0.035080455 -0.17136267 -0.14674702 0.004749366 0.017129164 0.034829196 0.09625084 0.10562086
-0.1255435 -0.025713205 0.014633899 0.007447935 -0.037704565 -0.21388248 0.073514484 0.09623482
0.02215234 -0.09431308 -0.07225764 -0.17599134 0.0030254144 -0.04188193 -0.22951029 -0.02722424
0.12648942 -0.060356297 -0.123397864 -0.023245467 -0.09875049 -0.2585488 0.061340965 -0.012259318
00000000: 0c4d 84bd c211 8f3d e987 8d3d 894f b63d
00000010: cdab 29be a911 d3bd e8d8 1a3e b043 2e3e
00000020: 9452 483c 7e83 523d 8512 0d3d 9352 a03d
00000030: 43eb 9c3d b240 c33d a3af f43d 1ead b23b
00000040: ffe5 e2bd cc06 59bd 3daf 87bd 68a3 3a3e
00000050: 7946 25bb 6042 3c3e 0800 22bd 46e4 c4bd
00000060: 3c7b 4c3e 285c ec3d 5012 a13e 6480 9b3d
00000070: 558a 003e 7765 973d 600b d7bd 9c0b 6abc
00000080: 3f70 3a3e 72fd 18be cbfb c1bd 2d6c fc3d
00000090: 7fbf 09be 1e15 bc3d 431e 78bc 4fde 84be
000000a0: ff97 8bbb dab4 abbd d630 0a3e 3f95 d93a
000000b0: 4717 95bb 89e9 8c3d a1e9 b0bd 4734 293d
000000c0: 16f0 04be 5c0a 743d a112 a4bd b3f4 c23d
000000d0: cd74 2cbe 4a4d 743d 7486 a33d 587f c4bc
000000e0: 995f 3a3c 4acd ca3d 8c52 8ebe 61de 2c3d
000000f0: 6cd6 773d e999 a9bd db5e ff3d d98d 933d
00000100: 0155 e83d b9b4 863e 88d0 04bd f830 8f3d
00000110: 583c ecbd 0987 823d d511 ad3e e780 e63c
00000120: 1408 a1bd 9272 3fbd e05e 98bc c2fb 03be
00000130: 419e b5bd 66b1 a7bd a5df 863e 1422 963c
00000140: e9a7 53bd 99a2 0abe 1ef5 3cbe fd26 c6bd
00000150: 11ab 7dbd 4cf4 e6bc bf3d 623d 9f70 30bd
00000160: 465a d83c e799 c9bd 7cb0 b53d 8d12 183e
00000170: 1ec1 c4bd f52f 61be d44d 8d3e a4e3 99bd
00000180: ec4a d1bd cc94 cdbd 4d0b 913e ff04 c4bd
00000190: 6696 cabc cd27 a1bd 7c0f 2c3e f14b 1cbc
000001a0: 7690 1d3d 42f0 8dbd 17cd 233d 7673 013d
000001b0: d977 9abc f246 803e e63d e6bd 6d5f a43a
000001c0: 2988 97be d1da 9e3b 4eb0 3dbe f6ac b53d
000001d0: 2a2d 8d3d 1e1e e9bd f113 11be feb5 053e
000001e0: 4668 afbd 3980 ecbd ffb2 fabc dea3 d63c
000001f0: afa5 443e 1da9 253c 7c1b 173c 8fdd 1a3d
00000200: afce b9bc c771 1dbe e1cd d83d abdb 5d3d
00000210: 2b8d c4bc e606 adbd 077d 94bd 26c3 19bd
00000220: 3720 cb3d bfeb f23b a1ca a73e 830e 99bd
00000230: ff29 133e 9c01 84bd fc92 9e3b 3e11 38be
00000240: 8fbe 5ebe ab19 8ebd 3bcf b6bd ca6c 5dbd
00000250: 8711 2cbe dd28 07be 50be 0e3e deef 34be
00000260: ecbf e1bd 4f56 fdbc d422 c4bd cb40 22be
00000270: 53f2 81bd 32d8 c3bd 39a1 343e ab94 833d
00000280: 2a8a 8abd 077c 82bd 0b2e f5bd b3fe f83d
00000290: fc00 1ebe 676f 22bc f5f1 bfbc f5ef dabd
000002a0: 97f3 75bd 8143 0ebe dafd 5cbe 9653 3abd
000002b0: 3292 143e 3e1d dc3c 7a41 cc3d e0d4 2c3d
000002c0: 9e82 47be 6327 6bbe 8797 e33c 571e f4bc
000002d0: a75e 013e efdf 03be 77cf a0bb 9cd3 28be
000002e0: 9ca1 fabd 76d9 2bbe 5738 703c 2157 60be
000002f0: 0f6a 833d aa04 0a3d 5da1 09be 6445 b0bd
00000300: 42f8 8d3d 9046 eabb 101a 81bb 06a5 a0bc
00000310: c805 2dbd 9ea3 a3bd b667 10be 326b 2abe
00000320: 9190 efbd 13ab c33d 11b1 a53d 4dfb a73d
00000330: b530 2a3e bdd4 4fbd 922c fabd d4e3 dcbd
00000340: 6303 b73c dbf8 3a3e 39b3 29bd c229 2bbe
00000350: abb3 32bd 5292 033e 09c3 cfbd 1252 bcbd
00000360: 9f8e 2abc 2120 d93c f5a2 a1bd 1347 22be
00000370: d106 a13c 5e9c 633d 4ab0 63be ca03 00be
00000380: 86b0 0fbd b279 2fbe da44 16be 92a0 9b3b
00000390: 7652 8c3c 0fa9 0e3d 291f c53d c04f d83d
000003a0: 7a8e 00be 80a4 d2bc 05c3 6f3c cf0d f43b
000003b0: 1a70 1abd 0204 5bbe c38e 963d c316 c53d
000003c0: d378 b53c 3727 c1bd d0fb 93bd 1337 34be
000003d0: 0846 463b 638c 2bbd bf04 6bbe 5f05 dfbc
000003e0: 7186 013e 2a38 77bd 05b8 fcbd 476d bebc
000003f0: b23d cabd 8260 84be aa40 7b3d 4edb 48bc

network_body._body_endoder.seq_layers.2.bias f4 [128]
0.12419175 0.0015941177 -0.07004831 -0.07967146 -0.045367375 -0.042147793 0.059761353 0.015281727
-0.017576976 0.1739062 0.019475043 -0.14776485 -0.003519237 0.17411815 0.137348 -0.054773632
0.09462039 -0.019888932 -0.018555624 0.2132833 0.05079062 -0.020236222 -0.04215345 0.044996463
-0.13386002 0.05997117 0.0032674712 0.02872511 -0.04798814 0.03216261 -0.02120729 0.026977574
-0.0107567785 -0.011562626 0.09526426 0.133385 -0.06490382 -0.026196558 -0.059050623 0.012866461
0.02451563 0.058658987 0.1055533 0.0022175352 0.052029215 -0.031209506 0.12880327 0.069249295
-0.03550855 -0.013629237 -0.0027429115 -0.12665528 0.09992024 0.11074714 0.07773501 -0.028649807
-0.023952264 0.05385924 0.07021953 0.038144495 -0.06316873 -0.062277798 0.09070399 0.016734648
0.0888857 0.0048421063 -0.040742874 0.018816173 0.024684649 0.07328064 0.005195856 -0.04043487
-0.061821852 -0.024325533 0.052692242 0.034435388 0.033710193 0.14383115 0.016312608 0.09968328
0.009311929 0.026986351 -0.039515454 -0.008723344 0.04583949 0.024465779 0.08367231 0.060167804
0.15245567 0.06278441 0.053286757 0.009722121 0.025435349 0.062202763 -0.052039362 0.0006000125
0.1228883 0.017383607 0.086202115 0.017093243 0.03266799 -0.029212624 -0.038596965 0.07221993
0.05921463 -0.04664214 0.024769709 -0.0067213145 0.06924329 -0.025663676 0.01495467 0.0354598
-0.070249215 -0.08438133 0.03351381 -0.04930638 0.004542584 0.03270375 0.1459565 -0.009981737
-0.053783238 0.014458874 0.123405196 -0.02223431 -0.038302902 -0.032368235 0.002556166 0.08842323
00000000: 3f58 fe3d b7f1 d03a 7d75 8fbd ca2a a3bd
00000010: 24d3 39bd 2aa3 2cbd 52c8 743d 3560 7a3c
00000020: 97fd 8fbc 7814 323e 208a 9f3c ab4f 17be
00000030: 00a3 66bb 074c 323e f4a4 0c3e 515a 60bd
00000040: 56c8 c13d 1dee a2bc f701 98bc f066 5a3e
00000050: d309 503d 6fc6 a5bc 19a9 2cbd 364e 383d
00000060: 9a12 09be 54a4 753d 1223 563b ec50 eb3c
00000070: 368f 44bd f1bc 033d e9ba adbc 1300 dd3c
00000080: 333d 30bc 2b71 3dbc e919 c33d 1496 083e
00000090: 4bec 84bd 2a9a d6bc 11df 71bd d9cd 523c
000000a0: 01d5 c83c 6844 703d 542c d83d 1154 113b
000000b0: 961c 553d 14ab ffbc 01e5 033e 93d2 8d3d
000000c0: 6a71 11bd 2a4d 5fbc 6bc2 33bb ecb1 01be
000000d0: fca2 cc3d 66cf e23d 8833 9f3d 00b3 eabc
000000e0: 8a37 c4bc 829b 5c3d 42cf 8f3d 673d 1c3d
000000f0: 9b5e 81bd 0117 7fbd 03c3 b93d 1a17 893c
00000100: b509 b63d 88aa 9e3b 00e2 26bd 6024 9a3c
00000110: 7637 ca3c 2914 963d 0042 aa3b 099f 25bd
00000120: e938 7dbd 5746 c7bc d2d3 573d 1f0c 0d3d
00000130: b313 0a3d 7948 133e 05a2 853c bf26 cc3d
00000140: 1091 183c 7b12 dd3c f5da 21bd 5bec 0ebc
00000150: 30c2 3b3d 756c c83c 635c ab3d 8472 763d
00000160: 571d 1c3e 1d95 803d 3743 5a3d 8849 1f3c
00000170: cb5d d03c 53c8 7e3d 3a27 55bd 284a 1d3a
00000180: dcac fb3d 1168 8e3c bc8a b03d 2107 8c3c
00000190: dfce 053d 504f efbc da17 1ebd 0be8 933d
000001a0: 0a8b 723d d40b 3fbd d8e9 ca3c 793e dcbb
000001b0: 6dcf 8d3d a13c d2bc 6f04 753c 4c3e 113d
000001c0: d2de 8fbd 1ed0 acbd c745 093d 7df5 49bd
000001d0: f5d9 943b 5ef4 053d 9f75 153e 708a 23bc
000001e0: d04b 5cbd eae4 6c3c ddbb fc3d ba24 b6bc
000001f0: 81e3 1cbd 8e94 04bd 5985 273b 3d17 b53d

action_model._continuous_distribution.log_sigma f4 [1, 2]
0.094605096 0.14189479
00000000: 51c0 c13d de4c 113e

action_model._continuous_distribution.mu.weight f4 [2, 128]
-0.06112647 0.061727386 0.00088434346 -0.051752288 -0.11269193 0.025838368 0.12672544 0.04188527
0.07293559 0.106252655 -0.12097138 -0.08560194 0.07079471 0.10946048 0.15000336 -0.087200426
0.04527362 0.032160707 -0.065825135 0.22054367 -0.108247116 -0.032952752 -0.06497574 -0.12050648
-0.0079752365 0.102367975 0.07956022 -0.12423667 -0.10142159 0.026197083 -0.09914034 0.06294223
0.004259873 0.099523164 -0.033232793 -0.05978506 -0.114370376 -0.092782855 -0.096409604 -0.04856954
0.09267884 -0.104418665 -0.08361217 0.04122799 -0.072044194 0.024838496 0.1666561 0.13079904
0.039349772 0.044258505 0.06513142 -0.07257975 -0.080005884 0.14316344 -0.033280566 0.031177644
-0.13506496 -0.08495316 -0.042379726 -0.15992832 -0.037989967 -0.054015383 -0.17157593 -0.050470978
-0.13222916 -0.10597619 0.00673934 0.07045888 0.09629192 -0.05279372 0.05639335 -0.07282875
-0.09472848 -0.021085668 0.11542915 -0.060033876 -0.096604064 0.089163825 0.057264145 0.049813244
0.07204558 0.07229161 0.01777957 -0.13086508 -0.12983033 -0.16263853 -0.111119285 0.091522865
0.18226132 0.09653217 0.09214924 -0.09938577 -0.028562596 -0.05687999 0.07563342 0.05328658
-0.08880639 0.10298132 0.0018692862 0.07984969 0.08829615 -0.014215886 0.04350129 0.09131227
0.12362244 -0.10061628 0.06288218 -0.15714869 -0.07034527 0.0020928278 -0.07739132 0.077866204
-0.1231977 0.010708675 0.0693724 0.0385755 0.060317148 -0.07198752 0.20683686 -0.06138052
0.02492024 0.09779207 -0.0651145 0.038152926 0.034652054 0.07259734 0.01573859 -0.12229233
0.11903988 -0.06506401 -0.033520438 -0.09342747 0.0007499783 0.032832667 -0.09665126 -0.107169636
-0.06724983 0.22597899 0.04076117 -0.1058991 -0.09072578 0.08534377 0.17082483 0.011843069
0.040236175 -0.07902354 -0.023949156 0.16533697 0.073894486 0.049329545 -0.07978815 0.048915304
-0.012308617 -0.07241215 -0.09166279 0.03581116 -0.08695482 -0.053548414 0.026065808 -0.06568824
-0.07591574 -0.11470603 0.087662846 0.09950001 -0.06183814 -0.00026892367 0.0025429002 0.027056137
-0.05132394 0.08421994 0.11193212 -0.07751948 0.07424994 -0.09040669 0.103492945 0.08269059
-0.050818607 -0.055441495 -0.106175736 -0.11679342 0.049449354 0.08183452 0.08831926 -0.08685237
-0.017429238 0.101648286 0.06272549 0.13417444 -0.0651584 -0.085594155 0.10068923 0.025239695
0.120597705 0.047639 -0.010754441 -0.1106519 -0.05330035 0.05335465 -0.14229813 0.051651374
0.03007738 -0.08700694 -0.019395126 0.04018731 0.085636556 0.15818708 -0.05898476 0.14126816
-0.06540511 -0.09927872 -0.06376703 0.056040637 0.087871276 0.110856324 0.090301454 -0.06885952
0.18242587 0.06312123 -0.06790969 0.028870653 0.029363705 0.031065157 -0.006488105 -0.04671891
0.11054259 -0.045523576 0.15388058 -0.051036358 -0.07337251 -0.0792728 -0.062918626 -0.09301622
0.028823579 -0.012631951 -0.0022683118 0.042333547 0.08302453 0.0065471265 -0.17028522 -0.08276876
-0.0336968 -0.05469043 -0.0476518 -0.06411714 -0.05644391 0.04688158 0.060641684 0.01583633
-0.03839058 -0.078810975 0.09840327 -0.043770514 -0.106806755 -0.082091965 0.055680446 0.15646325
00000000: c05f 7abd dbd5 7c3d 49d3 673a 35fa 53bd
00000010: 07cb e6bd fcaa d33c 50c4 013e e48f 2b3d
00000020: 415f 953d fe9a d93d d8bf f7bd 1250 afbd
00000030: d1fc 903d d12c e03d 7b9a 193e 2396 b2bd
00000040: d570 393d f2ba 033d 54cf 86bd 33d6 613e
00000050: aab0 ddbd 77f9 06bd 0012 85bd 1acc f6bd
00000060: 91aa 02bc 4da6 d13d 78f0 a23d cc6f febd
00000070: 1fb6 cfbd 449b d63c 170a cbbd dbe7 803d
00000080: 6896 8b3b cdd2 cb3d 1c1f 08bd 2ee1 74bd
00000090: 043b eabd f004 bebd 6672 c5bd dbf0 46bd
000000a0: 67ce bd3d 74d9 d5bd db3c abbd aede 283d
000000b0: e88b 93bd 1a7a cb3c e6a7 2a3e 2ff0 053e
000000c0: 3a2d 213d 6848 353d 9f63 853d b1a4 94bd
000000d0: 20da a3bd 7099 123e 3451 08bd 4268 ff3c
000000e0: 784e 0abe ecfb adbd 5d96 2dbd 40c4 23be
000000f0: 5e9b 1bbd 3c3f 5dbd 9ab1 2fbe a8ba 4ebd
00000100: 1567 07be 0b0a d9bd aed5 dc3b bf4c 903d
00000110: b334 c53d 3a3e 58bd b7fc 663d 3d27 95bd
00000120: 0101 c2bd dabb acbc 1e66 ec3d 15e6 75bd
00000130: 5ad8 c5bd 869b b63d cf8d 6a3d f908 4c3d
00000140: a28c 933d a00d 943d 76a6 913c 7f01 06be
00000150: 3ef2 04be b78a 26be 8292 e3bd 5770 bb3d
00000160: b6a2 3a3e a9b2 c53d beb8 bc3d c48a cbbd
00000170: 1bfc e9bc fefa 68bd b2e5 9a3d 0743 5a3d
00000180: 20e0 b5bd dfe7 d23d d602 f53a 3c88 a33d
00000190: 9dd4 b43d bfe9 68bc 692e 323d ed01 bb3d
000001a0: c32d fd3d e90f cebd 5fc8 803d 96eb 20be
000001b0: 2e11 90bd d327 093b 577f 9ebd 5178 9f3d
000001c0: 134f fcbd 7073 2f3c 1e13 8e3d 5801 1e3d
000001d0: 1d0f 773d 316e 93bd 0bcd 533e 246a 7bbd
000001e0: 8825 cc3c 3547 c83d c05a 85bd 3e46 1c3d
000001f0: 50ef 0d3d eaad 943d 37ee 803c 6774 fabd
00000200: 2ecb f33d 4840 85bd ba4c 09bd e756 bfbd
00000210: 319a 443a 8c7b 063d 19f1 c5bd c17b dbbd
00000220: 47ba 89bd 0967 673e 2ff5 263d a1e1 d8bd
00000230: 70ce b9bd b7c8 ae3d b4ec 2e3e 6f09 423c
00000240: b0ce 243d 18d7 a1bd 0531 c4bc 184e 293e
00000250: fe55 973d c70d 4a3d f867 a3bd 6a5b 483d
00000260: 15aa 49bc d24c 94bd b3b9 bbbd b9ae 123d
00000270: 5e15 b2bd 9555 5bbd f687 d53c 8e87 86bd
00000280: b679 9bbd ffea eabd 9488 b33d a9c6 cb3d
00000290: fd49 7dbd 53fe 8cb9 c9a6 263b d5a4 dd3c
000002a0: 0d39 52bd 817b ac3d ab3c e53d 88c2 9ebd
000002b0: 5a10 983d 2527 b9bd 1cf4 d33d af59 a93d
000002c0: 2c27 50bd 9f16 63bd aa72 d9bd 6331 efbd
000002d0: 688b 4a3d db98 a73d bae0 b43d a8df b1bd
000002e0: c3c7 8ebc fa2c d03d 3976 803d 0665 093e
000002f0: c471 85bd fd4b afbd 2836 ce3d 7ac3 ce3c
00000300: eefb f63d 1d21 433d 6533 30bc 779d e2bd
00000310: 7851 5abd 688a 5a3d 9ab6 11be 6490 533d
00000320: d664 f63c b230 b2bd 87e2 9ebc 739b 243d
00000330: 3862 af3d cbfb 213e 019a 71bd 9aa8 103e
00000340: 1df3 85bd a452 cbbd 4a98 82bd de8a 653d
00000350: dbf5 b33d a408 e33d f8ef b83d 3806 8dbd
00000360: d9cd 3a3e b445 813d 3c14 8bbd 2682 ec3c
00000370: 278c f03c 5b7c fe3c 2b9a d4bb 545c 3fbd
00000380: 2764 e23d ee76 3abd df92 1d3e 800b 51bd
00000390: 5444 96bd c759 a2bd 7bdb 80bd 4a7f bebd
000003a0: 6d1f ec3c 3ef6 4ebc f5a7 14bb f165 2d3d
000003b0: c408 aa3d 4789 d63b 405f 2ebe ab82 a9bd
000003c0: a805 0abd 1303 60bd 892e 43bd d94f 83bd
000003d0: bb31 67bd e606 403d 6a63 783d 31bb 813c
000003e0: 713f 1dbd a667 a1bd a787 c93d b648 33bd
000003f0: 80bd dabd d51f a8bd 2e11 643d e737 203e

action_model._continuous_distribution.mu.bias f4 [2]
0.05565682 0.054761216
00000000: 68f8 633d 4c4d 603d

onnx::Div_51 f4 [90]
0.3463133 0.34230947 0.33460754 0.32361344 0.30806196 0.28468767 0.17249842 0.10116548
0.01543963 0.0095684035 0.005500761 0.0037899686 0.0032708151 0.0029930265 0.0027667868 0.0026981304
0.002512198 0.0024837446 0.0024019403 0.0024125613 0.0023244922 0.0023269618 0.0023040543 0.002228437
0.0022373295 0.0022073747 0.0022264337 0.0022677912 0.0023352345 0.002388772 0.0024534252 0.002504346
0.0025170983 0.002570705 0.0027071217 0.0028615466 0.0031185902 0.003403272 0.0036366603 0.0036885412
0.0037309867 0.0036638267 0.0034122756 0.0031981752 0.0029376524 0.0027887125 0.3470043 0.34643346
0.34562862 0.3451564 0.34431186 0.34285852 0.3403441 0.33574998 0.32764152 0.3163021
0.30308747 0.2901278 0.28309682 0.28658167 0.29110044 0.29240167 0.29034147 0.2735437
0.25905216 0.2560113 0.24970067 0.23632886 0.21113889 0.17932986 0.14815268 0.15634295
0.17363904 0.17747502 0.15946366 0.1274197 0.09480013 0.07202346 0.055057652 0.03840566
0.025203206 0.016317789 0.009978982 0.005304708 0.0024597712 0.0020890879 0.002223404 0.002343418
0.0025244025 0.0026274503
00000000: fa4f b13e 3043 af3e ae51 ab3e a9b0 a53e
00000010: 4cba 9d3e 95c2 913e 6da3 303e d92f cf3d
00000020: 80f6 7c3c cbc4 1c3c ba3f b43b 1f61 783b
00000030: 2c5b 563b a726 443b fb52 353b 1ed3 303b
00000040: b0a3 243b 52c6 223b df69 1d3b 101c 1e3b
00000050: 8256 183b f17f 183b 9eff 163b f80a 123b
00000060: 29a0 123b 9aa9 103b 5ce9 113b 399f 143b
00000070: bc0a 193b f28c 1c3b a5c9 203b f41f 243b
00000080: e7f5 243b 4679 283b f769 313b c988 3b3b
00000090: 4361 4c3b 6e09 5f3b 0955 6e3b 74bb 713b
000000a0: 9283 743b d01c 703b 7ca0 5f3b 7a98 513b
000000b0: a185 403b d5c2 363b 8caa b13e ba5f b13e
000000c0: 3cf6 b03e 57b8 b03e a549 b03e 278b af3e
000000d0: 9541 ae3e 6ce7 ab3e a1c0 a73e 59f2 a13e
000000e0: 482e 9b3e a28b 943e 11f2 903e d5ba 923e
000000f0: 1e0b 953e acb5 953e a3a7 943e eb0d 8c3e
00000100: 7ca2 843e ea13 833e 88b1 7f3e 3100 723e
00000110: cb34 583e 3fa2 373e 56b5 173e 5e18 203e
00000120: 6fce 313e 03bc 353e 714a 233e 4f7a 023e
00000130: 9226 c23d 0981 933d 2284 613d 414f 1d3d
00000140: f476 ce3c e2ac 853c e27e 233c 1ed3 ad3b
00000150: 1d34 213b 14e9 083b 87b6 113b 0894 193b
00000160: 7270 253b 4d31 2c3b
