results/90RC1/Park90RC/Park90RC-1999971.pt (torch, 825364 bytes, 52 tensors)

network_body.observation_encoder.processors.0.normalizer.running_mean f4 [90]
00000000: 5ee5 513f c375 543f 8920 573f a204 5a3f
00000010: d785 5d3f 6725 643f c294 6b3f 872d 723f
00000020: c29b 7f3f 08da 7f3f 7ef3 7f3f a3f8 7f3f
00000030: a9fa 7f3f d2fb 7f3f 2efd 7f3f 73fd 7f3f
00000040: ddfd 7f3f fdfd 7f3f 06fe 7f3f cdfd 7f3f
00000050: dcfd 7f3f d2fd 7f3f 09fe 7f3f 2ffe 7f3f
00000060: 09fe 7f3f 08fe 7f3f 0ffe 7f3f 0ffe 7f3f
00000070: fefd 7f3f d3fd 7f3f bbfd 7f3f a9fd 7f3f
00000080: c0fd 7f3f ccfd 7f3f cffd 7f3f a0fd 7f3f
00000090: 7dfd 7f3f 5bfd 7f3f 3ffd 7f3f 0cfd 7f3f
000000a0: e8fc 7f3f cefc 7f3f e6fc 7f3f e3fc 7f3f
000000b0: 10fd 7f3f 21fd 7f3f 0790 4f3f f373 4d3f
000000c0: 0d86 4b3f 11b7 493f 0f09 483f 684e 463f
000000d0: fc7a 443f 3130 423f 56b0 3e3f 32fb 393f
000000e0: 2a69 343f 0fbb 2e3f 808a 2a3f 51e8 293f
000000f0: 7989 2a3f 45fc 2a3f 2982 2b3f f8c5 293f
00000100: 43c0 2a3f 8fdc 2d3f 6b63 313f 6bd6 353f
00000110: 502a 373f 64b4 363f 8eb1 363f 89a6 383f
00000120: fbcf 3e3f 9642 483f e30f 533f 2da5 5d3f
00000130: 0050 653f 7667 6b3f 84b3 723f f355 793f
00000140: b05b 7d3f 6ade 7e3f 1d80 7f3f 0ed3 7f3f
00000150: a7f4 7f3f cbfd 7f3f 11fe 7f3f edfd 7f3f
00000160: 76fd 7f3f 4cfd 7f3f
0.8199061 0.8299219 0.8403402 0.8516332 0.8653235 0.8911957 0.9202386 0.9460072
0.9984704 0.99942064 0.99980915 0.99988765 0.9999185 0.9999362 0.99995697 0.9999611
0.9999674 0.9999693 0.99996984 0.99996644 0.99996734 0.99996674 0.99997 0.9999723
0.99997 0.99996996 0.9999704 0.9999704 0.99996936 0.9999668 0.99996537 0.9999643
0.99996567 0.9999664 0.99996656 0.99996376 0.9999617 0.99995965 0.999958 0.99995494
0.9999528 0.99995124 0.9999527 0.9999525 0.9999552 0.9999562 0.81079143 0.8025505
0.7950142 0.7879496 0.7813882 0.7746339 0.7675016 0.75854784 0.7448782 0.7264892
0.7047297 0.6825418 0.66617584 0.6637011 0.66616017 0.6679118 0.66995484 0.663177
0.6669962 0.6791467 0.69292325 0.710303 0.7154894 0.71369004 0.71364677 0.7212911
0.74536103 0.782266 0.82446116 0.86580163 0.89575195 0.91954744 0.9480517 0.97396773
0.9896803 0.99558127 0.9980486 0.9993142 0.99982685 0.9999663 0.9999705 0.99996835
0.99996126 0.99995875

network_body.observation_encoder.processors.0.normalizer.running_variance f4 [90]
00000000: fea4 3148 fbf3 2848 3382 1e48 7d14 1248
00000010: 229d 0248 9ede d347 3571 9c47 11db 4a47
00000020: 837b e744 3cbd 2a44 540a 4343 9be9 8c42
00000030: 04cc 2842 c13b f341 a449 c441 31bb b341
00000040: b4e5 9d41 b749 9241 2b7f 8a41 c578 8a41
00000050: 5512 8541 3f32 8c41 ac52 7b41 2615 6d41
00000060: 8734 7441 9507 7541 bb92 7241 dfa7 6541
00000070: c232 7041 47e4 7e41 8547 8941 31b6 8641
00000080: bba5 8241 3afe 7141 7a49 7441 9216 8541
00000090: 0c93 9441 e437 a041 2f8b aa41 150e b041
000000a0: 8455 b041 fe6b ba41 55f3 a541 8d69 a541
000000b0: 2e4e 9341 3002 8a41 72f3 3848 fe31 3f48
000000c0: 0395 4448 8813 4948 ffb9 4c48 0f62 4f48
000000d0: eec8 5048 65e4 4f48 3fb2 4a48 2541 4148
000000e0: a91c 3448 4c11 2448 edea 1348 293f 0b48
000000f0: c164 0448 1fca f947 78c5 ed47 2192 d747
00000100: e6cd cd47 967f c747 b9e1 b847 8060 a547
00000110: 94c8 8347 bc8f 6047 d929 3f47 73a0 2d47
00000120: e699 2547 3454 1a47 1f51 0747 a855 f246
00000130: 9051 d546 8af2 a746 a962 6246 c2e2 f145
00000140: d309 4f45 e7b4 ac44 d844 0644 7de1 1843
00000150: a964 bc41 9cbc 1e41 515a 2d41 f9f7 3941
00000160: 7809 6941 d38f 7941
181907.97 173007.92 162312.8 149585.95 133748.53 108477.234 80098.414 51931.066
1851.8597 682.9568 195.04034 70.45626 42.199234 30.404177 24.535957 22.466402
19.73716 18.285994 17.312094 17.30897 16.633951 17.524534 15.707684 14.817663
15.262824 15.314351 15.160823 14.353484 15.012392 15.930732 17.159922 16.83896
16.330923 15.124567 15.267939 16.63602 18.5718 20.02729 21.31796 22.006876
22.041756 23.30273 20.743814 20.676538 18.413174 17.251068 189389.78 195783.97
201300.05 205902.12 209639.98 212360.23 213795.72 212881.58 207560.98 197892.58
184434.64 168005.19 151467.7 142588.64 135571.02 127892.24 121738.94 110372.26
105371.8 102143.17 94659.445 84673.0 67473.16 57487.734 48937.848 44448.45
42393.9 39508.203 34641.12 31018.828 27304.781 21497.27 14488.665 7740.3447
3312.614 1381.6532 537.0757 152.88081 23.54915 9.921047 10.83455 11.62304
14.564812 15.597613

network_body.processors.0.normalizer.running_mean f4 [90]
00000000: 5ee5 513f c375 543f 8920 573f a204 5a3f
00000010: d785 5d3f 6725 643f c294 6b3f 872d 723f
00000020: c29b 7f3f 08da 7f3f 7ef3 7f3f a3f8 7f3f
00000030: a9fa 7f3f d2fb 7f3f 2efd 7f3f 73fd 7f3f
00000040: ddfd 7f3f fdfd 7f3f 06fe 7f3f cdfd 7f3f
00000050: dcfd 7f3f d2fd 7f3f 09fe 7f3f 2ffe 7f3f
00000060: 09fe 7f3f 08fe 7f3f 0ffe 7f3f 0ffe 7f3f
00000070: fefd 7f3f d3fd 7f3f bbfd 7f3f a9fd 7f3f
00000080: c0fd 7f3f ccfd 7f3f cffd 7f3f a0fd 7f3f
00000090: 7dfd 7f3f 5bfd 7f3f 3ffd 7f3f 0cfd 7f3f
000000a0: e8fc 7f3f cefc 7f3f e6fc 7f3f e3fc 7f3f
000000b0: 10fd 7f3f 21fd 7f3f 0790 4f3f f373 4d3f
000000c0: 0d86 4b3f 11b7 493f 0f09 483f 684e 463f
000000d0: fc7a 443f 3130 423f 56b0 3e3f 32fb 393f
000000e0: 2a69 343f 0fbb 2e3f 808a 2a3f 51e8 293f
000000f0: 7989 2a3f 45fc 2a3f 2982 2b3f f8c5 293f
00000100: 43c0 2a3f 8fdc 2d3f 6b63 313f 6bd6 353f
00000110: 502a 373f 64b4 363f 8eb1 363f 89a6 383f
00000120: fbcf 3e3f 9642 483f e30f 533f 2da5 5d3f
00000130: 0050 653f 7667 6b3f 84b3 723f f355 793f
00000140: b05b 7d3f 6ade 7e3f 1d80 7f3f 0ed3 7f3f
00000150: a7f4 7f3f cbfd 7f3f 11fe 7f3f edfd 7f3f
00000160: 76fd 7f3f 4cfd 7f3f
0.8199061 0.8299219 0.8403402 0.8516332 0.8653235 0.8911957 0.9202386 0.9460072
0.9984704 0.99942064 0.99980915 0.99988765 0.9999185 0.9999362 0.99995697 0.9999611
0.9999674 0.9999693 0.99996984 0.99996644 0.99996734 0.99996674 0.99997 0.9999723
0.99997 0.99996996 0.9999704 0.9999704 0.99996936 0.9999668 0.99996537 0.9999643
0.99996567 0.9999664 0.99996656 0.99996376 0.9999617 0.99995965 0.999958 0.99995494
0.9999528 0.99995124 0.9999527 0.9999525 0.9999552 0.9999562 0.81079143 0.8025505
0.7950142 0.7879496 0.7813882 0.7746339 0.7675016 0.75854784 0.7448782 0.7264892
0.7047297 0.6825418 0.66617584 0.6637011 0.66616017 0.6679118 0.66995484 0.663177
0.6669962 0.6791467 0.69292325 0.710303 0.7154894 0.71369004 0.71364677 0.7212911
0.74536103 0.782266 0.82446116 0.86580163 0.89575195 0.91954744 0.9480517 0.97396773
0.9896803 0.99558127 0.9980486 0.9993142 0.99982685 0.9999663 0.9999705 0.99996835
0.99996126 0.99995875

network_body.processors.0.normalizer.running_variance f4 [90]
00000000: fea4 3148 fbf3 2848 3382 1e48 7d14 1248
00000010: 229d 0248 9ede d347 3571 9c47 11db 4a47
00000020: 837b e744 3cbd 2a44 540a 4343 9be9 8c42
00000030: 04cc 2842 c13b f341 a449 c441 31bb b341
00000040: b4e5 9d41 b749 9241 2b7f 8a41 c578 8a41
00000050: 5512 8541 3f32 8c41 ac52 7b41 2615 6d41
00000060: 8734 7441 9507 7541 bb92 7241 dfa7 6541
00000070: c232 7041 47e4 7e41 8547 8941 31b6 8641
00000080: bba5 8241 3afe 7141 7a49 7441 9216 8541
00000090: 0c93 9441 e437 a041 2f8b aa41 150e b041
000000a0: 8455 b041 fe6b ba41 55f3 a541 8d69 a541
000000b0: 2e4e 9341 3002 8a41 72f3 3848 fe31 3f48
000000c0: 0395 4448 8813 4948 ffb9 4c48 0f62 4f48
000000d0: eec8 5048 65e4 4f48 3fb2 4a48 2541 4148
000000e0: a91c 3448 4c11 2448 edea 1348 293f 0b48
000000f0: c164 0448 1fca f947 78c5 ed47 2192 d747
00000100: e6cd cd47 967f c747 b9e1 b847 8060 a547
00000110: 94c8 8347 bc8f 6047 d929 3f47 73a0 2d47
00000120: e699 2547 3454 1a47 1f51 0747 a855 f246
00000130: 9051 d546 8af2 a746 a962 6246 c2e2 f145
00000140: d309 4f45 e7b4 ac44 d844 0644 7de1 1843
00000150: a964 bc41 9cbc 1e41 515a 2d41 f9f7 3941
00000160: 7809 6941 d38f 7941
181907.97 173007.92 162312.8 149585.95 133748.53 108477.234 80098.414 51931.066
1851.8597 682.9568 195.04034 70.45626 42.199234 30.404177 24.535957 22.466402
19.73716 18.285994 17.312094 17.30897 16.633951 17.524534 15.707684 14.817663
15.262824 15.314351 15.160823 14.353484 15.012392 15.930732 17.159922 16.83896
16.330923 15.124567 15.267939 16.63602 18.5718 20.02729 21.31796 22.006876
22.041756 23.30273 20.743814 20.676538 18.413174 17.251068 189389.78 195783.97
201300.05 205902.12 209639.98 212360.23 213795.72 212881.58 207560.98 197892.58
184434.64 168005.19 151467.7 142588.64 135571.02 127892.24 121738.94 110372.26
105371.8 102143.17 94659.445 84673.0 67473.16 57487.734 48937.848 44448.45
42393.9 39508.203 34641.12 31018.828 27304.781 21497.27 14488.665 7740.3447
3312.614 1381.6532 537.0757 152.88081 23.54915 9.921047 10.83455 11.62304
14.564812 15.597613

network_body._body_endoder.seq_layers.0.weight f4 [128, 90]
00000000: 5c25 8cbd 60cd 1dbe 24f6 49be 31ef 263e
00000010: 2c78 883d bfc4 cabd 8b26 15be 4e6b 65bd
00000020: 40fc da3d 9f8e 33bd 6341 dd3d 36f8 e93c
00000030: c534 e9bd 9902 c9bd 38d2 953c 2c01 3ebe
00000040: 2f5d 05be b44b 98be 503d 073e 87c7 b7bc
00000050: 08fc 203e cc96 483c 80a9 c0bc e396 633e
00000060: 6af3 c4bd 5d33 56be 31e0 3bbe a57c 14be
00000070: a67e 933d f024 62bd d5f0 873c 82c2 893d
00000080: a9cd 533e e5f8 cfbc 6271 2b3e fe16 1ebd
00000090: ed41 3d3e 2ae3 fb3d b47d f33d 5245 8bbe
000000a0: dad3 01be 9d41 0bbe ca2c a8bd 51ee 34be
000000b0: 5bda c3bd 772b d9bd bb25 b13c 4311 703e
000000c0: 73aa b4bd 67f8 99bb c3a8 87bd d86f d53c
000000d0: 4874 1c3e d8c3 383e 0bec a5bd 7ef9 0f3e
000000e0: d7b1 f33d 79c8 263c 9ad0 923e 122f 013e
000000f0: f9b3 45bd 8b00 363d 2652 583d 29b9 823e
00000100: eb2b 5a3e 1f9a 843d 0564 983d b339 603d
00000110: 238b c53d e5ca 48bc ec62 073e 47f4 b53b
00000120: a2e7 4abe 1dc5 393d aa2c 92bd 1fc8 f4bd
00000130: 6c32 86ba 18aa 883c 94eb 433c 118c 10be
00000140: d4a6 393e 7491 163d 5682 e3bc 76ac 093e
00000150: 679f fdbd e812 dabd ef86 96bb 7123 8f3c
00000160: 3a55 f0bd 69bc 6f3e d6ca a0bc 098e a0bd
00000170: 4b14 d3bc 374a 1a3e 21ce 94bc a5da 7ebd
00000180: 7508 ac3d cb53 52bb 070b 49be 57fa e93b
00000190: 8579 6d3e 140f a33d 9cac 0a3e 2be1 413e
000001a0: 63aa 86bd 8800 2ebe 76bb f4bd 6658 8f3c
000001b0: dc13 adba a072 3dbe 90c3 0a3e f618 233d
000001c0: 0009 5f3d f96f 633d 824c 033d 2e10 0ebd
000001d0: da4a 15bd 763d 783d c877 853e a7a8 c5bc
000001e0: 9569 983d 83f1 3b3d c250 30bd 8418 febb
000001f0: 7e89 813d 7e62 9e3d c704 c73d 9b9e 79bd
00000200: f97c b83c 27a3 4c3e 6caf b93c 9e7b e6bd
00000210: 557d d7bc 1eb1 143e 0c65 40be de0e 0f3e
00000220: 9798 dabc 5fa4 92bd f790 523d 1aad 433d
00000230: ee4d d53b 1e53 e7bd a0c8 e3bd 9dc1 1e3e
00000240: 7836 413e 0154 4ebe 5572 fabd 89b1 823d
00000250: b355 eabb de65 80bd 5b14 f7bb d22e 013e
00000260: 204b 483d 7872 483e 97d2 db3d 55e3 cf3d
00000270: d78a dcbd 02ad 1b3d d143 4bbe 2b95 d9bc
00000280: cc1d 823c cc61 c5bd 83e4 52bd c1d0 7d3e
00000290: c5b3 68bd edf6 0c3e 21b6 ae3d 97b5 3abc
000002a0: b314 8d3e 932e c13d 8a04 8cbd 9c1b 103e
000002b0: cdc6 6d3d 3561 a9bd df17 07be f31f ddbd
000002c0: 87d2 d3bd 34ab 42be 5871 04bd 3e02 40bd
000002d0: 1176 24be cb4e 7d3e 662a 0e3e aa2a 883b
000002e0: d16c aebd 2e74 563d 4fe5 44be a205 f7bc
000002f0: eebb d8bc 1a53 4cbd e321 31be 4b22 3dbe
00000300: b402 01bb 454d bb3c 7e20 f23d 665d f3bc
00000310: 21b9 17bc 1df2 42bc b73d 2bbe 9c5b 2c3c
00000320: f101 bd3c 521f d6bd 45b3 49bd f7be 59be
00000330: a3e2 27be b191 27be 4601 a33c 23bb 4bbb
00000340: 3186 933d 38ae ab3c 74da 303e 0fa0 70be
00000350: 4090 2e3e fd97 e8bd 34c3 dfbd eea8 15bd
00000360: a6bb 353e 876e 083e c8fd 603e ecfd e4bd
00000370: d200 8b3c cbd5 0abe 1660 243d b8d6 9dbd
00000380: d990 9cbd 4146 aabd 067e 50be 8aca 2ebe
00000390: e7a0 8cbd f80e a3bd 6ec8 48bb 78b3 1c3d
000003a0: ae6e 843d f0f8 593e 481e dd3d 18d7 f5bc
000003b0: 09da d83e be9f 1c3e 374f 25bc 29c0 76bd
000003c0: c59e 593d 9e00 2e3e d0d0 febb 0027 a9bd
000003d0: 58ba 523e 78bf 4fbd 0913 7e3e cdaa 57bb
000003e0: 247b 933e 9f1a 6e3d 298c 1ebe 6909 243d
000003f0: 522f 6d3c cd79 113e dffe 70bd 6352 c33c
-0.06843063 -0.15410376 -0.19722801 0.16302182 0.06663546 -0.099008076 -0.14565484 -0.056010537
0.10692644 -0.043837186 0.10803487 0.028560739 -0.11387018 -0.098149486 0.018288717 -0.18555135
-0.13023828 -0.29745257 0.13206983 -0.02243401 0.15721142 0.012242984 -0.023518324 0.22225527
-0.0961674 -0.20918031 -0.18347241 -0.14500673 0.07201891 -0.055211008 0.01659433 0.067265525
0.20683922 -0.025387237 0.16742471 -0.038596146 0.1848218 0.122991875 0.1188921 -0.27201325
-0.12678471 -0.13599248 -0.08211668 -0.17669035 -0.095631324 -0.106039934 0.021624437 0.23444085
-0.08821573 -0.0046988013 -0.066239856 0.026054308 0.15278733 0.18043458 -0.08101662 0.14060017
0.11899155 0.010179632 0.28674775 0.12615612 -0.04826734 0.04443411 0.052812718 0.2553189
0.21305816 0.06474709 0.07440952 0.054742526 0.09645679 -0.012255405 0.1322133 0.005552802
-0.19814923 0.045353997 -0.07137425 -0.119522326 -0.0010238416 0.01668267 0.011958022 -0.14115931
0.18130046 0.03675981 -0.02777211 0.13444695 -0.12383919 -0.10648137 -0.004593722 0.017472954
-0.11735006 0.23411717 -0.01962797 -0.07839591 -0.025766512 0.15067373 -0.018164696 -0.062220234
0.084000506 -0.0032093402 -0.19633113 0.0071404385 0.23190887 0.0796186 0.13542408 0.18933551
-0.065754674 -0.1699239 -0.11949818 0.017498206 -0.0013204771 -0.18500757 0.13551164 0.039818726
0.054451942 0.055526707 0.032055385 -0.0346834 -0.036448337 0.06060549 0.26067948 -0.024128271
0.07442013 0.04588462 -0.043045767 -0.0077543873 0.06325053 0.0773363 0.09717708 -0.060942274
0.02252053 0.19984113 0.022666655 -0.11254047 -0.02630488 0.1452069 -0.18788546 0.13970515
-0.026684089 -0.071602575 0.05140778 0.047772504 0.006509534 -0.1129515 -0.111222506 0.15503545
0.18868434 -0.20149232 -0.12228838 0.063815184 -0.0071513294 -0.062694296 -0.0075402684 0.12615517
0.04889977 0.19574916 0.10733526 0.10150782 -0.10768669 0.03800679 -0.19850089 -0.026560387
0.015883349 -0.09637794 -0.051487457 0.24786665 -0.056812067 0.1376607 0.08530832 -0.011395833
0.27554855 0.094327115 -0.06836803 0.14073032 0.05805092 -0.08270494 -0.131927 -0.107971095
-0.10342889 -0.19010621 -0.032334656 -0.04687714 -0.16060664 0.24737088 0.13883361 0.0041554766
-0.08516849 0.05235689 -0.192281 -0.030154053 -0.0264568 -0.04988394 -0.17298083 -0.18470113
-0.001968545 0.022863993 0.11822604 -0.029707622 -0.009260447 -0.011898545 -0.16722761 0.010519888
0.023072215 -0.104551926 -0.04924323 -0.21264254 -0.16395049 -0.1636417 0.019898068 -0.0031086884
0.07203329 0.020957097 0.17270833 -0.23498558 0.17047215 -0.113571145 -0.10925904 -0.036538057
0.17747363 0.13323413 0.2197181 -0.11181244 0.016968165 -0.13558118 0.040130697 -0.0770697
-0.07644815 -0.08314181 -0.20360574 -0.1706945 -0.06866627 -0.079618394 -0.0030637044 0.038257092
0.06466423 0.21286368 0.10796791 -0.030009791 0.42353848 0.15295312 -0.010089687 -0.060241852
0.05312993 0.16992423 -0.0077763572 -0.08259392 0.20578897 -0.05071971 0.24811949 -0.0032908202
0.28804886 0.058130857 -0.15483154 0.040048037 0.014476614 0.1420662 -0.058836814 0.023842996

network_body._body_endoder.seq_layers.0.bias f4 [128]
00000000: f770 40bd 1c7b 1e3d 6d4a f3bb 0052 7d3d
00000010: a15c fa3c 14f5 e7bc 9a47 5f3d 1954 373d
00000020: 9638 70bc f086 173d babd ae39 4013 5f3d
00000030: 57be 803d 67b2 103d d754 6f3d 2517 2c3d
00000040: 6e5e 8bbd 0c4e 0bbd cce9 7ebd 9da9 373d
00000050: 466d a4bc fbe5 993d febc 583d 0184 d33c
00000060: 9a5c b93d 9e43 d33c 62c9 bf3d bdef 663d
00000070: f71f c93d 86c2 273d ee3e 3abd c4d6 bbbc
00000080: 0462 8e3b 6ab2 43bd 01f2 5e3c c91a 023d
00000090: 51a4 86bd 59b7 6fbc 76c9 96bd 4150 42bd
000000a0: 9ae5 be3b 1669 773d 081c 7cba a662 27bd
000000b0: 163b 9b3d 765c 12bd 069a 5ebd 6919 a4bd
000000c0: e17a 3f3c 5c72 6c3d 8b11 75bd fd4c 32bc
000000d0: 8f12 73bc 0d30 8f3d 3ff3 53bd 4a35 17bd
000000e0: 5af1 343d 0cd3 5a3d fc70 debc 8e51 c3bc
000000f0: 5388 13bd 3e94 4dbd 231d 3f3d dcf2 333d
00000100: 4808 903d c607 4e3d bcc4 16bd 8754 143b
00000110: 891e 153c f41f bcbd c35d 233d f82f 3c3d
00000120: 794f d2bd 4d2d cfbc b74b 64bd adcb 5f3c
00000130: a9b1 d8bc 0e71 d53d 86c1 a23d 6c85 123d
00000140: 9c7c 53bd a6a2 65bd 51cb b1bb 61dd 62bc
00000150: 6304 22bc 2e7a fdbc afb0 b03d 214e 193d
00000160: 0877 1b3d 5c17 3bbd dfc1 21bd 251e 7e3d
00000170: 868d 833d 696a c1bd 1303 ad3d e0af 1b3d
00000180: 3c80 543c 92aa 35bc f83b b53d e655 03bd
00000190: 9990 e4bb 67d9 8fbc f727 883d 4b07 cbbc
000001a0: 87bc 0cbd 88b0 84bd 2995 373d f996 943d
000001b0: ec12 2e3c 5cef a9bb fb09 dcbc ed2d 2f3d
000001c0: 533b 81bd d132 d8bb ebb2 33bd 3b86 2c3b
000001d0: a68f 5dbd 9284 36ba beff c5bd 01d4 a23d
000001e0: a87d efbc c3dc a43c d3e1 de3b 5e79 8a38
000001f0: 4b66 ce3d ece8 50bd a07e 7bbd 19d2 1b3d
-0.04698273 0.038691625 -0.0074246437 0.06184578 0.030561747 -0.028315105 0.054511644 0.044757936
-0.014661929 0.03699392 0.00033329224 0.054461718 0.062863044 0.035326388 0.05843052 0.04201426
-0.068051204 -0.03400998 -0.062234685 0.04483949 -0.020071637 0.075145684 0.052914612 0.02581978
0.090508655 0.025789078 0.093645826 0.056380976 0.0982055 0.040956996 -0.04547017 -0.022929557
0.0043451805 -0.04777757 0.013607503 0.031763826 -0.065743096 -0.014631116 -0.073626444 -0.047439817
0.0058257105 0.060402952 -0.0009617214 -0.040865563 0.07579629 -0.03573271 -0.054346107 -0.08012659
0.011687011 0.05772625 -0.059831183 -0.010882613 -0.014835968 0.06991587 -0.05174565 -0.036916055
0.044175483 0.053423926 -0.027153485 -0.0238426 -0.03601868 -0.050190203 0.046658646 0.04393278
0.070328295 0.050300382 -0.036808714 0.002263339 0.009101518 -0.09185782 0.03988434 0.045944184
-0.102690645 -0.025290156 -0.05573627 0.0136594 -0.026451902 0.10421954 0.07947068 0.035771772
-0.05163251 -0.056063317 -0.0054258485 -0.013846726 -0.009888741 -0.030942049 0.0862745 0.037428025
0.037955314 -0.045676574 -0.03949153 0.062040467 0.06423478 -0.09444124 0.08447852 0.038009524
0.012970027 -0.01108803 0.08849329 -0.03206434 -0.006975245 -0.01755972 0.06648248 -0.024783751
-0.03435948 -0.06478983 0.044819985 0.07255358 0.0106246285 -0.0051860046 -0.026860228 0.042768408
-0.06310143 -0.0065978547 -0.0438718 0.0026325125 -0.054092072 -0.00069625035 -0.096679196 0.07950593
-0.029234722 0.020124799 0.0068018227 6.602959e-05 0.100781046 -0.05100338 -0.061400056 0.03804216

network_body._body_endoder.seq_layers.2.weight f4 [128, 128]
00000000: 65ad 85bd cb56 683d 8fb0 253d 9f04 d33d
00000010: 59d3 10be 2a32 12be 04e3 ef3d d652 fd3d
00000020: 3fc3 8abb f0cc 1d3d edf3 a33d dca4 7d3d
00000030: 804a 893d b70b f43d c516 033e 99d8 403d
00000040: 1915 11be f926 44bd 676d 92bd 1c5c f53d
00000050: 9f59 ebbc 3246 293e 0f11 12bd 368a cfbd
00000060: f4cb 573e 6864 cc3d a020 9b3e 1dff 813d
00000070: d96b 7d3d 0d8e 3f3d e69f c0bd 61c5 51bc
00000080: 13c7 253e afd4 23be 92b1 a1bd acce b83d
00000090: be7f e1bd 8177 f73d 227e 613d 0502 84be
000000a0: 6970 353d 20fa e2bd 62b5 b63d 0840 c7bc
000000b0: 7953 bdbb a69a eb3d f028 c8bd 7fc7 cf3c
000000c0: ec3a 1bbe 2d9f a23d 47fb d1bd 13a0 ab3d
000000d0: 907e 23be 9a8d 8e3d 3f42 da3c 4189 b1bd
000000e0: 2b68 7fbc a700 b03d 9d86 92be b315 c13c
000000f0: 7d2e 0e3d 19c6 82bd 5577 523d 357a e43d
00000100: 04ac 883d 886f 7f3e 7d4d 92bd 98ca 853d
00000110: 7988 dabd ab33 623d be17 b53e e329 093c
00000120: e928 a0bd 464c 7d3d 89bc dcbc a905 2bbe
00000130: ca07 abbd dd54 66bd 7bdc 463e d7e3 d53c
00000140: ca9a 34bd 9e8b 2fbe de3b 3abe 15a8 babd
00000150: ccea a6bd 0df2 21bd bd1e 643d 23bb b1bd
00000160: 22cb 103d 463e e4bd 24ff 143d 558a f43d
00000170: 1108 97bd e0d8 63be 240a 8d3e 72f1 c1bd
00000180: c556 edbd a0cd 20be 9c8c 903e 8bcc 06be
00000190: 00c8 42bd 0c72 d4bd e9d5 213e 1119 71bd
000001a0: b43d 423d 6bfb 04bd 657e 11bd 23c6 e13c
000001b0: edfd ceba ea94 113e 5952 bfbc 829b b0bb
000001c0: 3010 97be 915d f2bb 098c 3cbe 7bc9 bc3d
000001d0: f1eb ed3c 57d2 85bd 28af 03be bf99 ca3d
000001e0: d15f b2bd 9843 f9bd 8103 1abc 3386 473c
000001f0: 07ea 213e d7dd a93b b43e ad3c 5063 953d
00000200: e64b 22bb c977 05be d494 073e effd 843d
00000210: 82bb d83c 4e66 c3bd 9689 33bd 5db9 98ba
00000220: 98fb f83d f88b d4bc 1bbd 903e 2f69 a7bd
00000230: 8a2a 153e 2561 92bd e898 09bc 4b60 27be
00000240: 6dc3 2cbe 582c 06bc bcdf 46bd 1da8 80bd
00000250: 8191 35be 4c4c 12be 9059 0e3e 6811 c4bd
00000260: 4ad4 b7bd 9ce7 823b 51df b5bd bf44 0fbe
00000270: 5954 823b 36e0 f2bc 8cc5 633e 0b5a ae3d
00000280: a283 76bd d5d1 82bd 80f2 ecbd f315 b93d
00000290: 341b 7bbd d7a7 a7bc 7508 07bd ac91 b3bc
000002a0: 372a 8dbd 8cf6 26be 5e5e 79be 7cbf e5bc
000002b0: ef24 1b3e a83e 943d 8957 143e 2f7a 493d
000002c0: cd0b 39be 817f 44be eb09 0e3d 5733 2d3c
000002d0: 8905 da3d 57f0 ebbd 8b20 84bd f656 1fbe
000002e0: f3b7 95bd 918c fabd 7b6a 033d f8c9 3fbe
000002f0: d283 c53d 123e 3f3d 7a3b e8bd 1101 28bd
00000300: 207c 1a3d cdf2 03ba 77b1 9f3d 0559 42bd
00000310: b469 b83b f480 3fbd e04c 1fbe 546d 23be
00000320: 3377 f8bc 3f20 f93d ea46 f53d f7bb 983d
00000330: 1823 343e 8110 bfba dd63 efbd 86e0 a9bd
00000340: b01f 423d 763d 403e aa4d 14bd c048 2cbe
00000350: 3692 dfbc 0153 1f3e a51a 5dbd cea9 92bd
00000360: 9ce2 2a3d 80a9 7e3c 7d3a 7dbd eed4 29be
00000370: 8b1f 7a3d 9faf 883d dcb6 32be 8280 10be
00000380: cb02 d8bc 9b9b 1ebe b47a edbd bd31 903c
00000390: 67a9 4c3d fcf4 893d bbde 133e 32e2 193d
000003a0: e7a8 88bd 85b0 0dbc 2072 683d 243c d7bb
000003b0: 6a0a eb3c 9a52 25be ca3e 1a3d 0986 de3d
000003c0: 705a 643d 22e1 b9bd 66cd 50bd fbc2 07be
000003d0: a247 0a3d cb37 52bc 0988 1abe 801d e6bb
000003e0: 168b 133e a328 98bd aa82 1ebd ae6e ccbc
000003f0: b146 94bc dbc5 66be 5a80 c73d 50bf f237
-0.06527213 0.056723397 0.040451583 0.10303616 -0.14143123 -0.14276949 0.11713222 0.12369315
-0.004234701 0.03852552 0.080055095 0.0619248 0.06703663 0.11916297 0.12801655 0.047081564
-0.14168204 -0.04788873 -0.07149773 0.11980459 -0.028729258 0.16530684 -0.0356608 -0.101337835
0.21073896 0.099800885 0.30298328 0.06347487 0.06187043 0.04676633 -0.09405498 -0.012803406
0.16189222 -0.15999101 -0.07895197 0.090237945 -0.11010693 0.120833404 0.05505193 -0.2578279
0.044296656 -0.11082864 0.08921315 -0.024322525 -0.005777773 0.11504106 -0.09773433 0.025363682
-0.15159196 0.079405166 -0.102530055 0.08380141 -0.15966249 0.06960602 0.026642917 -0.08668757
-0.0155888 0.085938744 -0.28618327 0.023569917 0.034712303 -0.063854404 0.051383335 0.11156122
0.066734344 0.2494489 -0.07143686 0.06532782 -0.10670561 0.055225056 0.35369676 0.008371803
-0.07820303 0.06184032 -0.02694537 -0.16701378 -0.08351095 -0.056233276 0.19420044 0.026109619
-0.04409293 -0.17143103 -0.181869 -0.0911409 -0.08150253 -0.03953748 0.055693377 -0.086782716
0.035349973 -0.1114469 0.036376134 0.11940447 -0.073745854 -0.222507 0.275468 -0.0946988
-0.115888156 -0.1570344 0.28232276 -0.13163964 -0.047554016 -0.10373315 0.15804256 -0.058861796
0.047422126 -0.032466333 -0.03552093 0.0275603 -0.0015792229 0.14216962 -0.023354696 -0.0053896317
-0.29504538 -0.007396408 -0.18412794 0.09218117 0.02904317 -0.0653426 -0.12859786 0.09892606
-0.08709682 -0.121710956 -0.009400249 0.012177992 0.1581193 0.005183916 0.021148063 0.07294333
-0.0024764477 -0.13033976 0.13240367 0.064937465 0.026456598 -0.095409974 -0.043832384 -0.0011651922
0.12157363 -0.025945649 0.28269276 -0.08174359 0.14567009 -0.07147435 -0.008398272 -0.16345327
-0.16871424 -0.008189283 -0.048553213 -0.06282065 -0.17731287 -0.14286917 0.13901353 -0.095736325
-0.08976038 0.003994895 -0.08880485 -0.13991068 0.00397734 -0.029647928 0.22243327 0.08513268
-0.06018413 -0.063876785 -0.11569691 0.090373896 -0.06130524 -0.020465774 -0.03296705 -0.021920048
-0.068928175 -0.16304988 -0.24352404 -0.028045408 0.15150808 0.07238513 0.14486517 0.04918879
-0.18070908 -0.19189264 0.034677427 0.010571322 0.10645587 -0.115204506 -0.064515196 -0.15560517
-0.07310476 -0.12233842 0.03208397 -0.18729389 0.09644283 0.046690054 -0.11339469 -0.041016642
0.03771603 -0.00050334336 0.077975206 -0.047448177 0.005627835 -0.04675384 -0.15556669 -0.15959674
-0.030330276 0.121643536 0.119764164 0.074577264 0.17591512 -0.0014577062 -0.11688969 -0.082947776
0.0473935 0.18773445 -0.03620688 -0.16824627 -0.027291398 0.15559007 -0.05398049 -0.07161294
0.041720018 0.015543342 -0.061823357 -0.16585132 0.061065238 0.06674122 -0.17452568 -0.14111522
-0.02636852 -0.15489046 -0.115956694 0.017601842 0.049966242 0.0673618 0.14440434 0.037569232
-0.066728406 -0.008648043 0.056749463 -0.0065684486 0.02869149 -0.16144791 0.037657537 0.10865409
0.05575031 -0.09076144 -0.050977133 -0.13257973 0.03375972 -0.012830685 -0.15090956 -0.0070225596
0.14408526 -0.07429626 -0.03869883 -0.02495512 -0.018100115 -0.22536413 0.09741278 2.8937735e-05

network_body._body_endoder.seq_layers.2.bias f4 [128]
00000000: 2d16 b93d e977 5c3b 400a 61bd 3f53 11bd
00000010: 97e2 1abc 6ce6 1bbd fb6d ba3c 670a e3b9
00000020: 0372 97bc 5428 ad3d 978d 053d 7df6 68bd
00000030: ac23 5abc fd44 573d a240 933d 1586 23bd
00000040: 2edc 3d3d 0418 70bc b003 9a3c e960 ba3d
00000050: 775c 843d 2ddd 48ba 0ab9 1ebc c279 8d3d
00000060: 03e4 05bd ae3e c03c 7a6c 0c3c 8a3f 843d
00000070: 460a a0bd 7671 e03c ed2d ba3b e83f 2e3d
00000080: 6153 a4bc aaa0 d8bc 77fc 9a3d 4a25 cd3d
00000090: 1c10 f0bc 85ba b93c b5ee 98bc 582e 423d
000000a0: ba0b 063c aa57 8a3d a72f c93d b2ae 2b3c
000000b0: eb28 503d 9a5f 14bd 6ebd 263d 913c 133d
000000c0: e469 c8bc fea6 96bc 0949 d1bc d7e5 63bd
000000d0: 83a6 d43d 761a 453d f5fb 9b3d a6e9 b1bc
000000e0: 84cc cc3c 3132 533d ef84 933d c32e 573d
000000f0: 76d4 adbc 62e0 2abd 2145 c93d c401 2b3d
00000100: e156 a83d 3c88 d43c 70d1 bbbc 8bf2 783c
00000110: db2d 863c eddb 5a3d 898d c63b 78f2 babc
00000120: 79c2 a7bc 7c93 24bd ac85 d23c 89fe 203d
00000130: cba1 353d be0f 7f3d 5bb4 963b 2638 6c3d
00000140: b24e d03b 9683 ca3c edf7 b9bc f847 823c
00000150: 8b96 763d fa66 3e3d 8248 b43d c90a 3a3d
00000160: e7ed ac3d 88f1 db3c f5ce 333d d357 303d
00000170: a3f6 163d 39fc a13d 8a79 39bd a09a d73a
00000180: 8f14 d03d 8412 8c3c 3eea 963d 6f45 d2ba
00000190: abc5 223c 2fd3 95bc 8782 cdbc c3eb 183d
000001a0: 963c 0d3d 36f0 8abc 1500 eb3c 68ff ac3c
000001b0: 58cc 553d 3a19 223b e471 dcbc c75f 713c
000001c0: c7d6 36bc 247b f6bc 0198 903c fe68 fbbc
000001d0: 9cb9 103c 5b6f 203d 4b91 793d 4988 0f3c
000001e0: f274 23bd 1bee 6f3c a7fe c03d a4cf c0bc
000001f0: f955 b9bc d0b0 11bd 41ea a23c daef ad3d
0.09037433 0.0033640808 -0.054941416 -0.03547978 -0.009453437 -0.038061544 0.02275752 -0.00043304564
-0.018486982 0.084549576 0.032605734 -0.056875695 -0.013314169 0.052556027 0.07190062 -0.039922792
0.046352558 -0.014654163 0.018800586 0.091005154 0.06462949 -0.0007662352 -0.009687671 0.06907989
-0.032688152 0.023467388 0.008570785 0.064574316 -0.078144595 0.027397852 0.0056817443 0.042541414
-0.02005929 -0.026443798 0.07567685 0.10016878 -0.029304557 0.022671947 -0.018668512 0.047407478
0.008181507 0.06755002 0.09823542 0.010478662 0.050820272 -0.036223985 0.040707998 0.035946433
-0.024464555 -0.018390175 -0.025547521 -0.055639114 0.10383322 0.04812094 0.07616416 -0.021717858
0.024999864 0.051561538 0.072030894 0.05253483 -0.021219473 -0.041717894 0.098276384 0.04174973
0.08219696 0.025943868 -0.022927016 0.0151945455 0.016379287 0.053432394 0.006059353 -0.022820696
-0.020478474 -0.040179715 0.025698505 0.039305244 0.04434375 0.062270872 0.0045991368 0.057670735
0.0063570375 0.024720948 -0.022701228 0.015903458 0.060202163 0.046484925 0.08802892 0.04542044
0.08443814 0.02684857 0.04389854 0.043052506 0.036856305 0.07909436 -0.045281924 0.001644928
0.10160171 0.017098673 0.07368897 -0.0016042421 0.009934823 -0.018289177 -0.025086654 0.037334215
0.034481607 -0.016960245 0.028686563 0.021117881 0.05219683 0.0024734274 -0.026909776 0.014732308
-0.011159605 -0.030088015 0.017650606 -0.030689713 0.008833315 0.039168697 0.060929578 0.00876052
-0.03990645 0.014644171 0.09423571 -0.02353651 -0.022624003 -0.035569012 0.019887092 0.08493014

action_model._continuous_distribution.log_sigma f4 [1, 2]
00000000: 9d5a fb3c 5aa5 39bd
0.030682856 -0.045323707

action_model._continuous_distribution.mu.weight f4 [2, 128]
00000000: ef83 47bd 5383 6a3d 994b 79bb 2249 44bd
00000010: ce9c 71bd bf03 ba3c 64d3 ce3d 49d4 1f3d
00000020: 069a 243d 028e 3b3c d04a 8cbd 802e 84bd
00000030: eeff f33c 453c 30bb 2e3d a73d c161 e3bc
00000040: f629 f63c 11f8 513c f189 51bd b14d be3d
00000050: 4596 93bd 5979 62bd 565f 82bd 1b8e babd
00000060: 6a95 76bd af7d 923d 9ebe 973d 9afa b9bd
00000070: d5fb 59bd 9b3b 5b3d 3b14 bcbd f16a a23d
00000080: 2f06 2a3d fa92 b63c 3de1 a0bc 9918 21bd
00000090: 5e9f 65bd ff7c 80bd a6ff 3cbd bd08 44bd
000000a0: b025 a63d 1c5e 8abd e4da 8bbd 419a 633d
000000b0: f6e9 6fbd 8510 943c 3ca3 5a3d bba3 863d
000000c0: b5dc 933c 4c95 363d 2a34 103d 4b50 4dbd
000000d0: 876c 78bd 0cfb 813d 36cb f6bc 0a8a a83c
000000e0: ed39 b7bd fc7a 65bd d58a eabc 064d c3bd
000000f0: cae7 8dbd 659d 90bd 2117 b8bd e102 08ba
00000100: a6c8 e7bd 0539 98bd 7e5d cf3c b2ed 9a3d
00000110: b43c ab3d 35cd ecbc 3394 103d 0bb9 a8bc
00000120: cd63 7cbd 9b5a e73a 380d a83d fb61 41bd
00000130: 6f24 abbd 966c 2e3c 0ffc 723d 69d3 2e3c
00000140: 8bd7 7e3d 14a8 9f3d c311 ff3b 6033 d3bd
00000150: 99b9 cdbd 7ecd b8bd 3c72 b1bd 62c1 b63d
00000160: 2f26 9f3d 4154 493d 781d aa3d af5e 5bbd
00000170: c993 0bbd 2897 18bd ca45 383c 69e3 463d
00000180: c8af 8ebd 0f86 a93d 0b3f cd3b e7f6 603d
00000190: 48b0 903d 3369 553d c300 34ba 7232 793d
000001a0: 8548 363d c689 94bd 6fe6 843d 9a78 04be
000001b0: 6f28 85bb 8270 293d 2f9b a2bc 9c36 703d
000001c0: 405d f8bd 036d 923c 57ca 843d 947c e33c
000001d0: b66c 673d e55e 3cbd 5f36 b23d fd7d f5bc
000001e0: e5db 823c 73a1 b73d b213 4fbd ef75 803c
000001f0: 8868 df3b 0591 183d 4ea6 c93a 2143 f7bd
00000200: d7d5 013e 11ba 68bd eb23 01bd 5c93 acbd
00000210: be9e 413c cc39 75bd 00bb cebd d77a a8bd
00000220: 8734 52bd 3cc2 ea3d bf62 633d b006 45bd
00000230: 34a9 0bbd 1ff0 843d e934 c23d 2b47 613b
00000240: 6063 913b f708 d6bd 5537 0a3d 19c5 e43d
00000250: 30dc ce3d c3b2 353d 2777 38bc 3b78 8f3d
00000260: b96f 40bc d207 9cbd bd40 9dbd 19f6 913d
00000270: 8620 3ebb 7df8 a0bd 7d13 0a3d 0cc9 27bc
00000280: 6c63 57bd f209 8fbd f537 b83d a0b5 cd3d
00000290: 827c 1d3b b75f d23c 5f42 013d 78f9 413d
000002a0: c6af 8fbd 96ca d13d 5a2f d23d 1803 15bd
000002b0: 72e2 ab3d fae6 ccbc d633 853d 06ac d63c
000002c0: bc5f 70bd e50f 26bd 773f 98bd 76d8 48bd
000002d0: 718b ad3d 0d11 473d 71e1 c63d a8bf d1bd
000002e0: 94c6 373d 0bba ac3d 3009 a53d 3a31 993d
000002f0: a88d 6abd 4dbb f4bc 229f 9b3d d9e6 113d
00000300: 5862 ed3d 5317 663d 990a 19bd cc2a 1bbd
00000310: 8dd2 6abd 5293 443d 1dfd 13be 3cad db3c
00000320: 9ede 933c 7486 5abd af66 e0bc d5f3 643d
00000330: f794 a53d b5f0 b73d 6dc6 45bd f6bc 823d
00000340: a6ea 56bd d6cb c7bd 4768 a6bd 467c 4a3d
00000350: 3269 b13d 0d17 823d 6b1e c13d 107a 4dbd
00000360: eb0b c53d 7afd 1f3c 8ca0 293b 5bc8 7c3d
00000370: 32ee 613d bf3d 563d 3dcf bbbc ca85 59bd
00000380: 1709 de3d 92ad a7bc 9620 e73d efba 4cbd
00000390: fb3b 73bd 3d93 fdbc a3b5 a2bc c3e6 b3bd
000003a0: 0f30 bd3c e730 923c 3275 e8b9 bc64 393d
000003b0: fc9f 653d d5dd c8bb 0dbd 7ebd 4489 c7bd
000003c0: daed c0bb 8cf6 50bd d7d6 65bd e777 50bd
000003d0: 77af 58bd d6b9 8c3d 405f 233d 0283 193c
000003e0: 4140 5dbd 30d3 7bbd fa72 c63d e1d1 79bd
000003f0: 804b 03be cd83 bbbd 5df1 be3c 13a8 0c3e
-0.048709806 0.057254147 -0.0038039444 -0.047921307 -0.05898743 0.022706864 0.10098913 0.03902081
0.04018595 0.0114474315 -0.06850207 -0.06454182 0.029785123 -0.0026891392 0.08165966 -0.027756574
0.030049305 0.012815491 -0.05115694 0.09292162 -0.07206396 -0.055291507 -0.0636584 -0.09109136
-0.060201086 0.071528785 0.07409404 -0.090810016 -0.05321868 0.05352364 -0.09183546 0.07930554
0.041509803 0.02228688 -0.019638652 -0.0393301 -0.056060188 -0.06273841 -0.046142243 -0.047859896
0.08112657 -0.06756231 -0.068288594 0.05556703 -0.058572732 0.018074283 0.05337833 0.06574198
0.018049577 0.044575974 0.035205998 -0.0501254 -0.060650375 0.063467115 -0.030126195 0.020573635
-0.08946595 -0.05602549 -0.028630653 -0.095361754 -0.06928976 -0.070612706 -0.089887865 -0.0005188417
-0.113175675 -0.074327506 0.025313135 0.07564868 0.083611876 -0.028906444 0.035297584 -0.020596048
-0.061618615 0.0017650904 0.08205646 -0.047212582 -0.083565585 0.010646006 0.059322413 0.010670521
0.062217277 0.0779573 0.0077841 -0.103125334 -0.100451656 -0.090235695 -0.086643666 0.089236036
0.07770955 0.049152616 0.08306402 -0.053557094 -0.034076486 -0.03725353 0.011247108 0.04855672
-0.06967121 0.08277523 0.006263619 0.054922964 0.07064873 0.05210228 -0.00068665686 0.060839124
0.044502754 -0.07252841 0.06489264 -0.12936631 -0.004063658 0.04136706 -0.019849388 0.05864583
-0.12127161 0.017874246 0.06483906 0.027769364 0.05650016 -0.045988936 0.08701777 -0.029967302
0.015973995 0.08966341 -0.050555892 0.015681235 0.006817881 0.037247676 0.0015384646 -0.12073351
0.1267923 -0.05681807 -0.031528395 -0.08426544 0.011817632 -0.059869573 -0.10094261 -0.08226555
-0.051319625 0.114628285 0.055514093 -0.04810208 -0.03409691 0.06491112 0.09482748 0.0034374695
0.0044368953 -0.10450929 0.033744175 0.11170406 0.10100591 0.044359934 -0.011258877 0.07005354
-0.011745387 -0.07618679 -0.076783635 0.071270175 -0.0029011085 -0.078598954 0.03370999 -0.010240804
-0.05258505 -0.06984319 0.08995048 0.10044408 0.0024030511 0.025680406 0.031557437 0.047357053
-0.07015948 0.10243718 0.10262938 -0.036379904 0.083928004 -0.025012482 0.065040275 0.026205074
-0.05868505 -0.040542502 -0.0743398 -0.04903456 0.08473862 0.048600245 0.09710968 -0.10241634
0.044867113 0.084339224 0.08058393 0.07480092 -0.057264 -0.029874468 0.075987116 0.035620544
0.11591023 0.056174587 -0.037363622 -0.03788261 -0.057329703 0.047992058 -0.14452024 0.026816003
0.018050488 -0.05335088 -0.027392713 0.0558966 0.080850534 0.08981458 -0.048284937 0.06383698
-0.052469872 -0.097556755 -0.08125358 0.049434923 0.086626425 0.06352053 0.0942963 -0.050165236
0.09621414 0.009765023 0.0025883047 0.06171451 0.0551588 0.05230498 -0.022925967 -0.053106107
0.108415775 -0.020468507 0.11285512 -0.04998296 -0.059383374 -0.030953998 -0.019862002 -0.08784249
0.023094205 0.017845584 -0.00044337806 0.045262083 0.056060776 -0.00612996 -0.06219201 -0.09742978
-0.005887729 -0.051016375 -0.05611309 -0.050895598 -0.05290171 0.06871383 0.03988576 0.009369614
-0.054016355 -0.0614807 0.09689899 -0.06099117 -0.1282177 -0.091559984 0.02330845 0.1373599

action_model._continuous_distribution.mu.bias f4 [2]
00000000: c1a3 793c eea8 503d
0.015236796 0.050942354

exp_avg f4 [128, 90]
00000000: 3f49 6f39 76fb 7039 8ee3 6c39 2776 5b39
00000010: 9140 5739 6a8a 4339 e39f 1c39 21a7 0939
00000020: 4592 9837 833e 3e37 3337 ea36 5e68 e536
00000030: a8f7 d636 633b c636 2de6 9436 3abc 8c36
00000040: db8d 7b36 6a0e 7636 9e76 7836 133d 8a36
00000050: 3042 8936 652a 8836 16a6 8136 79cd 7636
00000060: 4a86 8336 6f90 8336 6264 8236 5502 8636
00000070: 6884 8736 098f 8e36 c346 8f36 d01d 9536
00000080: a39a 9136 be25 9436 78aa 9236 ff46 9836
00000090: 606b 9836 9c89 9a36 3cfb 9b36 4fa0 a436
000000a0: 3f54 ac36 8a1a ad36 5316 b236 f60c b336
000000b0: 0206 b336 22c6 b436 9f4d 6b39 95fb 7439
000000c0: d2a8 7539 c576 7f39 db8b 8339 4738 8839
000000d0: 9b58 9339 77b8 9f39 b9dd ad39 4b7d c539
000000e0: 5619 9939 eaeb a439 c8ad af39 2111 b139
000000f0: c024 b339 2750 b439 be3b 5b38 f756 0db9
00000100: dca7 96b9 704f f937 3e25 8438 45b0 78b9
00000110: 3a68 3f39 faef 7339 ef30 b839 5d9b 8739
00000120: 5476 aab7 1494 87b9 b7fc 6ab9 579e 2739
00000130: c80b 8037 ec27 62b9 11db 74ba 171f 9fba
00000140: 86b2 f1b9 2926 7f38 71ba 3438 4b3b ee37
00000150: e2e1 9837 d33b b736 3e9d 9936 5919 9f36
00000160: 84fa ad36 b9fb b236 0918 60b9 da23 7eb9
00000170: 4532 48b9 6863 04b9 b115 97b8 117f 2937
00000180: 4c6d 8835 1de3 3638 28eb 5e37 82ff 0a37
00000190: fa31 ab36 5bae a736 4c20 9d36 cae4 9036
000001a0: 83ab 5936 40bc 4d36 51de 3736 8ed9 3336
000001b0: 059c 3536 e815 4a36 1da7 4836 1a0e 4736
000001c0: 4f87 3d36 3c65 3436 4945 4036 2354 4036
000001d0: 879d 3e36 08e7 4336 831b 4636 a966 5036
000001e0: 5273 5136 d4fc 5936 52da 5436 2c92 5836
000001f0: be67 5636 ad9b 5e36 e9d0 5e36 9ae9 6136
00000200: f205 6436 1ca9 7036 cfeb 7b36 b60d 7d36
00000210: 602b 8236 9bdf 8236 8eda 8236 1622 8436
00000220: 43e3 1ab9 f8c3 eeb8 5058 01b9 60bd 10b9
00000230: 5b90 2eb9 1e5f 2fb9 df1f 55b9 7630 7ab9
00000240: 625f 7db9 da68 a0b9 3fcd c4b9 d185 fdb9
00000250: 7b3b 15ba 0fba 49ba 248e 47ba 255f a9b9
00000260: 0f73 3739 6ac4 77b8 e738 74b9 9855 3cba
00000270: 5091 03b9 beff 44b9 b351 4bb9 0a36 1bb8
00000280: 8f3f 18b7 1c89 5fb8 d3ef 2cb9 9fd3 27b9
00000290: 5571 b0b8 f22c eeb8 c4f6 3139 cd4e 8c39
000002a0: cced d7b8 3e67 ab39 10ac 3d39 0661 3a38
000002b0: b2ff 0338 7ff9 ad37 b481 5f37 ecf5 8536
000002c0: 1a9f 6036 bca3 6836 2464 7e36 88da 8236
000002d0: 594e 26b8 fcd0 85b6 7c48 91b7 5249 a5b7
000002e0: e2c7 d7b6 0906 1237 234e 11b8 53b7 41b8
000002f0: ba69 40b6 3a00 f0b5 95e3 93b5 63da 90b5
00000300: 2cbc 87b5 af55 7ab5 1009 3cb5 0aba 31b5
00000310: 30d6 1eb5 735d 1bb5 78e2 1cb5 f392 2eb5
00000320: 0a56 2db5 edf4 2bb5 f6b9 23b5 15d6 1bb5
00000330: 9918 26b5 2b25 26b5 7baa 24b5 533b 29b5
00000340: fd22 2bb5 8007 34b5 7eef 34b5 3e4f 3cb5
00000350: eedf 37b5 4d16 3bb5 4337 39b5 4b4d 40b5
00000360: 8d7b 40b5 2728 43b5 a0fa 44b5 7ae5 4fb5
00000370: f79f 59b5 579a 5ab5 7de5 60b5 fa1c 62b5
00000380: 0014 62b5 f849 64b5 f955 8fb8 317d aeb8
00000390: a1a3 bab8 1166 ccb8 3c9b c5b8 fd3b d9b8
000003a0: 21b2 c2b8 4ac6 8cb8 0b2a b8b8 3344 2138
000003b0: 8f56 ed37 caf5 3b39 7eb6 a139 6009 1d3a
000003c0: c290 323a fc8a ce39 eadb acb7 6fd1 3e39
000003d0: 5bde 7639 3d3a 2e3a e3c5 f2b9 1624 2fba
000003e0: 1005 5738 c1c6 1739 24df c239 d490 ed39
000003f0: 5e96 5739 c2c8 86b7 15b4 f6b8 5ff9 6eb8
0.00022820102 0.0002298186 0.00022591485 0.00020929483 0.0002052805 0.00018648212 0.00014936882 0.00013127599
1.8187924e-05 1.1339437e-05 6.9801695e-06 6.8368818e-06 6.406528e-06 5.9077734e-06 4.4375397e-06 4.1942376e-06
3.7484485e-06 3.6665247e-06 3.7023924e-06 4.1198305e-06 4.0906234e-06 4.058051e-06 3.8638345e-06 3.6776457e-06
3.9197375e-06 3.9209185e-06 3.885988e-06 3.9937827e-06 4.0387276e-06 4.2485813e-06 4.26997e-06 4.4440167e-06
4.339339e-06 4.4151375e-06 4.3709842e-06 4.538218e-06 4.542453e-06 4.6055775e-06 4.6486075e-06 4.9062432e-06
5.135807e-06 5.1588913e-06 5.3074123e-06 5.3361246e-06 5.335315e-06 5.3874837e-06 0.00022440263 0.00023363375
0.00023427911 0.0002436294 0.00025090468 0.0002598187 0.0002810404 0.0003046428 0.00033162328 0.0003766812
0.0002920131 0.00031456287 0.00033508078 0.00033772833 0.0003416892 0.00034391994 5.2269308e-05 -0.00013479205
-0.00028735294 2.9720104e-05 6.3011874e-05 -0.00023716789 0.00018254007 0.00023263684 0.00035131673 0.0002586496
-2.032068e-05 -0.00025859533 -0.00022410123 0.00015985347 1.5264275e-05 -0.00021567912 -0.0009340505 -0.0012140003
-0.00046100112 6.0832277e-05 4.308898e-05 2.8399421e-05 1.8224997e-05 5.4607895e-06 4.5780607e-06 4.74152e-06
5.1849656e-06 5.3341178e-06 -0.00021371258 -0.00024236683 -0.00019092213 -0.00012625533 -7.2042814e-05 1.010277e-05
1.0164599e-06 4.3603697e-05 1.3286983e-05 8.284931e-06 5.102015e-06 4.9972855e-06 4.6827245e-06 4.318169e-06
3.2435353e-06 3.0656956e-06 2.739853e-06 2.6799712e-06 2.7061917e-06 3.0113097e-06 2.9899595e-06 2.966152e-06
2.8241955e-06 2.6881016e-06 2.8650559e-06 2.8659204e-06 2.84039e-06 2.9191742e-06 2.9520313e-06 3.1054171e-06
3.1210552e-06 3.2482685e-06 3.171754e-06 3.2271591e-06 3.194887e-06 3.3171193e-06 3.320218e-06 3.3663587e-06
3.3978108e-06 3.5861221e-06 3.7539173e-06 3.7707919e-06 3.8793514e-06 3.900333e-06 3.899745e-06 3.9378747e-06
-0.00014771246 -0.000113852264 -0.00012335298 -0.00013803458 -0.0001664771 -0.00016724734 -0.00020325136 -0.00023859911
-0.00024163493 -0.000305957 -0.00037536953 -0.0004835562 -0.0005692762 -0.00076952664 -0.0007612428 -0.0003230508
0.00017495103 -5.9072314e-05 -0.00023290851 -0.00071843853 -0.00012547267 -0.00018787288 -0.00019390024 -3.7005208e-05
-9.074704e-06 -5.3295036e-05 -0.0001649254 -0.00016005196 -8.413444e-05 -0.00011357096 0.00016971963 0.00026761592
-0.00010296292 0.00032692583 0.00018088543 4.4436216e-05 3.147097e-05 2.0739388e-05 1.3322035e-05 3.992338e-06
3.347121e-06 3.4666e-06 3.790724e-06 3.8997423e-06 -3.965045e-05 -3.988038e-06 -1.73191e-05 -1.9703675e-05
-6.4307687e-06 8.703683e-06 -3.4643464e-05 -4.618552e-05 -2.867177e-06 -1.7881459e-06 -1.1018589e-06 -1.0792395e-06
-1.0113049e-06 -9.3256944e-07 -7.0048645e-07 -6.620836e-07 -5.917127e-07 -5.7877986e-07 -5.8444084e-07 -6.503389e-07
-6.4572725e-07 -6.405888e-07 -6.099284e-07 -5.805353e-07 -6.1875613e-07 -6.1893905e-07 -6.134284e-07 -6.3043734e-07
-6.375338e-07 -6.706614e-07 -6.740373e-07 -7.015077e-07 -6.8498673e-07 -6.969538e-07 -6.8998287e-07 -7.163805e-07
-7.1705364e-07 -7.270159e-07 -7.33804e-07 -7.744744e-07 -8.107158e-07 -8.143592e-07 -8.378045e-07 -8.423373e-07
-8.4220665e-07 -8.504426e-07 -6.834785e-05 -8.320285e-05 -8.8996494e-05 -9.7464894e-05 -9.422607e-05 -0.0001035854
-9.28382e-05 -6.7126544e-05 -8.781635e-05 3.8448907e-05 2.8292909e-05 0.00017925273 0.0003084428 0.00059904717
0.0006811732 0.00039394933 -2.0606403e-05 0.00018197832 0.00023543222 0.00066462514 -0.00046305274 -0.00066810974
5.126471e-05 0.00014474524 0.00037168816 0.00045312068 0.00020560014 -1.606753e-05 -0.00011763737 -5.6975867e-05

exp_avg_sq f4 [128, 90]
00000000: 32c8 5f35 86c9 5135 0759 4535 a0c7 3835
00000010: 6fa1 2a35 3c61 0f35 ed77 e234 158e a834
00000020: 90d9 9e32 bf49 6732 c9c9 b930 e1ab 8030
00000030: c95b 7430 fc2b 5630 9998 0930 e54b fe2f
00000040: 3081 d92f dafd d22f de0e d52f 1771 f52f
00000050: dbd6 f22f 87d0 8330 8e14 8030 b064 7930
00000060: 012a 8130 892f 8130 8b73 1e31 c90b e731
00000070: 6bd9 6c32 231b 7c32 e3db 6232 e6a1 2d32
00000080: a176 ff31 4ca6 6631 7f11 3731 d744 5531
00000090: b394 6931 a61e 7031 ac48 6631 0022 8131
000000a0: 3861 8631 0da7 8a31 7818 e431 86cd e531
000000b0: bdbc e331 875d ab32 32d5 6c35 1e01 7935
000000c0: df8e 8235 19bd 8835 1eea 8e35 6c62 9435
000000d0: b0d9 9b35 6a6a a535 9201 b735 dedf cf35
000000e0: fbd8 ec35 417f 0436 420d 1236 c317 0536
000000f0: aca9 f835 df4f eb35 9a49 dc35 5545 f135
00000100: de14 e035 d80d cf35 b7c9 bf35 5a59 c135
00000110: 916f e135 ade3 f335 4142 1336 2997 1d36
00000120: 9a3d 0636 a3b2 0436 8c87 0b36 5a5f 0c36
00000130: 2caa 0b36 b011 1b36 7a28 2f36 7ca4 4936
00000140: c5ed 3436 b08c eb35 9b55 6a35 9d77 a134
00000150: 4759 4c34 f54c 7b33 91e9 f332 f15b f632
00000160: e673 0733 e5aa 0733 56c0 1536 a2e5 0d36
00000170: 91b4 0736 12da fd35 d65e e835 d746 bd35
00000180: 1fa6 9335 31f4 5535 d463 3533 5b6a fa32
00000190: 3f52 1531 6a85 0531 e232 eb30 cea7 c830
000001a0: 10ab 6230 edc1 4a30 4454 2230 0771 1b30
000001b0: f5f5 1d30 d039 4330 d336 4030 4072 3e30
000001c0: f5f1 2c30 def5 1c30 e312 3230 2c2d 3230
000001d0: b183 3230 bcc8 6030 42bd af30 2fbe a431
000001e0: d136 9f31 36cc 8531 2e55 6b31 d257 5d31
000001f0: ddb8 5931 effa 5e31 0e8a 6c31 89e8 3d31
00000200: f176 8530 9649 9d30 698c b230 b37e bc30
00000210: 5f12 d430 d7c8 d530 5120 d630 3f70 1533
00000220: 4026 1c36 9761 2236 bbfc 2736 0fc4 2d36
00000230: 9bdc 3436 50f9 3b36 c96e 4036 5d69 4736
00000240: 3650 5536 e2f6 6236 707b 7636 c5af 8736
00000250: 56be 9536 2b6d 9636 6c17 9836 4f33 a336
00000260: 92b7 a236 e0f9 b836 69c5 ac36 fa82 aa36
00000270: 1bca 7e36 e11e 5a36 c20d 3236 82b3 2e36
00000280: f75f 5836 fbea 8536 9506 8336 cc19 7d36
00000290: a5e7 8236 c0d2 8336 72da 7836 ba6f 6b36
000002a0: ae5d 2036 713f ab35 2997 4335 e149 d234
000002b0: 6d98 9334 7b2b 5b34 d640 1734 2ecf a033
000002c0: 0323 4833 0412 4933 3aa4 4a33 58f2 4a33
000002d0: df91 5736 8ea6 4a36 30a3 3e36 2c64 3236
000002e0: 3fed 2436 6389 0836 fe8d d535 af21 9f35
000002f0: 1bc2 1133 6ef6 9032 ea52 b831 6c49 9031
00000300: c3f2 8831 69b8 7331 90ba 2831 137a 1d31
00000310: c3fd e130 bfab db30 3bb1 dd30 0728 fd30
00000320: 02a9 f830 b2aa a131 8a90 9d31 1dfe 9931
00000330: 02b0 9e31 f8b5 9e31 2a59 a331 fa98 fd32
00000340: 0a43 9933 486b da33 5e8c d133 6e24 ba33
00000350: 7925 8a33 e9d5 0a33 a803 f032 9ac5 f632
00000360: e63b 0133 374c 8f32 9f90 e231 4e18 f231
00000370: 8e54 0432 1ed5 0d32 a845 1932 94b7 1932
00000380: 3508 1532 dc10 5633 6f83 6336 9806 6f36
00000390: f5ef 7936 d082 8236 d937 8836 80ab 8e36
000003a0: 22dc 9536 e96b 9f36 bdf9 b036 b7e0 c336
000003b0: 176d dc36 2655 f136 ad13 fe36 fe09 ee36
000003c0: a26e dd36 a095 d336 2a00 be36 4b56 cf36
000003d0: c7c4 f736 588c 2037 08d4 1937 c7bf 0d37
000003e0: bbb8 f536 89ad c836 1a63 cc36 2600 e836
000003f0: 42d0 ca36 f41e c636 8798 c736 1ddc cc36
8.3365296e-07 7.815182e-07 7.351777e-07 6.8835834e-07 6.356485e-07 5.3413146e-07 4.2183038e-07 3.1395817e-07
1.8492557e-08 1.3462738e-08 1.3517872e-09 9.362077e-10 8.889712e-10 7.791525e-10 5.0057164e-10 4.6256257e-10
3.9563863e-10 3.837915e-10 3.8755038e-10 4.4645596e-10 4.4172208e-10 9.590772e-10 9.319068e-10 9.072876e-10
9.397924e-10 9.399496e-10 2.3057705e-09 6.7243247e-09 1.3786443e-08 1.4674501e-08 1.3204928e-08 1.0106737e-08
7.4349633e-09 3.3563934e-09 2.663995e-09 3.103471e-09 3.3990488e-09 3.4942018e-09 3.3510714e-09 3.7582595e-09
3.9109658e-09 4.03532e-09 6.638455e-09 6.6881425e-09 6.6280266e-09 1.9949551e-08 8.822709e-07 9.2761354e-07
9.727336e-07 1.0187824e-06 1.0647962e-06 1.1055504e-06 1.1611755e-06 1.2324429e-06 1.363502e-06 1.5487856e-06
1.764652e-06 1.9743604e-06 2.1763412e-06 1.9832376e-06 1.8526821e-06 1.753211e-06 1.6412698e-06 1.7976078e-06
1.6695374e-06 1.5426731e-06 1.4289316e-06 1.4405625e-06 1.6796276e-06 1.8171173e-06 2.1943272e-06 2.348281e-06
2.0003413e-06 1.9773513e-06 2.0791513e-06 2.0917128e-06 2.0811667e-06 2.3107095e-06 2.6100593e-06 3.0047077e-06
2.696049e-06 1.754981e-06 8.7296365e-07 3.0075617e-07 1.903146e-07 5.8510484e-08 2.8395137e-08 2.867998e-08
3.1537546e-08 3.1587565e-08 2.2314684e-06 2.1144301e-06 2.022167e-06 1.8913436e-06 1.7312948e-06 1.4102214e-06
1.1000701e-06 7.970403e-07 4.223314e-08 2.9152195e-08 2.1729105e-09 1.9429884e-09 1.7112962e-09 1.4599608e-09
8.2461415e-10 7.3762757e-10 5.9055005e-10 5.6549293e-10 5.7465793e-10 7.1022743e-10 6.9927103e-10 6.9283956e-10
6.2917077e-10 5.710187e-10 6.478286e-10 6.4820216e-10 6.494317e-10 8.1775986e-10 1.2786716e-09 4.7946496e-09
4.633741e-09 3.8940255e-09 3.424542e-09 3.2209653e-09 3.1682739e-09 3.244789e-09 3.4420995e-09 2.76353e-09
9.710829e-10 1.1444168e-09 1.2991112e-09 1.371481e-09 1.5430252e-09 1.5554872e-09 1.5579734e-09 3.4793853e-08
2.3268076e-06 2.4196686e-06 2.5032048e-06 2.589313e-06 2.69505e-06 2.801029e-06 2.8674715e-06 2.971464e-06
3.1786162e-06 3.382033e-06 3.6728707e-06 4.043776e-06 4.462704e-06 4.483057e-06 4.5326797e-06 4.8637517e-06
4.8493466e-06 5.5127166e-06 5.148981e-06 5.0816425e-06 3.796659e-06 3.2502505e-06 2.6532075e-06 2.6032508e-06
3.2242367e-06 3.991064e-06 3.9048705e-06 3.7714954e-06 3.901269e-06 3.9286388e-06 3.7082032e-06 3.5082762e-06
2.3896387e-06 1.2758957e-06 7.286313e-07 3.9169302e-07 2.7491788e-07 2.0411782e-07 1.4086558e-07 7.4882664e-08
4.659797e-08 4.6815344e-08 4.7181153e-08 4.72522e-08 3.2122405e-06 3.0197293e-06 2.8407194e-06 2.6582375e-06
2.4576e-06 2.0345549e-06 1.5911062e-06 1.1856226e-06 3.393698e-08 1.687587e-08 5.364531e-09 4.1992987e-09
3.9857198e-09 3.546598e-09 2.4553266e-09 2.2915898e-09 1.6443028e-09 1.598316e-09 1.6130238e-09 1.8419549e-09
1.809241e-09 4.7051225e-09 4.5857336e-09 4.4817754e-09 4.618415e-09 4.6190927e-09 4.754061e-09 2.9522642e-08
7.136812e-08 1.01709304e-07 9.7578535e-08 8.6679265e-08 6.432942e-08 3.232518e-08 2.794134e-08 2.8728028e-08
3.008963e-08 1.668205e-08 6.593907e-09 7.04589e-09 7.702637e-09 8.255737e-09 8.92161e-09 8.947513e-09
8.6748075e-09 4.984109e-08 3.390214e-06 3.5617613e-06 3.7243565e-06 3.8895305e-06 4.0596174e-06 4.251895e-06
4.466173e-06 4.7511317e-06 5.274282e-06 5.837613e-06 6.5692107e-06 7.1922723e-06 7.5720804e-06 7.094116e-06
6.5991926e-06 6.3057087e-06 5.6624604e-06 6.1791266e-06 7.3840815e-06 9.5694195e-06 9.168878e-06 8.448907e-06
7.3230744e-06 5.9806666e-06 6.0912107e-06 6.914156e-06 6.0443135e-06 5.9044633e-06 5.9484187e-06 6.1052983e-06
