results/90RC1/Park90RC/Park90RC-4999778.onnx (onnx, 119662 bytes, 9 tensors)

network_body.observation_encoder.processors.0.normalizer.running_mean f4 [90]
000000 89 c5 30 3f 16 99 35 3f 06 2a 3a 3f 17 6d 3f 3f
       0.69051415 0.70936716 0.7272037 0.7477583
000010 e3 37 45 3f 9e a8 4d 3f 9b d9 68 3f 77 a8 77 3f
       0.770384 0.80335414 0.9095704 0.9674143
000020 c8 d7 7f 3f 60 e8 7f 3f e9 f2 7f 3f 0d f8 7f 3f
       0.9993863 0.9996395 0.99980026 0.9998787
000030 05 fa 7f 3f 2c fb 7f 3f 98 fc 7f 3f d6 fc 7f 3f
       0.99990875 0.9999263 0.999948 0.9999517
000040 53 fd 7f 3f 6e fd 7f 3f 81 fd 7f 3f 44 fd 7f 3f
       0.9999592 0.9999608 0.9999619 0.9999583
000050 5a fd 7f 3f 57 fd 7f 3f 8a fd 7f 3f bf fd 7f 3f
       0.9999596 0.9999594 0.99996245 0.9999656
000060 93 fd 7f 3f 97 fd 7f 3f 97 fd 7f 3f 87 fd 7f 3f
       0.999963 0.9999632 0.9999632 0.9999623
000070 69 fd 7f 3f 36 fd 7f 3f 0f fd 7f 3f e0 fc 7f 3f
       0.9999605 0.99995744 0.9999551 0.9999523
000080 d4 fc 7f 3f 9d fc 7f 3f db fb 7f 3f a6 f9 7f 3f
       0.9999516 0.9999483 0.99993676 0.9999031
000090 c3 f6 7f 3f dc f3 7f 3f ec f1 7f 3f 11 f1 7f 3f
       0.99985904 0.99981475 0.9997852 0.99977213
0000a0 11 f1 7f 3f 1b f2 7f 3f 38 f4 7f 3f fa f6 7f 3f
       0.99977213 0.999788 0.99982023 0.9998623
0000b0 74 fa 7f 3f 08 fc 7f 3f 3b 3b 2c 3f b4 63 28 3f
       0.99991536 0.99993944 0.6727788 0.65777135
0000c0 3b 17 25 3f dc 47 22 3f 44 c0 1f 3f 73 72 1d 3f
       0.6448857 0.633909 0.6240275 0.6150276
0000d0 06 3b 1b 3f 7a d9 18 3f 6a e3 15 3f 32 55 12 3f
       0.6063694 0.5970684 0.5855013 0.5716125
0000e0 38 a0 0e 3f d9 a4 0b 3f 91 ed 0a 3f 0e 1f 0d 3f
       0.55713224 0.5454841 0.5426875 0.5512551
0000f0 b1 05 10 3f 11 9e 12 3f 38 c9 14 3f 23 a9 13 3f
       0.56258684 0.5727244 0.58119535 0.5767996
000100 11 0f 14 3f 73 41 18 3f 7c 5f 1d 3f 35 72 22 3f
       0.5783549 0.5947487 0.6147382 0.63455516
000110 64 e3 27 3f 3f 91 2d 3f e5 fe 31 3f 26 de 35 3f
       0.65581346 0.6779975 0.69529563 0.71042097
000120 6e 14 3e 3f 79 52 4a 3f 00 c6 58 3f 05 8a 67 3f
       0.74249923 0.79032093 0.84677124 0.90444976
000130 8a 37 71 3f eb bb 75 3f 2e 9f 79 3f 5b d0 7c 3f
       0.9422537 0.95989865 0.97508514 0.98755425
000140 f5 aa 7e 3f 5a 6a 7f 3f 3c bc 7f 3f 5b e3 7f 3f
       0.9947961 0.99771655 0.998966 0.9995629
000150 ae f3 7f 3f 70 fd 7f 3f a4 fd 7f 3f 69 fd 7f 3f
       0.999812 0.9999609 0.999964 0.9999605
000160 d2 fc 7f 3f 88 fc 7f 3f
       0.9999515 0.9999471

network_body._body_endoder.seq_layers.0.weight f4 [128, 90]
000000 57 0f c3 bd 55 9b 3b be fe 3a 69 be 49 8e 0d 3e
       -0.0952441 -0.18320973 -0.2277641 0.13823809
000010 21 10 1a 3d 49 db 05 be ed 03 43 be 61 a0 ca bd
       0.037613038 -0.13071932 -0.19044466 -0.09893871
000020 0a 5d f2 3d e0 d7 b3 bc 28 77 06 3e 0e dd 6f 3d
       0.11834152 -0.021953523 0.13131392 0.058560424
000030 1f 47 a0 bd f6 56 8b bd 0e f1 58 3d 1d 32 18 be
       -0.07826065 -0.06803696 0.052964263 -0.14862867
000040 a0 6a d9 bd 9d 3b 8d be 12 b4 14 3e 37 50 b2 bc
       -0.1061604 -0.27584544 0.14521816 -0.021766765
000050 2d 34 1b 3e 31 ae 69 3c a0 bb e9 bc 68 ff 63 3e
       0.15156622 0.014262722 -0.02853185 0.22265399
000060 07 85 c6 bd 34 c8 55 be e9 67 34 be e1 56 0b be
       -0.09693342 -0.20877153 -0.17617764 -0.1360736
000070 74 6a 93 3d f1 9d ad bd 3f 1c 78 bc 20 d8 5e 3c
       0.07198039 -0.084773906 -0.015143453 0.013601333
000080 bd 9a 39 3e 7c 67 2d bd 9a 7c 55 3e 6a c6 9e 3b
       0.18125434 -0.04233502 0.20848313 0.00484543
000090 dd 81 62 3e 1b 19 2e 3e 1a 40 25 3e 6f 5e 6e be
       0.22119851 0.17001764 0.16137734 -0.23278211
0000a0 c6 81 ed bd 4a da ea bd be b2 95 bd 69 80 1e be
       -0.11597018 -0.114674166 -0.07309483 -0.15478672
0000b0 e3 9e c5 bd 76 ed 30 be 5a 93 b4 b9 f5 2b 5e 3e
       -0.09649446 -0.17278084 -0.0003444206 0.21696456
0000c0 85 46 cb bd 28 4e 84 bc 98 bd a1 bd e8 6a d2 3c
       -0.0992556 -0.016150549 -0.0789749 0.025685742
0000d0 29 6b 21 3e a6 cb 37 3e 7f c1 b6 bd 6f b0 04 3e
       0.15763535 0.1794878 -0.08923625 0.12957929
0000e0 99 6c c7 3d 8d 0d a5 bc 46 40 79 3e 88 0d 9e 3d
       0.0973751 -0.020148063 0.24340925 0.07717425
0000f0 b4 7d c9 bd d0 e0 4e bc a9 61 04 3c 11 98 5e 3e
       -0.09838429 -0.012626842 0.008079925 0.21737696
000100 61 13 4b 3e 6a 6e b7 3d 6c 9f 11 3e 2c 69 dd 3d
       0.19831611 0.08956607 0.14220971 0.108110756
000110 0b 72 0d 3e b1 89 f6 3b 0b 4a c0 3d 7f e1 8f bc
       0.13813035 0.0075237383 0.093891226 -0.01756358
000120 4e b2 58 be 11 4b f3 3c d3 26 64 bd 44 fe de bd
       -0.21161768 0.02969888 -0.05570109 -0.10888341
000130 a9 2b dc ba c1 bf 23 3c e5 ef 30 3d c8 be e3 bd
       -0.001679768 0.009994448 0.04319753 -0.11120373
000140 60 ad 5c 3e d0 5e 09 3d 87 76 0e bd 3a 9c 04 3e
       0.21550512 0.033537686 -0.034781005 0.1295022
000150 fb 45 27 be 10 e5 bf bd a3 c5 cf bc 11 96 ba bc
       -0.16335289 -0.09369862 -0.025362795 -0.022776635
000160 81 cb 3d be c9 2b 21 3e ef c8 97 bc 5f 16 a0 bd
       -0.18534662 0.15739359 -0.01852843 -0.07816767
000170 78 b1 96 bc 8f 3c 27 3e 8c db 25 bb fe 62 27 bd
       -0.01839517 0.16331695 -0.0025307862 -0.04086589
000180 5a 51 99 3d e9 41 1f 3c 77 5a 46 be 5c 9b ed 3c
       0.0748622 0.009720304 -0.19370447 0.029004745
000190 69 f2 7e 3e b7 36 be 3d 6a 47 19 3e 9c 36 4d 3e
       0.2489716 0.0928778 0.14968649 0.20040363
0001a0 24 d1 66 bd d0 04 24 be ac ef e3 bd 13 d5 d4 3c
       -0.056351796 -0.16017461 -0.11129698 0.025980508
0001b0 b7 03 bd 3b 37 71 35 be 52 84 18 3e fe 92 5b 3d
       0.005768265 -0.1771897 0.14894226 0.05360698
0001c0 25 ef 8c 3d 30 f4 90 3d 1f e0 43 3d dd 36 a3 bc
       0.06881551 0.07077825 0.04782116 -0.019923622
0001d0 ac 30 41 bc 41 5e 8a 3d 0d be 94 3e ba 84 79 3c
       -0.011791389 0.06756259 0.29051247 0.015229398
0001e0 0c 2f ef 3d 5f a6 cf 3d e8 85 d9 bc 43 b5 c4 3c
       0.11678895 0.10139155 -0.02655311 0.024012214
0001f0 ec 7e 89 3d 6a 34 83 3d 8e 04 f2 3d 65 1a 17 bd
       0.067136616 0.064064816 0.11817275 -0.036890406
000200 4b de 2b 3d cc b6 51 3e a1 8a c9 3c d3 19 0e be
       0.041960042 0.20479888 0.024602236 -0.13877039
000210 b8 94 0b bd 8d 3b 14 3e a3 18 35 be 15 6b 44 3e
       -0.034077376 0.14475842 -0.1768518 0.19181474
000220 c2 e0 b0 bc 87 83 80 bd 09 ac 72 3d 56 27 94 3d
       -0.021591548 -0.06275087 0.059246097 0.07234065
000230 92 8b 44 3d 8a 34 9f bd 2b e1 9c bd 5e b9 42 3e
       0.047984667 -0.07773693 -0.07660135 0.19016024
000240 40 47 50 3e 4a b3 41 be b9 08 d7 bd 64 50 b7 3d
       0.2033968 -0.1891605 -0.104997106 0.0895088
000250 c9 19 9c 3c 1b af 08 bd b4 c4 05 3d 36 5c 1c 3e
       0.019055264 -0.03337012 0.032658294 0.1526955
000260 97 2a a2 3d e5 b7 6e 3e 6d 3b 1b 3e 13 7f 20 3e
       0.079182796 0.23312338 0.15159388 0.15673475
000270 c1 5c c4 bd 85 2e 6c 3d 82 a3 58 be 65 dc 0a bd
       -0.09588004 0.057661552 -0.21156123 -0.03390159
000280 ff d9 a8 3c 32 da 9c bd fd 95 16 bd 46 6f 92 3e
       0.020611761 -0.07658805 -0.036764134 0.2860052
000290 c5 d0 bc bc e1 a7 38 3e 21 58 bc 3d 22 d4 90 3d
       -0.023048768 0.1803279 0.09196497 0.07071711
0002a0 f5 8e b9 3e a0 7b 04 3e 3e a5 36 bd c8 08 2b 3e
       0.3624188 0.12937784 -0.04459118 0.16702569
0002b0 cd 36 ea 3d 33 32 d6 bc e6 13 6d bd a2 7f 4b bd
       0.11436234 -0.026146984 -0.057880305 -0.049682267
0002c0 f8 cf 4a bd 20 cb 0a be b7 20 f0 3c 60 91 92 3c
       -0.04951474 -0.13554049 0.029312475 0.017891586
0002d0 78 75 17 be 23 3d 81 3e b0 25 14 3e 62 29 3a 3c
       -0.14790905 0.25241956 0.14467502 0.0113624055
0002e0 bc 4e 9f bd df 50 78 3d 42 4a 41 be a5 92 e3 bc
       -0.07778689 0.060624 -0.18875983 -0.027779886
0002f0 4a ed 88 bb de 1f db bc 6d 38 2a be c3 a0 28 be
       -0.0041786777 -0.026748594 -0.16623087 -0.16467576
000300 f1 9b bb 3c cc 9b 2f 3d 70 b5 0b 3e 4c 3e 53 bb
       0.022901507 0.04287319 0.13643432 -0.0032233177
000310 ed e5 d8 3b da 79 57 3b 29 a4 22 be 9c 8c 98 3c
       0.006619206 0.0032879026 -0.15882935 0.018621735
000320 83 11 d8 3c b0 a4 d5 bd 8d 21 1c bd 69 67 4f be
       0.026375538 -0.10431802 -0.038117934 -0.20254292
000330 78 17 26 be 20 b0 28 be d5 9e 85 b9 83 6b 4a bc
       -0.1621989 -0.16473436 -0.00025486076 -0.012354734
000340 bd 95 66 3d a1 60 e1 bb 74 2a 12 3e af e9 88 be
       0.056295145 -0.006877974 0.14274007 -0.26740786
000350 47 de 22 3e 3b c4 0c be 68 e6 ed bd 64 9a d1 bc
       0.15905105 -0.13746731 -0.11616212 -0.025586314
000360 1c 47 36 3e 02 ce fe 3d 41 5b 61 3e d7 44 d9 bd
       0.17800564 0.124416366 0.22007467 -0.10608833
000370 19 01 a1 3c 1c 7d 14 be 11 e2 64 3d 5f 1a 82 bd
       0.019653844 -0.1450085 0.055879656 -0.06352686
000380 6b 7b 7d bd ee fb af bd 75 87 4c be 00 a4 33 be
       -0.06188528 -0.08592974 -0.19973548 -0.1754303
000390 ad c9 98 bd 4f bf c4 bd 35 ce da bc 36 e4 a9 3c
       -0.074603416 -0.09606802 -0.026709655 0.020738702
0003a0 33 07 5d 3d c8 33 58 3e e8 00 f8 3d 89 44 65 bc
       0.053961944 0.21113503 0.12109548 -0.013993391
0003b0 c1 6a db 3e 58 f7 1c 3e e9 4f 6c bc 74 fb 80 bd
       0.42854884 0.15328729 -0.014423349 -0.06297961
0003c0 26 c5 30 3d b3 bd 27 3e a2 63 a9 bc 93 44 c9 bd
       0.043156765 0.16380958 -0.020677391 -0.098275326
0003d0 9f 6e 45 3e 29 a3 86 bd c3 70 99 3e 5e eb 0d 3b
       0.1928048 -0.06574089 0.29968843 0.0021655182
0003e0 05 e8 b0 3e c8 bd d9 3d 8c 31 0d be 42 01 82 3d
       0.34552017 0.10631901 -0.13788432 0.06347896
0003f0 bb e5 12 3d 0b 6e 0a 3e 75 36 88 bd 23 5e 83 3c
       0.03586362 0.1351854 -0.06651012 0.016036099

network_body._body_endoder.seq_layers.0.bias f4 [128]
000000 33 f8 ca bd 80 93 46 3d 02 1a 50 bc 33 4e 27 3d
       -0.099106215 0.04848051 -0.012701513 0.04084606
000010 97 f6 be 3d 8e 8c 6c bd 49 dc 3b 3d 2b dd 93 3d
       0.09324377 -0.05775123 0.045864377 0.07219919
000020 03 8d 32 bd 26 33 95 3d 36 a5 49 3c b2 6b 07 3e
       -0.04359151 0.072851464 0.012307456 0.13224676
000030 8e 25 44 3d e8 79 1d 3c 65 07 81 3d 39 e1 9c 3c
       0.047887377 0.009611584 0.063002385 0.019150363
000040 e0 a0 6c bd 6f b5 bd bc 6d 14 b4 bd 56 e4 bc bb
       -0.05777061 -0.023157803 -0.087929584 -0.0057645245
000050 05 b9 54 bd e2 b2 a4 3d 5e 96 43 3d 93 45 c0 3c
       -0.05193426 0.08041932 0.047750823 0.023470676
000060 02 76 89 3d 14 22 88 3d 16 30 ca 3d 8b 24 e0 3d
       0.06711961 0.06647125 0.09872453 0.1094447
000070 c9 89 c5 3d 89 cc 74 3d eb e6 43 bd 77 00 3f bd
       0.09645421 0.059765372 -0.047827642 -0.046631303
000080 e8 e9 f5 ba ed 8e 10 bd 88 3c 3e bc 86 33 a9 3d
       -0.0018761726 -0.035292555 -0.011611111 0.082617804
000090 cc 3c 8c bd 7f 8f 14 bc a4 c4 d1 bd 64 e9 85 bd
       -0.068475336 -0.009067415 -0.10242584 -0.06538656
0000a0 a7 ff d3 bc 5c d2 32 3d e5 da 79 bc 35 cc 71 3b
       -0.02587874 0.043657646 -0.015249942 0.0036895399
0000b0 34 65 af 3d f5 98 78 bd 69 69 6f bd 72 f1 03 bd
       0.08564225 -0.060692746 -0.058450136 -0.032212682
0000c0 c3 0f 28 3c a4 8e 42 3d 44 f3 e9 bd b1 89 d4 bc
       0.010257664 0.047499314 -0.11423352 -0.025944563
0000d0 c4 61 3b bc 55 53 7e 3d fd 6c fc bc 42 99 df 3b
       -0.011436883 0.06209119 -0.030813688 0.0068236897
0000e0 c0 e0 25 3d fa 12 49 3d 16 f2 c2 bc 5b fa 18 3c
       0.04049754 0.049090363 -0.023797076 0.009337033
0000f0 17 76 3e bd 86 27 88 bd 9b 7c 40 3d 44 10 56 3d
       -0.046499338 -0.066481635 0.046993833 0.052261606
000100 c7 39 da 3d 62 65 42 3d 8d ff ba bd 49 25 90 bc
       0.106555514 0.047459967 -0.09130774 -0.017595904
000110 87 89 4b 3c 66 2d ad bd a2 b2 ad 3c 33 5d a3 3d
       0.012422926 -0.08455925 0.021203343 0.07976761
000120 54 b4 1e be ca ed 5b 3c d3 71 b5 bd 92 64 d7 3c
       -0.15498477 0.013423393 -0.08859601 0.026293073
000130 4b a8 20 bc 66 4a ff 3d 60 69 00 3e fb 1b ec 3c
       -0.009805749 0.12465362 0.12540197 0.028821936
000140 ca 94 ab bc 71 c8 85 bd 33 1c e6 3a 69 72 2c bd
       -0.020944972 -0.06532372 0.0017556011 -0.042101298
000150 f7 1e 4d bc b3 2f 28 bd a7 4b a7 3d 06 bd a0 3d
       -0.01251959 -0.041061115 0.081687264 0.07848553
000160 25 ef 4b 3d 14 8a 78 bd 9f 97 51 bd 8c 26 73 3d
       0.049788613 -0.060678557 -0.051169988 0.059362933
000170 da cf 3b 3d 0f 61 c2 bd bf 8e a3 3d dc e9 fe 3c
       0.04585252 -0.09491169 0.07986211 0.031117372
000180 83 2b 98 3d 6b 27 11 bc 8c 2a 97 3d bb 9d 22 bd
       0.07430174 -0.008859496 0.07381162 -0.039701205
000190 67 48 83 bc cb 23 80 bc 0a 18 d9 3d fe b5 10 3c
       -0.016025735 -0.015642067 0.10600288 0.008832453
0001a0 c5 a6 94 bd dd 60 54 bd 0e 15 9b 3d 4c 7e c5 3d
       -0.07258371 -0.05185019 0.07572375 0.0964323
0001b0 c2 1a d2 3c eb 8b e0 3c 6d d6 d4 bb ef ae 71 3d
       0.025647525 0.027410468 -0.006495288 0.05900472
0001c0 46 cc 89 bd e9 e5 2e 3d 4c 7d 7c bd 74 2f 96 3c
       -0.06728415 0.04269973 -0.06164293 0.018333174
0001d0 a3 6a 01 be d0 82 7d bc 85 c5 e9 bd fa 0a 9a 3d
       -0.12638335 -0.015473083 -0.11414627 0.07521625
0001e0 cd 9a de bc 45 0d 0d 3d 3a 08 34 3d c4 97 bb ba
       -0.027173424 0.034436483 0.043953158 -0.0014312197
0001f0 a3 6c f7 3d f6 ef 2c bd 36 95 03 bd 9e c5 6d 3c
       0.12081268 -0.042221032 -0.03212472 0.014512448

network_body._body_endoder.seq_layers.2.weight f4 [128, 128]
000000 78 07 1b bd 0b f5 c3 3d 41 b2 6b 3d 35 71 00 3e
       -0.03784892 0.095682226 0.057543043 0.12543185
000010 7e ae 09 be 88 0e 2a be 6d 68 2f 3e 40 84 1c 3e
       -0.1344547 -0.16607106 0.17129679 0.15284824
000020 be 41 11 3d 57 d3 77 3d 54 59 e6 3c 2c 97 6d 3d
       0.035463087 0.060504284 0.028118767 0.058005497
000030 57 20 90 3d 77 ef 05 3e fe 86 07 3e ac 44 18 3d
       0.07037418 0.1307963 0.13235089 0.037174866
000040 34 e5 0c be ae 45 82 bd ee 81 11 bd 69 71 1a 3e
       -0.13759309 -0.063609466 -0.0355243 0.15082325
000050 bc 49 47 bd df c7 36 3e 37 ff a4 bc 7e d6 b1 bd
       -0.048654303 0.17849682 -0.020141227 -0.08683489
000060 74 ef 70 3e cf 90 bf 3d 91 44 a7 3e ef 56 a3 3d
       0.23528844 0.09353792 0.326695 0.07975566
000070 7b e7 a3 3d 7b 44 85 3d 3b 37 c6 bd 24 ff 42 bb
       0.08003136 0.06507202 -0.09678503 -0.0029754126
000080 8b 78 44 3e c7 68 21 be 89 61 ba bd db 70 04 3e
       0.19186608 -0.15762626 -0.091006346 0.12933676
000090 8f 3c 10 be 3e 82 fb 3d 0e 2c 15 bb 06 f8 86 be
       -0.14085601 0.12280701 -0.0022761854 -0.26361102
0000a0 39 57 b5 3c d3 a8 de bd 48 af a4 3d 4c 65 f3 bc
       0.022136318 -0.108720444 0.08041245 -0.029711388
0000b0 97 62 05 bc a2 69 09 3e 11 87 d8 bd 21 70 21 3c
       -0.008141181 0.13419202 -0.10572637 0.009853394
0000c0 c1 45 20 be e9 0b c6 3d b0 0e 84 bd ff d8 eb 3d
       -0.15651609 0.096702404 -0.06448114 0.11515998
0000d0 f8 e8 3a be 8a 52 ab 3d a2 1e 13 3d b1 eb da bc
       -0.18252933 0.083653525 0.035917886 -0.026723715
0000e0 6d cb f1 3b 44 d6 f6 3d 98 ac 91 be 30 d2 2b 3c
       0.0073789866 0.12052587 -0.2845199 0.010487124
0000f0 cb 0f 6b 3d b9 83 c1 bd b6 25 ee 3d 66 c3 e4 3d
       0.05738811 -0.09448952 0.116282865 0.11170082
000100 1c c3 4d 3d ee 6f 92 3e f5 ed 7d bd 67 13 09 3d
       0.0502349 0.2860102 -0.06199451 0.03346577
000110 eb 17 cb bd 9a 05 1a 3d d5 dd bf 3e d8 35 ca bb
       -0.09916671 0.037603 0.37473932 -0.0061709695
000120 90 75 9b bd 03 79 b9 3a 21 b5 2e 3c 49 cd 1e be
       -0.07590783 0.0014150444 0.010663302 -0.15507998
000130 db 9f ae bd b1 9e 5b bd 56 e6 76 3e 90 95 3a 3d
       -0.08526584 -0.053618137 0.24111304 0.04555279
000140 2e ea 8c bd f5 de 44 be df c5 43 be e2 e3 8e bd
       -0.06880604 -0.19225676 -0.1911845 -0.06977059
000150 83 70 74 bd a4 6c 9b bc 16 3d b1 3d 1b f5 40 bd
       -0.059677612 -0.018972702 0.08654229 -0.04710875
000160 fa 22 62 3c 55 1e d4 bd 04 01 5a 3d 77 ee 08 3e
       0.013802284 -0.10357348 0.053223625 0.13372217
000170 c4 4b 97 bd 48 91 64 be 2d 5c 99 3e af 27 a8 bd
       -0.07387498 -0.22321045 0.29953137 -0.08210694
000180 2e 29 f6 bd 66 0b f3 bd 12 1c 98 3e d3 ca 15 be
       -0.12019573 -0.118674085 0.29708916 -0.14628153
000190 8a 89 98 bc 8c 31 ae bd 86 9d 2b 3e ed 3b 40 bd
       -0.018620271 -0.08505544 0.16759309 -0.04693215
0001a0 77 a2 9a 3c 4a 76 71 bd 7d 6f ed bb d6 07 36 3d
       0.018876297 -0.0589507 -0.0072459565 0.044441067
0001b0 24 9e 6d 3b 82 1f 54 3e 7c e7 dd bd 48 b2 e6 3c
       0.003625759 0.20715144 -0.10835168 0.028161183
0001c0 b7 f5 9c be 18 7f 4b bc 50 4c 49 be d1 0e dc 3d
       -0.30656216 -0.012420438 -0.19658017 0.107450135
0001d0 26 52 88 3c 2a 8a aa bd e9 69 1a be be 8e 13 3e
       0.016640734 -0.08327134 -0.15079464 0.1440992
0001e0 08 8b b3 bd d3 1a d5 bd 66 63 2c bd c0 71 4d 3d
       -0.087667525 -0.10405507 -0.04208698 0.05015731
0001f0 07 a2 4e 3e e3 eb 94 bc 39 ec 1c 3c fa 93 85 3d
       0.20178996 -0.018178886 0.009577804 0.06522365
000200 14 41 f7 bb 43 2f 1e be 0a 0b 10 3e 09 e3 b5 3d
       -0.0075455997 -0.15447716 0.14066711 0.08881194
000210 fc 6d 22 3b 7f 03 49 bd a6 4c 64 bd 51 42 98 bc
       0.0024784794 -0.0490756 -0.05573716 -0.01858631
000220 37 83 b7 3d 4b b4 b4 3b e0 44 a6 3e 5c ab ae bd
       0.08960574 0.0055146567 0.32474422 -0.08528778
000230 1b 6d 1d 3e 70 a6 33 bd 38 3a 79 3c 97 82 18 be
       0.15373652 -0.0438599 0.015211634 -0.14893566
000240 cf c0 40 be fb a4 8d bd fe 04 96 bd 33 ea 5b bd
       -0.1882355 -0.06916233 -0.07325171 -0.053690147
000250 e4 95 0f be 1f 93 c5 bd 87 51 27 3e 26 c4 fa bd
       -0.14022022 -0.09647202 0.16339694 -0.122444436
000260 49 11 a5 bd 82 73 0c bd 1c 60 a6 bd 61 72 3a be
       -0.080599375 -0.034289844 -0.081238 -0.18207695
000270 fa f2 2b bc 0f ad 36 bd 59 31 52 3e 1b 69 d9 3d
       -0.010494942 -0.044598635 0.20526637 0.106157504
000280 6d 39 85 bd 50 63 a1 bd 83 d1 e6 bd 9b 6d 29 3d
       -0.06505094 -0.078802705 -0.1127043 0.041364294
000290 20 20 dc bd fb e9 a0 bb bf 97 1c ba ae 8b 8f bd
       -0.10748315 -0.004910705 -0.00059735397 -0.07009064
0002a0 18 44 2e bd 9a 3a c7 bd 57 f7 65 be d0 e4 13 bd
       -0.042545408 -0.09727974 -0.22457634 -0.036106884
0002b0 49 08 36 3e c5 b8 52 3d c6 59 d8 3d 09 23 1d 3d
       0.17776598 0.05144574 0.10563998 0.03836349
0002c0 82 27 47 be dc 3e 52 be 16 e6 3f 3c e0 b4 9f bb
       -0.19448665 -0.20531791 0.011712572 -0.004873857
0002d0 3b 21 c6 3d 87 ce cf bd 1a 8a 99 bd f6 67 00 be
       0.09674307 -0.10146814 -0.07497044 -0.12539658
0002e0 b3 33 c7 bd 6b 14 14 be b3 e5 b0 3c ca d9 3d be
       -0.09726658 -0.14460914 0.021593904 -0.18540111
0002f0 fa ff b0 3d 37 52 d3 3c b8 ec 0c be 8e 69 a6 bd
       0.08642574 0.025796039 -0.13762176 -0.08125602
000300 38 4a 96 3d a2 08 96 bc 3c a1 f5 3c b1 80 f3 bc
       0.07338375 -0.018314663 0.02998411 -0.02972445
000310 fe 3a 3b bc a7 1a 84 bd cd 81 14 be 00 35 26 be
       -0.011427639 -0.06450396 -0.1450264 -0.16231155
000320 9b f0 a6 bd 54 01 b4 3d 19 aa b7 3d 2f 5f b1 3d
       -0.081513606 0.08789316 0.089679904 0.08660733
000330 52 d8 1b 3e 24 60 69 bc c8 7f 16 be a6 cb 98 bd
       0.15219238 -0.014244113 -0.14697182 -0.07460718
000340 d5 99 14 3d a1 e2 4c 3e b7 46 2f bd a6 a1 12 be
       0.03627952 0.20008327 -0.04279205 -0.14319476
000350 a4 ab 12 bd 60 66 13 3e a1 d6 9b bd 13 55 ca bd
       -0.03580822 0.14394522 -0.076092966 -0.09879508
000360 89 0b b7 3c 07 05 7a bc 86 cf b0 bd 3f 82 18 be
       0.022344368 -0.015259988 -0.08633332 -0.14893435
000370 f2 7a 8b 3d da d3 7e 3d b1 bc 46 be 6a e4 12 be
       0.06810559 0.062213756 -0.19407918 -0.14344946
000380 d7 9a 06 bd fa bd 37 be bb c4 d3 bd 02 61 03 3d
       -0.03286251 -0.17943564 -0.10340258 0.032074936
000390 bf d9 d8 3c 3a 22 3a 3d 3d 8c 04 3e 88 30 9b 3d
       0.026471017 0.045442797 0.12944122 0.07577616
0003a0 89 50 f3 bd 8f d2 18 bd 65 f2 4d 3d 53 52 07 bc
       -0.11880595 -0.03731018 0.050279994 -0.008259374
0003b0 6d a2 f0 bc cd 36 35 be a0 b9 22 3d 2b 4a 8f 3d
       -0.029374326 -0.17696686 0.039727807 0.06996568
0003c0 f4 21 fb 3c 11 11 bf bd 36 86 42 bd 43 d0 fd bd
       0.030655839 -0.09329427 -0.047491275 -0.123932384
0003d0 b3 df d0 bb 6c e2 a7 bc a4 ff 55 be 97 2a 00 bb
       -0.0063743233 -0.020493709 -0.208983 -0.0019556636
0003e0 ad 04 05 3e 5d 8b 83 bd 50 bc 85 bd 0f 5c 8e bd
       0.12990065 -0.06423066 -0.065300584 -0.069511525
0003f0 99 fb 96 bd f9 fa 7b be e5 ca a3 3d 1d f7 a4 39
       -0.07372207 -0.24607457 0.079976834 0.0003146463

network_body._body_endoder.seq_layers.2.bias f4 [128]
000000 8e c5 eb 3d ba f0 a5 3b f4 c0 0b bd f3 3c 86 bd
       0.1151229 0.0050640972 -0.03411956 -0.06554594
000010 98 09 50 bd 27 ff 5c bd 52 7a 44 3d 91 b9 7b 3c
       -0.0507904 -0.05395427 0.047968216 0.015364067
000020 93 32 5d bc ca f3 fc 3d 9d 34 96 3c 00 bd c8 bd
       -0.013500827 0.123511866 0.018335635 -0.09801674
000030 d9 81 af 3b ab f8 80 3d 4c 21 e6 3d 49 5c 72 bd
       0.005356055 0.0629743 0.112368196 -0.05917004
000040 10 70 98 3d 30 c5 08 bc a9 c2 9f bc d9 9b 2c 3e
       0.07443249 -0.008347794 -0.019502 0.16856326
000050 01 b1 52 3d 45 fb 64 bc 89 e3 c3 bd 48 91 39 3d
       0.051438335 -0.013975923 -0.09564883 0.045304567
000060 39 e1 e5 bd 74 59 3c 3d c0 63 83 3c e2 b4 19 3d
       -0.112245984 0.045983747 0.016038775 0.03752602
000070 0c 43 b1 bd 8c 0a 30 3d e8 89 a7 bc 03 59 0a 3d
       -0.08655366 0.04297881 -0.020451501 0.033776294
000080 89 68 e1 bb db 82 be bb 59 99 bd 3d b3 25 ed 3d
       -0.0068789166 -0.005813939 0.09257764 0.11579456
000090 a3 90 8b bd 1c 88 09 bc 32 44 43 bd 2f 2b db 3c
       -0.06814697 -0.008394267 -0.047672458 0.02675399
0000a0 67 cb ca 3c d6 5f 5b 3d 19 1b c4 3d b0 5b 72 3c
       0.024755193 0.053558193 0.09575481 0.014792368
0000b0 fc f2 5c 3d d5 d5 bb bc a9 6b c8 3d 80 6c 6e 3d
       0.053942665 -0.022929111 0.097861595 0.058208942
0000c0 d9 37 d9 bc 6b 0d 56 bc c8 03 f0 bb f7 4b f3 bd
       -0.026515888 -0.0130647225 -0.0073246695 -0.118797235
0000d0 97 d2 c8 3d 26 e3 95 3d 12 af ac 3d 57 59 03 bd
       0.09805792 0.07318716 0.084318295 -0.032067623
0000e0 18 73 46 bc 37 13 58 3d 2d a5 9a 3d a1 82 28 3d
       -0.012112401 0.0527527 0.07551036 0.041140202
0000f0 e4 e0 bc bd 0d 53 f6 bd 8f b7 a4 3d 4f 4e 80 3c
       -0.09222582 -0.120275594 0.080428235 0.01566234
000100 86 9f a8 3d 12 31 7b 3b 79 8b 27 bd 79 3b d6 3c
       0.08233552 0.0038328809 -0.040904496 0.026151406
000110 ce 68 ee 3c b9 66 aa 3d c8 12 1b 3b 6d 22 dd bc
       0.02910271 0.08320374 0.0023662318 -0.026993955
000120 6e 1a 3d bd cf 13 05 bd 1a c6 3a 3d 42 01 ba 3c
       -0.046167783 -0.032489594 0.04559908 0.022705678
000130 45 2e 04 3d 96 51 cf 3d 17 7c 96 3c ad b9 b7 3d
       0.03227069 0.10122983 0.018369718 0.08970962
000140 9e fb 2f 3c 2c d2 11 3d d5 ef 06 bd 0b 07 74 bc
       0.010741143 0.035600826 -0.032943565 -0.014894257
000150 61 b1 31 3d 4d 8a de 3c a7 09 9c 3d 87 0f 63 3d
       0.043382052 0.027165556 0.076190285 0.05543473
000160 63 76 ee 3d 4b 72 fd 3c 2c 78 f3 3c 9b 70 94 3c
       0.11643674 0.030938288 0.029720388 0.0181201
000170 ca 3e 0d 3d 32 e5 93 3d de cc 92 bd 70 2d 86 3c
       0.03448371 0.0722145 -0.071679816 0.016379088
000180 ee 01 d6 3d 8e 4e 49 3c 97 12 c9 3d 6b 04 09 3c
       0.10449587 0.012286795 0.09817999 0.00836287
000190 60 72 e9 3c a3 a9 90 bc 84 da e5 bc 08 87 79 3d
       0.028496921 -0.017659014 -0.028058298 0.06091979
0001a0 84 98 81 3d d2 c7 6e bd 9f 53 88 3c 64 c1 a3 bb
       0.06327918 -0.058296032 0.016641436 -0.004997419
0001b0 f2 50 99 3d 30 a7 b0 bc 74 b2 b7 bc e5 af 05 3d
       0.07486142 -0.021564096 -0.02242396 0.03263845
0001c0 c8 94 83 bd c9 cf 47 bd 9f 7b 0b 3d c8 43 25 bd
       -0.06424862 -0.048782144 0.03405344 -0.040347844
0001d0 ec a6 8f 3c 9e ac 4d 3d 33 93 ff 3d c5 c5 05 bc
       0.01753565 0.05021345 0.12479248 -0.008164828
0001e0 84 38 42 bd 95 ce ca 3c 28 9a db 3d 46 6d 89 bc
       -0.04741718 0.02475671 0.10722762 -0.016775738
0001f0 c9 d8 29 bd b4 0d 03 bd 32 45 3e 3c f2 93 a8 3d
       -0.041466508 -0.03199549 0.011613177 0.08231343

action_model._continuous_distribution.log_sigma f4 [1, 2]
000000 6f 94 fb 3d 3c 53 c5 3d
       0.12284171 0.09635016

action_model._continuous_distribution.mu.weight f4 [2, 128]
000000 fa b4 64 bd 4c 8d 58 3d d8 09 0c bd 75 b7 14 bd
       -0.055836655 0.052869126 -0.034189075 -0.03630777
000010 ae 75 b8 bd f9 8a fb 3c bc cc d4 3d 58 55 75 3d
       -0.090068206 0.030705916 0.103906125 0.059895843
000020 d5 74 95 3d f5 e9 b7 3d c8 4f ef bd f6 5a d6 bd
       0.072976746 0.08980171 -0.11685139 -0.10466568
000030 4c f4 af 3d c3 c0 1c 3d 25 63 ce 3d bc 71 6d bd
       0.08591518 0.03826977 0.10077504 -0.057969794
000040 bb fd ae 3d 13 98 dd 3b 79 34 a3 bd 81 e6 2e 3e
       0.08544489 0.0067625134 -0.07968993 0.17080118
000050 03 1a c3 bd a6 f6 fb bc 86 f0 8a bd f3 80 f2 bd
       -0.09526446 -0.03075726 -0.067841575 -0.11841001
000060 d8 6d 7e bd 0b 53 9b 3d f2 27 bc 3d 45 fe eb bd
       -0.062116474 0.075841986 0.091873065 -0.115231074
000070 32 f8 b9 bd 58 90 df 3c b9 3c af bd 8f b0 24 3d
       -0.090805426 0.027290508 -0.08556504 0.040207442
000080 da 02 43 3d b9 21 d8 3d 50 b8 ce bc 6d ee 2d bd
       0.04761014 0.10553307 -0.025234371 -0.04246371
000090 45 24 f5 bd 3c 25 cc bd 0c c4 bb bd 88 c2 45 bd
       -0.119698085 -0.099680394 -0.09168252 -0.048281223
0000a0 36 68 9f 3d 77 9e b8 bd a9 51 95 bd b0 e3 72 3d
       0.077835485 -0.090146 -0.07290966 0.05929917
0000b0 6f b1 72 bd 17 d0 75 3d cd 12 01 3e 42 5b df 3d
       -0.059251245 0.060012903 0.12604828 0.10906078
0000c0 d4 07 f1 bb b0 d9 09 3d aa 16 92 3d 49 d8 ba bd
       -0.0073556695 0.03365487 0.07133229 -0.09123284
0000d0 4f 16 a9 bd 50 ab dc 3d aa 4d 0c bd e6 d1 26 3d
       -0.08256208 0.10774863 -0.034253754 0.04072752
0000e0 40 a2 fb bd 5b d2 ac bd 8c dd 0f bd c2 bb 0a be
       -0.12286806 -0.084385596 -0.035123393 -0.13548186
0000f0 34 7a fc bc d9 06 94 bd ba 78 01 be 55 3c f2 bc
       -0.03081999 -0.072278686 -0.1264371 -0.029569784
000100 2d 62 f5 bd fb 19 b9 bd 05 75 cf bb 8d e6 92 3d
       -0.11981616 -0.090381585 -0.0063310885 0.0717288
000110 b6 d1 ac 3d 82 68 50 bd 20 9c 8e 3d 05 86 63 bd
       0.08438437 -0.050880916 0.06963372 -0.055547733
000120 33 19 d9 bd 3a 3a e7 3c 54 78 03 3e fb 4b 65 bd
       -0.106005095 0.028226007 0.1283887 -0.055980664
000130 c2 43 ab bd be 20 dd 3c 36 87 d1 3c 8c 09 6d 3d
       -0.08362533 0.026993152 0.025577169 0.057870433
000140 53 49 8c 3d f0 49 9c 3d f5 0e f7 3c dd 13 dc bd
       0.06849923 0.0763129 0.0301585 -0.10745976
000150 84 5d ef bd 6a bd 09 be a0 4b ce bd 6b 3e 9a 3d
       -0.116877586 -0.13451162 -0.10073018 0.075314365
000160 8d 7f ff 3d e8 0c 40 3d a8 62 45 3d 70 35 c8 bd
       0.124755 0.04688731 0.04818979 -0.097758174
000170 ff db 08 bd 76 8e 46 bd f0 7f ec 3c 67 4d be ba
       -0.03341293 -0.048475705 0.0288696 -0.0014518917
000180 fe 9e a1 bd 97 7d 81 3d 04 bf 6e 3c 8d 2a 4c 3d
       -0.078916535 0.063227825 0.014571909 0.049845267
000190 ef 5b 5c 3d 52 98 03 3d 81 c6 41 3d 52 86 7f 3d
       0.053798612 0.032127686 0.04730845 0.062383957
0001a0 6a ae bf 3d e0 f3 b7 bd 16 19 19 3d 49 d9 18 be
       0.09359439 -0.08982062 0.03737744 -0.14926638
0001b0 e4 9d 2b bd e8 a5 d9 3c c3 a9 00 bd 47 ca 53 3d
       -0.041898623 0.026568368 -0.031411897 0.05170658
0001c0 02 d1 fe bd c8 62 11 3d 1f 22 00 3d 71 39 c6 bb
       -0.12442209 0.035494596 0.03128254 -0.006049328
0001d0 5f 42 5b 3c 73 9f 6d bd a9 26 24 3e 2a d2 ab bc
       0.013382523 -0.05801339 0.16030373 -0.020974237
0001e0 60 af 23 3d af f1 cf 3d e9 a9 6a bd 83 4e 1a 3c
       0.039962173 0.10153519 -0.057290945 0.009418133
0001f0 cc 81 0f 3d 05 55 99 3d 7c 2c 24 3d a1 bd e9 bd
       0.035035893 0.07486919 0.040081486 -0.11413122
000200 1a 44 26 3e 28 89 86 bd c2 90 2d bd 05 22 ad bd
       0.16236916 -0.06569129 -0.04237438 -0.08453754
000210 b2 6d 1c 3d d6 b3 67 ba b8 73 f8 bd 46 86 b0 bd
       0.03819055 -0.00088387483 -0.121314466 -0.086193606
000220 17 17 2a bd b3 48 0d 3e b7 3a 90 3d 14 4c 9a bd
       -0.041525926 0.13797264 0.07042449 -0.07534042
000230 51 84 61 bd 47 60 64 3d ce 39 0c 3e ed 1d d4 ba
       -0.055057827 0.05575588 0.13693926 -0.0016183235
000240 b4 b9 43 3c 11 59 c6 bd a1 d4 09 3d 32 c2 08 3e
       0.011946131 -0.09684957 0.033650044 0.1335533
000250 5d c0 f4 3d f2 ed ab 3d d2 6c 10 bc 4c b3 d5 3d
       0.11950753 0.08394994 -0.008815007 0.10434589
000260 19 b4 93 bc 79 5e c2 bd 8c d9 a1 bd 48 80 c4 3d
       -0.018030213 -0.094906755 -0.07902822 0.0959478
000270 b3 fd 12 bd ad 79 93 bd b1 08 b7 3d 27 27 40 bd
       -0.035886478 -0.07200942 0.08937205 -0.04691234
000280 6e 2c 70 bd 39 52 ab bd b3 c9 fc 3d d3 73 06 3e
       -0.05863612 -0.08365292 0.123431586 0.13130121
000290 10 24 1e bc 6b 05 f5 3c 95 a3 97 3c 85 25 9b 3d
       -0.009652153 0.02990981 0.01851062 0.07575516
0002a0 7b b6 a5 bd 31 19 ec 3d ad 4d 0f 3e d9 97 55 bd
       -0.08091446 0.115282424 0.13994475 -0.052146766
0002b0 f6 db f3 3d 41 b7 47 bd 17 cf a3 3d 50 fb 71 3d
       0.119071886 -0.04875875 0.07998484 0.05907756
0002c0 15 d0 9a bd 5e 34 86 bd c2 7f c2 bd 8e 13 77 bd
       -0.0755922 -0.06552957 -0.09497024 -0.060321383
0002d0 80 43 c8 3d 98 55 3a 3d 63 f9 08 3e 59 e1 d9 bd
       0.097784996 0.045491785 0.13376383 -0.10638685
0002e0 5b f4 6c 3d 36 70 fa 3d c6 3c d3 3d 6e 8d 00 3e
       0.057850223 0.12228434 0.10314326 0.12553951
0002f0 20 11 fd b8 a2 4f d4 bc 81 17 d8 3d 06 db 2b 3c
       -0.0001206717 -0.025916878 0.10551358 0.010489231
000300 f9 fd 23 3e 5e 89 bd 3d ae 3f 01 bc 7e d3 b9 bd
       0.16014852 0.09254716 -0.007888718 -0.09073542
000310 0b 4c 99 bd 69 6f a9 3d 84 e3 0e be 12 3e 96 3d
       -0.07485207 0.08273203 -0.13953978 0.07336058
000320 86 87 1b 3d 02 ee 71 bd b9 00 b0 bc d7 2e 8f 3d
       0.037971042 -0.059064873 -0.02148472 0.06991356
000330 64 41 f5 3d 81 fe 00 3e c3 0c 9a bd c4 6b db 3d
       0.11975363 0.12597086 -0.07521965 0.10713914
000340 4a 20 83 bd 79 d9 cb bd c6 af 66 bd 93 c5 d1 3d
       -0.06402643 -0.09953589 -0.056319974 0.102427624
000350 85 24 f6 3d aa 46 d5 3d 3d 56 02 3e 04 e1 9a bd
       0.12018684 0.10413869 0.1272821 -0.075624496
000360 d6 ec 09 3e 1c 11 0f 3d 37 b6 26 bd ca e6 fb 3c
       0.13469252 0.034928426 -0.040701117 0.030749697
000370 33 66 a5 3d 68 98 9a 3d bf 47 0a 3c 14 0e b3 bd
       0.080761336 0.075486004 0.008439957 -0.087429196
000380 cb 77 0f 3e fb e4 2d bd b0 ad 0d 3e 58 b2 87 bd
       0.14010541 -0.0424547 0.13835788 -0.06625813
000390 5e ba bf bd e8 06 64 bd 65 21 13 bc 0b 07 dc bd
       -0.093617186 -0.05567065 -0.00898013 -0.10743531
0003a0 04 75 4a 3d 45 8d 30 3d bd d8 eb bc 34 a6 bc 3d
       0.049428 0.043103475 -0.028789872 0.09211388
0003b0 75 ed b2 3d 66 50 93 bb c1 e5 f0 bd 3e 04 e5 bd
       0.087366976 -0.004495668 -0.11762572 -0.1118245
0003c0 6b 09 28 3d c9 8c 38 bd 61 19 b0 bd e7 7d 8d bd
       0.041024607 -0.04505614 -0.08598591 -0.069087796
0003d0 d0 1b b5 bd 8c 9f e1 3d 89 90 24 3d 0d c1 1c 3d
       -0.088431954 0.11016759 0.040176902 0.038270045
0003e0 b6 f7 10 bd 75 4c a7 bd d1 b9 01 3e 02 16 73 bd
       -0.035392486 -0.0816888 0.1266854 -0.05934716
0003f0 7e 3d d5 bd 91 6e b2 bd d3 3a 2c 3d 16 86 39 3e
       -0.10412119 -0.08712495 0.042048287 0.18117556

action_model._continuous_distribution.mu.bias f4 [2]
000000 57 c2 02 3d d9 c2 3b 3d
       0.03192362 0.045840118

onnx::Div_51 f4 [90]
000000 26 35 b0 3e 88 6c ad 3e b1 22 a9 3e e6 5d a3 3e
       0.3441555 0.33871865 0.3303428 0.31907576
000010 8f 88 9b 3e 9a 11 90 3e e3 ca 54 3e 40 6a 01 3e
       0.30377623 0.2813843 0.2078052 0.12638187
000020 4c fe 9e 3c 1f 5b 43 3c d9 a7 da 3b cc 8f 90 3b
       0.019408368 0.01192358 0.006672841 0.004411673
000030 cb b6 76 3b 02 db 61 3b 98 66 51 3b d8 95 4e 3b
       0.0037645574 0.0034462814 0.003195202 0.003152242
000040 24 a1 42 3b 64 42 41 3b 0f 2d 3a 3b ff 6d 3b 3b
       0.0029698098 0.0029489035 0.0028408205 0.0028599498
000050 46 28 37 3b 44 9e 37 3b 79 14 36 3b a3 3e 2f 3b
       0.0027947589 0.0028017918 0.0027783199 0.0026740215
000060 c6 5f 31 3b c7 a6 2e 3b c8 36 30 3b f5 bb 33 3b
       0.0027065142 0.00266497 0.002688812 0.0027425264
000070 30 86 39 3b 5b 1c 3e 3b 77 95 42 3b 4b e8 44 3b
       0.0028308742 0.00290086 0.0029691139 0.0030045684
000080 d1 73 45 3b 4f ae 49 3b 23 85 53 3b 3f 19 60 3b
       0.0030128846 0.0030774062 0.00322754 0.0034194735
000090 eb e6 73 3b 8d a5 85 3b d5 4e 8f 3b a6 5e 92 3b
       0.0037216495 0.004078573 0.004373411 0.0044668494
0000a0 a3 b2 93 3b 33 15 90 3b b9 c5 83 3b b8 56 74 3b
       0.004507379 0.0043970584 0.004021373 0.0037283134
0000b0 58 bf 5a 3b 59 56 4d 3b 68 f5 b1 3e d7 31 b3 3e
       0.003337821 0.0031331985 0.34757543 0.34998962
0000c0 86 0c b4 3e 54 ac b4 3e 0f f6 b4 3e eb df b4 3e
       0.35165805 0.35287726 0.35343978 0.35327086
0000d0 86 38 b4 3e e1 88 b2 3e f9 f9 ae 3e 5d 63 a9 3e
       0.35199374 0.34870055 0.3417509 0.3308362
0000e0 da 41 a2 3e d5 d5 9a 3e 90 ad 95 3e 97 72 95 3e
       0.31690866 0.30241266 0.2923398 0.29188988
0000f0 37 83 95 3e 1f 57 94 3e 28 bf 91 3e 80 a7 88 3e
       0.2920167 0.28972718 0.28466153 0.26690292
000100 a7 44 82 3e c3 a3 80 3e 68 d9 78 3e ad 54 6b 3e
       0.25443003 0.2512494 0.24301684 0.2298152
000110 9f 05 4f 3e 7d f7 2d 3e 4b 71 1b 3e a4 12 22 3e
       0.20216988 0.1698894 0.15179937 0.15827423
000120 87 33 2c 3e 84 a4 2a 3e f5 64 14 3e 51 86 f2 3d
       0.16816531 0.1666432 0.14491637 0.11842025
000130 ad dc c8 3d 62 4a a8 3d 4e fc 82 3d 24 1a 38 3d
       0.098077156 0.082173124 0.063957796 0.044946805
000140 7b 80 ef 3c f7 04 9a 3c 88 be 3c 3c ae bc c8 3b
       0.029236069 0.018801196 0.011520036 0.006126008
000150 91 1c 30 3b e3 41 12 3b 77 35 19 3b 9b c8 24 3b
       0.0026872496 0.0022317104 0.0023377815 0.0025143984
000160 98 e9 34 3b 2c 62 3e 3b
       0.0027605053 0.0029050214
