results/90RC3/Park90RC/Park90RC-11739539.onnx (onnx, 213786 bytes, 9 tensors)

network_body.observation_encoder.processors.0.normalizer.running_mean f4 [271]
000000 79 f2 0d 3f 97 f0 0d 3f 8f 03 0e 3f a4 ae 0c 3f
       0.5544811 0.55445236 0.5547418 0.5495398
000010 22 ad 0c 3f b4 bf 0c 3f 8c d5 0b 3f 61 d4 0b 3f
       0.5495168 0.54980016 0.5462272 0.5462094
000020 e2 e6 0b 3f a5 a8 0b 3f 13 a7 0b 3f ce b9 0b 3f
       0.54649174 0.54554206 0.5455181 0.5458039
000030 5c e9 0b 3f 72 e7 0b 3f 63 fa 0b 3f b2 6a 0b 3f
       0.54652953 0.5465003 0.54678935 0.5445968
000040 e4 68 0b 3f aa 7b 0b 3f eb d0 0a 3f 50 cf 0a 3f
       0.54456925 0.5448557 0.54225034 0.54222584
000050 77 e2 0a 3f 20 97 0a 3f 95 95 0a 3f 10 a9 0a 3f
       0.5425181 0.5413685 0.54134494 0.5416422
000060 36 7b 0a 3f b7 79 0a 3f a6 8d 0a 3f ca 8a 0a 3f
       0.54094255 0.5409197 0.5412239 0.54118025
000070 cb 88 0a 3f d6 9c 0a 3f c6 97 0a 3f e8 95 0a 3f
       0.5411498 0.5414556 0.5413784 0.5413499
000080 56 aa 0a 3f 46 b1 0a 3f ba ae 0a 3f c8 c3 0a 3f
       0.5416616 0.5417675 0.5417286 0.5420499
000090 88 f1 0a 3f 18 ef 0a 3f 9e 04 0b 3f ef 64 0b 3f
       0.542748 0.5427108 0.5430392 0.5445089
0000a0 99 62 0b 3f 6b 78 0b 3f b4 16 0c 3f 9b 14 0c 3f
       0.54447323 0.5448062 0.5472214 0.5471894
0000b0 1a 2a 0c 3f 49 ff 0c 3f 4e fd 0c 3f 5a 13 0d 3f
       0.5475174 0.55077034 0.5507401 0.55107653
0000c0 cb 10 0e 3f a0 0e 0e 3f d0 24 0e 3f bb 6b 0f 3f
       0.55494374 0.55491066 0.5552492 0.5602376
0000d0 e3 69 0f 3f e1 7f 0f 3f 2d 10 11 3f 0d 0e 11 3f
       0.56020945 0.560545 0.5666531 0.56662065
0000e0 e1 24 11 3f 68 0c 13 3f 3e 0a 13 3f 2c 21 13 3f
       0.566969 0.57440805 0.57437503 0.5747249
0000f0 34 62 15 3f 34 60 15 3f f8 76 15 3f 7f 04 18 3f
       0.5835297 0.5834992 0.58384657 0.5938186
000100 a0 02 18 3f 90 19 18 3f 15 f2 1a 3f 4d f0 1a 3f
       0.59379005 0.59414005 0.6052564 0.6052292
000110 72 07 1b 3f 3a 21 1e 3f 80 1f 1e 3f 0d 37 1e 3f
       0.60558236 0.6176945 0.61766815 0.6180275
000120 4e 8b 21 3f d8 89 21 3f 10 a1 21 3f fe 35 25 3f
       0.6310319 0.6310096 0.63136387 0.6453551
000130 c4 33 25 3f 59 4b 25 3f b0 05 29 3f ca 03 29 3f
       0.64532113 0.64568096 0.66024303 0.66021407
000140 e1 1b 29 3f a2 0f 2d 3f 63 0e 2d 3f d5 26 2d 3f
       0.66058165 0.6760198 0.6760008 0.6763738
000150 76 57 31 3f 2b 57 31 3f 6b 6f 31 3f e0 cf 35 3f
       0.6927408 0.6927363 0.69310635 0.7102032
000160 e0 cf 35 3f 4c e8 35 3f 98 9e 3a 3f 61 9f 3a 3f
       0.7102032 0.7105758 0.72898245 0.7289944
000170 15 b8 3a 3f 82 cc 3f 3f ac cd 3f 3f 07 e6 3f 3f
       0.72937137 0.7492143 0.74923205 0.7496037
000180 a9 85 45 3f ff 86 45 3f 35 9f 45 3f 71 cb 4b 3f
       0.77157074 0.7715911 0.77196056 0.796073
000190 0c cd 4b 3f c4 e3 4b 3f 66 9f 52 3f 61 a0 52 3f
       0.7960975 0.7964442 0.8227447 0.8227597
0001a0 d6 b4 52 3f 5c 4f 5a 3f 1c 50 5a 3f 1b 61 5a 3f
       0.82307184 0.8527734 0.8527849 0.8530442
0001b0 c8 91 63 3f 32 92 63 3f 6e 9d 63 3f 19 36 6e 3f
       0.8889432 0.8889495 0.88912094 0.93051296
0001c0 07 36 6e 3f 49 3b 6e 3f f9 00 7a 3f d6 00 7a 3f
       0.9305119 0.9305921 0.97657734 0.97657526
0001d0 d5 01 7a 3f b4 52 7d 3f 71 52 7d 3f c7 51 7d 3f
       0.97659045 0.9895432 0.9895392 0.9895291
0001e0 54 a6 7e 3f 12 a6 7e 3f 01 a5 7e 3f 83 26 7f 3f
       0.99472547 0.99472153 0.99470526 0.9966814
0001f0 56 26 7f 3f 7c 25 7f 3f a1 6f 7f 3f 5b 6f 7f 3f
       0.9966787 0.9966657 0.9977971 0.9977929
000200 91 6e 7f 3f bd 9f 7f 3f 64 9f 7f 3f e5 9e 7f 3f
       0.99778086 0.99853116 0.99852586 0.9985183
000210 20 96 7f 3f c8 95 7f 3f 57 95 7f 3f 10 24 7f 3f
       0.9983845 0.99837923 0.9983725 0.996644
000220 e7 23 7f 3f a4 23 7f 3f 7e d1 0f 3f 71 cf 0f 3f
       0.9966416 0.9966376 0.56179035 0.56175905
000230 86 e2 0f 3f 4c 93 12 3f 5e 91 12 3f 29 a4 12 3f
       0.5620502 0.5725601 0.5725306 0.5728174
000240 9a 41 17 3f e3 3e 17 3f 0f 51 17 3f d7 e2 1c 3f
       0.59084475 0.5908033 0.5910806 0.6128363
000250 89 df 1c 3f de f1 1c 3f 77 9b 1e 3f ef 97 1e 3f
       0.6127859 0.6130656 0.6195597 0.6195058
000260 ec a9 1e 3f 51 7c 1f 3f 24 79 1f 3f a3 8b 1f 3f
       0.6197803 0.62299067 0.6229422 0.62322444
000270 d1 0b 20 3f e5 08 20 3f 6c 1b 20 3f 03 39 20 3f
       0.6251803 0.6251357 0.6254184 0.6258699
000280 95 36 20 3f ad 49 20 3f a0 43 20 3f d0 40 20 3f
       0.62583286 0.6261242 0.6260319 0.62598896
000290 66 54 20 3f 3c 4b 20 3f f7 48 20 3f e7 5c 20 3f
       0.6262878 0.626148 0.62611336 0.6264176
0002a0 6b 68 20 3f 2f 66 20 3f fe 7a 20 3f 5d a9 20 3f
       0.6265933 0.6265592 0.6268767 0.6275843
0002b0 bd a7 20 3f 34 bc 20 3f 04 19 21 3f 01 17 21 3f
       0.6275595 0.62787175 0.62928796 0.62925726
0002c0 e3 2b 21 3f 9e c2 21 3f b7 c0 21 3f 1e d6 21 3f
       0.6295759 0.6318759 0.63184685 0.6321734
0002d0 3d b1 22 3f 70 af 22 3f b5 c4 22 3f d0 d8 23 3f
       0.63551694 0.63548946 0.635814 0.64002705
0002e0 b5 d6 23 3f 92 ec 23 3f e7 35 25 3f 4e 34 25 3f
       0.6399949 0.6403285 0.64535373 0.64532936
0002f0 d4 49 25 3f 58 c7 26 3f ca c5 26 3f ab db 26 3f
       0.6456578 0.65147924 0.6514555 0.65178937
000300 e7 93 28 3f 42 92 28 3f 42 a8 28 3f 5f a7 2a 3f
       0.6585068 0.6584817 0.6588174 0.6666164
000310 d6 a5 2a 3f 16 bc 2a 3f 3b 13 2d 3f b2 11 2d 3f
       0.66659296 0.66693246 0.6760747 0.67605126
000320 23 28 2d 3f 62 e1 2f 3f 43 e0 2f 3f c8 f6 2f 3f
       0.6763937 0.6870328 0.6870157 0.68735933
000330 9e 01 33 3f aa 00 33 3f 8c 17 33 3f 9e 68 36 3f
       0.6992434 0.6992289 0.69957805 0.71253383
000340 e8 67 36 3f 2a 7f 36 3f b0 09 3a 3f a8 09 3a 3f
       0.712523 0.71287787 0.7267103 0.72670984
000350 e5 20 3a 3f 27 d8 3d 3f cd d7 3d 3f bf ef 3d 3f
       0.72706443 0.7415795 0.7415741 0.7419395
000360 b9 d9 41 3f cc d9 41 3f 42 f1 41 3f e1 22 46 3f
       0.75722843 0.75722957 0.75758755 0.7739697
000370 76 23 46 3f 8a 3b 46 3f 01 e8 4a 3f d3 e8 4a 3f
       0.7739786 0.774346 0.7926026 0.7926151
000380 ca 00 4b 3f bc 1b 50 3f 16 1d 50 3f bf 34 50 3f
       0.7929808 0.8129232 0.8129438 0.81330484
000390 0d 1f 55 3f 9f 20 55 3f e1 37 55 3f 4a 04 5a 3f
       0.83250505 0.832529 0.8328839 0.85162795
0003a0 11 06 5a 3f 75 1c 5a 3f fc d6 5e 3f cb d8 5e 3f
       0.85165507 0.8519967 0.8704679 0.8704955
0003b0 56 ed 5e 3f 4c d9 63 3f 3d da 63 3f ec ec 63 3f
       0.87080896 0.89003444 0.8900488 0.8903339
0003c0 e7 f5 68 3f a5 f6 68 3f a8 07 69 3f 3f 61 6e 3f
       0.9100022 0.9100135 0.9102731 0.93117136
0003d0 6f 61 6e 3f ac 6e 6e 3f de 88 73 3f c5 88 73 3f
       0.9311742 0.9313762 0.9513072 0.9513057
0003e0 72 90 73 3f e2 36 77 3f b2 36 77 3f 89 3b 77 3f
       0.9514228 0.9656812 0.96567833 0.9657522
0003f0 cd 4c 7a 3f 8b 4c 7a 3f 61 4d 7a 3f ea de 7b 3f
       0.9777344 0.97773045 0.9777432 0.98387015

network_body._body_endoder.seq_layers.0.weight f4 [128, 271]
000000 53 9a 4f 3d e9 df 99 3c dd 93 0c bd 2d f8 94 bd
       0.050684284 0.018783526 -0.0343207 -0.07273898
000010 84 f2 8e 3c 98 74 cc 3b f7 ff 45 bc 56 ec f7 3d
       0.017449625 0.006239485 -0.012084953 0.121056244
000020 a9 ef a7 3d b7 3e 2c bd 98 50 2b 3e c1 44 9d 3c
       0.082000084 -0.042051997 0.16729963 0.019197823
000030 af 5a bf 3c ca 61 e2 3d 8f 41 36 bb 51 89 af 3c
       0.023358671 0.11053808 -0.0027810072 0.021427782
000040 8f 63 0f bd 20 bd c0 bc 64 fb 91 bd da b4 09 3e
       -0.035007056 -0.023527682 -0.07128027 0.13447896
000050 4c 06 fb 3c a4 d5 76 bd 98 4c ed 3d 32 93 84 bd
       0.030642651 -0.060262337 0.11586875 -0.06473388
000060 8b f4 c3 bd de 5e 98 3a ef ab e7 bd f5 a6 94 bd
       -0.09568127 0.0011624952 -0.113120906 -0.07258407
000070 c0 7f 00 3d 71 22 b0 bd a2 3b 00 bb 5b f9 2b 3d
       0.031371832 -0.08600319 -0.0019566794 0.04198585
000080 a5 85 f7 bd a9 e3 88 bd e3 ae 33 3d b1 80 6b bc
       -0.120860375 -0.06684048 0.043867957 -0.014373944
000090 aa 01 89 bd 96 5c 40 bd 86 01 b3 bc e8 68 24 3b
       -0.066897705 -0.046963297 -0.021851312 0.0025086943
0000a0 52 34 b0 bc 48 59 3f 3d bc 18 2e 3e 6d 8f 2c bc
       -0.021509323 0.046716005 0.17001623 -0.010532242
0000b0 17 b0 ca bc 15 e2 68 3d 58 6c 47 bd 1a 18 01 bc
       -0.02474217 0.056856234 -0.04868731 -0.007879281
0000c0 b0 26 61 3d 3c ac 85 bb c8 7a e6 3b a1 3a a2 bd
       0.054968536 -0.00407937 0.0070336796 -0.07921339
0000d0 1b 73 27 3c 1c 91 b4 bd dd f1 31 bd ae f6 62 bd
       0.010220314 -0.0881674 -0.04344355 -0.055411033
0000e0 08 62 04 be 70 47 a0 3c 48 dd ee 3c c8 57 e2 bc
       -0.12928021 0.019565314 0.02915825 -0.027629748
0000f0 ff ac 08 3c 87 3f a8 bb df cf 19 bd 1c e1 73 3d
       0.008342027 -0.005134526 -0.037551757 0.059540853
000100 39 34 bf 3c ad 78 2d be 3d ea af bd 05 ed e3 bc
       0.023340331 -0.16940565 -0.08589599 -0.02782298
000110 3c c3 00 bd d3 9f 65 bc 48 d8 83 3d f6 9c c8 bd
       -0.03143619 -0.014015156 0.06437737 -0.09795563
000120 83 fe c4 bc b4 9a ba 3c 65 87 66 bd 66 cd 9c bc
       -0.024047142 0.022778846 -0.056281466 -0.01914091
000130 5c 88 c7 3c 2c 82 95 3c 9e cc 8c 3d 27 6b 21 bc
       0.024357013 0.018250547 0.06874965 -0.009852207
000140 52 01 97 3d 31 ed 04 bd 97 f2 86 3b fa 35 74 bd
       0.07373299 -0.032452766 0.0041182744 -0.05962179
000150 36 5f 39 bc 13 a5 f3 3d 87 25 78 bd df aa 82 3d
       -0.011314204 0.1189672 -0.060582664 0.06380247
000160 f1 b9 29 3d ca 24 77 bd 35 07 c2 bd 98 eb 2f 3c
       0.041437093 -0.06033782 -0.09474031 0.010737322
000170 39 61 23 bd 61 66 18 bd 2e 07 ad bd f8 c7 6e 3d
       -0.03988764 -0.03720701 -0.08448635 0.058296174
000180 76 7a 41 bd 41 b0 25 bd 51 60 c0 3d 9f 2a 2e bd
       -0.04723593 -0.040451292 0.09393371 -0.042521115
000190 73 f3 f4 bc d1 14 70 bd 71 de 22 be 2f a9 73 bd
       -0.029901242 -0.058613602 -0.15905167 -0.059487518
0001a0 8f d1 ef 3c 52 ca 33 be 7d 43 9c bd 50 86 d5 bd
       0.02927473 -0.17557648 -0.0763006 -0.10426009
0001b0 9d f6 18 bd 9a e9 83 3c 8e b0 d0 38 21 6c a3 bd
       -0.037344564 0.0161026 9.951099e-05 -0.07979608
0001c0 8d b7 c2 3c e5 c9 df bc 35 09 fe bd bb ea bc bd
       0.023769164 -0.02731795 -0.124041 -0.09224459
0001d0 fb a5 37 be 23 87 c4 3c 77 a7 0e bd 6c 80 42 be
       -0.1793441 0.02399022 -0.034827676 -0.18994302
0001e0 94 83 f3 3b d6 e1 9e 3d 88 a0 f5 bd d6 10 ce 3b
       0.007431457 0.077579185 -0.119935095 0.006288628
0001f0 33 26 a3 bd 27 74 c5 bd d6 4d 26 3e f0 f4 90 3c
       -0.0796627 -0.09641295 0.1624063 0.01769492
000200 5c 2c 07 be 97 03 5c 3d 25 b6 8f 3d 4f 17 ef bd
       -0.13200516 0.05371436 0.07017163 -0.11674368
000210 e9 71 2b 3c f4 29 fb 3d 1b e2 0d bd 12 5d 0b 3d
       0.01046417 0.12263861 -0.03463946 0.034024306
000220 ba 4f aa 3d 0e 22 0f be ac 95 b3 3d 44 86 81 bd
       0.08315988 -0.13977835 0.08768782 -0.06324437
000230 03 c0 be 3c 14 68 60 3d 61 c2 0f be bb d3 85 3d
       0.023284918 0.054786757 -0.14038993 0.06534525
000240 55 e8 31 3d 35 af 19 3c 58 23 86 3c 53 ba 03 3e
       0.04343446 0.0093801515 0.016374275 0.12864046
000250 42 4b ea bd 14 6d 3f bd f6 b0 b4 bd 91 45 84 bc
       -0.114401355 -0.046734884 -0.08822815 -0.016146453
000260 33 bb ce 3c f7 65 f8 bd c7 a4 bc 3d ca 92 b3 3c
       0.025235748 -0.12128823 0.09211116 0.02192058
000270 2c 03 bc bc 5d c3 ea 3c 75 f3 8b bd 4b 2d 5d bd
       -0.022950731 0.02865761 -0.06833545 -0.053998273
000280 50 d1 3d 3b 4d 5d 7b 3d ae 53 4c bd bb 09 bd 3c
       0.0028963871 0.061368275 -0.04988449 0.023075929
000290 aa d6 97 3a 99 13 b2 bd 8c f8 87 bc 7e 20 92 bc
       0.0011584361 -0.08695144 -0.016598009 -0.01783776
0002a0 67 d8 02 bd 78 ef 67 3c b7 0d 3c 3c 58 6c ed bc
       -0.03194466 0.014156215 0.011477879 -0.028982326
0002b0 e4 e5 26 3e c2 5a 28 bc ab d2 17 bc f3 72 3e 3e
       0.16298634 -0.010275545 -0.009266536 0.18598537
0002c0 37 77 38 3d 5d 2b c4 bd 3a 11 c3 3c 89 f0 49 3d
       0.045035567 -0.095785834 0.023811925 0.049301658
0002d0 b0 f5 7e 3d 02 a5 77 3d a4 e5 8c bd 75 91 e7 3b
       0.062246025 0.060460098 -0.06879738 0.0070669004
0002e0 f8 60 84 3d 8f 73 21 3c ea 87 99 bc 52 53 b3 3a
       0.06463808 0.0098542115 -0.018741567 0.0013681448
0002f0 a2 92 4c 3d 46 84 20 bd 72 0f db 3d 93 f3 0c bd
       0.049944527 -0.039188646 0.10696305 -0.034411978
000300 d3 2a 58 3d 33 b3 e8 bc ef c3 4a bc 8d b8 0e be
       0.052775215 -0.028405761 -0.012375816 -0.13937588
000310 f3 6d 25 3e 72 45 a1 3d dc db b2 3c df 0f d5 3d
       0.16155224 0.07874574 0.021833353 0.10403418
000320 8a f4 d1 3c 1e 0b 95 bd d0 a9 d3 3b 3e a8 21 3d
       0.0256293 -0.07277511 0.006459452 0.03946709
000330 ed 7b 56 3d ac 91 74 3d aa cb 77 3d 85 10 86 3d
       0.05236428 0.059709236 0.060496964 0.065461196
000340 87 6c 9f 3d f6 37 7b 3d 02 6e 42 3d 8d 33 11 3e
       0.07784372 0.061332665 0.047468193 0.14179821
000350 6e 2f a8 bc 98 42 88 bd b8 b8 75 bb 52 8c 6e 3d
       -0.020530429 -0.06653327 -0.0037494134 0.05823929
000360 67 e0 2b be 07 24 79 bc b2 9c f9 3d 32 36 ec 3c
       -0.16784821 -0.0152063435 0.121880904 0.028834436
000370 9f 4c 94 3c 13 ff 86 3c f3 81 bb 3d 68 a3 2e 3e
       0.018102942 0.01647905 0.09155645 0.17054522
000380 10 48 cb 3d a5 38 1e be 6f 38 0c 3c 6f 8c 62 bb
       0.09925854 -0.15451296 0.008558377 -0.0034568568
000390 99 33 ab bc 9d 80 b1 3d 17 9e a8 3d f6 01 36 bd
       -0.020898627 0.08667109 0.08233278 -0.044435464
0003a0 c4 af 80 3d 7c 55 05 3e 14 52 77 bd 83 91 41 bc
       0.06283525 0.13020891 -0.06038101 -0.011814478
0003b0 de 27 20 bd ab 40 7f 3d ab 12 76 3d 94 30 ba 3d
       -0.03910052 0.06231753 0.060076397 0.09091297
0003c0 15 60 39 3c 24 8b be 3c 95 59 90 bb 0a 4e d0 3c
       0.011314412 0.023259707 -0.0044052103 0.025427837
0003d0 94 65 56 3d 43 94 1e 3d ab 01 a1 3c 47 b2 0d 3d
       0.052342966 0.038715612 0.019654116 0.034593847
0003e0 90 14 5b 3d cd bb a1 3d a3 dc b2 3d 54 fe 80 bd
       0.053486407 0.07897148 0.08733489 -0.06298509
0003f0 e6 8c da 3d da 8c 1c 3d 75 5b dc bb 4e 16 c2 3d
       0.106714055 0.038220264 -0.0067247697 0.094769105

network_body._body_endoder.seq_layers.0.bias f4 [128]
000000 c2 9f b7 bd 49 5f aa bd 0f 3e a9 bd 64 1f 99 bd
       -0.08966018 -0.083189555 -0.0826379 -0.074766904
000010 7a fd 4b bb 57 68 8f 3d cf 6c 59 bd eb ce 90 bd
       -0.0031126426 0.07002323 -0.053082284 -0.070707165
000020 51 40 41 bd 51 1d 65 bd d4 31 93 b9 7e ee dc bc
       -0.047180478 -0.05593616 -0.0002807515 -0.02696919
000030 e0 2d 0c 3d d0 e7 c5 bb 72 6a e8 3c 8b 0a c9 3c
       0.034223437 -0.006039597 0.02837107 0.02454116
000040 f5 bb 3c 3d 81 83 04 be 12 1d 69 bd d2 86 cc bd
       0.046077687 -0.1294079 -0.05691249 -0.099866524
000050 85 13 d6 3c a6 77 da bd 43 09 27 bd 28 32 e8 bc
       0.026132355 -0.106673524 -0.040780317 -0.028344229
000060 53 52 8c bd 24 ad 88 bd 75 cc d2 bd b6 9a 0d 3d
       -0.068516396 -0.06673649 -0.10292903 0.034571372
000070 38 51 a9 bd 12 bb ec bd ac 9f 97 bd c6 0f 99 3d
       -0.08267444 -0.11559118 -0.07403502 0.07473712
000080 bc 7f ae bc c2 9e c3 bc 27 5d e5 bd 77 9b 1e bc
       -0.021301143 -0.023879413 -0.11199408 -0.00968062
000090 98 ed 81 3d af 08 24 3b 1a bb 8e bd e9 a1 18 bd
       0.063441455 0.002502959 -0.069692805 -0.037263785
0000a0 4c fa d4 bd 8f ef 0e bd b1 fc 3e be b7 f0 fb bc
       -0.10399303 -0.03489643 -0.18651082 -0.03075443
0000b0 ea 95 d1 3b 0c a4 d7 bd 87 02 a8 3c 9d 72 09 bd
       0.006396045 -0.10529336 0.020509018 -0.03355657
0000c0 cb 96 2c bc 88 02 05 3d cc b6 63 bd 5f cb f9 bc
       -0.010533999 0.032473117 -0.05559425 -0.030492483
0000d0 b9 f4 71 bd f6 8d a8 bd 82 17 f5 3c 3a f4 18 3d
       -0.059071276 -0.08230202 0.029918436 0.037342288
0000e0 a7 14 92 bd 6d 69 f3 bc e5 14 88 bd e9 bc b2 bd
       -0.07132845 -0.029713357 -0.0664461 -0.08727438
0000f0 46 53 1b bd 25 c8 8d bc 9e b1 a6 bc 32 e8 3f bd
       -0.037921213 -0.01730735 -0.020348366 -0.046852298
000100 cf b5 e8 bd dc 1a ca bc c2 67 0d be c6 a8 36 3d
       -0.11362802 -0.02467101 -0.13809112 0.04459455
000110 54 f2 d0 ba a2 e6 6b bd 62 8c 1d bd 38 1c a4 bd
       -0.001594136 -0.057592995 -0.038463958 -0.08013195
000120 b5 12 6b bb ef 1e f5 bc c2 d0 0e bd 45 50 b7 bd
       -0.0035869305 -0.029921977 -0.034867056 -0.08950857
000130 c9 0b 2e bd 12 86 3e bd 99 82 bf bd c9 df 15 be
       -0.042491708 -0.04651458 -0.093510814 -0.14636149
000140 1b 16 44 be 2b 78 64 bd fb 37 26 bc f0 82 35 bd
       -0.19149058 -0.055778664 -0.010145183 -0.044314325
000150 ed 02 fb bd 4f ff 46 bd 95 33 11 3d a9 f5 e2 bd
       -0.122564174 -0.048583325 0.035449583 -0.11082012
000160 01 0a 05 bc 4f 42 dc bd 76 b1 7e bc 3c 95 b1 bd
       -0.008120061 -0.10754835 -0.01554524 -0.08671042
000170 fe 55 04 3d 03 66 e9 3c 9c 26 b6 bd 7f 60 b6 3c
       0.03230857 0.028491026 -0.08894083 0.02226281
000180 3e 70 1f bc f2 e4 6b 3d fc 80 87 bd 9d ec 1b 3d
       -0.0097313505 0.057591386 -0.06616399 0.03806745
000190 41 df a9 bd 56 33 3f bd 99 36 a0 3b d9 95 c5 bc
       -0.082945354 -0.046679817 0.004889321 -0.024119304
0001a0 35 35 d5 bd 1b 92 fc 3a e2 96 5b bc d7 66 a8 bd
       -0.10410539 0.0019269617 -0.0134026725 -0.0822274
0001b0 45 c5 07 3d 5f d1 d8 bc 70 3d 86 3c eb b4 3f 3b
       0.033147115 -0.026467023 0.016386718 0.0029252123
0001c0 19 b8 93 3c e8 3b da bd ce c7 31 bd 28 f7 a8 bc
       0.01803212 -0.106559575 -0.04340344 -0.020625666
0001d0 ca 8f 92 3b fd 8e 24 bd 5e 0d 70 bd 6e 74 a1 3c
       0.0044727074 -0.040175427 -0.058606498 0.019708838
0001e0 64 fa 12 bd 38 3b dd bd 46 dc 9c bd 38 71 37 3a
       -0.035883322 -0.10802311 -0.07659201 0.0006997767
0001f0 22 44 69 3d 85 63 08 bd cc 40 f4 3d 29 ea f4 3b
       0.056949742 -0.033298034 0.119264215 0.007474203

network_body._body_endoder.seq_layers.2.weight f4 [128, 128]
000000 0f 11 16 3b 25 b2 54 be 84 9a 87 bd e3 5c b3 3d
       0.0022898351 -0.20771082 -0.066212684 0.08757951
000010 1a d0 c5 bd 21 27 3f 3d 8f d8 61 be 58 90 66 be
       -0.09658833 0.046668176 -0.22055267 -0.22516
000020 32 c1 f6 3c c9 32 74 bd f2 47 93 ba e7 4f 60 3d
       0.03012142 -0.059618745 -0.0011236651 0.0547637
000030 38 68 81 bd 07 ff a4 bd 2b 91 b6 bc ca 48 86 3e
       -0.06318706 -0.08056455 -0.022286018 0.2622741
000040 63 a8 b5 3d 8c 61 47 be be 6b 4c be ea 98 23 bd
       0.08870008 -0.19470805 -0.19962975 -0.039940752
000050 f4 7e 81 bd 97 b8 19 be 91 2d 0a be 12 92 57 3e
       -0.063230425 -0.15011822 -0.13493945 0.21051815
000060 af 3e 67 bd fa fe fd bd f8 fc 22 3e 1c 12 9f 3c
       -0.056456264 -0.124021485 0.15916812 0.019417815
000070 7c 6d a6 3d 26 f9 06 be 3f 59 d4 bd a4 c2 d5 3d
       0.08126351 -0.1318098 -0.10368585 0.104375154
000080 12 e7 43 bd b3 a6 0d 3d 31 85 88 be 73 fa 50 3e
       -0.047827788 0.034582805 -0.26664117 0.20408039
000090 ca 3c f3 bd 0d 59 7f 3d 66 ba 94 bc 41 78 8b 3c
       -0.11876829 0.062340785 -0.018155288 0.017025115
0000a0 bb ba c3 3d ea 66 26 3e 16 80 32 be 28 92 8e bd
       0.095571004 0.16250196 -0.17431673 -0.06961471
0000b0 49 76 0c be 14 ab 91 be 5f 60 05 bd bb 10 0d be
       -0.13716997 -0.28450835 -0.03256261 -0.13775913
0000c0 77 78 bb bc 60 2e 77 3d b5 11 91 bd c0 97 c3 3c
       -0.02288459 0.06034696 -0.070834555 0.023876071
0000d0 c0 d1 d7 bc fb 34 1c be 36 03 16 3d e7 5a 90 3c
       -0.026345134 -0.15254585 0.036624156 0.01762147
0000e0 11 f2 1a 3d fd b2 9d bd f8 0f 89 bd 6b 2a b8 bd
       0.03782851 -0.07700155 -0.06692499 -0.089924656
0000f0 16 76 ab 3d f1 70 95 be 2f 50 03 be c5 58 74 3d
       0.083721325 -0.2918773 -0.12823556 0.05965497
000100 a3 93 4e bc f5 1b b2 bb 72 49 ba bd 62 23 4e bd
       -0.0126084415 -0.0054354616 -0.0909604 -0.050326712
000110 ab 07 12 3d af 52 65 bd 7b f8 04 3e cc 5c 17 bd
       0.035651844 -0.055987056 0.12985413 -0.036953732
000120 9e 00 17 3d 0d a7 c8 3d 16 8c 31 3e 64 e6 15 be
       0.036865823 0.097974874 0.17338595 -0.14638668
000130 fa dd df 3d 05 24 41 bc 64 c4 4d bd 51 ef da bd
       0.109310105 -0.011788373 -0.05023612 -0.10690177
000140 0c b1 f5 bd f1 d5 0e be 1b cd 03 bd 27 e4 03 bd
       -0.1199666 -0.139488 -0.032178026 -0.032200005
000150 1b e6 14 3e 93 fc b1 ba ef dd ab 3d c5 c1 d5 bc
       0.14540903 -0.0013579301 0.0839194 -0.026093373
000160 a1 5c c5 bc de ca 63 be 36 08 e5 bd ec dd df bd
       -0.02409202 -0.22245356 -0.11183207 -0.10931
000170 d2 be 2e 3d a3 b9 a6 bd c0 b7 6f 3d 8d 28 31 3c
       0.04266245 -0.08140876 0.058524847 0.010812891
000180 e0 34 cc bd 26 66 45 3d 5e 2e b5 bd 84 89 03 3d
       -0.099710226 0.04819312 -0.088467345 0.032113567
000190 dc ff be be 51 69 d9 bd 41 02 41 3d 2a b9 3d bd
       -0.3730458 -0.10615791 0.04712129 -0.046319164
0001a0 f8 56 6a be 62 24 97 bd 2c 24 62 3d ed dd 9a bd
       -0.22884738 -0.07379986 0.055210277 -0.0756186
0001b0 07 c4 d4 bd 0a c1 1c 3d 4f 01 27 bd df 6b 48 bd
       -0.10388952 0.038270034 -0.040772732 -0.048931
0001c0 dd de 93 bd 97 58 4f 3e f8 a6 40 be 5a 61 a7 bd
       -0.07220242 0.20248638 -0.18813694 -0.08172865
0001d0 12 66 af 3c 4a 1b 8e be 48 70 8f 3d f6 a8 e5 3d
       0.021410976 -0.27755195 0.07003838 0.11213867
0001e0 00 25 d3 3d 33 20 79 3d c7 72 ee bd bd 1c db 3c
       0.103097916 0.060821723 -0.11642986 0.026747102
0001f0 d9 4b 52 3e 46 69 5c bd 02 37 8d 3d 1d b5 20 3e
       0.20536746 -0.053811334 0.068952575 0.15694089
000200 4e 37 47 bd 1a 78 bb 3c 76 e6 f0 bc 63 32 5a 3d
       -0.048636727 0.022884417 -0.029406767 0.05327071
000210 04 7f 35 bd 16 83 63 3d 94 74 6d 3d 07 6c 76 bd
       -0.044310585 0.055544935 0.057972506 -0.060161617
000220 8a 8b a6 bc 60 d5 07 be 1c 2d 12 3e c3 0a 37 be
       -0.02033021 -0.1326499 0.1427502 -0.17875199
000230 fe 48 9c bd 23 6d 96 bd 57 7a 18 be 8d d1 02 bd
       -0.0763111 -0.07345035 -0.14890419 -0.031938124
000240 e1 64 62 bd f3 65 a5 bd 41 83 39 bd 1d be 96 bd
       -0.055271987 -0.08076086 -0.04529119 -0.0736048
000250 fa 11 0d 3c fc 01 18 bd 22 45 f0 3d 0f f9 39 bd
       0.008610243 -0.037111267 0.11731936 -0.045403536
000260 32 ad 6e be 6c c1 97 3d ee 18 6d be 0a c4 68 be
       -0.23308256 0.07409939 -0.23154041 -0.22731033
000270 e6 f6 5d 3d 4b 83 5b bd de af 87 3d 1c b5 51 3b
       0.05419054 -0.053592008 0.06625341 0.0031998819
000280 89 4a ec 3d 9c cd f0 bd d1 3d b4 bd a1 af f7 bd
       0.11537654 -0.11757967 -0.08800853 -0.120940454
000290 70 64 69 3b f1 66 61 3d 5e e6 b9 bd 78 48 d1 bd
       0.0035612844 0.055029813 -0.09077142 -0.102189004
0002a0 15 51 e5 3b 51 fb 25 bb 21 98 0c be b5 51 ca bd
       0.006998191 -0.0025326798 -0.13729908 -0.09878866
0002b0 e1 31 14 be 6c b3 b1 be 15 02 c9 3d 3e 8c 09 3d
       -0.14472152 -0.347072 0.0981485 0.03358101
0002c0 72 30 ae bd 0e f1 a9 bd b7 b8 c4 3d e9 88 8b 3d
       -0.08505334 -0.08297931 0.09605544 0.06813223
0002d0 5e bf af 3d 62 e2 46 3e d4 74 8f bd 3b 36 e8 bc
       0.08581422 0.19422296 -0.07004705 -0.028346172
0002e0 f2 c0 9e bd 11 b7 9c bc 47 c4 e3 bd 39 4e 9d 3d
       -0.07751645 -0.019130262 -0.11121421 0.076809354
0002f0 2c 14 13 bd 40 34 a2 3d ac c6 29 bc cf 24 db 3c
       -0.03590791 0.07920122 -0.0103623085 0.02675095
000300 57 2f 20 be ec 0a 4c bd 46 27 f9 bd 7f a9 2b bd
       -0.15643059 -0.049815103 -0.12165694 -0.04190969
000310 30 bb 96 3c db b7 91 bd c4 7d 22 be 12 5b e7 bd
       0.018399805 -0.07115146 -0.15868288 -0.11296667
000320 0b c1 6d 3e d1 2a 36 bc ed 13 b2 3d fe 3d 4f 3d
       0.23218171 -0.011118607 0.08695207 0.05059623
000330 04 5a 90 bc 13 51 77 3c 3f ab 35 be 13 15 09 be
       -0.017621048 0.015095013 -0.17741106 -0.13386945
000340 18 4a e1 bd 13 18 de 3d ad 30 e0 bd 60 e8 c1 bd
       -0.110004604 0.108444355 -0.10946784 -0.0946815
000350 8a c7 76 bb 69 f8 f5 3a 62 65 b2 bc 86 10 52 be
       -0.0037655556 0.0018766049 -0.021776859 -0.20514116
000360 7a 0d 6b 3d da 30 4a bd a4 37 87 3c 1d d4 2c be
       0.0573859 -0.049362995 0.016506024 -0.1687779
000370 b3 83 2e 3d 06 4e 85 3c 41 ef 2f 3c 98 0f 10 3e
       0.042606067 0.016272556 0.010738195 0.14068449
000380 fb f7 c6 bc b1 0d e3 bd de 11 9e bc a6 1c e7 bc
       -0.024288168 -0.11086596 -0.01929563 -0.028211903
000390 85 66 dc bd 29 37 0c be ff ce c5 3d c8 26 87 bd
       -0.107617415 -0.13692917 0.09658622 -0.06599194
0003a0 fe 2b 00 bc bf 0c ba 3d 72 69 90 3d f6 f0 22 bd
       -0.007822989 0.090844624 0.07051362 -0.03978058
0003b0 46 9b 71 bd 39 6b d0 3c cb db 9d bd 23 74 02 3e
       -0.05898597 0.025441753 -0.07707938 0.12739615
0003c0 57 a3 ee 3b 67 29 43 bd 8c e0 a4 bd 88 75 88 be
       0.007282655 -0.047646906 -0.080506414 -0.2665217
0003d0 14 f5 02 bd 84 4a 73 bd 50 d3 1d be e6 18 c0 3b
       -0.031972006 -0.059397236 -0.1541264 0.005862343
0003e0 ef f4 e1 3d 69 20 df 3c 01 16 c0 bd 13 0a 20 be
       0.110330455 0.027237134 -0.09379197 -0.15628843
0003f0 7e 9f f5 3c 19 35 bb bd ae 14 88 bd 24 9e 17 3e
       0.029983278 -0.09140987 -0.06644569 0.1480642

network_body._body_endoder.seq_layers.2.bias f4 [128]
000000 95 65 ff 3c 77 77 5a 3b f5 ae 43 bd a3 84 3a 3d
       0.031176368 0.0033335367 -0.047774274 0.04553665
000010 3b 1e 8d 3c 12 82 81 bb 5f 2a 38 3d cc 04 47 b9
       0.01722633 -0.003952273 0.044962283 -0.00018979906
000020 c3 62 3d bd 3b 9c bd bc d2 c6 42 bc a8 30 fa bc
       -0.046236765 -0.023145786 -0.011888223 -0.03054078
000030 51 ea b6 3c 84 34 15 bd 4f 9e bf bc 39 08 2b bc
       0.022328528 -0.036427036 -0.023390917 -0.010438972
000040 98 60 f2 3c de 33 9a 3b 05 2f 78 bb e7 d2 84 3d
       0.029587075 0.00470589 -0.0037869823 0.06485539
000050 de 6c 1c bd 98 05 9c 3d 10 88 70 bc 3c cf cb bd
       -0.03818976 0.076182544 -0.014680877 -0.09951636
000060 a1 a7 cc bc a3 7e 8b bd 3b c2 f7 bd b8 69 5d 3d
       -0.024982275 -0.068112634 -0.120975934 0.0540559
000070 df 1b b9 bb 30 05 85 3d 8c 11 17 bd 0b a3 2c 3b
       -0.0056490744 0.0649513 -0.03688197 0.0026342298
000080 35 54 8b bd d5 ba a8 bc 3d 76 f9 bc 8f e9 b9 bc
       -0.068031706 -0.020596901 -0.030451888 -0.022694377
000090 e5 17 c0 3c 2d 85 a5 3b d8 ab 1e bd c0 55 0c bd
       0.023448894 0.005051276 -0.0387381 -0.034261465
0000a0 d8 69 1a bc 7c 8f c2 3d 20 1d 0b bd bf e3 b2 bd
       -0.009424649 0.09500024 -0.033963323 -0.08734845
0000b0 7f d2 7c 3d 7f a0 89 bd 63 56 e7 3c 11 08 74 3c
       0.061724182 -0.06720065 0.028239435 0.014894501
0000c0 fb 42 85 3d 9c 1e c5 b9 80 8b 2c bd 6e 97 82 3a
       0.06506916 -0.00037597574 -0.042125225 0.0009963342
0000d0 aa 0d 54 bd a7 59 76 bc 14 87 a1 3d ed f8 8d bc
       -0.051770844 -0.015036023 0.07887092 -0.017330611
0000e0 7d 59 c3 bc 4e ba c6 3d 83 83 6b bd e3 ea 2e bc
       -0.023846382 0.097035035 -0.057498466 -0.010676119
0000f0 4b 4b 5a bc 4e 99 8d bd 35 59 32 bd 47 4b 52 3c
       -0.013323615 -0.06914006 -0.043542106 0.01283533
000100 3a 49 69 bd 07 60 a6 bc 22 9e a4 3c c0 72 cf bd
       -0.0569546 -0.020309461 0.020094935 -0.10129309
000110 4b af 11 bc b5 9f 48 bd 0d 65 1d bc a6 75 9e bc
       -0.008891891 -0.048980433 -0.009606612 -0.019343209
000120 82 2f 35 bd ce 1b 25 bd 7b 7e 89 bd ce ca a0 bd
       -0.04423476 -0.04030972 -0.06713577 -0.07851182
000130 00 19 89 3d d9 09 3d bd 14 a4 c5 3b 7c b1 b8 bd
       0.066942215 -0.04615197 0.0060315225 -0.090182275
000140 4b 39 fd bc 76 c2 57 bd 6b 5c d0 3c 9a 71 14 3c
       -0.030911108 -0.052675687 0.025434693 0.009060288
000150 4b c4 2c 3d 5c 12 3c bd e6 fc 5d bd 93 b8 7d bb
       0.042179387 -0.045915946 -0.05419626 -0.003871475
000160 22 7d 15 bd 2f 6e 6f 3d 75 42 06 bc 57 fd ec bc
       -0.03649629 0.05845469 -0.0081945555 -0.028929396
000170 90 1c 83 bd a6 9d e9 bd a9 da 42 bd fe bb 66 3d
       -0.06401932 -0.11407022 -0.04757181 0.056331627
000180 69 64 80 bc f8 50 02 bc 1a 00 f3 bd bc 9d 4f bd
       -0.01567288 -0.007953875 -0.11865254 -0.050687537
000190 10 33 5e bc b7 35 3b bd 57 53 39 bd 30 2a 9f bc
       -0.013561979 -0.045705523 -0.045245495 -0.019429296
0001a0 b5 19 be bc da 78 49 bd 7d c2 99 bd 6f b6 3f bd
       -0.023205617 -0.04918752 -0.07507799 -0.04680484
0001b0 3e fd 57 bd 13 da 9c bd 78 81 af bd 5b 3c 93 bc
       -0.052731745 -0.07658782 -0.08569616 -0.017973116
0001c0 c5 24 3b bd e1 1d b9 bd 9b 05 1c bd 10 a5 12 be
       -0.045689363 -0.09038902 -0.038091283 -0.14320779
0001d0 31 27 a7 bd 82 06 bd 3d 00 b0 64 bd a3 2e b7 3a
       -0.08161772 0.09229757 -0.05583191 0.0013975691
0001e0 a8 72 2a 3d c4 01 ab bd c2 bc 22 bd 98 78 8a 3c
       0.04161325 -0.08349946 -0.039730795 0.016903207
0001f0 84 4f 9f bd 7f 69 8d 3d 15 48 f7 39 f8 ba 4d 3c
       -0.07778838 0.069048874 0.00047165217 0.012556784

action_model._continuous_distribution.log_sigma f4 [1, 2]
000000 f4 58 ac bf 2c 70 aa bf
       -1.3464646 -1.3315482

action_model._continuous_distribution.mu.weight f4 [2, 128]
000000 09 eb be 3c 4a 1b f9 bb af 3d 53 b9 e7 6a 95 bd
       0.023305433 -0.00760213 -0.00020145507 -0.07295781
000010 49 e5 88 bc 56 4e 9e bc 57 07 da bd f6 df fa 3c
       -0.016710894 -0.019324463 -0.10645931 0.030624371
000020 b5 e4 de 3c cf 46 01 bc 50 a8 14 bc 7c 2a 3d bd
       0.027208665 -0.007890417 -0.009073332 -0.046183094
000030 87 21 0b bc a8 23 87 3d 3a 17 48 3c 48 a3 f0 3c
       -0.00849188 0.06598598 0.012212569 0.029374734
000040 58 8a 8f 3d 9f 1b 41 3b 85 d2 44 3d 55 58 49 bd
       0.07008809 0.0029465926 0.04805233 -0.049156506
000050 0e db 46 3d 21 68 92 3c 93 46 e0 3d 4c 36 e7 3c
       0.04854875 0.017871918 0.10950961 0.028224133
000060 44 c7 7c bd cc 72 44 bc 8b 3a 99 ba e7 db 80 bc
       -0.061713472 -0.01199026 -0.0011690421 -0.015729858
000070 9c ec 5f bd d5 3a ae 3c b9 9c 9a 3d 4c 34 94 ba
       -0.054669008 0.021268288 0.07549424 -0.001130709
000080 ed 94 1b bc 12 bf 51 3d 13 ac f8 3d 80 f0 3a bd
       -0.009495956 0.05120761 0.121421956 -0.045639515
000090 b8 44 3f bc 91 be 45 3d 2b 23 ff bc fe b2 5d 3d
       -0.011674099 0.04827744 -0.0311447 0.05412578
0000a0 f6 26 78 bd 86 d1 18 bc 52 6d ac 3b 3b 27 a8 bc
       -0.06058403 -0.009327298 0.0052620554 -0.020526519
0000b0 20 e4 68 bb 08 4a a6 bd e8 1d b5 bb b7 d9 23 3d
       -0.0035536364 -0.08119589 -0.0055272467 0.04000255
0000c0 3b 7a f8 3d bd ec 19 bc 09 e7 dd 3d c7 63 f3 bd
       0.121326886 -0.009394822 0.10835082 -0.118842654
0000d0 78 22 cb 3c 0c 7f 15 3d bd f3 12 bd 8d b1 0e 3d
       0.02479671 0.036498114 -0.03587698 0.034837294
0000e0 51 f0 83 bc ac f4 76 bd 6c 3b 52 3d e0 65 f1 b8
       -0.016105803 -0.06029193 0.0513262 -0.00011510751
0000f0 fa e4 94 3c a0 84 10 3d de 66 4b bd 79 aa fe bc
       0.01817559 0.03528273 -0.04965865 -0.031087147
000100 c8 a4 8b bd 39 03 4d 3d 8c 84 c3 3d 49 56 d5 3b
       -0.06818539 0.0500519 0.09546766 0.00651053
000110 1c 13 e1 bb e1 77 b4 bc 5b 80 3f 3d 44 4e 25 3e
       -0.006868733 -0.022029819 0.04675327 0.16143137
000120 87 03 0f 3d 97 5f 3b bd a5 fd 83 3d 24 2e 8f bd
       0.034915473 -0.04574546 0.06444863 -0.069912225
000130 51 39 83 bd 7c a5 53 3d b1 fb 33 3d 23 fc d3 bb
       -0.064074166 0.05167149 0.043941204 -0.006469266
000140 59 ab 76 3d 37 8b 1f bd 2a 56 32 3d a8 49 08 bd
       0.060222004 -0.038951125 0.043539204 -0.03327337
000150 35 df a5 3d b0 ed 11 3d 68 fe e9 3c 0f 2c 7d 3a
       0.08099214 0.035627067 0.028563693 0.00096577493
000160 71 f2 a4 bd 82 ba 64 3d c7 fa a3 3c e7 0f f1 3c
       -0.080540545 0.05584193 0.02001704 0.029426528
000170 d0 70 60 bb eb de 8a bc 4b 7b 41 bd 44 d5 e8 3c
       -0.003424693 -0.016951999 -0.047236722 0.028422005
000180 f1 ea 88 3d 3d 2b bb bc 26 bc 7a bd 7e d1 3f 3d
       0.066854365 -0.022847766 -0.06121459 0.046830647
000190 57 d4 88 bc 9a 51 a7 3b 5f 15 00 bd 10 23 bf 3c
       -0.016702814 0.005106163 -0.03127038 0.023332149
0001a0 60 6c 65 bc b9 88 28 3d 3b 5f af 3b 9d 73 99 bd
       -0.014002889 0.041146014 0.0053519285 -0.074927546
0001b0 7e 65 66 bd 4e 59 18 3d 73 0f 03 bd ce c1 82 3d
       -0.056249134 0.037194543 -0.031997155 0.063846216
0001c0 fe 70 5f 3c e7 74 85 bc b9 14 a3 bc 21 28 0c 3c
       0.013637779 -0.016291095 -0.019907342 0.008554489
0001d0 01 df 8d bc 6f 6c 06 3d 7d f2 a4 3d 6a 0e 80 3d
       -0.01731825 0.032818254 0.080540635 0.06252749
0001e0 6e db 3f bd e1 01 26 3c 36 6f aa bd 6e 6a 6e 3d
       -0.046840124 0.010132284 -0.08321993 0.058206968
0001f0 12 e3 9a bc 97 bb 30 bd 69 d8 5b 3d 38 a2 9f 3d
       -0.018907104 -0.04314765 0.05367318 0.07794613
000200 16 0b 25 3d 33 ab 56 3b 1b e6 0b 3a 1a fd cc 3c
       0.040293775 0.0032755851 0.00053367176 0.025023032
000210 38 16 34 3c 1c b2 8d bd 4c 42 81 3c 2f 46 09 3d
       0.0109916255 -0.06918737 0.015778683 0.033514198
000220 17 38 e5 3a 1b 49 04 bd 28 2e 3c bd c9 dc 51 bd
       0.001748803 -0.03229628 -0.045942456 -0.051235948
000230 d4 d2 98 bd 05 e1 3f 3d 65 4d 9b bd 2e be 7f bd
       -0.07462087 0.046845455 -0.07583121 -0.06243723
000240 f0 62 bc 3c ba db 6f 3b 19 a1 9a bd c0 4b 27 3d
       0.022996396 0.0036599473 -0.07550258 0.040843725
000250 16 33 26 bd 24 bc dd 3c 61 2e 8b bd c2 79 3c 3d
       -0.040576063 0.027067252 -0.067959554 0.046014555
000260 0f d5 90 bd 78 ff 94 bb d8 3d ce bb 1d 06 1e 3d
       -0.07071888 -0.004547056 -0.0062939934 0.03858005
000270 35 2e 56 bb 16 b6 47 3d 99 7d 71 bd 85 6f 2e bd
       -0.003268135 0.048757635 -0.05895767 -0.042586822
000280 21 06 9b 3d 05 ef 52 bd 1f 04 bc bc 32 92 05 be
       0.07569528 -0.051497478 -0.022951184 -0.1304405
000290 63 21 bc 3c 18 30 be bd 79 0c 6b bd 40 e9 88 bd
       0.022965139 -0.09286517 -0.05738494 -0.06685114
0002a0 9c 1a f2 bc de f5 50 3d 3a 46 71 bc 76 c7 30 3d
       -0.029553704 0.051015727 -0.014726216 0.04315897
0002b0 c3 51 1d 3d af 8e e0 bc 75 ed d4 bd 5d cf ef 3c
       0.038408052 -0.027411787 -0.10396854 0.029273683
0002c0 4a 05 16 3d 99 49 1a bc 98 1a 4b 3c 2a 94 bd bd
       0.036626138 -0.009416961 0.012396477 -0.09256776
0002d0 1f 99 0a bd 82 ce c0 3c df 51 79 3d 67 07 c3 bc
       -0.033837434 0.02353597 0.060869094 -0.02380724
0002e0 9d 6b b5 bc b6 9e ac 3c e1 bb e0 bc 7c 54 a1 bd
       -0.02214604 0.021071773 -0.027433338 -0.07877442
0002f0 4f 7c 14 bc e9 40 95 bd 9b 00 1c bd 0f c2 05 3d
       -0.009062841 -0.07287771 -0.038086515 0.03265577
000300 4d 23 bc bd 00 3a 4f bd 61 6b 20 be 1d 57 0e 3d
       -0.091864206 -0.050592422 -0.15665962 0.034751046
000310 84 6b d5 bb a7 65 1f bd 74 d3 d2 bc 8e 04 8a bb
       -0.006513061 -0.038915303 -0.025735594 -0.0042119687
000320 4e c7 fc 3c 01 9f 94 3b 99 0a 18 3d 3b 31 c3 bc
       0.030856755 0.0045355563 0.03711948 -0.023827186
000330 5b 20 91 3d dd 74 3b bd 0e df cb bd 21 98 a3 3b
       0.070862494 -0.045765746 -0.09954654 0.0049925004
000340 cc 18 8e 3c 44 f4 87 bc e5 6c 20 bd a1 14 9b 3c
       0.017345808 -0.016595967 -0.03916635 0.018930735
000350 e1 8f b3 3c 5c de af 3c ea a1 0f bd e4 18 5c bd
       0.021919193 0.021468334 -0.035066523 -0.053734675
000360 be 5f 85 bd 67 05 57 3d 14 29 f6 bd e4 07 85 bd
       -0.06512402 0.052495386 -0.12019554 -0.06495646
000370 03 e9 0e b9 c9 fa cb 3b 24 7f ab bc cc 4d ad 3d
       -0.00013628979 0.0062249643 -0.020934649 0.08462104
000380 d0 5d 92 bd 61 84 d9 3c ec ed fb b9 48 be 45 bd
       -0.071467996 0.026552381 -0.00048051716 -0.04827717
000390 b0 d9 b6 bd 1a 57 3e bd 51 32 fb bb f4 71 67 bd
       -0.08928239 -0.046469785 -0.0076659103 -0.05650516
0003a0 52 2e 49 bc 7d 81 13 bd 9b 6f 55 bc 5f de a5 bc
       -0.01227911 -0.03601216 -0.013027097 -0.020247636
0003b0 6e b8 4a bd 17 e1 65 3d 45 e1 a5 3c 59 72 ba bd
       -0.049492292 0.056122866 0.020249018 -0.09103841
0003c0 2f 23 8f bc 18 56 7f bc c9 c0 09 3a f0 be 2b bd
       -0.017472832 -0.015584491 0.00052548625 -0.04193014
0003d0 52 27 e4 3b 6f d5 d3 3d 23 1b 93 ba 73 d9 c7 bd
       0.006962695 0.103434436 -0.0011223297 -0.09758272
0003e0 d5 70 bd 3c 4b 52 10 bd 92 49 3d bd 2b d0 92 3c
       0.023125092 -0.03523473 -0.04621274 0.017921528
0003f0 1b a9 4d bc 15 64 58 3d fd d8 1a bc 80 c7 3c bc
       -0.012552525 0.05282982 -0.009451148 -0.011522174

action_model._continuous_distribution.mu.bias f4 [2]
000000 8e 61 c2 bb 49 b8 5e 3d
       -0.0059320396 0.054374967

onnx::Div_51 f4 [271]
000000 be 39 85 3e b4 39 85 3e 90 40 85 3e ca 77 87 3e
       0.26020616 0.26020586 0.2602582 0.2645858
000010 b0 77 87 3e 45 7f 87 3e 14 51 8a 3e ed 50 8a 3e
       0.26458502 0.26464286 0.27014983 0.27014866
000020 fb 58 8a 3e 3c 98 8e 3e c2 97 8e 3e ce 9f 8e 3e
       0.27021012 0.2785052 0.27850157 0.27856296
000030 0e 0c 96 3e e5 0b 96 3e 16 13 96 3e 58 f2 9d 3e
       0.29306072 0.2930595 0.29311436 0.30848956
000040 33 f2 9d 3e 49 f8 9d 3e a3 2f a5 3e 93 2f a5 3e
       0.30848846 0.3085349 0.32262906 0.3226286
000050 76 34 a5 3e 6b 6a ab 3e cb 69 ab 3e b7 6d ab 3e
       0.32266587 0.33479628 0.3347915 0.33482143
000060 6c b7 b0 3e c9 b6 b0 3e 07 b9 b0 3e 09 25 b5 3e
       0.3451494 0.34514454 0.34516165 0.35379818
000070 97 24 b5 3e 89 25 b5 3e 07 c2 b8 3e 67 c1 b8 3e
       0.35379478 0.353802 0.3608553 0.36085054
000080 e2 c0 b8 3e 21 74 bb 3e 4c 73 bb 3e 00 72 bb 3e
       0.36084658 0.36612037 0.36611402 0.36610413
000090 4d 71 bd 3e 93 70 bd 3e 3a 6e bd 3e 28 fe be 3e
       0.37000504 0.3699995 0.3699816 0.3730328
0000a0 a0 fd be 3e 7e fa be 3e 86 3f c0 3e b0 3f c0 3e
       0.37302876 0.37300485 0.37548465 0.3754859
0000b0 c5 3b c0 3e 5e 3c c1 3e 93 3c c1 3e f5 37 c1 3e
       0.375456 0.3774137 0.37741527 0.37738004
0000c0 63 0c c2 3e 9a 0c c2 3e e8 06 c2 3e c1 b8 c2 3e
       0.37900075 0.3790024 0.37895894 0.3803158
0000d0 06 b9 c2 3e be b2 c2 3e d8 2f c3 3e 5a 30 c3 3e
       0.38031787 0.38026994 0.3812244 0.38122827
0000e0 32 29 c3 3e 35 80 c3 3e b4 80 c3 3e c0 78 c3 3e
       0.38117367 0.38183752 0.3818413 0.38178062
0000f0 8f ad c3 3e 54 af c3 3e 1b a6 c3 3e 02 a9 c3 3e
       0.38218352 0.38219702 0.38212666 0.3821488
000100 57 aa c3 3e 2b a0 c3 3e 32 78 c3 3e 2e 79 c3 3e
       0.38215896 0.38208136 0.3817764 0.3817839
000110 b9 6d c3 3e 44 0e c3 3e d0 0e c3 3e fa 01 c3 3e
       0.3816965 0.3809682 0.3809724 0.38087445
000120 4b 5d c2 3e 87 5d c2 3e 92 4e c2 3e 3d 60 c1 3e
       0.37961802 0.3796198 0.3795057 0.37768736
000130 23 60 c1 3e 13 50 c1 3e d8 f7 bf 3e 55 f7 bf 3e
       0.3776866 0.37756404 0.37493777 0.37493387
000140 81 e5 bf 3e 2f 13 be 3e 72 13 be 3e bb ff bd 3e
       0.37479785 0.3712401 0.3712421 0.3710917
000150 06 b2 bb 3e 66 b2 bb 3e 65 9c bb 3e 9c ae b8 3e
       0.3665926 0.36659545 0.36642757 0.36070716
000160 97 ae b8 3e 64 96 b8 3e aa e6 b4 3e dc e6 b4 3e
       0.360707 0.3605224 0.35332233 0.35332382
000170 fe cb b4 3e 24 2c b0 3e 68 2d b0 3e c6 0f b0 3e
       0.35311884 0.34408677 0.34409642 0.34387034
000180 a5 1a aa 3e e3 1b aa 3e 72 fb a9 3e 80 6a a2 3e
       0.33223453 0.332244 0.3319965 0.31721878
000190 4d 6b a2 3e 7c 48 a2 3e 1b aa 98 3e 22 ad 98 3e
       0.3172249 0.31695926 0.2981728 0.2981959
0001a0 1c 89 98 3e c7 aa 8b 3e 8f ac 8b 3e 50 87 8b 3e
       0.29792106 0.2727873 0.2728009 0.27251673
0001b0 4f da 71 3e fb dd 71 3e 3d 9a 71 3e be f5 3f 3e
       0.23618434 0.23619835 0.23593993 0.18746087
0001c0 6d f8 3f 3e bd c6 3f 3e 10 36 e7 3d 9b 3c e7 3d
       0.1874711 0.18728156 0.112896085 0.112908565
0001d0 3a 0c e7 3d 03 be 94 3d 99 c8 94 3d 49 c8 94 3d
       0.11281629 0.07262804 0.072648235 0.07264764
0001e0 52 f2 42 3d ab 14 43 3d 16 57 43 3d 54 ac 13 3d
       0.047594376 0.047627132 0.047690473 0.036053017
0001f0 61 d8 13 3d 15 27 14 3d 32 e9 ee 3c 35 56 ef 3c
       0.036095027 0.036170084 0.02916393 0.029215911
000200 a5 e5 ef 3c 2c f9 c3 3c ff 7f c4 3c 78 fb c4 3c
       0.029284308 0.023922525 0.023986815 0.02404569
000210 32 30 c0 3c 99 b7 c0 3c f7 15 c1 3c 93 bf 07 3d
       0.023460481 0.023525046 0.023570044 0.033141684
000220 fd ef 07 3d 45 0b 08 3d 06 b5 83 3e ed b4 83 3e
       0.033187855 0.033213872 0.25724047 0.25723973
000230 af ba 83 3e 3a 1f 84 3e 86 1f 84 3e 7b 23 84 3e
       0.25728366 0.25805074 0.258053 0.2580832
000240 6c b2 89 3e 98 b2 89 3e ba b3 89 3e ad 99 95 3e
       0.26893938 0.2689407 0.26894933 0.29218808
000250 22 9b 95 3e e3 99 95 3e 0e 8a 9c 3e 15 8c 9c 3e
       0.2921992 0.2921897 0.30574077 0.30575624
000260 75 89 9c 3e ef 61 a3 3e 96 63 a3 3e 01 60 a3 3e
       0.3057362 0.31910655 0.31911916 0.31909183
000270 a2 a2 a9 3e 06 a4 a9 3e 18 9f a9 3e 33 44 af 3e
       0.3313189 0.33132952 0.3312919 0.3423172
000280 b7 45 af 3e 1f 3f af 3e 8b f7 b3 3e e2 f8 b3 3e
       0.34232876 0.34227845 0.35149798 0.3515082
000290 90 f0 b3 3e a2 a1 b7 3e 6f a2 b7 3e 99 98 b7 3e
       0.35144472 0.35865504 0.35866114 0.3585861
0002a0 e3 50 ba 3e ac 51 ba 3e 92 46 ba 3e c0 51 bc 3e
       0.36389837 0.36390436 0.36381966 0.3678112
0002b0 73 52 bc 3e 9f 46 bc 3e 08 c9 bd 3e d2 c9 bd 3e
       0.36781654 0.3677263 0.37067437 0.3706804
0002c0 f7 bc bd 3e 70 e3 be 3e 22 e4 be 3e 85 d6 be 3e
       0.3705823 0.37282896 0.37283427 0.3727304
0002d0 2e a9 bf 3e fa a9 bf 3e 80 9b bf 3e 5c 1b c0 3e
       0.3743376 0.3743437 0.37423325 0.37520874
0002e0 26 1c c0 3e 84 0c c0 3e d4 3d c0 3e 39 3e c0 3e
       0.37521476 0.3750955 0.3754717 0.37547472
0002f0 19 2e c0 3e 13 12 c0 3e ac 12 c0 3e 98 01 c0 3e
       0.3753517 0.3751379 0.37514246 0.37501216
000300 35 9d bf 3e bf 9d bf 3e 98 8b bf 3e b4 df be 3e
       0.37424627 0.37425038 0.3741119 0.37280047
000310 e0 df be 3e 5a cc be 3e 7c db bd 3e 85 db bd 3e
       0.37280178 0.37265283 0.37081516 0.37081543
000320 c0 c6 bd 3e bd 96 bc 3e c7 96 bc 3e 0b 81 bc 3e
       0.37065697 0.36833754 0.36833784 0.36817202
000330 f1 06 bb 3e 72 07 bb 3e 99 ef ba 3e 79 22 b9 3e
       0.36528733 0.36529118 0.36510924 0.36159113
000340 20 23 b9 3e 45 09 b9 3e b7 d1 b6 3e 0c d2 b6 3e
       0.3615961 0.36139885 0.35706875 0.35707128
000350 2a b6 b6 3e 7e 0a b4 3e 86 0a b4 3e 46 ec b3 3e
       0.35685855 0.35164255 0.3516428 0.351412
000360 b4 ba b0 3e 2a bb b0 3e ed 9a b0 3e 0a c4 ac 3e
       0.34517443 0.34517795 0.344932 0.33743316
000370 91 c5 ac 3e 29 a2 ac 3e 10 c2 a7 3e 32 c3 a7 3e
       0.3374448 0.33717468 0.32765245 0.3276611
000380 93 9c a7 3e b4 85 a1 3e 14 86 a1 3e e4 5b a1 3e
       0.32736644 0.3154732 0.31547606 0.3151542
000390 b9 aa 9a 3e e5 ab 9a 3e d8 7d 9a 3e 32 18 93 3e
       0.30208376 0.3020927 0.30174136 0.28729397
0003a0 6a 1a 93 3e e1 ea 92 3e 09 bc 8a 3e 50 be 8a 3e
       0.2873109 0.28694823 0.27096584 0.27098322
0003b0 a5 8d 8a 3e 2c 29 81 3e 2b 2d 81 3e 23 fb 80 3e
       0.2706119 0.25226724 0.25229773 0.25191602
0003c0 d7 d8 6c 3e 16 df 6c 3e eb 75 6c 3e 56 ac 52 3e
       0.23129593 0.23131976 0.23091857 0.20573553
0003d0 8e b1 52 3e 43 4e 52 3e 82 62 34 3e 54 66 34 3e
       0.20575544 0.20537667 0.17615703 0.1761716
0003e0 a8 18 34 3e 88 0a 18 3e 77 0d 18 3e a5 d3 17 3e
       0.1758753 0.14847767 0.14848886 0.1482683
0003f0 32 21 eb 3d e4 27 eb 3d be 01 eb 3d a8 28 be 3d
       0.11480941 0.11482218 0.11474942 0.09285098
