results/90RC3/Park90RC/Park90RC-2665.onnx (onnx, 213333 bytes, 8 tensors)

network_body.observation_encoder.processors.0.normalizer.running_mean f4 [271]
00000000: 83d5 713f eebc 713f 81b4 713f 9902 763f
00000010: 03ea 753f 00e2 753f 715b 7b3f dd42 7b3f
00000020: 5d3b 7b3f 83fd 7e3f ede4 7e3f 13de 7e3f
00000030: 59e1 7f3f c5c8 7f3f b2c2 7f3f 4ee2 7f3f
00000040: bac9 7f3f 9bc4 7f3f 564d 7b3f c134 7b3f
00000050: cb30 7b3f aab3 763f 159b 763f 9198 763f
00000060: 8a0f 733f f6f6 723f 38f6 723f 551b 703f
00000070: c102 703f c002 703f 3cb2 6d3f a799 6d3f
00000080: aa99 6d3f 1ac1 663f d6a9 663f 2dab 663f
00000090: a791 643f 9e79 643f 307a 643f 7967 493f
000000a0: 2d57 493f 745f 493f 536b 363f b15c 363f
000000b0: a766 363f 0119 2e3f ad0b 2e3f ef16 2e3f
000000c0: 2b7c 273f df6f 273f 297c 273f 2b2a 223f
000000d0: b71e 223f d62b 223f f7e4 1d3f 2fda 1d3f
000000e0: fce7 1d3f 5487 1a3f 197d 1a3f 758b 1a3f
000000f0: 71da 173f abd0 173f 79df 173f efd5 153f
00000100: 8bcc 153f b9db 153f fd05 1d3f e5fc 1c3f
00000110: 610c 1d3f f404 273f 18fc 263f ce0b 273f
00000120: f249 2c3f 4741 2c3f 3151 2c3f 9828 273f
00000130: 1220 273f 1230 273f b415 1f3f 460d 1f3f
00000140: 621d 1f3f 7c44 193f 1b3c 193f 484c 193f
00000150: 8154 173f 224c 173f 595c 173f 4905 193f
00000160: e4fc 183f 120d 193f 1509 1c3f 9d00 1c3f
00000170: bb10 1c3f 5ce2 1f3f c6d9 1f3f c5e9 1f3f
00000180: f2bd 243f 34b5 243f 0ac5 243f b8e0 2a3f
00000190: c2d7 2a3f 61e7 2a3f a137 323f 682e 323f
000001a0: c23d 323f c7f9 343f 3af0 343f 3fff 343f
000001b0: 8a36 383f 952c 383f 2f3b 383f d60f 3c3f
000001c0: 6105 3c3f 7b13 3c3f 50d4 403f 40c9 403f
000001d0: bed6 403f c7b7 463f f9ab 463f b8b8 463f
000001e0: 9e12 4e3f e705 4e3f bb11 4e3f 246b 573f
000001f0: 485d 573f f467 573f a558 633f 5649 633f
00000200: 9852 633f 3c75 6a3f 0d64 6a3f 706b 6a3f
00000210: 3dee 7a3f 8ada 7a3f 6ddf 7a3f 6be7 7f3f
00000220: d6ce 7f3f d6ce 7f3f 5684 6e3f c16b 6e3f
00000230: 0263 6e3f e1d6 6b3f 4cbe 6b3f 51b5 6b3f
00000240: 5ba8 693f c78f 693f a686 693f cede 673f
00000250: 3ac6 673f 07bd 673f 8e67 663f fa4e 663f
00000260: c745 663f 9a34 653f 051c 653f e712 653f
00000270: eb3b 643f 5623 643f 621a 643f f275 633f
00000280: 5f5d 633f a354 633f e255 643f 4e3d 643f
00000290: dd34 643f 63d5 6c3f cdbc 6c3f bdbc 6c3f
000002a0: d231 7a3f 3e19 7a3f 3e19 7a3f 2d21 7b3f
000002b0: 9a08 7b3f fc07 7b3f d015 7b3f 3afd 7a3f
000002c0: 17fa 7a3f 6b4d 7b3f d634 7b3f 0a30 7b3f
000002d0: c619 6c3f 3001 6c3f 6cfd 6b3f 954a 653f
000002e0: 0232 653f 9f2f 653f b5c2 633f 1eaa 633f
000002f0: 8aa9 633f a00c 643f 0cf4 633f 09f4 633f
00000300: 1bf4 643f 86db 643f 84db 643f 3819 663f
00000310: a400 663f a300 663f c37a 673f 2e62 673f
00000320: 2c62 673f 9f2c 693f 0914 693f 0714 693f
00000330: 9b40 6b3f 0828 6b3f 0428 6b3f 0bc4 6d3f
00000340: 75ab 6d3f 72ab 6d3f 61e2 703f ccc9 703f
00000350: cac9 703f f7ca 743f 61b2 743f 5eb2 743f
00000360: 86b6 793f f09d 793f d18d 793f 8b14 7f3f
00000370: f7fb 7e3f e0eb 7e3f 67d7 7f3f d2be 7f3f
00000380: cfae 7f3f 83d7 7f3f f1be 7f3f 09af 7f3f
00000390: aed7 7f3f 18bf 7f3f 5baf 7f3f e3d7 7f3f
000003a0: 4ebf 7f3f c7af 7f3f 27d8 7f3f 94bf 7f3f
000003b0: 51b0 7f3f 6be7 7f3f d6ce 7f3f d6ce 7f3f
000003c0: 6be7 7f3f d6ce 7f3f d6ce 7f3f 6be7 7f3f
000003d0: d6ce 7f3f d6ce 7f3f 6be7 7f3f d6ce 7f3f
000003e0: d6ce 7f3f 6be7 7f3f d6ce 7f3f d6ce 7f3f
000003f0: 6be7 7f3f d6ce 7f3f d6ce 7f3f 6be7 7f3f
0.9446642 0.9442891 0.9441605 0.96097714 0.960602 0.96047974 0.98186404 0.981489
0.98137456 0.9960558 0.99568063 0.9955761 0.9995323 0.99915725 0.99906456 0.9995469
0.99917185 0.9990937 0.9816488 0.9812737 0.9812133 0.96367896 0.96330386 0.9632655
0.94945586 0.9490808 0.9490695 0.93791705 0.937542 0.93754196 0.9285009 0.9281258
0.928126 0.901384 0.901029 0.90104944 0.8928475 0.89248073 0.89248943 0.7867351
0.78648645 0.78661275 0.71257514 0.71235186 0.71250385 0.680069 0.67986566 0.68003744
0.6542384 0.65405077 0.6542383 0.63345593 0.6332812 0.6334814 0.616775 0.61661047
0.61682105 0.60362744 0.60347134 0.60369045 0.5931769 0.5930278 0.5932537 0.5852956
0.5851523 0.58538395 0.6133726 0.61323386 0.61347014 0.6524193 0.65228415 0.6525239
0.6730033 0.67287105 0.6731139 0.65296316 0.6528331 0.65307724 0.6214249 0.6212963
0.6215421 0.59870124 0.5985734 0.5988202 0.5911332 0.59100544 0.59125286 0.5977369
0.5976088 0.5978557 0.6095136 0.60938436 0.6096303 0.6245477 0.6244167 0.6246608
0.64352334 0.64338994 0.6436316 0.66749144 0.6673547 0.66759306 0.6961613 0.6960206
0.69625485 0.7069363 0.70679057 0.70701975 0.7195822 0.71943027 0.71965307 0.73461664
0.7344571 0.73467225 0.75323963 0.75307083 0.7532767 0.7762417 0.7760616 0.7762561
0.8049716 0.80477756 0.80495805 0.8414786 0.8412671 0.84142995 0.88807136 0.88783777
0.88797903 0.91585135 0.91558915 0.91570187 0.9801977 0.97989714 0.9799717 0.9996249
0.9992498 0.9992498 0.9317068 0.9313317 0.93119824 0.92124754 0.92087245 0.9207354
0.91272515 0.9123501 0.9122108 0.9057435 0.90536845 0.9052281 0.9000176 0.8996426
0.8995022 0.8953339 0.8949588 0.8948197 0.8915393 0.8911642 0.89102757 0.88851845
0.8881435 0.8880102 0.89193547 0.89156044 0.8914316 0.925131 0.9247559 0.9247549
0.9773227 0.97694767 0.97694767 0.980975 0.9806 0.9805906 0.9808016 0.98042643
0.98037857 0.98165005 0.98127496 0.98120177 0.9222683 0.9218931 0.92183566 0.8956693
0.8952943 0.8952579 0.88968974 0.88931453 0.8893057 0.89081764 0.8904426 0.89044243
0.89434975 0.89397466 0.89397454 0.8988223 0.8984473 0.8984472 0.90421695 0.90384185
0.90384173 0.9108371 0.91046196 0.91046184 0.91895455 0.9185796 0.91857934 0.9287726
0.9283975 0.9283973 0.94095427 0.9405792 0.94057906 0.956222 0.95584685 0.95584667
0.97544134 0.9750662 0.9748202 0.9964072 0.9960322 0.99578667 0.9993805 0.99900544
0.9987611 0.9993822 0.9990073 0.9987646 0.99938476 0.9990096 0.99876946 0.9993879
0.9990128 0.9987759 0.999392 0.999017 0.9987841 0.9996249 0.9992498 0.9992498
0.9996249 0.9992498 0.9992498 0.9996249 0.9992498 0.9992498 0.9996249 0.9992498
0.9992498 0.9996249 0.9992498 0.9992498 0.9996249 0.9992498 0.9992498 0.9996249

network_body._body_endoder.seq_layers.0.weight f4 [128, 271]
00000000: 1324 963d f64f b0bd 2ce0 4cbd fde0 c3bd
00000010: 7860 83bc 9bf5 643d d67c 4a3d bfe6 7abd
00000020: 264a f53b 6da1 cebd bb6a 93bd b627 2cbe
00000030: 7155 ccbb f9bf 24bd 0a6f d73c 4386 eb3c
00000040: 82b7 26bd 0e39 8abd 2cf6 a7bd 93cb 0f3c
00000050: ee09 7f3d dcb1 123d a874 693c c725 573c
00000060: 438a d4bd aac5 45bc 1ff0 97bc 9418 f7bd
00000070: b4a9 e5bc edcf 3cbd 814c c7bc 89d2 793d
00000080: fa1f b13c b4f1 7dbd fbe5 b0bd 7004 b1bb
00000090: 6104 653d 8a13 e7bb 237d 87bd 064e a33c
000000a0: 85f3 86bd 83d2 d5bd 913c 9f3d 3444 373d
000000b0: ecb2 ba3d 00e9 ac3c d70c 113d 9923 89bc
000000c0: 9c14 5a3c abfb ac3d c6dc 4e3d 30f7 533d
000000d0: 0e18 d3bc eb3e febc 7bf7 8bbc 6b33 c3bc
000000e0: 7b6c 0b3e 3957 033c 92a7 9ebc ae0e 34bd
000000f0: 0036 70bd f639 23bb a79d 003d c096 d03c
00000100: 791b 463d 65e8 c2bd 6e6e 0fbc 1772 123b
00000110: ddfd b9bd 4155 903d ff16 99bc 6e1a 103d
00000120: dc7c 8abd 1901 66bc 8b32 22bc 4603 09bd
00000130: 47fc 6ebb 6c3a e33d be45 7fbb cacc a63d
00000140: 1a0a c0bb ab9a 193b dfe6 2b3d bff1 93bd
00000150: f2de 65bd 1842 3ebd d075 1a3a 0e87 f03d
00000160: 4a37 61bc 26ad 1d3c 29e1 f0bd d54d b33c
00000170: 2a4c 553d a24b 313d 2e7b 6cbd 5765 92bd
00000180: 068a 023d 0e58 cc3b f050 eebc 7fed 0c3d
00000190: 90b6 553c efc4 cebd 4d40 38bc 79ab f13c
000001a0: 1383 2c3d afaa 003c 7561 cbbc 7da3 1c3e
000001b0: 3b3b 5fbc 2ce8 c9bc a77c 7dbd 281f febc
000001c0: 4d50 5dbd 6eb3 86bd 85cc eabc 1daf a03c
000001d0: 3fd5 593d f42a 8bbd 289b 8dbd fd9c 08ba
000001e0: a0df 38bd 2947 45bb e2e4 313c 7966 debd
000001f0: 816f f1bd 8b5d 64bd cdd8 bf3d 7f79 1cbd
00000200: 7f90 b4bd ed25 513d 70bf a8bd 9197 82bb
00000210: df07 e8bc 2dae 363d e975 b13d 31a7 93bd
00000220: d0b0 c53c 5cdb 0a3e 17d1 9f3d eea8 153d
00000230: aedb 243c 6847 ac3d 790b aab9 80ef 81bc
00000240: 0b0d 0fbd f611 c93c fd7b 703d 104d 07be
00000250: d3c1 aabc 7337 ccbc 44c3 09be 5315 f6ba
00000260: 6137 fdbc d9a2 adbd 9768 90bd bbbc 70bd
00000270: 8901 563c 4b11 1ebc c82b 243c e05b 483c
00000280: 3af3 753b 6d2d 33bd 5871 c03d 84de c1bc
00000290: 261d 9cbd 5f24 a13d 0b40 44bd 9f4c 333b
000002a0: d489 abbc d468 7cbd c4c1 2e3c 1ac3 8d3d
000002b0: 3873 aabd 85f5 023b 5c99 6ebd b13d c93c
000002c0: 9376 ac3d 447f 1abd f756 913c 0e21 253d
000002d0: 47b9 27bd f655 e03d f900 6fbc b7fa f7bd
000002e0: 67e6 d73c d2d4 8bbd 4a17 dbbd c2fc d5bd
000002f0: 3e1f 023e 11ee 293d 4daf 483b 7191 a7bc
00000300: 4131 fcbc 1969 12bd 26df 063d 9305 ab3a
00000310: b0bc 7c3d 1ffa 933d ab99 c33d 1980 64bc
00000320: 7b04 85ba 83e7 b6bd 16ad 58bd 0497 65bd
00000330: 9cc7 c03d 604e 523d 8726 aa3d b6ab 40bd
00000340: 4dc2 c23d 8040 2e3d 35dd b2bc 0cb8 b8bb
00000350: 970d cebc 8077 42bc b340 2e3d a426 c9bc
00000360: b983 dfbc 8568 2e3c c2aa 47bd dd1d 8839
00000370: 79d9 b8bc d656 d4bd 9ba0 2fbd f45c 023d
00000380: 020f 2d3c ddd3 aebd 8755 92bc 9e1a cc3c
00000390: 4025 fc3c 110c 04bd 28e8 553d b559 d8bd
000003a0: 75df 2ebd 64b7 903b ae6d e7bd 6a03 c73d
000003b0: 1ab6 b1bd 8009 653c 4357 f3bc 8239 4b3d
000003c0: 4255 36be 30d4 2fbc 1194 52bd 38e8 0cbd
000003d0: 5168 f63d 4421 053c 6b66 693d a253 ec3c
000003e0: 196b 8abd c192 373d a774 8bbd 0a6a 393b
000003f0: 7cff ad3a 82a0 95bc c0f8 15bd ac0f c6bd
0.07331099 -0.08609001 -0.050018474 -0.095643975 -0.01603721 0.05589829 0.04943546 -0.061255213
0.007485646 -0.10089383 -0.071980916 -0.16812024 -0.0062357713 -0.040222142 0.026298065 0.028750544
-0.04070235 -0.067491636 -0.082012504 0.008776563 0.06226533 0.03581415 0.014249004 0.013131565
-0.10377934 -0.012071053 -0.018547116 -0.12065235 -0.028035022 -0.04609673 -0.024328472 0.060991798
0.021621693 -0.061998084 -0.08637615 -0.0054021403 0.05591238 -0.00705189 -0.06615665 0.019934665
-0.065894164 -0.104405425 0.07775224 0.044742778 0.09116158 0.021107197 0.035412636 -0.016740607
0.013310578 0.08446439 0.050503515 0.05174941 -0.025768306 -0.031035861 -0.017085781 -0.023828229
0.13615601 0.008016401 -0.019367013 -0.043959312 -0.05864525 -0.0024906374 0.03140035 0.025462508
0.048366044 -0.09516982 -0.008754356 0.0022345835 -0.09081624 0.07047511 -0.018687723 0.035181455
-0.06762096 -0.014038348 -0.009899746 -0.033450387 -0.0036466287 0.110951275 -0.0038951482 0.08144529
-0.005860579 0.0023438137 0.041968223 -0.07223844 -0.05612082 -0.04644975 0.0005892189 0.1174451
-0.013746092 0.009623801 -0.11761696 0.0218877 0.05207459 0.04328502 -0.05773466 -0.07148235
0.03186991 0.006236083 -0.029091328 0.03440618 0.013044015 -0.10096156 -0.011245799 0.02950071
0.04211719 0.007853194 -0.024826745 0.15296741 -0.0136249615 -0.024646841 -0.061886456 -0.031020716
-0.05403166 -0.06577192 -0.028661976 0.01961475 0.053181883 -0.06795302 -0.06914359 -0.00052113814
-0.04513514 -0.003010223 0.010857793 -0.10859389 -0.11788846 -0.055753272 0.09367523 -0.038201805
-0.08816623 0.05106156 -0.08239639 -0.0039853533 -0.028324066 0.0445997 0.08665068 -0.072096236
0.024132162 0.13560241 0.078035526 0.036538057 0.010062141 0.08412057 -0.00032433475 -0.015861273
-0.034924548 0.024544697 0.058711994 -0.13212991 -0.020844376 -0.024928784 -0.13453394 -0.0018774666
-0.030910196 -0.08478326 -0.07051199 -0.058773737 0.013061889 -0.009647678 0.010020204 0.012228936
0.0037529008 -0.043744493 0.093966186 -0.023665674 -0.07622747 0.07868265 -0.04791264 0.0027358902
-0.020939745 -0.06162341 0.0106663145 0.06921978 -0.083227575 0.0019982767 -0.058251724 0.02456555
0.08421054 -0.037719026 0.017741663 0.040314727 -0.04094818 0.10953896 -0.014587634 -0.12108367
0.026354982 -0.06827702 -0.106978014 -0.104486 0.1270723 0.041486803 0.0030622066 -0.020455094
-0.030785205 -0.03574476 0.032927655 0.0013047926 0.061703384 0.07225441 0.09550794 -0.0139465565
-0.001014843 -0.08930876 -0.052899443 -0.056052223 0.094130725 0.051344275 0.0830813 -0.047038756
0.09509716 0.04254198 -0.021833995 -0.0056371745 -0.025152965 -0.011869311 0.04254217 -0.024554558
-0.02728449 0.010645037 -0.04874683 0.0002596219 -0.022564637 -0.10368125 -0.042877775 0.03182693
0.01056266 -0.085365035 -0.017863048 0.024915036 0.030779481 -0.03223807 0.052223355 -0.10563985
-0.042693574 0.004416393 -0.113002166 0.09717448 -0.08677311 0.013979316 -0.029704696 0.04961539
-0.17805961 -0.010731742 -0.05141074 -0.03440115 0.120316155 0.008125607 0.05698244 0.028848473
-0.067587085 0.04481769 -0.06809359 0.0028291964 0.0013274993 -0.018265013 -0.03661418 -0.09670958

network_body._body_endoder.seq_layers.0.bias f4 [128]
00000000: 0000 0000 0000 0000 0000 0000 0000 0000
00000010: 0000 0000 0000 0000 0000 0000 0000 0000
00000020: 0000 0000 0000 0000 0000 0000 0000 0000
00000030: 0000 0000 0000 0000 0000 0000 0000 0000
00000040: 0000 0000 0000 0000 0000 0000 0000 0000
00000050: 0000 0000 0000 0000 0000 0000 0000 0000
00000060: 0000 0000 0000 0000 0000 0000 0000 0000
00000070: 0000 0000 0000 0000 0000 0000 0000 0000
00000080: 0000 0000 0000 0000 0000 0000 0000 0000
00000090: 0000 0000 0000 0000 0000 0000 0000 0000
000000a0: 0000 0000 0000 0000 0000 0000 0000 0000
000000b0: 0000 0000 0000 0000 0000 0000 0000 0000
000000c0: 0000 0000 0000 0000 0000 0000 0000 0000
000000d0: 0000 0000 0000 0000 0000 0000 0000 0000
000000e0: 0000 0000 0000 0000 0000 0000 0000 0000
000000f0: 0000 0000 0000 0000 0000 0000 0000 0000
00000100: 0000 0000 0000 0000 0000 0000 0000 0000
00000110: 0000 0000 0000 0000 0000 0000 0000 0000
00000120: 0000 0000 0000 0000 0000 0000 0000 0000
00000130: 0000 0000 0000 0000 0000 0000 0000 0000
00000140: 0000 0000 0000 0000 0000 0000 0000 0000
00000150: 0000 0000 0000 0000 0000 0000 0000 0000
00000160: 0000 0000 0000 0000 0000 0000 0000 0000
00000170: 0000 0000 0000 0000 0000 0000 0000 0000
00000180: 0000 0000 0000 0000 0000 0000 0000 0000
00000190: 0000 0000 0000 0000 0000 0000 0000 0000
000001a0: 0000 0000 0000 0000 0000 0000 0000 0000
000001b0: 0000 0000 0000 0000 0000 0000 0000 0000
000001c0: 0000 0000 0000 0000 0000 0000 0000 0000
000001d0: 0000 0000 0000 0000 0000 0000 0000 0000
000001e0: 0000 0000 0000 0000 0000 0000 0000 0000
000001f0: 0000 0000 0000 0000 0000 0000 0000 0000
0.0 0.0 0.0 0.0 0.0 0.0 0.0 0.0
0.0 0.0 0.0 0.0 0.0 0.0 0.0 0.0
0.0 0.0 0.0 0.0 0.0 0.0 0.0 0.0
0.0 0.0 0.0 0.0 0.0 0.0 0.0 0.0
0.0 0.0 0.0 0.0 0.0 0.0 0.0 0.0
0.0 0.0 0.0 0.0 0.0 0.0 0.0 0.0
0.0 0.0 0.0 0.0 0.0 0.0 0.0 0.0
0.0 0.0 0.0 0.0 0.0 0.0 0.0 0.0
0.0 0.0 0.0 0.0 0.0 0.0 0.0 0.0
0.0 0.0 0.0 0.0 0.0 0.0 0.0 0.0
0.0 0.0 0.0 0.0 0.0 0.0 0.0 0.0
0.0 0.0 0.0 0.0 0.0 0.0 0.0 0.0
0.0 0.0 0.0 0.0 0.0 0.0 0.0 0.0
0.0 0.0 0.0 0.0 0.0 0.0 0.0 0.0
0.0 0.0 0.0 0.0 0.0 0.0 0.0 0.0
0.0 0.0 0.0 0.0 0.0 0.0 0.0 0.0

network_body._body_endoder.seq_layers.2.weight f4 [128, 128]
00000000: b0ea 7abd 625b 9fbd a7e2 923d 8aac 29bd
00000010: 898d 993d 7314 ecbd 6a1c 6d3d f312 a1bd
00000020: a2d3 8a3c b4ae 6b3e cc1b 103e 23bf 19bd
00000030: 194e 7abc 5a82 5f3d 9af8 9a3d cbac 42be
00000040: b809 293d 03e1 273d 03ad 93bc ccc1 f43b
00000050: 23aa b53b 0c36 eabb 09b7 1c3c 222a 25bc
00000060: 7e17 44bd 5de4 7e3c 5ecf 8bbd a6c3 83bd
00000070: de5a 2bbd ef7b 9c3d 24ae 743d 924b c53d
00000080: 60a2 a83d a79d f53d 859c babc 4b1f 91bd
00000090: 4369 b43c 6050 ec3c e83b e0bd 00f9 c53c
000000a0: 7c18 503d e242 dc3c 07ff cebd ff0b cf3d
000000b0: ef0b 10bd 6750 adbc 6a47 3dbd 38d5 cbbc
000000c0: 5b99 873e 475f b8bd 82c7 f43d 4b06 0ebe
000000d0: 6b04 193c f5a6 533d bcb9 153e 3a3c dcbc
000000e0: d1dd cb3d 30c3 12bd bb33 b3bd 19da ba3d
000000f0: bc0f e5b9 503f b6bb 86bd 0dbe 12e9 4e3c
00000100: 1ccb 813d 8f5d 1fbc 3854 0ebc bd80 acbc
00000110: fa31 c6bb 0740 163d bfca 1f3e 2a2e 243c
00000120: fa01 133e a854 54bd ca0a 293d 7b82 aabc
00000130: 5f5d 74bc 6478 10be 6340 95bb e2df dbbb
00000140: aada b33d 625a b73c ebd6 42bd 9a61 a43d
00000150: ab64 dc3d d28d 083c 08ac 8e3d f669 debd
00000160: 88ac eebc e4a3 c53c 2f93 b7bd 2af5 333d
00000170: d0ef 0dbc 1ca9 f63c afdc b83d 5ca4 00bc
00000180: c2e9 2ebc d8f0 c23d db47 a23d e710 833e
00000190: 43d8 3ebc 2a08 cbbc a9e3 f23d d2cd 073d
000001a0: 6971 12be 8c3c 8b3d 25af d73d ef4a a9bd
000001b0: 322b c13a f3a7 813d cf4c 4fbd 7bc8 2fbd
000001c0: c3a6 803d f644 3abc 677c 173d 78c3 49bc
000001d0: 5aca 82bd dc4a 80bb 056d 5dbd 1a99 573d
000001e0: 026a 40bd 9360 5abd 97c3 47bd d03f c2bd
000001f0: 2070 203d eb4d 2abe f0e4 e5bd 391c ebbb
00000200: b10a 40bc 712f 423d d8df 1e3e b325 62bd
00000210: b631 94bc 6b39 393d 01db b6bb b698 8ebd
00000220: decd 033b f61c 53bd ef3f b73d 9f1b 6dbe
00000230: a3a9 163c 94bf 33bd 94a5 ab3b 544c 91bd
00000240: 111f 02be 0190 6a3d a11d 073d 51e4 1c3e
00000250: 286a 0ebd 8a81 75bd a019 8cbd 36e2 923b
00000260: 965a af3b 27df 44bd eaf5 e63d 01ab e6bb
00000270: 35a0 713c 6867 423e daae 8cbd f8c4 d43d
00000280: 19a7 de3d 7117 563d 0fce d63d fbdd 0bba
00000290: c4b1 14be 6336 c6bb fa0b 03bd 5676 473d
000002a0: 3858 f83c e28e 163d 2a66 d83c 6b03 a0bd
000002b0: 3b23 d0bd 3a1c bdba 2a15 92bd 876a ef3d
000002c0: 47b9 2cbd 58d1 76bd 1f9a 4f3d 3a96 ccbd
000002d0: d71e 01bd bb4f 8bbd 18d2 363e cc57 ccbd
000002e0: 2785 aabb b5b7 eebd a33e febd d4bc 79bd
000002f0: ac63 0abe a7cd db3d ef6f b7bd be5e b9bd
00000300: 3dff 783b 7a3d e33d 4311 e03c 8087 52bd
00000310: 2c33 98bc ea2d e6bc 5d2c 063d 3654 a3bd
00000320: bed6 3e3d 0599 42bd adf9 70be 6374 b53d
00000330: ae77 82bc 7c3f e0bc 5618 09be 11dc 84bd
00000340: 5307 89bd 5c1d 9b3c 83c2 17bd 5cfd dc3c
00000350: 7d36 e83d 972e 73bd dc82 613d f20b 303c
00000360: d1ef 11be f30a 8d3d 8095 393d 8869 a83d
00000370: 6248 4abd c268 313d 008c 953d 6cef 093c
00000380: d3be c53d 576c 9fbd b66d 253d adf9 85bd
00000390: 9a43 febb 3d72 1bbd 4e7f 85be 44a3 cd3b
000003a0: e236 cc3d 2dbc e83d 3651 903c 5679 95bd
000003b0: 03b9 32be cbb1 793d 2fe0 713d cd7f 9fbd
000003c0: 2022 5f38 3c87 b5bd a11a 63bc fa84 503d
000003d0: 49f5 1a3d d30e c13c fba1 97bc e72e 97bd
000003e0: dc28 11be 225c 873d d8c8 a93d 6d4c a7bc
000003f0: a482 84bd 61f9 503d 0caf e2bb 5b53 acbd
-0.06125897 -0.07781102 0.07172137 -0.04142431 0.07497699 -0.11527338 0.057888426 -0.078649424
0.016946618 0.23015863 0.14073104 -0.037535798 -0.015277409 0.054567672 0.07566948 -0.19011228
0.041269034 0.040986072 -0.018026834 0.0074693915 0.0055439635 -0.007147556 0.009565123 -0.010080846
-0.047873966 0.015557376 -0.068266615 -0.06433801 -0.041834705 0.07640826 0.059736386 0.096335545
0.082340956 0.119929604 -0.022779712 -0.07086047 0.022022849 0.02884692 -0.10948926 0.024166584
0.0508046 0.026887361 -0.10107236 0.1010971 -0.03516763 -0.021156503 -0.046210684 -0.024881944
0.26484188 -0.09002548 0.119521156 -0.13869588 0.009339432 0.051672895 0.14621633 -0.026884187
0.099544175 -0.035830677 -0.08750101 0.0912363 -0.00043690007 -0.0055617467 -0.13841829 0.0126288105
0.06337568 -0.009726896 -0.0086870715 -0.021057481 -0.006048438 0.036682155 0.15604685 0.010020772
0.14356223 -0.051838547 0.041270055 -0.020814171 -0.0149148395 -0.14108425 -0.0045547946 -0.0067100385
0.08781941 0.022381965 -0.047568243 0.080264285 0.107613884 0.008334594 0.06966406 -0.10860054
-0.029135004 0.024126 -0.0896362 0.04393498 -0.008663133 0.030109935 0.09026467 -0.007851686
-0.010675849 0.095185935 0.079238616 0.25598833 -0.0116482405 -0.024784166 0.11859829 0.03315527
-0.14301075 0.06798658 0.10531453 -0.082662456 0.0014737605 0.06330862 -0.05061036 -0.042915802
0.06281807 -0.011368981 0.036983874 -0.01231467 -0.06386252 -0.003915174 -0.054059047 0.052636243
-0.046976097 -0.053314757 -0.048770513 -0.094848275 0.03916943 -0.16631286 -0.11225307 -0.0071749953
-0.011721299 0.047408525 0.15515077 -0.055211734 -0.01809011 0.045220774 -0.0055803065 -0.06962721
0.002011172 -0.05154129 0.08947741 -0.23155068 0.009195718 -0.043883875 0.0052382443 -0.070946366
-0.12707163 0.05726624 0.03298724 0.15321471 -0.034769207 -0.05993799 -0.06840825 0.004482533
0.005351375 -0.048064377 0.11277373 -0.007039428 0.014747669 0.18984759 -0.06869288 0.10389131
0.10871715 0.05226845 0.10488521 -0.0005335507 -0.14520937 -0.006048964 -0.031993844 0.04869684
0.030315503 0.036757357 0.026415903 -0.07813152 -0.1016297 -0.0014427968 -0.07132943 0.1169024
-0.04216888 -0.06025824 0.05068409 -0.09989591 -0.03152355 -0.06802317 0.17853582 -0.099776834
-0.0052038613 -0.11656133 -0.12414291 -0.060971096 -0.13514584 0.107325844 -0.089568965 -0.09051274
0.003799393 0.1109571 0.027351981 -0.051398754 -0.018579088 -0.028098065 0.032757152 -0.07975046
0.046591513 -0.047509212 -0.23532744 0.0886009 -0.015926208 -0.027374022 -0.1338819 -0.06487287
-0.0669085 0.018934898 -0.037050735 0.02697628 0.11338518 -0.059370603 0.055056438 0.0107450355
-0.14251639 0.06886854 0.04530859 0.082232535 -0.049385436 0.043312795 0.073020935 0.008418899
0.096555375 -0.07784336 0.04038783 -0.065417625 -0.0077595236 -0.037950743 -0.26073688 0.0062755663
0.099714056 0.11364017 0.01761685 -0.072985336 -0.17453389 0.060960572 0.05905169 -0.07788048
5.3199125e-05 -0.088636845 -0.013861329 0.050908066 0.03783158 0.023566639 -0.018509855 -0.07381993
-0.14175743 0.0660937 0.08290261 -0.020422185 -0.0647023 0.051019076 -0.00691784 -0.08414336

action_model._continuous_distribution.log_sigma f4 [1, 2]
00000000: 0000 0000 0000 0000
0.0 0.0

action_model._continuous_distribution.mu.weight f4 [2, 128]
00000000: 1364 073d 5b57 ce3b fa68 e5bc 493d 0dbd
00000010: 27a2 a73c 5783 1fbd a21c 32bc 2232 f4bc
00000020: b2ff d23c 13eb 49bc 7432 14bd 8fd4 b13c
00000030: 96d0 123b 9826 21bc 87ad 8e3c 64b2 94bc
00000040: 40fc 8a3b c050 373c d8df 903b c819 7ebc
00000050: 2726 7d3b 4f6d 8dba feb8 323b 604d 523c
00000060: bf91 96bc fb4b d3bc 1df7 db3b 9bdc 72bc
00000070: 46c5 3e3c 8f5b 1f3d 5863 59bb a9e1 26ba
00000080: 1afd 6abb 6092 5f3c f036 af3c 708d 153c
00000090: 8da3 15bc cb23 30bc 8a5e d5ba af05 7f3c
000000a0: 3f71 f5bc cbbc 05bd 303d fb3c fbee d138
000000b0: f2d1 95bb cdff e0bc b59b eebc dfa5 b6bc
000000c0: 77e2 7f3c 4a32 5c3c 8b27 b73c d26e 99bc
000000d0: c2bb bd39 db2b 873b 2497 1eba 7c5a 9d3b
000000e0: efcf 97ba 5c92 c93c fb8b b3bb f7d5 94bb
000000f0: e765 453c 9179 07bc 53dc 1abc 2504 3abc
00000100: 87cc d53b 0e1b 42bc 3a8d 18bb 3a56 1b3d
00000110: bf55 813c 7bfd 503c 7ff3 a8bc 70ae ecba
00000120: ddb1 6e3c 6a86 553c 872a 643c df57 d23c
00000130: 9e1b bf3c 5758 38bb 53d8 d73b 08de 7c3b
00000140: 84ff c2ba cb73 1f3b 4fa4 31bc b2af c33b
00000150: beff 48bc fe95 bbba 2e6e 2e3c 1742 c03c
00000160: a0d5 2a3c 1f5b 88bc fe8b 0d3d 1a70 58ba
00000170: e4e7 3e3b 8b10 4e3c 9597 4e3c 37bd 8eba
00000180: 4f87 3e3b fa1f a0b9 c378 f03b df11 943c
00000190: ef92 c03c 5905 9fbb d920 853c 6b73 97bc
000001a0: e8a3 3fbc b32f c5b8 d2fa 773c dc14 1ebc
000001b0: df32 c93c 691e 17bc 8fc1 8cbc 9632 82bc
000001c0: 9543 8ebb 96f8 123d c985 89bc 2dc5 03bd
000001d0: 0ebc 893c 9184 3dbc 3a25 f43c b38b e4bc
000001e0: 7ba9 903b 450c a4bc 89a6 a7bb d9cd 8fbb
000001f0: 3fb6 10bd a4a1 a5bb b0ee dabb f8e2 4ebc
00000200: cbaa bbbb df59 b2ba 1814 e2bb 0071 13bc
00000210: 4589 e93b db21 b03b e8ae f33b 679c f0bb
00000220: 7f2e 383c 0fa4 f1bb 5463 123c 6275 88bb
00000230: 90c1 8c3c 9f1a 45bc c24f 2c3c f5b0 92bb
00000240: e35f 0dbc 2bdb 003c 9744 a73c 8f5a 17bb
00000250: 6bb0 8c3a 3bfd 22bb cf50 103c 8663 9abc
00000260: 6be9 ce3c 7647 013a a0d4 18bc 475f 5bbc
00000270: b5bd 183b 2fe8 48bb b24e c9bc 87aa b3ba
00000280: aaba e4bb f508 7f3c a8a2 d3bb 8fa5 fcbb
00000290: 497c 03bc d762 c53c 85ee fcbb 6706 353c
000002a0: c8bb 0bbc 1fbb 35bc 2497 353c 6841 d5bb
000002b0: 2b96 cfbc c879 4d3b 9765 0f3c 5bf6 143d
000002c0: 300a ce3c afa9 113d ef95 2b3c 87d6 8e3c
000002d0: 95da 7e3b 6fab c83b c735 93bb e8e2 69bc
000002e0: 977c 5a3b 4346 de39 3e7a 81bb c625 253c
000002f0: 3690 89bc 5516 b13c 2356 173b f3ad 1cbc
00000300: 2055 e43a 5b92 2ebc cd6f 2d3d 5592 9ebc
00000310: 926f 10bc c95e 133c 4dfa 73bc 15d0 923c
00000320: 1fbc 1ebc f69e 0abb 7171 9dbb 1b0d f53c
00000330: 53f2 98bb 4d9f 87bc 3be6 01bd ed0a d4bb
00000340: 5369 a8bb 5037 5c3c 2f2c 3d3d 31d8 8c3a
00000350: 773e e0bc cb7b 663c 9215 d83c 48f4 f43a
00000360: ef12 0d3c a2c8 a5bc 1f2a 093d b5c5 893c
00000370: 8973 93bc 30e5 edbc c74a 56bc 94fa c73c
00000380: ff16 cbb8 b075 583b 2759 e9bb a30d 5c3c
00000390: f0f5 7bbc 7094 863c 13a7 ee3b 3794 5abc
000003a0: 3ce1 0abc d8ee 5e3b 978d 98bb 7bff a13a
000003b0: 2b33 48bc 4d37 fdbb f321 d63b 0713 8439
000003c0: 4093 62bb a323 653b fdae 8d3b 4782 03bd
000003d0: 9d1f db3c 3a7b febb b80f f8bb 947f b53c
000003e0: 3330 32bd 232e 2dbd 3d17 0abd 832d c1bc
000003f0: 4a19 76ba c64d 8a3c c56c 7fbb 22b3 5bbc
0.033054423 0.0062970347 -0.028004158 -0.034482274 0.020463062 -0.038943615 -0.010871084 -0.029809061
0.02575669 -0.0123241125 -0.03618093 0.021707801 0.002240216 -0.009835862 0.017416729 -0.01815147
0.0042414963 0.011188686 0.0044212155 -0.015509076 0.0038627477 -0.0010790023 0.0027270908 0.01283583
-0.018380044 -0.025793066 0.006712808 -0.014823104 0.011643713 0.038905676 -0.0033170786 -0.00063660234
-0.0035856427 0.013645738 0.0213885 0.00912796 -0.009133232 -0.010750721 -0.0016278785 0.01556532
-0.029961227 -0.03265075 0.030668825 0.0001001041 -0.0045721466 -0.027465725 -0.029126981 -0.02229589
0.015617958 0.013439724 0.022357723 -0.018729601 0.0003618878 0.004125101 -0.00060497434 0.0048020463
-0.0011582355 0.024605922 -0.0054793335 -0.004542108 0.012048221 -0.00826873 -0.009451943 -0.011353527
0.0065246257 -0.011847271 -0.0023277537 0.03792403 0.015787957 0.012755747 -0.02062392 -0.0018057358
0.014568773 0.013032535 0.013926155 0.025676666 0.023328599 -0.0028128827 0.006587067 0.003858449
-0.0014877175 0.0024330493 -0.010842397 0.0059718722 -0.012268005 -0.0014311669 0.010646386 0.023469014
0.010426909 -0.016645012 0.034557335 -0.00082564505 0.0029129917 0.012577186 0.012609382 -0.0010890131
0.002907235 -0.00030541403 0.0073386147 0.018074928 0.023507563 -0.0048529324 0.016251015 -0.018487653
-0.011696793 -9.402577e-05 0.015135484 -0.009648528 0.02456039 -0.009223559 -0.01718214 -0.015893262
-0.0043415525 0.0358816 -0.016787427 -0.032170463 0.016813304 -0.011567251 0.029802907 -0.027898645
0.004414735 -0.020025382 -0.005116288 -0.0043885526 -0.035330053 -0.0050546695 -0.006681286 -0.012627356
-0.005727147 -0.0013607106 -0.006899368 -0.008999109 0.0071269595 0.0053751296 0.007436622 -0.0073428634
0.011241554 -0.0073742936 0.0089348145 -0.0041643837 0.017182142 -0.012030273 0.010517063 -0.0044766613
-0.008628818 0.007864754 0.020418448 -0.0023094749 0.0010733729 -0.0024870175 0.008808329 -0.018846285
0.025257787 0.0004931608 -0.0093280375 -0.013389415 0.0023306434 -0.003065597 -0.024573658 -0.0013707437
-0.00698026 0.0155661 -0.006458599 -0.007710166 -0.008025237 0.024094982 -0.0077188634 0.01104889
-0.008528657 -0.011091976 0.011083398 -0.006508041 -0.02534016 0.0031353105 0.008752248 0.036367755
0.025151342 0.035562214 0.010472759 0.017436279 0.003888761 0.006123952 -0.0044924947 -0.01427529
0.0033338421 0.0004239549 -0.00395134 0.010079807 -0.016792398 0.021617094 0.0023092113 -0.009562957
0.0017420389 -0.010655011 0.04234295 -0.019356886 -0.008815663 0.0089947665 -0.014891219 0.017921487
-0.009688406 -0.0021151877 -0.004804783 0.029913476 -0.004667559 -0.016555453 -0.031713706 -0.006471029
-0.0051395088 0.013440922 0.046184715 0.0010745582 -0.027373536 0.0140676005 0.026377473 0.0018688524
0.008610471 -0.02023727 0.033487435 0.016817907 -0.017999427 -0.02903995 -0.013079352 0.024411477
-9.684078e-05 0.0033029132 -0.0071212235 0.013430986 -0.01537846 0.016428202 0.0072831004 -0.013341001
-0.008476552 0.0034016874 -0.0046555507 0.0012359464 -0.012219231 -0.0077275396 0.006534809 0.00025191178
-0.003457263 0.0034963868 0.0043238387 -0.032106664 0.026748473 -0.0077661546 -0.007570233 0.02215556
-0.043502998 -0.042280328 -0.033713568 -0.023581272 -0.00093879236 0.016882788 -0.0038974744 -0.013409408

action_model._continuous_distribution.mu.bias f4 [2]
00000000: 0000 0000 0000 0000
0.0 0.0

onnx::Div_51 f4 [271]
00000000: 6af0 db3d 8818 df3d 1b60 df3d 44fe a33d
00000010: 125b a83d 68bb a83d 2202 503d 531a 5e3d
00000020: f641 5f3d 7459 033d c746 193d e5d0 1a3d
00000030: c2bc e33c 22bf 0a3d da1c 0c3d 85c2 e23c
00000040: a358 0a3d a751 0b3d 0ecb 303d fe2b 413d
00000050: 7a7e 413d 9d51 933d 2030 983d 0a34 983d
00000060: 9e61 c63d a5e9 c93d 78e7 c93d 20c9 f03d
00000070: fda0 f33d fca0 f33d 0898 093e 14d0 0a3e
00000080: 0bd0 0a3e 1467 103e 7180 113e 1f83 113e
00000090: 33a8 1e3e fca1 1f3e 5da3 1f3e c968 283e
000000a0: d11c 293e e325 293e bfb4 243e 6b4b 253e
000000b0: 6a60 253e ca2f 343e 7eab 343e c2c2 343e
000000c0: 03c5 413e eb2d 423e c646 423e e060 4d3e
000000d0: 48bc 4d3e 55d6 4d3e d327 573e 5879 573e
000000e0: 4294 573e f439 5f3e 1f84 5f3e 9a9f 5f3e
000000f0: ad01 663e 4246 663e 1762 663e 7387 6b3e
00000100: d4c7 6b3e c6e3 6b3e d6e6 833e 1205 843e
00000110: b10d 843e 2bf0 913e 810d 923e 9510 923e
00000120: b697 983e 94b4 983e f1b4 983e c56e 913e
00000130: 8a8b 913e cd8d 913e 6ad8 853e 6af5 853e
00000140: 95fb 853e ce2d 803e 754a 803e bc53 803e
00000150: 28a6 7c3e 36df 7c3e 01f4 7c3e 08e8 7c3e
00000160: 0d22 7d3e 3335 7d3e 8b81 7e3e 19bd 7e3e
00000170: 62cd 7e3e 26a4 803e ddc2 803e 42c9 803e
00000180: 1822 833e de41 833e 2346 833e 0a9d 873e
00000190: d3bd 873e 99bf 873e f575 8e3e a497 8e3e
000001a0: b996 8e3e 677e 8a3e 97a2 8a3e 37a1 8a3e
000001b0: ad31 853e 3c59 853e 5d57 853e e626 7e3e
000001c0: c67e 7e3e dc79 7e3e d967 6f3e b7cb 6f3e
000001d0: 4ac5 6f3e 981d 5e3e 2b92 5e3e c189 5e3e
000001e0: 3168 4a3e 92f4 4a3e 90e9 4a3e c196 353e
000001f0: 5245 363e 0437 363e 0bf1 233e f8cc 243e
00000200: 67bb 243e efd6 ff3d 8f21 013e 1e12 013e
00000210: b44a 843d dfb3 893d b585 893d a45a e03c
00000220: c55d 093d c55d 093d a829 053e 646e 063e
00000230: 798b 063e a43b 183e 2351 193e ee69 193e
00000240: efeb 273e 93e2 283e 40f8 283e f5d8 343e
00000250: 30ba 353e 5acd 353e bd7c 3f3e 854e 403e
00000260: 7f5f 403e a436 483e fafc 483e e80b 493e
00000270: ae4b 4f3e 6c09 503e 6016 503e 17f1 543e
00000280: 64a8 553e 5eb3 553e 2a4b 4f3e 1a09 503e
00000290: b013 503e f415 1b3e e328 1c3e 3529 1c3e
000002a0: 6925 783d 78fb 813d 79fb 813d 73f0 393d
000002b0: 248e 493d d18c 493d cfa8 3a3d f236 4a3d
000002c0: ce63 4a3d e1cb 353d cac2 453d 953f 463d
000002d0: 0369 213e 796f 223e de6e 223e 3599 483e
000002e0: 525f 493e a15c 493e bda6 523e 9860 533e
000002f0: 845f 533e 12bf 503e 277b 513e 337b 513e
00000300: 0721 4a3e 01e5 4a3e 0be5 4a3e fbbf 413e
00000310: b58e 423e bb8e 423e 1aa6 373e 1883 383e
00000320: 2683 383e a247 2b3e 5f38 2c3e 6f38 2c3e
00000330: 2230 1c3e 2d3d 1d3e 413d 1d3e 6afd 093e
00000340: c434 0b3e d834 0b3e e147 e73d 8342 ea3d
00000350: ad42 ea3d 8e67 b03d fa6c b43d 2b6d b43d
00000360: 29fa 633d 26bd 703d d9dc 753d 81cd 033d
00000370: bbad 193d 451a 223d 19fc f63c a3bd 123d
00000380: 7c8b 1b3d fbad f63c ca9c 123d 834d 1b3d
00000390: c43f f63c c26e 123d adf6 1a3d cbb1 f53c
000003a0: c632 123d 3385 1a3d 69fe f43c 8de7 113d
000003b0: e0f6 193d a45a e03c c55d 093d c55d 093d
000003c0: a45a e03c c55d 093d c55d 093d a45a e03c
000003d0: c55d 093d c55d 093d a45a e03c c55d 093d
000003e0: c55d 093d a45a e03c c55d 093d c55d 093d
000003f0: a45a e03c c55d 093d c55d 093d a45a e03c
0.10739215 0.10893351 0.109070025 0.08007482 0.08220495 0.0823887 0.050783284 0.054224323
0.054506265 0.03206773 0.037421014 0.037796874 0.027799968 0.033873685 0.034207202 0.027680645
0.033775937 0.034013417 0.043162398 0.047161095 0.047239758 0.07193301 0.07431054 0.07431801
0.09686588 0.09859017 0.09858602 0.117571115 0.118959405 0.1189594 0.13436902 0.13555938
0.13555925 0.14101821 0.14209153 0.14210175 0.1549385 0.15589136 0.15589662 0.16446222
0.16514899 0.16518359 0.16084574 0.16142051 0.1615006 0.17596355 0.17643544 0.17652419
0.1892281 0.18962829 0.1897231 0.20056486 0.20091355 0.20101292 0.21011285 0.21042383
0.2105265 0.21799451 0.21827744 0.21838227 0.22461577 0.22487739 0.22498356 0.23000889
0.23025447 0.23036107 0.2576205 0.25785118 0.25791696 0.28503546 0.28525928 0.28528276
0.29803246 0.2982527 0.29825547 0.28404823 0.28426772 0.28428498 0.26141673 0.261638
0.26168504 0.25034946 0.25056806 0.25063884 0.24672759 0.24694523 0.24702455 0.24697888
0.2472002 0.24727325 0.24854104 0.24876823 0.24883035 0.25125235 0.2514867 0.25153548
0.2561195 0.2563619 0.25639448 0.26487 0.26512012 0.26513365 0.2782437 0.27850068
0.27849367 0.27049562 0.2707717 0.27076122 0.26014462 0.26044643 0.26043215 0.24819526
0.24853048 0.24851173 0.23379458 0.23417555 0.23415104 0.21690977 0.21735446 0.21732236
0.19766308 0.19819859 0.1981566 0.1773329 0.17799881 0.17794424 0.1600992 0.16093814
0.16087113 0.12492167 0.12610458 0.12604567 0.06459561 0.06723761 0.06714956 0.02738697
0.03353669 0.03353669 0.13004172 0.13128048 0.13139142 0.14866501 0.14972357 0.14981815
0.16398595 0.16492681 0.1650095 0.17660888 0.17746806 0.17754117 0.18699928 0.18779953
0.18786429 0.19552094 0.19627753 0.19633448 0.20243713 0.20316094 0.20321035 0.20795093
0.20865017 0.20869204 0.20243517 0.20315972 0.2032001 0.15145093 0.15249972 0.15250094
0.060582552 0.06346792 0.06346793 0.045395326 0.04920782 0.04920656 0.045571145 0.049368806
0.049411587 0.044383887 0.04828147 0.04840048 0.15762715 0.15862836 0.15862605 0.19589694
0.19665268 0.19664241 0.20571418 0.20642316 0.20641905 0.20385388 0.20457135 0.20457153
0.19739161 0.1981392 0.19813935 0.18920891 0.18999751 0.1899976 0.17934456 0.18018758
0.18018779 0.16726544 0.16818379 0.16818403 0.15252736 0.15355368 0.15355398 0.13475576
0.13594347 0.13594377 0.11293007 0.11438467 0.11438499 0.086135015 0.08809848 0.08809885
0.055658493 0.058774136 0.06002507 0.032178406 0.037519198 0.039575834 0.030149506 0.035825383
0.03797482 0.030112257 0.035794057 0.037915718 0.030059703 0.035750158 0.037832905 0.029992005
0.035692953 0.037724685 0.029906468 0.035621215 0.037588954 0.02738697 0.03353669 0.03353669
0.02738697 0.03353669 0.03353669 0.02738697 0.03353669 0.03353669 0.02738697 0.03353669
0.03353669 0.02738697 0.03353669 0.03353669 0.02738697 0.03353669 0.03353669 0.02738697
