results/90RC3/Park90RC/Park90RC-10999899.onnx (onnx, 213786 bytes, 9 tensors)

network_body.observation_encoder.processors.0.normalizer.running_mean f4 [271]
0	0x3f0edbbf	0.55804056
1	0x3f0ed97b	0.558006
2	0x3f0eecc1	0.5583001
3	0x3f0dce89	0.5539327
4	0x3f0dccc7	0.5539059
5	0x3f0ddfa2	0.5541936
6	0x3f0d1a1f	0.5511798
7	0x3f0d18aa	0.5511576
8	0x3f0d2b93	0.55144614
9	0x3f0d1175	0.5510476
10	0x3f0d0f8d	0.55101854
11	0x3f0d228f	0.5513086
12	0x3f0d8157	0.5527548
13	0x3f0d7f05	0.5527194
14	0x3f0d924b	0.5530135
15	0x3f0d1a0e	0.5511788
16	0x3f0d180d	0.55114824
17	0x3f0d2b35	0.55144054
18	0x3f0c888f	0.5489587
19	0x3f0c86e3	0.5489332
20	0x3f0c9a64	0.5492308
21	0x3f0c50ab	0.5481059
22	0x3f0c4f3f	0.5480842
23	0x3f0c6300	0.5483856
24	0x3f0c3316	0.5476545
25	0x3f0c31ce	0.54763496
26	0x3f0c4613	0.54794425
27	0x3f0c42cd	0.5478943
28	0x3f0c40ef	0.5478658
29	0x3f0c554f	0.5481767
30	0x3f0c5273	0.5481331
31	0x3f0c50bf	0.5481071
32	0x3f0c659a	0.5484253
33	0x3f0c7032	0.54858696
34	0x3f0c6e1c	0.54855514
35	0x3f0c8373	0.54888076
36	0x3f0cb509	0.5496374
37	0x3f0cb313	0.54960746
38	0x3f0cc8f2	0.5499412
39	0x3f0d2e9e	0.5514926
40	0x3f0d2cb3	0.5514633
41	0x3f0d42ea	0.5518023
42	0x3f0de587	0.55428356
43	0x3f0de3cd	0.5542572
44	0x3f0df9d5	0.5545934
45	0x3f0ed308	0.5579076
46	0x3f0ed1a2	0.55788624
47	0x3f0ee7f5	0.5582269
48	0x3f0fe7f7	0.56213325
49	0x3f0fe635	0.56210643
50	0x3f0ffcb1	0.5624495
51	0x3f1143ab	0.5674388
52	0x3f114256	0.56741846
53	0x3f1158ad	0.56775934
54	0x3f12e781	0.57384497
55	0x3f12e610	0.573823
56	0x3f12fd2d	0.57417566
57	0x3f14e217	0.58157486
58	0x3f14e089	0.58155113
59	0x3f14f7c4	0.5819056
60	0x3f173555	0.59065753
61	0x3f1733a3	0.59063166
62	0x3f174ae4	0.5909865
63	0x3f19d589	0.60091454
64	0x3f19d42f	0.6008939
65	0x3f19eb88	0.6012502
66	0x3f1cc1ff	0.61233515
67	0x3f1cc09c	0.612314
68	0x3f1cd81e	0.6126727
69	0x3f1ff07d	0.6247633
70	0x3f1fef3c	0.6247442
71	0x3f20072a	0.6251093
72	0x3f235d2c	0.63814044
73	0x3f235c43	0.63812655
74	0x3f2373d6	0.63848627
75	0x3f270ab4	0.65250707
76	0x3f270919	0.65248257
77	0x3f272106	0.65284765
78	0x3f2addd7	0.6674475
79	0x3f2adc11	0.66742045
80	0x3f2af499	0.66779476
81	0x3f2ee9c1	0.6832543
82	0x3f2ee856	0.68323267
83	0x3f2f0146	0.6836132
84	0x3f333205	0.699982
85	0x3f333192	0.69997513
86	0x3f334a32	0.7003509
87	0x3f37a91b	0.7174241
88	0x3f37a8f9	0.71742207
89	0x3f37c1c2	0.71780026
90	0x3f3c750a	0.7361609
91	0x3f3c75aa	0.7361704
92	0x3f3c8ed7	0.73655456
93	0x3f419e01	0.7563172
94	0x3f419ef8	0.7563319
95	0x3f41b7dc	0.7567117
96	0x3f4745ef	0.77841085
97	0x3f474725	0.7784293
98	0x3f475feb	0.77880734
99	0x3f4d755a	0.8025719
100	0x3f4d76fd	0.80259687
101	0x3f4d8e0d	0.8029488
102	0x3f542ed5	0.8288396
103	0x3f542fc4	0.82885385
104	0x3f54448a	0.8291708
105	0x3f5bb02f	0.8581571
106	0x3f5bb0e3	0.8581678
107	0x3f5bc1e7	0.85842746
108	0x3f6497a9	0.89293915
109	0x3f64980e	0.8929452
110	0x3f64a36f	0.8931188
111	0x3f6e78a2	0.9315282
112	0x3f6e7884	0.9315264
113	0x3f6e7dbe	0.9316062
114	0x3f79cf87	0.97582287
115	0x3f79cf5d	0.97582036
116	0x3f79d079	0.9758373
117	0x3f7d4594	0.9893429
118	0x3f7d454b	0.9893386
119	0x3f7d44a1	0.98932844
120	0x3f7ea41d	0.99469167
121	0x3f7ea3d7	0.9946875
122	0x3f7ea2cd	0.99467164
123	0x3f7f2999	0.9967285
124	0x3f7f2965	0.9967254
125	0x3f7f2891	0.99671274
126	0x3f7f6ff2	0.9978019
127	0x3f7f6fb1	0.997798
128	0x3f7f6ee8	0.99778605
129	0x3f7f9f93	0.99852866
130	0x3f7f9f3d	0.99852353
131	0x3f7f9eb4	0.99851537
132	0x3f7f9260	0.99832726
133	0x3f7f9205	0.99832183
134	0x3f7f9191	0.9983149
135	0x3f7f1b91	0.9965144
136	0x3f7f1b66	0.9965118
137	0x3f7f1b23	0.9965078
138	0x3f107174	0.56423116
139	0x3f106f11	0.56419474
140	0x3f108267	0.5644898
141	0x3f12c630	0.5733366
142	0x3f12c3f8	0.57330275
143	0x3f12d723	0.5735952
144	0x3f16ecaf	0.589549
145	0x3f16e9a1	0.5895024
146	0x3f16fc1e	0.5897845
147	0x3f1bad59	0.6081138
148	0x3f1ba9eb	0.6080615
149	0x3f1bbcbb	0.60834855
150	0x3f1d5e0c	0.6147163
151	0x3f1d5aa2	0.6146642
152	0x3f1d6cfb	0.61494416
153	0x3f1e31a2	0.61794484
154	0x3f1e2ea1	0.617899
155	0x3f1e4145	0.61818343
156	0x3f1eb41c	0.61993575
157	0x3f1eb151	0.61989313
158	0x3f1ec42f	0.620181
159	0x3f1ecbfb	0.6203
160	0x3f1ec9ab	0.6202647
161	0x3f1edd12	0.62056077
162	0x3f1ebfdf	0.6201152
163	0x3f1ebd80	0.62007904
164	0x3f1ed195	0.62038547
165	0x3f1eaf4a	0.6198622
166	0x3f1ead6f	0.6198339
167	0x3f1ec1bb	0.6201436
168	0x3f1eba5a	0.620031
169	0x3f1eb8c1	0.6200066
170	0x3f1ecdee	0.62032974
171	0x3f1ef03a	0.62085307
172	0x3f1eef40	0.62083817
173	0x3f1f0413	0.6211559
174	0x3f1f5852	0.6224414
175	0x3f1f56ee	0.6224202
176	0x3f1f6c37	0.622745
177	0x3f1ffcc0	0.6249504
178	0x3f1ffb51	0.62492853
179	0x3f201118	0.62526083
180	0x3f20e7e4	0.62853837
181	0x3f20e684	0.6285174
182	0x3f20fc3e	0.6288489
183	0x3f220ccf	0.63300794
184	0x3f220b2c	0.63298297
185	0x3f22215c	0.6333215
186	0x3f236723	0.6382925
187	0x3f236617	0.6382765
188	0x3f237c27	0.63861316
189	0x3f24f6b3	0.64438933
190	0x3f24f5af	0.64437383
191	0x3f250bf6	0.64471376
192	0x3f26c1ce	0.6513947
193	0x3f26c075	0.65137416
194	0x3f26d6ef	0.6517171
195	0x3f28d52a	0.6595026
196	0x3f28d3b2	0.6594802
197	0x3f28ea51	0.6598254
198	0x3f2b42e2	0.6689893
199	0x3f2b4154	0.6689656
200	0x3f2b583f	0.6693153
201	0x3f2e1406	0.67999303
202	0x3f2e12c7	0.679974
203	0x3f2e29c9	0.6803251
204	0x3f3137f6	0.69226015
205	0x3f3136e6	0.69224393
206	0x3f314e2a	0.69259894
207	0x3f34a487	0.7056355
208	0x3f34a3a3	0.7056219
209	0x3f34bb57	0.7059836
210	0x3f384df8	0.7199397
211	0x3f384dd3	0.7199375
212	0x3f386569	0.7202974
213	0x3f3c2930	0.7350035
214	0x3f3c28e7	0.7349991
215	0x3f3c4148	0.7353711
216	0x3f403958	0.750875
217	0x3f403955	0.7508748
218	0x3f405133	0.751239
219	0x3f449596	0.7679075
220	0x3f4495f6	0.7679132
221	0x3f44ae56	0.76828516
222	0x3f497575	0.7869485
223	0x3f497613	0.7869579
224	0x3f498e9c	0.7873323
225	0x3f4eca81	0.80777746
226	0x3f4ecbcc	0.8077972
227	0x3f4ee3d8	0.8081641
228	0x3f53e577	0.8277201
229	0x3f53e703	0.8277437
230	0x3f53feaf	0.8281049
231	0x3f58e2bb	0.84720963
232	0x3f58e47a	0.8472363
233	0x3f58fb20	0.84758186
234	0x3f5dd3bf	0.86651224
235	0x3f5dd56d	0.86653787
236	0x3f5dea4e	0.86685646
237	0x3f62f714	0.8865826
238	0x3f62f7f9	0.88659626
239	0x3f630b03	0.8868868
240	0x3f683537	0.907062
241	0x3f6835de	0.90707195
242	0x3f684721	0.90733534
243	0x3f6db9f4	0.92861867
244	0x3f6dba2c	0.928622
245	0x3f6dc7b9	0.9288288
246	0x3f7300db	0.9492318
247	0x3f7300ba	0.94922984
248	0x3f7308b2	0.94935143
249	0x3f76c24b	0.9639022
250	0x3f76c218	0.96389914
251	0x3f76c73f	0.96397775
252	0x3f79fbcb	0.9764983
253	0x3f79fb7e	0.9764937
254	0x3f79fc7a	0.97650874
255	0x3f7ba3bf	0.9829673

network_body._body_endoder.seq_layers.0.weight f4 [128, 271]
0	0x3d409745	0.047019262
1	0x3c91dfc1	0.01780689
2	0xbcf529eb	-0.029927215
3	0xbd9b5bc9	-0.07585866
4	0x3ca116b6	0.01966415
5	0x3c5116ee	0.0127618145
6	0xbc57432f	-0.013138576
7	0x3df9825a	0.12183066
8	0x3db1246f	0.08649527
9	0xbd2510ea	-0.040299334
10	0x3e2be854	0.16787845
11	0x3cc30873	0.02380774
12	0x3cd82dc9	0.02638902
13	0x3de79ab2	0.11308803
14	0x3b510652	0.0031894636
15	0x3cca5678	0.024699435
16	0xbd0bd4e9	-0.034138594
17	0xbc9adb8d	-0.018903518
18	0xbd8e40f1	-0.0694598
19	0x3e07b5cc	0.13252944
20	0x3d0ecea1	0.034865025
21	0xbd69c198	-0.05706939
22	0x3df25e5e	0.11834405
23	0xbd696917	-0.056984987
24	0xbdac8ed1	-0.084256776
25	0x3bf73fe1	0.0075454568
26	0xbdd06a61	-0.1017654
27	0xbd6a84c2	-0.057255514
28	0x3d2a290d	0.041543055
29	0xbd8f9df4	-0.07012549
30	0x3c128244	0.008942191
31	0x3d496a04	0.04917337
32	0xbddfe7f6	-0.10932915
33	0xbd65257a	-0.055943944
34	0x3d58b9b2	0.052911468
35	0xbb2f9f89	-0.0026797971
36	0xbd6735e0	-0.056447864
37	0xbd1b3cfe	-0.037899964
38	0xbbfb6117	-0.007671486
39	0x3c71bc16	0.014754316
40	0xbc1e1bf5	-0.00965022
41	0x3d75f43d	0.060047377
42	0x3e3a66f4	0.18203336
43	0xba0037db	-0.00048911356
44	0xbc5b69ed	-0.013391954
45	0x3d8c2c8f	0.068444364
46	0xbd197e56	-0.037474
47	0x3b528e4f	0.003212828
48	0x3d84ec9e	0.06490444
49	0x3c05e8cf	0.008173182
50	0x3c9c6a33	0.019093608
51	0xbd8cb416	-0.06870286
52	0x3cb8717c	0.022515051
53	0xbd996d37	-0.07491534
54	0xbd0a5912	-0.03377635
55	0xbd317f50	-0.043334305
56	0xbded3668	-0.11582643
57	0x3ce5ef68	0.02806826
58	0x3d26b4d1	0.040699784
59	0xbc5dc6cf	-0.013536169
60	0x3c8e51f0	0.017373055
61	0x3ba2fea3	0.0049742027
62	0xbcc16ac5	-0.023610482
63	0x3d896433	0.067085646
64	0x3d0cdaf2	0.03438849
65	0xbe1f5425	-0.15559442
66	0xbda3872b	-0.079847656
67	0xbc99e845	-0.018787513
68	0xbc975845	-0.018474707
69	0xbbbae559	-0.00570361
70	0x3d9c4434	0.07630196
71	0xbda9b203	-0.08285906
72	0xbc92ed37	-0.017935378
73	0x3d0e3bf1	0.034725133
74	0xbd27d474	-0.040974095
75	0xbc7b1cc2	-0.015326681
76	0x3d15e07d	0.03659104
77	0x3d0ec55a	0.034856178
78	0x3d9379c7	0.072009616
79	0xba2da558	-0.00066240644
80	0x3db644ed	0.08899865
81	0xbced7ce2	-0.028990213
82	0x3c5830db	0.013195242
83	0xbd343774	-0.043998197
84	0xbbbf234d	-0.0058330656
85	0x3e069005	0.13140877
86	0xbd3873f4	-0.045032457
87	0x3d8f9d2b	0.07012399
88	0x3d50f356	0.051013313
89	0xbd415430	-0.047199428
90	0xbdb4de4b	-0.088314615
91	0x3cb9a4a8	0.022661522
92	0xbcb3ef9a	-0.021964837
93	0xbcdfacc2	-0.027304057
94	0xbd8a4fcc	-0.06753501
95	0x3da20a9d	0.079121806
96	0xbd110cf0	-0.03541273
97	0xbcc0414b	-0.023468634
98	0x3de5c39c	0.1121895
99	0xbd292198	-0.041291803
100	0xbc3ba2d2	-0.011452394
101	0xbd246e0d	-0.040144015
102	0xbe201c0c	-0.15635699
103	0xbd496dd6	-0.049177013
104	0x3d2da92d	0.042397667
105	0xbe2f473c	-0.17117018
106	0xbd75e1e8	-0.060029894
107	0xbdb84b9b	-0.089987956
108	0xbd18ff73	-0.03735299
109	0x3d00828d	0.031374503
110	0x3c89b69b	0.016810706
111	0xbdb98959	-0.090594
112	0x3ce8df75	0.028426865
113	0xbc982586	-0.01857258
114	0xbe09cbeb	-0.13456695
115	0xbdc0a259	-0.09405965
116	0xbe3d809e	-0.18506095
117	0x3c10da3b	0.008841093
118	0xbd1ee38d	-0.038791228
119	0xbe4391e8	-0.19098628
120	0xbc3060cd	-0.010765267
121	0x3d93e68d	0.072217084
122	0xbe025c30	-0.12730479
123	0xbc4dd725	-0.0125635015
124	0xbdc1e353	-0.09467187
125	0xbde5cbf8	-0.112205446
126	0x3e1166eb	0.14199416
127	0xba239393	-0.0006239947
128	0xbe18fb28	-0.14939559
129	0x3d0adc26	0.033901356
130	0x3d57c915	0.052682
131	0xbe065816	-0.1311954
132	0xbbb0e4e6	-0.0053983806
133	0x3dcdc9b1	0.10048235
134	0xbd4d4542	-0.050114878
135	0x3ce60c13	0.02808193
136	0x3d8c7e93	0.068600796
137	0xbe1b536f	-0.15168546
138	0x3da974c5	0.08274225
139	0xbd87c8d4	-0.06630102
140	0x3ccc2c67	0.024923516
141	0x3d4a1341	0.04933477
142	0xbe163f9f	-0.14672707
143	0x3d822aae	0.06355797
144	0x3d190114	0.037354544
145	0x3b874ea1	0.0041292463
146	0x3c73cdf2	0.014880644
147	0x3df4d3ea	0.11954482
148	0xbe008f7f	-0.1255474
149	0xbd53df60	-0.0517267
150	0xbdbde546	-0.09272246
151	0xbcd49d15	-0.025953809
152	0x3cb0e23c	0.021592252
153	0xbdfee8f0	-0.12446773
154	0x3da76844	0.08174184
155	0x3c8b3cf9	0.016996847
156	0xbcca0fdc	-0.024665765
157	0x3ca08005	0.019592294
158	0xbd958b4a	-0.07301958
159	0xbd6d06d2	-0.057867832
160	0xbbb118a5	-0.005404549
161	0x3d6a3d8c	0.057187602
162	0xbd647a20	-0.05578053
163	0x3c67f82a	0.014158288
164	0xbb8b4f60	-0.0042514056
165	0xbdc07d83	-0.093989395
166	0xbce17a57	-0.027524156
167	0xbce1a424	-0.027544089
168	0xbd1ecc61	-0.03876913
169	0xbb870699	-0.0041206595
170	0xbc00bf94	-0.007858176
171	0xbd1e960c	-0.038717315
172	0x3e16d190	0.14728379
173	0xbcbd2f17	-0.023093743
174	0xbbe7142f	-0.0070519666
175	0x3e344fd7	0.17608581
176	0x3d0aa0cb	0.03384475
177	0xbdbc3d5d	-0.091913916
178	0x3c6e8f8e	0.014560593
179	0x3d253e59	0.040342662
180	0x3d874826	0.06605558
181	0x3d556168	0.052094847
182	0xbda2254c	-0.0791727
183	0x3c097249	0.008389064
184	0x3d619d5b	0.055081706
185	0xbad05b6a	-0.0015896384
186	0xbcb75b63	-0.022382444
187	0xbc32b883	-0.010908249
188	0x3d1a2c0d	0.037639666
189	0xbd31bce7	-0.043393042
190	0x3dc83628	0.097759545
191	0xbd3b1c57	-0.045681324
192	0x3d581977	0.05275866
193	0xbd14d0e2	-0.03633202
194	0xbcbabca6	-0.022795033
195	0xbe0da1d3	-0.13831262
196	0x3e1ede18	0.1551441
197	0x3d8a0354	0.06738916
198	0x3cb348d7	0.021885319
199	0x3dc8a446	0.09796958
200	0x3c79e21a	0.015251661
201	0xbd96f8ca	-0.073716715
202	0x3abfdb24	0.0014637453
203	0x3cfba551	0.030718477
204	0x3d44d985	0.048059005
205	0x3d4c1403	0.049823772
206	0x3d4169cd	0.04722004
207	0x3d789542	0.06068922
208	0x3d8b7b7c	0.06810662
209	0x3d522b99	0.05131111
210	0x3d39aacc	0.0453289
211	0x3e08057f	0.13283347
212	0xbcfe36cf	-0.031031994
213	0xbd8d5a25	-0.06901959
214	0xbc395d0f	-0.011313691
215	0x3d416a0a	0.047220267
216	0xbe2e2a60	-0.17008352
217	0xbcc2cab2	-0.023778293
218	0x3de25b9c	0.11052629
219	0x3d06a51c	0.032872304
220	0x3c5b2c9d	0.013377336
221	0x3bf75a18	0.007548582
222	0x3dbf59de	0.09343313
223	0x3e2c4d4b	0.1682636
224	0x3dc0f559	0.09421796
225	0xbe1da527	-0.15395032
226	0x3ac94cce	0.0015357973
227	0xbc12e5a0	-0.00896588
228	0xbcb4e89f	-0.022083579
229	0x3d979000	0.07400513
230	0x3d8c0935	0.068376936
231	0xbd3b240a	-0.045688666
232	0x3d50a854	0.05094178
233	0x3df31147	0.1186853
234	0xbd7211ef	-0.059099134
235	0xbc97a653	-0.018511927
236	0xbd39b27a	-0.045336224
237	0x3d84aa44	0.06477788
238	0x3d5ecd1b	0.054394823
239	0x3dae4754	0.085096985
240	0x3b9f2de3	0.004857765
241	0x3c31d7d0	0.010854676
242	0xbc8aad46	-0.016928326
243	0x3cbe9f72	0.023269389
244	0x3d25aaf2	0.04044623
245	0x3cebca29	0.02878292
246	0x3caf9ac0	0.021436095
247	0x3cba09db	0.022709778
248	0x3d375d57	0.04476675
249	0x3da1fcf3	0.07909574
250	0x3d982615	0.074291386
251	0xbd8ec4ba	-0.06971116
252	0x3dde5275	0.10855571
253	0x3ccbffb6	0.024902206
254	0xbc6297d2	-0.013830142
255	0x3dc15153	0.094393395

network_body._body_endoder.seq_layers.0.bias f4 [128]
0	0xbdbe67b8	-0.092971265
1	0xbd9878d5	-0.07444922
2	0xbda76262	-0.08173062
3	0xbda1c751	-0.07899345
4	0x3bddbe9d	0.0067671076
5	0x3d9c0ce3	0.076196454
6	0xbd2ff78d	-0.042960692
7	0xbd8d2f1a	-0.068937495
8	0xbd371612	-0.044698782
9	0xbd64f6af	-0.05589932
10	0x3be2b428	0.006918449
11	0xbcdc2f9f	-0.026878176
12	0x3d31e988	0.043435603
13	0xbbe524fa	-0.0069929333
14	0x3cda7167	0.026665403
15	0x3cdd87af	0.027042238
16	0x3d522800	0.05130768
17	0xbdff6d7a	-0.12472053
18	0xbd7e0e54	-0.062025383
19	0xbdcd7f3f	-0.10034036
20	0x3c103a6c	0.008802991
21	0xbddc6284	-0.10760978
22	0xbd06e2da	-0.032931186
23	0xbd003872	-0.03130383
24	0xbd8ebb4f	-0.0696932
25	0xbd958722	-0.07301165
26	0xbdc5f4b0	-0.09665811
27	0x3d2d7a49	0.04235295
28	0xbd9425f3	-0.07233801
29	0xbdc9d0a2	-0.09854247
30	0xbd9006fe	-0.07032584
31	0x3da4cf3b	0.080473386
32	0xbc529c40	-0.012854636
33	0xbcb2425a	-0.021760155
34	0xbdd783ed	-0.1052321
35	0xbc82f02d	-0.015983665
36	0x3d476a5c	0.048685417
37	0x3bdb6269	0.006695081
38	0xbd8662e8	-0.065618336
39	0xbd4e9372	-0.050433584
40	0xbdb4c16e	-0.08825956
41	0xbd14801c	-0.036254987
42	0xbe3da720	-0.18520784
43	0xbcebf692	-0.028804097
44	0x3b954889	0.004555766
45	0xbdc3dec4	-0.095639735
46	0x3ce235f5	0.02761362
47	0xbd03efa6	-0.03221097
48	0x396d3994	0.00022623531
49	0x3d030e05	0.031995792
50	0xbd454666	-0.04816284
51	0xbcccc527	-0.024996353
52	0xbd8cba5e	-0.06871484
53	0xbdaa0588	-0.08301836
54	0x3cf26ecc	0.029593848
55	0x3d0871e8	0.033311754
56	0xbd9f4776	-0.07777302
57	0xbc512bc1	-0.012766779
58	0xbd8ac8cd	-0.06776581
59	0xbdb68362	-0.08911778
60	0xbcddfc95	-0.02709798
61	0xbca403f0	-0.020021409
62	0xbcc08c77	-0.023504479
63	0xbd57a13d	-0.052644003
64	0xbdeda81d	-0.11604331
65	0xbd10abe0	-0.035320163
66	0xbe0ffd53	-0.1406148
67	0x3d435ab3	0.04769392
68	0xbb9b4350	-0.004738249
69	0xbd81f613	-0.06345763
70	0xbcf9b2b0	-0.030480713
71	0xbda74868	-0.08168107
72	0xbc51575e	-0.012777178
73	0xbcce4820	-0.025180876
74	0xbcdcf665	-0.026972959
75	0xbdb60114	-0.088869244
76	0xbd2fda3c	-0.042932734
77	0xbd33671f	-0.043799516
78	0xbdaa0946	-0.0830255
79	0xbe17c193	-0.14819936
80	0xbe3f90f2	-0.18707636
81	0xbd82c50b	-0.06385239
82	0xbb9745f3	-0.004616493
83	0xbd2e11d9	-0.04249749
84	0xbe021ada	-0.12705556
85	0xbd3d8ff5	-0.046279866
86	0x3d064b56	0.03278669
87	0xbdf4ce59	-0.1195342
88	0xbc2c7c01	-0.010527612
89	0xbdcaa180	-0.09894085
90	0xbc8b2f54	-0.016990341
91	0xbdaa7d58	-0.08324689
92	0x3cdd06d5	0.026980797
93	0x3d2119b1	0.03933114
94	0xbda30324	-0.079595834
95	0x3ca6394b	0.020290991
96	0xbbae4e02	-0.005319358
97	0x3d47f00c	0.04881291
98	0xbd766a76	-0.060160123
99	0x3d461c4f	0.04836684
100	0xbdad003a	-0.08447309
101	0xbd36089d	-0.044441808
102	0xba10dc7d	-0.00055260194
103	0xbca9f721	-0.020747723
104	0xbdd1fb1b	-0.10252973
105	0x3ba915d9	0.005160075
106	0xbb82e982	-0.0039951215
107	0xbda163bb	-0.0788035
108	0x3d0ba146	0.03408935
109	0xbc67a656	-0.014138779
110	0x3c95f465	0.018305013
111	0xbaf6e605	-0.0018836862
112	0x3c88fdae	0.016722526
113	0xbddab30d	-0.106786825
114	0xbd080b2e	-0.033213787
115	0xbcc6fec8	-0.024291411
116	0x3b6e0e6d	0.0036324516
117	0xbd08e4a0	-0.03342116
118	0xbd5dddca	-0.054166593
119	0x3c47f7bc	0.012205061
120	0xbd16a75b	-0.036780696
121	0xbdff8968	-0.1247738
122	0xbdb24309	-0.08704192
123	0xbc6cdaaf	-0.014456435
124	0x3d6b0a51	0.057382885
125	0xbd0587e2	-0.03260029
126	0x3df7797e	0.1208372
127	0x3c4a4923	0.012346539

network_body._body_endoder.seq_layers.2.weight f4 [128, 128]
0	0x3cadc635	0.021212677
1	0xbe43e8cf	-0.19131778
2	0xbd8267ef	-0.0636748
3	0x3dc1abf4	0.094566256
4	0xbdbdb4e2	-0.09263016
5	0x3d0a5053	0.03376801
6	0xbe570bc5	-0.21000583
7	0xbe7271b0	-0.23676181
8	0x3c85a794	0.016315259
9	0xbd2d59d5	-0.042322
10	0x391f1b26	0.00015173535
11	0x3d5391e1	0.051652793
12	0xbd6d6281	-0.05795527
13	0xbdb971a4	-0.09054878
14	0xbcc9fe86	-0.024657499
15	0x3e899c6f	0.26877162
16	0x3dc23a5b	0.09483787
17	0xbe53c258	-0.20679605
18	0xbe41ba5a	-0.18918744
19	0xbd0b68e3	-0.034035575
20	0xbd842976	-0.064532205
21	0xbe1f643c	-0.1556558
22	0xbe0dc5b8	-0.13844955
23	0x3e583e64	0.2111755
24	0xbd629986	-0.055322193
25	0xbddebf03	-0.10876276
26	0x3e0d26f4	0.1378439
27	0x3cc46c45	0.023977408
28	0x3da5c421	0.08094049
29	0xbdf46c35	-0.11934701
30	0xbdbd2e88	-0.09237391
31	0x3deb393a	0.114855245
32	0xbd5a8c7e	-0.05335664
33	0x3d03c494	0.032169893
34	0xbe88f146	-0.26746577
35	0x3e54a93e	0.20767686
36	0xbe066442	-0.13124183
37	0x3d7082c6	0.058718465
38	0xbb4fe969	-0.0031724817
39	0x3cf195de	0.029490408
40	0x3dd45f7e	0.10369776
41	0x3e1ddb6b	0.15415733
42	0xbe2b1d17	-0.16710316
43	0xbd735aa2	-0.059412606
44	0xbe1115a3	-0.1416841
45	0xbe91f14d	-0.2850441
46	0xbcb8e442	-0.02256978
47	0xbe0d1a3d	-0.1377954
48	0xbca1678d	-0.019702697
49	0x3d9a8dd8	0.07546586
50	0xbda21983	-0.07915022
51	0x3cf51269	0.029916005
52	0xbcf56987	-0.029957546
53	0xbe0fb7b3	-0.1403492
54	0x3d2bad0a	0.04191307
55	0x3cd61d17	0.026136918
56	0x3ce321a1	0.027725996
57	0xbd845f2c	-0.06463465
58	0xbd8a561b	-0.067547046
59	0xbdbed4e4	-0.093179494
60	0x3d913f64	0.07092169
61	0xbe948e49	-0.29014805
62	0xbdf624aa	-0.12018712
63	0x3d871f38	0.065977514
64	0xbc53980a	-0.012914667
65	0xbb202721	-0.0024437385
66	0xbd99febc	-0.0751929
67	0xbd3d02bd	-0.04614519
68	0x3d143237	0.0361807
69	0xbd7e8c29	-0.062145386
70	0x3e04f0a3	0.1298242
71	0xbd17af92	-0.03703267
72	0x3d03fdb4	0.032224372
73	0x3de2cea1	0.110745676
74	0x3e32b867	0.17453156
75	0xbe0f8140	-0.14014149
76	0x3de0a347	0.10968643
77	0xbc83d340	-0.016091943
78	0xbd7bf7d8	-0.06151566
79	0xbdc10601	-0.09424973
80	0xbdd6f8d9	-0.10496683
81	0xbdff9c9a	-0.12481041
82	0xbcd4adc7	-0.02596177
83	0xbce6fb65	-0.028196046
84	0x3dff2a3c	0.124592274
85	0xb9fdb93e	-0.00048393937
86	0x3dbd4565	0.092417516
87	0xbcbb4e9e	-0.022864636
88	0xbc88450a	-0.016634483
89	0xbe55dbab	-0.20884578
90	0xbdda88f6	-0.106706545
91	0xbdf02e89	-0.11727626
92	0x3d6366ab	0.055517834
93	0xbd97b0fa	-0.074068025
94	0x3d7dc2be	0.0619533
95	0x3c991c23	0.018690174
96	0xbdc979ec	-0.09837708
97	0x3d261fa0	0.040557504
98	0xbdb99636	-0.090618536
99	0x3d0ec352	0.03485424
100	0xbebff45c	-0.3749112
101	0xbdcebe2a	-0.10094865
102	0x3d522e93	0.051313948
103	0xbd2ac631	-0.041692916
104	0xbe6993da	-0.22810307
105	0xbd87e9cc	-0.0663639
106	0x3d83e543	0.064402126
107	0xbd9a189b	-0.07524224
108	0xbdcd9547	-0.10038238
109	0x3d29d7b6	0.041465484
110	0xbd07dcf6	-0.03316971
111	0xbd1e0149	-0.038575444
112	0xbd8b8291	-0.06812013
113	0x3e4d8ea9	0.20073952
114	0xbe3779f7	-0.1791762
115	0xbd9351ad	-0.07193313
116	0x3c8db53d	0.017298335
117	0xbe948846	-0.29010218
118	0x3d9bbffc	0.076049775
119	0x3de53194	0.11191097
120	0x3dd9540f	0.10611736
121	0x3d6ff372	0.058581777
122	0xbdf79d57	-0.12090557
123	0x3cf813b9	0.030282842
124	0x3e5297f8	0.20565784
125	0xbd5e8887	-0.05432942
126	0x3daf14e0	0.085489035
127	0x3e2500d1	0.16113593
128	0xbd3f26e7	-0.04666796
129	0x3c07aa8d	0.008280409
130	0xbcbebfce	-0.023284819
131	0x3d69d7a4	0.057090417
132	0xbcff688f	-0.031177787
133	0x3d67a2ef	0.05655187
134	0x3d8c6090	0.06854355
135	0xbd7f3350	-0.062304795
136	0xbd0d7f2d	-0.034545112
137	0xbe0002f5	-0.12501128
138	0x3e14a43c	0.14515775
139	0xbe468cb9	-0.19389619
140	0xbd8d437a	-0.06897636
141	0xbd70ac9d	-0.058758367
142	0xbe09e9a2	-0.1346803
143	0xbcd6cf8a	-0.02622201
144	0xbd34cd4e	-0.044141106
145	0xbd900603	-0.07032397
146	0xbd63d186	-0.05561974
147	0xbd90c623	-0.070690416
148	0x3c9d4583	0.019198185
149	0xbd38c82d	-0.045112778
150	0x3df925b6	0.12165396
151	0xbd215ed0	-0.03939706
152	0xbe781da6	-0.2423006
153	0x3d886d43	0.06661465
154	0xbe746861	-0.23867942
155	0xbe4f44a5	-0.2024103
156	0x3d837f00	0.06420708
157	0xbd37f8bc	-0.044914946
158	0x3d70574b	0.058677
159	0x3c566179	0.013084763
160	0x3e011249	0.12604631
161	0xbdf2314d	-0.1182581
162	0xbdc9a542	-0.098459736
163	0xbdf33a59	-0.11876363
164	0xba4ea663	-0.000788307
165	0x3d6d3a05	0.05791666
166	0xbdb1161e	-0.08646797
167	0xbdc1f0e6	-0.09469776
168	0x3c8b76ce	0.017024424
169	0xbc5ef824	-0.013608966
170	0xbe0de95b	-0.1385855
171	0xbdafba35	-0.08580438
172	0xbe0448b9	-0.12918366
173	0xbeaa83fc	-0.3330382
174	0x3de9ffac	0.11425719
175	0x3d08077d	0.033210266
176	0xbda19433	-0.07889595
177	0xbd91556d	-0.07096372
178	0x3dbbf009	0.091766424
179	0x3d96907a	0.073517755
180	0x3d6cdf92	0.0578304
181	0x3e3a68e2	0.18204072
182	0xbd80aac3	-0.0628257
183	0xbca7a69c	-0.020465188
184	0xbdc12e24	-0.09432629
185	0xbbd677fd	-0.0065450654
186	0xbdf314a9	-0.11869175
187	0x3d704f60	0.058669448
188	0xbcc5ae28	-0.024130896
189	0x3db4cd5b	0.08828231
190	0x3b0514e0	0.0020306632
191	0x3cc7edb0	0.02440533
192	0xbe231fd5	-0.15930112
193	0xbd7fdb0f	-0.06246477
194	0xbdf41820	-0.11918664
195	0xbd10c7c5	-0.035346765
196	0x3ca358d2	0.019939814
197	0xbd95da53	-0.07317033
198	0xbe2a1496	-0.16609415
199	0xbdde521f	-0.10855507
200	0x3e618ec7	0.22027121
201	0xbbd3621a	-0.0064509036
202	0x3da8d653	0.08244004
203	0x3d3f9712	0.04677493
204	0xbc56a4ca	-0.013100812
205	0x3c4beff8	0.01244735
206	0xbe43012e	-0.19043419
207	0xbe00602c	-0.12536687
208	0xbe04bf1f	-0.12963532
209	0x3dce9558	0.10087079
210	0xbdce7fa4	-0.10082939
211	0xbdd9478f	-0.10609352
212	0x3c7eba0e	0.015547289
213	0x3c0c8f66	0.008579111
214	0xbbe48242	-0.0069735358
215	0xbe542d3b	-0.20720379
216	0x3d8651f0	0.06558597
217	0xbd256266	-0.040377043
218	0x3cdc190b	0.02686741
219	0xbe336d2a	-0.17522112
220	0x3d54a294	0.05191286
221	0x3ce3c157	0.027802153
222	0x3b336d30	0.0027378313
223	0x3e16fa79	0.14743985
224	0xbd0c2dea	-0.034223475
225	0xbdc083f2	-0.094001666
226	0xbc6ad93e	-0.014334021
227	0xbca65048	-0.020301953
228	0xbdd14e4c	-0.10220012
229	0xbe1f2d13	-0.15544538
230	0x3ddc4f86	0.107573554
231	0xbd4b0cf3	-0.049572896
232	0xbd1cd5c1	-0.03828979
233	0x3dcf6982	0.10127546
234	0x3dafce74	0.085843
235	0xbd2f2917	-0.042763796
236	0xbd4c1d39	-0.049832556
237	0x3d0db229	0.034593735
238	0xbd80a0cf	-0.06280672
239	0x3e0d2863	0.13784938
240	0x3cafd40e	0.02146342
241	0xbd4d10f2	-0.05006499
242	0xbda0a28c	-0.07843503
243	0xbe89bced	-0.2690195
244	0xbd384eac	-0.044996902
245	0xbd776057	-0.06039461
246	0xbe198993	-0.14993887
247	0x3c3732b0	0.011181518
248	0x3de90306	0.1137753
249	0x3b9f2b33	0.0048574447
250	0xbde884ba	-0.113534406
251	0xbe2fb2a8	-0.17157996
252	0x3d280f26	0.04103007
253	0xbda4a0d8	-0.08038491
254	0xbd68c438	-0.056827754
255	0x3e192dc7	0.14958869

network_body._body_endoder.seq_layers.2.bias f4 [128]
0	0x3d1af894	0.03783472
1	0x3c627af1	0.013823257
2	0xbd23e1cc	-0.04001026
3	0x3d370ad2	0.044688053
4	0x3ca31a65	0.019910047
5	0xbc204dc2	-0.009784164
6	0x3d3cf944	0.046136156
7	0xbb546b5c	-0.0032412624
8	0xbd17fdbe	-0.03710722
9	0xbce3e09d	-0.027817065
10	0xbc5b597f	-0.013388037
11	0xbcf3dbd6	-0.029767912
12	0x3c8c761a	0.017146159
13	0xbce4d981	-0.027935745
14	0xbc798ab7	-0.015230826
15	0xbbc19a18	-0.005908262
16	0x3ceeb22c	0.029137693
17	0x3ca98e86	0.020697843
18	0xbb9be442	-0.004757435
19	0x3d891e01	0.06695176
20	0xbcc54965	-0.024082849
21	0x3da53444	0.080666095
22	0xbc2230f0	-0.009899363
23	0xbdb71012	-0.08938612
24	0xbcefcf4f	-0.029273657
25	0xbd7f04f3	-0.06226058
26	0xbdd92fde	-0.10604833
27	0x3d45042e	0.04809969
28	0x3a8030c0	0.0009780154
29	0x3d869aa5	0.06572465
30	0xbd14601d	-0.036224473
31	0x399e24ed	0.0003016362
32	0xbd93900e	-0.072052106
33	0xbc8f98b8	-0.017528877
34	0xbd000ce1	-0.031262282
35	0xbc8d3f27	-0.017242027
36	0x3cf3929b	0.029732993
37	0x3bba75a6	0.0056902943
38	0xbd41d94c	-0.04732637
39	0xbcf2737c	-0.029596083
40	0x3bede1d2	0.007259586
41	0x3dc21f84	0.094786674
42	0xbcd70b4a	-0.0262505
43	0xbdfe9fc6	-0.12432818
44	0x3d7797d7	0.06044754
45	0xbd8c0077	-0.06836026
46	0x3ccbb238	0.024865255
47	0x3c9d7a41	0.019223334
48	0x3d8bf920	0.06834626
49	0x3b783eec	0.0037879301
50	0xbd21bbec	-0.039485857
51	0xba805ce2	-0.0009793306
52	0xbd33af23	-0.043868195
53	0xbc21fbcb	-0.009886692
54	0x3dad7849	0.08470208
55	0xbc29aac1	-0.010355652
56	0xbc72ff55	-0.014831384
57	0x3dc365b7	0.09540885
58	0xbd3179ec	-0.043329164
59	0xbc874703	-0.016513353
60	0xbc7339d6	-0.014845332
61	0xbd70ea03	-0.05881692
62	0xbd3d680c	-0.046241805
63	0x3c283acf	0.010267927
64	0xbd77dd12	-0.060513563
65	0xbc885d4e	-0.016646054
66	0x3ca81610	0.020518333
67	0xbda998dc	-0.08281109
68	0x3b52e2c6	0.0032178625
69	0xbd65409f	-0.05596983
70	0xbb518a20	-0.0031973198
71	0xbc85b81b	-0.01632314
72	0xbd3f6058	-0.04672274
73	0xbd1a0ad0	-0.037607968
74	0xbd88eb98	-0.06685561
75	0xbda7f6c1	-0.082013614
76	0x3d90e20e	0.070743665
77	0xbd24c9bc	-0.04023145
78	0x3c6d864a	0.014497349
79	0xbd9ccbfd	-0.07656095
80	0xbd63e5db	-0.05563913
81	0xbd4f3aff	-0.050593372
82	0x3cd13fe8	0.025543168
83	0x3c656cc4	0.0140029825
84	0x3d18dda3	0.037320744
85	0xbd2de2c3	-0.042452585
86	0xbd67eb68	-0.056620985
87	0xbbe524b9	-0.006992903
88	0xbce7e1d8	-0.028305933
89	0x3d6bc4f1	0.057560865
90	0xbbaa3b4b	-0.0051950566
91	0xbceb15bb	-0.028696885
92	0xbd4dcc9a	-0.05024395
93	0xbdcc0425	-0.09961728
94	0xbd1fcbeb	-0.03901283
95	0x3d73e37d	0.05954312
96	0xbc712dcf	-0.014720394
97	0x3bbd101c	0.0057697427
98	0xbe105b42	-0.14097312
99	0xbd44cd2d	-0.048047233
100	0xbc84a339	-0.016191112
101	0xbd5925a7	-0.053014424
102	0xbd646296	-0.05575808
103	0xbceaacf3	-0.028646922
104	0xbc65d658	-0.014028154
105	0xbd4842a8	-0.048891693
106	0xbd9bba89	-0.07603938
107	0xbd696402	-0.05698014
108	0xbd3e980f	-0.046531733
109	0xbda00228	-0.07812911
110	0xbd8dbfc8	-0.06921345
111	0xbc2fb2fd	-0.0107238265
112	0xbc94255c	-0.01808422
113	0xbdafabc1	-0.08577681
114	0xbce7ea08	-0.028309837
115	0xbe0b868a	-0.13625541
116	0xbda1208e	-0.078675374
117	0x3db2897f	0.087176315
118	0xbd81ef73	-0.063444994
119	0xbb89879d	-0.0041970746
120	0x3d1e3f02	0.038634308
121	0xbd93ad28	-0.07210761
122	0xbd369a8e	-0.04458099
123	0x3beef850	0.0072927848
124	0xbd9a46ac	-0.07533011
125	0x3d8a9d5c	0.06768295
126	0x3bef50ac	0.007303318
127	0x3c77e317	0.015129826

action_model._continuous_distribution.log_sigma f4 [1, 2]
0	0xbfa14b91	-1.2601186
1	0xbfa3bbf0	-1.2791729

action_model._continuous_distribution.mu.weight f4 [2, 128]
0	0x3cd24b5f	0.025670705
1	0xbc0cfd66	-0.008605337
2	0xbc7c8f31	-0.015414999
3	0xbd9b643c	-0.075874776
4	0xbc85b840	-0.016323209
5	0xbc96a794	-0.018390454
6	0xbde2433b	-0.110479794
7	0x3cc3b308	0.02388908
8	0x3d16e0d1	0.036835495
9	0xbc295c8d	-0.010337007
10	0xbc29ef21	-0.010371954
11	0xbd400b7d	-0.046885956
12	0xbc67c6b4	-0.014146496
13	0x3d8eedee	0.06978975
14	0xba2a81e3	-0.000650434
15	0x3d03b0fb	0.032151204
16	0x3d889380	0.066687584
17	0x3ab22bc4	0.0013593365
18	0x3d50ef9c	0.05100976
19	0xbd485785	-0.04891159
20	0x3d45f3da	0.048328258
21	0x3c4d5ec2	0.012534799
22	0x3df205a6	0.118174836
23	0x3cf4e9fa	0.029896725
24	0xbd7e6263	-0.062105548
25	0x3b6fa001	0.0036563876
26	0x3b621911	0.0034499804
27	0xbc98186e	-0.018566336
28	0xbd80937c	-0.062781304
29	0x3c93e8d9	0.018055366
30	0x3d945127	0.07242041
31	0xbb76bf70	-0.0037650727
32	0xbc34df25	-0.01103953
33	0x3d5c874f	0.053839978
34	0x3df784b7	0.1208586
35	0xbd4d79dd	-0.050165046
36	0xbc5d2804	-0.01349831
37	0x3d4b2d91	0.049604002
38	0xbcf0c6bb	-0.029391637
39	0x3d8c0d42	0.06838466
40	0xbd85679e	-0.06513904
41	0xbbe79ac7	-0.0070680114
42	0xbaeb00e7	-0.0017929346
43	0xbc3d753c	-0.011563595
44	0xbab198ee	-0.0013549605
45	0xbd9af3fd	-0.07566068
46	0xbbefb18d	-0.007314867
47	0x3d3b25c1	0.0456903
48	0x3df56e2d	0.11983905
49	0xbc25389c	-0.0100842975
50	0x3de53850	0.111923814
51	0xbdde9a43	-0.10869267
52	0x3cb8d3e9	0.022561984
53	0x3d1478e7	0.036248114
54	0xbd251501	-0.040303234
55	0x3d4432cc	0.047900006
56	0xbc7f3cc2	-0.015578451
57	0xbd7c081d	-0.061531175
58	0x3d7b0fbc	0.061294302
59	0x3aca0b66	0.0015414774
60	0x3c64262c	0.0139251165
61	0x3d5aa0ce	0.05337601
62	0xbd489e90	-0.048979342
63	0xbd0aae49	-0.033857618
64	0xbd9634d7	-0.07334297
65	0x3d58b4c9	0.052906785
66	0x3dc68409	0.096931525
67	0x3be70663	0.007050322
68	0xbc3e14d6	-0.011601647
69	0xbc741b9b	-0.01489916
70	0x3d31e4a3	0.043430936
71	0x3e2e5250	0.17023587
72	0x3cb9d160	0.022682846
73	0xbd49f5ed	-0.0493068
74	0x3d8db910	0.069200635
75	0xbd89cd17	-0.06728571
76	0xbd8aec6d	-0.06783376
77	0x3d61955d	0.055074085
78	0x3d3afce3	0.045651328
79	0xbc9e3cd2	-0.01931611
80	0x3d205836	0.039146625
81	0xbd2022fd	-0.039095867
82	0x3d5c44d3	0.053776573
83	0xbd149763	-0.036277186
84	0x3dabb06e	0.08383261
85	0x3c6c0401	0.0144052515
86	0x3d09986d	0.03359263
87	0xbc4ce690	-0.012506142
88	0xbda87519	-0.082254596
89	0x3d68f040	0.056869745
90	0x3c8d709e	0.017265614
91	0x3ceee006	0.029159557
92	0x3c17e90f	0.009271874
93	0xbc22a484	-0.009926919
94	0xbd72f612	-0.059316702
95	0x3cce89fc	0.02521228
96	0x3d97f985	0.07420639
97	0xbcb6c3fb	-0.022310248
98	0xbcc58a82	-0.024113897
99	0x3d372fcd	0.04472332
100	0xbc82888a	-0.015934248
101	0x3b4369c4	0.002981768
102	0xbb90700a	-0.0044078873
103	0x3c8851ee	0.01664063
104	0xbd02083e	-0.03174614
105	0x3d138e7e	0.036024563
106	0x3c24369f	0.010022788
107	0xbd740cbd	-0.05958246
108	0xbd763d01	-0.06011677
109	0x3cd04bf0	0.025426835
110	0xbd55ae9f	-0.052168485
111	0x3d8b3dcf	0.067988984
112	0x3d13dd96	0.036099993
113	0xbc90080e	-0.017581966
114	0xbcc87f71	-0.024474831
115	0x3c241bcd	0.010016394
116	0xbc3cdbd2	-0.011527019
117	0x3d036f6c	0.032088682
118	0x3d892664	0.066967756
119	0x3d800557	0.062510185
120	0xbd484191	-0.048890654
121	0x3c78e2d3	0.015190798
122	0xbd9c1a9e	-0.07622264
123	0x3d6bed76	0.057599507
124	0xbc3bc62f	-0.011460825
125	0xbd2ae582	-0.041722782
126	0x3d5640e8	0.052307993
127	0x3da4a67c	0.08039567
128	0x3d391126	0.04518237
129	0xbb93e390	-0.0045132115
130	0xbc0c3eb4	-0.008559871
131	0x3c9194e4	0.017771192
132	0x3c4d8c4b	0.0125456555
133	0xbd98434a	-0.07434709
134	0x3c340818	0.010988258
135	0x3d064728	0.032782704
136	0xba5826a5	-0.00082455046
137	0xbd121aa9	-0.035669956
138	0xbd4bf257	-0.04979166
139	0xbd5d503b	-0.05403159
140	0xbd9bf2e5	-0.07614688
141	0x3d44dbf7	0.048061337
142	0xbd9626dc	-0.073316306
143	0xbd6bcdc0	-0.057569265
144	0x3c945e46	0.01811136
145	0x3baa9a15	0.0052063563
146	0xbda65898	-0.08122367
147	0x3d288007	0.04113772
148	0xbd4898e4	-0.048973933
149	0x3cefe799	0.029285239
150	0xbd6f2908	-0.05838874
151	0x3d38e030	0.045135677
152	0xbd986e82	-0.07442953
153	0x3b5512af	0.0032512357
154	0xbb9ada58	-0.0047257356
155	0x3d17ee22	0.037092336
156	0xbbf1be7a	-0.007377443
157	0x3d460319	0.048342798
158	0xbd8a3900	-0.06749153
159	0xbd202799	-0.039100263
160	0x3da144e1	0.07874466
161	0xbd689684	-0.056784168
162	0xbca59129	-0.02021082
163	0xbe06d563	-0.13167338
164	0x3cce8bf8	0.025213227
165	0xbdbd6dee	-0.09249483
166	0xbd7e4a5a	-0.062082626
167	0xbd9405c2	-0.07227661
168	0xbd6dca0c	-0.058054015
169	0x3d4f74d7	0.050648537
170	0xbce1451e	-0.027498778
171	0x3a915738	0.0011088615
172	0x3d1dc01e	0.038513295
173	0xbcf354ed	-0.029703582
174	0xbdd80949	-0.10548646
175	0x3ccce420	0.025011122
176	0x3d05f5eb	0.03270523
177	0xbc6173c6	-0.013760513
178	0xbc0cbee4	-0.008590434
179	0xbddc162c	-0.107464164
180	0xbc1d6471	-0.009606467
181	0x3caed20b	0.02134039
182	0x3d836323	0.06415393
183	0xbd0bc6f2	-0.034125276
184	0xbd2032e2	-0.039111026
185	0x3c981314	0.018563785
186	0xbce653a3	-0.028116053
187	0xbd9cbe37	-0.07653468
188	0xbc99070a	-0.018680114
189	0xbd9ad00c	-0.07559213
190	0xbd26f860	-0.040764213
191	0x3d06dea6	0.032927178
192	0xbdc71085	-0.09719948
193	0xbd76063c	-0.06006454
194	0xbe1be1c8	-0.15222847
195	0x3d1f17f0	0.038841188
196	0xbbed7ff0	-0.0072479174
197	0xbd1cb8db	-0.03826223
198	0xbcb8aa1d	-0.022542054
199	0xbc5f4695	-0.013627668
200	0x3d061b9c	0.032741174
201	0x3b9f1086	0.0048542647
202	0x3c7a1065	0.015262698
203	0xbcc4169d	-0.023936564
204	0x3d928727	0.071546845
205	0xbd3247f0	-0.043525636
206	0xbdc7d0aa	-0.097565964
207	0x3c2a87ba	0.010408336
208	0x3c12cf85	0.008960609
209	0xbc998ca8	-0.018743828
210	0xbd171aef	-0.03689092
211	0x3cbb93a6	0.022897553
212	0x3c89d614	0.016825713
213	0x3cec2f2f	0.028831093
214	0xbd495e77	-0.049162354
215	0xbd3114bc	-0.043232664
216	0xbd870fdb	-0.06594821
217	0x3d4f0294	0.050539568
218	0xbdfa6e2c	-0.12228045
219	0xbd7b5461	-0.061359767
220	0xbc58b150	-0.013225868
221	0x3c85b6ee	0.01632258
222	0xbce09e6d	-0.027419293
223	0x3db1388d	0.08653364
224	0xbdaa6fad	-0.08322082
225	0x3cb5df8e	0.022201326
226	0x3aaeb259	0.0013328298
227	0xbd7219f4	-0.059106782
228	0xbdae90bf	-0.08523702
229	0xbd423614	-0.047414854
230	0x3c217429	0.009854355
231	0xbd50e0dd	-0.050995696
232	0xbcc09ea7	-0.023513151
233	0xbd18b958	-0.037286133
234	0xbc684b09	-0.014178046
235	0xbc3b43bd	-0.011429724
236	0xbd43a588	-0.047765285
237	0x3d3c52f7	0.04597756
238	0x3d031d86	0.032010578
239	0xbdd1a6ad	-0.10236869
240	0xbbb00340	-0.005371481
241	0xbc8da579	-0.017290818
242	0xbc483b50	-0.012221172
243	0xbd35587a	-0.04427383
244	0x3c01385d	0.007886973
245	0x3dc8b2f9	0.09799761
246	0xbc90fc27	-0.01769836
247	0xbdc1a628	-0.0945552
248	0x3c83ec8b	0.016104003
249	0xbd20ea7e	-0.03928613
250	0xbd508629	-0.050909195
251	0x3caae977	0.020863278
252	0xbbfd7d33	-0.007735872
253	0x3d4af64a	0.049551286
254	0xbba2ce05	-0.004968407
255	0x3b83b8f5	0.0040198513

action_model._continuous_distribution.mu.bias f4 [2]
0	0xbba27cbb	-0.0049587167
1	0x3d6363a9	0.055514965

onnx::Div_51 f4 [271]
0	0x3e85d4ea	0.26139003
1	0x3e85d4e7	0.26138994
2	0x3e85db4b	0.2614387
3	0x3e87d1a4	0.2652713
4	0x3e87d1a2	0.26527125
5	0x3e87d8aa	0.2653249
6	0x3e8a7ba6	0.2704746
7	0x3e8a7b86	0.27047366
8	0x3e8a830a	0.270531
9	0x3e8eab7d	0.2786521
10	0x3e8eab0b	0.2786487
11	0x3e8eb281	0.27870563
12	0x3e9624d0	0.2932496
13	0x3e9624ba	0.29324895
14	0x3e962b3c	0.2932986
15	0x3e9e191e	0.30878538
16	0x3e9e18f2	0.30878407
17	0x3e9e1e6f	0.30882594
18	0x3ea55489	0.32291058
19	0x3ea55488	0.32291055
20	0x3ea558c7	0.32294294
21	0x3eab7d00	0.33493805
22	0x3eab7c86	0.3349344
23	0x3eab7fa1	0.3349581
24	0x3eb0ae44	0.34507954
25	0x3eb0adbe	0.34507555
26	0x3eb0af43	0.34508714
27	0x3eb504d2	0.3535524
28	0x3eb50468	0.35354924
29	0x3eb504bc	0.35355175
30	0x3eb8924d	0.3604912
31	0x3eb891b5	0.36048666
32	0x3eb89067	0.3604767
33	0x3ebb387d	0.36566535
34	0x3ebb37ce	0.36566013
35	0x3ebb359b	0.36564335
36	0x3ebd2ee4	0.36949837
37	0x3ebd2e4a	0.36949378
38	0x3ebd2b0f	0.36946914
39	0x3ebeb6de	0.37248892
40	0x3ebeb675	0.3724858
41	0x3ebeb268	0.37245488
42	0x3ebff2b0	0.37489843
43	0x3ebff2fb	0.37490067
44	0x3ebfee36	0.37486428
45	0x3ec0ead3	0.37679157
46	0x3ec0eb2e	0.37679428
47	0x3ec0e59b	0.37675175
48	0x3ec1b604	0.3783418
49	0x3ec1b66e	0.37834495
50	0x3ec1afd3	0.37829456
51	0x3ec25a03	0.37959298
52	0x3ec25a74	0.37959635
53	0x3ec2533c	0.37954128
54	0x3ec2c581	0.3804131
55	0x3ec2c5f3	0.38041648
56	0x3ec2bdd0	0.3803544
57	0x3ec305a2	0.38090235
58	0x3ec3060f	0.3809056
59	0x3ec2fd19	0.38083723
60	0x3ec31f3f	0.38109776
61	0x3ec32124	0.38111222
62	0x3ec316c8	0.38103318
63	0x3ec305e7	0.3809044
64	0x3ec30747	0.3809149
65	0x3ec2fc0b	0.3808292
66	0x3ec2be2f	0.38035724
67	0x3ec2bf34	0.380365
68	0x3ec2b29a	0.38026887
69	0x3ec23b14	0.37935698
70	0x3ec23bbb	0.37936196
71	0x3ec22dc0	0.3792553
72	0x3ec17236	0.3778245
73	0x3ec1727a	0.3778265
74	0x3ec16255	0.37770334
75	0x3ec05bfa	0.37570173
76	0x3ec05be3	0.37570104
77	0x3ec04a94	0.375569
78	0x3ebedba5	0.3727695
79	0x3ebedb28	0.37276578
80	0x3ebec801	0.37261966
81	0x3ebcde63	0.36888418
82	0x3ebcdec8	0.3688872
83	0x3ebcc9af	0.36872622
84	0x3eba65c5	0.3640577
85	0x3eba664a	0.36406165
86	0x3eba4ec1	0.3638821
87	0x3eb74b6c	0.3579973
88	0x3eb74b8a	0.3579982
89	0x3eb731a7	0.3578007
90	0x3eb36f43	0.35045823
91	0x3eb36fb0	0.35046148
92	0x3eb3532a	0.35024387
93	0x3eaea5f6	0.34110993
94	0x3eaea71e	0.34111875
95	0x3eae87be	0.34087938
96	0x3ea895ca	0.3292678
97	0x3ea896d1	0.32927564
98	0x3ea87481	0.32901385
99	0x3ea0f81f	0.314393
100	0x3ea0f89e	0.3143968
101	0x3ea0d3f7	0.31411716
102	0x3e9756ef	0.29558513
103	0x3e9759f6	0.29560822
104	0x3e97343d	0.29532042
105	0x3e8aaed3	0.27086505
106	0x3e8ab087	0.27087805
107	0x3e8a8a07	0.27058432
108	0x3e71486b	0.23562782
109	0x3e714c1e	0.23564193
110	0x3e710705	0.23537834
111	0x3e41f5ab	0.18941371
112	0x3e41f88d	0.18942471
113	0x3e41c70f	0.18923591
114	0x3deb1b8c	0.114798635
115	0x3deb2229	0.11481125
116	0x3deaf0f9	0.11471743
117	0x3d96d1e3	0.073642515
118	0x3d96dcf5	0.07366363
119	0x3d96dd09	0.07366378
120	0x3d443674	0.047903493
121	0x3d445add	0.047938216
122	0x3d449c6d	0.04800074
123	0x3d140711	0.03613955
124	0x3d1435fa	0.03618429
125	0x3d148578	0.0362601
126	0x3cef4eda	0.029212404
127	0x3cefc2f3	0.029267764
128	0x3cf0542e	0.029337015
129	0x3cc46e18	0.023978278
130	0x3cc4fd9d	0.024046713
131	0x3cc57b4e	0.024106648
132	0x3cc25388	0.023721471
133	0x3cc2e1ee	0.023789372
134	0x3cc34201	0.023835184
135	0x3d0afb1c	0.033930883
136	0x3d0b2d8e	0.03397899
137	0x3d0b4954	0.034005478
138	0x3e8496eb	0.2589639
139	0x3e8496e5	0.25896373
140	0x3e849c57	0.25900528
141	0x3e852e21	0.26011756
142	0x3e852e76	0.2601201
143	0x3e85325c	0.26014984
144	0x3e8a8a07	0.27058432
145	0x3e8a8a2c	0.27058542
146	0x3e8a8b7f	0.27059552
147	0x3e950193	0.29102764
148	0x3e9502eb	0.2910379
149	0x3e95022e	0.29103225
150	0x3e9c1004	0.3048097
151	0x3e9c11ec	0.30482423
152	0x3e9c0fea	0.3048089
153	0x3ea2f959	0.31830862
154	0x3ea2fae6	0.31832045
155	0x3ea2f7c9	0.3182967
156	0x3ea9559e	0.33073133
157	0x3ea956df	0.3307409
158	0x3ea9527a	0.33070737
159	0x3eaf146d	0.3419527
160	0x3eaf15c3	0.3419629
161	0x3eaf0f9f	0.34191605
162	0x3eb3da58	0.3512752
163	0x3eb3dba0	0.35128498
164	0x3eb3d3d7	0.35122558
165	0x3eb79088	0.35852456
166	0x3eb79149	0.3585303
167	0x3eb78809	0.35845974
168	0x3eba4a5d	0.3638486
169	0x3eba4b23	0.3638545
170	0x3eba4096	0.363774
171	0x3ebc59b1	0.3678718
172	0x3ebc5a5e	0.36787695
173	0x3ebc4efe	0.36779016
174	0x3ebde0d7	0.37085602
175	0x3ebde18b	0.37086138
176	0x3ebdd535	0.37076727
177	0x3ebf0cc0	0.37314415
178	0x3ebf0d59	0.3731487
179	0x3ebf003d	0.3730487
180	0x3ebfe4d2	0.37479264
181	0x3ebfe582	0.37479788
182	0x3ebfd79c	0.37469184
183	0x3ec06929	0.3758023
184	0x3ec069e2	0.37580782
185	0x3ec05ac9	0.37569264
186	0x3ec09d80	0.37620163
187	0x3ec09dd0	0.376204
188	0x3ec08e4b	0.3760856
189	0x3ec083ed	0.3760065
190	0x3ec08474	0.37601054
191	0x3ec07400	0.375885
192	0x3ec0227f	0.37526318
193	0x3ec022fa	0.37526685
194	0x3ec0115f	0.37513253
195	0x3ebf79b3	0.37397537
196	0x3ebf79d5	0.37397638
197	0x3ebf66e1	0.37383178
198	0x3ebe8d4f	0.37217185
199	0x3ebe8d4e	0.37217182
200	0x3ebe7924	0.37201798
201	0x3ebd63e1	0.36990264
202	0x3ebd63e0	0.3699026
203	0x3ebd4eb3	0.36974105
204	0x3ebbf031	0.3670669
205	0x3ebbf0a3	0.3670703
206	0x3ebbd959	0.3668926
207	0x3eba27c1	0.36358455
208	0x3eba2877	0.36358997
209	0x3eba0f36	0.3633973
210	0x3eb7f35b	0.35927853
211	0x3eb7f3d1	0.35928205
212	0x3eb7d87f	0.3590736
213	0x3eb54752	0.35405976
214	0x3eb5476e	0.3540606
215	0x3eb5299d	0.3538331
216	0x3eb211ef	0.34779307
217	0x3eb2122b	0.34779486
218	0x3eb1f286	0.34755343
219	0x3eae32ba	0.34023076
220	0x3eae341f	0.3402414
221	0x3eae1150	0.33997583
222	0x3ea9424c	0.33058393
223	0x3ea9434c	0.33059156
224	0x3ea91d2d	0.33030072
225	0x3ea3110e	0.3184895
226	0x3ea31154	0.31849158
227	0x3ea2e7b0	0.3181739
228	0x3e9c46f8	0.30522895
229	0x3e9c4816	0.30523747
230	0x3e9c1aa7	0.30489084
231	0x3e94bee7	0.29051897
232	0x3e94c125	0.29053608
233	0x3e9491fe	0.29017633
234	0x3e8c5c6b	0.2741426
235	0x3e8c5eaf	0.27415988
236	0x3e8c2e6d	0.2737917
237	0x3e82bebe	0.2553615
238	0x3e82c2d3	0.25539264
239	0x3e829138	0.25501418
240	0x3e6ff4a4	0.23433167
241	0x3e6ffb0a	0.23435608
242	0x3e6f9266	0.2339569
243	0x3e5601b7	0.20899092
244	0x3e560709	0.20901121
245	0x3e55a3e9	0.20863308
246	0x3e37e493	0.17958288
247	0x3e37e884	0.17959791
248	0x3e3799ea	0.17929807
249	0x3e1bdf58	0.15221918
250	0x3e1be25a	0.15223065
251	0x3e1ba6dd	0.15200372
252	0x3df1c90f	0.11805927
253	0x3df1cff8	0.11807245
254	0x3df1a7ea	0.11799605
255	0x3dc37bf8	0.095451295
