results/90RC3/Park90RC/Park90RC-10499868.onnx (onnx, 213786 bytes, 9 tensors)

network_body.observation_encoder.processors.0.normalizer.running_mean f4 [271]
0.5606588 0.5606197 0.56091726 0.5571215 0.55709136 0.5573803 0.5548063 0.5547779
0.55506897 0.55499774 0.55496305 0.55525506 0.5570534 0.5570149 0.5573091 0.5556654
0.5556333 0.55592763 0.5534271 0.5534032 0.5537018 0.55252117 0.5524995 0.5528034
0.55199414 0.5519767 0.55228835 0.55217505 0.55214936 0.5524625 0.5524052 0.5523825
0.5527024 0.5528325 0.5528067 0.5531358 0.55386215 0.5538407 0.55417687 0.5557167
0.5556923 0.5560365 0.55851644 0.5584981 0.5588354 0.5621464 0.56213135 0.5624751
0.5663589 0.56634045 0.56668574 0.57164127 0.5716285 0.5719722 0.57803595 0.5780205
0.57837486 0.58577615 0.5857587 0.5861174 0.5948661 0.5948479 0.59520495 0.60515165
0.60513765 0.6054977 0.61659265 0.61657834 0.61693984 0.629049 0.62903583 0.6294044
0.64245397 0.642446 0.6428089 0.65684897 0.6568316 0.6571997 0.6718242 0.67180336
0.67218095 0.6876588 0.687636 0.6880189 0.7043714 0.70436174 0.70474166 0.72178966
0.72178555 0.7221672 0.74048334 0.74049085 0.74087745 0.7605982 0.7606119 0.7609948
0.7825464 0.78256476 0.78294486 0.806487 0.80651253 0.8068672 0.8324871 0.83250135
0.8328179 0.86128235 0.86129135 0.86155266 0.8951263 0.89513105 0.8953055 0.93199503
0.9319929 0.932072 0.9751975 0.97519565 0.97521305 0.98909485 0.9890912 0.98908114
0.9946133 0.9946103 0.9945946 0.9967218 0.9967202 0.99670744 0.9977703 0.9977681
0.9977563 0.9985093 0.99850523 0.9984966 0.9982929 0.99828875 0.99828166 0.9964644
0.9964632 0.9964593 0.5662177 0.56617725 0.56647336 0.57442623 0.5743882 0.57468057
0.5893622 0.58931684 0.58959943 0.605566 0.6055194 0.60580677 0.6122595 0.61221445
0.61249554 0.6155535 0.6155121 0.615798 0.61753386 0.6174971 0.61778635 0.61776066
0.61773115 0.6180279 0.6173899 0.6173614 0.6176675 0.6169663 0.6169451 0.6172558
0.6169913 0.61697257 0.61729664 0.61772287 0.6177132 0.618032 0.6192644 0.6192483
0.6195767 0.621747 0.6217312 0.6220659 0.6253238 0.6253097 0.62564206 0.62979144
0.6297711 0.63011247 0.6350644 0.6350555 0.6353929 0.64117324 0.64116323 0.64150524
0.64818287 0.6481672 0.64851123 0.6562928 0.6562761 0.6566232 0.6657964 0.6657778
0.6661293 0.67684793 0.6768298 0.6771811 0.68916845 0.6891476 0.68950385 0.702606
0.7025914 0.7029539 0.71699905 0.71699387 0.71735585 0.7321636 0.7321572 0.7325306
0.748151 0.7481467 0.74851394 0.7653344 0.76533735 0.76571155 0.78461385 0.7846208
0.78499913 0.8057245 0.8057416 0.8061099 0.8258751 0.8258962 0.826258 0.8455339
0.8455599 0.8459054 0.8650142 0.8650371 0.8653559 0.8852849 0.8852972 0.88558704
0.90592664 0.9059354 0.9062012 0.9275985 0.92760086 0.9278072 0.9482375 0.94823617
0.94836116 0.9630958 0.96309364 0.96317416 0.9757729 0.9757698 0.97578573 0.98236984
00000000: 5687 0f3f c684 0f3f 4698 0f3f 849f 0e3f
00000010: 8a9d 0e3f 7ab0 0e3f c907 0e3f ed05 0e3f
00000020: 0019 0e3f 5514 0e3f 0f12 0e3f 3225 0e3f
00000030: 0d9b 0e3f 8798 0e3f cfab 0e3f 1640 0e3f
00000040: fc3d 0e3f 4651 0e3f 66ad 0d3f d5ab 0d3f
00000050: 67bf 0d3f 0772 0d3f 9b70 0d3f 8684 0d3f
00000060: 7d4f 0d3f 584e 0d3f c562 0d3f 585b 0d3f
00000070: a959 0d3f 2f6e 0d3f 6d6a 0d3f f168 0d3f
00000080: e87d 0d3f 6e86 0d3f bd84 0d3f 4f9a 0d3f
00000090: e9c9 0d3f 81c8 0d3f 89de 0d3f 7343 0e3f
000000a0: da41 0e3f 6858 0e3f effa 0e3f bbf9 0e3f
000000b0: d60f 0f3f d4e8 0f3f d7e7 0f3f 5efe 0f3f
000000c0: e6fc 103f b0fb 103f 5112 113f 1557 123f
000000d0: 3f56 123f c56c 123f 2afa 133f 27f9 133f
000000e0: 6010 143f 6df5 153f 48f4 153f ca0b 163f
000000f0: 2549 183f f447 183f 5a5f 183f 38eb 1a3f
00000100: 4dea 1a3f e601 1b3f 04d9 1d3f 14d8 1d3f
00000110: c5ef 1d3f 5b09 213f 7e08 213f a620 213f
00000120: dd77 243f 5777 243f 208f 243f 4127 283f
00000130: 1e26 283f 3d3e 283f acfc 2b3f 4efb 2b3f
00000140: 0d14 2c3f 680a 303f ea08 303f 0222 303f
00000150: af51 343f 0d51 343f f369 343f 35c7 383f
00000160: f0c6 383f f3df 383f 5190 3d3f cf90 3d3f
00000170: 25aa 3d3f 90b6 423f 76b7 423f 8ed0 423f
00000180: f654 483f 2a56 483f 136f 483f ef75 4e3f
00000190: 9b77 4e3f d98e 4e3f e01d 553f cf1e 553f
000001a0: 8e33 553f 007d 5c3f 977d 5c3f b78e 5c3f
000001b0: ff26 653f 4f27 653f be32 653f 3a97 6e3f
000001c0: 1697 6e3f 459c 6e3f 8ba6 793f 6ca6 793f
000001d0: 90a7 793f 5235 7d3f 1535 7d3f 6c34 7d3f
000001e0: fa9e 7e3f c89e 7e3f c09d 7e3f 2929 7f3f
000001f0: 0e29 7f3f 3828 7f3f e06d 7f3f bb6d 7f3f
00000200: f56c 7f3f 4e9e 7f3f 0a9e 7f3f 799d 7f3f
00000210: 2090 7f3f da8f 7f3f 638f 7f3f 4a18 7f3f
00000220: 3618 7f3f f517 7f3f a5f3 103f fef0 103f
00000230: 6604 113f 990d 133f 1b0b 133f 441e 133f
00000240: 71e0 163f 78dd 163f fdef 163f 6006 1b3f
00000250: 5203 1b3f 2716 1b3f 0abd 1c3f 16ba 1c3f
00000260: 82cc 1c3f ea94 1d3f 3392 1d3f f0a4 1d3f
00000270: b316 1e3f 4a14 1e3f 3f27 1e3f 9025 1e3f
00000280: a123 1e3f 1437 1e3f 440d 1e3f 660b 1e3f
00000290: 751f 1e3f 81f1 1d3f 1df0 1d3f 7a04 1e3f
000002a0: 24f3 1d3f eaf1 1d3f 2707 1e3f 1623 1e3f
000002b0: 7422 1e3f 5837 1e3f 1d88 1e3f 0e87 1e3f
000002c0: 949c 1e3f d02a 1f3f c729 1f3f b63f 1f3f
000002d0: 3815 203f 4c14 203f 142a 203f 033a 213f
000002e0: ae38 213f 0d4f 213f 9593 223f ff92 223f
000002f0: 1ca9 223f ee23 243f 4623 243f b039 243f
00000300: 50ef 253f 49ee 253f d504 263f ce02 283f
00000310: b601 283f 7518 283f a271 2a3f 6a70 2a3f
00000320: 7387 2a3f e845 2d3f b844 2d3f be5b 2d3f
00000330: 586d 303f fa6b 303f 5383 303f fddd 333f
00000340: 08dd 333f c9f4 333f 408d 373f e98c 373f
00000350: a2a4 373f 136f 3b3f a76e 3b3f 2087 3b3f
00000360: d386 3f3f 8b86 3f3f 9c9e 3f3f f5ec 433f
00000370: 26ed 433f ac05 443f 74dc 483f e9dc 483f
00000380: b4f5 483f f643 4e3f 1545 4e3f 385d 4e3f
00000390: 8d6c 533f ef6d 533f a585 533f e974 583f
000003a0: 9d76 583f 428d 583f 9271 5d3f 1273 5d3f
000003b0: f787 5d3f 08a2 623f d6a2 623f d5b5 623f
000003c0: cfea 673f 62eb 673f cdfc 673f 1877 6d3f
000003d0: 4077 6d3f c684 6d3f b1bf 723f 9bbf 723f
000003e0: ccc7 723f 728d 763f 4e8d 763f 9592 763f
000003f0: 41cc 793f 0dcc 793f 18cd 793f 977c 7b3f

network_body._body_endoder.seq_layers.0.weight f4 [128, 271]
0.050096337 0.016499221 -0.03464034 -0.06691133 0.022052689 0.012344819 -0.0028992828 0.12367025
0.083246976 -0.033053283 0.17005786 0.02260241 0.035163525 0.117746145 0.00418219 0.034799967
-0.026413005 -0.013966644 -0.058017384 0.14204124 0.041692365 -0.045517087 0.12652044 -0.049386516
-0.071952395 0.015426632 -0.09413992 -0.049555115 0.04849595 -0.06440788 0.017089201 0.05709562
-0.10592002 -0.048300248 0.058335744 -0.0009337854 -0.04746152 -0.02895556 -0.0015464367 0.018639047
-0.00010061692 0.06624834 0.18842697 0.009856873 -0.0043468405 0.07346037 -0.02706099 0.013021863
0.067897394 0.014744239 0.024725305 -0.06561595 0.02875721 -0.069300525 -0.03028396 -0.039652947
-0.11328032 0.03042042 0.043021366 -0.012957042 0.01993997 0.008532506 -0.022744244 0.070064895
0.038667977 -0.15380149 -0.07747496 -0.014512526 -0.016252339 -0.004480915 0.07938448 -0.081464164
-0.016517598 0.03754941 -0.039773375 -0.013986381 0.038963288 0.036227066 0.073497884 0.0022863098
0.090757154 -0.027023595 0.017088564 -0.04141122 -0.0057812803 0.13307622 -0.04356057 0.06965525
0.052100446 -0.046021886 -0.08879598 0.02576395 -0.019548107 -0.027191082 -0.06500734 0.0793756
-0.032575335 -0.019337753 0.114855684 -0.040093552 -0.014335929 -0.04630072 -0.1559763 -0.049249325
0.038564943 -0.17129372 -0.059963107 -0.09375785 -0.037487973 0.030312194 0.010690878 -0.090605535
0.026234528 -0.024886794 -0.13684344 -0.098705836 -0.1894023 0.0013185135 -0.03905986 -0.19506876
-0.015477261 0.07346071 -0.12868577 -0.01806427 -0.095665164 -0.114274986 0.13145085 -0.0058935154
-0.15477206 0.021205176 0.040909655 -0.14207262 -0.019132555 0.09249525 -0.0605006 0.017684385
0.06663992 -0.15510115 0.08435399 -0.064167395 0.0235771 0.051166996 -0.14043832 0.066572525
0.037856583 0.008233878 0.01738242 0.1162246 -0.120999 -0.047357216 -0.09549352 -0.022542289
0.02520316 -0.12437174 0.08280837 0.020268096 -0.022747494 0.021829383 -0.06942564 -0.05468811
-0.0014811315 0.061382163 -0.05342023 0.01714435 -0.0013718732 -0.09423014 -0.02633183 -0.025783474
-0.042094905 -0.004654 -0.006433514 -0.045672305 0.13844311 -0.028650701 -0.012233797 0.16893072
0.0307303 -0.0989893 0.0072365133 0.036917936 0.059807777 0.04518743 -0.08133752 0.0023325866
0.049593847 -0.0006291295 -0.027378745 -0.015133946 0.037644632 -0.0464103 0.09650602 -0.042306606
0.048083045 -0.038197394 -0.019097172 -0.14569893 0.15268731 0.067923255 0.01170713 0.0939563
0.013550225 -0.08302542 -0.0026364082 0.026593562 0.037967827 0.044602577 0.042724922 0.050941125
0.063312724 0.04782341 0.037538342 0.12916316 -0.034287494 -0.07831378 -0.0151546905 0.044632122
-0.18106535 -0.026983108 0.107327476 0.022288037 0.010140529 0.005258871 0.08276354 0.16483377
0.091420256 -0.16157249 0.00060826173 -0.00875325 -0.026674962 0.07701972 0.07179145 -0.055769615
0.044060096 0.10913995 -0.06746041 -0.0196782 -0.049234007 0.0508659 0.049802933 0.077685855
-0.0077703265 0.0077288128 -0.020803189 0.015491541 0.045952506 0.03348557 0.011778612 0.031111076
0.05058155 0.06643906 0.086312726 -0.061013836 0.096785806 0.035898723 -0.0019927176 0.075794436
00000000: d131 4d3d 6029 873c 07e3 0dbd cf08 89bd
00000010: d7a7 b43c ec41 4a3c e501 3ebb d446 fd3d
00000020: 647d aa3d e162 07bd a623 2e3e b028 b93c
00000030: a107 103d e424 f13d c10a 893b 698a 0e3d
00000040: 1660 d8bc 5ad4 64bc a3a3 6dbd 4273 113e
00000050: 9dc5 2a3d 2070 3abd 938e 013e 8449 4abd
00000060: c75b 93bd fcbf 7c3c 6ecc c0bd 4efa 4abd
00000070: b0a3 463d 47e8 83bd a7fe 8b3c 19dd 693d
00000080: 98ec d8bd 7bd6 45bd 76f1 6e3d 47c9 74ba
00000090: 0367 42bd 3634 edbc ceb1 caba eab0 983c
000000a0: 4c02 d3b8 36ad 873d 00f3 403e b97e 213c
000000b0: f16f 8ebb 6472 963d 02af ddbc a759 553c
000000c0: ca0d 8b3d d291 713c b98c ca3c a861 86bd
000000d0: 3e94 eb3c 6fed 8dbd 1116 f8bc 216b 22bd
000000e0: 83ff e7bd 3f34 f93c 2c37 303d c649 54bc
000000f0: 2659 a33c edcb 0b3c 2352 babc 2f7e 8f3d
00000100: 5062 1e3d 237e 1dbe 31ab 9ebd f2c5 6dbc
00000110: a023 85bc a4d4 92bb 5594 a23d afd6 a6bd
00000120: ea4f 87bc 69cd 193d 68e9 22bd 2227 65bc
00000130: f897 1f3d d562 143d 0f86 963d ead5 153b
00000140: e3de b93d 9660 ddbc 51fd 8b3c d09e 29bd
00000150: e570 bdbb 2245 083e 916c 32bd 69a7 8e3d
00000160: 4767 553d 7281 3cbd abda b5bd eb0e d33c
00000170: 5a23 a0bc d5bf debc 9122 85bd ad8f a23d
00000180: b76d 05bd 356a 9ebc 7539 eb3d 2339 24bd
00000190: 3fe1 6abc d3a5 3dbd 40b8 1fbe a9b9 49bd
000001a0: 46f6 1d3d 9f67 2fbe e09b 75bd 1e04 c0bd
000001b0: fd8c 19bd 4751 f83c cb28 2f3c 658f b9bd
000001c0: cbe9 d63c 64df cbbc b020 0cbe 4926 cabd
000001d0: adf2 41be f9d1 ac3a 3bfd 1fbd 1bc0 47be
000001e0: 5694 7dbc 9272 963d 34c6 03be 85fb 93bc
000001f0: 19ec c3bd 0109 eabd 0d9b 063e 641e c1bb
00000200: 917c 1ebe 7ab6 ad3c e290 273d 7c7b 11be
00000210: e0bb 9cbc 266e bd3d 7acf 77bd d8de 903c
00000220: 837a 883d d6d2 1ebe c9c1 ac3d 326a 83bd
00000230: c324 c13c 7c94 513d 10cf 0fbe 2d57 883d
00000240: 810f 1b3d 63e7 063c 9465 8e3c 2a07 ee3d
00000250: 53ce f7bd a4f9 41bd 1b92 c3bd 9baa b8bc
00000260: db76 ce3c 9cb6 febd 6f97 a93d 4709 a63c
00000270: f458 babc 89d3 b23c 082f 8ebd a400 60bd
00000280: 8722 c2ba dd6b 7b3d 2ccf 5abd 4f72 8c3c
00000290: 6dd0 b3ba bbfb c0bd dab5 d7bc dd37 d3bc
000002a0: b56b 2cbd 9580 98bb 3ad0 d2bb e212 3bbd
000002b0: 08c4 0d3e e0b4 eabc 4470 48bc 2dfc 2c3e
000002c0: 1cbe fb3c e7ba cabd 4620 ed3b 4337 173d
000002d0: 00f9 743d 7416 393d 4994 a6bd 4fde 183b
000002e0: eb22 4b3d 2bec 24ba 6449 e0bc 5ff4 77bc
000002f0: 4231 1a3d ba18 3ebd f3a4 c53d b149 2dbd
00000300: baf2 443d df74 1cbd ac71 9cbc 1a32 15be
00000310: 105a 1c3e 591b 8b3d 43cf 3f3c 296c c03d
00000320: c301 5e3c 3b09 aabd 97c7 2cbb beda d93c
00000330: 2784 1b3d 31b1 363d 5400 2f3d a4a7 503d
00000340: 1aaa 813d 7be2 433d cec1 193d 5943 043e
00000350: 0b71 0cbd fa62 a0bd 614b 78bc 2cd0 363d
00000360: 3269 39be ae0b ddbc 82ce db3d 6795 b63c
00000370: 7624 263c 9b52 ac3b ee7f a93d 2fca 283e
00000380: 8b3a bb3d 4273 25be c173 1f3a cb69 0fbc
00000390: 7385 dabc 84bc 9d3d 6507 933d ae6e 64bd
000003a0: 5c78 343d c484 df3d af28 8abd 2d34 a1bc
000003b0: 99a9 49bd c358 503d 29fe 4b3d c319 9f3d
000003c0: 399e febb fb41 fd3b 736b aabc 3bd0 7d3c
000003d0: b238 3c3d 2a28 093d 14fb 403c a8dc fe3c
000003e0: 992e 4f3d 3411 883d bac4 b03d a5e9 79bd
000003f0: a337 c63d 8a0a 133d 4198 02bb 1d3a 9b3d

network_body._body_endoder.seq_layers.0.bias f4 [128]
-0.09086074 -0.065356284 -0.083890684 -0.07222812 0.009895778 0.07767196 -0.051265717 -0.06476095
-0.039410446 -0.057464026 0.003608015 -0.032622803 0.047966044 -0.0065119555 0.027477683 0.028371701
0.051401537 -0.12818524 -0.06337034 -0.09576551 0.0025629047 -0.105619974 -0.027735623 -0.030842612
-0.064965464 -0.0779088 -0.10671655 0.04309189 -0.078688376 -0.101132296 -0.066631116 0.09055578
-0.014453178 -0.012417909 -0.09731207 -0.008927494 0.056335043 0.012267857 -0.06839727 -0.04867751
-0.09331228 -0.038757347 -0.18291622 -0.029534308 0.0033875988 -0.10498099 0.03487611 -0.032175455
-0.0054768655 0.030850844 -0.046020694 -0.017350491 -0.065392576 -0.080989055 0.040607516 0.03390259
-0.07842172 -0.011799355 -0.062347837 -0.093330964 -0.033198845 -0.02073311 -0.018568771 -0.05824418
-0.11084423 -0.031887777 -0.13188456 0.04677595 -0.0013675475 -0.06779775 -0.024402665 -0.082604036
-0.020902049 -0.024413574 -0.018332392 -0.08685836 -0.03471592 -0.03923067 -0.07406037 -0.13904779
-0.18958887 -0.05282937 -0.005118333 -0.039458398 -0.12361768 -0.042439982 0.026637653 -0.115512714
-0.006937502 -0.09861183 -0.020291138 -0.076165766 0.03966673 0.040026348 -0.07972765 0.026361262
0.0011029771 0.04837543 -0.05877423 0.05457091 -0.08255303 -0.040494513 0.008035149 -0.019299055
-0.0995106 0.005865417 -0.00094039366 -0.07413633 0.038880907 -0.012000357 0.021895029 0.0018850904
0.020628395 -0.10840549 -0.035996027 -0.022821294 0.0022583012 -0.034964375 -0.051547088 0.005945915
-0.031612616 -0.1292664 -0.08752891 -0.031728365 0.059389103 -0.03055457 0.11810416 0.015074374
00000000: 3215 babd 84d9 85bd e1ce abbd 56ec 93bd
00000010: e721 223c 7a12 9f3d 00fc 51bd 64a1 84bd
00000020: d96c 21bd 665f 6bbd 7274 6c3b 7d9f 05bd
00000030: 0b78 443d 3e62 d5bb e118 e13c c56b e83c
00000040: 6b8a 523d fe42 03be 4fc8 81bd b520 c4bd
00000050: 68f6 273b 494f d8bd d135 e3bc a5a9 fcbc
00000060: 9d0c 85bd a68e 9fbd 358e dabd 1f81 303d
00000070: 5f27 a1bd 731e cfbd e575 88bd 4f75 b93d
00000080: 06cd 6cbc 7c74 4bbc 8d4b c7bd a044 12bc
00000090: 93bf 663d 1fff 483c de13 8cbd 1262 47bd
000000a0: 821a bfbd 06c0 1ebd 644e 3bbe eff1 f1bc
000000b0: 7a02 5e3b 4600 d7bd 40da 0e3d 69ca 03bd
000000c0: 4777 b3bb e9ba fc3c 3280 3cbd 9e22 8ebc
000000d0: 8bec 85bd 97dd a5bd 1154 263d 71dd 0a3d
000000e0: 919b a0bd 1552 41bc 7260 7fbd 4e24 bfbd
000000f0: 83fb 07bd 7cd8 a9bc 891d 98bc 7391 6ebd
00000100: 4d02 e3bd c29c 02bd bf0c 07be 2398 3f3d
00000110: 483f b3ba 8cd9 8abd 19e8 c7bc 4e2c a9bd
00000120: c63a abbc fafe c7bc d02d 96bc cce2 b1bd
00000130: 4832 0ebd 57b0 20bd f7ac 97bd 8b62 0ebe
00000140: 9623 42be 9c63 58bd b0b7 a7bb 219f 21bd
00000150: 442b fdbd 8cd5 2dbd 3537 da3c ee91 ecbd
00000160: fc53 e3bb 00f5 c9bd 9a39 a6bc ccfc 9bbd
00000170: 9579 223d abf2 233d 4048 a3bd 93f3 d73c
00000180: c591 903a 5125 463d 3fbd 70bd bf85 5f3d
00000190: 9011 a9bd 93dd 25bd dca5 033c 0d19 9ebc
000001a0: 37cc cbbd af32 c03b c084 76ba cad4 97bd
000001b0: 9641 1f3d 259d 44bc 345d b33c 2315 f73a
000001c0: e1fc a83c b303 debd 9270 13bd b9f3 babc
000001d0: 0200 143b ce36 0fbd 0a23 53bd f3d5 c23b
000001e0: 3b7c 01bd 695e 04be 5b42 b3bd 9af5 01bd
000001f0: fd41 733d 944d fabc 98e0 f13d 82fa 763c

network_body._body_endoder.seq_layers.2.weight f4 [128, 128]
0.016041081 -0.22212335 -0.07190863 0.097949065 -0.086006105 0.03613114 -0.20949878 -0.23204765
0.019547738 -0.032189876 -0.0010719679 0.06464248 -0.05587923 -0.08432996 -0.02461657 0.27311912
0.09982354 -0.20400636 -0.17464341 -0.03589044 -0.061625045 -0.14838216 -0.13934638 0.22342551
-0.06369501 -0.094985634 0.1405808 0.026244443 0.09620536 -0.11681159 -0.10244982 0.120108604
-0.05383273 0.04026565 -0.27742484 0.20779562 -0.13601296 0.060283747 -0.0016812941 0.031231374
0.10407726 0.16662285 -0.13954562 -0.060293853 -0.14309604 -0.26592955 -0.01926544 -0.12848395
-0.016099317 0.083638065 -0.08004269 0.030322876 -0.024947437 -0.13664007 0.04462282 0.029184656
0.032486625 -0.060964998 -0.06259536 -0.08327199 0.07002387 -0.28958622 -0.1199674 0.06523484
-0.007989299 -0.011940849 -0.068012714 -0.040447615 0.0324902 -0.06465095 0.124038234 -0.047104523
0.038459085 0.12269168 0.17314927 -0.1465306 0.10833375 -0.013319711 -0.052037083 -0.095052585
-0.09478059 -0.11546911 -0.02115882 -0.023772636 0.13284254 0.0056558885 0.09262332 -0.020378476
-0.013017745 -0.2011538 -0.10341562 -0.11236594 0.061259758 -0.06983462 0.06762672 0.024293235
-0.100709185 0.037021387 -0.08546435 0.035357088 -0.36681145 -0.10457655 0.054459073 -0.045500513
-0.23193827 -0.060178522 0.061890684 -0.06862661 -0.09806368 0.05252818 -0.029442482 -0.033284284
-0.069596626 0.20818359 -0.18669799 -0.057974473 0.025331313 -0.28978866 0.082076736 0.10714364
0.109873645 0.039041325 -0.12950717 0.023619305 0.20616081 -0.06073464 0.09409259 0.16535287
-0.03739381 -0.0007436873 -0.031315994 0.05883555 -0.02750276 0.06356759 0.070000865 -0.061361935
-0.030063292 -0.12326789 0.14766906 -0.18316422 -0.066838235 -0.053053748 -0.13279235 -0.023873392
-0.04091745 -0.067844264 -0.051583547 -0.073902406 0.0123508405 -0.049354024 0.12259217 -0.039928503
-0.23555094 0.069240645 -0.23851265 -0.19594151 0.06437343 -0.04345223 0.055740524 0.012490578
0.13266423 -0.11583516 -0.10712878 -0.11680483 0.006557564 0.0648871 -0.08342415 -0.090718694
0.017405722 -0.011222646 -0.14705053 -0.07871168 -0.12863883 -0.3348089 0.12300957 0.033570107
-0.07575359 -0.068286024 0.088306054 0.07307084 0.059409205 0.18307395 -0.062047187 -0.017654335
-0.0943979 -0.0034907106 -0.11853563 0.061857723 -0.022519985 0.08477942 0.0065321177 0.023898626
-0.15834425 -0.060691185 -0.11856252 -0.034082983 0.023933455 -0.07301533 -0.16488585 -0.104975626
0.22016186 -0.0054473197 0.07948391 0.048510663 -0.018211227 0.013812491 -0.19643562 -0.12525752
-0.13514899 0.10461057 -0.09643538 -0.10763782 0.016877126 0.011093703 -0.006436347 -0.2116315
0.06651733 -0.041646976 0.023611648 -0.17222132 0.051956423 0.029245712 0.0070924987 0.15008622
-0.03520809 -0.090600014 -0.015736217 -0.010948723 -0.10244944 -0.16591348 0.109524325 -0.04181149
-0.04812311 0.10492481 0.085451245 -0.04323327 -0.047245942 0.035370562 -0.05682484 0.14284231
0.016526906 -0.0549829 -0.08199387 -0.2665249 -0.0348776 -0.061682705 -0.1475848 0.0148661835
0.115896635 -0.005428305 -0.10478117 -0.1674507 0.048361063 -0.07141468 -0.051075254 0.14925107
00000000: 9668 833c 4e74 63be d544 93bd 8599 c83d
00000010: f823 b0bd 3ffe 133d d986 56be e69d 6dbe
00000020: 9422 a03c 88d9 03bd 4681 8cba 4763 843d
00000030: 9fe1 64bd 30b5 acbd b0a8 c9bc 45d6 8b3e
00000040: 4970 cc3d 0be7 50be b9d5 32be db01 13bd
00000050: 8b6a 7cbd 7ef1 17be d1b0 0ebe a8c9 643e
00000060: 8872 82bd d487 c2bd 6af4 0f3e 96fe d63c
00000070: 5107 c53d ea3a efbd 36d1 d1bd 80fb f53d
00000080: b57f 5cbd 98ed 243d a10a 8ebe 60c8 543e
00000090: fb46 0bbe 17ec 763d de5e dcba f0d8 ff3c
000000a0: 7526 d53d 2e9f 2a3e 0ce5 0ebe b0f6 76bd
000000b0: c587 12be eb27 88be 8ed2 9dbc 4c91 03be
000000c0: b7e2 83bc 6f4a ab3d 6ced a3bd ae67 f83c
000000d0: 915e ccbc 60eb 0bbe 6bc6 363d a914 ef3c
000000e0: b210 053d 6fb6 79bd ff31 80bd 818a aabd
000000f0: ad68 8f3d a544 94be 78b1 f5bd d899 853d
00000100: 8ce5 02bc 8da3 43bc 404a 8bbd 66ac 25bd
00000110: 7214 053d b867 84bd c207 fe3d acf0 40bd
00000120: 4687 1d3d c745 fb3d 0b4e 313e 1e0c 16be
00000130: 16de dd3d eb3a 5abc d624 55bd eeaa c2bd
00000140: 531c c2bd 127b ecbd 4355 adbc d5be c2bc
00000150: e007 083e 0855 b93b 4cb1 bd3d c3f0 a6bc
00000160: 6148 55bc 43fb 4dbe 92cb d3bd 1d20 e6bd
00000170: 83eb 7a3d 7405 8fbd e17f 8a3d 9b02 c73c
00000180: 9e40 cebd bda3 173d ef07 afbd 98d2 103d
00000190: b6ce bbbe 3b2c d6bd 7a10 5f3d bf5e 3abd
000001a0: 3a81 6dbe c17d 76bd 1681 7d3d 1c8c 8cbd
000001b0: 9cd5 c8bd ca27 573d 5c31 f1bc 1a55 08bd
000001c0: ad88 8ebd 142e 553e c22d 3fbe a476 6dbd
000001d0: 9d83 cf3c 2e5f 94be d917 a83d 206e db3d
000001e0: 6f05 e13d cce9 1f3d 879d 04be 467d c13c
000001f0: d21b 533e e3c4 78bd 9eb3 c03d 4352 293e
00000200: 402a 19bd 03f4 42ba 3345 00bd 8cfd 703d
00000210: 784d e1bc ba2f 823d 9d5c 8f3d a756 7bbd
00000220: 4b47 f6bc e073 fcbd 8f36 173e 678f 3bbe
00000230: 7ce2 88bd e34e 59bd b8fa 07be 2292 c3bc
00000240: 0e99 27bd eff1 8abd 4549 53bd 255a 97bd
00000250: 2e5b 4a3c 7227 4abd 9b11 fb3d 128c 23bd
00000260: 4434 71be 0ace 8d3d a93c 74be e4a4 48be
00000270: 38d6 833d f7fa 31bd 2d50 643d 48a5 4c3c
00000280: 22d9 073e fc3a edbd 5566 dbbd 5f37 efbd
00000290: d5e0 d63b 87e3 843d 48da aabd b9ca b9bd
000002a0: 7296 8e3c 30df 37bc 6a94 16be 9733 a1bd
000002b0: e6b9 03be 126c abbe 71ec fb3d cf80 093d
000002c0: b324 9bbd 8bd9 8bbd ced9 b43d 2aa6 953d
000002d0: 1157 733d bd77 3b3e 3125 7ebd d39f 90bc
000002e0: b053 c1bd 68c4 64bb cfc2 f2bd 865e 7d3d
000002f0: d57b b8bc d5a0 ad3d 600b d63b 0dc7 c33c
00000300: ff24 22be 5297 78bd e8d0 f2bd 999a 0bbd
00000310: 1810 c43c 1089 95bd d6d7 28be 76fd d6bd
00000320: 1c72 613e 6e7f b2bb 76c8 a23d 1eb3 463d
00000330: b62f 95bc c94d 623c 6b26 49be 8243 00be
00000340: 7f64 0abe 113e d63d ea7f c5bd 3871 dcbd
00000350: e641 8a3c 5dc2 353c fee7 d2bb eeb5 58be
00000360: 3d3a 883d 0596 2abd 376d c13c c95a 30be
00000370: 42d0 543d b494 ef3c 3168 e83b 34b0 193e
00000380: 5c36 10bd 808c b9bd 3de9 80bc 4662 33bc
00000390: 03d1 d1bd 39e5 29be 4a4e e03d 8642 2bbd
000003a0: bd1c 45bd d2e2 d63d 1001 af3d 5f15 31bd
000003b0: f684 41bd b9e0 103d 2ac1 68bd 4145 123e
000003c0: 6f63 873c c035 61bd 67ec a7bd f475 88be
000003d0: d0db 0ebd 01a7 7cbd 7820 17be 4b91 733c
000003e0: 375b ed3d ecdf b1bb 8397 d6bd 3278 2bbe
000003f0: 4016 463d dc41 92bd 4934 51bd 46d5 183e

network_body._body_endoder.seq_layers.2.bias f4 [128]
0.04047921 0.019005459 -0.029682044 0.047635563 0.020541146 -0.014787771 0.04760619 -0.0022403174
-0.02969854 -0.023046108 -0.013900301 -0.02582441 0.019487746 -0.02980117 -0.010424525 0.004621636
0.034361903 0.022452328 -0.0036826225 0.07022945 -0.02257283 0.07715868 -0.010703341 -0.08751017
-0.029205725 -0.060319472 -0.0893296 0.050331876 0.0060142297 0.06398743 -0.03951234 0.0038989645
-0.06969192 -0.023803819 -0.03471906 -0.017391134 0.030922845 0.009625636 -0.042910732 -0.025249287
0.0010949712 0.09200512 -0.02264872 -0.11435231 0.058106426 -0.06682621 0.022723852 0.01959823
0.068492875 0.0068518114 -0.035891693 0.0010874498 -0.05082467 -0.009429075 0.08504673 -0.016285446
-0.004005169 0.09935697 -0.033653934 -0.013396898 -0.017380081 -0.05335832 -0.044123013 0.0067808777
-0.053796392 -0.012568024 0.014201842 -0.07951992 0.0030808006 -0.06058359 0.0008988398 -0.03520804
-0.042740382 -0.032998674 -0.07005183 -0.080282725 0.073935874 -0.031590145 0.021470524 -0.06621795
-0.06122808 -0.0455329 0.0351274 0.017601576 0.04002742 -0.037601236 -0.05481795 -0.0053259386
-0.025091015 0.060550053 -0.006853704 -0.028213006 -0.052012675 -0.096848585 -0.028166113 0.056208115
-0.010746665 0.012630806 -0.1487928 -0.048902784 -0.016768005 -0.051392544 -0.05071256 -0.025032679
-0.013089109 -0.05863072 -0.074313216 -0.05381124 -0.051097605 -0.09358553 -0.065262884 -0.0006354407
-0.017846543 -0.08632621 -0.024365654 -0.123077296 -0.07468953 0.089696676 -0.06476091 -0.002130604
0.041079078 -0.06557143 -0.04356507 0.007846886 -0.070225574 0.069162704 0.006395753 0.01759747
00000000: 87cd 253d 56b1 9b3c c227 f3bc 821d 433d
00000010: e845 a83c 6848 72bc b5fe 423d 4ad2 12bb
00000020: 5a4a f3bc 31cb bcbc 17be 63bc b78d d3bc
00000030: c4a4 9f3c 9521 f4bc a0cb 2abc 1871 973b
00000040: 11bf 0c3d f2ed b73c 2758 71bb 75d4 8f3d
00000050: a8ea b8bc 5f05 9e3d 115d 2fbc 8838 b3bd
00000060: d840 efbc 8d11 77bd 70f2 b6bd cc28 4e3d
00000070: 0413 c53b d70b 833d b1d7 21bd c585 7f3b
00000080: a3ba 8ebd 3a00 c3bc 9335 0ebd da77 8ebc
00000090: e851 fd3c d8b4 1d3c 2ac3 2fbd 98d7 cebc
000000a0: 2385 8f3a 2e6d bc3d cf89 b9bc 8b31 eabd
000000b0: 0101 6e3d 2edc 88bd 5f27 ba3c 788c a03c
000000c0: fe45 8c3d 2985 e03b 2b03 13bd c388 8e3a
000000d0: 872d 50bd 687c 1abc fb2c ae3d 0e69 85bc
000000e0: cb3d 83bb ab7b cb3d b5d8 09bd aa7e 5bbc
000000f0: ac60 8ebc 418e 5abd 55ba 34bd 2032 de3b
00000100: 9b59 5cbd 1dea 4dbc d8ae 683c 57db a2bd
00000110: 42e7 493b 8026 78bd 1ea0 6b3a 4e36 10bd
00000120: 8a10 2fbd 9e29 07bd 5577 8fbd 456b a4bd
00000130: b16b 973d ab64 01bd f4e2 af3c 479d 87bd
00000140: 4cca 7abd b580 3abd c0e1 0f3d 2e31 903c
00000150: cbf3 233d c103 1abd c988 60bd 3685 aebb
00000160: ac8b cdbc 5503 783d 0995 e0bb f61e e7bc
00000170: 3e0b 55bd 8d58 c6bd 9fbc e6bc 7b3a 663d
00000180: c812 30bc 71f1 4e3c 245d 18be 494e 48bd
00000190: 0e5d 89bc fd80 52bd f9b7 4fbd 5511 cdbc
000001a0: b473 56bc c426 70bd 8731 98bd 2d69 5cbd
000001b0: b94b 51bd c5a9 bfbd 8ca8 85bd b493 26ba
000001c0: ea32 92bc cccb b0bd 7b9a c7bc f30f fcbd
000001d0: d3f6 98bd e4b2 b73d 5ea1 84bd 9ba1 0bbb
000001e0: 8942 283d 504a 86bd 4971 32bd 3a90 003c
000001f0: 6dd2 8fbd 2da5 8d3d 7793 d13b 9228 903c

action_model._continuous_distribution.log_sigma f4 [1, 2]
-1.2359593 -1.2638941
00000000: ea33 9ebf 48c7 a1bf

action_model._continuous_distribution.mu.weight f4 [2, 128]
0.031240052 -0.009802807 -0.0012188966 -0.078012586 -0.010307009 -0.019828917 -0.11487023 0.030221159
0.04510211 -0.007828199 -0.010231072 -0.046662506 -0.015356445 0.053189788 0.01574337 0.035615206
0.07713882 0.0069313827 0.056621615 -0.047074534 0.052502975 0.013794193 0.11652493 0.029752396
-0.06192812 -0.0057032807 0.008270629 -0.021124449 -0.06447063 0.021298409 0.06412092 -0.003611821
-0.0021442238 0.053163376 0.12626195 -0.0469563 -0.015934194 0.054499328 -0.027901733 0.071913294
-0.067844935 -0.00682357 -0.0024559842 0.0073018973 0.00035910477 -0.07910498 -0.006758755 0.05240668
0.1257121 -0.014853437 0.10897691 -0.11435186 0.018893959 0.039158028 -0.043328073 0.040458642
-0.0299177 -0.0637439 0.07065802 -0.004687576 0.01180438 0.054964703 -0.050946113 -0.037395276
-0.0737822 0.053783767 0.095630646 0.024135057 -0.01160947 -0.0140748015 0.05143768 0.15188207
0.02932152 -0.051967982 0.061805658 -0.06958051 -0.06813777 0.059398446 0.05135699 -0.027001064
0.035709232 -0.03997703 0.06424709 -0.038706116 0.08634411 0.016271317 0.03243851 -0.020582117
-0.08395875 0.06054989 0.017791186 0.03515083 -0.00051669247 0.01269802 -0.06980232 0.023799116
0.070741005 -0.027296687 -0.010305464 0.040646024 -0.016636016 0.008209275 -0.0020779688 0.011699749
-0.03675838 0.026354508 0.00484911 -0.06314425 -0.061111476 0.022058086 -0.05373457 0.06498945
0.039340667 -0.015376684 -0.026320592 0.01211276 -0.0004430039 0.03304435 0.06877287 0.06950338
-0.051147338 0.013137148 -0.08149653 0.059372187 -0.013622588 -0.042890128 0.05542055 0.084791854
0.050394215 -0.0032012272 -0.024911018 0.015847856 0.016293751 -0.07257129 0.0126009835 0.03712786
-0.0019670094 -0.0344803 -0.04844301 -0.053210184 -0.0706537 0.034134798 -0.078045346 -0.054916546
0.016180037 0.0047567054 -0.074645825 0.04156608 -0.051305674 0.02933528 -0.06825799 0.03879382
-0.07828553 0.008282617 -0.00795533 0.035915274 -0.0054005366 0.048638556 -0.069341846 -0.034457374
0.07838488 -0.05511335 -0.013089804 -0.1298079 0.025818491 -0.090605006 -0.06300594 -0.057760883
-0.06304759 0.04917928 -0.027613346 -0.007340184 0.03703902 -0.03261535 -0.102822036 0.026169557
0.032717455 -0.009970998 -0.021916378 -0.1009615 -0.013647386 0.024612576 0.06457469 -0.04136906
-0.05105141 0.020162383 -0.021883516 -0.082327776 -0.0011127656 -0.08864955 -0.037954926 0.032180496
-0.09906103 -0.06084253 -0.14791812 0.03195393 -0.007127478 -0.029843807 -0.022476345 -0.017283933
0.034417916 0.0011577491 0.0017570165 -0.030379519 0.072248004 -0.039819974 -0.09248662 0.007879964
-0.0015359564 -0.022892443 -0.0334764 0.023625921 0.01765513 0.03892859 -0.052627385 -0.03008843
-0.06693896 0.05011605 -0.1194468 -0.0554206 -0.015935266 -0.00097037904 -0.037821934 0.084754
-0.08668658 0.035440985 0.0078136735 -0.059739016 -0.07752155 -0.030300476 0.010245948 -0.056098767
-0.018278688 -0.019297626 -0.019864855 -0.0129345395 -0.045664802 0.046661444 0.044278875 -0.10569083
-0.0014625834 -0.003926426 -0.010539611 -0.05594428 -0.0066866404 0.09817906 -0.012589689 -0.08714637
0.013327304 -0.0514557 -0.05461835 0.025939077 -0.01577498 0.053185254 -0.0066049723 0.017222287
00000000: 23eb ff3c f49b 20bc 62c3 9fba 10c5 9fbd
00000010: bbde 28bc 4170 a2bc 1541 ebbd 5d92 f73c
00000020: fdbc 383d d941 00bc 3aa0 27bc 2f21 3fbd
00000030: 9999 7bbc 89dd 593d 3df8 803c 40e1 113d
00000040: f5fa 9d3d a720 e33b 11ec 673d 3ad1 40bd
00000050: 5c0d 573d 0a01 623c 9fa4 ee3d 4cbb f33c
00000060: 57a8 7dbd 96e2 babb 8881 073c 2e0d adbc
00000070: 2d09 84bd 007a ae3c d451 833d 4db4 6cbb
00000080: 1b86 0cbb d7c1 593d d04a 013e 4055 40bd
00000090: 6d88 82bc b03a 5f3d 2d92 e4bc 4747 933d
000000a0: 49f2 8abd 4198 dfbb 94f4 20bb c144 ef3b
000000b0: 3a46 bc39 cb01 a2bd 8c78 ddbb 63a8 563d
000000c0: acba 003e d55b 73bc 492f df3d 4f31 eabd
000000d0: 81c7 9a3c 2b64 203d c778 31bd f6b7 253d
000000e0: f715 f5bc 298c 82bd 27b5 903d 3d9a 99bb
000000f0: 2967 413c ab22 613d dfac 50bd ca2b 19bd
00000100: 1f1b 97bd 5e4c 5c3d 00da c33d e2b6 c53c
00000110: a535 3ebc ff99 66bc 51b0 523d f986 1b3e
00000120: af33 f03c 61dc 54bd ee27 7d3d 3a80 8ebd
00000130: d18b 8bbd c94b 733d b55b 523d 5631 ddbc
00000140: d843 123d f4be 23bd fa93 833d 4e8a 1ebd
00000150: 2ed5 b03d 6d4b 853c 3ede 043d d49b a8bc
00000160: 91f2 abbd 2903 783d d2be 913c 51fa 0f3d
00000170: a572 07ba 5b0b 503c 85f4 8ebd 5df6 c23c
00000180: a9e0 903d 4d9d dfbc 40d8 28bc 727c 263d
00000190: 4148 88bc 3280 063c 882e 08bb 4eb0 3f3c
000001a0: f48f 16bd 69e5 d73c 48e5 9e3b c651 81bd
000001b0: 0750 7abd 29b3 b43c c818 5cbd 3019 853d
000001c0: ae23 213d 7dee 7bbc 489e d7bc 9974 463c
000001d0: fa42 e8b9 8359 073d cad8 8c3d ca57 8e3d
000001e0: df7f 51bd 313d 573c a7e7 a6bd 4030 733d
000001f0: 4631 5fbc 8fad 2fbd a900 633d 5aa7 ad3d
00000200: 2a6a 4e3d aecb 51bb 3112 ccbc 5dd3 813c
00000210: 797a 853c 42a0 94bd 5b74 4e3c 6213 183d
00000220: f1e8 00bb 373b 0dbd 2d6c 46bd ecf2 59bd
00000230: e3b2 90bd eed0 0b3d 3dd6 9fbd 2cf0 60bd
00000240: ff8b 843c 23de 9b3b e9df 98bd 3241 2a3d
00000250: e625 52bd 8b50 f03c d8ca 8bbd 45e6 1e3d
00000260: 2a54 a0bd d0b3 073c 1357 02bc e51b 133d
00000270: fcf6 b0bb 3939 473d 1903 8ebd 2d23 0dbd
00000280: 4188 a03d 89be 61bd 9e76 56bc 5dec 04be
00000290: 4d81 d33c 1e8f b9bd 4209 81bd ad96 6cbd
000002a0: 181f 81bd 3670 493d 6235 e2bc ed85 f0bb
000002b0: 3ab6 173d ac97 05bd 5c94 d2bd 8a61 d63c
000002c0: bd02 063d 665d 23bc fa89 b3bc e7c4 cebd
000002d0: 4999 5fbc 50a0 c93c bc3f 843d 9a72 29bd
000002e0: 491b 51bd 952b a53c 0f45 b3bc 779b a8bd
000002f0: 38da 91ba e58d b5bd a076 1bbd b2cf 033d
00000300: 82e0 cabd 0436 79bd d977 17be 20e2 023d
00000310: 9e8d e9bb 007b f4bc 5020 b8bc 0997 8dbc
00000320: cdf9 0c3d 9dbf 973a b14b e63a 78de f8bc
00000330: c3f6 933d 451a 23bd a069 bdbd f71a 013c
00000340: 2552 c9ba ef88 bbbc 8d1e 09bd 268b c13c
00000350: 7ea1 903c 9673 1f3d d08f 57bd 037c f6bc
00000360: 4b17 89bd 7d46 4d3d 86a0 f4bd b600 63bd
00000370: ad8a 82bc 0961 7eba 2ceb 1abd 8193 ad3d
00000380: bc88 b1bd 912a 113d ec04 003c e6b0 74bd
00000390: 9ec3 9ebd b438 f8bc 9fde 273c d2c7 65bd
000003a0: 30bd 95bc 0e16 9ebc 9fbb a2bc 64eb 53bc
000003b0: 040b 3bbd 1220 3f3d c45d 353d 6f74 d8bd
000003c0: 28b4 bfba 40a9 80bb 55ae 2cbc d425 65bd
000003d0: 9b1b dbbb 1a12 c93d fc44 4ebc cc79 b2bd
000003e0: c45a 5a3c 36c3 52bd 7eb7 5fbd 307e d43c
000003f0: 883a 81bc c8d8 593d 866e d8bb c115 8d3c

action_model._continuous_distribution.mu.bias f4 [2]
-0.007706066 0.053159103
00000000: 2b83 fcbb 5cbd 593d

onnx::Div_51 f4 [271]
0.26243484 0.26243478 0.26248106 0.2659578 0.26595792 0.26600817 0.27084687 0.27084613
0.27089974 0.27884546 0.27884212 0.2788952 0.29335144 0.2933509 0.2933966 0.30878314
0.30878195 0.30882004 0.3228292 0.32282943 0.32285798 0.33471724 0.33471423 0.33473408
0.34471142 0.34470817 0.3447159 0.3530779 0.3530754 0.3530743 0.35994884 0.35994446
0.3599306 0.3650874 0.36508253 0.3650618 0.36888137 0.36887783 0.36884925 0.37183446
0.37183186 0.37179723 0.37421224 0.37421542 0.37417564 0.3760779 0.3760812 0.37603477
0.3776026 0.37760678 0.37755236 0.3788168 0.37881932 0.37875977 0.3795937 0.3795967
0.37953034 0.38003498 0.380038 0.37996513 0.3801663 0.3801805 0.38009697 0.37990957
0.37992013 0.3798296 0.37927458 0.37928206 0.37918073 0.37817892 0.3781841 0.3780719
0.37654513 0.37654713 0.37641832 0.37431425 0.3743133 0.3741758 0.37128142 0.3712778
0.37112552 0.3672866 0.36729017 0.36712313 0.36234212 0.36234704 0.36216065 0.35618082
0.35618186 0.35597792 0.34856087 0.34856454 0.34833923 0.3391425 0.3391488 0.338902
0.3273098 0.3273148 0.32704586 0.3125248 0.31252676 0.31223974 0.29393288 0.29395446
0.29365993 0.2697458 0.26975727 0.2694576 0.23556034 0.2355734 0.2353066 0.1908944
0.190904 0.19071731 0.116267644 0.11627596 0.11618317 0.07476277 0.07477709 0.07477477
0.048428494 0.048452754 0.048514135 0.036427543 0.036458418 0.036534663 0.029392995 0.029431269
0.029500624 0.023986494 0.024034407 0.024094615 0.023704484 0.023751635 0.023797592 0.034193408
0.03422681 0.034253158 0.26034287 0.26034257 0.26038185 0.2617392 0.26174113 0.26176965
0.27203014 0.2720301 0.27204022 0.29040456 0.29041347 0.2904101 0.30426285 0.30427617
0.3042631 0.3177974 0.31780833 0.31778613 0.33027595 0.33028486 0.33025303 0.34155366
0.34156302 0.3415188 0.35091016 0.35091892 0.35086113 0.35819003 0.3581956 0.358127
0.36354813 0.36355385 0.363476 0.36762583 0.36763048 0.36754617 0.37067893 0.37068373
0.37059134 0.37303337 0.3730373 0.3729389 0.37474862 0.37475282 0.37464947 0.3758238
0.37582827 0.37571606 0.37628394 0.3762861 0.37616992 0.37615266 0.37615618 0.3760334
0.37547046 0.37547317 0.37534148 0.37424693 0.37424752 0.37410554 0.37251797 0.3725173
0.37236556 0.37033755 0.3703368 0.37017787 0.36759815 0.36760136 0.36742622 0.3642135
0.36421928 0.36402982 0.36001176 0.3600158 0.35980904 0.35489398 0.35489526 0.3546705
0.3487158 0.34871763 0.34847838 0.3412226 0.34123072 0.34096792 0.33161005 0.33161595
0.33132693 0.3195199 0.3195205 0.31920496 0.30627453 0.30628166 0.30593732 0.29158056
0.29159653 0.29123873 0.27518883 0.27520478 0.27483967 0.2563571 0.25638688 0.25601074
0.23533614 0.23535852 0.2349618 0.21013156 0.2101499 0.20977245 0.18107611 0.18108848
0.1807883 0.1536974 0.15370585 0.15347621 0.11975677 0.119765826 0.11968775 0.09712206
00000000: dc5d 863e da5d 863e eb63 863e 9f2b 883e
00000010: a32b 883e 3932 883e 71ac 8a3e 58ac 8a3e
00000020: 5fb3 8a3e d5c4 8e3e 65c4 8e3e 5acb 8e3e
00000030: 2932 963e 1732 963e 1438 963e d318 9e3e
00000040: ab18 9e3e a91d 9e3e de49 a53e e649 a53e
00000050: a44d a53e 0f60 ab3e aa5f ab3e 4462 ab3e
00000060: 047e b03e 977d b03e 9a7e b03e a0c6 b43e
00000070: 4dc6 b43e 28c6 b43e 374b b83e a44a b83e
00000080: d348 b83e bcec ba3e 19ec ba3e 61e9 ba3e
00000090: 05de bc3e 8edd bc3e cfd9 bc3e 1661 be3e
000000a0: bf60 be3e 355c be3e bf98 bf3e 2a99 bf3e
000000b0: f393 bf3e 488d c03e b78d c03e a187 c03e
000000c0: 2155 c13e ad55 c13e 8b4e c13e 47f4 c13e
000000d0: 9bf4 c13e cdec c13e 1b5a c23e 805a c23e
000000e0: cd51 c23e f293 c23e 5794 c23e ca8a c23e
000000f0: 28a5 c23e 05a7 c23e 129c c23e 8283 c23e
00000100: e484 c23e 0679 c23e 4730 c23e 4231 c23e
00000110: fa23 c23e aba0 c13e 59a1 c13e a492 c13e
00000120: 86ca c03e c9ca c03e e7b9 c03e 1ea6 bf3e
00000130: fea5 bf3e f893 bf3e 9918 be3e 2018 be3e
00000140: 2a04 be3e fd0c bc3e 750d bc3e 90f7 bb3e
00000150: e884 b93e 8d85 b93e 1f6d b93e 555d b63e
00000160: 785d b63e bd42 b63e 9276 b23e 0d77 b23e
00000170: 8559 b23e 16a4 ad3e e9a4 ad3e 9084 ad3e
00000180: 2695 a73e ce95 a73e 8e72 a73e 4003 a03e
00000190: 8203 a03e e3dd 9f3e 5f7e 963e 3381 963e
000001a0: 985a 963e 1f1c 8a3e a01d 8a3e 59f6 893e
000001b0: bb36 713e 273a 713e 37f4 703e d279 433e
000001c0: 577c 433e 664b 433e bb1d ee3d 1722 ee3d
000001d0: 71f1 ed3d 391d 993d bb24 993d 8423 993d
000001e0: f55c 463d 6576 463d c2b6 463d 0c35 153d
000001f0: 6c55 153d 5fa5 153d 94c9 f03c d819 f13c
00000200: 4bab f13c 537f c43c cee3 c43c 1262 c53c
00000210: e82f c23c ca92 c23c 2bf3 c23c 630e 0c3d
00000220: 6931 0c3d 0a4d 0c3d a94b 853e 9f4b 853e
00000230: c550 853e ae02 863e ef02 863e ac06 863e
00000240: 8947 8b3e 8747 8b3e db48 8b3e e8af 943e
00000250: 13b1 943e a2b0 943e 57c8 9b3e 16ca 9b3e
00000260: 5fc8 9b3e 57b6 a23e c6b7 a23e ddb4 a23e
00000270: ee19 a93e 191b a93e ed16 a93e 1fe0 ae3e
00000280: 59e1 ae3e 8ddb ae3e 7faa b33e a5ab b33e
00000290: 12a4 b33e af64 b73e 6a65 b73e 6c5c b73e
000002a0: fb22 ba3e bb23 ba3e 8719 ba3e 7439 bc3e
000002b0: 103a bc3e 032f bc3e a1c9 bd3e 42ca bd3e
000002c0: 26be bd3e 3bfe be3e bffe be3e d9f1 be3e
000002d0: 0ddf bf3e 9adf bf3e 0ed2 bf3e fa6b c03e
000002e0: 906c c03e db5d c03e 4aa8 c03e 92a8 c03e
000002f0: 5899 c03e 1597 c03e 8b97 c03e 7387 c03e
00000300: aa3d c03e 053e c03e c22c c03e 4b9d bf3e
00000310: 5f9d bf3e c38a bf3e adba be3e 96ba be3e
00000320: b3a6 be3e e29c bd3e c99c bd3e f487 bd3e
00000330: d335 bc3e 3f36 bc3e 4a1f bc3e 317a ba3e
00000340: f37a ba3e 1e62 ba3e 7653 b83e fe53 b83e
00000350: e438 b83e aab4 b53e d5b4 b53e 5f97 b53e
00000360: e18a b23e 1e8b b23e c26b b23e bbb4 ae3e
00000370: cbb5 ae3e 5993 ae3e cbc8 a93e 91c9 a93e
00000380: afa3 a93e 1d98 a33e 3198 a33e d56e a33e
00000390: 04d0 9c3e f3d0 9c3e d1a3 9c3e 0c4a 953e
000003a0: 244c 953e 3e1d 953e 8de5 8c3e a4e7 8c3e
000003b0: c9b7 8c3e 3d41 833e 2445 833e d713 833e
000003c0: f5fb 703e d301 713e d399 703e ba2c 573e
000003d0: 8931 573e 97ce 563e 046c 393e 426f 393e
000003e0: 9120 393e da62 1d3e 1165 1d3e de28 1d3e
000003f0: 0a43 f53d c947 f53d da1e f53d eee7 c63d
