results/90RC2/Park90RC/Park90RC-2060394.onnx (onnx, 119662 bytes, 9 tensors)

network_body.observation_encoder.processors.0.normalizer.running_mean f4 [90]
00000000: 8f05 043f 37cd 033f 91a8 023f 3c87 003f
00000010: dd54 ff3e 0fb4 ff3e 34bd 003f 1089 023f
00000020: 3c22 053f 000d 093f 0bc7 0d3f e63e 133f
00000030: 796e 193f 0264 203f d136 283f c3f1 303f
00000040: 8da2 393f b55a 423f 9f44 4a3f e117 513f
00000050: 5658 573f bedd 5c3f 2dc5 613f 6245 663f
00000060: af4a 6a3f a92a 6d3f 2be8 6e3f 0926 703f
00000070: 8e44 713f e667 723f a592 733f 55dd 743f
00000080: 032a 763f 1a9a 773f 7cd1 793f 8a59 7b3f
00000090: 90ac 7c3f 03c0 7d3f 4b7e 7e3f 9e19 7f3f
000000a0: cbd8 7f3f 8cfe 7f3f c3fe 7f3f 12ff 7f3f
000000b0: f7fe 7f3f f5fe 7f3f 1b5f 043f 8b77 043f
000000c0: 1159 033f f617 023f e451 013f 15fd 003f
000000d0: b643 013f 7959 023f 94c6 043f a416 083f
000000e0: c028 0c3f 569d 103f 2f20 163f c87f 1c3f
000000f0: 7c91 233f 37b1 2b3f 514a 343f 4f3a 3d3f
00000100: 8615 463f 4f78 4e3f e4a8 553f 3ba6 5b3f
00000110: c923 603f 28b5 633f c166 673f 88e2 6a3f
00000120: 8e65 6d3f 5a35 6f3f 7f8c 703f 41b1 713f
00000130: 811b 733f 6a71 743f 11be 753f f487 773f
00000140: a1a9 793f 5e68 7b3f 78ea 7c3f 3c40 7e3f
00000150: 66f7 7e3f 05ab 7f3f c7fe 7f3f ddfe 7f3f
00000160: ddfe 7f3f f4fe 7f3f
0.5157098 0.5148501 0.5103846 0.5020635 0.49869433 0.4994206 0.502887 0.5099039
0.5200536 0.5353546 0.5538184 0.5751785 0.5993419 0.626526 0.65708643 0.691189
0.7251366 0.7591966 0.7901096 0.8167706 0.84119165 0.8627585 0.8819149 0.8994962
0.9152021 0.9264322 0.9332301 0.9380804 0.9424523 0.94689786 0.95145637 0.95650226
0.96157855 0.96719515 0.9758527 0.981835 0.9870081 0.9912111 0.9941146 0.99648464
0.99940175 0.9999778 0.9999811 0.9999858 0.9999842 0.9999841 0.5170762 0.5174491
0.5130778 0.5081781 0.5051558 0.5038617 0.50493944 0.50917774 0.51865506 0.53159547
0.5474968 0.56490076 0.5864286 0.6113248 0.63893867 0.67067283 0.704259 0.73917097
0.7737659 0.80652326 0.8346083 0.8580052 0.87554604 0.889483 0.90391165 0.9175191
0.92733085 0.93440783 0.9396438 0.94411093 0.9496384 0.95485556 0.95993143 0.96691823
0.9752446 0.98206127 0.9879527 0.99316764 0.9959625 0.9987033 0.99998134 0.99998266
0.99998266 0.999984

network_body._body_endoder.seq_layers.0.weight f4 [128, 90]
00000000: 249d fb3d 99e4 013d c146 d7bd 9587 753c
00000010: b3d7 3b3d 980e 8abd a8d9 22be 86fd 2c3e
00000020: 176b aa3d d920 a93d 5ced 663d fc62 2ebe
00000030: ac98 4b3e 021f 803e c7e6 9d3e 7e0d db3d
00000040: d06a c53d 15d4 563e 5849 223e 2067 8c3e
00000050: 18e4 a53d 2fb7 883d d34f 873e 1f79 563d
00000060: d436 0f3e a3fc 033e 915f 533d ca7f 4c3e
00000070: 5d17 cf3d d3f9 533e 8cc9 ba3c 355c acbd
00000080: 4a60 2a3d 92e1 a03e d590 0b3d 6619 ffbc
00000090: 7e9c 473e e72d de3d 3392 bb3c d4f2 ec3d
000000a0: 62b0 5a3e ebf7 243d fd98 35bc 7323 123e
000000b0: 3960 40bc 71c2 763d bde2 883d 6826 dc3c
000000c0: e077 03be 87d7 a23c dc45 8fbd 4d38 fc3c
000000d0: 81ea 053d de2c a2bc 51d0 8a3d 1867 e8bd
000000e0: 9650 01be 4348 8f3c 3697 84bc b6b3 59be
000000f0: f9b3 3bbd e07f 06bd 5dbe fcbd 558c 10be
00000100: d9d2 97bd 716c 4ebe dac0 1cbe f3fb d7bd
00000110: 6bba 6dbd 3560 35bd 0989 92bd 7c3c 3b3e
00000120: 3634 89be 4f72 24be 24b8 b93d 454e 1b3d
00000130: 4bba fb3d c614 593c 37b0 d33c 432e 163e
00000140: b24b cdbd 2de3 ea3d 8c46 46bd 6fb7 bb3d
00000150: d597 0a3e 1d2b 31be 325b 6b3d 096b 383d
00000160: 7ef5 ab3e 60c9 293e 9fa4 9fbd 302c b1bd
00000170: 9bae 32bd b908 0f3e 38c1 07be 3f38 323e
00000180: 6231 483e 5670 223e 65cc f03d 4e78 623e
00000190: 9891 e03d 1b14 3d3e 0e18 1f3e 7198 ab3d
000001a0: 77c1 ec3c f259 1dbe 4337 ee3c ac0a 8f3d
000001b0: 8079 673e 7973 17be b98b fc3d 0da8 e23d
000001c0: b131 8e3c b59c 933c dc99 a03c 6b85 ac3c
000001d0: e7dc dd3d 81ba 043e 4f34 9e3d c7e6 9b3d
000001e0: d1ea af3d aeae d2bc 20ad 2dbe 0da7 0f3e
000001f0: 57a9 ee3d e524 79bd 17b4 693d 8dbb 8bbb
00000200: c20d c5bd dcb9 753d 14e8 6abe 466d 9dbd
00000210: 0587 d73d f6c1 eb3d 1dce c6bc 531e 91bd
00000220: fabb 66bd 2321 103e b6ab 1abe 9170 ac3d
00000230: c9e6 02be 74e7 91bc 0e46 9f3d f38a 3abd
00000240: bd73 043d ef84 38bd 7216 4dbe 21bd 593b
00000250: e273 59bd 3265 a739 510c 923d f47c ec3d
00000260: 7d8c 79bd 24d6 423e 3726 16bd ace4 15be
00000270: 9c00 95be e273 7fbd 8ccf fb3c f5bb e5bd
00000280: 71e7 0bbd 034d 8e3d 4bf2 adbd e758 f93b
00000290: 1dea bc3d e99e 8c3d 4e7f a4bd 032c 9abd
000002a0: c1ca 8b3d 84c4 43bc 7721 21bd 12d6 04bd
000002b0: 7f70 cabc cefd 6f3b 9b41 463e 68db 01be
000002c0: 39c5 4dbd 7cf5 b4bd 664d 77bd 1f57 d33d
000002d0: 5b17 afbd 82ab 4abe 3db7 50be a39d 58bd
000002e0: caef b3bb faa7 383e 4303 8cbd cf1c 043e
000002f0: 5dab 583e c37e 663d 0a10 6e3d 9092 eebc
00000300: d530 27ba 3797 55be 584f a63c 5f79 3fbd
00000310: adda 11be a153 febd 5bd2 7dbe 2b58 193d
00000320: cd22 7abe eae3 1f3d 4bb8 dd3c d46e 193e
00000330: 83b2 fabc fdc4 dabc 7993 6e3d 7b75 883d
00000340: ce25 c43b de8d bbbc 03d7 79bd 32e8 1abe
00000350: 5271 f7bd b6ed 04be 5f02 a0be be6a 113e
00000360: 7494 283e 478e 1a3e dfe1 f7bd 98ad 08bb
00000370: bf31 15be 7694 9ebb b04f 143e 9967 0bbe
00000380: ce1d 863d d44f d7bd 5430 86b8 a65b 14be
00000390: bb27 f6bd a915 7b3d 6117 b23d 90f4 e5bc
000003a0: 17cd 813d baf5 95bc e670 303e f6c6 09bd
000003b0: ff95 9b3e 1b39 0a3e 7b8c 743e 7bc3 113e
000003c0: de57 643d 710a 4c3e 2b0d 8f3c 9eb8 983d
000003d0: 333e 09bd b4af 8d3d 40d7 ddbb 784e dd3d
000003e0: a049 113e c18f 783e 1313 7c3d 4844 8abd
000003f0: c98d 38bd a57e 54be 40b9 21bd fff9 ab3c
0.122858316 0.03171215 -0.10511542 0.014985939 0.045860004 -0.06741065 -0.15903342 0.16893587
0.08321207 0.08258218 0.056378707 -0.17029947 0.19882458 0.25023657 0.30840132 0.10695933
0.096395135 0.2097934 0.15848291 0.27422428 0.08100146 0.066755645 0.2642809 0.052361604
0.13985759 0.12889342 0.05160481 0.19970623 0.10111878 0.20700769 0.022801183 -0.084160246
0.041595735 0.31422096 0.03407367 -0.03114004 0.19493291 0.10848599 0.022896862 0.11569753
0.21356347 0.040275495 -0.0110838385 0.14271335 -0.011741691 0.060244028 0.06683872 0.026873782
-0.12838697 0.019878162 -0.069957465 0.030788565 0.032694343 -0.019796785 0.067780145 -0.113477886
-0.12628397 0.017490512 -0.016185384 -0.2125996 -0.045825932 -0.032836795 -0.123409964 -0.14116032
-0.07413263 -0.20158555 -0.15307942 -0.105461024 -0.05803911 -0.044281203 -0.07155044 0.18284792
-0.26797646 -0.1605923 0.09068325 0.03791644 0.12291392 0.013249582 0.025840862 0.14666085
-0.10024203 0.114691116 -0.048407122 0.091658466 0.13534482 -0.17301603 0.057460018 0.04502395
0.33585733 0.16580725 -0.07795071 -0.08651006 -0.043623548 0.13968171 -0.13257301 0.17404269
0.19550088 0.15863165 0.11757735 0.22116205 0.1096527 0.18464701 0.1553652 0.08378685
0.028900845 -0.15366343 0.029079085 0.069844574 0.22604942 -0.14790143 0.123313375 0.110672094
0.01735768 0.01801906 0.019604616 0.021059712 0.108331494 0.1296177 0.07724821 0.07612377
0.085897096 -0.02571806 -0.16960573 0.14028569 0.11653393 -0.0608262 0.057056513 -0.004264301
-0.09621765 0.059991702 -0.22940093 -0.07686858 0.105238 0.115116045 -0.024268204 -0.07085862
-0.056331612 0.1407514 -0.15104565 0.08419908 -0.1278335 -0.01781056 0.07777034 -0.04554267
0.03233694 -0.04504865 -0.20028093 0.0033224302 -0.05308903 0.0003192812 0.071312554 0.115472704
-0.060924996 0.19027 -0.03665754 -0.14638013 -0.29102027 -0.062366374 0.030738614 -0.112174906
-0.034156267 0.069482826 -0.08493479 0.007609475 0.09224341 0.06866247 -0.08032094 -0.07527926
0.068257816 -0.011948708 -0.039338555 -0.032430716 -0.024711845 0.0036619785 0.19360964 -0.12681353
-0.050236914 -0.08835885 -0.060376547 0.103193514 -0.085493766 -0.19791988 -0.203824 -0.05288471
-0.0054912316 0.18032828 -0.068365596 0.12901615 0.2115912 0.056273233 0.058120765 -0.02912262
-0.0006377821 -0.20858465 0.020301506 -0.046746608 -0.14243574 -0.12418295 -0.24787275 0.0374376
-0.24427338 0.039035715 0.027065417 0.14983684 -0.0306027 -0.02670526 0.05824611 0.066630326
0.005985952 -0.022894796 -0.060996067 -0.15127638 -0.12082161 -0.12981305 -0.3125181 0.14200875
0.1646288 0.15093337 -0.12103628 -0.0020855423 -0.14569758 -0.0048394753 0.14483523 -0.13613738
0.065486535 -0.10513273 -6.39862e-05 -0.14488086 -0.12019297 0.061299954 0.086958654 -0.028070718
0.06337946 -0.018305648 0.17230567 -0.03363701 0.30387875 0.13498347 0.23881714 0.14234726
0.05574786 0.19925858 0.017462334 0.07457088 -0.033506583 0.06918278 -0.0067700446 0.10805982
0.14188242 0.24273588 0.061541628 -0.06751305 -0.04505709 -0.20751436 -0.03948331 0.02099323

network_body._body_endoder.seq_layers.0.bias f4 [128]
00000000: 2daa a13d 6d39 e33c 7732 d2ba dd18 05be
00000010: c1ba 9d3d 036f a73c a571 593d 5f88 9c3d
00000020: f500 3e3d a780 e73d 68b7 05bd d807 a03d
00000030: 9cb4 863d a4fa 55bd 4c0d 8abc f50f be3b
00000040: 09ec 593c 05e4 9f3d d118 d03d a7d9 2a3d
00000050: 1763 a83b da3a 0b3d bf8f 413d 8e8c 0e3e
00000060: df72 d13d 8c1d f23c db69 8cbd 2bca b7bb
00000070: 01fe bc3d 99a1 913d 5aa6 723d faeb b23d
00000080: aa7f 3b3d 1df8 be3d 6515 3a3d 495a 803c
00000090: 694b b13c 8064 133d d1f2 163d 1f07 b63d
000000a0: ac0e c63d c0f7 bc3d bfd3 cfbd bb47 6cbd
000000b0: a4dd 823d 4c14 353d 1033 1ebd 02dc d33d
000000c0: 8b56 893d 4690 97bc b914 fd3c 29bc 0e3d
000000d0: 6b03 df3d 52d9 5e3d dea8 a03d 95ae 0b3d
000000e0: 5f57 663d 080e a03d b912 b63d b1be 8c3c
000000f0: ddb2 3c3d 57c8 bdbc 2973 4a3c 253a ac3d
00000100: 1c34 7e3d 3dfe 873d 01d8 c6bc 83fb 9b3d
00000110: 3837 5a3d 3523 f83c 7c0a 873d a6a0 a3bd
00000120: e06e babd fa51 ff3d d765 6c3d 3fe9 273d
00000130: 7b7b d53d 104d 643d dcb6 873d 5fa3 523d
00000140: 104e db3d c2ee 18bd a7b5 743d 6d94 c2bd
00000150: eb17 8bbd c82f 70bd d77f 053d dbe8 42bd
00000160: 0a8c 263d c559 48bd cb81 f63d 5420 203c
00000170: e111 c53c 9e76 923d 3a11 aa3d 2c6b 603d
00000180: 37fb aa3d 3827 e53d 9d43 ad3d 9c79 3ebc
00000190: df0c 573d 4c19 b53d f709 02bd cb58 8e3d
000001a0: 084f 92bd 850f b8bc 9c97 ab3c 4ff8 3ebc
000001b0: 1905 943d c91e 353d fda0 8b3d b26d 483d
000001c0: 00af b73d 150a a2b9 167c 543d e109 673d
000001d0: 0789 173d 3a3c 633c 8b7d 65bb 45f4 973d
000001e0: 9ace 993d 49fa de3c f5de cf3c 4719 043e
000001f0: 6724 b63d 7641 7abd 4ed7 823d c25e 923d
0.078937866 0.027737344 -0.0016036768 -0.12997766 0.07701636 0.020438677 0.053086895 0.07643198
0.04638763 0.11303835 -0.032645613 0.07813996 0.06577417 -0.052240983 -0.016852044 0.005800242
0.013300904 0.07807163 0.10160983 0.041711476 0.0051387656 0.033991672 0.047256228 0.13920805
0.10226988 0.029555105 -0.06856128 -0.005608817 0.09228135 0.071109004 0.059240676 0.08736415
0.045776047 0.093246676 0.04543056 0.015668051 0.021642404 0.035984516 0.03685266 0.08888077
0.09670767 0.09226942 -0.10147809 -0.057685595 0.06389931 0.04420881 -0.038622916 0.103446975
0.0670596 -0.018501412 0.03089367 0.034847412 0.10889324 0.05440647 0.07844709 0.03410204
0.056235667 0.07815176 0.0889029 0.017180772 0.046069015 -0.023166819 0.012356558 0.08409528
0.062061414 0.06640289 -0.02427292 0.076163314 0.053275317 0.030290226 0.065937966 -0.07989626
-0.09103179 0.12466808 0.05771431 0.040993925 0.10423943 0.055737555 0.066266745 0.051425334
0.107082486 -0.037337072 0.05974355 -0.09500966 -0.06791671 -0.058639318 0.03259262 -0.04758535
0.040660895 -0.048913736 0.12036475 0.009773333 0.024056377 0.07151531 0.08304067 0.054789707
0.08348697 0.11189121 0.08460162 -0.011625674 0.05250251 0.088427156 -0.031747784 0.0695053
-0.0714398 -0.022468338 0.020946316 -0.011655881 0.07227535 0.044218812 0.068178155 0.04893274
0.089689255 -0.0003090656 0.05187615 0.056405906 0.036995914 0.01386934 -0.0035017456 0.074196376
0.07510109 0.027218955 0.025374869 0.12900268 0.08893662 -0.061097585 0.06388722 0.0714698

network_body._body_endoder.seq_layers.2.weight f4 [128, 128]
00000000: dd64 533e d358 a7b8 c303 fb3d f76d 3fbe
00000010: 9f6d 7b3d 6de5 bd3d 0ee4 ee3d 94c2 7f3e
00000020: 2205 eabc ca6d 08bd eac3 0cbd 605b 823e
00000030: c031 3c3d e3fb d93c 55d0 43be 06bb 82be
00000040: 9e61 0b3c 9d04 dabc dc14 47be 680d 593d
00000050: 7867 b7ba 469c f2bd 8681 2d3d 8244 463d
00000060: 8f98 49bd b2ef f5bb 4853 45be d976 923c
00000070: 891e 74bc a3a6 633e d884 fdbd 6b87 533d
00000080: e8eb 4d3d 2628 4a3e 032b 32bd df08 573e
00000090: c005 b0bd 30e9 b43d f64f b6bc 6a8b 553e
000000a0: 74bc 143e 415f fe3d 1904 d83d 72f4 e33d
000000b0: 86c8 d13c 7914 52bb 847f d4bd ca78 c23d
000000c0: 9e13 203e 2af3 993d 403f 393c 5e76 a33c
000000d0: ff41 1f3e 5614 bebd 9734 c0bd b9e6 13bd
000000e0: 356a 9bbd 5f90 c5bd d3a2 4fbd 3b50 043e
000000f0: aaee 2dbd 9b12 ab3d 0853 85be de46 4e3e
00000100: db31 ad3c 14c3 2cbd 5db3 0d3d 189f be3c
00000110: 3f5e a4bd f856 e23d 309f 2b3e a635 433d
00000120: 75d4 85bd 23a8 45bd 6527 26bc c026 04be
00000130: f148 433e 5938 543d fb39 053e dfd7 f6ba
00000140: 3984 163e d0dd bebd 9941 aa3d a6f4 dcbd
00000150: cc24 70bd 0bb8 05bd 58cc af3d 0241 be3d
00000160: 553b 0f3d 8fa9 cbbd ecfa e0bd 0f5d 553d
00000170: 05bd 05be 52b6 333e c24b 8f3d 766b e43b
00000180: 8866 f23d 33b2 b83c 6a3e 513d 876d debd
00000190: edff da3c 3688 023e 0d5f 283e 0111 633e
000001a0: c2ee 93bd c5d5 6bbd 868d 31be 1904 f3bc
000001b0: c592 493d 013a a43d 24db 093e 0da0 973d
000001c0: b605 1cbd cbbc 29be f533 63bd 0795 c1bd
000001d0: 75a8 353e 39d4 8cbd c31e 6e3c cb02 343e
000001e0: f6e5 373d 3332 33bc a506 2bbb bf41 753e
000001f0: da9c aabd 5515 aa3d a9ee 9abd 5338 453d
00000200: a165 96bc c3e9 c43c b4b3 643b 93ed 02bd
00000210: 6f46 0bbe f48d 28be 506f 17be 3fcb f2bd
00000220: 107f 063b f87b 26be 228f 133e 8813 bdbd
00000230: daed e03c a4a0 0cbd 2e0b 153e 0343 bc3d
00000240: bdcc a3bd 68bf b8bc fd47 bcbd e1c7 9cbd
00000250: c6ad 073d 15c0 553a c857 7e3d 4243 82bd
00000260: d18a 27bd d06a 17be c0e6 f8bd 00a1 10bd
00000270: 2db5 09be cb25 b03c fbeb e2bc ae51 6dbb
00000280: 095c 893d fa1c 84bd b737 003d 5a90 21bc
00000290: 7e78 01be 888b 583d 704e 46be 0cfa cbbd
000002a0: 32d0 afbd 7a39 f2bd 378a 72bc 9566 e43d
000002b0: 15c9 a0bb 7685 3f3d eaa3 833d c14c 833d
000002c0: d04c 093d d6da 9ebd 2400 d9bd 3c9b 4abe
000002d0: a6ed cdbd 7b73 033e 66df 1abe 65df dd3d
000002e0: c33b 093c dc20 b9bd bc13 8c3d 6417 a03d
000002f0: 3961 24be 97c1 4bbd b13f b03c 2dc1 4b3d
00000300: edd2 84bc adda 9a3d 0800 bcbc 423f 05bd
00000310: fc6b edbd e1f8 43bb 98fb b4bd 2464 a3bd
00000320: bd2c c03b b78f 05be c9c5 8bbd 0f5b 28be
00000330: 738e 54bd 58d4 293d b4bc 0c3d 45e9 fe3c
00000340: c330 f0bd 8f81 403e 2217 32bd 16ca dabc
00000350: fe04 133e e590 2d3d 6480 57be 789b 2e3d
00000360: 0f15 753d 1d3a 073e 0a0b c1bd 7630 983c
00000370: 2075 c2bd 3c93 163d 581e 58bd fae6 1fbe
00000380: f884 3cbd 8dfb 313d 9fa9 ea3b 7c40 de3d
00000390: 1182 05be 5f4a e5bd 52de 58be 0afa fbbd
000003a0: 6a09 4c3d 0778 c2bd 0ce6 efbd 5da2 d3bd
000003b0: d334 e2bc ad3d cb3d 9d75 e03d e9ec a8bd
000003c0: f119 e0bd ca49 81bd 5362 923c 1be3 8b3e
000003d0: 2820 24be 45e8 a5bc 3f1b 323e a1d0 f03d
000003e0: a0b6 4dbd 1072 96bd 82d1 11bd e911 8abd
000003f0: 878d 80bc e64c 363d ba35 c23d 0b45 033d
0.20643945 -7.979725e-05 0.12256577 -0.18694292 0.06138384 0.09272275 0.11664592 0.2497657
-0.0285669 -0.033307828 -0.034366526 0.2546034 0.045945883 0.026609367 -0.19122441 -0.25533313
0.0085071605 -0.026613528 -0.19441551 0.0529913 -0.0013992628 -0.11846213 0.04235985 0.048405178
-0.049217757 -0.0075053805 -0.1927005 0.017878937 -0.014899858 0.22231536 -0.123788536 0.051642817
0.050273806 0.19741878 -0.04349805 0.20999478 -0.08594847 0.088335395 -0.022254925 0.20853963
0.14525014 0.12420512 0.105476566 0.111306086 0.025608312 -0.003205566 -0.10375884 0.09495695
0.15632483 0.07517083 0.011306584 0.019953903 0.1555252 -0.092812225 -0.09385031 -0.036108706
-0.07588617 -0.09646677 -0.05069239 0.1292123 -0.042463936 0.08353158 -0.2603991 0.20144221
0.021141937 -0.04217823 0.034594882 0.023269221 -0.080257885 0.11051744 0.16759944 0.047658585
-0.065346636 -0.04825605 -0.010141228 -0.12905407 0.19070794 0.05181155 0.13010399 -0.0018832645
0.14698876 -0.09319651 0.08313293 -0.107888505 -0.058628842 -0.03264622 0.08583897 0.09289743
0.034968693 -0.0994445 -0.109853595 0.0520907 -0.13060386 0.17550018 0.069968715 0.006970818
0.118359625 0.02254591 0.051084913 -0.108607344 0.026733363 0.12747273 0.16442509 0.22174455
-0.07223274 -0.057576913 -0.17339143 -0.02966504 0.049212236 0.08018876 0.13462502 0.07403574
-0.038091384 -0.16575925 -0.055469472 -0.09452253 0.17740043 -0.06876416 0.014533701 0.1757919
0.044897042 -0.010937261 -0.002609649 0.23950861 -0.08330698 0.0830485 -0.07565052 0.048149418
-0.018359007 0.024037248 0.003489715 -0.03196485 -0.13601087 -0.16460401 -0.14788556 -0.11855172
0.0020522512 -0.16258228 0.1441007 -0.09232241 0.027457166 -0.034332886 0.14555046 0.09192469
-0.07998035 -0.022552207 -0.09193418 -0.076553114 0.033124708 0.00081539276 0.062095433 -0.06360485
-0.04090387 -0.1478684 -0.12153387 -0.03530979 -0.1344802 0.021502396 -0.027700415 -0.0036212015
0.067070074 -0.06450839 0.031303134 -0.009861076 -0.1264362 0.052867442 -0.19365859 -0.09959802
-0.08584632 -0.11827369 -0.014803461 0.111523785 -0.0049067833 0.046758138 0.064277485 0.06411124
0.03352052 -0.077565834 -0.1059573 -0.1978578 -0.100550935 0.12837021 -0.15124282 0.10833625
0.008376065 -0.090394706 0.068397015 0.078169614 -0.16052713 -0.04974517 0.021514745 0.049744774
-0.016213859 0.0756124 -0.022949234 -0.03253103 -0.11592862 -0.0029902982 -0.0883705 -0.07978085
0.005864708 -0.13043104 -0.06824834 -0.16440986 -0.051893663 0.041462272 0.03435965 0.031117091
-0.117280506 0.18799423 -0.043479092 -0.02670769 0.14357373 0.04237451 -0.21045071 0.042628735
0.059834536 0.13205762 -0.09425934 0.018577795 -0.09494996 0.036761507 -0.052763313 -0.15615454
-0.046025246 0.04345279 0.0071613337 0.10852143 -0.13037898 -0.11195826 -0.21178558 -0.123035505
0.049813665 -0.0949555 -0.117138 -0.10333703 -0.02761308 0.09923873 0.10959933 -0.08248312
-0.10942448 -0.06312902 0.01786915 0.27321705 -0.16027892 -0.020252356 0.17393206 0.11758543
-0.050222993 -0.073459744 -0.035600193 -0.06741697 -0.015692485 0.04450693 0.09482904 0.032048266

network_body._body_endoder.seq_layers.2.bias f4 [128]
00000000: 3814 c73d b946 abbd 7c83 96bd 56d5 4c3d
00000010: dfe8 a13d 0dc4 7ebd fb5b c2bd 67ff 913d
00000020: 1dd4 6a3d 810a 1a3d 673a e83d d5e3 bbbd
00000030: 9476 3a3d 271e 173d 06bb a9bd ca4b b43d
00000040: c7be 8bbd f31f 4ebd 4d19 13be e385 bebd
00000050: 88be b23d df50 8f3d 7f76 f4bd b0b0 6dbc
00000060: cfdc 013e 48cf 49bd 6f37 4abd f16f f03d
00000070: 7466 183d 149e 2a3d 4efe 6e3d e9a9 d13d
00000080: 26a6 523d 7446 dfbd 8e75 35bc 2927 60bd
00000090: 268e c13d 31d6 b5bd 5bf9 3bbd 2b1f 16be
000000a0: f6a6 d33d dafa d73d 0aad 94bd 4643 bcbd
000000b0: ebf5 293d d871 bc3d 8fed cf3c 2a44 d53d
000000c0: 7d82 71bd 66a6 363d 9506 e0bd 2ac4 903d
000000d0: a106 c1bc 0a5a 12be ea62 e1bd d0d9 08be
000000e0: c916 8c3d bdf6 713d 77ba 953d 5ae7 093d
000000f0: 2cb9 d13d 0865 b23c cf20 a33d 7193 c2bd
00000100: 1610 06bd 4741 64bc 32c9 82bd 8e91 e2bd
00000110: c4b9 b2bd faca b13c 2ece b53d 797e 723d
00000120: 2f76 ac3c 755e 883d 2da9 32bd 6946 a7bd
00000130: 4621 1bbd c1c5 b7bd 8263 b83d 35a9 65bd
00000140: 7ee8 39bd 11da 7c3d 9eb1 fdbc 258c c6bb
00000150: 8d07 93bd 93c2 3c3d e259 53bd a216 98bd
00000160: a5de 8dbd 632f aa3d f80e 8a3c d95d 9e3c
00000170: 3d48 c2bd 6c82 b03d a93a bb3d f47c 9c3d
00000180: 7c92 4abc cd2b 3e3d bde7 f23c 6b05 d73d
00000190: 133b 44bd 7093 34bd 499d cfbd ecae be3d
000001a0: d106 9bbd ba2a d83d 2e5f 9dbd 9781 e33c
000001b0: 136d f13d 32a5 f63d 3ede e0bd 8baa 713d
000001c0: cd87 903d 386d 163d 07c2 d23d d749 a5bc
000001d0: 47ee 873d 8a69 e33d 80d8 f1bd 6d9c abbd
000001e0: dd46 d3bd 72de a1bd c959 a73d 14c5 673c
000001f0: 0814 c5bd 2d28 f9bd 3a4a b1bd 6b39 6fbd
0.09720653 -0.08363099 -0.073492974 0.05000814 0.07905745 -0.062198687 -0.094902 0.07128792
0.057331193 0.037607674 0.11339264 -0.09174315 0.04552324 0.03689399 -0.08287625 0.08803518
-0.06823497 -0.050323438 -0.1436512 -0.093028806 0.08727747 0.06997847 -0.11936664 -0.014507458
0.12681888 -0.049269944 -0.04936927 0.11740101 0.037207082 0.04165466 0.058347993 0.10237486
0.051427983 -0.1090211 -0.0110753905 -0.054724846 0.09450941 -0.088787444 -0.0458921 -0.14660327
0.1033458 0.10545893 -0.07259567 -0.09192519 0.04149429 0.092014015 0.025381831 0.10413392
-0.058962334 0.044592284 -0.109387554 0.07068665 -0.023562731 -0.1429216 -0.110051945 -0.13364339
0.068402834 0.0590732 0.07310956 0.0336679 0.10240397 0.021776691 0.07965242 -0.095007785
-0.032730184 -0.013931579 -0.06386031 -0.110629186 -0.08726838 0.021703232 0.08877216 0.059202645
0.021052448 0.06658641 -0.04361837 -0.081677265 -0.03787353 -0.089732654 0.090033546 -0.05606957
-0.045387737 0.0617314 -0.030968484 -0.006059187 -0.071791746 0.046083998 -0.05159939 -0.07426192
-0.06927232 0.083098195 0.01685284 0.01933186 -0.094864346 0.08618626 0.09142048 0.076410204
-0.012364026 0.04642849 0.029651517 0.1049908 -0.0479079 -0.04408592 -0.10137422 0.093107074
-0.075696595 0.105550244 -0.0768417 0.027771754 0.117883824 0.12043227 -0.10979889 0.059000533
0.07057152 0.036725253 0.10290914 -0.020176811 0.06637245 0.11104114 -0.11808872 -0.08379445
-0.103162505 -0.07903756 0.08171422 0.014146108 -0.09622961 -0.12165866 -0.08656736 -0.058404367

action_model._continuous_distribution.log_sigma f4 [1, 2]
00000000: 90cc 23be 02d8 fc3c
-0.15996003 0.03086472

action_model._continuous_distribution.mu.weight f4 [2, 128]
00000000: 9bd2 163d 99cf 553d d841 ec3a 7cf1 473d
00000010: 3f73 fbba eafc 4dba eed9 a13c 3db8 0b3c
00000020: 8bb2 0fbc d2c7 02bc a854 2cbd 7722 b23c
00000030: fdce eabc 37d2 933d 379c fc3d 508e 6b3c
00000040: 89e0 9d3c 6731 db3b 17c5 7b3c db46 8e3b
00000050: ae1b e2bb 5ce4 a53c 248d 013c 1b19 a1bc
00000060: 4638 c5bd 29de 95bd 381d 983d 8d6f d3bc
00000070: 2f0a 023d e61e 013d aef6 bc3c ff12 aebc
00000080: 591b 0a3d 9611 04bb b6fd 2f3d be43 783d
00000090: 6417 0e3d 5435 1d3d 9016 0e3d 08e2 c93c
000000a0: 2ed1 ebbc 8842 27bc acd1 363d 7826 edbc
000000b0: 10b6 863b c9f9 70bc 134b e83c e627 48bd
000000c0: ed48 d7bc e859 ab3d b044 7b3a 6b0c 5f3c
000000d0: 8076 b03c 2636 f83b c16c 613c 2329 623c
000000e0: b5d4 983d 917c 613d c698 1c3d 420d 193d
000000f0: 5943 863b 3b1e 8bbd 3733 50bd 2af1 a7bc
00000100: c56a 35bb d547 c3bd 225b af3c 7651 c63c
00000110: f57a 2ebd a271 11bd 06ac 2f3d 3efc 6e3d
00000120: 90f3 ac3d a89d 473d be6e 5d3c c6d8 bd3b
00000130: 7038 84bd 60e8 90bb 87c6 dd3c effb a83d
00000140: 2588 da3b 629f 9a3c 75d7 113d 55fc 813c
00000150: 559c 903c c94c 183d 6f1b 393c e162 82bc
00000160: 12b1 303d 03c4 0dbd 335f f1bd f6eb 75bd
00000170: f763 27bb cfa0 a03d ea07 853d 7c55 2dbd
00000180: ab3d a2bc a556 533d 3901 ae3a d079 5c3d
00000190: a046 11ba c5f9 1fbc 198f 013b 0e05 c5bc
000001a0: b6a4 1dbd 7609 9dbc d87a 833c e1ea 98bb
000001b0: 36da 1d3d ebd8 32bd e10c 963c de01 c83c
000001c0: 691e 853c b9dd cf3a 1449 9fbc bef2 be3d
000001d0: fb7a 2a3d faae 5cbd cd23 3e3d cd3d 6d3c
000001e0: 0ad0 2cbc 5f83 e73c 24b6 633c b9bc 0cbe
000001f0: 3123 5c3c a002 933c f72c 193d 2a8f e3bc
00000200: 4ae4 ac3d 45d4 aabd a47f 0cbe 0b04 2a3d
00000210: 62ab 2a3d a217 00be d29f 97bd ee4b 803d
00000220: 35c5 0f3d a036 033d 4766 b83d e994 05be
00000230: ff6f c33c 3d43 183d 9c13 46bc 8557 633d
00000240: 2307 29bd 873e 19be 85ad 9abd 695a 90bd
00000250: 872e 783d b842 723d a234 11be a895 8ebc
00000260: 836f 5d3d c191 61bd 3c0c 78bd abe9 973d
00000270: a8d4 2e3c 5efa 7abc 1a0d 113d eba9 993d
00000280: 08fa 6b3c ddb1 c5bd 1e90 9dbc ba0e bdbd
00000290: deb8 863d 3aa4 16be 5fe6 30bc d779 a2bd
000002a0: 0fe3 7e3d b9b7 aa3d bd4c 2dbb 2cff b8bd
000002b0: c0bc 263d fa4d c63d c385 b43c 1bfe 213d
000002c0: 6ee1 35be 4e8d 673c c067 dcbd f521 ad3d
000002d0: 65f6 35be 3554 e7bd 3c2d b5bd e9aa e0bd
000002e0: cfcd 5b3d 0deb d63c 57ef 3a3d eeac d63c
000002f0: 7481 903d b065 ce3c 87f7 623d cbe3 dfbd
00000300: 4b2e 60bd 95f2 3abd a5e3 c7bd 0fff 97bd
00000310: a49b 9ebd 4a43 d43b 6156 353d 45b5 6d3d
00000320: 396b 8b3c 11ab 623d a53b 28be fbdc 0fbe
00000330: 3cd6 3bbd d92b a6bd 846a 7d3d 05d8 5e3b
00000340: 6d88 82bd 29fe 853d 2f2d 693c b6ed 87bc
00000350: ba07 06be 7b7d 9d3c 2689 2bbe 955c 0cbe
00000360: 5788 72bd b527 4e3d 85a2 d0bc 3ea5 073c
00000370: c473 02be 7ad7 1b3d c98a ab3d d3e6 5a3d
00000380: b0e7 53bc 261f a43c cd19 553c d2d1 1f3d
00000390: d7b8 cabc 9649 2ebe e852 53bd caed 6d3d
000003a0: 9570 08be 8c70 8e3d 540d 17be 3035 4f3d
000003b0: be1e a73d 3a51 9b3d 6d45 28be 2149 b43c
000003c0: c621 123d 9563 ce3c bfa8 8f3d ac37 ebbc
000003d0: be94 613d 37df 823d 6376 46bd 9c5a 15be
000003e0: 0c0e c7bd 3001 19be 566e 5c3d 9e10 3cbc
000003f0: 3965 eebd 3d29 77bd 1947 04bd 2c4c 7cbd
0.036821943 0.052199934 0.0018024994 0.04881428 -0.0019184126 -0.00078578165 0.019757237 0.008527813
-0.008770595 -0.007982211 -0.042072922 0.02174495 -0.028663153 0.0721783 0.12334483 0.014377192
0.019272106 0.006689239 0.015366814 0.0043419427 -0.0069002723 0.020250492 0.007907186 -0.019665292
-0.09629874 -0.07317764 0.07427448 -0.025810027 0.031747993 0.031523608 0.023066845 -0.021249292
0.033717487 -0.0020152084 0.042966567 0.06061148 0.034690276 0.038380936 0.034689486 0.024643913
-0.028786268 -0.010208733 0.044633552 -0.028949007 0.004111059 -0.014707991 0.02835611 -0.048866175
-0.02627989 0.08366758 0.00095851254 0.0136138005 0.02154088 0.0075748144 0.013758839 0.013803753
0.07462446 0.055050436 0.038231634 0.03736616 0.004097384 -0.067928754 -0.050830092 -0.020500738
-0.0027682048 -0.09535185 0.02140576 0.024208765 -0.04259773 -0.03550876 0.042888664 0.058346026
0.08444893 0.048734337 0.0135151725 0.0057936637 -0.06456077 -0.0044222325 0.027072204 0.082511775
0.0066690617 0.018874828 0.035605866 0.015867392 0.01765267 0.037182603 0.011298045 -0.01591629
0.043137617 -0.03461076 -0.11785736 -0.060039483 -0.0025541761 0.07843172 0.0649565 -0.042317852
-0.019804796 0.051596303 0.0013275511 0.053827107 -0.0005541835 -0.00976414 0.001976913 -0.024050262
-0.03848716 -0.01916955 0.016049787 -0.0046666716 0.03853818 -0.0436639 0.018316688 0.024414953
0.016249852 0.0015858925 -0.019444026 0.09323643 0.04162119 -0.05387781 0.04642086 0.0144800665
-0.010547647 0.028260885 0.013898406 -0.13743867 0.013436125 0.017945588 0.037396397 -0.027778227
0.0844198 -0.083412685 -0.13720566 0.041507762 0.04166735 -0.12509015 -0.0740353 0.062644824
0.03510018 0.032034516 0.09003883 -0.13045086 0.023857115 0.0371735 -0.012089636 0.055503387
-0.04126657 -0.14965259 -0.075526275 -0.07048494 0.060591247 0.05914566 -0.14180234 -0.017405346
0.054061424 -0.055070642 -0.060558543 0.074176155 0.010670818 -0.015318481 0.035412885 0.075031124
0.014402874 -0.09653065 -0.01923376 -0.092313245 0.06578229 -0.14711085 -0.010797112 -0.07933395
0.06222826 0.083358236 -0.0026443445 -0.09033045 0.04070735 0.096828416 0.022036439 0.039548974
-0.17761776 0.014132811 -0.10761976 0.084537424 -0.17769773 -0.11295358 -0.088465184 -0.109700985
0.05366307 0.026235128 0.04563841 0.026205506 0.07055941 0.025194973 0.05541184 -0.1093212
-0.05473165 -0.0456415 -0.097602166 -0.074216954 -0.0774453 0.006477748 0.04427183 0.0580342
0.017018901 0.055338923 -0.16429003 -0.14049141 -0.045858607 -0.08113832 0.06186916 0.003400327
-0.063736774 0.06542618 0.014231964 -0.016592842 -0.13088885 0.019224873 -0.16751537 -0.13707192
-0.059212055 0.050330836 -0.02546812 0.008279143 -0.12739474 0.03804729 0.083760805 0.053442787
-0.012933657 0.020034384 0.01300664 0.03901846 -0.024746342 -0.17020258 -0.051592737 0.0580881
-0.13324197 0.0695506 -0.14751178 0.050587833 0.081601605 0.07583852 -0.16432734 0.022007527
0.03567674 0.025193969 0.07014608 -0.02871307 0.055073492 0.06390231 -0.048452746 -0.14585346
-0.09719476 -0.14941859 0.053816162 -0.011478571 -0.116404004 -0.060342062 -0.032294367 -0.06159608

action_model._continuous_distribution.mu.bias f4 [2]
00000000: 5cd4 9cbb e29e fe3d
-0.0047860574 0.12432648

onnx::Div_51 f4 [90]
00000000: 9e6a 723e 8ee8 713e 0bdd 6f3e bcb8 6f3e
00000010: ffe2 773e 2450 813e 8d84 863e 9306 8b3e
00000020: 8e7a 8f3e 71e5 933e 422f 983e a1fd 9b3e
00000030: 345a 9f3e 535b a23e 5a01 a53e 67c6 a63e
00000040: 0d28 a73e a8ee a53e ff56 a33e 9bc7 9f3e
00000050: 667d 9b3e 3854 963e c542 903e e1e5 883e
00000060: 11c7 803e 8859 743e 96b9 6b3e ed11 653e
00000070: 84d1 5d3e 4cae 553e 6dc4 4c3e 3117 423e
00000080: 2c6a 363e 81b9 283e ede6 113e f904 fe3d
00000090: f04a d73d 3b1f b13d c826 903d 73f5 5c3d
000000a0: 1e84 b13c 4a38 093b b49b ce3a 30da c83a
000000b0: d28f d83a 6637 db3a 68bb 733e 36c2 733e
000000c0: dac4 703e 7515 713e de78 763e 827e 7e3e
000000d0: 085e 843e 4d9d 893e 1f4d 8e3e 94a5 923e
000000e0: 5293 963e 1fbe 993e 2a9a 9c3e 544c 9f3e
000000f0: 48a9 a13e 9edf a33e d8fd a43e 35dd a43e
00000100: 5055 a33e 26b8 a03e 6b61 9d3e 2db6 993e
00000110: 89b7 953e 4e98 903e 8730 893e b5cd 803e
00000120: fef3 733e 8573 693e bea8 603e 8b9e 583e
00000130: 5d18 4e3e e28a 433e 6d86 383e 9459 283e
00000140: 1881 123e c253 fa3d e84d cd3d 9c6e 9a3d
00000150: d0c0 6b3d 2dd9 033d 1adf f13a d09c e83a
00000160: 3736 e73a fdfe dc3a
0.23673484 0.23623869 0.23424165 0.23410314 0.24207686 0.25256455 0.26273003 0.27153453
0.2802319 0.28885987 0.29723555 0.3046694 0.31123507 0.317103 0.32227594 0.32573244
0.32647744 0.32408643 0.3190231 0.31206974 0.3036911 0.2936113 0.2817594 0.26737884
0.25151876 0.23862278 0.23020014 0.2237012 0.21661955 0.2086727 0.19996805 0.1895416
0.17813939 0.16477014 0.14248247 0.12403292 0.1051234 0.08648535 0.07038647 0.053945016
0.021669444 0.0020938092 0.0015762956 0.0015323814 0.0016522354 0.0016724884 0.23801959 0.23804554
0.23512593 0.23543341 0.24069545 0.24852946 0.2585299 0.26877823 0.27793214 0.2864195
0.2940927 0.30027863 0.30586368 0.3111292 0.31574464 0.32006544 0.32224917 0.32200018
0.31901026 0.31390494 0.30738387 0.30021802 0.2924159 0.282412 0.26794836 0.25156942
0.23823544 0.22797973 0.2193937 0.2115423 0.20126481 0.19095948 0.1802003 0.16440421
0.14307058 0.12223007 0.10024625 0.07540628 0.057556927 0.032189537 0.001845333 0.0017746929
0.0017640059 0.001686066
