results/90RC2/Park90RC/Park90RC-4999961.onnx (onnx, 119662 bytes, 9 tensors)

network_body.observation_encoder.processors.0.normalizer.running_mean f4 [90]
00000000: 193d 0d3f d4d1 0c3f 37a9 0a3f 2059 063f
00000010: 95cf 013f 49e8 fc3e b508 fa3e 330c fb3e
00000020: 6981 fe3e be3b 023f 1c5a 063f 2798 0b3f
00000030: f8bd 113f bb6c 183f e166 1f3f d9b5 263f
00000040: b708 2e3f 5877 353f e28e 3c3f 9223 433f
00000050: df54 493f 2010 4f3f 1440 543f d1fe 583f
00000060: af13 5d3f 5f45 603f b9b8 623f 2cb3 643f
00000070: 9473 663f fb22 683f b3c1 693f 886a 6b3f
00000080: 9a29 6d3f fda3 6f3f f540 733f 4ec4 753f
00000090: 0d45 783f 1eb6 7a3f 0371 7c3f 1759 7e3f
000000a0: d5c3 7f3f 55fe 7f3f 83fe 7f3f c8fe 7f3f
000000b0: abfe 7f3f a7fe 7f3f b593 0c3f e15a 0a3f
000000c0: f12b 073f 0409 043f e5ce 003f e70a fc3e
000000d0: c9d9 f93e c672 fa3e 741c fe3e 6df8 013f
000000e0: 979a 053f 36e5 093f cff6 0e3f 81ba 143f
000000f0: 4709 1b3f adfc 213f f53d 293f 15ba 303f
00000100: 6236 383f 3e70 3f3f 3a10 463f fa29 4c3f
00000110: a36b 513f 4c39 563f 2276 5a3f 6c02 5e3f
00000120: 4bc7 603f e608 633f 19ec 643f 6bb3 663f
00000130: e6ae 683f e615 6b3f 667f 6d3f 264e 703f
00000140: 998a 733f b6c1 763f 44ca 793f be2d 7c3f
00000150: f855 7e3f 52c1 7f3f 64fe 7f3f 8efe 7f3f
00000160: 8bfe 7f3f a4fe 7f3f
0.5517135 0.5500767 0.5416445 0.52479744 0.5070737 0.4939597 0.48834768 0.49032745
0.49708107 0.5087241 0.52481246 0.5452904 0.56930494 0.5954091 0.62266356 0.6512123
0.6798205 0.7088523 0.7365552 0.7622615 0.7864513 0.8088398 0.82910275 0.8476382
0.8635816 0.8760585 0.88563114 0.89335895 0.9002011 0.90678376 0.91311187 0.9195943
0.92641604 0.936096 0.9502099 0.9600266 0.96980363 0.9793414 0.9860994 0.9935469
0.9990819 0.99997455 0.9999773 0.9999814 0.9999797 0.99997944 0.54912883 0.5404492
0.52801424 0.51576257 0.50315696 0.49227068 0.4879897 0.4891569 0.49631083 0.5076969
0.5218901 0.53865373 0.5584535 0.5809708 0.6056103 0.6327618 0.66110164 0.6903394
0.7195798 0.74780643 0.7736851 0.7975155 0.81804866 0.8368118 0.85336506 0.86722445
0.87804097 0.8868545 0.89422756 0.9011752 0.90891874 0.9183029 0.9277252 0.93869245
0.9513336 0.9638933 0.9757426 0.985073 0.9934993 0.9990436 0.99997544 0.99997795
0.99997777 0.99997926

network_body._body_endoder.seq_layers.0.weight f4 [128, 90]
00000000: b43d 133e ad9d 7f3d 5705 8bbd 53a3 573d
00000010: 64e6 a83d efdb 28bd 0b90 09be 7ae3 433e
00000020: fad4 cd3d 97db d43d 6f03 c03d 78ac 08be
00000030: 7e7a 6a3e 9d5d 8d3e d0bb a63e c0cf f83d
00000040: 0e11 d83d 6253 603e 4ad2 313e c2db a13e
00000050: 4769 d03d 1342 813d 3357 833e 5b12 4e3d
00000060: bbeb 1c3e fa2d 153e 9670 773d 1e14 543e
00000070: 29b9 d03d 4adc 553e 20fc d03c d029 a5bd
00000080: 29ff 2e3d 934e a23e fd0a 323d 1465 bdbc
00000090: 995a 4e3e 1a12 ec3d beb1 f63c 7d71 fe3d
000000a0: 6cd5 5d3e a7e6 2b3d 06b5 d0bb 28ae 293e
000000b0: e4e9 8d3c bb58 b73d 36a5 be3d 7941 f23c
000000c0: c267 0fbe d07c 013d 8a92 76bd 704f 843d
000000d0: 0807 613d 7b85 c8bb bbcb 943d de5c b5bd
000000e0: 789b cfbd 7259 843c 1d68 dabc f4f8 69be
000000f0: 98f1 46bd 4867 e0bc 3fc1 e3bd c456 11be
00000100: fa3d b7bd 217b 5bbe 6278 0cbe 2497 bcbd
00000110: 9fed 11bd d9fc cebc 67dc 7dbd e71b 173e
00000120: 6ce7 a0be d575 4cbe 0c7a 873d 259c 453d
00000130: c88a ec3d c4d7 263d 5d97 a63d 5b4d 303e
00000140: d461 c4bd b8a2 043e 4574 f8bc 4cb9 ef3d
00000150: db16 153e 9b5c 1abe 783f a83d 2b98 b93d
00000160: 8a90 bf3e a221 4e3e eda5 83bd ed27 8ebd
00000170: fe5d 79bc c1fb 293e 0ee5 d9bd 7ae7 453e
00000180: b1d5 5c3e fb92 403e 9440 083e 929e 6b3e
00000190: 8a4d f03d 1e05 353e ef43 1b3e f4e9 ae3d
000001a0: 0fff 6d3c 4bc2 33be cacc 8cbb cd8c 193d
000001b0: ab39 543e 5090 0bbe c7df 053e 08bd c13d
000001c0: b1c5 2fbb 0ad3 81ba 66d0 2c3c 1159 6b3b
000001d0: 9139 a33d 0efa e03d 6c1f 2a3d 8a86 4a3d
000001e0: 62a6 793d 645e 21bd 3843 38be 02ec 0d3e
000001f0: eccd fe3d f423 6fbd 7629 693d 02d4 b5bb
00000200: f07c d2bd 1ef5 223d 29b6 74be a257 acbd
00000210: c84a d93d ce82 c93d 58d2 14bd 4545 b4bd
00000220: bc54 c1bc 5c48 1f3e 5be4 24be 2e72 a03d
00000230: 9de8 23be c533 1fbd a3e3 943d c6df 29bd
00000240: 696f 2f3d 824e 72bc 8103 36be 9762 43ba
00000250: 5403 85bd 00c6 07bd 77b3 183d e7f1 b53d
00000260: 931d a8bd 4ec3 423e e7da fbbc 8752 02be
00000270: 8932 86be 7802 59bd 9bd4 333d 8c61 cfbd
00000280: aa1c 18bd e456 6c3d 29a1 c0bd 156b 3abb
00000290: 4943 9e3d e2ce 8a3d 40a5 a4bd c7cc 91bd
000002a0: b8f4 b73d 5cc2 3ebb 7508 81bd f58f 88bd
000002b0: 8051 9abd 3092 95bd a9a9 1e3e e9fe 37be
000002c0: 3661 ddbd 517b e7bd e038 9bbd 53b6 c33d
000002d0: 1f0f cbbd e3cc 5dbe a05c 66be 1f3d 9cbd
000002e0: ebaa 4bbc ca04 383e 6ffa 85bd 773f ec3d
000002f0: 16d9 613e 2c65 843d ca65 5e3d a3c0 12bd
00000300: 7123 a6bb 87d9 6bbe 8cc3 903c eee4 01bd
00000310: 8493 f3bd a331 f1bd 7ef9 85be d305 afbc
00000320: 5a3c 8abe d272 353d c744 033d d9e9 123e
00000330: dd60 52bd dca3 0ebd 5870 9b3d 15e1 d33d
00000340: a778 273d 3488 e53a eca7 63bd 22db 2dbe
00000350: 492d 23be b690 20be 9451 adbe 8bc3 b93d
00000360: f9f2 093e e752 fa3d 0d2c 0bbe 4bef 5bbb
00000370: aa0b ccbd 780e f03c 16a6 273e cec3 e8bd
00000380: 7011 b03d 85c6 bcbd 8b5c 82bc 5fe2 11be
00000390: cc7e b2bd 0316 ca3d b2c4 023e ec7b b6bb
000003a0: 045a aa3d 28ea c3bb 2ba5 383e b549 05bd
000003b0: 514a 993e 7fb4 103e e319 813e 484c 273e
000003c0: 47a7 943d ca9c 5a3e 5ada d93c f80a a03d
000003d0: 9f97 eabc 9140 8e3d 7b09 57bc 1743 d43d
000003e0: 8bf6 023e 7d8d 683e 042d 333d 72bd a4bd
000003f0: 66b8 6fbd 4ff2 60be 0903 59bd d634 c7bb
0.14379007 0.06240623 -0.06788128 0.052645992 0.082470685 -0.04122537 -0.13433854 0.19129744
0.10050388 0.10393446 0.09375655 -0.13347042 0.2289829 0.27610484 0.32565165 0.12149
0.10550128 0.21906808 0.17365375 0.31612974 0.1017633 0.06311431 0.25652465 0.050310474
0.15324299 0.1456832 0.060410105 0.20710799 0.101915665 0.20884815 0.025510848 -0.08064616
0.04272381 0.31700572 0.04346751 -0.023119487 0.20151748 0.1152689 0.030114051 0.1242399
0.21663445 0.041968014 -0.006369236 0.16570342 0.017323442 0.08952471 0.09308855 0.029572235
-0.14004424 0.03161317 -0.060198344 0.06460464 0.054938346 -0.0061194277 0.07265421 -0.08855604
-0.10137075 0.016155932 -0.026660973 -0.22848874 -0.048570246 -0.027392998 -0.11120843 -0.14193255
-0.08947368 -0.21433689 -0.13717797 -0.09208515 -0.035627004 -0.025267052 -0.06197777 0.14756738
-0.3142656 -0.19966824 0.066150755 0.048244614 0.11549908 0.040733114 0.08134339 0.17217009
-0.09588972 0.12952697 -0.03032888 0.117052644 0.145595 -0.15074389 0.08215231 0.09062227
0.37414962 0.20130017 -0.06428132 -0.06941209 -0.015220163 0.16599943 -0.10639392 0.19326583
0.21565892 0.18806069 0.13305885 0.23009709 0.117335394 0.17677733 0.15162633 0.08540717
0.014526143 -0.17554586 -0.0042968737 0.037487794 0.20725124 -0.1362927 0.13073646 0.09459883
-0.0026820714 -0.0009904813 0.010547733 0.0035911242 0.07969964 0.10985194 0.041533872 0.049444713
0.06094969 -0.03939666 -0.17994392 0.13859561 0.1244162 -0.058383897 0.056924306 -0.005548955
-0.10277736 0.039784543 -0.23897614 -0.08415152 0.106099665 0.09839402 -0.036333412 -0.088022746
-0.023599975 0.15554947 -0.16102736 0.07834278 -0.16006704 -0.03886773 0.07269981 -0.041473173
0.04283086 -0.0147892255 -0.17774774 -0.00074533507 -0.064947754 -0.033147812 0.037280526 0.0888403
-0.08208766 0.19019815 -0.03074403 -0.12726794 -0.2621043 -0.05298087 0.04390393 -0.101260275
-0.03713671 0.057700053 -0.09405739 -0.0028445174 0.077276774 0.06777741 -0.080393314 -0.07119136
0.08982223 -0.0029107546 -0.06300441 -0.066680826 -0.07535076 -0.07303274 0.15494408 -0.17968334
-0.10809557 -0.113028176 -0.075792074 0.0955626 -0.099149935 -0.2166019 -0.22496271 -0.076288454
-0.012430887 0.17970577 -0.06541907 0.115355425 0.22055468 0.064646095 0.054296292 -0.035828244
-0.005070143 -0.23032199 0.017671369 -0.031712465 -0.11893371 -0.117770456 -0.2616691 -0.021365082
-0.2699917 0.044298954 0.032048013 0.14347018 -0.051361907 -0.034824237 0.07589787 0.10345665
0.040886547 0.0017511905 -0.055580065 -0.16978124 -0.15935244 -0.15680203 -0.33851302 0.090705
0.13471593 0.122228436 -0.13591023 -0.0033559378 -0.09963162 0.029303774 0.1637195 -0.11365472
0.08597076 -0.09217552 -0.015913269 -0.1424651 -0.08715591 0.0986748 0.12770346 -0.005568972
0.0831795 -0.0059788413 0.18031757 -0.032540996 0.2993951 0.14131354 0.25215062 0.16337693
0.07258468 0.21348873 0.026593376 0.07814592 -0.028636752 0.06945909 -0.013124819 0.10364359
0.12789361 0.22710223 0.043744102 -0.08043946 -0.058525465 -0.21967433 -0.05298141 -0.0060792966

network_body._body_endoder.seq_layers.0.bias f4 [128]
00000000: 04eb b13d 4946 8f3c b032 ddbb 02d8 e0bd
00000010: ba55 dc3d e0a8 303d 7662 cd3c 7a52 9a3d
00000020: ab6b 023d 7837 9f3d 5ca5 1ebd f49a 543d
00000030: 0a90 c23d 2562 4dbd 953c 72bc 41c7 333b
00000040: e9b7 313c 2ec7 993d c151 c93d c7c8 dd3c
00000050: be3f e3bc c5fe 533d 8aa6 993c dd4c 193e
00000060: df09 ed3d 876b 1b3e 7b89 6c3d 603f 05bd
00000070: f679 9a3d 8d92 5b3d 771b 023d c17f cc3d
00000080: 6406 4f3d 9564 9a3d 4512 823d 2c7b ecbb
00000090: 7b16 1eba 86cb 473c c318 c33c ec60 af3d
000000a0: 146c b53d fbed a33d 1b5f 8abd 4cc0 a6bd
000000b0: b385 c93d 1f3c f23d 5f89 893d da2e c33d
000000c0: 6b91 3f3d 18cf 4abd 135f 2bbb d0ea fc3c
000000d0: e3ea b33d e11f 3c3d 84ee 923d b14b 423d
000000e0: 33a0 2b3d 3b07 373d 2eb2 983d b6ba 063c
000000f0: eeff 3d3d a915 3fbd a9ba a9bc 4f9f 053e
00000100: a079 693d 7196 783d 9a98 ffbc c004 cf3d
00000110: 103a 623d 7cfc c33c aaa5 113d 2771 8abd
00000120: 678b f0bd 128b 153e 85b2 823d 5b60 f63c
00000130: a60f ed3d 7cca 783d bc36 3a3d d8cb 683d
00000140: 901d db3d f2ac eb3c f86c 933d edc7 a2bd
00000150: b679 87bd 31ad 16ba 17ca ab3c c0f9 7abd
00000160: 5799 273d fac7 74bd e962 283e ebd2 f63c
00000170: d252 503c 9a03 743d 0199 b93d 782b 353d
00000180: 908f be3d 7b7f f83d a4d5 133d 02cf 953c
00000190: c67a 283d 35ad 883d 72b1 47bc d9d0 543d
000001a0: d0d7 9a3c b9a0 6ebc 457d 803c 9501 d63b
000001b0: 6f76 8a3d 141c 433d 7c9f a23d f7aa 713d
000001c0: 8d5f bb3d b6e8 a439 9f55 0a3d febb a63c
000001d0: 4582 433a 7d4a 1a3e 2775 4fbc 250c 943d
000001e0: 34b4 9f3d cb48 1d3c 1fd3 e63b b46c 363e
000001f0: ff04 8b3d cd5c a8bd b466 dd3d 56fc 963d
0.08687404 0.01748957 -0.006750427 -0.109787 0.107585385 0.0431298 0.025071364 0.075352624
0.03184096 0.07774252 -0.038731918 0.051905587 0.095001295 -0.050142426 -0.014784952 0.0027431997
0.01084707 0.07508694 0.098300464 0.027073277 -0.027740356 0.05175664 0.01875617 0.14970727
0.115741484 0.15177737 0.0577483 -0.032531142 0.075427935 0.05360656 0.031764474 0.099853046
0.050543204 0.07538716 0.06351141 -0.0072168317 -0.00060305715 0.01219452 0.023815518 0.08563408
0.08858505 0.080043755 -0.06756421 -0.081421465 0.09839954 0.118278734 0.067156546 0.095304206
0.04676954 -0.049513906 -0.0026149198 0.030873686 0.087850355 0.04592884 0.071743995 0.047435466
0.041900825 0.04468463 0.0745586 0.008223226 0.04638665 -0.046651516 -0.02071889 0.13049053
0.057000756 0.060690347 -0.031200696 0.10108328 0.055231154 0.023924105 0.03555838 -0.06759863
-0.11745339 0.14603832 0.06381706 0.030075243 0.1157525 0.06073998 0.045462355 0.056835026
0.10698998 0.02876899 0.071985185 -0.07948289 -0.066150114 -0.00057478534 0.020970387 -0.061273336
0.04091772 -0.059761025 0.16443981 0.03012987 0.012715058 0.059573747 0.09062386 0.04423091
0.09304726 0.1213369 0.036092415 0.018287186 0.04113271 0.066736616 -0.012188302 0.051956985
0.018901736 -0.014564686 0.015684733 0.0065309503 0.06760871 0.0476342 0.079405755 0.059000935
0.09149084 0.000314539 0.03377306 0.020353314 0.00074580713 0.15067478 -0.012662209 0.07228879
0.07798043 0.009599875 0.0070442106 0.17814904 0.06788062 -0.08220825 0.10810605 0.07372348

network_body._body_endoder.seq_layers.2.weight f4 [128, 128]
00000000: 72a7 513e f778 a93c 8baa 223e 0da3 43be
00000010: 46b7 513d a4d3 d33d 9b64 c63d c2bf 713e
00000020: 752a 46bc ca64 a3bb b8d6 9ebb aea6 843e
00000030: b93f 163b 9482 c63c 783a f3bd b50d 5bbe
00000040: e786 e3bb 4810 4cbc d3eb 31be 4f46 893d
00000050: 6ccb de3b 1fb6 b9bd db42 c33c 1de1 df3c
00000060: 39ec 8dbd d68a 3c3b 1db1 4dbe 84a9 6b3c
00000070: c464 603b 7189 403e c5c6 0cbe e825 5d3d
00000080: 6ef8 503d fadc 6b3e b8f8 24bd d253 393e
00000090: ac9b 01be b71a 9e3d 58e0 b63c 81b2 363e
000000a0: 928d f83d 8817 d23d 95b4 f13d ca37 9f3d
000000b0: 8edd 17bd 994d 50bb 66f6 1dbe 40ab c73d
000000c0: d620 093e ced6 fc3d dec1 133d e2cd ed3c
000000d0: e701 093e f5b9 d9bd ebc0 aabd d05a 26bd
000000e0: 89ee bbbd b26a 04be 76e9 4bbd eedd 103e
000000f0: fca9 2ebd 03f4 953c 38c7 96be a606 813e
00000100: 1940 9c3c 27b4 6bbd c272 103d ac16 cebc
00000110: effd 73bd a1f3 ec3d ae73 013e a66a 883d
00000120: cc53 90bd ea56 9abd 8b66 4d3c 676f f7bd
00000130: 4a0a 373e d3d9 793d f378 f93d ed60 34bd
00000140: 24c3 053e 8e0e d7bd 6497 d93d 8b2b c9bd
00000150: e10b e13b ae40 30bd 9c84 4d3d 4fb8 a23d
00000160: a2e4 093e 2e77 79bd 34d7 1ebe 3fd3 0e3e
00000170: eab2 c8bd 1be9 2b3e ec40 e83d 479d 3dbb
00000180: 2c25 203e 0166 9fbc 4ca9 383d 2590 15be
00000190: 519b 7f3d d9b2 273e e0ed 873e 633a 7e3e
000001a0: d188 d8bd 0d2c 72bd 74db 2dbe 9766 cc3c
000001b0: 1f72 4f3d af0f cd3d 3c52 df3d c2db cb3d
000001c0: eb8f 8abd 3695 15be b760 6ebd 064b dbbd
000001d0: eb89 153e 9798 94bd 0822 bb3c 6627 3d3e
000001e0: 9f5f 133d c297 9bbc ccee 05bd 02d7 603e
000001f0: d7ed 59bd b235 993d 7710 8ebd 7293 7c3d
00000200: 4965 1a3d 31f8 893d 6ec4 083d 1b0f 6dbd
00000210: 7fd2 3cbe 7a8d 50be 445e 1cbe 1e75 bfbd
00000220: 9139 323b 71ee e8bd 2dcb 003e 9209 e2bd
00000230: 1aef 053e 9b78 68bb c8b6 0e3e 5176 a63d
00000240: 277e 36bd 1a9b 913c ab25 24bd ab17 e0bd
00000250: 273a 613c 25f4 733d 3b25 9f3d 95f9 c6bc
00000260: 8862 a33c e76c 31be f6bb 25be 627f a4bb
00000270: 80d1 b7bd afa9 f0bc bb2c 43bd 360e 083c
00000280: 6c33 d73d da77 babd a007 0b3c 3626 09bb
00000290: 638d 1bbe b82b 973d cd14 2fbe 3e91 31bd
000002a0: e7d0 80bd cc37 1ebe 9104 25bd 5d66 1c3e
000002b0: d7a9 3ebd 32fd 86ba 9083 d63c f4cd c13d
000002c0: b0b8 213d 5d8c 2bbe 830b 19be bd2f 31be
000002d0: 7551 dfbd 1202 183e 2cd4 b1bd 47c9 d23d
000002e0: 893e 8f3d 3b80 07be 66ab 413d 635f e83d
000002f0: d7aa 06be 4f93 a5bd 61c3 893d ed0a 8dbb
00000300: 2404 253d 71ee fe3d d158 7ebd 7824 dcbc
00000310: 084f 96bd f12f ea3c ecc1 35bd f27f eabd
00000320: 34fd 1dbd 1c55 18be bde1 f6bc c988 06be
00000330: a96b c6bd 64eb 9b3c cb43 233d c79e 0c3d
00000340: 8ea1 fabd fc72 093e c615 e9bd 2171 97bd
00000350: 9d97 303e 678a e53c 9c57 45be a912 8e3d
00000360: 32d4 51bc 09fc 033e 0fd5 28bd 4756 eabc
00000370: ce11 3bbd 61e4 313d 519d 00be ed50 cabd
00000380: 1a83 bcbd f084 043e 820e 4e3b eb6f ce3d
00000390: 0000 dabd 927d c7bd e8fc 93be c4b8 c6bd
000003a0: 2885 853a 25db 9bbd 6650 09be 6a14 14be
000003b0: 8067 ccba 272f fb3d 175d 1d3e b7ca a4bd
000003c0: 9f6d 09be 231a 90bc 0dee 22bd bc06 7f3e
000003d0: 4a85 bcbd 6d9e 76bd d3db 523e 6d8f 063e
000003e0: 31e1 c9bc f07e 93bd 7c14 2bbd ff5f eabd
000003f0: 7560 1dbd c237 b43d e423 d03d 6a86 f13d
0.20474032 0.020687563 0.1588537 -0.19105168 0.051200174 0.103431016 0.09687158 0.23608306
-0.0120950835 -0.00498638 -0.004847374 0.25908417 0.0022926165 0.024232186 -0.118763864 -0.21391948
-0.006943572 -0.012455054 -0.17375116 0.067028634 0.006799152 -0.0906794 0.02383559 0.027329022
-0.069298215 0.0028769276 -0.20087095 0.014383677 0.0034239748 0.1880243 -0.137477 0.05399123
0.05101817 0.23033515 -0.04027626 0.18098381 -0.1265704 0.07719939 0.022323772 0.17841531
0.121363774 0.102583945 0.118020214 0.07774313 -0.037076525 -0.0031784533 -0.15426025 0.0974946
0.13391432 0.12345658 0.036073558 0.029028837 0.13379632 -0.106311716 -0.083375774 -0.04061395
-0.09176356 -0.12931326 -0.049783193 0.1414716 -0.04264258 0.01830483 -0.29448867 0.25200385
0.019073533 -0.057544854 0.03526569 -0.025157295 -0.05956834 0.11569906 0.12641785 0.066609666
-0.07047233 -0.07536109 0.012536655 -0.12081795 0.17875019 0.06099875 0.12181272 -0.044037748
0.13062721 -0.10500823 0.106245786 -0.09822758 0.006867871 -0.043030433 0.050175294 0.0794531
0.13466123 -0.060904674 -0.15511781 0.13947771 -0.0979975 0.16788141 0.11340508 -0.0028932856
0.1563918 -0.019457819 0.04508333 -0.14605768 0.06240398 0.16376819 0.26548672 0.2482696
-0.10572971 -0.05912404 -0.16978246 0.024951262 0.050645944 0.10012757 0.10904357 0.09954025
-0.067657314 -0.146077 -0.058197703 -0.10707669 0.14603393 -0.07255667 0.022843376 0.1847206
0.035979863 -0.018993262 -0.032698438 0.21957019 -0.053205337 0.07480945 -0.06936734 0.061664052
0.03769425 0.06736792 0.033390455 -0.057875734 -0.18439673 -0.20366469 -0.15270334 -0.0934851
0.0027194957 -0.11373604 0.12577505 -0.11036982 0.13079491 -0.0035472277 0.13936913 0.08128036
-0.044553902 0.017774154 -0.040074985 -0.10942014 0.013746775 0.059559006 0.07770773 -0.024288932
0.019944444 -0.17326699 -0.16184983 -0.005020068 -0.08975506 -0.029377786 -0.04765008 0.008304169
0.10507855 -0.09104891 0.008485705 -0.0020927317 -0.15190654 0.073813856 -0.17097779 -0.043351404
-0.06289845 -0.15450972 -0.040287558 0.15273423 -0.04654869 -0.0010298847 0.02618578 0.094631106
0.039482772 -0.16752763 -0.14945798 -0.17303367 -0.109042086 0.1484454 -0.08683047 0.10292297
0.069943495 -0.1323251 0.0472826 0.113463186 -0.13151108 -0.080847375 0.06726719 -0.004304281
0.040287152 0.12447823 -0.06209642 -0.026872858 -0.07339293 0.028587313 -0.04437439 -0.11450185
-0.03857155 -0.14876217 -0.030136937 -0.13138117 -0.09688503 0.019033141 0.039859574 0.03433111
-0.12237845 0.1342277 -0.11381106 -0.073946245 0.17245336 0.028020097 -0.19271702 0.06937153
-0.012806939 0.12889113 -0.041218814 -0.028605593 -0.045671277 0.04343069 -0.12560011 -0.098787166
-0.09204693 0.12941337 0.0031441753 0.100799404 -0.10644531 -0.097407475 -0.2890389 -0.0970321
0.0010186778 -0.07610158 -0.13409576 -0.14460912 -0.001559481 0.12264853 0.15367542 -0.08046477
-0.13420723 -0.017590588 -0.039777804 0.24904913 -0.0920511 -0.06020968 0.20591669 0.1314065
-0.024643512 -0.07201946 -0.041767582 -0.11444091 -0.038422067 0.087996975 0.101630956 0.117932156

network_body._body_endoder.seq_layers.2.bias f4 [128]
00000000: 2636 c73d 232e 4bbd bc63 c0bd 8301 533d
00000010: dfcc b23d f5d4 2bbd 3274 6cbd 6a45 b63d
00000020: 87c2 883d 1d83 203d 1340 0a3e 2567 d5bd
00000030: 9862 0d3d ce01 df3c b07f 72bd 2282 c13d
00000040: f3cb 90bd 4b12 42bd eb9f 04be 7944 eebd
00000050: 4f28 d53d 9770 8e3d 1e94 c5bd 7368 ffbc
00000060: 38b6 0b3e 9c32 8fbd 88d7 febc 004d 053e
00000070: 4738 b73c cca1 093d 218f aa3c 60c6 f63d
00000080: 33e3 643c cb61 dabd e279 2ebc 1701 c5bc
00000090: 6da0 e33d f3b0 90bd c318 17bd d172 0ebe
000000a0: ad02 f63d e419 003e 6fc4 81bd fb99 b2bd
000000b0: e08b 533d 0e65 d83d ff20 e93c 8b38 f23d
000000c0: 00ee 85bd 06b4 1b3d 8fde adbd e443 9b3d
000000d0: ac79 5abd 3bf8 03be 0d36 babd 6eb9 01be
000000e0: 6f3c 8c3d ff82 4a3d a4a8 aa3d 7e2b fc3c
000000f0: 5217 fc3d d5c5 d83c 146e a73d a2ca b7bd
00000100: d7cb 58bd ed14 f2bc d88f 90bd 71ea d7bd
00000110: 0168 9cbd c962 943c 013f c93d 215f 7d3d
00000120: 25f8 973c 4af1 883d 9525 04bd 49c1 a8bd
00000130: 9a0c 68bd eb79 b4bd 3770 db3d 9759 54bd
00000140: 525a b2bd 7692 933d df6c 27bd dc0f 3fbd
00000150: 57e6 a5bd 16b2 073d 43b2 6cbd 8216 9bbd
00000160: 5fc0 30bd 754a ca3d 9d7f 69bc 5603 a53c
00000170: f156 adbd 4e64 8f3d f915 bd3d 999b bd3d
00000180: d85d e23b 7f80 1b3d 01ed c53c af8c d53d
00000190: 8d33 80bd fe18 55bd ae3f cbbd 8a86 e33d
000001a0: a681 f9bd d274 f63d 8c9c 76bb 6e1e 3c3d
000001b0: d007 e93d a644 0b3e 805d e2bd 8162 323d
000001c0: 97b8 363d 00e2 163d 92d6 f63d 91d3 98bc
000001d0: 8be5 743d 5af5 003e 2030 c8bd 410d bebd
000001e0: b4f3 04be 942c 93bd 9957 c43d a852 113d
000001f0: b80c bebd 309a c9bd db86 c1bd 690e acbd
0.09727125 -0.049604546 -0.09394023 0.051515114 0.08730482 -0.04195114 -0.057728 0.088999584
0.06677728 0.03918754 0.13501005 -0.10420064 0.034517854 0.02722254 -0.059203804 0.09448649
-0.0707015 -0.047380727 -0.12951629 -0.11634154 0.10408079 0.069550686 -0.09647392 -0.031177735
0.1364373 -0.06992075 -0.031108633 0.13017654 0.022365702 0.033601567 0.020820202 0.12049556
0.013970184 -0.10663184 -0.010649176 -0.024048371 0.11114583 -0.070650004 -0.03688885 -0.13910986
0.12012229 0.12509876 -0.06336295 -0.08720776 0.051647067 0.1056615 0.028458117 0.11827191
-0.065395355 0.03801348 -0.08489715 0.075813085 -0.05333869 -0.12887661 -0.090923406 -0.12668392
0.06847464 0.049441334 0.08332947 0.030782457 0.123091355 0.026461521 0.081752926 -0.08974196
-0.05292877 -0.029550994 -0.07058686 -0.10542763 -0.07637025 0.01811351 0.0982647 0.0618583
0.018550942 0.06686647 -0.032262404 -0.08239991 -0.056652643 -0.088123165 0.10714763 -0.051843252
-0.087086335 0.072056696 -0.040875312 -0.046645984 -0.081005745 0.03312882 -0.05778719 -0.075726524
-0.04315221 0.09877483 -0.014251617 0.020143192 -0.084638484 0.070015535 0.092327066 0.092581935
0.0069081597 0.03796434 0.024160864 0.10427224 -0.062598325 -0.052025788 -0.09924255 0.11109646
-0.121829316 0.120340005 -0.003762993 0.045927458 0.11378443 0.13600406 -0.1105299 0.043550972
0.044609632 0.036836624 0.12052645 -0.01865557 0.05978922 0.12593594 -0.09774804 -0.09279872
-0.1298359 -0.07186237 0.095870204 0.035479218 -0.0927977 -0.09843862 -0.0944955 -0.08401186

action_model._continuous_distribution.log_sigma f4 [1, 2]
00000000: c8a9 33be 97ab 973c
-0.17545235 0.018514438

action_model._continuous_distribution.mu.weight f4 [2, 128]
00000000: 5cf1 3a3d e560 9d3d 0ac3 913a 70b2 4d3d
00000010: 7cd9 053b 0750 2c3c 474f c73d b251 1b3b
00000020: 75a9 afbc d12e 3abc 4b46 23bd 5d18 0d3b
00000030: c69a 3cbd 731a c13d d244 273e b926 0d3d
00000040: cf50 ce3b 8c33 e7bc 7f31 0a3c 366b 253c
00000050: b6ec a43b 64b5 f23c 271e 903c f901 2fbc
00000060: 046c a8bd ced3 90bd 3612 003e 6c17 c7bc
00000070: 8436 263d 1eaa 893d e4b4 853b db8c a0bc
00000080: 6eaa 7f3c a054 6f3b b7ef 9e3d 9237 f93d
00000090: a4ac 2c3d 1b2e 533d f615 ab3d 0ae2 ca3c
000000a0: 5213 ecbc 968d 76bc 3150 ba3d 974d d3bc
000000b0: 1c1c 6c3b 81c8 09bb 39bd 293d f567 38bd
000000c0: dc4c ffbc 6b4b d03d d8d8 dcbc adee 473c
000000d0: 72d2 d73b 3691 223c 5508 243c 526c 2c3c
000000e0: a841 853d d6c0 8e3d 7e8e 413d 310c 493d
000000f0: 2021 333c 524e 4fbd 073a 23bd ecb5 58bd
00000100: af47 1b3b 2e9a cfbd 8d4f dc3c 605c 633c
00000110: 0a44 89bd c4f1 dcbc 76c8 383d 8907 983d
00000120: 9636 d53d 70a1 f33c 0129 293d 3916 8d3b
00000130: 3347 9bbd d4dc 58bb 4a11 d23c f2de e23d
00000140: ad11 303c d681 3f3b 2750 353d 36c9 883b
00000150: dad0 333b 92d2 563d de8f 14bb fab0 19bc
00000160: b1a1 9f3d 6697 a7bc e038 fcbd 8269 3ebd
00000170: 2f96 8dbb bae9 903d 77bf 5b3d 44fc 65bc
00000180: 1cf4 2ebd 8a82 8b3d 64ba 08bc c19b 693d
00000190: 7a19 1abc edf9 8dbc f225 20bc 4831 02bd
000001a0: e6c6 35bd da42 70bc afa0 e23d a8a5 423c
000001b0: 2722 4a3d ec7d 0cbd a116 4a3d 9090 1d3d
000001c0: 83c2 8e3b 5605 a23b af96 3abc bf92 fe3d
000001d0: 88e0 4b3d 71d7 25bd 6008 a63d 465b c53c
000001e0: 6676 f1bb 7167 c23c 6e5f ccbb 2da0 8cbe
000001f0: 1827 5d3c 3efe 603d 26d9 003d 548e 2dbd
00000200: f911 493d 3448 bebd 32ef 1cbe 5518 bc3c
00000210: ea4a 8a3d 3b8e 14be 12f8 a4bd 2312 af3d
00000220: ef66 3b3d df1a 413d 0277 df3d 42d1 0ebe
00000230: d8a2 963b bfb4 303d 6bc6 4b3b f3f2 013d
00000240: 1de8 8dbd a483 1abe 94ee bfbd 5d25 adbd
00000250: c56d 943d 8657 643d c992 2cbe 77ce bf3c
00000260: 6c4d aa3d c5f4 89bc ecf3 8dbd 630c ad3d
00000270: 8061 c83c d0dc 583c 1ec2 c4b8 e138 bd3d
00000280: 28df 65bb f4a8 ebbd 43a8 24bd 172f d3bd
00000290: 0290 9c3d 0f4e 1fbe 0220 1d3d 1519 b9bd
000002a0: d938 923d a296 b53d 4b03 aebc 51f2 efbd
000002b0: 2edd 463d bb43 e93d fff0 b03c 7ed6 803d
000002c0: 8465 43be 700f 5e3c efbf f4bd 77c7 953d
000002d0: 473c 40be 4971 18be d39c d6bd 7dd0 0dbe
000002e0: aab1 173d 5f47 d53c f6b3 fb3c 9b32 843c
000002f0: 83d5 8c3d a8fe 263d 62ce a53d 3c89 04be
00000300: a424 9ebd 7a07 7dbb 83a7 d2bd 584a 9dbd
00000310: 0e67 a7bd 2909 203d 1ac8 323d 7c60 683d
00000320: b6a3 b43c 67d5 003d a9f6 22be 12e1 22be
00000330: cd0a 3dbb 3733 f0bd d321 8e3d b483 883b
00000340: b807 93bd 076c 803d c1b4 7a3c 5346 f7bc
00000350: 6172 07be e362 d53c 69d9 3dbe 94c7 11be
00000360: a2f9 99bd 50bd 733d f671 683b ecac 6b3c
00000370: dddb 16be 1f63 133c f01f 9a3d 490f a33d
00000380: ca0f 83bd e59a b93c 8c8e 023d 6b26 003d
00000390: 6acb 9a3c 69a3 3dbe b1d4 93bd f30b 8d3d
000003a0: 12a0 ffbd ca3c ac3d e284 39be e287 ac3d
000003b0: 24f4 2e3d b103 bd3d 168d 46be d81d 883c
000003c0: 61c8 a1bb 2748 233d 983a ab3d 4dbd 1cbd
000003d0: 75a1 6e3d cdc7 ad3d 95cd 28bd fbf4 17be
000003e0: 1fbf d2bd c5a4 2cbe 0873 893d b2a8 0bbd
000003f0: a933 03be c13c 8dbd 73e7 28bd 1dfd 93bc
0.045640334 0.07684497 0.0011120748 0.050219 0.002042382 0.010517127 0.09731918 0.0023699817
-0.021443108 -0.011363701 -0.03986196 0.0021529414 -0.04604604 0.09428873 0.16334847 0.034460757
0.006296254 -0.028222822 0.008434652 0.010096362 0.005033101 0.02962751 0.017592503 -0.010681623
-0.08223727 -0.070716485 0.12506947 -0.02430316 0.040579334 0.067219004 0.0040804017 -0.019598415
0.015604598 0.0036518946 0.07760566 0.12168802 0.04215683 0.05155764 0.08353798 0.024765987
-0.028817806 -0.015048405 0.090973265 -0.025793834 0.0036027497 -0.002102405 0.041440222 -0.045021016
-0.03116458 0.10170635 -0.026958868 0.012202901 0.0065863663 0.009922316 0.010011752 0.010523872
0.065066636 0.06970374 0.04725503 0.049083892 0.010933191 -0.0506118 -0.03985026 -0.05290787
0.002369385 -0.10136829 0.026893402 0.013877004 -0.067024305 -0.026970752 0.04511305 0.07423312
0.10410802 0.029740065 0.04129887 0.0043056277 -0.075819395 -0.0033090608 0.02564301 0.1107768
0.010746402 0.0029221675 0.044265892 0.004174377 0.0027437718 0.05244691 -0.002266876 -0.009380573
0.07794512 -0.020457935 -0.123155355 -0.04648734 -0.004320882 0.0707583 0.053649392 -0.014037196
-0.04271327 0.06812008 -0.00834522 0.057033304 -0.009405488 -0.017331088 -0.009774672 -0.03178528
-0.044379137 -0.014664376 0.11065804 0.011880316 0.049348976 -0.034299776 0.049337987 0.038467944
0.0043566837 0.0049444837 -0.011388465 0.12430333 0.049774677 -0.040488664 0.08107066 0.024091374
-0.0073688505 0.023730965 -0.006236962 -0.27465954 0.01349809 0.054929964 0.03145709 -0.042372063
0.049089406 -0.092911154 -0.15325621 0.022960821 0.0675257 -0.14507382 -0.08055128 0.08548381
0.045752462 0.047144767 0.10911371 -0.13947013 0.004597049 0.043141123 0.0031093608 0.031725835
-0.06929038 -0.1508928 -0.09371677 -0.08454392 0.072474994 0.05574753 -0.16852869 0.02341388
0.08315548 -0.016840348 -0.0693129 0.08449628 0.024460554 0.01323624 -9.3821654e-05 0.092393644
-0.0035075638 -0.115068346 -0.04019953 -0.10311716 0.07644655 -0.1555712 0.038360603 -0.09037987
0.07139749 0.088666216 -0.021241805 -0.1171614 0.048550777 0.11389872 0.02159929 0.06290911
-0.19081694 0.013553485 -0.11950671 0.073134355 -0.18772994 -0.14886965 -0.104791306 -0.13849063
0.037034668 0.026035009 0.03072546 0.016137412 0.06876662 0.040770203 0.08096005 -0.12942976
-0.077218324 -0.0038609193 -0.102858566 -0.076801956 -0.08173953 0.039071236 0.043647863 0.05673264
0.02205072 0.031453516 -0.15914406 -0.1590617 -0.002884555 -0.117285185 0.06940045 0.004166091
-0.071792066 0.062706046 0.015301884 -0.0301849 -0.13227226 0.02604813 -0.18539967 -0.1423629
-0.07518317 0.059506714 0.0035468317 0.0143844895 -0.14732309 0.0089958 0.07525623 0.079619
-0.06399496 0.022656867 0.031874225 0.03128664 0.018895824 -0.18519367 -0.07218302 0.06887045
-0.12481703 0.08410032 -0.18117097 0.08424355 0.0427133 0.0922922 -0.19389758 0.016615793
-0.004937217 0.03986373 0.08360785 -0.03826647 0.058259446 0.084853746 -0.041211683 -0.14839546
-0.1029036 -0.1685973 0.067113936 -0.034096427 -0.12812676 -0.068963535 -0.041236352 -0.01806503

action_model._continuous_distribution.mu.bias f4 [2]
00000000: e4aa adbb 1481 1d3e
-0.0052999128 0.1538127

onnx::Div_51 f4 [90]
00000000: 6857 753e 1076 753e d907 733e 66f9 6e3e
00000010: 3cf8 723e b6b1 7d3e 0010 853e e4d7 8a3e
00000020: e96f 903e cb1f 963e e8e8 9b3e 1ac4 a13e
00000030: ef68 a73e 6e43 ac3e 1d10 b03e 39da b23e
00000040: b286 b43e be06 b53e 0955 b43e 1292 b23e
00000050: 39e5 af3e 824a ac3e 5dee a73e 49f5 a23e
00000060: a6bf 9d3e 0012 993e 4d25 953e aa95 913e
00000070: 92df 8d3e 28de 893e c698 853e b7d2 803e
00000080: 44d8 763e 8a0b 673e 1d41 4e3e f3c1 393e
00000090: f050 223e f9fb 063e a8ff dc3d b08a 953d
000000a0: e3c7 db3c a577 ea3a ad27 d23a 6181 da3a
000000b0: 3714 e23a 96ad e53a ac56 733e 5d07 6e3e
000000c0: 6b80 693e 1f65 6a3e 2df5 713e 7a7f 7e3e
000000d0: 1cc5 853e 51f6 8b3e eefe 913e 39cd 973e
000000e0: d1f3 9c3e 4aa2 a13e 70f4 a53e 0b17 aa3e
000000f0: 3fe5 ad3e 6c67 b13e a508 b43e a2b6 b53e
00000100: d348 b63e 3dc8 b53e 3b22 b43e bc89 b13e
00000110: 2f01 ae3e e691 a93e 695a a43e 47f6 9e3e
00000120: 841f 9a3e aac7 953e b0a2 913e 3f5e 8d3e
00000130: 933b 883e 16a7 813e 10ef 743e 3de1 623e
00000140: fda9 4b3e d5b0 303e 7496 113e 5931 e43d
00000150: 4671 953d 368a dd3c db03 023b 61be ef3a
00000160: baaf ef3a 86a4 e73a
0.23959124 0.23970819 0.23733462 0.23337325 0.23727506 0.24774823 0.2598877 0.27117836
0.2821038 0.2932113 0.3045113 0.31594926 0.32697245 0.33645195 0.34387293 0.34932116
0.35259014 0.35356706 0.35221127 0.34877068 0.3435457 0.33650595 0.32799044 0.31827763
0.3081028 0.29896545 0.2913002 0.28434497 0.27709633 0.26927304 0.2609312 0.25160763
0.24105936 0.22562996 0.20142026 0.18140392 0.15851188 0.13182057 0.1079095 0.07301843
0.026828712 0.001788844 0.0016033553 0.0016670638 0.0017248456 0.0017523046 0.23763531 0.23244996
0.22802894 0.22890137 0.23628683 0.24853316 0.26126945 0.27336362 0.28514808 0.2964876
0.30654767 0.3156913 0.32413054 0.33220705 0.33963963 0.34649217 0.35162845 0.354909
0.35602435 0.35504332 0.35182366 0.34675395 0.33985278 0.33119124 0.32100227 0.3104727
0.3010217 0.29253894 0.28444433 0.27610967 0.26607952 0.2532279 0.2391932 0.22156234
0.19889064 0.17254956 0.1421755 0.11142225 0.07296996 0.027043443 0.0019838724 0.001829099
0.0018286624 0.0017672933
