results/90RC2/Park90RC/Park90RC-6999826.onnx (onnx, 119662 bytes, 9 tensors)

network_body.observation_encoder.processors.0.normalizer.running_mean f4 [90]
0.5594298 0.55735296 0.5479358 0.5303398 0.51098216 0.4958822 0.48883846 0.48983976
0.49574804 0.50644356 0.5216431 0.5411675 0.5640754 0.5888754 0.6148134 0.64198804
0.6692862 0.69696283 0.72373116 0.74900514 0.77305275 0.79574746 0.81676686 0.8362616
0.8531418 0.86681294 0.8777192 0.8868223 0.8947959 0.9021433 0.9088728 0.915568
0.92264473 0.9327486 0.946219 0.9560443 0.96650517 0.976836 0.98444545 0.99342394
0.9992904 0.9999703 0.99997354 0.99997795 0.99997634 0.9999767 0.55604017 0.5460902
0.53237885 0.5187521 0.5042529 0.4920291 0.48717391 0.48824346 0.49502534 0.50624293
0.5206163 0.5375743 0.5572444 0.5795095 0.60414326 0.6308924 0.6581047 0.68573666
0.7131707 0.74004596 0.7657018 0.790187 0.811977 0.83210325 0.84944576 0.8636887
0.8750213 0.8845348 0.8925717 0.90011704 0.9082646 0.9177281 0.9274337 0.93852955
0.95163155 0.9653253 0.9778038 0.9869402 0.994996 0.99928004 0.9999731 0.99997526
0.99997526 0.99997663
00000000: cb36 0f3f afae 0e3f 8545 0c3f 59c4 073f
00000010: bacf 023f 46e4 fd3e 0949 fa3e 47cc fa3e
00000020: b0d2 fd3e 49a6 013f 678a 053f f489 0a3f
00000030: 3f67 103f 8ac0 163f 6964 1d3f 5459 243f
00000040: 5756 2b3f 286c 323f 7246 393f cdbe 3f3f
00000050: c9e6 453f 1bb6 4b3f a217 513f 3d15 563f
00000060: 8067 5a3f 74e7 5d3f 35b2 603f c906 633f
00000070: 5811 653f ddf2 663f e3ab 683f aa62 6a3f
00000080: 7232 6c3f 9dc8 6e3f 693b 723f 52bf 743f
00000090: e26c 773f ed11 7a3f 9e04 7c3f 0851 7e3f
000000a0: 7fd1 7f3f 0efe 7f3f 44fe 7f3f 8efe 7f3f
000000b0: 73fe 7f3f 79fe 7f3f a658 0e3f 91cc 0b3f
000000c0: fb49 083f f0cc 043f b816 013f 3deb fb3e
000000d0: dc6e f93e 0cfb f93e f673 fd3e 2399 013f
000000e0: 1c47 053f 789e 093f 92a7 0e3f bc5a 143f
000000f0: 22a9 1a3f 2a82 213f 8d79 283f 708c 2f3f
00000100: 5b92 363f a773 3d3f 0805 443f b249 4a3f
00000110: badd 4f3f b804 553f 4775 593f b41a 5d3f
00000120: 6501 603f df70 623f 947f 643f 126e 663f
00000130: 0784 683f 3bf0 6a3f 4c6c 6d3f 7943 703f
00000140: 209e 733f 8f1f 773f 5a51 7a3f 1da8 7c3f
00000150: 0fb8 7e3f d1d0 7f3f 3dfe 7f3f 61fe 7f3f
00000160: 61fe 7f3f 78fe 7f3f

network_body._body_endoder.seq_layers.0.weight f4 [128, 90]
0.14404476 0.07119841 -0.055826347 0.049633294 0.07774971 -0.05223519 -0.1402254 0.20200093
0.112526335 0.116161846 0.09796905 -0.1353934 0.21572393 0.2532584 0.30739284 0.10758399
0.09865439 0.2189104 0.17415905 0.3167936 0.09776133 0.059060983 0.2635853 0.06480684
0.16978274 0.16420557 0.074426524 0.21566375 0.103568755 0.20595239 0.02181522 -0.083023794
0.040360726 0.31395042 0.04095378 -0.025023134 0.19971143 0.11411835 0.027985115 0.1212208
0.2109717 0.030255843 -0.011577266 0.16004935 0.011924005 0.08613604 0.080929756 0.0065699643
-0.15274215 0.035928573 -0.05705063 0.07211899 0.06364615 -0.0072198426 0.06096215 -0.10718068
-0.11717107 0.016227154 -0.026458198 -0.23306432 -0.061174516 -0.041289836 -0.13477461 -0.18308055
-0.115118295 -0.24078886 -0.1443339 -0.09360572 -0.01539136 -0.007324042 -0.04740517 0.15862983
-0.29851696 -0.17865022 0.072662696 0.044978537 0.11927858 0.046292134 0.08080454 0.16878426
-0.09205388 0.12618612 -0.024437945 0.1207354 0.14521605 -0.15230452 0.0788256 0.0868963
0.36648884 0.19133237 -0.06462348 -0.07150338 -0.01518829 0.15166907 -0.12576209 0.17055005
0.19954978 0.1936449 0.14195521 0.23618378 0.11201142 0.15640067 0.123523675 0.053050514
-0.020740641 -0.2047032 -0.028464979 0.019757677 0.1907398 -0.15238246 0.11043349 0.08156666
0.0037989512 0.016534967 0.034492653 0.036900204 0.09975867 0.13480437 0.051523346 0.054739673
0.06283321 -0.03585417 -0.17181781 0.14435022 0.13783209 -0.041312102 0.08123698 0.03424648
-0.052487347 0.07902974 -0.20033765 -0.047266852 0.12037479 0.10224388 -0.031149387 -0.08933016
-0.02802547 0.14308797 -0.1770983 0.07365028 -0.16140215 -0.027570918 0.08827868 -0.032604676
0.044079054 -0.020702412 -0.18395732 0.0114325 -0.05129215 -0.02154352 0.044983216 0.09426127
-0.07645424 0.17938103 -0.035130437 -0.13331218 -0.25674435 -0.04599994 0.06349604 -0.0754602
-0.00935514 0.08102335 -0.06980819 0.029173275 0.10126417 0.08217514 -0.067878865 -0.06360224
0.09378383 0.0011124428 -0.0519564 -0.05969598 -0.054014053 -0.052213825 0.15707381 -0.19125688
-0.11757851 -0.13227351 -0.09884314 0.0951284 -0.098590046 -0.21818356 -0.22912736 -0.06404506
0.0072040916 0.19433995 -0.05181006 0.10744865 0.22217865 0.07098947 0.05586893 -0.03159238
-0.00039934425 -0.21496952 0.031694077 -0.035448674 -0.12867671 -0.14411141 -0.28818363 -0.02622944
-0.25676528 0.051010977 0.014235235 0.10008384 -0.09754787 -0.067299604 0.07075128 0.10124852
0.052780077 0.010028533 -0.044762693 -0.15850627 -0.14828669 -0.1636986 -0.34371287 0.09574699
0.13757576 0.14746785 -0.124437295 0.02421174 -0.09358562 0.024075763 0.15145533 -0.12325951
0.07790542 -0.06647219 -0.020298915 -0.13200831 -0.07928014 0.1004957 0.1276539 -0.011624036
0.0772899 -0.021643827 0.17077206 -0.038222298 0.2968553 0.1426664 0.26509464 0.18335368
0.09007065 0.22978072 0.037648283 0.09218537 -0.008237507 0.08918796 0.007207026 0.116836995
0.14265403 0.23457766 0.045639142 -0.07966557 -0.053741124 -0.21921144 -0.05314116 0.0008130456
00000000: 7880 133e 79d0 913d 2baa 64bd 484c 4b3d
00000010: 3d3b 9f3d 91f4 55bd 3f97 0fbe 55d9 4e3e
00000020: 3574 e63d 43e6 ed3d ffa3 c83d 91a4 0abe
00000030: bce6 5c3e 16ab 813e 9862 9d3e ff54 dc3d
00000040: 500b ca3d 0c2a 603e c056 323e c532 a23e
00000050: 1837 c83d eee9 713d a7f4 863e 73b9 843d
00000060: 87db 2d3e 8125 283e ef6c 983d f5d6 5c3e
00000070: db1b d43d 2fe5 523e d5b5 b23c 6108 aabd
00000080: 4a51 253d 1cbe a03e 27bf 273d 51fd ccbc
00000090: 2781 4c3e e2b6 e93d 0a41 e53c 9c42 f83d
000000a0: f708 583e 1adb f73c 93ae 3dbc fae3 233e
000000b0: e75c 433c 1868 b03d 80be a53d db48 d73b
000000c0: 7068 1cbe d729 133d ecad 69bd 1fb3 933d
000000d0: ea58 823d 6e94 ecbb 73b3 793d 8b81 dbbd
000000e0: 63f7 efbd cfee 843c ddbe d8bc 6aa8 6ebe
000000f0: 2192 7abd 881f 29bd 5b02 0abe 7879 3bbe
00000100: 24c3 ebbd 5b91 76be 44cc 13be 5bb4 bfbd
00000110: 0b2c 7cbc 84fe efbb ec2b 42bd dc6f 223e
00000120: 37d7 98be 15f0 36be 2ed0 943d 6a3b 383d
00000130: 5448 f43d d29c 3d3d da7c a53d c8d5 2c3e
00000140: bf86 bcbd ef36 013e 1632 c8bc 1f44 f73d
00000150: 84b3 143e b7f5 1bbe 516f a13d b0f6 b13d
00000160: 6da4 bb3e a2ec 433e 5159 84bd 5d70 92bd
00000170: 4ed8 78bc 234f 1b3e c7c7 00be aca4 2e3e
00000180: c756 4c3e d94a 463e b55c 113e 29da 713e
00000190: 3e66 e53d 7f27 203e fbf9 fc3d 7f4b 593d
000001a0: 47e8 a9bc b79d 51be 632f e9bc dada a13c
000001b0: 4b51 433e 260a 1cbe f42a e23d 6c0c a73d
000001c0: d3f7 783b 5774 873c 2b48 0d3d ab24 173d
000001d0: 464e cc3d 280a 0a3e 250a 533d b536 603d
000001e0: b3ae 803d d2db 12bd 02f1 2fbe 8bd0 133e
000001f0: db23 0d3e e136 29bd 935f a63d 0946 0c3d
00000200: f9fc 56bd 58da a13d 5025 4dbe e39a 41bd
00000210: 0f87 f63d 3d65 d13d 002d ffbc bbf2 b6bd
00000220: ac95 e5bc a785 123e 4259 35be f5d5 963d
00000230: 9b46 25be 68dc e1bc 74cb b43d 7b8c 05bd
00000240: 3d8c 343d 1b98 a9bc 4f5f 3cbe 614f 3b3c
00000250: b817 52bd 097c b0bc 5240 383d 0d0c c13d
00000260: 0a94 9cbd a9af 373e efe4 0fbd fd82 08be
00000270: ff73 83be 6f6a 3cbd 360a 823d e18a 9abd
00000280: 4d46 19bc 92ef a53d 99f7 8ebd cbfc ee3c
00000290: 9763 cf3d 714b a83d 1304 8bbd e441 82bd
000002a0: bd11 c03d 63cf 913a 3cd0 54bd c683 74bd
000002b0: d73d 5dbd 2ade 55bd f5d7 203e d8d8 43be
000002c0: 00cd f0bd b572 07be 466e cabd aed2 c23d
000002d0: 94e9 c9bd 836b 5fbe 5da0 6abe 0e2a 83bd
000002e0: 4d10 ec3b 0d01 473e c936 54bd 0a0e dc3d
000002f0: cd82 633e ed62 913d d2d6 643d 0367 01bd
00000300: 145f d1b9 f820 5cbe a6d1 013d a132 11bd
00000310: d4c3 03be f191 13be ce8c 93be 1fdf d6bc
00000320: bd76 83be e3f0 503d e73a 693c c2f8 cc3d
00000330: 2dc7 c7bd 60d4 89bd 0ce6 903d 625b cf3d
00000340: ec2f 583d b74e 243c 1659 37bd 784f 22be
00000350: 77d8 17be 9ba0 27be 22fb afbe ff16 c43d
00000360: a9e0 0c3e d001 173e fbd8 febd b357 c63c
00000370: d1a9 bfbd 893a c53c 1b17 1b3e 7b6f fcbd
00000380: e08c 9f3d 9222 88bd e949 a6bc 302d 07be
00000390: a05d a2bd b1d0 cd3d b4b7 023e be72 3ebc
000003a0: 2b4a 9e3d 654e b1bc dfde 2e3e fc8e 1cbd
000003b0: 6bfd 973e 2417 123e 7cba 873e 11c1 3b3e
000003c0: f676 b83d a34b 6b3e 1635 1a3d afcb bc3d
000003d0: 9cf6 06bc 2da8 b63d ea28 ec3b 3c48 ef3d
000003e0: e613 123e 2035 703e 1cf0 3a3d b427 a3bd
000003f0: a71f 5cbd f778 60be 8caa 59bd 9122 553a

network_body._body_endoder.seq_layers.0.bias f4 [128]
0.08618911 0.011305356 0.00072941673 -0.06126427 0.09024961 0.07386481 0.03475899 0.08660607
0.037778206 0.0671846 -0.052371982 0.05307023 0.084940486 -0.061520446 -0.0090794265 -0.009389983
-0.009120538 0.07524479 0.11125316 0.0118027255 -0.021097094 0.056918167 0.009331976 0.1602544
0.12363557 0.20660974 0.07643272 -0.04637828 0.070976414 0.052437484 0.03344503 0.11127383
0.060898017 0.078603126 0.05301067 -0.006885594 0.008568667 0.006630164 0.023357103 0.09563778
0.095052786 0.08645185 -0.057133116 -0.06291944 0.088778146 0.12167562 0.084479004 0.09511092
0.033583667 -0.04524328 -0.024744632 0.03461203 0.10285237 0.053457465 0.06865853 0.055621266
0.031572893 0.039927136 0.056388304 0.0031881528 0.049808323 -0.01675511 -0.035364788 0.110583276
0.056032028 0.05745079 -0.054784674 0.09807837 0.06390424 0.02722341 0.027480407 -0.060887516
-0.11452481 0.16259316 0.0598208 0.036799755 0.12149444 0.050567534 0.05157701 0.0405485
0.11128549 0.08203188 0.08931901 -0.09411096 -0.06835077 0.030592121 0.025217371 -0.07581773
-0.0050832178 -0.06016883 0.18072605 0.023547871 0.0057015577 0.07417012 0.025697885 0.038294174
0.063882604 0.14757426 0.027761249 0.02573343 0.02745867 0.062065646 -0.03928222 0.052128576
0.022256212 -0.0041503846 0.009738438 -0.01181656 0.076656505 0.05282657 0.07387594 0.050309185
0.08202975 0.0007434013 0.03635084 0.025156792 -0.025569348 0.16206223 -0.011223214 0.08432991
0.07474517 -0.0011045588 0.012732607 0.18519899 0.03546693 -0.098413296 0.0957613 0.09305824
00000000: eb83 b03d 1a3a 393c 5436 3f3a 3ef0 7abd
00000010: cad4 b83d 6f46 973d 715f 0e3d 865e b13d
00000020: 52bd 1a3d 1498 893d 0184 56bd 2b60 593d
00000030: 47f5 ad3d ddfc 7bbd e0c1 14bc 71d8 19bc
00000040: 4f6e 15bc f119 9a3d b2d8 e33d 3860 413c
00000050: d0d3 acbc 0623 693d 25e5 183c bb19 243e
00000060: a534 fd3d 8191 533e c288 9c3d 27f7 3dbd
00000070: 155c 913d b0c8 563d a8fd 083d 89e3 e33d
00000080: 3370 793d adfa a03d b721 593d 8da0 e1bb
00000090: 9863 0c3c d941 d93b 6557 bf3c bedd c33d
000000a0: 09ab c23d ab0d b13d 6a04 6abd e8db 80bd
000000b0: 51d1 b53d 1131 f93d 5403 ad3d 84c9 c23d
000000c0: 078f 093d 0451 39bd 41b5 cabc 58c5 0d3d
000000d0: 43a4 d23d 37f6 5a3d d89c 8c3d 20d3 633d
000000e0: 9452 013d a38a 233d 6cf7 663d 54f0 503b
000000f0: d003 4c3d 0342 89bc abda 10bd 7c79 e23d
00000100: d781 653d 8551 6b3d e565 60bd 50dd c83d
00000110: 3ae0 823d a103 df3c 971e e13c 3065 79bd
00000120: fc8b eabd d27e 263e a806 753d 57bb 163d
00000130: 14d2 f83d e71f 4f3d 6a42 533d 2f16 263d
00000140: a6e9 e33d 5500 a83d e3ec b63d 3fbd c0bd
00000150: 7dfb 8bbd 549c fa3c a994 ce3c 5346 9bbd
00000160: 1f91 a6bb 9773 76bd 4010 393e 77e7 c03c
00000170: 22d4 ba3b 81e6 973d 5f84 d23c 5ada 1c3d
00000180: e2d4 823d b51d 173e 8f6b e33c eace d23c
00000190: 01f1 e03c 8c38 7e3d 65e6 20bd c684 553d
000001a0: a952 b63c f3ff 87bb f88d 1f3c 3f9a 41bc
000001b0: 16fe 9c3d ac60 583d 454c 973d 0111 4e3d
000001c0: 37ff a73d d1e0 423a 9ee4 143d 9e15 ce3c
000001d0: cf76 d1bc a4f3 253e 92e1 37bc 29b5 ac3d
000001e0: ff13 993d d8c6 90ba 6d9c 503c cea4 3d3e
000001f0: c645 113d e98c c9bd 801e c43d 5295 be3d

network_body._body_endoder.seq_layers.2.weight f4 [128, 128]
0.19385228 0.025681071 0.17080638 -0.19630313 0.044246793 0.06936235 0.098741174 0.24443144
-0.002736751 -0.008708411 -0.02386682 0.26081952 0.03942428 0.010896664 -0.12189812 -0.23542003
-0.02317553 -0.028364938 -0.16611831 0.068378106 0.0016625151 -0.09705138 0.019222412 0.036959462
-0.055225432 0.0099389525 -0.21657076 0.018179229 -0.010023378 0.17504 -0.14957918 0.055618085
0.05182167 0.23151399 -0.065783724 0.14615452 -0.0816806 0.08731215 0.022917133 0.197471
0.12596089 0.10360836 0.12840089 0.11768496 -0.043073952 -0.014087333 -0.15743583 0.08477221
0.11613879 0.12587245 0.045268837 0.029131118 0.13909315 -0.1159215 -0.09095464 -0.023439385
-0.09498006 -0.13826455 -0.04395742 0.13246739 -0.050594103 0.0073009804 -0.28816733 0.22853483
0.033226505 -0.04427687 0.0017216953 -0.013269037 -0.057078946 0.11621016 0.08613508 0.04803374
-0.04450655 -0.0800188 -0.012970063 -0.11013943 0.18238229 0.027641468 0.13400148 -0.05388142
0.12743962 -0.17371967 0.13096958 -0.100368865 0.025481379 -0.15378584 0.069389254 0.08180879
0.14797631 -0.123509996 -0.15660486 0.16279957 -0.09523348 0.17969902 0.1030778 -0.021163302
0.15631524 -0.009303139 0.06383645 -0.15319982 0.09371898 0.17167051 0.28187588 0.23961414
-0.12449923 -0.039135672 -0.14926282 0.030102031 0.048699327 0.10742532 0.08527782 0.09101381
-0.056298736 -0.15122823 0.00065620046 -0.09098725 0.18376578 -0.07210677 0.04614454 0.18624501
0.032022342 -0.032391947 -0.078194715 0.23734169 -0.048529167 0.060118582 -0.05917231 0.08606328
0.021547407 0.03573223 0.0045555956 -0.03864921 -0.17856461 -0.20231895 -0.2158501 -0.10759769
-0.023775633 -0.11669476 0.16584867 -0.12699354 0.10280235 -0.037600286 0.11385874 0.08199034
-0.07503033 -0.0075519746 -0.070079796 -0.09211931 -0.010592403 0.037410744 0.07880191 -0.027416315
0.01840626 -0.17959702 -0.16767605 -0.034246806 -0.126464 -0.041103035 -0.075384244 -0.006601102
0.091150135 -0.09952894 0.005186646 0.034607593 -0.16975062 0.061543632 -0.21036875 -0.06339285
-0.071367204 -0.17242736 -0.021121014 0.17729785 -0.011428514 0.014836916 0.024710657 0.0909091
0.033200454 -0.20617071 -0.1288099 -0.18707201 -0.1190345 0.13602701 -0.08931374 0.08153631
0.07446688 -0.14159164 0.06051428 0.09398782 -0.1444508 -0.06315668 0.047781173 -0.0038216764
0.03471116 0.11708769 -0.024143416 0.005963156 -0.09382636 0.010051532 -0.036473587 -0.07667673
-0.022788307 -0.09979058 -0.034117408 -0.15153372 -0.08047811 -0.003577883 0.01804833 0.045948815
-0.12882593 0.13457413 -0.12624584 -0.052234583 0.1596534 0.078832895 -0.16542728 0.04199377
-0.007971802 0.1346064 -0.06100415 -0.045420717 -0.07126901 0.022458563 -0.085597165 -0.10363643
-0.06937443 0.14695658 0.042794656 0.10503535 -0.11876844 -0.08222916 -0.2884813 -0.108695455
0.008217443 -0.092771076 -0.13706164 -0.1246123 -0.017550994 0.101742625 0.15679608 -0.065195456
-0.1780496 -0.039617117 -0.023163905 0.22574921 -0.10562964 -0.056035127 0.1906806 0.11294068
-0.04126949 -0.09706761 -0.0226955 -0.09237162 -0.0397637 0.09718418 0.080435835 0.09893828
00000000: 3681 463e 1c61 d23c dee7 2e3e b003 49be
00000010: 203c 353d d90d 8e3d d038 ca3d 3c4c 7a3e
00000020: 105b 33bb b9ad 0ebc 5984 c3bc 238a 853e
00000030: 5b7b 213d ec87 323c b9a5 f9bd f311 71be
00000040: 9cda bdbc 965d e8bc eb1a 2abe d209 8c3d
00000050: c0e8 d93a e0c2 c6bd 5278 9d3c ce62 173d
00000060: 1034 62bd fdd6 223c bac4 5dbe 9bec 943c
00000070: 1839 24bc b03d 333e 492b 19be cacf 633d
00000080: f642 543d 0112 6d3e 9eb9 86bd 88a9 153e
00000090: 2948 a7bd b6d0 b23d b6bc bb3c d635 4a3e
000000a0: e4fb 003e 9f30 d43d 867b 033e d004 f13d
000000b0: 506e 30bd 8fce 66bc dc36 21be 0d9d ad3d
000000c0: 2dda ed3d b5e4 003e d16b 393d 62a4 ee3c
000000d0: 6f6e 0e3e 4068 edbd 6d46 babd f403 c0bc
000000e0: e884 c2bd 3995 0dbe b20c 34bd 88a5 073e
000000f0: c33b 4fbd 103d ef3b ab8a 93be 0905 6a3e
00000100: 8418 083d aa5b 35bd 82aa e13a 6066 59bc
00000110: 9dcb 69bd 98ff ed3d 9767 b03d 07bf 443d
00000120: 804c 36bd e6e0 a3bd 6380 54bc c890 e1bd
00000130: 6cc2 3a3e 5c70 e23c af37 093e c4b2 5cbd
00000140: 887f 023e 92e3 31be e41c 063e 318e cdbd
00000150: 53be d03c 097a 1dbe f41b 8e3d 5e8b a73d
00000160: 1a87 173e cff2 fcbd 065d 20be eeb4 263e
00000170: c509 c3bd 0503 383e 741a d33d a95e adbc
00000180: 1a11 203e 316c 18bc afbc 823d 6ae0 1cbe
00000190: bdef bf3d 65ca 2f3e 0952 903e 695d 753e
000001a0: 74f9 febd ba4c 20bd 5ad8 18be 8998 f63c
000001b0: f278 473d ce01 dc3d 23a6 ae3d 7365 ba3d
000001c0: 8199 66bd 93db 1abe de04 2c3a 8657 babd
000001d0: 192d 3c3e b7ac 93bd 0f02 3d3d 03b7 3e3e
000001e0: dc29 033d 6bad 04bd 8d24 a0bd b309 733e
000001f0: 85c6 46bd e73e 763d aa5e 72bd f241 b03d
00000200: 3084 b03c f55b 123d 1b47 953b a24e 1ebd
00000210: a4d9 36be b32c 4fbe cf07 5dbe 2d5c dcbd
00000220: 1ec5 c2bc aafd eebd 3cd4 293e 980a 02be
00000230: 0a8a d23d c202 1abd c52e e93d 8dea a73d
00000240: 80a9 99bd 8e76 f7bb ff85 8fbd 0ca9 bcbd
00000250: c28b 2dbc 023c 193d e562 a13d 2e98 e0bc
00000260: bac8 963c 48e8 37be 45b3 2bbe 6146 0cbd
00000270: c77f 01be a85b 28bd 0e63 9abd 0f4e d8bb
00000280: ecac ba3d d4d5 cbbd bdf4 a93b b1c0 0d3d
00000290: 1bd3 2dbe 2d15 7c3d e86a 57be 1cd4 81bd
000002a0: f828 92bd cc90 30be fa05 adbc 918d 353e
000002b0: a93e 3bbc 8916 733c 016e ca3c 8d2e ba3d
000002c0: 33fd 073d 6a1e 53be bee6 03be ce8f 3fbe
000002d0: 5cc8 f3bd aa4a 0b3e 1fea b6bd 82fc a63d
000002e0: 1782 983d 66fd 10be d2dd 773d b07c c03d
000002f0: e9ea 13be 4a58 81bd 31b6 433d 1775 7abb
00000300: 4a2d 0e3d accb ef3d 6ac8 c5bc 9466 c33b
00000310: 0928 c0bd 2eaf 243c 5465 15bd b008 9dbd
00000320: 8bae babc 015f ccbd b2be 0bbd a82b 1bbe
00000330: b5d1 a4bd ea7a 6abb 17da 933c d334 3c3d
00000340: f2ea 03be cdcd 093e 9746 01be eef3 55bd
00000350: 2e7c 233e 2473 a13d c565 29be a901 2c3d
00000360: 299c 02bc 43d6 093e 7ddf 79bd 130b 3abd
00000370: 7df5 91bd 05fb b73c 914d afbd 563f d4bd
00000380: 2e14 8ebd c97b 163e 7349 2f3d c61c d73d
00000390: de3c f3bd c367 a8bd d2b3 93be b99b debd
000003a0: 74a2 063c c3fe bdbd e359 0cbe bc34 ffbd
000003b0: 1ac7 8fbc 705e d03d 278f 203e 3285 85bd
000003c0: a252 36be 8f45 22bd 3bc2 bdbc cd2a 673e
000003d0: 5a54 d8bd 1785 65bd c641 433e 714d e73d
000003e0: 320a 29bd 62cb c6bd eaeb b9bc 552d bdbd
000003f0: 43df 22bd 8008 c73d 8bbb a43d 27a0 ca3d

network_body._body_endoder.seq_layers.2.bias f4 [128]
0.11118894 -0.06562942 -0.07348085 0.048417404 0.09906137 -0.03446279 -0.049937215 0.10637823
0.071947195 0.04659224 0.14782265 -0.099663384 0.014068884 0.03864596 -0.04796804 0.11108707
-0.07794818 -0.04363906 -0.13281573 -0.07472115 0.12063879 0.084818326 -0.09700422 -0.043540414
0.14266996 -0.081247784 -0.02566156 0.14217505 0.018701505 0.035471395 0.003740034 0.13327889
-0.002799441 -0.068667084 0.002357377 -0.026744153 0.13225085 -0.066118486 -0.064577036 -0.13810188
0.13507824 0.13943107 -0.05978837 -0.04088589 0.06503932 0.12028368 0.038097773 0.12535307
-0.018787822 0.050778393 -0.10173592 0.0899999 -0.026958227 -0.120442234 -0.08357535 -0.12218891
0.08179014 0.065305956 0.05086383 0.026343664 0.14137648 0.023990693 0.08498536 -0.07548205
-0.045290727 -0.047685143 -0.0642521 -0.09396793 -0.08285648 0.015498937 0.113696635 0.063752614
0.029709797 0.0765945 -0.054454308 -0.05251612 -0.040594626 -0.092332125 0.12594257 -0.02770354
-0.05224586 0.08910278 -0.035060946 -0.061670903 -0.05371307 0.051392518 -0.021909453 -0.07598723
-0.04738279 0.11453522 -0.015058439 0.017010262 -0.05533563 0.071135186 0.10442466 0.11010808
-0.008388626 0.04832352 0.029828167 0.111954965 -0.061066557 -0.009033746 -0.09201561 0.12311701
-0.08138123 0.13529617 -0.017411038 0.05852313 0.13050237 0.14612946 -0.09349021 0.054434206
0.036190454 0.043605153 0.13783827 -0.012074407 0.07498224 0.13875383 -0.103124544 -0.08194691
-0.10256111 -0.047959972 0.1103385 0.017607715 -0.086762294 -0.13052739 -0.10749902 -0.05958196
00000000: 07b7 e33d b868 86bd 217d 96bd 5451 463d
00000010: b0e0 ca3d db28 0dbd f78a 4cbd d4dc d93d
00000020: 0d59 933d 81d7 3e3d d25e 173e 511c ccbd
00000030: 2d81 663c 3a4b 1e3d 237a 44bd 9e81 e33d
00000040: 4ca3 9fbd dfbe 32bd d900 08be 6707 99bd
00000050: 7811 f73d 3bb5 ad3d 26aa c6bd 6f57 32bd
00000060: 1318 123e 3d65 a6bd 3138 d2bc 5696 113e
00000070: e633 993c 744a 113d 5c1b 753b 437a 083e
00000080: d476 37bb 54a1 8cbd 397e 1a3b 8e16 dbbc
00000090: c46c 073e 2169 87bd f740 84bd 946a 0dbe
000000a0: f351 0a3e 05c7 0e3e a6e4 74bd f777 27bd
000000b0: 5633 853d 4a57 f63d 690c 1c3d 8e5c 003e
000000c0: ebe8 99bc 01fd 4f3d ec5a d0bd de51 b83d
000000d0: 80d7 dcbc 6baa f6bd 8e29 abbd 2e3e fabd
000000e0: 9781 a73d 21bf 853d 9756 503d abce d73c
000000f0: ffc4 103e 2188 c43c ce0c ae3d 5596 9abd
00000100: c582 39bd 7f51 43bd 9b96 83bd 4272 c0bd
00000110: a8b0 a9bd 41ef 7d3c c8d9 e83d bb90 823d
00000120: f661 f33c 94dd 9c3d 7b0b 5fbd 251b 57bd
00000130: 8d46 26bd a018 bdbd 17f7 003e 89f2 e2bc
00000140: c1ff 55bd 857b b63d 119c 0fbd a19a 7cbd
00000150: 3c02 5cbd f680 523d 747b b3bc 319f 9bbd
00000160: 7514 42bd 7191 ea3d acb7 76bc 1b59 8b3c
00000170: 9da7 62bd 53af 913d 99dc d53d 5880 e13d
00000180: 7370 09bc e2ee 453d 335a f43c a548 e53d
00000190: ed20 7abd 4702 14bc ae72 bcbd c524 fc3d
000001a0: 34ab a6bd 148b 0a3e 98a1 8ebc f3b5 6f3d
000001b0: 6aa2 053e f6a2 153e cc77 bfbd 67f6 5e3d
000001c0: 713c 143d 519b 323d 7a25 0d3e bcd3 45bc
000001d0: 4a90 993d 7c15 0e3e f632 d3bd c8d3 a7bd
000001e0: 8f0b d2bd ad71 44bd 27f9 e13d 0e3e 903c
000001f0: 6eb0 b1bd f9a8 05be 7228 dcbd 370c 74bd

action_model._continuous_distribution.log_sigma f4 [1, 2]
-0.15686095 0.11657567
00000000: 28a0 20be 3abf ee3d

action_model._continuous_distribution.mu.weight f4 [2, 128]
0.049644105 0.051083423 -0.015009015 0.026968487 0.005653079 -0.017592194 0.09243461 0.005251561
-0.014031306 -0.010263391 -0.034869805 -0.0075541236 -0.04774153 0.08847653 0.13991435 0.03882048
0.011964578 -0.04069143 -0.00068729307 -0.0033094895 0.007564315 0.031967126 -0.0032665818 -0.0040297373
-0.07680192 -0.054861657 0.10943733 -0.019717602 0.015885692 0.03245713 0.007944183 -0.018966006
0.009451651 -0.012796119 0.1100192 0.1113759 0.04086743 0.04304231 0.027102627 0.041495148
-0.030036487 -0.014404405 0.07939418 -0.05365057 -6.295577e-05 0.0020733085 0.034789115 -0.04108637
-0.05400063 0.0887456 -0.02532876 0.016631851 0.010886631 0.041043043 -0.0059256284 -0.0034884193
0.05773161 0.059176672 0.03532795 0.014177017 0.01058088 -0.039638884 -0.030904073 -0.0879453
-0.02036489 -0.09072743 0.007985757 0.002896826 -0.1208185 -0.020332798 0.046008345 0.088859916
0.0826784 0.02337147 0.019542182 -0.022261761 -0.10652308 0.013800896 0.026658054 0.13080497
-0.0042224606 0.0011294811 0.015325595 0.0020643424 -0.008051031 0.049774155 -0.028039945 -0.012624026
0.053912997 -0.022166729 -0.12304378 -0.04171541 -0.0072667147 0.07890761 0.056664936 -0.013290052
-0.01563139 0.058492634 0.023141716 0.06182893 -0.016394764 -0.030183021 -0.021394862 -0.030757915
-0.0593639 -0.010888877 0.11099983 0.012687413 0.057367343 -0.02926007 0.06703412 0.034982324
0.0015471663 0.0062209503 -0.009422919 0.13295484 0.05142816 -0.036506165 0.053709906 0.0010235104
-0.026477419 0.014245339 -0.0066304887 -0.27891308 0.0007232256 0.03907085 0.02456791 -0.055858847
0.050299168 -0.11229586 -0.18766613 0.0029869203 0.072848946 -0.19349626 -0.09530537 0.09836502
0.043013237 0.048829548 0.116530284 -0.17369176 -0.0041628922 0.045774758 0.024350923 0.052127194
-0.07719631 -0.17730598 -0.09976312 -0.12191797 0.07407207 0.057293747 -0.18823399 -0.022270048
0.09195673 -0.0533021 -0.095127635 0.09160787 0.020273518 0.015578117 -0.007933189 0.099193
0.008927412 -0.15345873 -0.04449895 -0.107322104 0.08634397 -0.19083683 0.019987086 -0.09329393
0.074809805 0.0983923 0.016305557 -0.15372443 0.057726827 0.12148733 0.008881705 0.06988139
-0.23764943 0.03240217 -0.14191926 0.07791686 -0.23605438 -0.16508156 -0.14411801 -0.15720439
0.056471653 0.02377365 0.00825645 0.02251183 0.07999705 0.043602206 0.081294976 -0.13116571
-0.103968285 -0.019927885 -0.13513984 -0.09473907 -0.052798238 0.030319896 0.05894811 0.064214215
0.045932863 0.03842487 -0.18497746 -0.19256179 -0.028868696 -0.11277166 0.081196405 0.023329768
-0.10488921 0.0668793 0.054278757 -0.04964156 -0.17680915 0.038889103 -0.22004884 -0.1729316
-0.09640165 0.07170531 -0.0091879675 0.02640318 -0.18719596 0.026555471 0.086365536 0.08638078
-0.0554164 0.0372184 0.057830427 0.04538902 -0.0389192 -0.2267574 -0.115371116 0.07233905
-0.15766639 0.09462331 -0.18343955 0.09566702 0.046690013 0.0957159 -0.19379348 0.020503633
-0.037995122 0.04695388 0.09346422 -0.024660956 0.060497858 0.09234579 -0.041317534 -0.19435455
-0.12595296 -0.20198424 0.07741358 -0.029901141 -0.15628307 -0.07952071 -0.049627177 -0.055819012
00000000: 9e57 4b3d da3c 513d 5fe8 75bc 04ed dc3c
00000010: 773d b93b 811d 90bc 5b4e bd3d 4915 ac3b
00000020: 90e3 65bc c827 28bc a4d3 0ebd 9588 f7bb
00000030: 9f8c 43bd 2f33 b53d b545 0f3e 3902 1f3d
00000040: 1407 443c 0fac 26bd 752b 34ba 05e4 58bb
00000050: 13de f73b f6ef 023d 2614 56bb e30b 84bb
00000060: 534a 9dbd 9eb6 60bd ae20 e03d cf86 a1bc
00000070: b622 823c c4f1 043d 5228 023c 995e 9bbc
00000080: 19db 1a3c d0a6 51bc bf51 e13d 0c19 e43d
00000090: 9b64 273d 224d 303d 5406 de3c d1f6 293d
000000a0: 140f f6bc 7400 6cbc 6a99 a23d b3c0 5bbd
000000b0: 1f07 84b8 58e0 073b 087f 0e3d 2e4a 28bd
000000c0: c42f 5dbd 41c0 b53d 427e cfbc 853f 883c
000000d0: d75d 323c c01c 283d c62b c2bb f79d 64bb
000000e0: fb77 6c3d 3d63 723d 0ab4 103d b846 683c
000000f0: 6d5b 2d3c 625c 22bd 8a2a fdbc aa1c b4bd
00000100: 45d4 a6bc 4ecf b9bd b1d6 023c add8 3d3b
00000110: b16f f7bd f890 a6bc 3f73 3c3d 30fc b53d
00000120: 4b53 a93d 8675 bf3c ed16 a03c 4c5e b6bc
00000130: c628 dabd 271d 623c fe61 da3c bdf1 053e
00000140: 915c 8abb 190b 943a 3418 7b3c eb49 073b
00000150: 79e8 03bc fcdf 4b3d 07b4 e5bc 01d5 4ebc
00000160: e0d3 5c3d 0097 b5bc 61fe fbbd c7dd 2abd
00000170: 9f1d eebb 509a a13d 7e19 683d 85be 59bc
00000180: 670d 80bc f995 6f3d b293 bd3c 5540 7d3d
00000190: 504e 86bc 6242 f7bc 4744 afbc 06f8 fbbc
000001a0: 9027 73bd 4367 32bc e153 e33d dede 4f3c
000001b0: 05fa 6a3d d0b2 efbc 2f49 893d a049 0f3d
000001c0: 49ca ca3a 1dd9 cb3b 9662 1abc 5025 083e
000001d0: 56a6 523d 7d87 15bd ebfe 5b3d 4f27 863a
000001e0: 2ce7 d8bc 4865 693c 9244 d9bb b2cd 8ebe
000001f0: d996 3d3a c108 203d a442 c93c 3fcc 64bd
00000200: 8006 4e3d 5ffb e5bd 8d2b 40be 35c0 433b
00000210: d431 953d e223 46be 762f c3bd 9973 c93d
00000220: a62e 303d 7e01 483d 6ea7 ee3d 41dc 31be
00000230: df68 88bb 507e 3b3d 967b c73c 5383 553d
00000240: 1919 9ebd b38f 35be 9b50 ccbd 21b0 f9bd
00000250: 19b3 973d d9ac 6a3d 69c0 40be ad6f b6bc
00000260: cf53 bc3d 4e53 5abd 47d2 c2bd e89c bb3d
00000270: a614 a63c 5c3b 7f3c 35fa 01bc b325 cb3d
00000280: 4844 123c 4924 1dbe 8844 36bd b1cb dbbd
00000290: 1bd5 b03d bb6a 43be f5bb a33c e310 bfbd
000002a0: e235 993d e781 c93d 3b93 853c f069 1dbe
000002b0: f772 6c3d 59ce f83d 9284 113c f91d 8f3d
000002c0: 5f5a 73be 23b8 043d 4853 11be e092 9f3d
000002d0: 3db8 71be 240b 29be ac93 13be 30fa 20be
000002e0: d24e 673d f5c0 c23c 1046 073c bb6a b83c
000002f0: 7ed5 a33d 3a98 323d fb7d a63d 4e50 06be
00000300: 53ed d4bd ce3f a3bc 1962 0abe 8f06 c2bd
00000310: f742 58bd 6e61 f83c 9373 713d be82 833d
00000320: 1924 3c3d 6663 1d3d bb6a 3dbe eb2e 45be
00000330: 0b7e ecbc d4f4 e6bd 4d4a a63d 121e bf3c
00000340: 27d0 d6bd 04f8 883d 6753 5e3d f354 4bbd
00000350: 750d 35be 2e4a 1f3d 7c54 61be fb14 31be
00000360: 3a6e c5bd 3cda 923d 2189 16bc 7b4b d83c
00000370: 4cb0 3fbe dc8a d93c 6ae0 b03d 68e8 b03d
00000380: 4ffc 62bd 5272 183d 99df 6c3d d6e9 393d
00000390: bd69 1fbd 1833 68be b147 ecbd 7f26 943d
000003a0: 4c73 21be dec9 c13d 94d7 3bbe 12ed c33d
000003b0: 073e 3f3d b306 c43d cc71 46be 3cf7 a73c
000003c0: c6a0 1bbd b652 403d 2b6a bf3d c605 cabc
000003d0: 9acc 773d ca1f bd3d 933c 29bd e104 47be
000003e0: d0f9 00be f5d4 4ebe 038b 9e3d 3df3 f4bc
000003f0: ab08 20be c1db a2bd de45 4bbd 7aa2 64bd

action_model._continuous_distribution.mu.bias f4 [2]
0.002295366 0.17643566
00000000: da6d 163b 8dab 343e

onnx::Div_51 f4 [90]
0.23841196 0.23866813 0.23635365 0.23289444 0.23694517 0.24795175 0.26085 0.27277195
0.28417173 0.29571813 0.30736127 0.3190439 0.33015174 0.33958277 0.3469558 0.3524622
0.35587025 0.35709292 0.35618374 0.3532679 0.34855655 0.34201106 0.33389872 0.324571
0.3148666 0.30593488 0.2980519 0.29067874 0.28311145 0.27511853 0.26674643 0.25752258
0.2470076 0.23148759 0.20911923 0.18989547 0.16667636 0.1392818 0.11380561 0.073541924
0.022823183 0.0022940817 0.002113104 0.0021099779 0.0021228641 0.0020413294 0.23561285 0.22974959
0.22514454 0.22633491 0.2343706 0.24738535 0.26011333 0.27219588 0.28405786 0.29597718
0.307037 0.3171453 0.32614794 0.334395 0.34177968 0.34807894 0.35255763 0.35539347
0.35637602 0.3554889 0.35246766 0.34750593 0.34063423 0.33208072 0.32232568 0.31230247
0.3030315 0.29438812 0.28599665 0.27726042 0.26692674 0.25401804 0.2395966 0.22172695
0.19824834 0.16934955 0.13633001 0.10441106 0.06400991 0.022893652 0.002094781 0.0020661985
0.002071233 0.0020333377
00000000: 4422 743e 6b65 743e b106 723e e17b 6e3e
00000010: c1a1 723e 10e7 7d3e 228e 853e c4a8 8b3e
00000020: f57e 913e 5e68 973e 755e 9d3e b959 a33e
00000030: a609 a93e cbdd ad3e 31a4 b13e ed75 b43e
00000040: a034 b63e e2d4 b63e b75d b63e 88df b43e
00000050: 0176 b23e 131c af3e c6f4 aa3e 2c2e a63e
00000060: 3236 a13e 7fa3 9c3e 429a 983e d8d3 943e
00000070: fcf3 903e 56dc 8c3e fd92 883e 00da 833e
00000080: 8fef 7c3e 150b 6d3e 5a23 563e f573 423e
00000090: 35ad 2a3e e39f 0e3e ea12 e93d 269d 963d
000000a0: aff7 ba3c 4e58 163b 017c 0a3b 8e47 0a3b
000000b0: c01f 0b3b d3c7 053b 7f44 713e 7a43 6b3e
000000c0: 4a8c 663e 57c4 673e d9fe 6f3e 9652 7d3e
000000d0: 932d 853e 425d 8b3e 0870 913e 528a 973e
000000e0: f433 9d3e de60 a23e ddfc a63e d235 ab3e
000000f0: bffd ae3e 6737 b23e 6f82 b43e 22f6 b53e
00000100: eb76 b63e a402 b63e a476 b43e 4cec b13e
00000110: 9c67 ae3e 7c06 aa3e df07 a53e 1ce6 9f3e
00000120: f226 9b3e 0aba 963e 276e 923e 14f5 8d3e
00000130: 9faa 883e a70e 823e d058 753e 640c 633e
00000140: 9d01 4b3e f869 2d3e 189a 0b3e 77d5 d53d
00000150: a117 833d 788b bb3c 9848 093b 0f69 073b
00000160: 86bd 073b bf41 053b
