results/90RC2/Park90RC/Park90RC-2499895.pt (torch, 825364 bytes, 52 tensors)

network_body.observation_encoder.processors.0.normalizer.running_mean f4 [90]
00000000: 7280 063f 2626 063f 11b3 043f 1ae0 013f
00000010: 6934 003f d851 ff3e b5ff ff3e 2069 013f
00000020: afb5 033f a54f 073f e9db 0b3f e145 113f
00000030: e091 173f 50bc 1e3f d873 263f 12c7 2e3f
00000040: 5d14 373f 7f6f 3f3f d613 473f b9cb 4d3f
00000050: 09f9 533f be70 593f c146 5e3f 27b6 623f
00000060: 5596 663f 5b66 693f cb37 6b3f 0995 6c3f
00000070: 24d2 6d3f b111 6f3f 5d57 703f 78b9 713f
00000080: a827 733f 6b21 753f 0707 783f 0d00 7a3f
00000090: 0bb6 7b3f c10c 7d3f bc01 7e3f 8fcc 7e3f
000000a0: 5fc7 7f3f 67fe 7f3f 92fe 7f3f dbfe 7f3f
000000b0: befe 7f3f bcfe 7f3f f7c4 063f 7f70 063f
000000c0: d8ac 043f 1ae4 023f 7e8a 013f 4ba0 003f
000000d0: 568a 003f 966d 013f 0faa 033f 40c6 063f
000000e0: 8ca4 0a3f 19ef 0e3f 223b 143f a06c 1a3f
000000f0: 9963 213f 5b4f 293f f997 313f cc17 3a3f
00000100: e37c 423f 6778 4a3f 0f6e 513f 6a60 573f
00000110: 43f8 5b3f bcc2 5f3f 7083 633f daf0 663f
00000120: aa75 693f 9d53 6b3f 50c1 6c3f ab02 6e3f
00000130: 9283 6f3f 010b 713f 0994 723f 79a6 743f
00000140: 092b 773f 096b 793f a24e 7b3f db18 7d3f
00000150: c441 7e3f 31a5 7f3f 8afe 7f3f a9fe 7f3f
00000160: a4fe 7f3f bafe 7f3f
0.5253974 0.5240196 0.51835734 0.50732577 0.5007997 0.4986713 0.49999776 0.50551033
0.514491 0.528559 0.5463243 0.5674725 0.5920696 0.6200609 0.65020514 0.6827251
0.71515447 0.74779505 0.7776464 0.8038898 0.8280187 0.84937656 0.8682671 0.8855919
0.9007314 0.9117181 0.9188201 0.9241491 0.92898774 0.9338637 0.93883306 0.9442363
0.94982386 0.95754117 0.9688572 0.9765633 0.9832465 0.98847586 0.99221396 0.9953088
0.9991359 0.9999756 0.9999782 0.99998254 0.9999808 0.9999807 0.52644295 0.52515405
0.5182624 0.51129305 0.5060195 0.5024459 0.50211084 0.5055784 0.51431364 0.52646255
0.5415733 0.55833584 0.5790273 0.60322 0.630426 0.6613671 0.69372517 0.7269256
0.7597181 0.7908997 0.8180856 0.8413149 0.8592569 0.87406516 0.8887243 0.9021126
0.91195166 0.9192446 0.9248247 0.9297282 0.93560135 0.94157416 0.94757134 0.9556652
0.9655004 0.9742895 0.9816686 0.9886605 0.993191 0.9986144 0.9999777 0.99997956
0.99997926 0.99998057

network_body.observation_encoder.processors.0.normalizer.running_variance f4 [90]
00000000: 2d05 0c48 2821 0b48 1437 0848 e102 0648
00000010: 06d7 0d48 9f15 1a48 f4c9 2648 5d61 3248
00000020: cc46 3e48 e7bb 4a48 777f 5748 78bc 6348
00000030: 17a9 6f48 e41b 7b48 c560 8248 20c7 8548
00000040: c922 8748 782d 8648 ae1f 8348 4b2b 7d48
00000050: f9fc 7148 d19b 6448 5e55 5548 0db5 4348
00000060: 7ea2 3148 956c 2348 2be1 1948 d853 1248
00000070: 0257 0a48 08b4 0148 6d10 f147 4956 dc47
00000080: 104b c647 2dbc a847 019e 7c47 6a31 4047
00000090: d87a 0a47 2f9b be46 d442 7f46 460d 1746
000000a0: 5142 d644 0da4 5141 6e70 2241 0880 2341
000000b0: b450 3341 ef57 3741 433d 0d48 1607 0c48
000000c0: 4290 0748 4adb 0748 9163 0e48 821e 1948
000000d0: cac1 2648 67f2 3448 6835 4248 25b0 4e48
000000e0: a422 5a48 4bc8 6348 87f8 6c48 6132 7648
000000f0: 86f6 7e48 fca5 8348 5f33 8648 8af0 8648
00000100: 85a0 8548 ffad 8248 5bef 7c48 8021 7348
00000110: 9f0d 6848 8e37 5a48 c516 4848 711c 3548
00000120: 4c1c 2648 29a3 1a48 1bfe 1048 291d 0848
00000130: 7da5 fa47 0671 e447 a4b9 cd47 e06f af47
00000140: 6848 8a47 6c54 5047 5fd7 1447 7bc2 b746
00000150: 16fd 5946 bd28 2e45 158b 5041 0fc0 3e41
00000160: ae13 4441 9e3a 3a41
143380.7 142468.62 139484.31 137227.52 145244.1 157782.48 170791.81 182661.45
194843.19 207599.61 220669.86 233201.88 245412.36 257135.56 267014.16 273977.0
276758.28 274795.75 268541.44 259245.17 247795.89 234095.27 218453.47 200404.2
181897.97 167346.33 157572.67 149839.38 141660.03 132816.12 123424.85 112812.57
101526.125 86392.35 64670.004 49201.414 35450.844 24397.592 16336.707 9667.318
1714.0724 13.102551 10.152449 10.218758 11.207203 11.458968 144629.05 143388.34
138817.03 139117.16 145806.27 156794.03 170759.16 185289.61 198869.62 211648.58
223370.56 233249.17 242658.11 252105.52 261082.1 269615.88 274842.97 276356.3
273668.16 267631.97 259005.42 248966.0 237622.48 223454.22 204891.08 185457.77
170097.19 158348.64 148472.42 139380.64 128330.98 116962.05 105331.28 89823.75
70800.81 53332.42 38103.37 23521.24 13951.271 2786.5461 13.033956 11.921889
12.254805 11.639311

network_body.processors.0.normalizer.running_mean f4 [90]
00000000: 7280 063f 2626 063f 11b3 043f 1ae0 013f
00000010: 6934 003f d851 ff3e b5ff ff3e 2069 013f
00000020: afb5 033f a54f 073f e9db 0b3f e145 113f
00000030: e091 173f 50bc 1e3f d873 263f 12c7 2e3f
00000040: 5d14 373f 7f6f 3f3f d613 473f b9cb 4d3f
00000050: 09f9 533f be70 593f c146 5e3f 27b6 623f
00000060: 5596 663f 5b66 693f cb37 6b3f 0995 6c3f
00000070: 24d2 6d3f b111 6f3f 5d57 703f 78b9 713f
00000080: a827 733f 6b21 753f 0707 783f 0d00 7a3f
00000090: 0bb6 7b3f c10c 7d3f bc01 7e3f 8fcc 7e3f
000000a0: 5fc7 7f3f 67fe 7f3f 92fe 7f3f dbfe 7f3f
000000b0: befe 7f3f bcfe 7f3f f7c4 063f 7f70 063f
000000c0: d8ac 043f 1ae4 023f 7e8a 013f 4ba0 003f
000000d0: 568a 003f 966d 013f 0faa 033f 40c6 063f
000000e0: 8ca4 0a3f 19ef 0e3f 223b 143f a06c 1a3f
000000f0: 9963 213f 5b4f 293f f997 313f cc17 3a3f
00000100: e37c 423f 6778 4a3f 0f6e 513f 6a60 573f
00000110: 43f8 5b3f bcc2 5f3f 7083 633f daf0 663f
00000120: aa75 693f 9d53 6b3f 50c1 6c3f ab02 6e3f
00000130: 9283 6f3f 010b 713f 0994 723f 79a6 743f
00000140: 092b 773f 096b 793f a24e 7b3f db18 7d3f
00000150: c441 7e3f 31a5 7f3f 8afe 7f3f a9fe 7f3f
00000160: a4fe 7f3f bafe 7f3f
0.5253974 0.5240196 0.51835734 0.50732577 0.5007997 0.4986713 0.49999776 0.50551033
0.514491 0.528559 0.5463243 0.5674725 0.5920696 0.6200609 0.65020514 0.6827251
0.71515447 0.74779505 0.7776464 0.8038898 0.8280187 0.84937656 0.8682671 0.8855919
0.9007314 0.9117181 0.9188201 0.9241491 0.92898774 0.9338637 0.93883306 0.9442363
0.94982386 0.95754117 0.9688572 0.9765633 0.9832465 0.98847586 0.99221396 0.9953088
0.9991359 0.9999756 0.9999782 0.99998254 0.9999808 0.9999807 0.52644295 0.52515405
0.5182624 0.51129305 0.5060195 0.5024459 0.50211084 0.5055784 0.51431364 0.52646255
0.5415733 0.55833584 0.5790273 0.60322 0.630426 0.6613671 0.69372517 0.7269256
0.7597181 0.7908997 0.8180856 0.8413149 0.8592569 0.87406516 0.8887243 0.9021126
0.91195166 0.9192446 0.9248247 0.9297282 0.93560135 0.94157416 0.94757134 0.9556652
0.9655004 0.9742895 0.9816686 0.9886605 0.993191 0.9986144 0.9999777 0.99997956
0.99997926 0.99998057

network_body.processors.0.normalizer.running_variance f4 [90]
00000000: 2d05 0c48 2821 0b48 1437 0848 e102 0648
00000010: 06d7 0d48 9f15 1a48 f4c9 2648 5d61 3248
00000020: cc46 3e48 e7bb 4a48 777f 5748 78bc 6348
00000030: 17a9 6f48 e41b 7b48 c560 8248 20c7 8548
00000040: c922 8748 782d 8648 ae1f 8348 4b2b 7d48
00000050: f9fc 7148 d19b 6448 5e55 5548 0db5 4348
00000060: 7ea2 3148 956c 2348 2be1 1948 d853 1248
00000070: 0257 0a48 08b4 0148 6d10 f147 4956 dc47
00000080: 104b c647 2dbc a847 019e 7c47 6a31 4047
00000090: d87a 0a47 2f9b be46 d442 7f46 460d 1746
000000a0: 5142 d644 0da4 5141 6e70 2241 0880 2341
000000b0: b450 3341 ef57 3741 433d 0d48 1607 0c48
000000c0: 4290 0748 4adb 0748 9163 0e48 821e 1948
000000d0: cac1 2648 67f2 3448 6835 4248 25b0 4e48
000000e0: a422 5a48 4bc8 6348 87f8 6c48 6132 7648
000000f0: 86f6 7e48 fca5 8348 5f33 8648 8af0 8648
00000100: 85a0 8548 ffad 8248 5bef 7c48 8021 7348
00000110: 9f0d 6848 8e37 5a48 c516 4848 711c 3548
00000120: 4c1c 2648 29a3 1a48 1bfe 1048 291d 0848
00000130: 7da5 fa47 0671 e447 a4b9 cd47 e06f af47
00000140: 6848 8a47 6c54 5047 5fd7 1447 7bc2 b746
00000150: 16fd 5946 bd28 2e45 158b 5041 0fc0 3e41
00000160: ae13 4441 9e3a 3a41
143380.7 142468.62 139484.31 137227.52 145244.1 157782.48 170791.81 182661.45
194843.19 207599.61 220669.86 233201.88 245412.36 257135.56 267014.16 273977.0
276758.28 274795.75 268541.44 259245.17 247795.89 234095.27 218453.47 200404.2
181897.97 167346.33 157572.67 149839.38 141660.03 132816.12 123424.85 112812.57
101526.125 86392.35 64670.004 49201.414 35450.844 24397.592 16336.707 9667.318
1714.0724 13.102551 10.152449 10.218758 11.207203 11.458968 144629.05 143388.34
138817.03 139117.16 145806.27 156794.03 170759.16 185289.61 198869.62 211648.58
223370.56 233249.17 242658.11 252105.52 261082.1 269615.88 274842.97 276356.3
273668.16 267631.97 259005.42 248966.0 237622.48 223454.22 204891.08 185457.77
170097.19 158348.64 148472.42 139380.64 128330.98 116962.05 105331.28 89823.75
70800.81 53332.42 38103.37 23521.24 13951.271 2786.5461 13.033956 11.921889
12.254805 11.639311

network_body._body_endoder.seq_layers.0.weight f4 [128, 90]
00000000: ec74 023e 92aa 203d c48b c1bd 9d73 ca3c
00000010: 6bd7 683d e8a7 7abd 66d5 1ebe 651a 343e
00000020: 7e91 b83d 1efb ad3d 23a0 693d 91d0 2fbe
00000030: eb4e 483e fa59 7c3e 0840 993e 2708 c53d
00000040: ac93 a93d 876b 4a3e d53f 1f3e 9cd0 8d3e
00000050: c7fe 9b3d a532 753d da58 843e 4610 393d
00000060: bebd 073e ca19 f63d f5de 393d 375d 463e
00000070: 32c7 c63d 87d2 4a3e 060d 623c 2842 bebd
00000080: 6718 093d e7df 9c3e 68d9 ef3c f406 1bbd
00000090: ba86 403e d9af d13d bd47 933c d2ad e23d
000000a0: 9631 4f3e 0402 cb3c 0ca5 a1bc 8cc4 1b3e
000000b0: c825 753b c821 9b3d 0baa 9d3d 040f 013d
000000c0: a247 02be 6323 a63c 62f4 8fbd 4a90 123d
000000d0: 83e5 fb3c 7a83 cfbc 4304 7f3d cb87 ebbd
000000e0: 1e46 ffbd 3a44 b03c 8f13 8fbc 3983 55be
000000f0: 6223 3ebd e72a 43bd 845c 0dbe 2fb3 1dbe
00000100: c928 b8bd b2c2 5dbe 07c6 21be 9957 e7bd
00000110: 6390 7fbd c944 31bd 9450 96bd f489 1c3e
00000120: 2998 9abe 564f 49be 75dc 873d df68 153d
00000130: 22e4 df3d 11ec 7f3c 2d29 0c3d e8bf 173e
00000140: 50b9 e7bd ad61 db3d f4a7 46bd 6a0e d03d
00000150: 4956 053e 5311 2bbe 5403 8f3d 7bc4 773d
00000160: e2d6 b33e 7dad 393e 3747 94bd 01d7 9dbd
00000170: 99a5 14bd 0d79 103e c458 08be 8661 343e
00000180: 8bf5 4c3e b717 2d3e 4222 043e 5b68 6a3e
00000190: f101 e73d 1aef 3c3e 38fb 1b3e 9f00 aa3d
000001a0: 1c1b a23c 6800 2dbe 5028 d43b 5bfd 473d
000001b0: e87b 573e 478e 1abe c8b8 f23d 01ff de3d
000001c0: 79d4 8a3c 3ea2 933c 3b63 b53c c5bf e63c
000001d0: 2370 e93d a2c2 123e 43a3 c03d 8c61 af3d
000001e0: 2d47 b43d 5a2c debc 67bf 2cbe 82a3 0b3e
000001f0: a5d0 fc3d a81d 59bd 7ea7 8d3d dbe0 183c
00000200: f480 b8bd 3b33 893d f900 5abe 208b 74bd
00000210: 1cf5 f03d 83e1 e43d 338f bcbc 678e 8ebd
00000220: 08ed 39bd 3292 163e 2ef8 1ebe b96e 8e3d
00000230: 4ca5 14be 43c0 fabc d1b3 8b3d e170 33bd
00000240: 5bfd 063d 2b81 1ebd 5a5c 50be 6395 f83a
00000250: bca3 62bd 3e64 a2bb 4c93 893d 4a3e df3d
00000260: af3c 90bd 1073 3e3e df91 21bd 559c 1bbe
00000270: 5389 97be c023 8abd 73f1 db3c ee39 e2bd
00000280: da25 22bd 441d 583d f0e1 c3bd 7664 44bc
00000290: ff00 953d 2459 643d 191c babd 81cc a5bd
000002a0: 6b20 893d c984 8dbc 199e 68bd 2294 4ebd
000002b0: fbd3 18bd b1dd f3bb 8f07 3e3e 3ed6 08be
000002c0: dd16 68bd 421b bdbd ee32 72bd 1ce7 d53d
000002d0: cf4d c5bd da40 57be 8627 5cbe 9776 74bd
000002e0: fe39 2dbc 8bb2 323e 0d12 94bd 8588 f33d
000002f0: 171d 4f3e 59fd 453d f4eb 5b3d 79ed f0bc
00000300: 1a1a 873b 0553 56be b1c4 fb3c dc96 1bbd
00000310: ecbb 00be 9095 ddbd c21a 74be 9f60 1e3d
00000320: 1a9c 72be dfa4 263d 4e85 ba3c 65c5 0c3e
00000330: 55ff 2fbd b5ae 2dbd cf2c 4c3d 1a93 5b3d
00000340: 770c 47bc 8cd8 0bbd 7881 88bd 293b 1dbe
00000350: b05f 01be 4b35 09be dd2a 9ebe 470d 093e
00000360: 074b 253e 4b03 1a3e b23f 01be e12b 66bb
00000370: bede 06be 8a49 2c3c 2423 1b3e 13a5 00be
00000380: 18ad 973d 6bc0 c5bd b6c5 87bc b405 24be
00000390: c6eb 01be fc37 873d a6c3 bf3d 8c01 cdbc
000003a0: 92aa 843d b5cc c5bc c0c6 293e 943a 33bd
000003b0: 2c13 983e 3121 043e a1af 6e3e 5477 0c3e
000003c0: 5d84 503d 7112 4a3e 694e 803c b6d7 973d
000003d0: b022 03bd 1dae 933d 40bc 76bb ee0a e23d
000003e0: 72c5 0f3e 98ca 753e 0519 6a3d 919b 91bd
000003f0: 71af 52bd 97d3 58be 003d 35bd fc97 433c
0.12739915 0.03922517 -0.09450486 0.024713332 0.056846064 -0.061195284 -0.15511093 0.17588194
0.090121254 0.084951624 0.057037484 -0.17169406 0.19561355 0.24643698 0.29931664 0.096206956
0.08280119 0.19767581 0.15551694 0.2769822 0.07616954 0.05986275 0.25849038 0.045181535
0.13255975 0.120166376 0.045378644 0.19371496 0.09705962 0.19806872 0.01379705 -0.09289962
0.033470538 0.30639574 0.029278472 -0.037848428 0.18801394 0.102386184 0.017978543 0.1106831
0.2023376 0.024781235 -0.01973202 0.15211695 0.0037406553 0.07574803 0.07698449 0.03150846
-0.12722638 0.020280546 -0.07029034 0.035782136 0.030749088 -0.025331248 0.062259924 -0.1150051
-0.12464546 0.021516908 -0.017465381 -0.20850839 -0.046420462 -0.047648337 -0.13804823 -0.15400384
-0.08992154 -0.21656302 -0.15798198 -0.11296005 -0.062393557 -0.04327849 -0.07339588 0.15287
-0.30194214 -0.1965917 0.06633846 0.036476966 0.10932185 0.015620247 0.034218956 0.148193
-0.113146424 0.107119896 -0.048500016 0.10158999 0.13021196 -0.16705827 0.06983057 0.060490113
0.3512488 0.18132587 -0.07240146 -0.07707024 -0.03629074 0.14108677 -0.13315111 0.17615327
0.20015542 0.16903578 0.12903693 0.22891371 0.11279667 0.18450585 0.15232551 0.083009
0.019788317 -0.16894686 0.006474532 0.048825603 0.2104336 -0.15093337 0.118516505 0.10888482
0.016947018 0.018021699 0.022142043 0.028167615 0.113983415 0.14332059 0.0940614 0.085635275
0.08802638 -0.027120758 -0.16869889 0.13636592 0.12344483 -0.053006798 0.06916712 0.0093309535
-0.09008971 0.066992246 -0.21289434 -0.059702992 0.11765501 0.111758254 -0.023017501 -0.06960755
-0.045392066 0.14704207 -0.1552436 0.069547124 -0.14516181 -0.030609256 0.06821407 -0.04380882
0.032956462 -0.038697403 -0.2034773 0.0018965419 -0.05533193 -0.0049557975 0.06717548 0.109005526
-0.070428245 0.1859858 -0.039445754 -0.15196355 -0.29596958 -0.067451 0.02684853 -0.110462055
-0.03958688 0.052762285 -0.095645785 -0.011986842 0.072755806 0.055749074 -0.090873905 -0.08095647
0.06695636 -0.017275231 -0.0567914 -0.05043424 -0.037311535 -0.007442199 0.18557571 -0.13362977
-0.05666243 -0.09233715 -0.0591306 0.10444471 -0.096339814 -0.21020833 -0.21499452 -0.05968341
-0.010572908 0.17450921 -0.072300054 0.118912734 0.2022594 0.048337314 0.05369182 -0.02941011
0.0041229846 -0.20930107 0.030733438 -0.037985668 -0.12571687 -0.108195424 -0.23838332 0.038666364
-0.2369236 0.040684577 0.022768643 0.13747175 -0.042968113 -0.04240294 0.04984742 0.053607084
-0.012148968 -0.034142062 -0.06665319 -0.15354599 -0.12634158 -0.13399236 -0.30892077 0.13383971
0.16141902 0.15040319 -0.12621954 -0.0035121369 -0.13170907 0.01051558 0.15150124 -0.12562971
0.07406062 -0.096558414 -0.016573768 -0.160178 -0.12687597 0.06602475 0.09363489 -0.025025152
0.06477846 -0.024145463 0.16579723 -0.043757036 0.29702127 0.12903287 0.23309185 0.13717395
0.05090748 0.19733597 0.015662389 0.074141905 -0.032015502 0.07210944 -0.0037648827 0.11037241
0.14040163 0.24003065 0.057152767 -0.0710975 -0.051436845 -0.21174465 -0.044247627 0.011938091

network_body._body_endoder.seq_layers.0.bias f4 [128]
00000000: 3b30 983d 8bde c93c fa02 6dbb 6fad 03be
00000010: b975 953d 5f81 cf3c 1204 453d efba 9f3d
00000020: 155c 413d e896 e43d 12ae 2abd 85a9 903d
00000030: b95d ae3d 817c 39bd 1c04 a8bc a7b7 dbbb
00000040: ef6e 8a3c f2f6 9f3d c7c5 cf3d 0e79 0f3d
00000050: 613b 15bb 5620 173d cac3 3a3d 7dbe 0c3e
00000060: 6c9a f63d d763 453d ed78 5abd 91d6 43bc
00000070: 62ad bc3d 2af9 853d 7ab3 5f3d ff35 bb3d
00000080: eb13 4f3d 7598 bb3d 2135 4e3d 4b0f 6f3b
00000090: daed 2d3c 6fdc 093d 294e ce3c 4d11 be3d
000000a0: 6e11 c23d bddf b83d 98e8 d2bd 8522 61bd
000000b0: 9412 6d3d b017 503d cea4 aebc c6fb d33d
000000c0: bcf2 703d f9fa c8bc 16ff ae3c d924 073d
000000d0: 2f93 e13d cc0f 5f3d 393e a53d d250 0b3d
000000e0: 30e8 6b3d 6abd 923d 39d8 883d 0f59 733c
000000f0: 3a82 303d 9702 fabc d1cf 4cb9 a6e5 a73d
00000100: 8ccc 873d 4e7d 853d a430 ebbc a6d9 ae3d
00000110: 1112 633d f29b 043d 007c 803d 68fd 9fbd
00000120: 65aa c0bd 4e5b e73d d81b 5d3d 913b 223d
00000130: 8558 c43d 7ed9 383d cae8 833d 05a2 563d
00000140: bc14 d03d 0322 57bd 9a00 7a3d d27c b4bd
00000150: 3988 92bd 99dc 47bd 5328 f63c 3f14 4abd
00000160: 69db da3c be1c 63bd 6825 083e e248 f53a
00000170: 2200 a03c 5434 943d 0753 9a3d 9bf7 563d
00000180: 2abf 953d ca99 ee3d 223d 9a3d 2dd2 62bc
00000190: 0bbe 203d 13d4 933d b588 02bd 5736 8e3d
000001a0: 2833 60bd ca84 50bc 4f7b 9f3c 3d96 db3a
000001b0: 0bbb 963d c135 423d 4da3 7c3d d743 6b3d
000001c0: 6f1f 993d 6573 8fba d3eb 363d cece 4f3d
000001d0: c391 033d f2db ff3c b792 96bb c7b0 9c3d
000001e0: a434 943d 7fce a73c 3a17 b23c 5c66 f53d
000001f0: 0e4f b63d e5c5 60bd a5bc 763d 5841 9d3d
0.07431074 0.02464225 -0.0036165104 -0.12859128 0.072978444 0.025330244 0.048099585 0.07799327
0.047206957 0.111615956 -0.041669913 0.07063583 0.0851397 -0.04528475 -0.020509772 -0.0067052427
0.0168986 0.07810773 0.10145145 0.035027556 -0.0022770988 0.036896072 0.045596875 0.1374454
0.120411724 0.048190918 -0.05333798 -0.011953012 0.09212758 0.06541665 0.05461452 0.09141158
0.050556105 0.09159938 0.050343636 0.0036477621 0.01061579 0.033657487 0.025183754 0.092806436
0.09475981 0.0902705 -0.1029827 -0.05496456 0.057879046 0.05080384 -0.02131882 0.10350756
0.05882524 -0.024533736 0.021361869 0.032994125 0.11014401 0.054458424 0.08068509 0.034012623
0.057594478 0.07165034 0.06681866 0.014852776 0.043092944 -0.030518813 -0.00019532374 0.08198099
0.06630811 0.065180406 -0.028709717 0.08537607 0.05543715 0.032375284 0.06273651 -0.07812005
-0.094075 0.11296712 0.053981632 0.03960759 0.09587196 0.04512929 0.06440885 0.052400608
0.10160205 -0.05252267 0.06103573 -0.0881287 -0.07154889 -0.048794363 0.030048525 -0.049335714
0.026715951 -0.055447333 0.1329552 0.0018713737 0.019531313 0.07236543 0.075353675 0.05248223
0.07311852 0.11650427 0.075311914 -0.013844055 0.03924374 0.07218184 -0.031868655 0.06943958
-0.054736286 -0.012726972 0.019467978 0.0016753149 0.07359894 0.047414545 0.061679173 0.057437744
0.074766986 -0.0010944424 0.044658493 0.050734334 0.03212143 0.031232808 -0.0045951265 0.07650905
0.07236603 0.020484207 0.02173959 0.11982414 0.08901797 -0.054876227 0.0602385 0.07678479

network_body._body_endoder.seq_layers.2.weight f4 [128, 128]
00000000: 40ff 553e 98dc ab3a 1851 043e dbbe 3cbe
00000010: 22d5 6d3d 085d cc3d 275c ed3d a480 7c3e
00000020: 4a28 c4bc f388 06bd b2ef 36bd 33a2 803e
00000030: 478c 353d 4027 753d c488 33be 6036 81be
00000040: be3c 023c aca8 10bd 4bc6 3fbe b0c9 5f3d
00000050: 05a0 27bb 0cc5 e4bd 0fc5 253d ed28 3a3d
00000060: 2da9 32bd e47f 9dbc 9747 3ebe b5d5 a53c
00000070: 9360 50bc 506b 583e b4e1 07be 46ca 373d
00000080: a508 503d ab07 4b3e 0f8e 7fbd 9d0f 4c3e
00000090: f347 bdbd 2ca4 c33d bdc7 0dbb 3519 5c3e
000000a0: b5df 093e c6b8 fe3d 81aa eb3d 9371 ef3d
000000b0: 3842 163c 030b 9fbb 299c efbd 72a1 b73d
000000c0: 735d 193e 52ee ba3d 850a bf3c d274 ac3c
000000d0: ca30 203e cee0 c3bd 3b6b c3bd dcee 06bd
000000e0: df39 aebd c83f e3bd afd5 52bd 1751 fb3d
000000f0: 2954 2dbd 3419 983d e023 88be 383d 543e
00000100: 6041 d73c e381 55bd d897 4c3d 9fb1 4c3c
00000110: 9ba2 8bbd 7f4b d73d 0424 1a3e 0318 2b3d
00000120: 0067 61bd 78c9 6cbd a1b5 76bc 23b9 fdbd
00000130: 50f9 393e a435 f33c ac63 083e a8c3 b7bc
00000140: fd15 fd3d 7fd4 a0bd 838d ae3d 6f14 cfbd
00000150: c2ce 3ebd 4321 2abd 524d c03d 35bf dc3d
00000160: b40b 823d 0b3b bdbd 6aca 00be e86b 973d
00000170: 484f f6bd 9b3e 333e aaed aa3d eefd 983c
00000180: 6693 003e ec99 693c bc6c 4b3d c6d9 dbbd
00000190: aef1 133d eaf8 023e 98f7 463e 7db9 693e
000001a0: 2070 8dbd a601 22bd 82ad 28be b6b7 c3bc
000001b0: 8196 373d f308 bb3d fdd3 f23d 22d1 a93d
000001c0: e06c 7fbd 3e04 28be 4c66 65bd 3e29 afbd
000001d0: 040d 413e 648a 90bd 1d1a ab3c 6f1a 3b3e
000001e0: 0565 1b3d df36 66bc c3ad d1bb a89c 673e
000001f0: 25a6 b7bd 1dba af3d a85d 85bd a5b8 973d
00000200: 4d7d 39bc 8dbd e73c e641 cc3b 175e 20bd
00000210: 22e5 14be ace8 2fbe 6752 1abe a839 09be
00000220: a84f 5dbc 26be 2fbe 491a 173e 8403 c0bd
00000230: 8060 853c 661f 14bd 8099 0d3e 73b9 b03d
00000240: fe46 acbd 54a2 8dbc 17fc abbd 907f c2bd
00000250: 5ff4 b33c e5b0 653c 01a1 6e3d 86c9 84bd
00000260: 3e2c 0ebd d7a3 16be 781b 06be 9d02 24bd
00000270: c901 0ebe 1777 7d3c ab77 b7bc 18cc a9b8
00000280: dd28 a53d 1fa7 b0bd 535a 823c 3ad8 a6bc
00000290: 0064 ecbd e38f 243d 9180 43be 12bb c4bd
000002a0: c673 d6bd 0c10 10be a8e9 acbc 213f d73d
000002b0: a58b 76bc ac06 583d 3f2b 6a3d 6ace 7c3d
000002c0: dbcd 023d 032a ccbd 1232 c7bd 7087 3abe
000002d0: d368 f0bd f5f4 f53d 535c 10be 91a0 fe3d
000002e0: 475e c93c c2f9 c9bd 9321 8a3d 3e2a a33d
000002f0: f68c 0fbe 4c6f 6bbd 412c b63c b646 7a3d
00000300: 1880 5abc ea07 903d 0cb5 fcbc 2b26 a2bd
00000310: 12c3 dfbd 4e18 d1bb 7c9a 92bd 4766 acbd
00000320: 3fda e73b 02dc 0ebe 8f33 8fbd bde5 27be
00000330: 5b9e 82bd a67c 383d 3456 1e3d be6a 603c
00000340: d1db 0bbe 189a 393e 68e1 60bd 90dc 19bd
00000350: c2f7 113e 974b 183d 2aee 73be 8796 de3c
00000360: 002a 5f3d 5982 fa3d a1df aebd c375 583c
00000370: 8bcb b3bd 2b2d 283d 6f53 7dbd 59d9 20be
00000380: 762d 57bd 06d8 353d a940 503a 756e e73d
00000390: 014f efbd 418f fcbd b83f 6bbe f830 f4bd
000003a0: cea6 0c3d 5ab3 b0bd 1b0f 00be d80e f1bd
000003b0: 615d cdbc 9764 c83d 51e7 df3d 0945 b6bd
000003c0: df2b 08be 8ac0 4cbd 4db1 473c 9556 7b3e
000003d0: a221 37be 4c46 f3bc f4ff 3d3e 1207 dc3d
000003e0: c4fd 48bd 7070 90bd 675a 28bd e00e c2bd
000003f0: 5c06 65bc 8cde 2b3d 3f19 d63d 45bf 4a3d
0.20898151 0.0013112007 0.1292156 -0.1843218 0.058064587 0.09978682 0.11589842 0.24658448
-0.023944993 -0.03284545 -0.044662185 0.25123748 0.044323232 0.059851885 -0.1753264 -0.25236797
0.007949052 -0.035317108 -0.18727987 0.054635704 -0.0025577557 -0.11170396 0.040471133 0.045449186
-0.04361837 -0.019226022 -0.18581997 0.020243505 -0.012718338 0.21134686 -0.13269693 0.044870637
0.050789494 0.19827144 -0.062391337 0.19927831 -0.09242239 0.09552798 -0.0021633946 0.2149399
0.13464244 0.124375865 0.115071304 0.116915844 0.009171061 -0.0048536076 -0.11699707 0.0896634
0.14977054 0.09127487 0.023320446 0.021051798 0.15643612 -0.095643625 -0.09541937 -0.032942638
-0.08507132 -0.1109615 -0.051473316 0.12271326 -0.04231659 0.07426682 -0.2658987 0.20726478
0.02627629 -0.052125823 0.049949497 0.01249352 -0.06818124 0.105124466 0.15052801 0.041770946
-0.05502987 -0.057809323 -0.015057952 -0.12388828 0.18161511 0.029688664 0.13319272 -0.022432163
0.123577096 -0.078530304 0.08523085 -0.10111319 -0.0465839 -0.041535627 0.09389748 0.10778657
0.063498884 -0.09239777 -0.12577215 0.07393628 -0.120268404 0.17504351 0.08346112 0.01867577
0.12556228 0.014257889 0.049664244 -0.10734896 0.036119156 0.12790266 0.19430387 0.22824664
-0.06906152 -0.039552353 -0.16472438 -0.023891311 0.044821266 0.09132566 0.1185684 0.08291842
-0.06235969 -0.16407868 -0.05600576 -0.08552788 0.18852621 -0.07057646 0.020886475 0.18271802
0.037938137 -0.014051168 -0.006398888 0.22618353 -0.089672364 0.0858042 -0.06512004 0.07408265
-0.011321378 0.028288627 0.0062334416 -0.03915223 -0.14540532 -0.17178601 -0.15070496 -0.134009
-0.013507761 -0.1716238 0.1475612 -0.093756706 0.016281366 -0.036162756 0.13828087 0.08629122
-0.08411978 -0.017289318 -0.08397692 -0.09496987 0.021967111 0.014019226 0.058259014 -0.0648375
-0.03471016 -0.14710937 -0.13096416 -0.040041555 -0.13867868 0.015470288 -0.02239593 -8.0965634e-05
0.08064435 -0.08625626 0.01591221 -0.020366777 -0.11542511 0.040176284 -0.19092013 -0.09605993
-0.10471301 -0.14068621 -0.02110751 0.10510088 -0.015047942 0.052740738 0.05717015 0.06172029
0.0319346 -0.099689506 -0.09726347 -0.18215728 -0.11738744 0.120096125 -0.14097719 0.12432969
0.024581088 -0.09862091 0.06744685 0.079670414 -0.14018616 -0.057479188 0.022237899 0.06110259
-0.013336204 0.070327595 -0.030848049 -0.07917436 -0.109258786 -0.006381071 -0.07158372 -0.08417945
0.0070755775 -0.13951114 -0.06992256 -0.16396232 -0.0637786 0.04504075 0.03865643 0.013697324
-0.13658072 0.18125188 -0.054902464 -0.03756386 0.14254668 0.037181463 -0.23821321 0.027171386
0.054483414 0.12231893 -0.085387476 0.01321167 -0.08779057 0.0410587 -0.061847147 -0.15707912
-0.05253359 0.04439547 0.00079442054 0.11300365 -0.11684991 -0.12332011 -0.22973526 -0.119234025
0.034338765 -0.086279586 -0.12505762 -0.11770409 -0.02506894 0.09784811 0.10932792 -0.08899886
-0.13297985 -0.049988307 0.012188268 0.24544747 -0.17883924 -0.029696606 0.1855467 0.10743536
-0.049070135 -0.07052696 -0.04110184 -0.094754934 -0.013978567 0.041960284 0.10454034 0.049498815

network_body._body_endoder.seq_layers.2.bias f4 [128]
00000000: 1ff0 c23d 0828 b2bd 9780 a0bd ff51 2d3d
00000010: b7fa a53d 54c2 84bd 9e94 c0bd 9e23 963d
00000020: 849b 7d3d b750 1e3d 586f ea3d 8460 bcbd
00000030: bd87 323d 86bc 303d d753 bbbd 168b b33d
00000040: a81f 96bd b451 74bd 5961 10be 6f4a cdbd
00000050: dbb0 b53d 93fd 8f3d 5363 f0bd 08cc 9ebc
00000060: 651f 073e b2b7 5abd 911e 5cbd fadf f33d
00000070: 03f4 f93c 59f8 203d 1c2f 443d 6be1 d13d
00000080: c4eb 3f3d 88e2 edbd fab4 9bbc b55d 59bd
00000090: 90f1 c23d 50f4 b2bd 296d 34bd 5905 16be
000000a0: c689 de3d a74d db3d 8c78 9ebd 4373 b5bd
000000b0: 9398 2c3d 7410 c13d 8c09 783c a63b de3d
000000c0: a33a 55bd 5ae8 4b3d 5b5d dfbd 51e9 8e3d
000000d0: 3f5d 23bd 18d9 10be 3df6 d6bd d7a2 07be
000000e0: 02bf 843d 2a94 793d 44a3 743d 378f ce3c
000000f0: 4cf0 d33d ed47 bd3c 4307 a43d ebe5 bfbd
00000100: 2b18 39bd 6798 8abc 8eaf 84bd 0ad8 debd
00000110: f0ec bdbd da4c 9d3c dddf b53d 0f52 833d
00000120: 6792 ed3c 6b85 833d 5d1b 50bd a702 abbd
00000130: e186 1dbd 80da b4bd 1c52 b83d 1ead 80bd
00000140: ee2a 71bd fbb7 7f3d 931f 02bd 22be 5ebc
00000150: a5a5 93bd 8ded 4c3d 15ad 3ebd b7c8 8cbd
00000160: 5757 8abd 95fb b53d ff93 753c 85a3 b33c
00000170: 8087 c2bd 693e a33d af10 bc3d c193 ad3d
00000180: 59c9 f0bb e7e1 483d f887 e23c a7c4 db3d
00000190: 0aa6 5bbd 8649 2fbd e75a cebd 91b5 c33d
000001a0: 4e52 80bd 822b db3d f255 91bd f789 0c3d
000001b0: 2051 ec3d 6922 f83d 825b debd 44f5 763d
000001c0: 2168 893d ff2f 153d 8e3a d73d 8259 93bc
000001d0: d0fe 903d 54e7 e73d 2316 c5bd d107 a9bd
000001e0: 9b88 e6bd cd9e a2bd 163e a83d 0780 8c3c
000001f0: 2c64 bebd c1f3 ffbd 99bb b6bd bee2 85bd
0.09518456 -0.086990416 -0.078370266 0.042314526 0.08104461 -0.06482378 -0.094033465 0.07331012
0.06191589 0.038651194 0.114470184 -0.091980964 0.04358648 0.04314854 -0.091468506 0.08766763
-0.07330257 -0.05964823 -0.14099635 -0.10023963 0.08871623 0.07030787 -0.117376946 -0.019384399
0.1319557 -0.05339784 -0.053740088 0.119079545 0.030511862 0.039299343 0.04789649 0.10248073
0.046855703 -0.11615473 -0.019007195 -0.05306788 0.09518731 -0.08738005 -0.044049416 -0.14650477
0.10866122 0.107081704 -0.07737836 -0.08859875 0.042137694 0.09426966 0.015138995 0.10851221
-0.052057873 0.049782135 -0.10906478 0.06978095 -0.03988385 -0.14145315 -0.10496185 -0.13245712
0.06481744 0.060932316 0.059726015 0.025214775 0.10348567 0.023105586 0.080091976 -0.09370025
-0.045189064 -0.016918374 -0.06478797 -0.1088105 -0.09273708 0.019201685 0.08880589 0.06412136
0.029000474 0.06421932 -0.050807346 -0.08350115 -0.03845871 -0.08830738 0.09000036 -0.062830195
-0.05887883 0.062431317 -0.031768393 -0.013595136 -0.072093286 0.050031234 -0.046551783 -0.06874221
-0.0675494 0.08885876 0.014988898 0.021928558 -0.09498501 0.07970888 0.0918287 0.084754474
-0.0073482213 0.049043562 0.027652726 0.10730868 -0.053625144 -0.042794727 -0.10075932 0.095561154
-0.062656984 0.10701658 -0.07096471 0.03431126 0.11538911 0.12115938 -0.108572975 0.060292497
0.06709314 0.036422726 0.10509215 -0.017987017 0.070798516 0.11323419 -0.09623363 -0.08253444
-0.11256524 -0.07940445 0.08214967 0.017150892 -0.0929645 -0.12497664 -0.089225 -0.06537388

action_model._continuous_distribution.log_sigma f4 [1, 2]
00000000: a0b6 11be af90 9d3c
-0.14229822 0.01923403

action_model._continuous_distribution.mu.weight f4 [2, 128]
00000000: 99e0 3e3d f07e 593d 16ba 0c3b 7aa7 443d
00000010: 5be4 903a 508c 153c af83 ca3c ae0f 04bb
00000020: a184 76bc ab53 94bc feec 2cbd 5efb 9b3c
00000030: ec29 0dbd 0599 9f3d 6441 0c3e 5663 853c
00000040: f48d 853c c384 563c 84aa aa3c 4214 413c
00000050: b0e2 85bb 8ccd ca3c 6a92 1c3c 1b8b 1cbc
00000060: 5df9 c1bd 1716 a0bd 7079 683d d0de d6bc
00000070: 9e8e d73c e5e3 fd3c 5201 b13c 26f5 b6bc
00000080: 7dca dd3c ada8 1f3b 335c 363d 6188 703d
00000090: a825 1a3d 95d3 383d 2c0d 103d a37d ec3c
000000a0: 2770 0fbd d6f0 a1bc b3e7 1c3d 304f a3bc
000000b0: 548a abbb 4dab 03bc 1f1e df3c a572 56bd
000000c0: d9e1 87bc 0bd6 b03d fa0a 253b ad4f ad3c
000000d0: 40ca d53c 09ad 0f3c 3e95 c73c f7c4 4e3c
000000e0: 2e98 943d 3650 5f3d b1f9 123d 69e2 1c3d
000000f0: 1773 6a3b bfb3 84bd e05e 3fbd bfe6 a3bc
00000100: 8a5a 873b 8205 d8bd bfdf f03c 7091 c23c
00000110: 01b1 15bd f9c9 20bd 8c25 353d cafa 753d
00000120: eb65 b43d 06b1 2a3d 3539 ca3c 9788 663c
00000130: 4ac5 9ebd bcb6 983b 9fa4 c83c 8812 c03d
00000140: cf18 273c 469f 3a3c 09c3 043d 0796 263c
00000150: 515c b13c 8592 293d 6a7e 703c fa2a f5bb
00000160: 4133 1f3d 92c8 06bd 7221 02be c1a5 77bd
00000170: b87a 8d3b 8a0c a63d c332 843d aeee 20bd
00000180: 8459 22bc 347d 603d 17b0 173a b2c1 633d
00000190: 4258 13bc 38f3 95bb f814 c33b ad00 ddbc
000001a0: f86f 43bd 1ddc b5bc 1a87 a43c 4dc6 ba3a
000001b0: 6ce0 343d ca17 2cbd 7341 d03c acca 0c3d
000001c0: 860e 6b3c 5165 103a 38a1 8dbc f5bf b33d
000001d0: 4d5f 413d 7a66 53bd 9c58 473d 0383 ea3c
000001e0: 7054 e4bb 950c 013d e657 533b 60ef 32be
000001f0: aac0 a13c f3c2 a73c ee22 eb3c 0fd5 22bd
00000200: 016c 933d 775a abbd d9d4 09be 3269 2a3d
00000210: 807b 403d e9c2 00be 639d aabd 9397 9e3d
00000220: 661a 173d f9e1 0f3d 0811 b73d 97a7 09be
00000230: b6b6 963c 424b 2c3d ddcd 693a 0a01 563d
00000240: 5c84 39bd 2a81 15be 55dd 9fbd e3e6 92bd
00000250: 8450 693d 2d7f 603d 324e 12be 4bb2 88bc
00000260: 2c36 803d e617 3bbd 27bb 88bd 7acd 9e3d
00000270: 3d15 233c 30b8 62bc 425f 813c 2b5f 963d
00000280: 2abd c03b 1baf c1bd 280f a7bc cc2e cdbd
00000290: 6298 8b3d 6e14 19be 537b 92bc 2bec 99bd
000002a0: 5c5c 823d 2333 ae3d 0f8d 02bc f184 bebd
000002b0: 0db8 3c3d ca0d c43d 9a62 ce3c 5a3d 3e3d
000002c0: 33be 42be 2cc7 963c 97b9 d8bd 8823 973d
000002d0: ff5f 2bbe fb23 f1bd df86 bdbd db27 dfbd
000002e0: fe7b 603d 3865 d73c 8778 2d3d 2410 093d
000002f0: a4df 8a3d 006c e33c 5123 763d 6822 dfbd
00000300: cd6f 61bd 72c3 0cbd 501d c6bd db87 9cbd
00000310: 8c1c b0bd d579 4e3c 42ef 403d c54a 743d
00000320: 2c48 b73c f4eb 553d 4d6f 23be 65ea 14be
00000330: 0cb0 24bd 5ed4 b3bd 3c1e 873d 2249 b23b
00000340: bf34 7ebd a9a6 8b3d 3216 6b3c fc76 debc
00000350: b035 07be 66f8 963c c26c 34be 75d6 13be
00000360: 6ef0 98bd 0860 5c3d c58c 8dbc 8e47 503c
00000370: d290 06be 5aee 113d 387c a63d 4cd2 893d
00000380: f5aa e4bc 7d53 a33c 9bb7 8d3c 6250 273d
00000390: 2f54 88bc eddb 33be 032e 58bd 9ed5 633d
000003a0: 0136 06be 9ff1 843d 5801 19be 5e87 7b3d
000003b0: 9752 903d 3bfa 963d fa79 2cbe b7d0 943c
000003c0: 631a e53c 53b3 e43c fdff 943d ba4f bebc
000003d0: af26 5e3d 47b2 863d ddca 5fbd 0c7e 16be
000003e0: 6e22 bdbd 972f 1fbe 3b04 723d 1631 d3bc
000003f0: 2cc5 f1bd b69f 78bd 24a2 2dbd 917b 3ebd
0.04660091 0.053099573 0.002147322 0.04801128 0.0011054383 0.009127691 0.024720995 -0.0020150947
-0.01504627 -0.018106302 -0.0422182 0.01904076 -0.034463808 0.07792858 0.1369682 0.016282719
0.01630304 0.013093176 0.020833261 0.011784615 -0.004085861 0.024756216 0.009556392 -0.00955465
-0.094713904 -0.07816713 0.056756437 -0.026229292 0.026313122 0.030992458 0.021607075 -0.022333693
0.027074093 0.0024362013 0.04452152 0.05872381 0.037633568 0.045123655 0.03516881 0.028868502
-0.035019066 -0.01976816 0.038306903 -0.01993522 -0.005234996 -0.008036447 0.027236043 -0.052355427
-0.016587185 0.086345755 0.0025183544 0.021156156 0.026097417 0.008769282 0.024363156 0.012620202
0.072555885 0.054519854 0.035882656 0.03830186 0.0035774165 -0.06479596 -0.04672134 -0.02000749
0.004130666 -0.105479255 0.029403565 0.02375099 -0.036545757 -0.039255116 0.04422526 0.060053624
0.08808502 0.04167273 0.024685482 0.0140706515 -0.07752474 0.0046604555 0.02449256 0.093785346
0.010198786 0.011390513 0.032412563 0.010167605 0.021650465 0.041399498 0.014678577 -0.00748193
0.03886724 -0.032906123 -0.12708071 -0.06046081 0.0043176077 0.081078604 0.064549945 -0.039290123
-0.0099090375 0.054806903 0.00057864323 0.055604644 -0.00899321 -0.004576113 0.0059534274 -0.026977861
-0.047714204 -0.022199685 0.020083953 0.0014249772 0.044159338 -0.042014875 0.025421834 0.03437297
0.014346724 0.00055082614 -0.01728879 0.08776847 0.047210027 -0.0516114 0.04866849 0.028626924
-0.0069680735 0.03150614 0.0032248436 -0.17474127 0.01974519 0.020478701 0.02870318 -0.03975397
0.071983345 -0.08366864 -0.13460101 0.04160423 0.04699278 -0.12574352 -0.083308004 0.07743754
0.03689041 0.035127614 0.08938795 -0.13442837 0.01839767 0.04206396 0.00089189206 0.052247085
-0.045292243 -0.14600053 -0.078058876 -0.071729444 0.05696155 0.054808784 -0.14287642 -0.01668658
0.062603325 -0.04567709 -0.066763215 0.07754035 0.009953794 -0.013837859 0.015792493 0.073423706
0.005881925 -0.09457227 -0.02039297 -0.100186914 0.06816174 -0.149492 -0.017881071 -0.075157486
0.063652724 0.08505847 -0.007968201 -0.093027 0.046073962 0.095729426 0.025193501 0.04644523
-0.19017868 0.01840552 -0.105822735 0.07379824 -0.16735838 -0.11774441 -0.0925424 -0.10896274
0.05480575 0.026293382 0.042351272 0.03346266 0.06780937 0.02776146 0.060092274 -0.10895234
-0.055038262 -0.03436608 -0.0967356 -0.076431 -0.08599195 0.012602289 0.047103174 0.05964162
0.022373281 0.052226976 -0.15960427 -0.1454254 -0.040206954 -0.0878074 0.065975636 0.005440847
-0.06206202 0.06818897 0.0143485535 -0.027156346 -0.13204074 0.018428992 -0.17619613 -0.14437278
-0.07467733 0.05380252 -0.017279038 0.0127123725 -0.13141182 0.0356277 0.081291616 0.06729564
-0.02791355 0.019937271 0.017299464 0.040848143 -0.016641704 -0.17564364 -0.052778255 0.055623643
-0.13106538 0.06491398 -0.14941919 0.061408393 0.07047003 0.073719464 -0.16843405 0.01816593
0.027966684 0.02791754 0.072753884 -0.023231376 0.05423611 0.065769725 -0.054636825 -0.1469652
-0.092350826 -0.15545498 0.059086066 -0.025780242 -0.11805186 -0.060699187 -0.042390957 -0.04650456

action_model._continuous_distribution.mu.bias f4 [2]
00000000: 6bdf cdbb 1276 023e
-0.006282737 0.12740353

exp_avg f4 [128, 90]
00000000: 680f d7b9 1652 6838 5d6e 9239 f74e e239
00000010: b26a 8f39 bd62 3639 b151 1839 1f3c 1a39
00000020: 3369 3839 e420 c739 48cf f939 fe4f 063a
00000030: 4781 e639 4513 e838 27cc a5b6 0470 d035
00000040: 44b7 2138 0558 d1b7 9894 c038 f543 d5b8
00000050: a943 0a39 bd20 84b8 8b88 8ab8 8a86 87b8
00000060: 928f 3bb8 2874 dcb7 c622 93b7 ed64 d2b7
00000070: 383b f3b7 7eeb e5b7 634f deb7 83d9 ceb7
00000080: 889a c8b7 1417 c1b7 7a9d f6b7 8f05 d2b7
00000090: 4758 adb7 8815 91b7 6638 70b7 51f1 3ab7
000000a0: c6b5 a3b6 84fe d2b5 3e7f d6b5 2b28 abb5
000000b0: 699c b3b5 e8ba b2b5 901a 11ba 62fc ccb9
000000c0: ebfc b2b8 749f 6b39 b58c fd39 efcd 203a
000000d0: af94 153a 2c1a f139 8ff7 9c39 654c b238
000000e0: 0f33 97b8 adf3 aa38 fab8 6b39 bbc8 b238
000000f0: 8351 c039 a7cd f439 07fb f339 74c7 cf39
00000100: 1fae cd39 3504 ba39 c366 d639 61bf c439
00000110: 1a55 a439 008a 5a39 387f f238 34c6 b338
00000120: 9a4d f537 dd17 17b8 9b60 1e39 969c 8338
00000130: 70c0 a438 a853 b037 354d c638 bc8c 93b9
00000140: 3448 0739 95e6 3c37 c55e 76b7 aac1 6cb7
00000150: cc7d 4cb7 aadd cdb6 2272 c1b5 5f80 b9b5
00000160: a8a1 b9b5 576f b2b5 c3c7 81b9 442b d1b8
00000170: 195d 06b8 93fa 1a38 8a13 24b9 a3cf 06b9
00000180: 5f65 27b9 79b5 f9b8 b1b7 cab8 90d5 23b8
00000190: ebcb 5ab9 49e9 8bb9 e4d6 92b9 6ce3 5eb9
000001a0: e172 b0b7 09eb 45b8 1ae4 76b8 3651 5db5
000001b0: 6619 2f38 9222 2838 0286 1239 3b2f d438
000001c0: 2d7a bd37 da0f f4b7 9fed 63b8 41c0 5fb8
000001d0: 975a 65b8 6919 a5b8 2ce5 a5b8 7c94 9bb8
000001e0: aa6a 7db8 c457 2db8 38e4 eeb7 cca1 ddb7
000001f0: 566c 3cb7 c974 32b7 92df 16b7 b295 ecb6
00000200: c283 c6b6 ebe5 a6b6 756e 0cb6 2c03 35b5
00000210: 8304 38b5 fcd5 12b5 b716 1ab5 3e55 19b5
00000220: b32d c3b9 a097 d4b9 6bb1 d5b9 44b0 b5b9
00000230: dcf2 85b9 0cb5 47b9 071f 1eb9 e35d d5b8
00000240: f869 c2b8 0943 22b9 ad82 3d38 945a 3934
00000250: b979 b438 a4a5 6db8 f59e cdb9 2001 bfb9
00000260: 8464 a8b9 07a6 24b9 9a79 92b8 47fd b0b8
00000270: 0f7b 92b8 8f1c 6ab8 7456 bcb8 0d3a 3bb8
00000280: 05c9 0fb7 592e a837 14f3 e6b8 5acf 61b8
00000290: a7db 3bb8 4e53 87b8 2e22 6ab8 e084 95b8
000002a0: 6b37 52b8 5ccc d1b8 bec1 8e37 c86c 5d37
000002b0: 3852 1a37 5386 3db6 956f a8b6 ef9c 30b6
000002c0: 30f5 25b5 7324 1fb5 d440 1fb5 6e14 19b5
000002d0: dd3c 4539 6b77 94b9 95e0 0bba 9459 3fba
000002e0: 855e b938 1bcb 3239 4623 be39 e7db c339
000002f0: a17f d939 cc82 8938 b17a a639 89a0 c239
00000300: 207e d439 4dac 5939 f39e 03b8 4d5d 3139
00000310: 506e 5339 941a eab8 af22 5ab9 40d2 c1b9
00000320: efbb bfb9 abbd 98b9 0fdf 3fb8 569d efb7
00000330: 7631 8f38 4ce0 0339 5e1f 1a39 00f1 8439
00000340: 9699 6a39 9750 6139 3de8 3c39 6e26 fa38
00000350: 3cc6 6c38 a506 4c38 f2fa 6db7 3510 2138
00000360: 0264 0338 07e7 4337 76fb 8536 bb48 7536
00000370: 3e73 ae36 2cf1 df35 dea8 e335 e8a8 b535
00000380: 0ca2 be35 b1b2 bd35 072c c739 6e6f e639
00000390: 74e6 e339 c832 9c39 24ef 7b39 ad6c ab39
000003a0: 98c8 b439 8571 ca39 2bba e239 9a37 e739
000003b0: a63f ac39 abe0 a439 0de4 9539 034e 9f39
000003c0: 6418 b639 5964 b339 3c99 a039 c781 5d39
000003d0: 5fb6 4439 8ddf 3f39 b8d0 2939 35fd 0a39
000003e0: 2615 fb38 1b2e d238 1e46 b138 3de3 9c38
000003f0: 5a94 9038 b6b6 8038 d757 9438 759e b038
-0.00041019474 5.538956e-05 0.00027929517 0.00043164912 0.0002735458 0.00017393655 0.00014526282 0.00014708981
0.00017586797 0.00037980743 0.00047647418 0.0005123614 0.00043965338 0.00011066211 -4.9411497e-06 1.5529808e-06
3.855607e-05 -2.4955729e-05 9.182951e-05 -0.000101692895 0.00013185911 -6.3003485e-05 -6.605786e-05 -6.4623615e-05
-4.4717985e-05 -2.6280133e-05 -1.7539958e-05 -2.5080948e-05 -2.8995433e-05 -2.7408587e-05 -2.650143e-05 -2.46584e-05
-2.3913817e-05 -2.301814e-05 -2.9398816e-05 -2.503654e-05 -2.0664314e-05 -1.7295373e-05 -1.4318246e-05 -1.114265e-05
-4.8789398e-06 -1.5720293e-06 -1.5981275e-06 -1.2752183e-06 -1.3382061e-06 -1.331643e-06 -0.0005535269 -0.00039097952
-8.534811e-05 0.00022470747 0.00048360755 0.0006134202 0.00057060545 0.00045986602 0.00029939084 8.501931e-05
-7.2097515e-05 8.15162e-05 0.00022480256 8.5250904e-05 0.00036681825 0.0004669253 0.00046535602 0.0003963072
0.00039230377 0.0003547982 0.00040893824 0.00037526622 0.00031343923 0.00020841509 0.000115631556 8.572303e-05
2.9242412e-05 -3.602343e-05 0.00015104043 6.275733e-05 7.855974e-05 2.101979e-05 9.455757e-05 -0.0002814288
0.00012901501 1.125936e-05 -1.4684808e-05 -1.4111787e-05 -1.2188637e-05 -6.135281e-06 -1.4412838e-06 -1.3820935e-06
-1.3830622e-06 -1.3294438e-06 -0.0002475363 -9.9739555e-05 -3.2034794e-05 3.6949827e-05 -0.00015647538 -0.00012856587
-0.00015964125 -0.00011907047 -9.666326e-05 -3.9061124e-05 -0.00020866065 -0.00026685957 -0.00028007396 -0.00021256291
-2.103433e-05 -4.7187354e-05 -5.8863407e-05 -8.2447093e-07 4.1746905e-05 4.0086517e-05 0.00013973567 0.00010117745
2.2587448e-05 -2.9094448e-05 -5.434232e-05 -5.3346394e-05 -5.4682223e-05 -7.872546e-05 -7.9105e-05 -7.418633e-05
-6.041924e-05 -4.1328152e-05 -2.8478084e-05 -2.6420596e-05 -1.1230897e-05 -1.0636818e-05 -8.992751e-06 -7.050775e-06
-5.9161985e-06 -4.9739515e-06 -2.092592e-06 -6.743237e-07 -6.8551907e-07 -5.4700627e-07 -5.7402525e-07 -5.7120985e-07
-0.00037227347 -0.0004054876 -0.00040758713 -0.00034654338 -0.0002554868 -0.00019045564 -0.00015079613 -0.00010174119
-9.270379e-05 -0.00015474496 4.5182813e-05 1.726242e-07 8.6057415e-05 -5.6659468e-05 -0.0003921908 -0.00036431197
-0.00032118347 -0.00015702109 -6.9844726e-05 -8.4395106e-05 -6.984744e-05 -5.5816545e-05 -8.980642e-05 -4.463834e-05
-8.570268e-06 2.0048743e-05 -0.000110125315 -5.383729e-05 -4.478884e-05 -6.452818e-05 -5.582178e-05 -7.1296236e-05
-5.0119514e-05 -0.000100039615 1.7017937e-05 1.3197954e-05 9.198258e-06 -2.8241382e-06 -5.01978e-06 -2.631739e-06
-6.1824085e-07 -5.9285156e-07 -5.9326453e-07 -5.702667e-07 0.00018810057 -0.00028317733 -0.00053358945 -0.000729942
8.839093e-05 0.00017051066 0.00036265905 0.00037357138 0.00041484556 6.557032e-05 0.000317534 0.00037122171
0.00040529761 0.0002075892 -3.1380867e-05 0.00016914793 0.00020163623 -0.0001116294 -0.00020803021 -0.00036968477
-0.0003657038 -0.00029133013 -4.5745688e-05 -2.8564285e-05 6.827984e-05 0.0001257669 0.0001469827 0.0002535656
0.00022373194 0.00021487694 0.00018015593 0.00011928087 5.6451405e-05 4.864358e-05 -1.4184729e-05 3.8400485e-05
3.1325973e-05 1.1676696e-05 3.992983e-06 3.655018e-06 5.19902e-06 1.6684985e-06 1.6961965e-06 1.3534709e-06
1.4203265e-06 1.4133603e-06 0.0003798904 0.0004395204 0.00043468515 0.00029792474 0.00024026312 0.0003269663
0.0003448173 0.0003861302 0.00043244785 0.0004410118 0.00032853818 0.00031447908 0.00028589406 0.00030384967
0.00034731918 0.00034216305 0.00030631747 0.00021124548 0.00018759955 0.00018298459 0.0001619485 0.00013255033
0.00011972552 0.00010022168 8.453078e-05 7.480986e-05 6.894088e-05 6.137548e-05 7.0735514e-05 8.421849e-05

exp_avg_sq f4 [128, 90]
00000000: a974 1937 7308 1e37 5c8b 2537 63f3 2c37
00000010: ec07 2937 3e2e 2237 d5f5 1a37 8ae7 1037
00000020: c92e 0537 7f67 f036 14bf d936 dc78 c336
00000030: fd8b ac36 1835 9636 de39 7c36 2da9 5036
00000040: 1e74 2a36 407c 0836 4a85 da35 42cb ae35
00000050: 1351 8c35 673f 6735 7295 3b35 29a2 1935
00000060: 88f7 ff34 35f2 db34 3c7b c534 466f b434
00000070: 7ba1 a734 b560 9b34 604e 8f34 1b6c 8134
00000080: 2f1c 6734 24c1 4334 42c0 0d34 8a8b d233
00000090: 2086 9433 8417 4b33 9639 0933 7fdb aa32
000000a0: 27dc 8c31 fa2d 0430 cea4 0e30 fbe9 1e30
000000b0: 1fb8 1830 07dd 1730 2dca 0c37 2894 0937
000000c0: 2608 0d37 f9af 0e37 6ca0 0b37 6cc9 0437
000000d0: 4879 fc36 5302 e436 7b74 ce36 a70b bb36
000000e0: f558 ad36 b01c a536 9c0b 9736 5411 8636
000000f0: 9b9b 6436 58f5 4136 665d 2236 c37d 0d36
00000100: 94a8 fa35 701a e035 6976 cb35 6252 bb35
00000110: c018 b135 817a a835 ec0e a235 0157 9435
00000120: b69b 6c35 1ad1 5735 1d7b 3c35 d952 0d35
00000130: e31a ea34 776d c734 29fa a634 d032 6d34
00000140: 03c6 3034 af1a 0434 6ffd b733 2536 6433
00000150: e827 f132 ff7f f731 d05c 8530 6b19 1e30
00000160: 3f48 1e30 368a 1730 c53a 8736 a7ab 9236
00000170: 6d71 9e36 ba09 ac36 9730 a836 878b a136
00000180: 5bf8 9936 ba1b 8e36 aa38 8136 5bcd 5c36
00000190: 4d45 4236 a4b9 2a36 d064 1236 8d1c f535
000001a0: db0e c435 c8bc 9d35 ad7d 7d35 dbd5 4c35
000001b0: 8554 2835 535c 0b35 5994 ec34 11df c834
000001c0: 3969 aa34 de4c 9034 bcaa 7234 a0e1 5034
000001d0: 7e91 3834 bd69 2734 a098 1834 dd48 1034
000001e0: 1e30 0634 8eb1 f533 fd55 dd33 2da0 be33
000001f0: 5bd7 8e33 9cc7 6633 db1e 3133 cfb2 0833
00000200: 0a2f c432 0d75 9632 5aae a232 84e9 9432
00000210: 230a a232 15dd 0633 eb43 2e33 4442 2e33
00000220: 0f0c 8036 fa5e 7b36 7825 8336 f6a6 8636
00000230: 8b2f 8436 3e8a 7e36 cd8e 6f36 435b 5b36
00000240: 9c42 4936 d30c 3136 cc5d 2736 dcd7 2336
00000250: 7a15 1136 d2ce f635 5c58 c235 07e9 a335
00000260: 5480 8835 8b0f 6235 2fdb 3835 27a6 1335
00000270: 4f2d f134 ebd8 c634 acd9 ac34 87db 9934
00000280: e35e 8934 a858 7234 d7ad 5234 81b5 3e34
00000290: 2c7e 3234 cfd5 2334 29a2 1434 ed2d 0634
000002a0: 51c1 ee33 6aa1 c633 bb87 9833 712d 9833
000002b0: 38dd 8133 104e 4533 062d 4733 caee 1e33
000002c0: 3426 1233 a332 1233 6b4f 2e33 6741 2e33
000002d0: a3db 0a37 7723 0a37 8515 1137 569c 1c37
000002e0: a0ac 1a37 2426 1337 f17e 0737 2c46 f536
000002f0: 569d d336 7f79 ab36 74ce 9236 5fda 8036
00000300: a761 5f36 66b3 3c36 d743 1c36 f789 0236
00000310: a467 d835 7970 b935 9a0c a435 96c2 9c35
00000320: f7e0 9335 4a4c 8b35 8815 7d35 387e 6a35
00000330: fc90 5535 b1b8 4035 af61 2e35 f7a9 2135
00000340: 27a4 1335 e4b2 0e35 5f73 0835 872b 0035
00000350: bb84 f734 7e13 e234 3a91 a934 31e4 6934
00000360: e99b 2e34 36f7 0734 b752 da33 ab49 a233
00000370: 0bb9 8633 7140 6833 0f66 8233 3d35 0f34
00000380: 4c80 1034 647f 1034 8029 0e37 2170 1737
00000390: 7dd0 2b37 3692 3f37 c7b9 4537 c327 4337
000003a0: 603a 3c37 2b83 3237 e08b 2737 28da 1837
000003b0: c302 0d37 5294 0137 a31a e536 e366 c436
000003c0: 6a2c a336 c0fa 8536 5c94 5936 dd74 2e36
000003d0: a1e5 0a36 72ef d935 5950 ad35 852d 8c35
000003e0: 1c0e 6c35 e7f2 4e35 f4c6 3735 779c 2535
000003f0: f23f 1b35 a2c0 1335 8ff5 0f35 e60f 0c35
9.146673e-06 9.419501e-06 9.8672135e-06 1.0308667e-05 1.0075029e-05 9.666719e-06 9.2363525e-06 8.636978e-06
7.938311e-06 7.164606e-06 6.4893484e-06 5.8255227e-06 5.1422962e-06 4.4765293e-06 3.758461e-06 3.1092889e-06
2.5399563e-06 2.0337902e-06 1.6281058e-06 1.3023166e-06 1.0454409e-06 8.614647e-07 6.98804e-07 5.7232916e-07
4.7677554e-07 4.0968158e-07 3.6783774e-07 3.3608575e-07 3.1223666e-07 2.8941363e-07 2.669285e-07 2.410678e-07
2.1523805e-07 1.8231054e-07 1.3201591e-07 9.804269e-08 6.916184e-08 4.7286008e-08 3.1950172e-08 1.989042e-08
4.0995647e-09 4.8086657e-10 5.18935e-10 5.781257e-10 5.555893e-10 5.524758e-10 8.391723e-06 8.200332e-06
8.406152e-06 8.504831e-06 8.322397e-06 7.91471e-06 7.5243042e-06 6.7952e-06 6.1528385e-06 5.574391e-06
5.1661577e-06 4.920723e-06 4.501502e-06 3.9955285e-06 3.4065222e-06 2.890205e-06 2.4194246e-06 2.108384e-06
1.8675514e-06 1.6696995e-06 1.515914e-06 1.3956562e-06 1.3194731e-06 1.2552629e-06 1.2074283e-06 1.1052181e-06
8.814344e-07 8.0398024e-07 7.021461e-07 5.264715e-07 4.360546e-07 3.7146285e-07 3.1101925e-07 2.209083e-07
1.6463314e-07 1.2303165e-07 8.567701e-08 5.313463e-08 2.807424e-08 7.2031976e-09 9.703403e-10 5.7516186e-10
5.7582733e-10 5.512989e-10 4.030155e-06 4.371122e-06 4.7219714e-06 5.1271318e-06 5.0124468e-06 4.814417e-06
4.5886677e-06 4.2351576e-06 3.851096e-06 3.2902087e-06 2.894859e-06 2.544003e-06 2.1814376e-06 1.8262232e-06
1.4607461e-06 1.1752354e-06 9.4432727e-07 7.630712e-07 6.270787e-07 5.1915885e-07 4.4066363e-07 3.7415205e-07
3.1741527e-07 2.6878018e-07 2.2600119e-07 1.9453591e-07 1.7189265e-07 1.5591554e-07 1.4211628e-07 1.3437553e-07
1.2497227e-07 1.14409985e-07 1.03067556e-07 8.8767e-08 6.651563e-08 5.373259e-08 4.1239087e-08 3.1827593e-08
2.2838794e-08 1.7515527e-08 1.8938568e-08 1.7335658e-08 1.8863892e-08 3.140038e-08 4.0574303e-08 4.05728e-08
3.816101e-06 3.7457198e-06 3.908466e-06 4.012948e-06 3.9394413e-06 3.7929417e-06 3.5696896e-06 3.2686664e-06
2.9990106e-06 2.638252e-06 2.4939536e-06 2.441454e-06 2.1619185e-06 1.8388621e-06 1.4479842e-06 1.2212266e-06
1.0170138e-06 8.421418e-07 6.8864296e-07 5.500355e-07 4.4922714e-07 3.7038203e-07 3.2195874e-07 2.8658198e-07
2.5587278e-07 2.2570259e-07 1.9621017e-07 1.776116e-07 1.6623443e-07 1.5258341e-07 1.3842568e-07 1.249643e-07
1.1117903e-07 9.2494545e-08 7.102741e-08 7.086317e-08 6.04727e-08 4.5938634e-08 4.6374247e-08 3.700442e-08
3.402802e-08 3.4039328e-08 4.0584762e-08 4.0572015e-08 8.276579e-06 8.233698e-06 8.647684e-06 9.334724e-06
9.219308e-06 8.770763e-06 8.076183e-06 7.309738e-06 6.3066063e-06 5.110341e-06 4.3751734e-06 3.840119e-06
3.328643e-06 2.8118607e-06 2.32853e-06 1.9451816e-06 1.6123417e-06 1.3816308e-06 1.222262e-06 1.1679538e-06
1.1017827e-06 1.037851e-06 9.4281177e-07 8.7355465e-07 7.9559663e-07 7.1794335e-07 6.49622e-07 6.0224505e-07
5.500064e-07 5.315944e-07 5.0831835e-07 4.7747056e-07 4.610391e-07 4.2109963e-07 3.158437e-07 2.1782832e-07
1.6261733e-07 1.266279e-07 1.0166462e-07 7.557113e-08 6.2735204e-08 5.407532e-08 6.072161e-08 1.3337281e-07
1.3457719e-07 1.345739e-07 8.473522e-06 9.026408e-06 1.0240937e-05 1.14185295e-05 1.178537e-05 1.16321635e-05
1.1219265e-05 1.0640167e-05 9.986543e-06 9.1106995e-06 8.404898e-06 7.723533e-06 6.8278327e-06 5.853233e-06
4.862949e-06 3.9929e-06 3.2421876e-06 2.5996044e-06 2.0697264e-06 1.6237448e-06 1.2912889e-06 1.0444061e-06
8.7937383e-07 7.709445e-07 6.846233e-07 6.1694976e-07 5.783505e-07 5.5042085e-07 5.3628986e-07 5.21772e-07
