results/90RC2/Park90RC/Park90RC-2358694.pt (torch, 825364 bytes, 52 tensors)

network_body.observation_encoder.processors.0.normalizer.running_mean f4 [90]
0.52294916 0.5215812 0.5161624 0.50582474 0.5002913 0.4992135 0.5013069 0.5073207
0.51661175 0.53099287 0.5488833 0.57007384 0.5945532 0.62232286 0.6526395 0.6856936
0.71859306 0.75165683 0.78181994 0.8081908 0.83239883 0.8537676 0.87265265 0.8899156
0.9051103 0.91612667 0.9231135 0.92828786 0.9329876 0.93773293 0.9425711 0.9478462
0.9532598 0.96014744 0.97043633 0.9778063 0.9843156 0.9892436 0.99274254 0.99555975
0.9990881 0.9999762 0.9999789 0.99998325 0.9999815 0.9999814 0.52414376 0.52363306
0.51755494 0.51112163 0.5064017 0.50332546 0.50329375 0.50694597 0.5159415 0.5284001
0.5437495 0.56072646 0.5817068 0.6061444 0.6334991 0.6646743 0.6973822 0.73104817
0.76432306 0.79592097 0.82333714 0.8465854 0.8643648 0.87889403 0.8935065 0.9069685
0.91678804 0.923971 0.9293931 0.93412775 0.9398671 0.94560885 0.9512968 0.95905876
0.96847755 0.9766289 0.98374385 0.9903795 0.99427855 0.99860346 0.99997866 0.9999803
0.99998 0.9999813
00000000: ffdf 053f 5886 053f 3823 043f bb7d 013f
00000010: 1713 003f e998 ff3e a655 003f c5df 013f
00000020: ab40 043f 26ef 073f 9e83 0c3f 5cf0 113f
00000030: a334 183f 8d50 1f3f 6213 273f 9e89 2f3f
00000040: b7f5 373f 956c 403f 5a25 483f 98e5 4e3f
00000050: 1718 553f 8390 5a3f 2a66 5f3f 82d1 633f
00000060: 4fb5 673f 4787 6a3f 2b51 6c3f 46a4 6d3f
00000070: 46d8 6e3f 440f 703f 574c 713f 0ca6 723f
00000080: d608 743f 39cc 753f 846e 783f 8451 7a3f
00000090: 1bfc 7b3f 123f 7d3f 6024 7e3f 01dd 7e3f
000000a0: 3dc4 7f3f 71fe 7f3f 9efe 7f3f e7fe 7f3f
000000b0: cafe 7f3f c8fe 7f3f 492e 063f d10c 063f
000000c0: 7b7e 043f ded8 023f 8ba3 013f f0d9 003f
000000d0: dcd7 003f 36c7 013f be14 043f 3b45 073f
000000e0: 2b33 0b3f c58b 0f3f bdea 143f 482c 1b3f
000000f0: ff2c 223f 1828 2a3f a487 323f f925 3b3f
00000100: adaa 433f 7ac1 4b3f 39c6 523f d2b9 583f
00000110: 0347 5d3f 33ff 603f d8bc 643f 162f 683f
00000120: 9fb2 6a3f 5d89 6c3f b5ec 6d3f ff22 6f3f
00000130: 219b 703f 6c13 723f 3088 733f e084 753f
00000140: 25ee 773f 5a04 7a3f a3d6 7b3f 8389 7d3f
00000150: 0a89 7e3f 7aa4 7f3f 9afe 7f3f b5fe 7f3f
00000160: b0fe 7f3f c6fe 7f3f

network_body.observation_encoder.processors.0.normalizer.running_variance f4 [90]
134710.83 133838.2 131153.53 129640.35 137693.75 149635.7 161761.23 172771.05
184061.19 195845.42 207800.2 219174.06 230086.22 240456.56 249365.48 255583.03
257734.56 255303.62 248836.67 239577.8 228372.53 215112.73 200048.81 182687.84
164776.5 150778.75 141577.97 134419.36 126845.516 118643.16 109955.16 100122.33
89742.4 76832.36 58022.38 44000.816 31359.092 21523.762 14387.685 8658.312
1701.4586 11.9047785 8.886398 8.897348 9.840464 10.054802 136016.02 135451.84
131386.23 131554.86 137606.67 147494.69 160283.61 173710.95 186309.33 198163.47
208998.66 218082.97 226661.73 235155.0 243090.9 250639.86 255024.73 255843.02
252650.39 246328.58 237739.81 228022.83 217247.72 203807.56 185896.4 167056.2
152322.25 141235.53 132048.28 123693.32 113425.35 103047.375 92578.26 78472.305
61191.52 45791.637 31927.342 18871.287 11084.657 2642.7788 11.213011 10.439358
10.793748 10.204085
00000000: b58d 0348 8db3 0248 6214 0048 2d34 fd47
00000010: 7077 0648 ed20 1248 4ff8 1d48 c3b8 2848
00000020: 4cbf 3348 5b41 3f48 0dee 4a48 8409 5648
00000030: 8eb1 6048 24d2 6a48 5f85 7348 c297 7948
00000040: a4b1 7b48 e851 7948 2b01 7348 73f6 6948
00000050: 2205 5f48 2f12 5248 345c 4348 f667 3248
00000060: 20ea 2048 b03e 1348 7e42 0a48 d744 0348
00000070: c2be f747 94b9 e747 94c1 d647 2a8d c347
00000080: 3347 af47 2e10 9647 61a6 6247 d1e0 2b47
00000090: 2ffe f446 8627 a846 bdce 6046 3f49 0746
000000a0: adae d444 f979 3e41 b02e 0e41 8a5b 0e41
000000b0: 8a72 1d41 78e0 2041 01d4 0448 f646 0448
000000c0: 8f4e 0048 b778 0048 ab61 0648 ac09 1048
000000d0: e786 1c48 bda3 2948 55f1 3548 de84 4148
000000e0: aa19 4c48 bef8 5448 6f59 5d48 c0a4 6548
000000f0: ba64 6d48 f7c3 7448 2f0c 7948 c1d8 7948
00000100: 99ba 7648 258e 7048 f42a 6848 b5ad 5e48
00000110: ee27 5448 e407 4748 1a8a 3548 0d24 2348
00000120: 90c0 1448 e2ec 0948 12f4 0048 a996 f147
00000130: ad88 dd47 b043 c947 21d1 b447 2744 9947
00000140: 8507 6f47 a3df 3247 af6e f946 936e 9346
00000150: a132 2d46 762c 2545 7e68 3341 9c07 2741
00000160: 31b3 2c41 ef43 2341

network_body.processors.0.normalizer.running_mean f4 [90]
0.52294916 0.5215812 0.5161624 0.50582474 0.5002913 0.4992135 0.5013069 0.5073207
0.51661175 0.53099287 0.5488833 0.57007384 0.5945532 0.62232286 0.6526395 0.6856936
0.71859306 0.75165683 0.78181994 0.8081908 0.83239883 0.8537676 0.87265265 0.8899156
0.9051103 0.91612667 0.9231135 0.92828786 0.9329876 0.93773293 0.9425711 0.9478462
0.9532598 0.96014744 0.97043633 0.9778063 0.9843156 0.9892436 0.99274254 0.99555975
0.9990881 0.9999762 0.9999789 0.99998325 0.9999815 0.9999814 0.52414376 0.52363306
0.51755494 0.51112163 0.5064017 0.50332546 0.50329375 0.50694597 0.5159415 0.5284001
0.5437495 0.56072646 0.5817068 0.6061444 0.6334991 0.6646743 0.6973822 0.73104817
0.76432306 0.79592097 0.82333714 0.8465854 0.8643648 0.87889403 0.8935065 0.9069685
0.91678804 0.923971 0.9293931 0.93412775 0.9398671 0.94560885 0.9512968 0.95905876
0.96847755 0.9766289 0.98374385 0.9903795 0.99427855 0.99860346 0.99997866 0.9999803
0.99998 0.9999813
00000000: ffdf 053f 5886 053f 3823 043f bb7d 013f
00000010: 1713 003f e998 ff3e a655 003f c5df 013f
00000020: ab40 043f 26ef 073f 9e83 0c3f 5cf0 113f
00000030: a334 183f 8d50 1f3f 6213 273f 9e89 2f3f
00000040: b7f5 373f 956c 403f 5a25 483f 98e5 4e3f
00000050: 1718 553f 8390 5a3f 2a66 5f3f 82d1 633f
00000060: 4fb5 673f 4787 6a3f 2b51 6c3f 46a4 6d3f
00000070: 46d8 6e3f 440f 703f 574c 713f 0ca6 723f
00000080: d608 743f 39cc 753f 846e 783f 8451 7a3f
00000090: 1bfc 7b3f 123f 7d3f 6024 7e3f 01dd 7e3f
000000a0: 3dc4 7f3f 71fe 7f3f 9efe 7f3f e7fe 7f3f
000000b0: cafe 7f3f c8fe 7f3f 492e 063f d10c 063f
000000c0: 7b7e 043f ded8 023f 8ba3 013f f0d9 003f
000000d0: dcd7 003f 36c7 013f be14 043f 3b45 073f
000000e0: 2b33 0b3f c58b 0f3f bdea 143f 482c 1b3f
000000f0: ff2c 223f 1828 2a3f a487 323f f925 3b3f
00000100: adaa 433f 7ac1 4b3f 39c6 523f d2b9 583f
00000110: 0347 5d3f 33ff 603f d8bc 643f 162f 683f
00000120: 9fb2 6a3f 5d89 6c3f b5ec 6d3f ff22 6f3f
00000130: 219b 703f 6c13 723f 3088 733f e084 753f
00000140: 25ee 773f 5a04 7a3f a3d6 7b3f 8389 7d3f
00000150: 0a89 7e3f 7aa4 7f3f 9afe 7f3f b5fe 7f3f
00000160: b0fe 7f3f c6fe 7f3f

network_body.processors.0.normalizer.running_variance f4 [90]
134710.83 133838.2 131153.53 129640.35 137693.75 149635.7 161761.23 172771.05
184061.19 195845.42 207800.2 219174.06 230086.22 240456.56 249365.48 255583.03
257734.56 255303.62 248836.67 239577.8 228372.53 215112.73 200048.81 182687.84
164776.5 150778.75 141577.97 134419.36 126845.516 118643.16 109955.16 100122.33
89742.4 76832.36 58022.38 44000.816 31359.092 21523.762 14387.685 8658.312
1701.4586 11.9047785 8.886398 8.897348 9.840464 10.054802 136016.02 135451.84
131386.23 131554.86 137606.67 147494.69 160283.61 173710.95 186309.33 198163.47
208998.66 218082.97 226661.73 235155.0 243090.9 250639.86 255024.73 255843.02
252650.39 246328.58 237739.81 228022.83 217247.72 203807.56 185896.4 167056.2
152322.25 141235.53 132048.28 123693.32 113425.35 103047.375 92578.26 78472.305
61191.52 45791.637 31927.342 18871.287 11084.657 2642.7788 11.213011 10.439358
10.793748 10.204085
00000000: b58d 0348 8db3 0248 6214 0048 2d34 fd47
00000010: 7077 0648 ed20 1248 4ff8 1d48 c3b8 2848
00000020: 4cbf 3348 5b41 3f48 0dee 4a48 8409 5648
00000030: 8eb1 6048 24d2 6a48 5f85 7348 c297 7948
00000040: a4b1 7b48 e851 7948 2b01 7348 73f6 6948
00000050: 2205 5f48 2f12 5248 345c 4348 f667 3248
00000060: 20ea 2048 b03e 1348 7e42 0a48 d744 0348
00000070: c2be f747 94b9 e747 94c1 d647 2a8d c347
00000080: 3347 af47 2e10 9647 61a6 6247 d1e0 2b47
00000090: 2ffe f446 8627 a846 bdce 6046 3f49 0746
000000a0: adae d444 f979 3e41 b02e 0e41 8a5b 0e41
000000b0: 8a72 1d41 78e0 2041 01d4 0448 f646 0448
000000c0: 8f4e 0048 b778 0048 ab61 0648 ac09 1048
000000d0: e786 1c48 bda3 2948 55f1 3548 de84 4148
000000e0: aa19 4c48 bef8 5448 6f59 5d48 c0a4 6548
000000f0: ba64 6d48 f7c3 7448 2f0c 7948 c1d8 7948
00000100: 99ba 7648 258e 7048 f42a 6848 b5ad 5e48
00000110: ee27 5448 e407 4748 1a8a 3548 0d24 2348
00000120: 90c0 1448 e2ec 0948 12f4 0048 a996 f147
00000130: ad88 dd47 b043 c947 21d1 b447 2744 9947
00000140: 8507 6f47 a3df 3247 af6e f946 936e 9346
00000150: a132 2d46 762c 2545 7e68 3341 9c07 2741
00000160: 31b3 2c41 ef43 2341

network_body._body_endoder.seq_layers.0.weight f4 [128, 90]
0.12781557 0.039299373 -0.094488 0.02579627 0.056533698 -0.06230212 -0.15662187 0.17076047
0.084454216 0.08437928 0.059114955 -0.16827087 0.19824684 0.25161588 0.3041815 0.1001228
0.08849834 0.19918494 0.15827478 0.2794585 0.08090925 0.067027315 0.2651819 0.053650834
0.14367166 0.13105176 0.05531475 0.20146947 0.101331934 0.2027877 0.017258823 -0.089563675
0.03688373 0.31067288 0.0335802 -0.033384852 0.19288494 0.10734634 0.022339871 0.115083985
0.20674735 0.02937142 -0.015274991 0.1554316 0.0072927293 0.07929497 0.07742457 0.034331553
-0.12004778 0.027964206 -0.061343558 0.041883912 0.033970803 -0.027086562 0.059670825 -0.11893564
-0.12317576 0.027528033 -0.011277355 -0.20353016 -0.0419558 -0.04267064 -0.13360667 -0.15064527
-0.09222658 -0.21408606 -0.15423077 -0.106605045 -0.056974687 -0.044876046 -0.077069476 0.15258054
-0.29839364 -0.19703567 0.069096975 0.03636193 0.1148716 0.020178186 0.030438952 0.14351737
-0.11135083 0.10961279 -0.052603137 0.097995795 0.1325817 -0.16626142 0.065357946 0.06408524
0.35484308 0.18487184 -0.078648545 -0.082565375 -0.039649144 0.14035724 -0.1323477 0.17699355
0.20009717 0.16845569 0.12904914 0.22916862 0.113643095 0.1840871 0.15089042 0.08269869
0.022609912 -0.1668892 0.007072849 0.04788168 0.20747235 -0.15463799 0.116056904 0.10648645
0.013144772 0.014792931 0.02020687 0.027507251 0.112360455 0.14597636 0.09657523 0.090750635
0.08996783 -0.026242718 -0.16884838 0.13664152 0.12210823 -0.05615085 0.06441448 0.0037509182
-0.09056458 0.06601743 -0.21346906 -0.060420334 0.11696845 0.11121724 -0.023491872 -0.070082076
-0.050224762 0.14542809 -0.15364513 0.07553544 -0.1364168 -0.026558153 0.071964286 -0.047149304
0.031627502 -0.038908176 -0.19728318 0.009834335 -0.04788352 0.0028032132 0.07120471 0.11245341
-0.06727139 0.18535443 -0.039653 -0.15074919 -0.29589173 -0.06874653 0.026324088 -0.10968111
-0.029190077 0.068867214 -0.076938584 0.0066528376 0.090003625 0.06515475 -0.08402797 -0.07476684
0.068740994 -0.018205268 -0.055362534 -0.048660442 -0.041674603 -0.0111873085 0.18516512 -0.13352856
-0.056710582 -0.09285379 -0.059603814 0.10397009 -0.09531251 -0.21064416 -0.21653806 -0.06094744
-0.01244002 0.17415793 -0.07293783 0.11861835 0.1999019 0.04240912 0.04418535 -0.037128985
-0.002090222 -0.21752432 0.020132191 -0.04366445 -0.12769128 -0.10954966 -0.23889643 0.034856223
-0.24487354 0.033584673 0.018767629 0.13247082 -0.047161486 -0.046310484 0.044743683 0.04754725
-0.01978918 -0.044085976 -0.06846923 -0.15332241 -0.1248536 -0.13197511 -0.31248033 0.1324554
0.16539654 0.1525078 -0.1222329 -0.0031483406 -0.13440593 0.008181689 0.14929564 -0.12709144
0.07260018 -0.09801862 -0.016413271 -0.16083871 -0.13025863 0.056900915 0.083609745 -0.03228278
0.058902282 -0.023754641 0.16578683 -0.04407252 0.293928 0.12477032 0.22920524 0.13396044
0.04889043 0.19482973 0.013978655 0.072224826 -0.034192517 0.068835035 -0.006497972 0.10791884
0.13782938 0.23735839 0.05372187 -0.07535666 -0.05542848 -0.21560408 -0.04909035 0.009235436
00000000: 16e2 023e 61f8 203d ed82 c1bd b352 d33c
00000010: e18f 673d 8230 7fbd 7c61 20be d5db 2e3e
00000020: 55f6 ac3d 0bcf ac3d 8622 723d 334f 2cbe
00000030: 3801 4b3e ccd3 803e adbd 9b3e 2f0d cd3d
00000040: 9e3e b53d 23f7 4b3e c912 223e 2f15 8f3e
00000050: c0b3 a53d 9e45 893d ecc5 873e fac0 5b3d
00000060: aa1e 133e 6f32 063e b891 623d 034e 4e3e
00000070: 1e87 cf3d 94a7 4f3e 6062 8d3c 296d b7bd
00000080: 6513 173d 8410 9f3e 648b 093d 8ebe 08bd
00000090: a183 453e 66d8 db3d 1b02 b73c 27b1 eb3d
000000a0: 94b5 533e 559c f03c f543 7abc 7629 1f3e
000000b0: d9f7 ee3b 6765 a23d c690 9e3d 3e9f 0c3d
000000c0: 9cdb f5bd 3115 e53c 6243 7bbd 778e 2b3d
000000d0: f824 0b3d a3e4 ddbc 6569 743d 8794 f3bd
000000e0: 9343 fcbd 7882 e13c a8c4 38bc 366a 50be
000000f0: d8d9 2bbd 69c7 2ebd 30d0 08be c142 1abe
00000100: 4ae1 bcbd 6039 5bbe acee 1dbe bf53 dabd
00000110: 4a5e 69bd f2cf 37bd 9ad6 9dbd 133e 1c3e
00000120: 0dc7 98be b8c3 49be b782 8d3d 3ff0 143d
00000130: cd41 eb3d b94c a53c 1c5b f93c 38f6 123e
00000140: e70b e4bd ac7c e03d 6376 57bd 05b2 c83d
00000150: 7fc3 073e 6f40 2abe 63da 853d 1f3f 833d
00000160: fead b53e 0b4f 3d3e 7d12 a1bd 0918 a9bd
00000170: 2467 22bd cfb9 0f3e 2886 07be cc3d 353e
00000180: 46e6 4c3e a67f 2c3e 7525 043e 2eab 6a3e
00000190: b6bd e83d 5481 3c3e 0583 1a3e ee5d a93d
000001a0: 6c38 b93c 01e5 2abe 5cc3 e73b 951f 443d
000001b0: a273 543e 6c59 1ebe 3eaf ed3d 9115 da3d
000001c0: 2b5d 573c 0d5e 723c e188 a53c e356 e13c
000001d0: 3d1d e63d d47a 153e 3cc9 c53d 78db b93d
000001e0: 0e41 b83d f8fa d6bc 97e6 2cbe c1eb 0b3e
000001f0: e113 fa3d 6ffe 65bd bdeb 833d f7d1 753b
00000200: ec79 b9bd 2534 873d a297 5abe 507b 77bd
00000210: 288d ef3d ddc5 e33d 0772 c0bc 3187 8fbd
00000220: 7bb8 4dbd 1aeb 143e 2655 1dbe 53b2 9a3d
00000230: d8b0 0bbe 7c90 d9bc 0362 933d a11f 41bd
00000240: d78b 013d 2e5e 1fbd 9a04 4abe 3120 213c
00000250: 8321 44bd 1db6 373b c6d3 913d f94d e63d
00000260: 95c5 89bd 8dcd 3d3e 2f6b 22bd ff5d 1abe
00000270: 1f7f 97be fbca 8cbd 9da5 d73c 7da0 e0bd
00000280: 0720 efbc 410a 8d3d fa91 9dbd 0c00 da3b
00000290: d253 b83d db6f 853d db16 acbd 5b1f 99bd
000002a0: 14c8 8c3d 3723 95bc d3c3 62bd 2c50 47bd
000002b0: fdb2 2abd f94a 37bc ed9b 3d3e b6bb 08be
000002c0: 5b49 68bd 212a bebd 2123 74bd 45ee d43d
000002d0: 3533 c3bd 1ab3 57be 27bc 5dbe 06a4 79bd
000002e0: 3ad1 4bbc 7556 323e 6e60 95bd 2dee f23d
000002f0: 15b3 4c3e 2fb5 2d3d b3fb 343d 9014 18bd
00000300: 1bfc 08bb b2be 5ebe 44ec a43c 7fd9 32bd
00000310: 81c1 02be 925b e0bd 44a1 74be 66c5 0e3d
00000320: 21c0 7abe 1590 093d 92be 993c 6ea6 073e
00000330: 672c 41bd 10b0 3dbd 2745 373d e8c0 423d
00000340: eb1c a2bc 7f93 34bd 9839 8cbd 8d00 1dbe
00000350: 3fb3 ffbd 7c24 07be 6cfd 9fbe 63a2 073e
00000360: b65d 293e 012b 1c3e 3e55 fabd 6454 4ebb
00000370: b5a1 09be 7e0c 063c f5e0 183e 4224 02be
00000380: 67af 943d fcbd c8bd 2075 86bc e7b2 24be
00000390: 8562 05be ef10 693d 963b ab3d f33a 04bd
000003a0: 8543 713d 1899 c2bc 06c4 293e 6385 34bd
000003b0: bb7d 963e 9587 ff3d c7b4 6a3e ed2c 093e
000003c0: 5541 483d 7281 473e bb06 653c 9cea 933d
000003d0: 740d 0cbd 62f9 8c3d f1ec d4bb 8e04 dd3d
000003e0: 2523 0d3e 140e 733e 770b 5c3d 9854 9abd
000003f0: f908 63bd 51c7 5cbe f612 49bd 3a50 173c

network_body._body_endoder.seq_layers.0.bias f4 [128]
0.078332104 0.025553713 -0.006188928 -0.13174342 0.06789717 0.029648174 0.04857974 0.07683659
0.04449449 0.11118002 -0.036978453 0.074197024 0.08292013 -0.050402846 -0.015257732 -0.0010564914
0.017081615 0.07751541 0.103020586 0.0386294 0.005709838 0.041255284 0.046214905 0.13810971
0.11934911 0.044396464 -0.062117595 -0.0090226885 0.09240251 0.0667993 0.059767094 0.08447633
0.050380647 0.09285223 0.045689374 0.0055580446 0.015382477 0.033340313 0.032087937 0.09079464
0.09500762 0.090708375 -0.09433912 -0.053817805 0.057737224 0.045922063 -0.026756369 0.104504496
0.06068305 -0.020813677 0.02424586 0.035275538 0.108607195 0.056036994 0.081084065 0.03029418
0.057425946 0.07157184 0.06853423 0.01636117 0.046242815 -0.026120981 0.0017061036 0.07956712
0.0663487 0.06535108 -0.028749596 0.07370969 0.055619415 0.0319508 0.064540036 -0.08286455
-0.09217417 0.12009312 0.05523517 0.03881322 0.10290161 0.044783913 0.065077126 0.050683673
0.10317051 -0.049826708 0.06063308 -0.082076214 -0.068183176 -0.04711308 0.02918376 -0.04986396
0.023003412 -0.05470911 0.12216961 -0.006048509 0.022717558 0.07150506 0.07178162 0.051843826
0.07185157 0.11661402 0.07771075 -0.012413908 0.041087344 0.0809276 -0.040588498 0.06845028
-0.058747586 -0.014385662 0.025686197 0.0055166585 0.072971396 0.04485987 0.063463576 0.055569824
0.078844376 0.0016041391 0.04733508 0.050439876 0.03152963 0.02719443 -0.004065855 0.075415544
0.07363454 0.02429502 0.026512802 0.11762572 0.08891633 -0.0535542 0.05126362 0.07432952
00000000: 956c a03d 0556 d13c 7ecc cabb bfe7 06be
00000010: ac0d 8b3d bae0 f23c 8dfb 463d 815c 9d3d
00000020: db3f 363d 5ab2 e33d b876 17bd 9cf4 973d
00000030: 07d2 a93d 3773 4ebd 91fb 79bc f879 8aba
00000040: beee 8b3c 66c0 9e3d 75fc d23d dd39 1e3d
00000050: 9819 bb3b 4dfb 283d d74b 3d3d a26c 0d3e
00000060: 4e6d f43d 11d9 353d 056f 7ebd e6d3 13bc
00000070: 873d bd3d 12ce 883d 57ce 743d ed01 ad3d
00000080: f05b 4e3d 4f29 be3d c824 3b3d 4220 b63b
00000090: c906 7c3c da8f 083d a46e 033d 8af2 b93d
000000a0: 5b93 c23d 50c5 b93d de34 c1bd 0f70 5cbd
000000b0: de7d 6c3d c618 3c3d 2c30 dbbc 7406 d63d
000000c0: ca8e 783d 7281 aabc 419f c63c 157d 103d
000000d0: 736d de3d 0c87 653d 670f a63d 802b f83c
000000e0: 7837 6b3d 4294 923d ad5b 8c3d dc07 863c
000000f0: 1b69 3d3d abfb d5bc 569f df3a 16f4 a23d
00000100: d4e1 873d c9d6 853d 4684 ebbc 1bf5 963d
00000110: 2fd1 633d d8de 023d 912d 843d e4b4 a9bd
00000120: d0c5 bcbd 62f3 f53d 463e 623d 9cfa 1e3d
00000130: 14be d23d 566f 373d 2847 853d af99 4f3d
00000140: 0f4b d33d 1717 4cbd 645a 783d 9317 a8bd
00000150: 9fa3 8bbd a5f9 40bd c812 ef3c 273e 4cbd
00000160: a771 bc3c a916 60bd 0f34 fa3d 9232 c6bb
00000170: 2c1a ba3c 3f71 923d 3e02 933d 315a 543d
00000180: ea26 933d 55d3 ee3d d026 9f3d b463 4bbc
00000190: 344b 283d 5fbd a53d 2040 26bd a92f 8c3d
000001a0: 4fa1 70bd d7b1 6bbc dc6b d23c 16c5 b43b
000001b0: 0772 953d fcbe 373d 31f9 813d 2f9d 633d
000001c0: 2979 a13d fa41 d23a 6ee2 413d 0b9a 4e3d
000001d0: 3725 013d dac6 de3c dd3a 85bb 7773 9a3d
000001e0: b5cd 963d 5a06 c73c 6031 d93c c1e5 f03d
000001f0: c419 b63d a65b 5bbd cdf9 513d 133a 983d

network_body._body_endoder.seq_layers.2.weight f4 [128, 128]
0.21095729 -0.0009814026 0.122748986 -0.1811924 0.064365186 0.10272155 0.113439955 0.24652357
-0.03065352 -0.036749072 -0.050827194 0.25180858 0.04146541 0.050877847 -0.17992985 -0.25041106
0.0051524695 -0.03515196 -0.19360335 0.054887667 0.0032356938 -0.12025063 0.041153915 0.054160673
-0.046569303 -0.011244979 -0.18019144 0.018716324 -0.018141221 0.21644874 -0.13573726 0.04720663
0.048226252 0.19626606 -0.047177445 0.19665639 -0.08683639 0.09156776 -0.013614775 0.21345957
0.13484181 0.12909815 0.11420735 0.11258026 0.024805577 -0.00021763476 -0.10686674 0.09059151
0.15095319 0.080701366 0.025125688 0.019645972 0.15371257 -0.096360184 -0.099047534 -0.03913885
-0.08228876 -0.10872905 -0.04931868 0.1257081 -0.042380217 0.074713245 -0.26478434 0.20856044
0.024686584 -0.04948524 0.048486747 0.013533316 -0.07255803 0.103438035 0.15068245 0.04493522
-0.058358014 -0.044696495 -0.013257844 -0.12760858 0.19383046 0.03814394 0.13100392 -0.014424409
0.13280426 -0.078371584 0.08597014 -0.09830098 -0.046876114 -0.038981594 0.09424226 0.09976213
0.055184063 -0.08729728 -0.122018754 0.06589693 -0.1272409 0.17692834 0.0824625 0.015369024
0.12664412 0.017858783 0.048834648 -0.10195863 0.029509792 0.1349206 0.18900388 0.22293676
-0.066315375 -0.047545888 -0.17854089 -0.025443701 0.04401788 0.08401957 0.12148867 0.085432656
-0.051457442 -0.16421008 -0.06211894 -0.09066325 0.18549062 -0.06258692 0.018038936 0.1778284
0.039151225 -0.015597296 -0.0052395663 0.23700549 -0.09022133 0.086707994 -0.0727944 0.06639907
-0.017285086 0.019274982 -0.000918113 -0.03780718 -0.14844972 -0.17569418 -0.14803399 -0.122043885
-0.004745105 -0.1625794 0.13554074 -0.09239031 0.045213725 -0.030750195 0.14019644 0.101007745
-0.0745383 -0.03012498 -0.08920174 -0.10170642 0.023683107 0.005324356 0.0658239 -0.05843944
-0.019532656 -0.13630562 -0.12926778 -0.033056527 -0.13247591 0.010084068 -0.028869336 0.012005292
0.077328585 -0.08142453 0.014715507 -0.02046317 -0.11942483 0.051977005 -0.19205241 -0.080396175
-0.09148593 -0.1390484 -0.022615954 0.115330964 -0.018893136 0.060284134 0.06537243 0.07118324
0.034613546 -0.10331537 -0.09010122 -0.19015786 -0.1020741 0.1280153 -0.14267808 0.12590776
0.026750188 -0.09480437 0.06711048 0.078363575 -0.15430813 -0.056892484 0.03327052 0.06978378
-0.0048367768 0.07642407 -0.029425252 -0.048178658 -0.108303346 0.002375253 -0.080356635 -0.08423078
0.0014028233 -0.13373396 -0.07422491 -0.16053966 -0.07317934 0.0232697 0.04024361 0.024295922
-0.13490501 0.19106264 -0.06520507 -0.03570417 0.14586495 0.031702183 -0.21262941 0.04593648
0.0637559 0.116873436 -0.07299781 0.019757463 -0.0913685 0.03935879 -0.055990536 -0.1533511
-0.04213031 0.06918877 0.010662071 0.117885254 -0.12332756 -0.1349055 -0.22482753 -0.118892655
0.038645744 -0.085997224 -0.1381043 -0.11942567 -0.01874502 0.10610619 0.12725958 -0.08174261
-0.13469869 -0.05608873 0.008901876 0.26409495 -0.15437675 -0.025296306 0.1861771 0.11716222
-0.05166357 -0.07423716 -0.031487092 -0.09401816 -0.03071748 0.05249785 0.115111604 0.06398312
00000000: 3005 583e 68a2 80ba d263 fb3d 808a 39be
00000010: e5d1 833d ad5f d23d 3553 e83d ad70 7c3e
00000020: 171d fbbc 3286 16bd 2d30 50bd 0eed 803e
00000030: a2d7 293d 4a65 503d 883f 38be e135 80be
00000040: 0cd6 a83b 80fb 0fbd f53f 46be e4d1 603d
00000050: ef0d 543b f645 f6bd 0291 283d 95d7 5d3d
00000060: 74bf 3ebd dc3c 38bc 1b84 38be fa52 993c
00000070: e69c 94bc bda4 5d3e b5fe 0abe bd5b 413d
00000080: e488 453d f8f9 483e 233d 41bd 4b60 493e
00000090: 47d7 b1bd e187 bb3d 8110 5fbc 2595 5a3e
000000a0: f913 0a3e 4e32 043e 8be5 e93d 7b90 e63d
000000b0: 1135 cb3c e334 64b9 f3dc dabd 0b88 b93d
000000c0: 7993 1a3e c246 a53d 63d4 cd3c 97f0 a03c
000000d0: d466 1d3e 7d58 c5bd 6fd9 cabd 0f50 20bd
000000e0: 0287 a8bd 56ad debd 6202 4abd a0b9 003e
000000f0: e196 2dbd 4203 993d d091 87be de90 553e
00000100: 853b ca3c 09b1 4abd 0a9a 463d d7ba 5d3c
00000110: 4e99 94bd 52d7 d33d 804c 1a3e fe0d 383d
00000120: d008 6fbd ac13 37bd 6e37 59bc d3ab 02be
00000130: 7e7b 463e d23c 1c3d e425 063e 5b54 6cbc
00000140: d7fd 073e 4881 a0bd 1d11 b03d 0652 c9bd
00000150: 2b01 40bd 2aab 1fbd 1602 c13d 1650 cc3d
00000160: af08 623d ebc8 b2bd f8e4 f9bd f8f4 863d
00000170: 704b 02be b42c 353e 19e2 a83d 5cce 7b3c
00000180: ffae 013e 954c 923c d706 483d b0cf d0bd
00000190: 85be f13c a028 0a3e 3c8a 413e 8949 643e
000001a0: 5bd0 87bd 7abf 42bd 6cd3 36be 4f6f d0bc
000001b0: 184c 343d 7412 ac3d 0dcf f83d 51f7 ae3d
000001c0: 0ac5 52bd b026 28be 6e70 7ebd a7ad b9bd
000001d0: 41f1 3d3e 922d 80bd 64c6 933c a618 363e
000001e0: 095d 203d cd8b 7fbc abb0 abbb 91b1 723e
000001f0: f6c5 b8bd f693 b13d 3b15 95bd 3cfc 873d
00000200: 7499 8dbc 91e6 9d3c 85ad 70ba b4db 1abd
00000210: 3403 18be 2de9 33be 3996 17be 25f2 f9bd
00000220: d37c 9bbb 377b 26be 31cb 0a3e 2137 bdbd
00000230: 0732 393d d5e7 fbbc a88f 0f3e 26dd ce3d
00000240: 89a7 98bd a9c8 f6bc 67af b6bd 754b d0bd
00000250: 1303 c23c ef77 ae3b aece 863d 325e 6fbd
00000260: f302 a0bc b393 0bbe c65e 04be 4866 07bd
00000270: c4a7 07be a637 253c 637f ecbc d8b1 443c
00000280: 735e 9e3d e7c1 a6bd 4f19 713c 61a2 a7bc
00000290: 0195 f4bd d7e5 543d 63a9 44be c0a6 a4bd
000002a0: fa5c bbbd b462 0ebe 1845 b9bc a432 ec3d
000002b0: c7c5 9abc 7fec 763d fbe1 853d 85c8 913d
000002c0: efc6 0d3d 0297 d3bd fd86 b8bd beb8 42be
000002d0: 3a0c d1bd 7116 033e 341a 12be f7ed 003e
000002e0: 3623 db3c cb28 c2bd 3871 893d 157d a03d
000002f0: f302 1ebe 1808 69bd ab46 083d ccea 8e3d
00000300: d37d 9ebb 3984 9c3d 3a0d f1bc fc56 45bd
00000310: 25ce ddbd 22aa 1b3b 0592 a4bd 3081 acbd
00000320: f0de b73a 8ef1 08be 3b03 98bd 8264 24be
00000330: 0ddf 95bd 19a0 be3c 7cd6 243d 3e08 c73c
00000340: 8a24 0abe eda5 433e 3c8a 85bd 893e 12bd
00000350: 9f5d 153e 26da 013d 86bb 59be e427 3c3d
00000360: 7492 823d 575b ef3d e07f 95bd 67da a13c
00000370: 681f bbbd af36 213d 5556 65bd 1208 1dbe
00000380: d590 2cbd d8b2 8d3d f8af 2e3c d36d f13d
00000390: 2993 fcbd ab24 0abe 3039 66be fe7d f3bd
000003a0: 004b 1e3d 501f b0bd 376b 0dbe 7295 f4bd
000003b0: 288f 99bc 344e d93d 5650 023e ab68 a7bd
000003c0: 74ee 09be 4cbd 65bd 2dd9 113c 7437 873e
000003d0: f014 1ebe 333a cfbc 36a5 3e3e bff2 ef3d
000003e0: 2e9d 53bd a709 98bd 9cf8 00bd 988c c0bd
000003f0: 3aa3 fbbc fc07 573d a2bf eb3d 9509 833d

network_body._body_endoder.seq_layers.2.bias f4 [128]
0.09479275 -0.07970382 -0.07648949 0.046708435 0.08102361 -0.06739913 -0.09073906 0.07414483
0.061023995 0.038759977 0.11403242 -0.09342718 0.044590343 0.04283593 -0.10044348 0.08993272
-0.07032904 -0.060377147 -0.14285882 -0.09800162 0.08936166 0.07123841 -0.11725631 -0.019864565
0.13053471 -0.05487741 -0.05106222 0.11907213 0.031205017 0.040792674 0.052551586 0.1032371
0.048517384 -0.11763244 -0.013045026 -0.05132938 0.096559316 -0.09019935 -0.046406657 -0.14549045
0.10794077 0.106876425 -0.0766796 -0.087338775 0.043274507 0.093659356 0.018484592 0.107622236
-0.053903427 0.0518275 -0.108026646 0.07107943 -0.033463247 -0.14170557 -0.1086356 -0.12940864
0.06515096 0.060617413 0.06534988 0.028949697 0.10439102 0.023354124 0.07943771 -0.08212243
-0.041439336 -0.017643737 -0.055048272 -0.10593512 -0.08387702 0.021172337 0.0902055 0.061569944
0.030943792 0.06566882 -0.04949218 -0.08603319 -0.042001564 -0.078703135 0.09156343 -0.06417671
-0.050498452 0.063836135 -0.029174222 -0.008574798 -0.06939866 0.05035461 -0.048780385 -0.06434922
-0.06863771 0.08839927 0.015650934 0.021466868 -0.09397047 0.08143518 0.089166686 0.08478024
-0.013022288 0.047208767 0.03073019 0.10645053 -0.05019718 -0.043174397 -0.10392629 0.095288895
-0.06722434 0.1078207 -0.072096035 0.03418352 0.11554883 0.1209411 -0.10419854 0.05957894
0.0668819 0.03792228 0.10492585 -0.020078965 0.07099896 0.112600245 -0.09831316 -0.08152193
-0.11045725 -0.07770381 0.08357847 0.015225172 -0.09171322 -0.1251478 -0.090621166 -0.06526547
00000000: b422 c23d c23b a3bd 86a6 9cbd 5851 3f3d
00000010: b5ef a53d 8e08 8abd 66d5 b9bd 3fd9 973d
00000020: 4cf4 793d c8c2 1e3d d489 e93d c056 bfbd
00000030: 5da4 363d ba74 2f3d 50b5 cdbd a52e b83d
00000040: ac08 90bd 074e 77bd 9549 12be 13b5 c8bd
00000050: 3f03 b73d 72e5 913d 1424 f0bd 03bb a2bc
00000060: e4aa 053e 23c7 60bd 9e26 51bd 17dc f33d
00000070: aaa1 ff3c 3816 273d 5540 573d f96d d33d
00000080: 2aba 463d 47e9 f0bd ceba 55bc c23e 52bd
00000090: e4c0 c53d 70ba b8bd e814 3ebd 73fb 14be
000000a0: 0d10 dd3d 07e2 da3d 320a 9dbd acde b2bd
000000b0: 9c40 313d 7ad0 bf3d 006d 973c 0c69 dc3d
000000c0: d7c9 5cbd 1349 543d 133d ddbd 1892 913d
000000d0: c210 09bd 441b 11be 577c debd b383 04be
000000e0: de6d 853d f749 783d 28d6 853d ea27 ed3c
000000f0: f6ca d53d 2651 bf3c 3db0 a23d ce2f a8bd
00000100: 4bbc 29bd 9989 90bc 4c7a 61bd 83f4 d8bd
00000110: b7c7 abbd 9c71 ad3c a9bd b83d c430 7c3d
00000120: d67d fd3c 607d 863d 50b8 4abd 2b32 b0bd
00000130: d509 2cbd 1c2f a1bd 9c85 bb3d 146f 83bd
00000140: 77d7 4ebd 85bc 823d c7fe eebc 4f7d 0cbc
00000150: e220 8ebd a340 4e3d f1cd 47bd 86c9 83bd
00000160: ed91 8cbd ad0a b53d 6336 803c 49db af3c
00000170: 9773 c0bd 7dc7 a63d 069d b63d 43a1 ad3d
00000180: 6f5b 55bc fb5d 413d e1bd fb3c bc02 da3d
00000190: 8f9b 4dbd a3d7 30bd 4fd7 d4bd d326 c33d
000001a0: eaac 89bd 19d1 dc3d 16a7 93bd 0504 0c3d
000001b0: dda4 ec3d f8af f73d 0b66 d5bd 0c09 743d
000001c0: 61f9 883d 6554 1b3d 5de3 d63d a47c a4bc
000001d0: e767 913d f59a e63d 6958 c9bd f8f4 a6bd
000001e0: 6937 e2bd 2d23 9fbd 302b ab3d 0073 793c
000001f0: 24d4 bbbd bf26 00be 9797 b9bd e7a9 85bd

action_model._continuous_distribution.log_sigma f4 [1, 2]
-0.14694118 0.037741352
00000000: c077 16be ad96 1a3d

action_model._continuous_distribution.mu.weight f4 [2, 128]
0.05014323 0.05374444 -0.0030989395 0.046405274 -6.1536324e-05 0.0025841543 0.020889848 -0.00038355318
-0.00956876 -0.015047229 -0.041381028 0.016215691 -0.030183274 0.07693975 0.12825145 0.01857781
0.01577711 0.0050577833 0.016864901 0.0076182275 -0.00462687 0.024689088 0.0074539855 -0.00491801
-0.09408422 -0.0736942 0.06072694 -0.023587655 0.028245103 0.031755704 0.027077226 -0.020277753
0.03333036 -0.0025935317 0.046038333 0.056438077 0.03846522 0.040509444 0.030079488 0.02749559
-0.033309605 -0.015541204 0.036862023 -0.024518864 -0.002804341 -0.009039769 0.024938978 -0.051077068
-0.019675432 0.08463012 -0.0002570473 0.021578787 0.030695878 0.0087048635 0.0177959 0.012612609
0.075906724 0.054745533 0.03674565 0.039416596 0.004858231 -0.062799804 -0.047296904 -0.016144468
0.0021631499 -0.103220016 0.027283166 0.024710536 -0.032605063 -0.036141634 0.04452657 0.062948495
0.08647088 0.046093933 0.018016348 0.00897195 -0.0722927 0.006450094 0.027048498 0.08481018
0.007974617 0.014020038 0.033205282 0.010470937 0.0203834 0.04073163 0.011441794 -0.011548189
0.04055172 -0.033681888 -0.1242886 -0.060446534 0.0006387312 0.08521492 0.068820894 -0.039809518
-0.0116321985 0.053411 -0.00227214 0.05658584 -0.009082907 -0.007746309 0.0022575003 -0.025219247
-0.046892032 -0.020812936 0.016030079 -0.0012407339 0.047024492 -0.042092208 0.023935685 0.03081734
0.012332527 -0.0012447204 -0.016138097 0.087615006 0.04778315 -0.051998474 0.044099648 0.021365255
-0.012530759 0.02877419 0.0073828236 -0.16011187 0.016749036 0.018680163 0.030353295 -0.036173604
0.07306019 -0.08600596 -0.13497941 0.03880001 0.046137083 -0.12575147 -0.082005344 0.07603991
0.034599934 0.03644274 0.09219379 -0.13749692 0.023045756 0.037837036 -0.006654373 0.05634534
-0.043573 -0.1509333 -0.07709934 -0.07056581 0.059029493 0.053941663 -0.14441992 -0.020682618
0.06647044 -0.045268945 -0.07095991 0.08047642 0.009031096 -0.014958994 0.020154404 0.07666798
0.0022616135 -0.096924685 -0.031782888 -0.09940935 0.06843579 -0.1501292 -0.016095135 -0.07648111
0.06488 0.086244054 -0.010877738 -0.092811 0.047245406 0.09668725 0.022559172 0.049297694
-0.18882838 0.015646886 -0.106159344 0.07352752 -0.16445266 -0.11704968 -0.0923054 -0.11088439
0.05147001 0.022606932 0.039000884 0.029085161 0.070293956 0.033935092 0.062124282 -0.11497119
-0.053552866 -0.03208321 -0.10072941 -0.076698914 -0.091694735 0.013426688 0.044912312 0.053251505
0.019837337 0.05086605 -0.16745403 -0.14549954 -0.04364854 -0.099584885 0.06578097 -0.0015576747
-0.06483361 0.06761925 0.016013687 -0.03275352 -0.13249688 0.017386388 -0.17487492 -0.14736457
-0.06982235 0.057294216 -0.016705347 0.015344001 -0.13036585 0.030783605 0.076725625 0.07204027
-0.022127714 0.01569647 0.015532046 0.03787716 -0.021103336 -0.1757833 -0.05394671 0.058620527
-0.13326986 0.07025294 -0.14965178 0.0627172 0.06928986 0.07708408 -0.1682107 0.015441551
0.025559193 0.027901232 0.076347545 -0.025838295 0.05206317 0.070199735 -0.04985517 -0.15127015
-0.09395712 -0.15669978 0.05779496 -0.015585939 -0.11858579 -0.058908034 -0.03470904 -0.050286587
00000000: fd62 4d3d 2123 5c3d 9417 4bbb 7513 3e3d
00000010: 100d 81b8 ea5a 293b 3021 ab3c a317 c9b9
00000020: 4ac6 1cbc a788 76bc 277f 29bd c5d6 843c
00000030: ea42 f7bc 9692 9d3d 5954 033e 7e30 983c
00000040: ff3e 813c c3bb a53b 4328 8a3c 53a2 f93b
00000050: 009d 97bb c540 ca3c 9040 f43b 4227 a1bb
00000060: 3aaf c0bd fcec 96bd d0bc 783d e63a c1bc
00000070: 4662 e73c 4512 023d 0fd1 dd3c 881d a6bc
00000080: 6a85 083d 3ef8 29bb b192 3c3d 9d2b 673d
00000090: b58d 1d3d 3bed 253d 4269 f63c 6e3e e13c
000000a0: a76f 08bd 89a0 7ebc a2fc 163d c9db c8bc
000000b0: 09c9 37bb 8a1b 14bc d44c cc3c 3036 51bd
000000c0: 5f2e a1bc 8e52 ad3d 4ec4 86b9 ffc5 b03c
000000d0: ec75 fb3c d89e 0e3c b5c8 913c 1ea5 4e3c
000000e0: fc74 9b3d da3c 603d 9b82 163d 4c73 213d
000000f0: cc31 9f3b 2f9d 80bd 66ba 41bd 6741 84bc
00000100: a2c3 0d3b 0465 d3bd f280 df3c c06d ca3c
00000110: e38c 05bd 4009 14bd 7e61 363d 24eb 803d
00000120: a517 b13d fecc 3c3d 0597 933c 16ff 123c
00000130: 320e 94bd 4f5b d33b d094 dd3c f6b0 ad3d
00000140: f8a7 023c 4db4 653c 4302 083d 4b8e 2b3c
00000150: 17fb a63c 36d6 263d 5d76 3b3c 9e34 3dbc
00000160: 8f19 263d 05f6 09bd 068b febd c996 77bd
00000170: 8670 273a 2985 ae3d f8f1 8c3d 4e0f 23bd
00000180: fa94 3ebc 7ec5 5a3d 2fe8 14bb 8ec6 673d
00000190: 79d0 14bc c0d4 fdbb 92f2 133b 9898 cebc
000001a0: dc11 40bd e47f aabc 8351 833c 1fa0 a2ba
000001b0: c19c 403d e168 2cbd c514 c43c a574 fc3c
000001c0: 5e0e 4a3c e325 a3ba 0b34 84bc 7f6f b33d
000001d0: 44b8 433d 5afc 54bd d5a1 343d 3006 af3c
000001e0: d04d 4dbc dab7 eb3c 9deb f13b 5ef4 23be
000001f0: 4635 893c 2407 993c 79a7 f83c c62a 14bd
00000200: 95a0 953d e523 b0bd 0b38 0abe c2ec 1e3d
00000210: 3dfa 3c3d fec4 00be 6bf2 a7bd d0ba 9b3d
00000220: a9b8 0d3d fc44 153d 19d0 bc3d fecb 0cbe
00000230: 74ca bc3c 02fb 1a3d ed0c dabb 5fca 663d
00000240: 9a79 32bd 428e 1abe 42e6 9dbd cf84 90bd
00000250: e9c8 713d eff1 5c3d d1e2 13be 986e a9bc
00000260: a721 883d ee6b 39bd 6e53 91bd d2d0 a43d
00000270: 29f7 133c 9216 75bc d91a a53c 1a04 9d3d
00000280: 9437 143b 7380 c6bd c62e 02bd 2197 cbbd
00000290: 1028 8c3d 78bb 19be f2d9 83bc 21a2 9cbd
000002a0: cedf 843d b9a0 b03d 8a38 32bc b213 bebd
000002b0: 6684 413d f703 c63d 03ce b83c 61ec 493d
000002c0: 3a5c 41be e62d 803c 126a d9bd 9995 963d
000002d0: 4766 28be beb7 efbd 9d0a bdbd 5b17 e3bd
000002e0: 38d2 523d 2c32 b93c 64bf 1f3d 0144 ee3c
000002f0: 47f6 8f3d 86ff 0a3d 0876 7e3d 0476 ebbd
00000300: 405a 5bbd af69 03bd 394b cebd 5214 9dbd
00000310: 73ca bbbd 9cfb 5b3c f9f5 373d 401e 5a3d
00000320: e981 a23c eb58 503d 1279 2bbe d5fd 14be
00000330: d0c8 32bd 29f3 cbbd 2cb8 863d e42a ccba
00000340: 7cc7 84bd f67b 8a3d 232f 833c 8e28 06bd
00000350: 43ad 07be e66d 8e3c 6912 33be bde6 16be
00000360: 05ff 8ebd 57ad 6a3d a7d9 88bc 6865 7b3c
00000370: a07e 05be e62d fc3c 5322 9d3d d989 933d
00000380: 2e45 b5bc e295 803c 1f7a 7e3c 1525 1b3d
00000390: e7e0 acbc 8a00 34be 3af7 5cbd 141c 703d
000003a0: e577 08be c6e0 8f3d 513e 19be e071 803d
000003b0: d8e7 8d3d 42de 9d3d 6d3f 2cbe 8ffe 7c3c
000003c0: 8361 d13c 2091 e43c 1a5c 9c3d d5aa d3bc
000003d0: 3140 553d e1c4 8f3d ef34 4cbd 90e6 1abe
000003e0: 976c c0bd e875 20be 68ba 6c3d 2b5c 7fbc
000003f0: 1bdd f2bd 8d49 71bd 112b 0ebd 4ff9 4dbd

action_model._continuous_distribution.mu.bias f4 [2]
-0.004806979 0.12750317
00000000: dd83 9dbb 3190 023e

exp_avg f4 [128, 90]
0.00071485294 0.000735361 0.00061322085 0.00059067627 0.0005707556 0.0006002771 0.0006202438 0.0006702275
0.0005435731 0.00048376486 0.00037716798 0.00029606986 0.00021281587 0.00039164734 0.00049124844 0.0005585254
0.00035953414 0.00016382079 0.00011051073 4.520848e-05 4.4697692e-05 1.721296e-05 2.825449e-05 5.326183e-05
0.00012364531 0.00013501121 0.00015616974 0.00015825547 0.0001710972 0.0001724987 0.00015985659 0.0001547768
0.00013937878 0.00012910725 0.00010951683 9.410991e-05 7.898061e-05 6.518026e-05 5.3958956e-05 4.2558968e-05
1.9694256e-05 6.1415135e-06 6.3067178e-06 5.0030994e-06 5.24828e-06 5.2255364e-06 0.0006569044 0.0006304639
0.0006982237 0.0005998013 0.00075046637 0.00077202916 0.0007012767 0.00074404996 0.00057773996 0.00036632252
0.00027903408 0.00030929563 0.00030287003 0.0003482803 0.00031094998 0.00055868 0.00049815833 0.00044374922
-3.392785e-05 -0.00022732357 -0.00019226818 -0.00010648864 -7.309071e-05 -9.39389e-05 -0.00014725536 -0.00018308422
-0.00020122321 -9.2353876e-05 6.7304274e-05 0.00015228985 0.00024549445 9.487329e-05 0.00021050047 0.00014303424
0.0001125738 9.667462e-05 7.636784e-05 6.172898e-05 4.9663686e-05 2.4200597e-05 5.6778645e-06 5.4406937e-06
5.4314555e-06 5.2204223e-06 -8.706358e-05 -0.00010129001 0.00019407358 0.0001845619 0.00017911165 0.00012520458
0.00011560602 2.7486587e-06 -2.4137014e-05 -5.3685417e-05 -2.5489031e-05 9.06091e-05 0.00014342772 0.00013486767
0.00015495504 0.00026496372 0.00026441968 0.0001999498 0.0002474997 0.00014414686 0.00014649433 0.00013889353
0.00013452959 0.00011738669 0.0001174887 -1.5193259e-05 6.198473e-06 3.579677e-05 3.7646387e-05 4.272613e-05
2.307163e-05 1.9482111e-05 2.3076218e-05 2.0047004e-05 1.5019463e-05 1.3398562e-05 1.0830489e-05 8.39655e-06
7.088295e-06 5.346355e-06 2.683668e-06 8.3842224e-07 8.609751e-07 6.830073e-07 7.1647804e-07 7.133748e-07
-0.00041343682 -0.00038265923 -0.00033945142 -0.00025253437 -0.00025347975 -0.00020937297 -0.00017473608 -0.00031345617
-9.236738e-05 -3.0853545e-05 -6.1551706e-05 3.9976047e-05 3.310116e-05 1.7462067e-05 5.325672e-05 -0.000118686025
-0.00010433893 3.494263e-05 4.4441356e-05 8.303774e-05 8.461174e-05 6.9125694e-05 5.9275204e-05 4.1613668e-05
1.04577e-05 -2.2172671e-05 -8.420569e-06 1.3093355e-05 2.9928184e-05 3.4833953e-05 4.380992e-05 2.9038923e-05
3.806864e-05 2.839771e-05 2.1474401e-05 1.6856515e-05 1.2716422e-05 1.0088397e-05 7.633781e-06 3.2974087e-06
7.751251e-07 7.4274675e-07 7.4148454e-07 7.1267607e-07 0.00025340344 0.00021165743 -1.9889898e-05 -9.6317206e-05
-0.00028075313 -0.00028508872 -0.00037720386 -0.00031108095 -0.00019922155 -2.3782542e-05 -4.0483787e-06 -0.00024081806
-0.00030580026 -0.00028809457 -0.00032291847 -0.0005010082 -0.00052984327 -0.00035274363 -0.0004868261 -0.00050234527
-0.0004538897 -0.00041603507 -0.00022892158 -4.7875157e-05 -5.4616517e-05 0.00023446443 0.00013419792 4.773692e-05
6.113304e-05 0.00012169786 0.00016238332 0.00012855588 -2.322968e-05 -4.8981452e-05 -8.035084e-05 -4.1164247e-05
-3.222185e-05 -4.6443318e-05 -1.1736939e-05 -1.0579672e-05 -5.1597876e-06 -1.6101832e-06 -1.6534968e-06 -1.311712e-06
-1.3759942e-06 -1.3700312e-06 0.00033743255 0.0003392207 0.00025719297 0.00017455177 0.0001497933 8.931864e-05
2.6247328e-05 6.260397e-05 -4.003365e-05 3.8935164e-06 4.538328e-05 -5.3830212e-05 -6.851081e-05 -7.59434e-05
-4.326961e-05 1.4755139e-05 2.847153e-06 -2.5187706e-05 -4.9368435e-05 -5.1755283e-05 -4.499104e-05 -3.8261576e-05
-5.6267007e-05 -4.770427e-05 -4.3667646e-05 -3.7882608e-05 -2.6544689e-05 -4.9691603e-06 7.684719e-06 7.845511e-06
00000000: f864 3b3a 3ec5 403a 8ec0 203a 9dd7 1a3a
00000010: c39e 153a ea5b 1d3a db97 223a 35b2 2f3a
00000020: 937e 0e3a d2a1 fd39 a1be c539 d339 9b39
00000030: 5327 5f39 0456 cd39 20c7 003a 016a 123a
00000040: db7f bc39 4fc7 2b39 ffc1 e738 3c9e 3d38
00000050: c879 3b38 8d64 9037 0e04 ed37 7465 5f38
00000060: c9a6 0139 cc91 0d39 7fc1 2339 61f1 2539
00000070: 8e68 3339 c4e0 3439 2d9f 2739 954b 2239
00000080: 3526 1239 f760 0739 67ac e538 e05c c538
00000090: 64a2 a538 63b1 8838 fd51 6238 5881 3238
000000a0: 1835 a537 3313 ce36 4b9e d336 4ce0 a736
000000b0: 621a b036 0457 af36 1c34 2c3a b745 253a
000000c0: 0009 373a fc3b 1d3a f2ba 443a 0062 4a3a
000000d0: e2d5 373a 590c 433a 7973 173a fa0e c039
000000e0: 524b 9239 f528 a239 87ca 9e39 6499 b639
000000f0: 0007 a339 6174 123a d796 023a 03a7 e839
00000100: c04d 0eb8 b55d 6eb9 999b 49b9 a752 dfb8
00000110: 4748 99b8 1001 c5b8 8f68 1ab9 4cfa 3fb9
00000120: 72ff 52b9 1cae c1b8 b525 8d38 ffaf 1f39
00000130: b5b5 8039 b6f6 c638 cab9 5c39 76fb 1539
00000140: 9915 ec38 cbbd ca38 ac27 a038 7e74 8138
00000150: fa4d 5038 6302 cb37 7c84 be36 348f b636
00000160: d93f b636 162b af36 e795 b6b8 a96b d4b8
00000170: 3b80 4b39 f586 4139 ebcf 3b39 5949 0339
00000180: 8271 f238 9975 3836 d879 cab7 472c 61b8
00000190: 47d1 d5b7 6405 be38 1665 1639 446b 0d39
000001a0: 6d7b 2239 d4ea 8a39 cfa1 8a39 9ea9 5139
000001b0: d9c2 8139 2126 1739 469c 1939 f3a3 1139
000001c0: 8310 0d39 802d f638 4464 f638 8de6 7eb7
000001d0: 7afc cf36 7d24 1638 80e6 1d38 d534 3338
000001e0: f389 c137 846d a337 cd93 c137 9d2a a837
000001f0: 1afc 7b37 63ca 6037 99b4 3537 e8de 0c37
00000200: fed7 ed36 d764 b336 1119 3436 f00f 6135
00000210: c21d 6735 e757 3735 ff53 4035 be7e 3f35
00000220: 8dc2 d8b9 a79f c8b9 66f8 b1b9 9766 84b9
00000230: 7ae5 84b9 218b 5bb9 5c39 37b9 6057 a4b9
00000240: 5cb5 c1b8 be68 01b8 5215 81b8 f4ab 2738
00000250: 1ad6 0a38 817b 9237 f85f 5f38 13e7 f8b8
00000260: 89d0 dab8 5d8f 1238 8b66 3a38 8c24 ae38
00000270: 9571 b138 93f7 9038 449e 7838 568a 2e38
00000280: 7b73 2f37 73ff b9b7 1246 0db7 88ab 5b37
00000290: 490e fb37 ac1a 1238 8bc0 3738 9d98 f337
000002a0: e4ab 1f38 9e37 ee37 ed23 b437 1767 8d37
000002b0: 9e58 5537 5641 2937 d712 0037 0d49 5d36
000002c0: 3112 5035 2b61 4735 6e0a 4735 ba4e 3f35
000002d0: 3cdb 8439 5cf0 5d39 3bd9 a6b7 e8fd c9b8
000002e0: 0c32 93b9 f677 95b9 72c3 c5b9 9418 a3b9
000002f0: 21e6 50b9 9f80 c7b7 4fd7 87b6 1b84 7cb9
00000300: d153 a0b9 660b 97b9 624d a9b9 1756 03ba
00000310: 2ee5 0aba 73f0 b8b9 b13c ffb9 d2af 03ba
00000320: 0bf8 edb9 481f dab9 ab0a 70b9 8fcd 48b8
00000330: 0a14 65b8 91da 7539 7bb7 0c39 2139 4838
00000340: 8d34 8038 0b38 ff38 7145 2a39 f5cc 0639
00000350: 5cdd c2b7 6f71 4db8 0782 a8b8 c6a7 2cb8
00000360: f325 07b8 22cc 42b8 c5e9 44b7 587f 31b7
00000370: 3d22 adb6 791d d8b5 b8ed ddb5 150e b0b5
00000380: cdae b8b5 eae1 b7b5 6ee9 b039 6fd9 b139
00000390: dbd7 8639 e207 3739 d511 1d39 9450 bb38
000003a0: b52d dc37 404a 8338 cee9 27b8 0da5 8236
000003b0: ed59 3e38 c0c7 61b8 76ad 8fb8 cd43 9fb8
000003c0: 647c 35b8 d78c 7737 b711 3f36 304a d3b7
000003d0: f410 4fb8 d013 59b8 c3b4 3cb8 0e7b 20b8
000003e0: 3d00 6cb8 1216 48b8 c727 37b8 24e4 1eb8
000003f0: 49ac deb7 c3bc a6b6 9eed 0037 37a0 0337

exp_avg_sq f4 [128, 90]
8.111783e-06 8.288627e-06 8.8239e-06 9.188513e-06 8.895658e-06 8.267575e-06 7.853058e-06 7.443321e-06
6.9102207e-06 6.3831294e-06 5.832621e-06 5.2244854e-06 4.6359487e-06 4.0791338e-06 3.4642085e-06 2.8642917e-06
2.2976292e-06 1.8064602e-06 1.4108423e-06 1.1370113e-06 9.0156533e-07 7.266729e-07 5.9368546e-07 4.846008e-07
3.981317e-07 3.3728142e-07 2.994242e-07 2.7239147e-07 2.506557e-07 2.3199372e-07 2.1285517e-07 1.9119418e-07
1.6930561e-07 1.4441264e-07 1.04338234e-07 7.694702e-08 5.3972187e-08 3.6652292e-08 2.4892646e-08 1.559511e-08
3.3275982e-09 4.6552068e-10 5.234971e-10 8.048505e-10 7.3185913e-10 7.2906575e-10 7.774917e-06 7.36931e-06
7.555262e-06 7.4226336e-06 6.94781e-06 6.507759e-06 5.9222352e-06 5.4492457e-06 4.9439304e-06 4.6115115e-06
4.356685e-06 4.1323015e-06 3.8592975e-06 3.371983e-06 2.9699083e-06 2.5404745e-06 2.1908525e-06 1.92474e-06
1.7177471e-06 1.530547e-06 1.4169109e-06 1.3412139e-06 1.2841957e-06 1.2649818e-06 1.2038121e-06 1.0964244e-06
9.644032e-07 8.6939576e-07 7.282024e-07 4.9172473e-07 3.966888e-07 3.1002187e-07 2.5472522e-07 1.6383635e-07
1.2010128e-07 9.1014456e-08 6.782604e-08 4.4093845e-08 2.2820085e-08 6.699443e-09 1.338332e-09 7.4775003e-10
7.48539e-10 7.2787126e-10 3.928171e-06 4.1082653e-06 4.460096e-06 4.770817e-06 4.5539387e-06 4.3701634e-06
4.2061165e-06 3.939974e-06 3.5746116e-06 3.0618185e-06 2.7079222e-06 2.3470097e-06 2.007355e-06 1.687528e-06
1.3664235e-06 1.114731e-06 8.9932604e-07 7.246257e-07 5.8851623e-07 4.953016e-07 4.2979326e-07 3.735755e-07
3.1661932e-07 2.6983153e-07 2.2026106e-07 1.8533993e-07 1.5936243e-07 1.4440965e-07 1.2994218e-07 1.2459287e-07
1.17921616e-07 1.10409346e-07 1.0031278e-07 8.807346e-08 6.70845e-08 5.6011142e-08 4.3683556e-08 3.4847805e-08
2.8763909e-08 2.4019041e-08 3.3581305e-08 3.208366e-08 3.5006344e-08 5.9091658e-08 7.665925e-08 7.665731e-08
3.7281013e-06 3.654926e-06 3.861101e-06 3.9347747e-06 3.8330563e-06 3.6894496e-06 3.4313964e-06 3.195191e-06
2.9624505e-06 2.6965524e-06 2.5910501e-06 2.4091466e-06 2.1668945e-06 1.8138198e-06 1.4904248e-06 1.2716382e-06
1.0469729e-06 8.556753e-07 6.8981655e-07 5.3803717e-07 4.4637133e-07 3.693948e-07 3.1641542e-07 2.7433575e-07
2.3798121e-07 2.0703341e-07 1.796108e-07 1.601625e-07 1.5309467e-07 1.4126759e-07 1.27534e-07 1.1415786e-07
1.0407642e-07 8.332404e-08 6.506474e-08 8.072814e-08 7.742351e-08 6.4704615e-08 7.5672354e-08 6.736186e-08
6.42444e-08 6.4128876e-08 7.667069e-08 7.665619e-08 9.021625e-06 8.645061e-06 8.887596e-06 9.089332e-06
8.616131e-06 8.162152e-06 7.823876e-06 7.333555e-06 6.4281658e-06 5.307207e-06 4.561545e-06 3.8957346e-06
3.3130818e-06 2.843745e-06 2.3833527e-06 2.077174e-06 1.7615869e-06 1.4689842e-06 1.2777286e-06 1.2355274e-06
1.182787e-06 1.1230251e-06 1.020282e-06 9.703529e-07 8.494272e-07 7.825816e-07 7.074627e-07 6.5582105e-07
5.8129365e-07 5.7951854e-07 5.7708553e-07 5.449394e-07 5.3330655e-07 5.05616e-07 3.9593803e-07 2.660546e-07
1.9909126e-07 1.5487144e-07 1.2785277e-07 9.906395e-08 8.765184e-08 7.4989615e-08 8.771208e-08 2.2706537e-07
2.2934776e-07 2.2934391e-07 9.320945e-06 9.82835e-06 1.1008323e-05 1.2073769e-05 1.2302251e-05 1.2136925e-05
1.1511758e-05 1.0957414e-05 1.02773865e-05 9.447153e-06 8.81687e-06 8.073003e-06 7.176025e-06 6.1395995e-06
5.1654656e-06 4.2314264e-06 3.4198733e-06 2.7227386e-06 2.1495555e-06 1.676312e-06 1.3230863e-06 1.0664912e-06
8.9484365e-07 7.890125e-07 7.020052e-07 6.346029e-07 5.99856e-07 5.736022e-07 5.608301e-07 5.4757584e-07
00000000: d817 0837 620f 0b37 5d0a 1437 5d28 1a37
00000010: 8f3e 1537 f7b4 0a37 a1c0 0337 a4c1 f936
00000020: 58de e736 aa2e d636 d5b5 c336 fd4d af36
00000030: 7f8e 9b36 7edf 8836 a67a 6836 2838 4036
00000040: f830 1a36 8075 f235 2c5c bd35 699b 9835
00000050: 1903 7235 9510 4335 c15d 1f35 8315 0235
00000060: cebe d534 9b13 b534 8cc0 a034 333d 9234
00000070: db91 8634 f319 7934 2f8d 6434 0e4b 4d34
00000080: 5fca 3534 d80f 1b34 8d10 e033 123e a533
00000090: 0ccf 6733 9f6b 1d33 82d3 d532 02f6 8532
000000a0: baab 6431 36ec ff2f d5e5 0f30 523c 5d30
000000b0: 022c 4930 7167 4830 0471 0237 e445 f736
000000c0: 3583 fd36 f00f f936 3c21 e936 395d da36
000000d0: 9db7 c636 aad8 b636 0ae4 a536 95bc 9a36
000000e0: a42f 9236 33a8 8a36 1d7f 8136 3a4a 6236
000000f0: a34e 4736 057d 2a36 8f06 1336 c82a 0136
00000100: 578d e635 326d cd35 b02c be35 c203 b435
00000110: a15c ac35 72c8 a935 ab92 a135 db28 9335
00000120: a470 8135 6c60 6935 b079 4335 11ff 0335
00000130: 7ef8 d434 1571 a634 2bc1 8834 feea 2f34
00000140: 30f5 0034 ba73 c333 c3a7 9133 b261 3d33
00000150: e605 c432 ec30 e631 5ff0 b730 3b8a 4d30
00000160: c0c1 4d30 6313 4830 bbce 8336 bbd9 8936
00000170: efa7 9536 0215 a036 09ce 9836 6ba3 9236
00000180: 4422 8d36 1e34 8436 5ce3 6f36 a479 4d36
00000190: c0b9 3536 5281 1d36 19b6 0636 057f e235
000001a0: f465 b735 de9d 9535 3769 7135 e683 4235
000001b0: 87fa 1d35 def4 0435 56be e634 d38f c834
000001c0: d4fb a934 5ddd 9034 e680 6c34 da01 4734
000001d0: 361d 2b34 060f 1b34 3c86 0b34 d4c7 0534
000001e0: 183c fd33 2e1a ed33 896b d733 e622 bd33
000001f0: 1810 9033 e790 7033 949e 3b33 91ab 1533
00000200: 8114 f732 6e52 ce32 093b 1033 5bcc 0933
00000210: e259 1633 f7cb 7d33 de9f a433 cd9e a433
00000220: 4b30 7a36 2747 7536 9b8e 8136 7507 8436
00000230: b49d 8036 4398 7736 f146 6636 f76c 5636
00000240: 83ce 4636 6bf6 3436 e7e1 2d36 d3ac 2136
00000250: f76a 1136 6072 f335 9b0a c835 28ad aa35
00000260: b785 8c35 8fb1 6535 d52b 3935 a26d 1035
00000270: cfa4 ef34 3c51 c634 cedf a934 6b48 9334
00000280: c787 7f34 e94c 5e34 0adb 4034 22f9 2b34
00000290: 5862 2434 57af 1734 47f0 0834 f226 f533
000002a0: 9e80 df33 e0ef b233 b8b9 8b33 c45c ad33
000002b0: 0644 a633 bdf3 8a33 5181 a233 93a8 9033
000002c0: bbf6 8933 39b7 8933 28a6 a433 309e a433
000002d0: 965b 1737 410a 1137 ef1b 1537 627e 1837
000002e0: 008e 1037 2df0 0837 4b43 0337 c212 f636
000002f0: 86b1 d736 9014 b236 600f 9936 1bb8 8236
00000300: 5056 5e36 2bd7 3e36 b0f1 1f36 9465 0b36
00000310: aa6f ec35 ea29 c535 6c7e ab35 66d4 a535
00000320: 40c0 9e35 d9ba 9635 9ff0 8835 123d 8235
00000330: 3104 6435 9912 5235 77e8 3d35 ae0b 3035
00000340: 320a 1c35 3690 1b35 04e9 1a35 f347 1235
00000350: 8c28 0f35 abb9 0735 4f91 d434 44d6 8e34
00000360: cac5 5534 bd4a 2634 e747 0934 fcbc d433
00000370: 1c3b bc33 fa09 a133 3a5c bc33 41cf 7334
00000380: a242 7634 9341 7634 2761 1c37 71e4 2437
00000390: 63b0 3837 7190 4a37 c465 4e37 b29f 4b37
000003a0: a022 4137 bcd5 3737 0a6d 2c37 377f 1e37
000003b0: 2bec 1337 4971 0737 96c9 f036 c202 ce36
000003c0: 0353 ad36 adfb 8d36 fa80 6536 4bb8 3636
000003d0: 1541 1036 a4fd e035 e694 b135 5c24 8f35
000003e0: 3035 7035 87cc 5335 6e71 3c35 9459 2a35
000003f0: ca05 2135 a5f9 1935 f38b 1635 20fd 1235
