results/90RC2/Park90RC/Park90RC-5272812.onnx (onnx, 119662 bytes, 9 tensors)

network_body.observation_encoder.processors.0.normalizer.running_mean f4 [90]
0	0x3f0da237	0.55325645
1	0x3f0d31f8	0.5515437
2	0x3f0afd10	0.5429239
3	0x3f06a300	0.5259247
4	0x3f01f61e	0.5076617
5	0x3efcd60b	0.49382052
6	0x3ef9b967	0.48774263
7	0x3efa9cd3	0.48947772
8	0x3efdf646	0.49601954
9	0x3f01e5e6	0.5074142
10	0x3f05f350	0.5232439
11	0x3f0b1f74	0.5434487
12	0x3f113327	0.5671868
13	0x3f17cea1	0.59299666
14	0x3f1eb82a	0.6199976
15	0x3f25f71b	0.6483018
16	0x3f2d3cb5	0.67670757
17	0x3f349cc1	0.7055169
18	0x3f3bab93	0.73308676
19	0x3f423c2e	0.75873077
20	0x3f486d78	0.78292036
21	0x3f4e2e45	0.8053935
22	0x3f536815	0.8258069
23	0x3f5832dc	0.84452605
24	0x3f5c51d1	0.8606234
25	0x3f5f8f24	0.8732779
26	0x3f62113c	0.8830755
27	0x3f641b00	0.891037
28	0x3f65e76d	0.8980625
29	0x3f67a0b1	0.9047957
30	0x3f694603	0.91122454
31	0x3f6af364	0.91777635
32	0x3f6cb5e0	0.9246502
33	0x3f6f3062	0.934332
34	0x3f72cc21	0.94842726
35	0x3f755471	0.9583197
36	0x3f77e63f	0.968357
37	0x3f7a6c4b	0.9782149
38	0x3f7c3874	0.9852364
39	0x3f7e5050	0.993413
40	0x3f7fc757	0.99913543
41	0x3f7ffe4f	0.9999742
42	0x3f7ffe7d	0.99997693
43	0x3f7ffec5	0.9999812
44	0x3f7ffea8	0.9999795
45	0x3f7ffea4	0.99997926
46	0x3f0ce26d	0.55033
47	0x3f0a900b	0.5412604
48	0x3f075378	0.5286174
49	0x3f042297	0.5161528
50	0x3f00d3e4	0.5032332
51	0x3efbdf04	0.49193585
52	0x3ef9948a	0.4874614
53	0x3efa3cc9	0.488745
54	0x3efdfbcc	0.49606168
55	0x3f01e925	0.50746375
56	0x3f0583c2	0.5215417
57	0x3f09c727	0.5381951
58	0x3f0ece44	0.55783486
59	0x3f1485a4	0.5801642
60	0x3f1ac81f	0.6046161
61	0x3f21ad51	0.63155085
62	0x3f28dba9	0.65960175
63	0x3f3043d7	0.68853515
64	0x3f37ab8c	0.71746135
65	0x3f3ed3f1	0.74542147
66	0x3f456cc8	0.7711911
67	0x3f4b879d	0.79503804
68	0x3f50d4b0	0.81574535
69	0x3f55b467	0.834784
70	0x3f59fa2a	0.85147345
71	0x3f5d8dab	0.86544293
72	0x3f605a6c	0.8763797
73	0x3f62a598	0.88533926
74	0x3f6491db	0.8928506
75	0x3f666504	0.8999789
76	0x3f687339	0.90800816
77	0x3f6af3e4	0.917784
78	0x3f6d7770	0.9276037
79	0x3f704d1f	0.9386768
80	0x3f738bf2	0.95135415
81	0x3f76cb50	0.9640398
82	0x3f79e806	0.97619665
83	0x3f7c5179	0.9856182
84	0x3f7e6ac2	0.9938165
85	0x3f7fc4e9	0.99909836
86	0x3f7ffe61	0.99997526
87	0x3f7ffe8b	0.99997777
88	0x3f7ffe88	0.9999776
89	0x3f7ffea1	0.9999791

network_body._body_endoder.seq_layers.0.weight f4 [128, 90]
0	0x3e12f2d2	0.14350441
1	0x3d8801f6	0.06640999
2	0xbd7fe930	-0.062478244
3	0x3d5a0f3a	0.053237177
4	0x3dacea43	0.084431194
5	0xbd31b9b7	-0.043390002
6	0xbe0e2a99	-0.13883437
7	0x3e4200d6	0.18945631
8	0x3dcbfef3	0.09960737
9	0x3ddaa30e	0.106756315
10	0x3dbdc2cf	0.092656724
11	0xbe0a42d5	-0.13502057
12	0x3e64c275	0.22339804
13	0x3e89d7ed	0.2692255
14	0x3ea2aefd	0.3177413
15	0x3deb1a87	0.11479669
16	0x3dc8b1f2	0.097995654
17	0x3e5bd733	0.2146881
18	0x3e2faa01	0.17154695
19	0x3ea29c17	0.31759712
20	0x3dd72f14	0.10507026
21	0x3d89f1ba	0.06735559
22	0x3e87029f	0.26369187
23	0x3d6b3471	0.05742306
24	0x3e27e983	0.16397671
25	0x3e1f28b4	0.15542871
26	0x3d8d52c6	0.069005534
27	0x3e5ade16	0.21373782
28	0x3dd4055a	0.10352583
29	0x3e54b237	0.20771109
30	0x3cbaf36f	0.022821156
31	0xbdaa7f35	-0.08325044
32	0x3d24d456	0.04024156
33	0x3ea12e53	0.31480655
34	0x3d28e6b7	0.04123565
35	0xbccfcdd2	-0.025366697
36	0x3e4c4e62	0.19951776
37	0x3de81144	0.11331418
38	0x3ce6c01b	0.028167775
39	0x3dfa7d81	0.12230969
40	0x3e5bea7e	0.2147617
41	0x3d23e5df	0.040014144
42	0xbc0835e7	-0.008313633
43	0x3e27ac1e	0.16374251
44	0x3c7bb474	0.015362848
45	0x3db3542c	0.08756289
46	0x3dad94ba	0.08475633
47	0x3cb06be3	0.02153582
48	0xbe139b48	-0.14414704
49	0x3cf5b6bc	0.029994361
50	0xbd6d66db	-0.05795942
51	0x3d8c7045	0.06857351
52	0x3d7348fc	0.059395775
53	0xbbc02a3d	-0.00586441
54	0x3d902d41	0.070398815
55	0xbdbb6b49	-0.091513224
56	0xbdd626cc	-0.10456619
57	0x3c98a0e8	0.018631414
58	0xbccdf276	-0.025140028
59	0xbe68883e	-0.22708222
60	0xbd52efa9	-0.05149809
61	0xbcec2c55	-0.028829733
62	0xbdea7c9a	-0.11449547
63	0xbe160be3	-0.14652972
64	0xbdc230a8	-0.09481937
65	0xbe5f8dda	-0.21831456
66	0xbe0dc491	-0.13844515
67	0xbdbfa680	-0.09357929
68	0xbd0b3ce3	-0.033993613
69	0xbcbe1102	-0.02320147
70	0xbd7ce04f	-0.061737355
71	0x3e1777f5	0.14791854
72	0xbea26368	-0.31716466
73	0xbe4d67ec	-0.20059174
74	0x3d8ba123	0.06817844
75	0x3d36cd4a	0.044629373
76	0x3de0eee4	0.10983065
77	0x3d1215b0	0.035665214
78	0x3d9c639c	0.076361865
79	0x3e2dd763	0.16976695
80	0xbdc90fb9	-0.09817452
81	0x3e027b9e	0.12742469
82	0xbd03dd7d	-0.03219365
83	0x3debd5d5	0.115153946
84	0x3e132d82	0.14372829
85	0xbe1c3f16	-0.1525844
86	0x3da4c832	0.08045997
87	0x3db5ee8d	0.088833906
88	0x3ebea5df	0.37235925
89	0x3e4c4f9d	0.19952245
90	0xbd8b9b9d	-0.0681679
91	0xbd910a89	-0.070820875
92	0xbc78783b	-0.015165384
93	0x3e289b6f	0.16465543
94	0xbddc3ebe	-0.107541546
95	0x3e412d03	0.18864827
96	0x3e571925	0.21005686
97	0x3e3c9bff	0.18418883
98	0x3e0458a3	0.12924437
99	0x3e6ad503	0.2293282
100	0x3de73447	0.11289268
101	0x3e2e187c	0.17001528
102	0x3e10d354	0.14143115
103	0x3d99567f	0.07487201
104	0x3b0892ba	0.002083941
105	0xbe3d8b16	-0.18510088
106	0xbc81fc76	-0.015867453
107	0x3cea159f	0.028574763
108	0x3e4e87ef	0.20169042
109	0xbe0deeee	-0.13860676
110	0x3e0649df	0.13114117
111	0x3dc3eefb	0.09567066
112	0x3b72ac16	0.003702884
113	0x3be4ad62	0.0069786767
114	0x3cbe7a9b	0.023251822
115	0x3c596e21	0.013270886
116	0x3db0d9bd	0.0863528
117	0x3def44a4	0.11683014
118	0x3d2939f6	0.04131504
119	0x3d4c7644	0.049917474
120	0x3d6b8d0b	0.057507556
121	0xbd317025	-0.04331984
122	0xbe3b7262	-0.18305352
123	0x3e106412	0.14100674
124	0x3e00ec37	0.12590109
125	0xbd672b1c	-0.056437597
126	0x3d6c7943	0.05773283
127	0xbb85b1b3	-0.0040800213
128	0xbdd0d8f2	-0.10197629
129	0x3d2558ff	0.040368076
130	0xbe758913	-0.23978071
131	0xbdb350c9	-0.08755643
132	0x3dd24bf8	0.10268396
133	0x3dc3371c	0.09531996
134	0xbd21353d	-0.039357413
135	0xbdb7ed6f	-0.08980834
136	0xbd072426	-0.03299346
137	0x3e1a4a99	0.15067519
138	0xbe25e6f2	-0.1620138
139	0x3da3e103	0.08001902
140	0xbe1ecabc	-0.15507025
141	0xbd02e318	-0.031954855
142	0x3da44875	0.080216326
143	0xbd228d1c	-0.039685354
144	0x3d2c309d	0.04203855
145	0xbc83eb9e	-0.016103562
146	0xbe374ccb	-0.17900388
147	0x3b890d87	0.004182521
148	0xbd735830	-0.059410274
149	0xbce29edf	-0.027663646
150	0x3d241629	0.040060196
151	0x3dbdf83a	0.09275861
152	0xbda3ce42	-0.07998325
153	0x3e42ffa6	0.19042835
154	0xbd04f360	-0.032458663
155	0xbe0407ec	-0.12893647
156	0xbe866066	-0.2624542
157	0xbd5a1cd6	-0.053250156
158	0x3d3be595	0.045873243
159	0xbdc998ea	-0.09843619
160	0xbd0909e6	-0.033456706
161	0x3d7d862f	0.061895546
162	0xbdbffbdb	-0.093742095
163	0xbb94260a	-0.004521136
164	0x3d9c57ef	0.076339595
165	0x3d7e649c	0.062107667
166	0xbdb0a81a	-0.08625813
167	0xbd9ac8f8	-0.07557863
168	0x3db3c27f	0.087773316
169	0x3af28a94	0.0018504434
170	0xbd6ca306	-0.05777266
171	0xbd7a8bef	-0.061168607
172	0xbd8cc876	-0.068741724
173	0xbd83466f	-0.064099185
174	0x3e2034c4	0.15645128
175	0xbe36bb43	-0.17844872
176	0xbdd9b851	-0.10630859
177	0xbde52d90	-0.11190331
178	0xbd98ee09	-0.074672766
179	0x3dc617d8	0.096725166
180	0xbdcd6b68	-0.10030252
181	0xbe62f714	-0.22164565
182	0xbe6db231	-0.23212506
183	0xbd9faa40	-0.077961445
184	0xbc5b9151	-0.013401345
185	0x3e3539d5	0.17697842
186	0xbd7f6c99	-0.062359426
187	0x3dee094a	0.116228655
188	0x3e6332b2	0.22187307
189	0x3d827d49	0.063715525
190	0x3d696195	0.056977827
191	0xbd03c2ed	-0.032168318
192	0x3ae99e95	0.001782375
193	0xbe625d47	-0.22105895
194	0x3cedc8fc	0.0290265
195	0xbcabe634	-0.020983793
196	0xbdd8cbf7	-0.10585778
197	0xbddeb500	-0.10874367
198	0xbe82474b	-0.25445017
199	0xbc963036	-0.018333536
200	0xbe8b6b28	-0.2723019
201	0x3d308e16	0.043104254
202	0x3cc61fbd	0.024185056
203	0x3e08df25	0.13366373
204	0xbd8c472b	-0.06849512
205	0xbd41a172	-0.047273107
206	0x3d83587c	0.064133614
207	0x3dc7ad62	0.09749867
208	0x3d3af7d0	0.04564649
209	0x3b953fff	0.004554748
210	0xbd3b5be7	-0.04574194
211	0xbe273fbe	-0.1633291
212	0xbe1b3541	-0.15157034
213	0xbe18e58c	-0.14931315
214	0xbeabfc3b	-0.33590874
215	0x3dd05aa1	0.10173536
216	0x3e0eae36	0.13933644
217	0x3e092092	0.13391331
218	0xbdf69671	-0.12040413
219	0x3bb22183	0.005436124
220	0xbdb5ee06	-0.0888329
221	0x3d2a2e91	0.041548315
222	0x3e343129	0.17596878
223	0xbdd5694b	-0.10420474
224	0x3dc36033	0.09539833
225	0xbdab165b	-0.08353873
226	0xbc547e96	-0.012969634
227	0xbe0d0c3f	-0.13774203
228	0xbdaaa784	-0.08332732
229	0x3dcb1026	0.099151894
230	0x3e019dfd	0.12657924
231	0xbbc07726	-0.0058735786
232	0x3da3a3fb	0.07990261
233	0xbbf104ce	-0.007355309
234	0x3e38b148	0.18036377
235	0xbd043d6f	-0.03228515
236	0x3e9a1ff8	0.30102515
237	0x3e112e86	0.14177904
238	0x3e812875	0.2522618
239	0x3e28ee71	0.16497208
240	0x3d9b3579	0.075785585
241	0x3e5ff157	0.21869408
242	0x3d004836	0.031318866
243	0x3daa9d31	0.08330763
244	0xbcb86f71	-0.022514077
245	0x3d9b12f6	0.07571976
246	0xbbb75d96	-0.005595873
247	0x3de384fc	0.11109349
248	0x3e0a68e6	0.13516578
249	0x3e6ff5b9	0.2343358
250	0x3d4a3721	0.04936898
251	0xbd9bbbac	-0.07604155
252	0xbd5cf98b	-0.05394892
253	0xbe5d96af	-0.21639512
254	0xbd4e4344	-0.05035712
255	0xbac07f74	-0.0014686421

network_body._body_endoder.seq_layers.0.bias f4 [128]
0	0x3dae00d8	0.08496255
1	0x3c648bb2	0.013949322
2	0xbbd515f2	-0.00650286
3	0xbdd673e9	-0.10471327
4	0x3dcb264e	0.099194154
5	0x3d4395f4	0.04775043
6	0x3ced660f	0.02897933
7	0x3d9f86f4	0.07789412
8	0x3d12b916	0.035821043
9	0x3d937521	0.07200075
10	0xbd444f15	-0.04792698
11	0x3d6ecef6	0.058302842
12	0x3db926ca	0.090406016
13	0xbd68535f	-0.056720134
14	0xbc55c52b	-0.013047497
15	0x3c32c73c	0.010911759
16	0x3c03e008	0.008049019
17	0x3d9a0f4e	0.075224504
18	0x3dcd3b81	0.10021115
19	0x3cb96221	0.0226298
20	0xbca8b737	-0.020595176
21	0x3d581127	0.052750733
22	0x3cb8117d	0.022469277
23	0x3e1ad764	0.15121228
24	0x3dec200b	0.11529549
25	0x3e2299d1	0.15878989
26	0x3d8e2b30	0.06941831
27	0xbd21549e	-0.039387338
28	0x3d97ed26	0.07418279
29	0x3d738683	0.059454452
30	0x3d17bd82	0.037045963
31	0x3dca8bb5	0.09889928
32	0x3d547365	0.05186786
33	0x3da58313	0.08081641
34	0x3d7327d3	0.05936415
35	0xbc308405	-0.010773663
36	0x3b2c9162	0.0026331772
37	0x3c2a6c11	0.010401742
38	0x3cc1cbd1	0.023656758
39	0x3daf93f1	0.085731395
40	0x3db6bec5	0.08923105
41	0x3db96b17	0.09053629
42	0xbd91d7c7	-0.071212344
43	0xbd9fcc7a	-0.07802673
44	0x3dcdae76	0.100430414
45	0x3de88bf2	0.113548175
46	0x3d94ddf1	0.072688945
47	0x3dca99c0	0.09892607
48	0x3d2eaa61	0.042642955
49	0xbd498951	-0.04920322
50	0xbb9fa29d	-0.00487168
51	0x3cf73be4	0.030179925
52	0x3dc2cf60	0.0951221
53	0x3d397187	0.045274284
54	0x3d958a3d	0.073017575
55	0x3d2dade3	0.04240216
56	0x3d2b6ecf	0.041853722
57	0x3d4d33f2	0.050098367
58	0x3d8dc3eb	0.06922134
59	0x3be706e1	0.0070503806
60	0x3d37a7e5	0.04483785
61	0xbd1e5b61	-0.038661364
62	0xbcd6277c	-0.026141874
63	0x3e013123	0.126164
64	0x3d6303e4	0.055423632
65	0x3d73b818	0.059501737
66	0xbd25ff13	-0.04052646
67	0x3dda5166	0.10660057
68	0x3d639e5e	0.055570953
69	0x3cdb2bce	0.026754286
70	0x3cf98165	0.030457208
71	0xbd7fcf6a	-0.062453665
72	0xbdf457a7	-0.11930781
73	0x3e183ac3	0.14866166
74	0x3d804d80	0.06264782
75	0x3cf77302	0.030206207
76	0x3df09b1e	0.11748336
77	0x3d750c4a	0.059826173
78	0x3d3b1975	0.045678575
79	0x3d4c510d	0.049881984
80	0x3de44bcd	0.1114727
81	0x3cee4499	0.029085444
82	0x3d95afb1	0.07308901
83	0xbdb29f27	-0.08721762
84	0xbd986dcc	-0.07442817
85	0xba9cef93	-0.0011973254
86	0x3cb42e1d	0.021994645
87	0xbd8262ba	-0.06366487
88	0x3d1bec7a	0.03806732
89	0xbd87d7d3	-0.06632962
90	0x3e24ec69	0.16105808
91	0x3d01c3fb	0.031681042
92	0x3c1ecf0b	0.009692918
93	0x3d84d2ae	0.064854965
94	0x3da4531c	0.08023664
95	0x3d27aaf2	0.04093451
96	0x3db1579f	0.086592905
97	0x3df6df98	0.12054366
98	0x3d0655e0	0.03279674
99	0x3c628b84	0.013827208
100	0x3d1f3024	0.03886427
101	0x3d725cd7	0.05917057
102	0xbc535aee	-0.012900097
103	0x3d4c346d	0.049854685
104	0x3ca97700	0.020686626
105	0xbc30cf9f	-0.010791688
106	0x3c3dd85e	0.0115872305
107	0x3a05cef4	0.0005104386
108	0x3d8b1722	0.067915216
109	0x3d462b01	0.048380855
110	0x3da30502	0.079599395
111	0x3d823e14	0.06359497
112	0x3dc20b29	0.09474785
113	0xb9a60411	-0.00031665017
114	0x3d000734	0.03125687
115	0x3cfcefc9	0.030876057
116	0xbabe86e6	-0.0014536052
117	0x3e17e5c7	0.14833747
118	0xbc8605b8	-0.016360149
119	0x3d99e39c	0.07514116
120	0x3d9bb10a	0.07602127
121	0x3b5bdbb3	0.00335477
122	0x3c0ad67c	0.008473989
123	0x3e3d10e2	0.18463472
124	0x3d68ba33	0.0568182
125	0xbdb5ff3e	-0.08886574
126	0x3dd97607	0.10618215
127	0x3d9c4007	0.076294

network_body._body_endoder.seq_layers.2.weight f4 [128, 128]
0	0x3e4f0076	0.2021502
1	0x3c9dd14d	0.019264841
2	0x3e1fafb6	0.15594372
3	0xbe47828e	-0.19483396
4	0x3d65d1cb	0.056108277
5	0x3dc5fdad	0.096675254
6	0x3db347fc	0.08753964
7	0x3e72c71d	0.23708768
8	0xbc10db6b	-0.008841376
9	0xbbc76cf3	-0.006085986
10	0xbb28d9dc	-0.002576462
11	0x3e885e9e	0.26634687
12	0x3bed63f9	0.0072445837
13	0x3c92e327	0.01793058
14	0xbe03ec03	-0.12883
15	0xbe60295a	-0.21890774
16	0xbc140759	-0.009034955
17	0xbc591a56	-0.013250908
18	0xbe302e80	-0.17205238
19	0x3d928649	0.07154519
20	0x3b3ebbc0	0.0029103607
21	0xbdb95730	-0.09049833
22	0x3d0d3070	0.03447002
23	0x3cd5680d	0.026050592
24	0xbd9285e0	-0.07154441
25	0xba0ec278	-0.0005445848
26	0xbe4c273f	-0.19936846
27	0x3bff0531	0.0077826013
28	0x3afd9a08	0.0019348273
29	0x3e3ae65e	0.1825194
30	0xbe102a96	-0.14078745
31	0x3d3b11cf	0.04567128
32	0x3d5b6d2f	0.053570922
33	0x3e69ec29	0.22843994
34	0xbd4a014c	-0.049317643
35	0x3e330ae6	0.17484626
36	0xbdf993cd	-0.12186394
37	0x3d926586	0.0714827
38	0x3ce1d398	0.027566716
39	0x3e3654f7	0.17805849
40	0x3dfe06ed	0.12403665
41	0x3ddd34c1	0.10801078
42	0x3de79269	0.113072224
43	0x3d9b4ea8	0.07583362
44	0xbd0d6f6c	-0.03453009
45	0xbc3de0d5	-0.011589249
46	0xbe1c8b32	-0.15287474
47	0x3dcc97f6	0.09989922
48	0x3dfc912e	0.12332378
49	0x3e002930	0.12515712
50	0x3d0ff615	0.03514679
51	0x3d0542d6	0.032534443
52	0x3e0dac17	0.13835178
53	0xbdd720aa	-0.10504277
54	0xbdb1df7d	-0.08685205
55	0xbd0f84d0	-0.03503877
56	0xbdb9bced	-0.09069238
57	0xbdff84f6	-0.12476532
58	0xbd3528c2	-0.044228323
59	0x3e0eaa83	0.13932233
60	0xbd285fcf	-0.041106995
61	0x3c886c11	0.016653093
62	0xbe994224	-0.29933274
63	0x3e7b27ee	0.2452695
64	0x3c9f7c97	0.019468589
65	0xbd5f6040	-0.05453515
66	0x3cef8bf4	0.02924154
67	0xbcdf77c6	-0.027278792
68	0xbd6bca39	-0.0575659
69	0x3deb38af	0.11485421
70	0x3def15c3	0.116740726
71	0x3d748abd	0.059702624
72	0xbd9a8600	-0.0754509
73	0xbdaff1c2	-0.085910335
74	0x3c4ba847	0.012430257
75	0xbdf33ae4	-0.11876467
76	0x3e32da66	0.17466125
77	0x3d83c566	0.06434135
78	0x3df567c5	0.11982683
79	0xbd12d289	-0.035845313
80	0x3e088206	0.1333085
81	0xbde12814	-0.109939724
82	0x3decf9ba	0.11571069
83	0xbdc989b0	-0.09840715
84	0xbc212a0a	-0.009836683
85	0xbd496376	-0.04916712
86	0x3d5db0b2	0.054123588
87	0x3d9de16f	0.07709014
88	0x3e086b00	0.13322067
89	0xbd8b35be	-0.0679736
90	0xbe21a3d4	-0.15785152
91	0x3e0b7e47	0.1362239
92	0xbdc67cf5	-0.096918024
93	0x3e30ed6f	0.17278074
94	0x3ddc3f71	0.10754288
95	0xbb532999	-0.003222084
96	0x3e1bf9c2	0.15231994
97	0xbcc4f0e7	-0.024040652
98	0x3d3e6341	0.046481375
99	0xbe1c8929	-0.15286697
100	0x3d7c0423	0.061527383
101	0x3e1c5479	0.15266599
102	0x3e82c61f	0.2554178
103	0x3e7db537	0.24776159
104	0xbdd43f7c	-0.10363671
105	0xbd61617e	-0.055024616
106	0xbe2cd04b	-0.16876332
107	0x3ca1ea21	0.019764962
108	0x3d52a27b	0.051424485
109	0x3dce9615	0.100872196
110	0x3dbffbef	0.093742244
111	0x3dc5518d	0.09634695
112	0xbd6cfe4c	-0.057859704
113	0xbe15a8d8	-0.1461519
114	0xbd4a0195	-0.049317915
115	0xbdda354b	-0.10654696
116	0x3e110d6b	0.14165275
117	0xbd8893bb	-0.06668802
118	0x3cbba891	0.022907527
119	0x3e40b5b0	0.18819308
120	0x3d201cd2	0.039089985
121	0xbc93e0f6	-0.018051606
122	0xbd33cb1d	-0.043894876
123	0x3e65002d	0.22363348
124	0xbd3cc573	-0.04608674
125	0x3d83fb4d	0.06444416
126	0xbd91489c	-0.07093927
127	0x3d6b2540	0.05740857
128	0x3d01d773	0.03169961
129	0x3d71b59b	0.059011083
130	0x3c8e217a	0.017349947
131	0xbd6107d9	-0.054939125
132	0xbe2f5e71	-0.1712587
133	0xbe48e050	-0.19616818
134	0xbe32cfa6	-0.17462024
135	0xbdd2d7d7	-0.102950744
136	0xbbff40e6	-0.007789719
137	0xbdfe4b5c	-0.124167174
138	0x3e0bb8b8	0.13644683
139	0xbdfbaf80	-0.12289333
140	0x3dfe403d	0.12414596
141	0xba158e4f	-0.00057051046
142	0x3e0d2084	0.13781935
143	0x3dbdfb53	0.09276452
144	0xbd6814b2	-0.05666036
145	0x3b11ce2f	0.002224814
146	0xbd4eb932	-0.050469585
147	0xbdc67f27	-0.09692221
148	0xbc5fe003	-0.013664248
149	0x3d4d11c0	0.050065756
150	0x3d961d18	0.07329768
151	0xbce6369d	-0.028102214
152	0x3c3a75cb	0.011380623
153	0xbe22be60	-0.15892935
154	0xbe1ba387	-0.151991
155	0xbc874c72	-0.016515944
156	0xbdc58bd5	-0.096458115
157	0xbd1c9dc4	-0.038236395
158	0xbd964d1f	-0.073389284
159	0x3c981fd7	0.01856987
160	0x3dc6cda1	0.09707189
161	0xbddddc01	-0.10832978
162	0xb98b8d68	-0.00026617502
163	0x3ad4322a	0.0016189266
164	0xbe1c0e3e	-0.15239808
165	0x3d6eb84b	0.058281224
166	0xbe3508b9	-0.17679109
167	0xbd3bd813	-0.04586036
168	0xbd94b1ef	-0.07260501
169	0xbe2ff339	-0.17182626
170	0xbd1da30f	-0.038485583
171	0x3e209ec9	0.15685572
172	0xbd42187c	-0.04738663
173	0x3c92afc5	0.01790608
174	0x3d0a8060	0.033813834
175	0x3db06762	0.08613469
176	0x3d125d03	0.035733234
177	0xbe3c3322	-0.1837888
178	0xbe09d829	-0.13461365
179	0xbe396e74	-0.18108541
180	0xbdfa4eb2	-0.12222041
181	0x3e0e409d	0.13891836
182	0xbdb5b7a1	-0.08872915
183	0x3ddddd22	0.10833193
184	0x3d813265	0.0630844
185	0xbe10d52b	-0.14143817
186	0x3d5d0ca9	0.05396715
187	0x3dc21354	0.09476343
188	0xbe0b6d04	-0.13615805
189	0xbdb10f8e	-0.08645545
190	0x3d7b32ed	0.061327863
191	0x3c75fcec	0.015013915
192	0x3d01a9f0	0.031656206
193	0x3decbacb	0.115590654
194	0xbd56253e	-0.05228161
195	0xbcb20ff5	-0.021736125
196	0xbda40793	-0.08009257
197	0x3c9613b8	0.01831995
198	0xbd74a8bb	-0.059731226
199	0xbddcd25b	-0.107823096
200	0xbd03ea6b	-0.03220598
201	0xbe095469	-0.13411106
202	0xbd27c7de	-0.040962093
203	0xbe0bee27	-0.13665067
204	0xbda7da66	-0.08195953
205	0x3c5cf776	0.013486734
206	0x3cd11ff5	0.025527934
207	0x3d0504cc	0.032475278
208	0xbe0a946e	-0.13533184
209	0x3e15358d	0.14571209
210	0xbdf3d71f	-0.119062655
211	0xbd84d6ea	-0.06486304
212	0x3e324f24	0.17413002
213	0x3d030ce8	0.03199473
214	0xbe397a5e	-0.18113086
215	0x3d724428	0.05914703
216	0x3b3d77e9	0.0028910583
217	0x3df759ec	0.12077698
218	0xbcea90e1	-0.028633537
219	0xbcae4e6a	-0.021277625
220	0xbd4ea0be	-0.050446264
221	0x3cf82ca2	0.03029472
222	0xbde10b5e	-0.10988496
223	0xbdcdc3d9	-0.100471206
224	0xbda3e57e	-0.080027565
225	0x3e112d06	0.14177331
226	0x3cd85f64	0.026412673
227	0x3de69a69	0.1125992
228	0xbdd46b02	-0.103719726
229	0xbdaabad8	-0.08336419
230	0xbe8bc612	-0.27299553
231	0xbddbc34e	-0.10730611
232	0x3c4136ea	0.011792878
233	0xbda304c3	-0.079598926
234	0xbe06a6d9	-0.13149585
235	0xbe0817c9	-0.13290323
236	0xbc3ba395	-0.011452575
237	0x3de335af	0.11094224
238	0x3e262353	0.16224413
239	0xbd88c0b0	-0.06677377
240	0xbe1e705f	-0.15472554
241	0xbcd0bf44	-0.025481828
242	0xbcb1a329	-0.021684246
243	0x3e80d0dd	0.2515935
244	0xbdbdf35f	-0.09274935
245	0xbd51b2f1	-0.051196042
246	0x3e4de2c2	0.20106032
247	0x3df87434	0.12131539
248	0xbcfe925c	-0.031075649
249	0xbd9234ed	-0.07139001
250	0xbd4e94aa	-0.050434746
251	0xbde0bc98	-0.109734714
252	0xbd542c0b	-0.051799815
253	0x3d9c0da3	0.076197885
254	0x3dd0353e	0.10166405
255	0x3dfc7f9a	0.123290256

network_body._body_endoder.seq_layers.2.bias f4 [128]
0	0x3dcc5820	0.09977746
1	0xbd70adf3	-0.05875964
2	0xbdbb33e8	-0.0914076
3	0x3d554f0e	0.052077346
4	0x3db76756	0.08955257
5	0xbd383d1b	-0.04498015
6	0xbd836479	-0.06415648
7	0x3db9c96e	0.09071623
8	0x3d897398	0.06711501
9	0x3d27cba4	0.04096569
10	0x3e0a1892	0.13485935
11	0xbdd35eff	-0.103208534
12	0x3cec8356	0.02887122
13	0x3cdf77ff	0.027278898
14	0xbd75ea3a	-0.06003783
15	0x3dc5f96d	0.09666715
16	0xbd9f8aa0	-0.077901125
17	0xbd5d11e8	-0.053972155
18	0xbe0746fb	-0.1321067
19	0xbde70d7a	-0.11281867
20	0x3dd8284b	0.1055456
21	0x3d94cd55	0.072657265
22	0xbdbf0dc3	-0.09328797
23	0xbd12d3ec	-0.035846636
24	0x3e0adf89	0.13561834
25	0xbd9d005e	-0.07666086
26	0xbd1d3f3f	-0.038390394
27	0x3e04ade8	0.12956965
28	0x3cb8edad	0.02257427
29	0x3cfab6f7	0.030604823
30	0x3c96c11e	0.018402632
31	0x3df86be3	0.12129953
32	0x3c2dc1ca	0.010605285
33	0xbdce8b1c	-0.10085127
34	0xbc436761	-0.011926503
35	0xbceeaf8d	-0.029136444
36	0x3dec1bb2	0.1152872
37	0xbd97f521	-0.074198015
38	0xbd0d4754	-0.034491852
39	0xbe1653bf	-0.14680384
40	0x3df5db52	0.12004723
41	0x3e010eea	0.12603346
42	0xbd8633d7	-0.065528564
43	0xbd9f76bf	-0.07786321
44	0x3d58c6b2	0.052923866
45	0x3ddbcdc3	0.10732605
46	0x3cfb20d3	0.0306553
47	0x3df0c6be	0.11756657
48	0xbd689e30	-0.056791484
49	0x3d252bc9	0.04032496
50	0xbdb719a4	-0.089404374
51	0x3d9c695f	0.076372854
52	0xbd7980c5	-0.06091382
53	0xbdf7120a	-0.120639876
54	0xbdbfecf9	-0.09371371
55	0xbe05947e	-0.13044927
56	0x3d8ff857	0.07029789
57	0x3d555a93	0.05208833
58	0x3da3e408	0.08002478
59	0x3cda7afd	0.026669974
60	0x3dff67e2	0.12470986
61	0x3cd0c895	0.02548627
62	0x3da7f0fa	0.082002595
63	0xbdb8b422	-0.090187326
64	0xbd4d46e2	-0.050116427
65	0xbd1ce250	-0.038301766
66	0xbd890fb6	-0.0669245
67	0xbdd82348	-0.10553604
68	0xbdb98212	-0.09058012
69	0x3c742f67	0.01490388
70	0x3dd0a81e	0.10188316
71	0x3d873766	0.06602363
72	0x3ca56c34	0.020193197
73	0x3d89a577	0.06721013
74	0xbd2546e4	-0.04035081
75	0xbda45963	-0.08024862
76	0xbd8ab9d1	-0.06773723
77	0xbdbefdc6	-0.09325747
78	0x3de2f145	0.11081175
79	0xbd6789dc	-0.056527957
80	0xbdb095bf	-0.08622312
81	0x3d9789b6	0.07399313
82	0xbd2ad4e6	-0.041706942
83	0xbd6b9ec3	-0.057524454
84	0xbda3245e	-0.07965921
85	0x3d1588f1	0.03650755
86	0xbd5df7e3	-0.05419148
87	0xbda3ed1c	-0.080042094
88	0xbd4e5490	-0.050373614
89	0x3dcc4589	0.099742
90	0xbcbaec9d	-0.022817904
91	0x3c7d4181	0.015457512
92	0xbd9f2a16	-0.07771699
93	0x3d8c54c6	0.06852107
94	0x3dc19c36	0.09453623
95	0x3dc24cf1	0.09487332
96	0xbafaa890	-0.0019123722
97	0x3d25aeb0	0.040449798
98	0x3cbe3657	0.02321927
99	0x3dd5e6dd	0.10444424
100	0xbd8aea76	-0.06783001
101	0xbd47abdd	-0.048747886
102	0xbdc62759	-0.09675474
103	0x3de38d51	0.11110938
104	0xbdeaa200	-0.1145668
105	0x3df7abe0	0.120933294
106	0xbc12403a	-0.008926446
107	0x3d48733c	0.04893802
108	0x3df7188c	0.12065229
109	0x3e0b272a	0.13589159
110	0xbdea82ef	-0.11450755
111	0x3d39db7e	0.04537534
112	0x3d441a49	0.04787663
113	0x3d1e27f2	0.038612314
114	0x3df8643f	0.121284954
115	0xbca2c5b4	-0.019869663
116	0x3d814fb2	0.06314029
117	0x3e008c75	0.1255358
118	0xbdde05c9	-0.10840947
119	0xbdc0d949	-0.09416444
120	0xbe010bf1	-0.12602212
121	0xbd90dc03	-0.07073214
122	0x3dc6c1ca	0.09704931
123	0x3d0af5ef	0.033925947
124	0xbdc0a8cb	-0.09407195
125	0xbdd622e8	-0.104558766
126	0xbdd4ef28	-0.10397178
127	0xbdb5375b	-0.08848449

action_model._continuous_distribution.log_sigma f4 [1, 2]
0	0xbe2b7e98	-0.1674751
1	0x3c747d90	0.014922515

action_model._continuous_distribution.mu.weight f4 [2, 128]
0	0x3d2d5bc3	0.04232384
1	0x3d88ee5a	0.06686087
2	0xbb1d973b	-0.002404644
3	0x3d26c865	0.040718455
4	0x3b9a8d8c	0.0047165807
5	0x3bed2d3c	0.0072380584
6	0x3dbc6cb9	0.09200425
7	0x3b979d91	0.0046269377
8	0xbca5608f	-0.020187644
9	0xbc1742bc	-0.009232219
10	0xbd1020a6	-0.035187386
11	0xbab2c6e3	-0.0013639595
12	0xbd39e864	-0.04538764
13	0x3db96fc8	0.09054524
14	0x3e24e046	0.16101179
15	0x3cf22b00	0.02956152
16	0x3bbbd950	0.005732693
17	0xbccab266	-0.02474327
18	0x3c22cc41	0.009936393
19	0x3a4333b5	0.00074463646
20	0x3bf1aa60	0.0073750466
21	0x3ceadda1	0.028670134
22	0x3c534d8e	0.012896908
23	0xbb93960a	-0.00450397
24	0xbd9cafaa	-0.07650693
25	0xbd87e4f0	-0.06635463
26	0x3debd0b7	0.115144186
27	0xbca8fcab	-0.020628294
28	0x3d0fea11	0.035135332
29	0x3d47b846	0.04875972
30	0xba17b92f	-0.00057877874
31	0xbc8d0d9c	-0.017218404
32	0xbb526112	-0.0032101315
33	0xbb0d570c	-0.0021566777
34	0x3d9111d0	0.070834756
35	0x3ddf27bc	0.108962506
36	0x3d2db33b	0.042407256
37	0x3d3ecbb5	0.04658099
38	0x3d97baaf	0.07408654
39	0x3c883ef3	0.016631579
40	0xbcdc25f1	-0.02687356
41	0xbc3709fd	-0.011171815
42	0x3d953a31	0.0728649
43	0xbd1f6402	-0.038913734
44	0x3ba8b652	0.0051486874
45	0xba0dcf72	-0.0005409635
46	0x3d19e6ba	0.037573554
47	0xbd2621bd	-0.04055952
48	0xbd2f59ca	-0.04281024
49	0x3dca68e3	0.09883287
50	0xbcce6c0a	-0.025198001
51	0x3c421d81	0.011847855
52	0x3c48d11f	0.01225689
53	0x3bcec80e	0.0063104695
54	0x3c0fd054	0.008777697
55	0x3bc8596b	0.006114175
56	0x3d709da8	0.058744103
57	0x3d821dc5	0.06353334
58	0x3d32e240	0.0436728
59	0x3d0ddc75	0.034634072
60	0x3c32d66b	0.010915379
61	0xbd3f7325	-0.04674067
62	0xbd0adb1e	-0.033900373
63	0xbd539213	-0.05165298
64	0xbb74833f	-0.0037309674
65	0xbdbcd3d0	-0.092200875
66	0x3cd86441	0.026414992
67	0x3b576860	0.0032868609
68	0xbd6b9dbb	-0.05752347
69	0xbc968ebb	-0.018378606
70	0x3d33cded	0.043897558
71	0x3d91c5e2	0.07117821
72	0x3dcda44a	0.10041101
73	0x3cd4f633	0.025996303
74	0x3d1a3530	0.03764838
75	0xbb62b68a	-0.0034593665
76	0xbd90a39e	-0.070624575
77	0xbacce3a2	-0.0015631805
78	0x3cd4ddb9	0.025984632
79	0x3dde0a77	0.1084184
80	0x3c321af9	0.010870689
81	0x3b673af4	0.0035282942
82	0x3d11cc6c	0.035595343
83	0x3ada1265	0.0016637562
84	0x3ae85875	0.0017726558
85	0x3d480f79	0.04884288
86	0xbc2323ca	-0.009957263
87	0xbc1e2b73	-0.009653914
88	0x3d907349	0.07053239
89	0xbc937b55	-0.018003145
90	0xbde528fe	-0.11189459
91	0xbd292158	-0.041291565
92	0xbc2e1e6a	-0.010627368
93	0x3d7a92c0	0.061175108
94	0x3d4c2eaf	0.04984921
95	0xbc4d5a7a	-0.012533778
96	0xbd0a1e3e	-0.033720247
97	0x3d888ac4	0.066670924
98	0xbb8f10e9	-0.0043660295
99	0x3d545968	0.051843077
100	0xbc8b0762	-0.016971294
101	0xbcb68f46	-0.022285115
102	0xbbaf100c	-0.005342489
103	0xbce50b08	-0.027959362
104	0xbd46efaf	-0.048568424
105	0xbc428e86	-0.011874801
106	0x3ddc8bf2	0.1076888
107	0x3c5bdf75	0.0134199755
108	0x3d465d0f	0.04842859
109	0xbcf68648	-0.030093327
110	0x3d2d20ee	0.042267732
111	0x3d0fbd06	0.035092376
112	0x3b2bb517	0.0026200467
113	0x3bdc8050	0.006729163
114	0xbc0513ae	-0.008122368
115	0x3de93455	0.11386935
116	0x3d43b285	0.04777767
117	0xbd17e6b2	-0.037085243
118	0x3d7848cf	0.06061631
119	0x3cd5aeeb	0.026084384
120	0xbc71576d	-0.014730317
121	0x3c95d81f	0.018291531
122	0xbb879f4c	-0.0041388627
123	0xbe882c7f	-0.26596448
124	0x3c016e45	0.007899825
125	0x3d453d25	0.048154015
126	0x3c8c01ab	0.01709064
127	0xbd403110	-0.04692179
128	0x3d4c62c9	0.049898896
129	0xbdb662fe	-0.089056
130	0xbe214752	-0.15749863
131	0x3c3d2c09	0.011546143
132	0x3d8d6606	0.06904225
133	0xbe1ad46f	-0.151201
134	0xbd9d0ced	-0.07668481
135	0x3db1521a	0.08658238
136	0x3d33d1b1	0.04390115
137	0x3d3f6851	0.046730343
138	0x3de25c1d	0.110527255
139	0xbe1254c9	-0.14290155
140	0xbb9c926f	-0.0047781984
141	0x3d2fd1cc	0.042924687
142	0x3b68830e	0.0035478505
143	0x3d042221	0.03225911
144	0xbd8a082b	-0.06739839
145	0xbe195b82	-0.14976314
146	0xbdb47b57	-0.08812588
147	0xbdb47660	-0.08811641
148	0x3d9646d0	0.07337725
149	0x3d6630c8	0.056198865
150	0xbe2effaa	-0.17089716
151	0x3ca26775	0.019824723
152	0x3daccb8f	0.08437263
153	0xbcc138a2	-0.023586575
154	0xbd86c562	-0.065806165
155	0x3db1f993	0.08690181
156	0x3ca3abcb	0.019979378
157	0x3c2d3fd3	0.010574299
158	0xbc5e4756	-0.0135668125
159	0x3dc04782	0.09388639
160	0xbc6c549a	-0.014424467
161	0xbdef7c01	-0.11693574
162	0xbd54daec	-0.051966593
163	0xbdd4160e	-0.10355769
164	0x3da066c0	0.07832098
165	0xbe23dd59	-0.16002406
166	0x3d23551b	0.039876085
167	0xbdb29e7b	-0.08721634
168	0x3d8ea8dc	0.06965801
169	0x3db42384	0.087958366
170	0xbc88558d	-0.016642356
171	0xbdf5f162	-0.12008931
172	0x3d4c3a34	0.049860194
173	0x3def09fa	0.11671825
174	0x3c3aa859	0.011392676
175	0x3d821844	0.063522846
176	0xbe4cfa32	-0.20017317
177	0x3c5b7ff6	0.0133972075
178	0xbdf3e24a	-0.119083956
179	0x3d9a7cff	0.07543372
180	0xbe3ae493	-0.18251257
181	0xbe17d285	-0.148264
182	0xbdd9f9bd	-0.10643337
183	0xbe112ab3	-0.14176445
184	0x3d1a2e02	0.037641533
185	0x3cbc7f96	0.023010056
186	0x3cb0feb2	0.021605823
187	0x3c3518d9	0.011053287
188	0x3d908b7a	0.07057853
189	0x3d1a5c76	0.037685834
190	0x3da7b5b5	0.08188955
191	0xbdf9f036	-0.1220402
192	0xbda3bcd1	-0.07994998
193	0xbc267ef5	-0.010162105
194	0xbdd62408	-0.10456091
195	0xbda35f47	-0.07977157
196	0xbd9b366b	-0.07578739
197	0x3d16ec9b	0.03684674
198	0x3d3da7fb	0.046302777
199	0x3d75590c	0.059899375
200	0x3ccfca2c	0.025364958
201	0x3cfef9d1	0.031124981
202	0xbe2590ea	-0.16168562
203	0xbe24d88c	-0.16098231
204	0xbc357e54	-0.011077482
205	0xbddb828f	-0.107182615
206	0x3d910cd2	0.070825234
207	0xbb0b674e	-0.0021271291
208	0xbd9202c6	-0.07129435
209	0x3d8036f1	0.06260479
210	0x3c9cbc3d	0.019132728
211	0xbcefd7e5	-0.029277751
212	0xbe0af185	-0.13568695
213	0x3ce4ada5	0.027914831
214	0xbe407bbf	-0.18797205
215	0xbe159f15	-0.14611466
216	0xbd8bc008	-0.068237364
217	0x3d8026fd	0.062574364
218	0xbb4832d0	-0.0030547865
219	0x3c2e6956	0.010645231
220	0xbe19a256	-0.15003332
221	0x3be67713	0.0070332377
222	0x3d9f3247	0.077732615
223	0x3da3ba01	0.07994462
224	0xbd79bb1a	-0.06096945
225	0x3ca7053b	0.020388236
226	0x3cfbce40	0.030737996
227	0x3d084d78	0.033277005
228	0x3beeb8c8	0.0072852112
229	0xbe3e5c87	-0.18589984
230	0xbda0d319	-0.07852764
231	0x3d8e14d5	0.06937567
232	0xbe03a623	-0.12856345
233	0x3dadf424	0.08493832
234	0xbe37054e	-0.17873117
235	0x3db43872	0.087998286
236	0x3d3e0298	0.046389192
237	0x3dbec51d	0.0931494
238	0xbe3c9b71	-0.18418671
239	0x3ca1cdbf	0.019751428
240	0xbc572fe9	-0.013133981
241	0x3d29dc18	0.041469663
242	0x3daf6a29	0.0856517
243	0xbd0ec63a	-0.034857012
244	0x3d786b5f	0.060649272
245	0x3db2edc4	0.087367564
246	0xbcf926f4	-0.030414082
247	0xbe1c5019	-0.1526493
248	0xbdd4adeb	-0.10384735
249	0xbe302406	-0.17201242
250	0x3d89be0d	0.067257024
251	0xbd30b3b7	-0.04314014
252	0xbe0582af	-0.13038133
253	0xbd8a1c3b	-0.06743666
254	0xbd2de966	-0.042458914
255	0xbcc93aa5	-0.024564097

action_model._continuous_distribution.mu.bias f4 [2]
0	0xbb4010ce	-0.0029306891
1	0x3e201c31	0.15635754

onnx::Div_51 f4 [90]
0	0x3e75145a	0.23933545
1	0x3e7545b3	0.2395237
2	0x3e72f263	0.23725276
3	0x3e6f094c	0.2334339
4	0x3e72f3af	0.2372577
5	0x3e7dc5c7	0.24782477
6	0x3e8537b3	0.26019058
7	0x3e8b159b	0.2716492
8	0x3e90bf45	0.28270927
9	0x3e967b72	0.29391056
10	0x3e9c4fdd	0.3052968
11	0x3ea2350c	0.31681097
12	0x3ea7e1c9	0.32789448
13	0x3eacc3c1	0.33743098
14	0x3eb09c2e	0.34494156
15	0x3eb37708	0.3505175
16	0x3eb53866	0.3539459
17	0x3eb5ce2e	0.35508865
18	0x3eb534b3	0.3539177
19	0x3eb3885d	0.35064974
20	0x3eb0f07b	0.34558472
21	0x3ead69ea	0.3386987
22	0x3ea91eae	0.3303122
23	0x3ea439b1	0.32075265
24	0x3e9f1a28	0.31074643
25	0x3e9a79a2	0.30170923
26	0x3e968bc6	0.29403514
27	0x3e92f4f4	0.2870251
28	0x3e8f3a26	0.2797405
29	0x3e8b3636	0.27189797
30	0x3e86f2ae	0.26357025
31	0x3e82335d	0.25429812
32	0x3e79ae94	0.24383003
33	0x3e6a1cea	0.22862592
34	0x3e51cdac	0.20488614
35	0x3e3d8fab	0.18511836
36	0x3e262028	0.16223204
37	0x3e0a91e9	0.13532223
38	0x3de3b1d9	0.11117906
39	0x3d974786	0.07386689
40	0x3cd6134b	0.026132246
41	0x3aefb580	0.0018288344
42	0x3ad8c3d0	0.0016537849
43	0x3adaed3f	0.0016702785
44	0x3ae2137d	0.001724824
45	0x3ae57552	0.0017506278
46	0x3e72bf34	0.2370575
47	0x3e6d44a5	0.23170717
48	0x3e68c96e	0.2273309
49	0x3e69c19a	0.2282776
50	0x3e716318	0.23572958
51	0x3e7e0ddc	0.24809974
52	0x3e859bf1	0.26095536
53	0x3e8bf2e9	0.27333763
54	0x3e922cea	0.28549892
55	0x3e9818ee	0.2970652
56	0x3e9d50a6	0.30725592
57	0x3ea20f1c	0.31652153
58	0x3ea66bff	0.3250427
59	0x3eaa933e	0.33315462
60	0x3eae6470	0.34061003
61	0x3eb1e6db	0.3474644
62	0x3eb487a7	0.35259745
63	0x3eb63a25	0.35591236
64	0x3eb6d413	0.35708675
65	0x3eb65d75	0.35618177
66	0x3eb4c203	0.3530427
67	0x3eb2315e	0.3480329
68	0x3eaead27	0.3411648
69	0x3eaa4218	0.3325355
70	0x3ea517ae	0.3224463
71	0x3e9fc28f	0.31203124
72	0x3e9af1d4	0.30262625
73	0x3e96976d	0.29412404
74	0x3e926a93	0.28596935
75	0x3e8e153a	0.2775057
76	0x3e88cfe5	0.2672111
77	0x3e82045b	0.25393948
78	0x3e752849	0.23941149
79	0x3e62f07e	0.22162053
80	0x3e4ba137	0.19885717
81	0x3e305571	0.17220093
82	0x3e104138	0.14087379
83	0x3de00cab	0.10939916
84	0x3d91c242	0.0711713
85	0x3cd7c2db	0.026338032
86	0x3b011384	0.001969547
87	0x3aeee09f	0.0018224901
88	0x3aeee194	0.0018225187
89	0x3ae74888	0.0017645517
