results/90RC2/Park90RC/Park90RC-5499866.pt (torch, 825364 bytes, 52 tensors)

network_body.observation_encoder.processors.0.normalizer.running_mean f4 [90]
000000 c6 f3 0d 3f 39 7e 0d 3f be 42 0b 3f f0 e1 06 3f
       0.55450094 0.55270725 0.54398715 0.52688503
000010 2a 22 02 3f 22 fe fc 3e 7e cc f9 3e d2 a2 fa 3e
       0.5083338 0.49412638 0.48788828 0.48952347
000020 e8 f2 fd 3e 69 de 01 3f 34 e5 05 3f 61 0a 0b 3f
       0.49599385 0.50729996 0.5230286 0.5431271
000030 e2 13 11 3f 7c a4 17 3f bd 82 1e 3f ac b5 25 3f
       0.56670964 0.5923536 0.6191824 0.64730334
000040 20 ef 2c 3f e2 42 34 3f 58 4a 3b 3f 0c d8 41 3f
       0.67552376 0.70414555 0.73160315 0.75720286
000050 f1 08 48 3f 5d cc 4d 3f 37 0c 53 3f 8a db 57 3f
       0.78138644 0.8038996 0.82440513 0.84319365
000060 7d 00 5c 3f a3 44 5f 3f fc cd 61 3f 60 df 63 3f
       0.85938245 0.87214106 0.8820493 0.8901272
000070 ff b2 65 3f 72 71 67 3f 40 19 69 3f c7 c7 6a 3f
       0.8972625 0.9040748 0.91054153 0.91711086
000080 a9 8a 6c 3f c5 01 6f 3f d9 94 72 3f 31 1d 75 3f
       0.9239908 0.93362075 0.94758373 0.9574767
000090 b5 b6 77 3f e6 42 7a 3f 62 17 7c 3f 6a 45 7e 3f
       0.96763164 0.9775833 0.9847318 0.9932467
0000a0 22 ca 7f 3f 46 fe 7f 3f 74 fe 7f 3f b8 fe 7f 3f
       0.99917805 0.99997365 0.9999764 0.99998045
0000b0 9b fe 7f 3f 9b fe 7f 3f 53 29 0d 3f 2c c4 0a 3f
       0.9999787 0.9999787 0.5514118 0.54205585
0000c0 06 7a 07 3f 0b 3d 04 3f c2 db 00 3f e6 cd fb 3e
       0.5292057 0.51655644 0.50335324 0.49180526
0000d0 00 75 f9 3e 44 19 fa 3e e7 cd fd 3e ca d0 01 3f
       0.48722076 0.488474 0.49571154 0.5070921
0000e0 f4 70 05 3f 26 bb 09 3f 0a be 0e 3f 47 68 14 3f
       0.5212548 0.5380119 0.55758727 0.57971615
0000f0 be 9f 1a 3f a3 78 21 3f e1 9b 28 3f 54 f8 2f 3f
       0.604 0.630747 0.6586285 0.68738294
000100 66 53 37 3f bd 72 3e 3f 52 0c 45 3f 79 30 4b 3f
       0.7161163 0.74393827 0.76971924 0.7937084
000110 8f 8e 50 3f b4 7f 55 3f e9 ce 59 3f 78 69 5d 3f
       0.8146753 0.83397985 0.85081345 0.8648906
000120 b8 3d 60 3f 7e 92 62 3f e4 86 64 3f 41 62 66 3f
       0.87594175 0.8850478 0.89268327 0.89993674
000130 20 78 68 3f 9e fe 6a 3f 8b 8a 6d 3f 49 67 70 3f
       0.90808296 0.91794765 0.92789525 0.939076
000140 1a a7 73 3f 20 e6 76 3f ce 0b 7a 3f 85 6c 7c 3f
       0.9517685 0.9644489 0.9767426 0.9860309
000150 34 78 7e 3f c8 c7 7f 3f 57 fe 7f 3f 81 fe 7f 3f
       0.99402165 0.99914217 0.99997467 0.9999772
000160 7e fe 7f 3f 97 fe 7f 3f
       0.999977 0.9999785

network_body.observation_encoder.processors.0.normalizer.running_variance f4 [90]
000000 df 8d 99 48 5e cc 99 48 0f f3 96 48 2c 32 92 48
       314478.97 314978.94 309144.47 299409.38
000010 eb f2 96 48 19 c6 a4 48 ba cf b5 48 ae 4e c6 48
       309143.34 337456.78 372349.8 406133.44
000020 89 e4 d6 48 0c 5e e8 48 a3 d4 fa 48 e2 17 07 49
       440100.28 475888.38 513701.1 553342.1
000030 7e b2 10 49 20 37 19 49 ae 17 20 49 3d 50 25 49
       592679.9 627570.0 655738.9 677123.8
000040 94 92 28 49 3c b2 29 49 79 a3 28 49 5f 9c 25 49
       690473.25 695075.75 690743.56 678341.94
000050 0f ef 20 49 d1 a8 1a 49 9c 29 13 49 72 da 0a 49
       659184.94 633485.06 602777.75 568743.1
000060 06 6b 02 49 b5 04 f6 48 c3 b5 e9 48 9e b3 de 48
       534192.4 503845.66 478638.1 456092.94
000070 b6 8f d3 48 0a e9 c7 48 31 eb bb 48 9a 07 af 48
       433277.7 409416.3 384857.53 358460.8
000080 84 0a a1 48 bf df 8d 48 25 04 65 48 d9 a4 3b 48
       329812.12 290557.97 234512.58 192147.39
000090 df 7f 10 48 1c 37 ca 47 e6 1d 89 47 3f 72 f0 46
       147967.48 103534.22 70203.8 30777.123
0000a0 45 2f 61 45 1e e0 a1 41 ae 7a 88 41 2b 4f 90 41
       3602.9543 20.234432 17.059902 18.038656
0000b0 d8 1b 98 41 5c 08 94 41 49 68 96 48 7d 75 8f 48
       19.013596 18.504082 308034.28 293803.9
0000c0 46 16 8a 48 83 51 8b 48 88 b6 94 48 17 f8 a4 48
       282802.2 285324.1 304564.25 337856.72
0000d0 34 8e b6 48 d8 56 c8 48 a8 99 da 48 c3 c8 ec 48
       373873.62 410294.75 447693.25 484934.1
0000e0 79 a9 fd 48 03 cc 06 49 0f 36 0e 49 93 52 15 49
       519499.78 552128.2 582496.94 611625.2
0000f0 a4 02 1c 49 e2 43 22 49 58 0b 27 49 5c 2a 2a 49
       639018.25 664638.1 684213.5 696997.75
000100 23 4b 2b 49 62 75 2a 49 0e 80 27 49 11 cc 22 49
       701618.2 698198.1 686080.9 666817.06
000110 8c 6e 1c 49 5a 9f 14 49 39 c6 0b 49 87 ed 02 49
       640744.75 608757.6 572515.56 536280.44
000120 23 50 f6 48 f8 98 e8 48 71 c8 db 48 7c d0 ce 48
       504449.1 476359.75 450115.53 423555.88
000130 00 94 bf 48 bc d6 ac 48 0f 59 99 48 1b 1a 83 48
       392352.0 353973.88 314056.47 268496.84
000140 6a b0 52 48 ff 87 1d 48 b0 7a d0 47 06 e6 79 47
       215745.66 161311.98 106741.375 63974.023
000150 67 77 d2 46 74 c5 64 45 77 32 b7 41 86 9f 9f 41
       26939.701 3660.3408 22.899641 19.952892
000160 5e 85 9f 41 38 97 96 41
       19.94012 18.823837

network_body.processors.0.normalizer.running_mean f4 [90]
000000 c6 f3 0d 3f 39 7e 0d 3f be 42 0b 3f f0 e1 06 3f
       0.55450094 0.55270725 0.54398715 0.52688503
000010 2a 22 02 3f 22 fe fc 3e 7e cc f9 3e d2 a2 fa 3e
       0.5083338 0.49412638 0.48788828 0.48952347
000020 e8 f2 fd 3e 69 de 01 3f 34 e5 05 3f 61 0a 0b 3f
       0.49599385 0.50729996 0.5230286 0.5431271
000030 e2 13 11 3f 7c a4 17 3f bd 82 1e 3f ac b5 25 3f
       0.56670964 0.5923536 0.6191824 0.64730334
000040 20 ef 2c 3f e2 42 34 3f 58 4a 3b 3f 0c d8 41 3f
       0.67552376 0.70414555 0.73160315 0.75720286
000050 f1 08 48 3f 5d cc 4d 3f 37 0c 53 3f 8a db 57 3f
       0.78138644 0.8038996 0.82440513 0.84319365
000060 7d 00 5c 3f a3 44 5f 3f fc cd 61 3f 60 df 63 3f
       0.85938245 0.87214106 0.8820493 0.8901272
000070 ff b2 65 3f 72 71 67 3f 40 19 69 3f c7 c7 6a 3f
       0.8972625 0.9040748 0.91054153 0.91711086
000080 a9 8a 6c 3f c5 01 6f 3f d9 94 72 3f 31 1d 75 3f
       0.9239908 0.93362075 0.94758373 0.9574767
000090 b5 b6 77 3f e6 42 7a 3f 62 17 7c 3f 6a 45 7e 3f
       0.96763164 0.9775833 0.9847318 0.9932467
0000a0 22 ca 7f 3f 46 fe 7f 3f 74 fe 7f 3f b8 fe 7f 3f
       0.99917805 0.99997365 0.9999764 0.99998045
0000b0 9b fe 7f 3f 9b fe 7f 3f 53 29 0d 3f 2c c4 0a 3f
       0.9999787 0.9999787 0.5514118 0.54205585
0000c0 06 7a 07 3f 0b 3d 04 3f c2 db 00 3f e6 cd fb 3e
       0.5292057 0.51655644 0.50335324 0.49180526
0000d0 00 75 f9 3e 44 19 fa 3e e7 cd fd 3e ca d0 01 3f
       0.48722076 0.488474 0.49571154 0.5070921
0000e0 f4 70 05 3f 26 bb 09 3f 0a be 0e 3f 47 68 14 3f
       0.5212548 0.5380119 0.55758727 0.57971615
0000f0 be 9f 1a 3f a3 78 21 3f e1 9b 28 3f 54 f8 2f 3f
       0.604 0.630747 0.6586285 0.68738294
000100 66 53 37 3f bd 72 3e 3f 52 0c 45 3f 79 30 4b 3f
       0.7161163 0.74393827 0.76971924 0.7937084
000110 8f 8e 50 3f b4 7f 55 3f e9 ce 59 3f 78 69 5d 3f
       0.8146753 0.83397985 0.85081345 0.8648906
000120 b8 3d 60 3f 7e 92 62 3f e4 86 64 3f 41 62 66 3f
       0.87594175 0.8850478 0.89268327 0.89993674
000130 20 78 68 3f 9e fe 6a 3f 8b 8a 6d 3f 49 67 70 3f
       0.90808296 0.91794765 0.92789525 0.939076
000140 1a a7 73 3f 20 e6 76 3f ce 0b 7a 3f 85 6c 7c 3f
       0.9517685 0.9644489 0.9767426 0.9860309
000150 34 78 7e 3f c8 c7 7f 3f 57 fe 7f 3f 81 fe 7f 3f
       0.99402165 0.99914217 0.99997467 0.9999772
000160 7e fe 7f 3f 97 fe 7f 3f
       0.999977 0.9999785

network_body.processors.0.normalizer.running_variance f4 [90]
000000 df 8d 99 48 5e cc 99 48 0f f3 96 48 2c 32 92 48
       314478.97 314978.94 309144.47 299409.38
000010 eb f2 96 48 19 c6 a4 48 ba cf b5 48 ae 4e c6 48
       309143.34 337456.78 372349.8 406133.44
000020 89 e4 d6 48 0c 5e e8 48 a3 d4 fa 48 e2 17 07 49
       440100.28 475888.38 513701.1 553342.1
000030 7e b2 10 49 20 37 19 49 ae 17 20 49 3d 50 25 49
       592679.9 627570.0 655738.9 677123.8
000040 94 92 28 49 3c b2 29 49 79 a3 28 49 5f 9c 25 49
       690473.25 695075.75 690743.56 678341.94
000050 0f ef 20 49 d1 a8 1a 49 9c 29 13 49 72 da 0a 49
       659184.94 633485.06 602777.75 568743.1
000060 06 6b 02 49 b5 04 f6 48 c3 b5 e9 48 9e b3 de 48
       534192.4 503845.66 478638.1 456092.94
000070 b6 8f d3 48 0a e9 c7 48 31 eb bb 48 9a 07 af 48
       433277.7 409416.3 384857.53 358460.8
000080 84 0a a1 48 bf df 8d 48 25 04 65 48 d9 a4 3b 48
       329812.12 290557.97 234512.58 192147.39
000090 df 7f 10 48 1c 37 ca 47 e6 1d 89 47 3f 72 f0 46
       147967.48 103534.22 70203.8 30777.123
0000a0 45 2f 61 45 1e e0 a1 41 ae 7a 88 41 2b 4f 90 41
       3602.9543 20.234432 17.059902 18.038656
0000b0 d8 1b 98 41 5c 08 94 41 49 68 96 48 7d 75 8f 48
       19.013596 18.504082 308034.28 293803.9
0000c0 46 16 8a 48 83 51 8b 48 88 b6 94 48 17 f8 a4 48
       282802.2 285324.1 304564.25 337856.72
0000d0 34 8e b6 48 d8 56 c8 48 a8 99 da 48 c3 c8 ec 48
       373873.62 410294.75 447693.25 484934.1
0000e0 79 a9 fd 48 03 cc 06 49 0f 36 0e 49 93 52 15 49
       519499.78 552128.2 582496.94 611625.2
0000f0 a4 02 1c 49 e2 43 22 49 58 0b 27 49 5c 2a 2a 49
       639018.25 664638.1 684213.5 696997.75
000100 23 4b 2b 49 62 75 2a 49 0e 80 27 49 11 cc 22 49
       701618.2 698198.1 686080.9 666817.06
000110 8c 6e 1c 49 5a 9f 14 49 39 c6 0b 49 87 ed 02 49
       640744.75 608757.6 572515.56 536280.44
000120 23 50 f6 48 f8 98 e8 48 71 c8 db 48 7c d0 ce 48
       504449.1 476359.75 450115.53 423555.88
000130 00 94 bf 48 bc d6 ac 48 0f 59 99 48 1b 1a 83 48
       392352.0 353973.88 314056.47 268496.84
000140 6a b0 52 48 ff 87 1d 48 b0 7a d0 47 06 e6 79 47
       215745.66 161311.98 106741.375 63974.023
000150 67 77 d2 46 74 c5 64 45 77 32 b7 41 86 9f 9f 41
       26939.701 3660.3408 22.899641 19.952892
000160 5e 85 9f 41 38 97 96 41
       19.94012 18.823837

network_body._body_endoder.seq_layers.0.weight f4 [128, 90]
000000 58 93 15 3e fe 89 8d 3d 58 e2 84 bd 7a c5 48 3d
       0.14606988 0.069110855 -0.06488484 0.049016453
000010 c6 1e 9c 3d 10 4c 44 bd a4 a3 0e be 43 46 45 3e
       0.07623057 -0.0479241 -0.13929611 0.19265084
000020 16 e2 d3 3d d6 b2 e3 3d fd 2c c2 3d 4a ce 0a be
       0.10345857 0.111180946 0.09481237 -0.13555256
000030 da c2 62 3e 51 14 88 3e 51 c8 a2 3e 60 b0 ed 3d
       0.22144642 0.26578 0.31793454 0.116059065
000040 04 2a cb 3d 55 cf 5c 3e 5a 34 33 3e 09 40 a3 3e
       0.09920123 0.21563466 0.1750044 0.31884792
000050 c1 4d db 3d 46 de 8a 3d af af 88 3e b1 5d 7a 3d
       0.1070819 0.067806765 0.26696536 0.061124507
000060 03 13 29 3e 4e ac 20 3e 3a 73 8f 3d a9 fb 59 3e
       0.16511159 0.15690729 0.070043996 0.21287407
000070 26 1a d3 3d 94 43 53 3e fa ff ad 3c 09 a2 ad bd
       0.10307722 0.20631248 0.021240223 -0.084781714
000080 d1 0a 1d 3d bd e5 a0 3e af 7b 27 3d b4 b4 cc bc
       0.038340393 0.31425276 0.04088944 -0.02498851
000090 22 26 4d 3e 5d 98 e8 3d 74 58 e3 3c 2a aa f9 3d
       0.20034078 0.11357186 0.027752139 0.12190659
0000a0 90 d7 5b 3e 59 99 1e 3d 53 6d 1d bc d3 61 26 3e
       0.2146895 0.038720462 -0.009608584 0.16248254
0000b0 45 b8 67 3c b3 c5 ae 3d 9f 90 b5 3d 2c 57 a5 3c
       0.014143054 0.08533802 0.08865475 0.020183168
0000c0 24 be 13 be 55 b6 02 3d 56 89 63 bd a5 d6 8e 3d
       -0.14428002 0.031912167 -0.055550896 0.06974534
0000d0 1c f8 6e 3d eb e1 f4 bb 3d e4 92 3d 2c 14 b9 bd
       0.058342084 -0.0074732206 0.07172439 -0.090370506
0000e0 71 55 d6 bd ef c0 b5 3c c5 33 bb bc e9 61 65 be
       -0.104655154 0.022186724 -0.022851834 -0.22400631
0000f0 8c d5 45 bd 7d c5 d6 bc c9 78 e7 bd 76 bc 13 be
       -0.048299357 -0.026217217 -0.11302335 -0.14427361
000100 05 0c c5 bd 47 85 5f be aa 27 0d be 34 57 b6 bd
       -0.09621433 -0.21828185 -0.13784662 -0.089033514
000110 e3 1a e2 bc 37 97 9e bc da ff 7b bd 2e 39 18 3e
       -0.027600711 -0.019359214 -0.061523296 0.14865562
000120 e2 fc 9f be 58 a3 44 be 12 2d 93 3d d7 50 3c 3d
       -0.31247622 -0.19202936 0.07186331 0.045975532
000130 89 95 dd 3d c7 14 08 3d e7 f3 97 3d 97 1c 2c 3e
       0.10819537 0.03322294 0.074195676 0.16807781
000140 37 e8 c8 bd 90 dc 01 3e 63 ae 06 bd d4 d7 e9 3d
       -0.098099165 0.12681794 -0.032881152 0.11418119
000150 5d a3 11 3e 92 7c 20 be 39 c0 93 3d 29 e0 a3 3d
       0.14222474 -0.1567252 0.07214398 0.080017395
000160 11 27 ba 3e f2 26 43 3e d6 13 86 bd f1 cd 8b bd
       0.3635793 0.19057825 -0.06546752 -0.068263896
000170 33 87 7f bc 5d b4 26 3e 37 59 ee bd 48 78 3c 3e
       -0.015596199 0.1627974 -0.1163811 0.18405259
000180 dd 25 56 3e b7 03 3e 3e d1 03 06 3e db 7d 6c 3e
       0.20912881 0.18556105 0.13087393 0.23094885
000190 33 f3 e5 3d 8b 80 28 3e bd 34 0a 3e 88 e5 89 3d
       0.11228027 0.16455285 0.1349668 0.06733233
0001a0 30 7b ca ba 74 cb 3f be 2f a0 a0 bc 92 1b b2 3c
       -0.001544809 -0.18729955 -0.019607631 0.021741662
0001b0 20 60 4a 3e cc d0 12 be 2c 0d 03 3e 0c 00 bd 3d
       0.19763231 -0.14337462 0.12797993 0.092285246
0001c0 80 c7 f4 3a 71 45 be 3b 83 35 a2 3c e0 ee 17 3c
       0.0018675178 0.005806618 0.019800907 0.009273261
0001d0 5d ed a7 3d 53 84 e2 3d 50 77 10 3d f8 a5 31 3d
       0.0819957 0.11060395 0.035270035 0.04337117
0001e0 f3 da 4d 3d 46 72 4d bd d0 61 41 be 7c 6f 0e 3e
       0.050257634 -0.050157808 -0.18884969 0.13909715
0001f0 91 66 01 3e 8d ba 5c bd 03 30 77 3d 79 c2 ed ba
       0.12636782 -0.053888846 0.060348522 -0.0018139622
000200 ea d0 cd bd 6f a9 2c 3d 57 6c 73 be 98 fe a9 bd
       -0.10049613 0.042153772 -0.23771797 -0.08300513
000210 48 a1 db 3d b2 50 ca 3d d7 11 13 bd 78 b1 b0 bd
       0.10724121 0.09878673 -0.035905685 -0.086275995
000220 3d fa e4 bc 8e 7d 19 3e 53 45 27 be 61 8e a6 3d
       -0.027951354 0.14989302 -0.16335039 0.08132625
000230 ff 05 1d be 0e ed 03 bd 84 c4 9d 3d 82 a9 37 bd
       -0.15334319 -0.032208495 0.07703498 -0.04483939
000240 b5 03 24 3d b9 a1 93 bc 45 01 39 be c2 91 a8 3b
       0.040042598 -0.018021451 -0.1806689 0.005144329
000250 3e be 79 bd 27 ee eb bc bb 71 20 3d 32 ac bb 3d
       -0.060972445 -0.028800083 0.03917096 0.09163703
000260 7b 7a a6 bd 2e db 43 3e a6 54 0d bd 74 02 06 be
       -0.0812883 0.19126579 -0.034504555 -0.13086873
000270 88 4c 87 be ac 69 57 bd 62 40 3f 3d 20 b0 cc bd
       -0.26425576 -0.05259101 0.04669226 -0.09994531
000280 ed 93 1b bd c5 4c 6d 3d 3e 93 c0 bd 19 80 54 ba
       -0.03798287 0.05793454 -0.09403084 -0.0008106246
000290 b7 4d 9e 3d 5a fb 79 3d df 41 b9 bd cb 1d a3 bd
       0.07729667 0.061030723 -0.09045767 -0.07964667
0002a0 e2 57 a6 3d 1f 5b 93 bb 49 ed 7e bd f3 ca 81 bd
       0.08122231 -0.0044969465 -0.06223801 -0.063375376
0002b0 3a 4d 91 bd 13 4e 85 bd ea ef 21 3e 9f d2 35 be
       -0.07094808 -0.06509032 0.15814176 -0.17756127
0002c0 54 e4 d6 bd 19 54 e2 bd dc 15 96 bd 66 f5 c8 3d
       -0.10492769 -0.110511966 -0.07328388 0.09812431
0002d0 7f 77 d5 bd 0b 51 68 be dd 2e 70 be 4d 94 9d bd
       -0.10423183 -0.22687165 -0.23455377 -0.07694302
0002e0 c8 b9 41 bb dd cb 3b 3e 36 5b 6a bd 19 dd f0 3d
       -0.0029560197 0.18339486 -0.05721589 0.11760921
0002f0 d7 9c 66 3e 75 14 86 3d 85 31 61 3d 4e 18 05 bd
       0.22520767 0.065468706 0.054978866 -0.032493882
000300 b8 ee de 3a 13 02 64 be a1 b0 c4 3c cb e5 f7 bc
       0.00170084 -0.22266416 0.024010004 -0.030260941
000310 dc 92 e4 bd fd fd db bd 89 f2 81 be d1 ad 5a bc
       -0.11160824 -0.10741804 -0.25380352 -0.013347105
000320 58 7d 8a be 97 46 34 3d ee 50 b0 3c a4 fb 05 3e
       -0.27048755 0.044012632 0.021522965 0.13084275
000330 31 bd 8b bd fb 94 34 bd 0b 9f 8e 3d 16 61 d7 3d
       -0.06823195 -0.04408739 0.06963929 0.105165645
000340 af 8b 52 3d a1 c7 d7 3b 6f 42 34 bd 4b e9 23 be
       0.051402744 0.006585077 -0.04400867 -0.16006963
000350 59 0f 17 be 31 8b 19 be 8d 0c a9 be 42 8e d6 3d
       -0.14751948 -0.14994504 -0.33017388 0.10476352
000360 04 cc 09 3e d6 0d fa 3d fe c0 05 be eb 57 b8 bb
       0.13456732 0.1220967 -0.13061902 -0.005625715
000370 11 1d cc bd fc cf c9 3c 88 df 22 3e 7c e3 e4 bd
       -0.099664815 0.024635307 0.15905583 -0.11176202
000380 1f e7 b3 3d 6b 89 a8 bd c0 74 8d bc 63 e0 0d be
       0.08784317 -0.082293354 -0.017267585 -0.13855128
000390 34 80 ae bd f9 a6 c6 3d 09 66 ff 3d d3 01 15 bc
       -0.085205466 0.09699816 0.124706335 -0.009094673
0003a0 f5 e7 9f 3d 3e 49 fe bb 82 95 37 3e bb aa 0c bd
       0.07807914 -0.007760196 0.17928126 -0.03434251
0003b0 5d 31 99 3e 88 a7 0e 3e 7c 8c 7f 3e cb 95 27 3e
       0.29920474 0.13931096 0.24955934 0.16365735
0003c0 f6 d1 99 3d 5e 93 60 3e 01 5e 04 3d ca 1b ae 3d
       0.0751075 0.21931216 0.03231621 0.08501394
0003d0 b5 f5 ac bc d2 5a 9d 3d 2b f3 92 bb 0b 4e e5 3d
       -0.021113256 0.07683338 -0.0044845543 0.11196526
0003e0 18 cb 09 3e fa bf 6e 3e a6 63 43 3d d1 bc a2 bd
       0.1345638 0.23315421 0.047702454 -0.0794617
0003f0 3f be 6f bd 3d da 62 be ab 1d 64 bd 1e fb bd bb
       -0.058531042 -0.22153564 -0.055692356 -0.0057977578

network_body._body_endoder.seq_layers.0.bias f4 [128]
000000 f9 15 ad 3d d4 f3 36 3c ab 9c f3 bb 26 3b ae bd
       0.084514566 0.011166532 -0.0074344478 -0.085073754
000010 13 65 cd 3d 06 eb 44 3d a5 5c 12 3d c3 72 a5 3d
       0.10029044 0.0480757 0.035732884 0.0807853
000020 b2 ee 18 3d 87 0a 9b 3d cb 8e 48 bd 36 05 78 3d
       0.037337013 0.07570367 -0.048964303 0.060551845
000030 c2 69 a5 3d 6e e9 72 bd 57 3b 68 bc 3d 14 2e 3b
       0.08076812 -0.059304647 -0.014174304 0.0026562356
000040 11 ac b1 3b 9b a2 9b 3d 6d 60 d1 3d 71 65 be 3c
       0.0054221232 0.07599374 0.1022347 0.02324173
000050 9f f4 b0 bc fd 7f 59 3d c7 db c3 3c 75 48 1f 3e
       -0.02160102 0.053100575 0.023908509 0.15554984
000060 7e 25 e8 3d 63 92 29 3e 69 0d 87 3d 2c 7e 34 bd
       0.11335276 0.16559748 0.06594355 -0.04406564
000070 75 4c 9b 3d ba d4 82 3d cd 96 1c 3d fd 86 d6 3d
       0.075829424 0.063882306 0.038229752 0.10474966
000080 69 8b 59 3d 88 1b b1 3d 2d fe 72 3d 80 6d 1f bc
       0.053111468 0.08647829 0.059324432 -0.009730697
000090 8a 75 1c 3b 7c a1 5a 3c 9a 50 ca 3c 08 85 ae 3d
       0.002387377 0.013344165 0.024696637 0.085214674
0000a0 ff 35 bd 3d 30 4d c6 3d 04 38 7d bd f8 f8 a3 bd
       0.092388146 0.09682691 -0.061821 -0.080064714
0000b0 6d d7 d2 3d 9c a1 ea 3d 42 74 97 3d 6f 51 cc 3d
       0.102949955 0.11456606 0.07395221 0.0997647
0000c0 1c b9 2c 3d 65 ff 2d bd 35 a7 fa bb 20 e9 ef 3c
       0.04216872 -0.04247989 -0.007649327 0.029285967
0000d0 c9 5d cc 3d 35 ad 3a 3d 57 79 87 3d 42 52 44 3d
       0.099788256 0.04557534 0.066149406 0.04793001
0000e0 12 30 1d 3d 45 35 4f 3d 33 b8 97 3d 8d 72 d2 3b
       0.03837592 0.05058791 0.0740818 0.006422347
0000f0 50 6a 3a 3d e9 80 eb bc 75 b9 03 bd b9 88 e5 3d
       0.045511544 -0.028747993 -0.032159287 0.112077184
000100 fb ca 54 3d 87 08 74 3d 85 c5 2a bd 9e 8b df 3d
       0.05195139 0.059578445 -0.041692276 0.10915302
000110 08 a8 62 3d f5 71 d3 3c 01 a5 e0 3c dc 06 7e bd
       0.05533603 0.025811175 0.02742243 -0.06201826
000120 6e 1c e7 bd b0 c6 19 3e 59 f5 81 3d 68 53 e6 3c
       -0.112847194 0.150172 0.063456245 0.028115943
000130 7c 34 00 3e d4 fc 79 3d a3 37 44 3d 96 25 5e 3d
       0.12520021 0.06103213 0.04790462 0.054235063
000140 e0 da e5 3d 8a a2 42 3d 14 77 a0 3d a5 e8 af bd
       0.11223388 0.04751829 0.07835212 -0.08589295
000150 7d d4 a1 bd 92 00 91 3a 0c 35 b3 3c fe 9a 84 bd
       -0.07901857 0.0011062792 0.02187588 -0.06474875
000160 fc 97 f3 3c 47 79 97 bd 51 2a 2c 3e 94 18 dc 3c
       0.029735558 -0.07396179 0.16813017 0.026867189
000170 8b e6 f5 3b e6 5c 89 3d 89 0f 99 3d d4 c6 1c 3d
       0.0075042895 0.06707172 0.07473666 0.038275555
000180 9d 39 a4 3d 65 b2 f5 3d b5 70 1e 3d 31 fc c6 3c
       0.08018801 0.11996917 0.038681705 0.024290176
000190 5a 84 1e 3d 0e 15 88 3d ca c9 b3 bc 92 7c 5f 3d
       0.03870044 0.06644641 -0.021946806 0.05456216
0001a0 49 1c d7 3c ae 09 2f bc 6f 25 7a 3c 3c bc 02 3b
       0.026258605 -0.01068346 0.015267714 0.0019948622
0001b0 fa 07 8b 3d 58 ca 45 3d 91 77 9f 3d 9e 74 90 3d
       0.06788631 0.048288673 0.07786477 0.07053493
0001c0 4f 0a ce 3d db 3c 6c bb 4a 17 fc 3c 42 33 13 3d
       0.1006056 -0.0036047015 0.030772824 0.035937555
0001d0 7f 7d d1 bb bc 90 1e 3e 13 14 99 bc cb 4f 9b 3d
       -0.006393134 0.154849 -0.01868633 0.07583579
0001e0 d1 39 9b 3d 87 0a d4 3b 35 56 e8 3b b9 82 3c 3e
       0.07579387 0.0064709815 0.007090355 0.18409242
0001f0 3b 8f 8c 3d e9 89 c4 bd 42 25 d6 3d 1a 82 9f 3d
       0.068632565 -0.09596617 0.10456325 0.07788487

network_body._body_endoder.seq_layers.2.weight f4 [128, 128]
000000 96 ea 4c 3e f8 67 c3 3c cd ed 21 3e 92 0d 52 be
       0.20011362 0.023853287 0.1581337 -0.20512989
000010 14 82 53 3d 48 0e ba 3d b5 32 cd 3d cf b0 72 3e
       0.051637724 0.09084755 0.10019437 0.2370026
000020 a5 95 0a bc 6e 52 4f bb 91 27 4f bb ae 29 88 3e
       -0.00845853 -0.0031634825 -0.0031609277 0.265943
000030 8d 69 73 3b 5c 79 38 3c ca ea 05 be e5 80 68 be
       0.003714177 0.011259403 -0.13077846 -0.2270542
000040 bc 50 4d bc 00 00 75 bc cf 1b 2c be b1 d2 8b 3d
       -0.012531456 -0.014953613 -0.16807483 0.068272956
000050 0d 3d 51 3c 7d 27 bf bd 9e a5 c9 3c 53 75 dc 3c
       0.012770903 -0.09333704 0.024615105 0.026911413
000060 3a b5 a1 bd 64 57 15 b8 f7 fe 55 be fc 1a 9b 3b
       -0.07895894 -3.5605757e-05 -0.20898043 0.0047334414
000070 41 e7 d6 b8 d6 20 3b 3e 94 66 08 be a5 b0 25 3d
       -0.000102473896 0.18274245 -0.1332038 0.040451664
000080 fe a8 5a 3d 89 71 6a 3e 74 32 4d bd 93 c0 29 3e
       0.05338382 0.22894873 -0.050096944 0.16577367
000090 f9 fc dd bd 12 95 94 3d a3 a2 db 3c b4 c5 34 3e
       -0.10839266 0.072549954 0.02681095 0.17653543
0000a0 86 d8 fa 3d a5 61 e1 3d 22 15 e9 3d 8a eb 87 3d
       0.1224833 0.11004952 0.11380984 0.066367224
0000b0 89 6b 30 bd 52 fa 60 bc a1 34 21 be db 39 c0 3d
       -0.043071304 -0.013731556 -0.15742733 0.09386035
0000c0 36 38 ee 3d 47 8f 0a 3e f8 75 08 3d 01 20 08 3d
       0.11631815 0.13531218 0.03331563 0.033233646
0000d0 88 81 0c 3e 7d 94 d8 bd d8 c8 cc bd d0 38 fe bc
       0.13721287 -0.10575197 -0.099992454 -0.03103295
0000e0 64 0e be bd 5c fb 06 be 86 fe 28 bd 67 8e 14 3e
       -0.092800885 -0.13181823 -0.041258357 0.14507447
0000f0 5d 23 39 bd 39 e7 ca 3c d1 ba 99 be 92 c2 7b 3e
       -0.04519974 0.024768459 -0.30025342 0.24585941
000100 01 ac 71 3c dd 7e 71 bd a4 1e b0 3c f2 20 ac bc
       0.014750482 -0.058958877 0.021498986 -0.021011803
000110 c9 7e 71 bd 49 5e e6 3d d6 a1 e9 3d 0b 08 64 3d
       -0.058958802 0.11248452 0.11407821 0.055671733
000120 75 bf a1 bd 4e 65 9e bd dc 0c 1d 3c 18 2a f2 bd
       -0.07897846 -0.07734166 0.009585585 -0.11824435
000130 14 2d 3a 3e 48 36 81 3d 5f 93 00 3e f7 b9 3e bd
       0.18181258 0.063091815 0.12556218 -0.04656407
000140 a4 37 07 3e bc ca 06 be d1 7f f9 3d 49 cf c5 bd
       0.13204819 -0.13163275 0.12182582 -0.09658677
000150 19 6b 03 bc 4a 93 7a bd 47 9a 49 3d 78 97 9a 3d
       -0.00802114 -0.061175622 0.049219396 0.075484216
000160 e3 c5 03 3e c2 c3 79 bd 32 fd 17 be 8e 20 0d 3e
       0.12868457 -0.060977705 -0.1484268 0.1378195
000170 2c bc c7 bd 3c ab 33 3e 2c ed ca 3d f8 ae eb bb
       -0.09752688 0.1754579 0.09908518 -0.0071924888
000180 69 2e 16 3e 7d d6 d0 bc f4 98 0f 3d 4c 28 21 be
       0.14666142 -0.025492901 0.035057977 -0.15738028
000190 e4 f3 57 3d 9f 9d 16 3e bb 50 82 3e 60 b8 79 3e
       0.052722827 0.14708565 0.25452217 0.2438674
0001a0 44 a2 e9 bd 63 0d 5f bd 08 d7 23 be 7d cd 30 3c
       -0.11407903 -0.054456126 -0.15999997 0.01079118
0001b0 bd c0 49 3d f4 24 cf 3d 74 92 b9 3d 9e f8 c5 3d
       0.049256075 0.1011447 0.09061137 0.096665606
0001c0 2e f4 6b bd 29 06 16 be a6 2b 3e bd ad a4 c5 bd
       -0.057605915 -0.14650787 -0.046428345 -0.0965055
0001d0 73 68 10 3e 2b c2 97 bd e8 6b cf 3c ba 92 41 3e
       0.14102344 -0.074100815 0.025320008 0.18903628
0001e0 88 d1 1b 3d c7 f7 86 bc 46 39 3b bd 69 c5 6b 3e
       0.03804162 -0.016475571 -0.045708917 0.23024525
0001f0 da 02 37 bd 3f 8a 5e 3d 77 86 91 bd 7d 4d 6d 3d
       -0.044680454 0.05433106 -0.07105725 0.057935227
000200 71 34 03 3d 05 03 5a 3d a5 d6 1d 3c 18 fc 83 bd
       0.032032434 0.053225536 0.009633695 -0.064445674
000210 0d 47 28 be dd 21 44 be be ed 43 be 1d 41 e3 bd
       -0.16433354 -0.19153543 -0.1913366 -0.11096404
000220 0c 21 6a bc 2d f9 e3 bd 33 fa 10 3e a3 f1 fd bd
       -0.014290106 -0.11131511 0.14157943 -0.12399604
000230 b6 07 de 3d 29 d9 0b bc d7 cb 06 3e 03 8f a2 3d
       0.108413145 -0.008535662 0.13163696 0.079374336
000240 bd 26 67 bd c7 08 a6 3b 68 e5 6a bd 14 69 c0 bd
       -0.056433428 0.0050669643 -0.057347685 -0.09395042
000250 5d 4d 96 bc 2a b4 3a 3d b3 b6 8a 3d 42 98 e6 bc
       -0.018347437 0.045581974 0.06773128 -0.028148774
000260 cd d7 eb 3a 9a ba 2d be 78 58 25 be 3c 93 cb bc
       0.0017993391 -0.16965714 -0.1614703 -0.02485048
000270 db 28 ca bd f7 5d e1 bc a4 f1 8b bd 21 54 ec 3b
       -0.09871074 -0.027510626 -0.06833199 0.0072121774
000280 75 27 ba 3d 1f eb c5 bd f2 11 83 3c bd ec ad bb
       0.09089557 -0.096639864 0.015999768 -0.0053077624
000290 e4 50 35 be 09 8c 3e 3d 6b 41 3e be 00 63 80 bd
       -0.17706639 0.046520267 -0.18579642 -0.06268883
0002a0 5a 49 a2 bd 79 8a 2d be 42 01 26 bd 43 8d 11 3e
       -0.07924147 -0.16947354 -0.040528543 0.14214043
0002b0 eb 8a d8 bc d0 42 8c 3c 43 5f e3 3c 80 07 bb 3d
       -0.026433429 0.017121702 0.027755385 0.0913229
0002c0 06 a4 45 3d f3 0f 4c be 4b 9a 06 be 60 67 40 be
       0.048252128 -0.19927959 -0.13144796 -0.18789434
0002d0 e4 18 06 be 47 05 09 3e 08 6f bd bd 99 69 ba 3d
       -0.13095433 0.1338092 -0.09249693 0.091021724
0002e0 0c d0 6b 3d 2f 5d 0a be 63 5a 87 3d 0d 8a ba 3d
       0.057571456 -0.13512109 0.06609037 0.09108362
0002f0 83 df 0e be 60 cf ce bd 33 ed 5d 3d 50 03 b1 3c
       -0.1395245 -0.100981474 0.05418129 0.021608025
000300 51 f5 bc 3c 78 82 dc 3d 9a 98 54 bd f6 38 33 bc
       0.023066195 0.107670724 -0.051903345 -0.0109388735
000310 af 73 b0 bd 17 43 39 3c e7 8c 6f bd 34 ac c3 bd
       -0.08615815 0.011307499 -0.058483984 -0.095543295
000320 8d 04 2a bd 66 36 03 be 71 d9 0d bd 3b e2 12 be
       -0.041508246 -0.1281372 -0.034631196 -0.14344113
000330 5e ba 9f bd b1 c5 80 3c 17 f0 5a 3c 54 cb 13 3d
       -0.077992186 0.015719267 0.013362906 0.03608258
000340 9c eb fd bd 40 34 05 3e 02 db 10 be 99 99 7b bd
       -0.123984545 0.13008213 -0.14146045 -0.06142578
000350 28 24 27 3e 0d c1 26 3d 3e af 44 be 54 a7 3a 3d
       0.16322386 0.04071145 -0.19207475 0.045569733
000360 7e e0 65 39 80 a1 ff 3d cd 4d 1a bd 4d 4b bc bc
       0.00021922772 0.124819756 -0.037671853 -0.022985125
000370 bc 36 5e bd 8b ce 86 3c 2b 4c d5 bd 1b f5 d2 bd
       -0.054251418 0.01645591 -0.104149185 -0.103006564
000380 cd 67 99 bd 3e 2f 0c 3e 98 fd c1 3c 31 92 c3 3d
       -0.074905016 0.13689896 0.023680493 0.09549368
000390 59 8a ce bd 16 99 b0 bd 86 cc 92 be b3 e2 e1 bd
       -0.100849815 -0.08622949 -0.28671664 -0.110295676
0003a0 51 64 fd 3b 88 6c c5 bd 91 b3 06 be 38 9f 02 be
       0.007732906 -0.09639841 -0.13154437 -0.1275605
0003b0 85 a4 95 bc 1a 9f d5 3d 2e 4a 2b 3e fa d5 86 bd
       -0.018266926 0.10430737 0.16727516 -0.065837815
0003c0 03 fe 18 be ad f9 f7 bc 75 5a c8 bc 8a e7 79 3e
       -0.14940648 -0.030270422 -0.024457196 0.24404731
0003d0 0c a1 d5 bd 69 68 6c bd d3 0f 45 3e fb 55 ea 3d
       -0.10431108 -0.05771676 0.19244318 0.11442181
0003e0 d0 8a 0d bd 5d 6a 9c bd 0a e8 5f bd 6f fe cf bd
       -0.03455621 -0.07637475 -0.05466465 -0.10155951
0003f0 ab 41 20 bd fb c0 92 3d 7e 69 b8 3d e4 e8 df 3d
       -0.039125126 0.07165714 0.09004496 0.10933092

network_body._body_endoder.seq_layers.2.bias f4 [128]
000000 01 29 ca 3d 92 29 88 bd b6 64 c7 bd 03 18 4c 3d
       0.09871102 -0.06648554 -0.09736006 0.049827587
000010 ab 76 b8 3d f6 fb 63 bd 8d cd 8a bd 88 43 be 3d
       0.09007009 -0.05566021 -0.06777487 0.09290224
000020 89 ea 88 3d 97 2f 2e 3d 0a ea 0a 3e 57 56 c6 bd
       0.06685359 0.042525854 0.13565841 -0.09684437
000030 b5 05 ea 3c cd 71 dc 3c 62 42 52 bd 62 1d c9 3d
       0.028567174 0.026909733 -0.05133284 0.098200575
000040 8b 31 9d bd 86 5c 4e bd 5d 32 02 be 2b 99 d9 bd
       -0.07675465 -0.050381206 -0.12714525 -0.106249176
000050 81 d1 da 3d d5 94 97 3d 78 23 da bd e5 bd 12 bd
       0.10684491 0.07401434 -0.106512964 -0.03582563
000060 e8 24 0b 3e ad fe 97 bd 2e 55 25 bd 06 9d 05 3e
       0.13588297 -0.074216224 -0.040364437 0.13048181
000070 66 a8 bf 3c 1e 01 d2 3c db 56 7a 3c 7c 81 fb 3d
       0.023395728 0.025635298 0.015279497 0.122805566
000080 8d 35 81 3b 3a d0 cf bd af dd 78 bc 98 02 1a bd
       0.0039431513 -0.10147138 -0.015189572 -0.03760013
000090 3f 85 f0 3d 09 9a a3 bd 26 52 22 bd 41 fb 19 be
       0.11744165 -0.07988364 -0.039629124 -0.15037252
0000a0 fa 8b f9 3d 21 ee 02 3e 62 ca 91 bd 07 7b 8c bd
       0.121849015 0.12786151 -0.071186796 -0.06859403
0000b0 79 57 62 3d fc 4c df 3d 6b f7 e9 3c 96 0a f0 3d
       0.0552592 0.109033555 0.02856036 0.11720769
0000c0 40 ca 52 bd e0 7b 23 3d b8 c2 c2 bd 7b cd 9f 3d
       -0.051462412 0.03991306 -0.09509796 0.07802864
0000d0 ec 15 86 bd 6a 66 f5 bd f6 ad be bd f2 56 0b be
       -0.0654715 -0.119824246 -0.09310524 -0.13607386
0000e0 9e 56 92 3d 8b bb 5f 3d 76 eb a1 3d 11 7d ea 3c
       0.07145427 0.054622214 0.07906239 0.02862409
0000f0 a7 b5 01 3e 23 d7 ca 3c a2 3d a6 3d e8 af bb bd
       0.12666951 0.024760788 0.08117224 -0.09164411
000100 65 58 54 bd c7 45 30 bd 09 ab 8d bd ce 7b de bd
       -0.051842112 -0.043035295 -0.06917388 -0.108634576
000110 15 b3 c1 bd ae 20 81 3c f2 ee d3 3d ae f8 84 3d
       -0.09457985 0.015762653 0.103483096 0.064927444
000120 47 05 9f 3c 3f 8b 8c 3d 45 f5 42 bd 96 cc 99 bd
       0.019411696 0.068624966 -0.04759719 -0.07509725
000130 fe 01 7b bd cd 8c c5 bd 14 26 e4 3d 94 d6 7a bd
       -0.061281197 -0.09645996 0.11140075 -0.061239794
000140 dc ef a5 bd 57 c6 9a 3d 3f 84 32 bd ab ce 78 bd
       -0.0810239 0.075573616 -0.04358315 -0.06074397
000150 fa c6 a9 bd c2 b6 22 3d f5 4e 52 bd 32 97 9f bd
       -0.08289905 0.039725073 -0.05134483 -0.0779251
000160 3e d4 62 bd 73 bd ce 3d c9 06 dc bc 24 82 6d 3c
       -0.05537819 0.10094728 -0.026858704 0.01449636
000170 09 57 98 bd 48 da 8d 3d e9 96 bd 3d 2e e0 c3 3d
       -0.07438476 0.069263995 0.092572995 0.09564243
000180 3c 56 71 bb 49 2d 29 3d 98 ff 96 3c 3c 84 d7 3d
       -0.0036825081 0.041302953 0.018432423 0.105232686
000190 5a 2e 6d bd b7 c6 2e bd d3 c4 c3 bd 77 70 e6 3d
       -0.057905532 -0.042669978 -0.095590256 0.1125192
0001a0 b2 9d ec bd 53 a5 fb 3d 40 9b ba bc 9c 80 4b 3d
       -0.115535155 0.122873925 -0.022779107 0.0496832
0001b0 5f 9c f4 3d c7 63 0b 3e 95 bd da bd 00 43 40 3d
       0.11943888 0.13612281 -0.10680691 0.046938896
0001c0 b3 9a 31 3d d4 c1 1f 3d fa 58 fc 3d ef aa d2 bc
       0.043360423 0.03900321 0.123216584 -0.025716273
0001d0 40 c4 83 3d b8 63 02 3e 1c a7 e7 bd f2 af c3 bd
       0.06433916 0.12733352 -0.113111705 -0.09555043
0001e0 db ed 00 be b6 b9 8e bd 23 ee c9 3d f5 68 2c 3d
       -0.12590735 -0.06969015 0.09859874 0.042092282
0001f0 59 db c7 bd aa 74 e7 bd 76 f6 d7 bd 95 c6 ac bd
       -0.09758634 -0.11301549 -0.105450556 -0.08436314

action_model._continuous_distribution.log_sigma f4 [1, 2]
000000 d9 c8 45 be 47 ef 11 3d
       -0.19314899 0.035628583

action_model._continuous_distribution.mu.weight f4 [2, 128]
000000 3e 83 35 3d 29 3b 7e 3d 8b c2 fb 39 59 f3 04 3d
       0.044314615 0.06206814 0.00048019396 0.032458637
000010 63 01 04 3c 3b 1b 4d 3c 06 09 ae 3d 86 fd d7 3b
       0.008056971 0.012518699 0.08497815 0.0065915016
000020 d3 74 10 bc 32 bc 32 bb bb 9a 05 bd 7f e3 a3 bb
       -0.008816916 -0.0027272818 -0.032618266 -0.005001485
000030 f5 2a 33 bd 22 92 b4 3d d2 5e 20 3e 57 1d f4 3c
       -0.04374214 0.08816935 0.15661171 0.029799147
000040 c9 5e 3a 3b 63 a1 c5 bc a1 a8 1c 3c 3d 09 1c 3b
       0.0028437844 -0.024124807 0.009561689 0.0023809217
000050 5b 14 36 3c 2a 6d ee 3c bb 10 74 3c 1f ed 76 bc
       0.011113252 0.029104788 0.014896567 -0.0150711825
000060 9a a8 96 bd 2f 99 93 bd 00 5b ea 3d 4b 63 94 bc
       -0.07356377 -0.07206952 0.11443138 -0.018113753
000070 fa a9 05 3d f6 37 49 3d 9f 26 33 3c 5e 7f 70 bc
       0.032632805 0.049125634 0.010934501 -0.014678804
000080 bf 70 af 3b 87 1b d5 ba 82 58 92 3d 80 60 dc 3d
       0.0053540166 -0.0016258814 0.07145788 0.107605934
000090 87 3f 38 3d 5e 9e 54 3d 23 2b 8b 3d 69 c7 7b 3c
       0.04498246 0.051908843 0.06795337 0.015367367
0000a0 7c 5b c0 bc 7d 18 1c bc 46 bb 83 3d 5a b5 23 bd
       -0.023481123 -0.009527323 0.06432204 -0.039967872
0000b0 a5 ad dc 3b 68 dd 5f 3b f4 eb 19 3d 72 dd 1b bd
       0.006734567 0.0034159068 0.037578538 -0.038052984
0000c0 9f 72 25 bd d0 b9 c4 3d 7b f1 c0 bc e9 ef 7e 3c
       -0.040392514 0.096057534 -0.023552647 0.015560129
0000d0 82 6a 89 3c be 8a 47 3c e8 6c 39 3c 31 ff df 3b
       0.01677442 0.012179075 0.011317469 0.006835841
0000e0 b3 7a 72 3d 03 71 82 3d 80 32 2b 3d ef bf 04 3d
       0.059199046 0.063692115 0.041796207 0.032409605
0000f0 10 7f 50 3c 05 d6 2e bd fb 2e f4 bc 99 e6 5f bd
       0.012725607 -0.042684574 -0.029807558 -0.054663274
000100 2f 3e e5 bb 00 25 b3 bd fc f2 d5 3c 73 46 e1 3b
       -0.0069959383 -0.087472916 0.02611684 0.0068748533
000110 32 59 87 bd b3 e3 33 bc f4 b7 39 3d 3f 18 99 3d
       -0.066088095 -0.010979581 0.045341447 0.07475328
000120 5d ef c7 3d 0e 3d e2 3c e6 ff 18 3d 48 8a b7 bb
       0.09762452 0.027617004 0.03735342 -0.005601201
000130 ba 61 9d bd 81 48 d2 3b 6f 1b e9 3c f2 e3 d4 3d
       -0.076846555 0.0064173345 0.028455464 0.103950396
000140 9c 49 58 3c 3e 2c de 3b 41 8c f2 3c 15 be bf bb
       0.013201144 0.0067801764 0.029607894 -0.005851517
000150 5c fb b3 3b 02 1a 4a 3d 24 33 43 bc 74 4e 67 bc
       0.005492611 0.04934121 -0.011914048 -0.014117826
000160 7d ae 90 3d 61 8c 85 bc af 38 de bd 36 6e 20 bd
       0.07064531 -0.01630229 -0.10850655 -0.039167605
000170 aa 30 37 bc 8f 79 81 3d 39 79 5c 3d db a9 22 bc
       -0.011181036 0.063220136 0.053826544 -0.009928192
000180 99 cd 41 bd b3 43 82 3d 36 ea b2 3a 23 3d 5c 3d
       -0.047315214 0.06360569 0.0013650123 0.053769242
000190 57 37 ea bc 70 0e b4 bc 39 17 fc bb 28 32 d7 bc
       -0.028590841 -0.02197954 -0.007693198 -0.026269034
0001a0 a9 41 43 bd a3 07 17 bc 11 cc d4 3d bc 5b 8a 3c
       -0.04767004 -0.009218129 0.10390485 0.016889445
0001b0 3e f2 4a 3d 54 f5 e4 bc 95 18 28 3d ac 88 03 3d
       0.049547426 -0.027949013 0.04103907 0.032112762
0001c0 be 4a f5 b9 81 4e 2f 3c b2 7e f7 bb ff 08 e0 3d
       -0.0004678573 0.010699869 -0.007552945 0.10939216
0001d0 67 68 49 3d 84 72 12 bd f9 58 66 3d 57 b3 a2 3c
       0.04917183 -0.03575374 0.056237195 0.019860907
0001e0 b9 35 71 bc c7 b7 8d 3c ea 0f 89 ba 15 a2 88 be
       -0.014722281 0.017299546 -0.0010457013 -0.2668616
0001f0 35 73 e5 3b 75 da 4e 3d 11 bc 86 3c d8 8f 59 bd
       0.007002259 0.050501306 0.016447099 -0.053115696
000200 c8 db 49 3d be 4d b2 bd 9b 31 23 be c5 de 81 3a
       0.049281865 -0.087062344 -0.15936892 0.000990831
000210 17 1d 8d 3d 91 c6 1d be f9 51 9a bd ae f1 b1 3d
       0.06890314 -0.15407778 -0.07535166 0.08688675
000220 6b 4e 2b 3d 2f 24 39 3d 3a 99 e5 3d 10 eb 18 be
       0.041822832 0.045200523 0.11210866 -0.14933419
000230 f5 e1 7f 3b 30 99 2b 3d 94 b9 f0 bb d5 de 00 3d
       0.0039044593 0.041894138 -0.0073463414 0.03146251
000240 6d f2 8d bd bd 5b 21 be 06 8b b6 bd d8 04 c0 bd
       -0.06931005 -0.15757652 -0.08913235 -0.09375924
000250 b2 25 96 3d a7 7f 6c 3d a2 30 2f be a3 df 1b 3c
       0.073314086 0.057738926 -0.17108396 0.009513768
000260 d3 a1 b2 3d 57 0a d4 bc 14 4c 8c bd 15 c9 b1 3d
       0.08722272 -0.025883837 -0.06850448 0.086809315
000270 0c 0d 74 3c d2 2c 71 3b 1d 0d bd bb f5 5f c2 3d
       0.014895689 0.0036800397 -0.0057693855 0.094909586
000280 9d c8 bb bb 77 7d f7 bd 1a 96 fe bc fd d3 bd bd
       -0.005730702 -0.120844774 -0.031077433 -0.09268949
000290 37 b8 9f 3d 50 94 25 be bb 0d c8 3c fd 71 aa bd
       0.07798808 -0.16169858 0.02442061 -0.08322523
0002a0 9c 0b 91 3d 37 85 b8 3d 33 30 36 bc b2 9e fb bd
       0.070822924 0.09009784 -0.01111989 -0.12286128
0002b0 61 d1 4c 3d 1b 79 f0 3d 91 1b 31 3a ea a3 86 3d
       0.050004367 0.11741849 0.0006756122 0.06574233
0002c0 e8 59 51 be f1 00 33 3c a8 6c fa bd bf 45 97 3d
       -0.20444453 0.010925517 -0.12227756 0.0738635
0002d0 3f e0 3b be 5d 2c 1b be 45 e6 ea bd d8 c0 12 be
       -0.18347262 -0.15153642 -0.11469702 -0.14331377
0002e0 1e 93 1a 3d 9a 6e bd 3c 39 12 44 3c 1b 0f c7 3b
       0.037737958 0.023124028 0.011967235 0.0060747988
0002f0 05 25 93 3d 69 99 2a 3d 1d d5 a5 3d 8f 26 f5 bd
       0.07184795 0.04165021 0.08097289 -0.11970245
000300 53 a8 a6 bd ea 60 77 bc c2 3a df bd da 91 a1 bd
       -0.08137574 -0.01509879 -0.10899879 -0.07889147
000310 51 25 94 bd 3c 4c 12 3d 47 19 3f 3d dd 7e 7b 3d
       -0.0723368 0.035717234 0.046654966 0.061400283
000320 d4 73 ae 3c 59 3f f8 3c bd bc 24 be 21 2c 29 be
       0.021295466 0.030303644 -0.16087623 -0.1652074
000330 0e 1c c1 bc 16 a5 d2 bd 1f fa 91 3d 45 86 51 bb
       -0.023572948 -0.10285394 0.07127785 -0.00319709
000340 6f 93 96 bd 4a 68 77 3d 3f 8e 88 3c 46 18 fa bc
       -0.073523395 0.060402192 0.01666939 -0.030529153
000350 0f 22 0f be 40 1f e4 3c 67 36 44 be 93 5a 1a be
       -0.13977836 0.027846932 -0.19161378 -0.15073614
000360 1d cb 8d bd e0 92 84 3d 4e 45 49 bc 04 7b 59 3c
       -0.069235064 0.06473327 -0.01228459 0.013273958
000370 03 84 1e be 40 20 9b 3b f5 c9 9a 3d 2b a4 a5 3d
       -0.15480046 0.004734069 0.075580515 0.08087953
000380 a5 2e 64 bd ca f7 9a 3c 63 f8 b9 3c 35 ee fe 3c
       -0.055708546 0.018916983 0.022701448 0.031119445
000390 86 c2 80 b9 41 d9 43 be 68 e1 aa bd 37 ec 8e 3d
       -0.00024558994 -0.19125845 -0.08343774 0.06978648
0003a0 8c 7d 03 be 2f 16 b1 3d d5 a5 28 be c1 61 b4 3d
       -0.12840861 0.08646809 -0.1646951 0.088077076
0003b0 38 5c 3e 3d 16 84 c1 3d 9e df 3e be 95 73 5c 3c
       0.046474665 0.094490215 -0.1863999 0.013455291
0003c0 e6 2b 9b bc d2 6a 23 3d c6 3e af 3d 94 87 26 bd
       -0.01894183 0.039896794 0.08556895 -0.04065664
0003d0 1d a6 74 3d 02 35 b4 3d 5a 33 9d bc e8 55 25 be
       0.05972873 0.08799173 -0.019189525 -0.16146052
0003e0 16 ba d8 bd d6 6f 34 be 5e 2f 8a 3d fb d4 20 bd
       -0.10582368 -0.17620787 0.06747316 -0.039265614
0003f0 c2 56 09 be 6d 8a 86 bd 8d 04 18 bd 91 cd f8 bc
       -0.13412002 -0.06569371 -0.037113715 -0.03037146

action_model._continuous_distribution.mu.bias f4 [2]
000000 06 e5 94 ba c7 3f 23 3e
       -0.0011359758 0.15942298

exp_avg f4 [128, 90]
000000 b5 57 34 ba e6 6a 4c b9 51 47 b6 b9 c7 9d 1c ba
       -0.00068795244 -0.00019494779 -0.0003476688 -0.00059744384
000010 b3 23 9a b9 a0 dd 7d b9 61 ce a2 38 74 24 ca 39
       -0.00029399767 -0.00024210522 7.763203e-05 0.00038555602
000020 55 31 ec 39 10 9d 16 3a 86 af 27 39 0f 0e 61 b9
       0.00045050183 0.000574545 0.00015991749 -0.0002146291
000030 14 0e 0b b9 8d bf bf b8 d8 e3 6b b8 45 09 92 b8
       -0.00013261318 -9.143269e-05 -5.6240562e-05 -6.963549e-05
000040 a4 9d c8 b8 fe 11 27 b9 ab cb 01 b9 9f e5 53 b8
       -9.566106e-05 -0.00015933064 -0.00012378271 -5.052017e-05
000050 69 e6 f0 b8 b0 c0 9c 37 a1 9a 8e b7 46 90 1b b8
       -0.00011487009 1.8686376e-05 -1.6999724e-05 -3.7089245e-05
000060 66 f2 eb b7 3b f7 a9 b7 57 1a bd b7 da 4b 7c b7
       -2.8127059e-05 -2.0261496e-05 -2.2542821e-05 -1.5038031e-05
000070 2f b1 35 38 59 f9 e7 37 2b 1d c1 36 9e 24 5f b7
       4.3318778e-05 2.7653457e-05 5.755244e-06 -1.3300361e-05
000080 ba 95 09 b8 d0 81 a6 b7 11 b4 06 b7 36 f8 05 b7
       -3.280279e-05 -1.984919e-05 -8.028947e-06 -7.985209e-06
000090 ed 60 e6 b6 cd 18 c5 b6 21 92 a6 b6 77 e3 60 b6
       -6.865818e-06 -5.8739447e-06 -4.964197e-06 -3.3511003e-06
0000a0 5e 04 a0 b5 e3 c4 08 b5 e1 72 05 b5 9d fc d6 b4
       -1.19222e-06 -5.0950456e-07 -4.971353e-07 -4.0044407e-07
0000b0 57 ea e3 b4 da 08 e7 b4 6b 45 af b9 92 28 5b b9
       -4.245255e-07 -4.3033543e-07 -0.00033430321 -0.00020900581
0000c0 b3 b6 e8 b9 f8 ca 38 ba b4 d5 65 ba 5e 16 8d ba
       -0.0004438661 -0.00070492877 -0.0008767501 -0.0010764112
0000d0 43 d3 81 ba 71 83 7e ba 78 85 45 ba 1d c5 0d ba
       -0.000990488 -0.00097089174 -0.0007534842 -0.00054080953
0000e0 c5 0f d5 b9 29 bc 21 b9 31 ac 97 b9 8a 38 aa b9
       -0.00040638275 -0.00015424252 -0.00028929257 -0.00032467052
0000f0 3d cc c0 b9 23 e2 f8 b9 7b a3 3f b9 fb 41 f9 b8
       -0.00036773263 -0.0004747073 -0.0001827608 -0.00011885535
000100 80 44 bc b8 89 5a 58 b8 1d 58 0c b8 6d 50 ce 37
       -8.977298e-05 -5.158273e-05 -3.3460663e-05 2.4594565e-05
000110 4b 5b dd 37 1b b5 93 b9 b6 93 ea b8 88 9e d0 33
       2.6387765e-05 -0.0002817296 -0.00011185503 9.7145914e-08
000120 d7 bc 58 39 30 39 ad 39 03 2e e3 39 ca f5 01 3a
       0.00020669714 0.0003303974 0.00043331095 0.0004957585
000130 5c a3 18 39 88 e4 f3 b6 8c 5f cb b7 5f a0 a0 b7
       0.00014556706 -7.268569e-06 -2.4243978e-05 -1.9148165e-05
000140 b4 65 5a b7 1d b6 8e b6 3a 7a d9 b6 91 c3 9a b6
       -1.3017492e-05 -4.2531306e-06 -6.481333e-06 -4.6123246e-06
000150 8a b4 56 b6 d7 ae a5 b5 bd 3c f7 b4 0a b1 ee b4
       -3.1993573e-06 -1.2344343e-06 -4.6051528e-07 -4.4459767e-07
000160 e3 a2 f0 b4 3a a1 e7 b4 fa 1a 76 39 06 81 f2 39
       -4.4822e-07 -4.314441e-07 0.00023470438 0.00046253967
000170 e4 07 ff 39 7b 85 e3 39 aa 35 be 39 79 95 98 39
       0.0004864327 0.00043396265 0.00036279607 0.00029103065
000180 3a dc fe 39 88 11 14 3a 15 71 17 3a 5e ab 11 3a
       0.00048610737 0.00056483643 0.00057770434 0.0005556847
000190 47 e7 b7 39 81 c7 64 39 d3 5a 86 39 37 3e 9c 39
       0.00035076795 0.00021818095 0.0002562614 0.00029800992
0001a0 09 f0 89 39 e7 c8 4b 39 cc 0d 3d 39 54 d1 3b 39
       0.00026309516 0.0001943443 0.00018029584 0.0001791169
0001b0 6a 40 35 39 bf dd 51 39 f1 59 1f 39 6f 78 47 39
       0.00017285501 0.000200144 0.00015196927 0.00019022984
0001c0 b8 ef 2e 39 23 6a 12 39 2b cc 07 39 a9 39 f6 38
       0.00016683235 0.00013963184 0.00012950662 0.00011740934
0001d0 1e 25 d3 38 f7 8d bc 38 14 c8 dd 38 c4 3a de 38
       0.00010068178 8.9909816e-05 0.00010575369 0.00010596731
0001e0 c1 fe cd 38 45 bb bb 38 e4 9c b5 38 2f 2d db 38
       9.822613e-05 8.9517365e-05 8.659976e-05 0.0001045115
0001f0 d3 62 b3 38 c9 1d a0 38 b2 72 85 38 30 01 68 38
       8.5537926e-05 7.6349424e-05 6.363298e-05 5.5314216e-05
000200 5d 83 3d 38 8e fc 04 38 c9 36 3d 37 51 c4 a1 36
       4.5183453e-05 3.1706462e-05 1.12780335e-05 4.821028e-06
000210 4a d7 9d 36 09 48 7e 36 8c c9 86 36 61 a1 88 36
       4.7040276e-06 3.789088e-06 4.0169743e-06 4.071903e-06
000220 c5 c7 45 38 5d cf 9a 38 36 b1 3d 38 c6 cb 5a 37
       4.715451e-05 7.381917e-05 4.5226152e-05 1.3041257e-05
000230 cd 29 5b b3 11 7b 90 b8 d9 5f 1d 38 a4 81 2d 38
       -5.102793e-08 -6.889378e-05 3.7520982e-05 4.136715e-05
000240 70 78 ec 38 82 ca 4f 39 bb 35 69 39 c0 e6 a6 39
       0.0001127579 0.00019816498 0.00022240628 0.0003183391
000250 41 a3 99 39 60 8b 82 39 93 79 4f 39 c4 96 16 39
       0.00029304068 0.00024899375 0.00019786348 0.0001436128
000260 fa 29 31 39 65 18 1c 39 32 6b 05 39 bf 2c e3 38
       0.00016895673 0.00014886407 0.00012723802 0.00010832538
000270 b2 f6 cc 38 43 b5 12 39 2f e7 07 39 f0 cd f1 37
       9.7734286e-05 0.0001399117 0.00012960726 2.8825336e-05
000280 df b0 83 38 3c 3d b4 38 67 29 1b 39 72 ad 2f 39
       6.2795116e-05 8.594475e-05 0.00014797375 0.00016753914
000290 c9 1e 4b 39 13 2f 53 39 78 8c 0c 39 91 b6 9b 38
       0.00019371057 0.00020140065 0.00013403769 7.4249816e-05
0002a0 fa 6e 9e 38 ee f5 81 38 eb ef 8e 38 c7 57 cd 38
       7.554698e-05 6.197007e-05 6.815776e-05 9.7915115e-05
0002b0 84 b9 18 38 b7 69 18 38 77 3c 21 38 61 ea 43 37
       3.64124e-05 3.633808e-05 3.8441704e-05 1.1677476e-05
0002c0 a6 36 92 36 b5 28 8d 36 6f 4f 8e 36 98 fb 88 36
       4.357501e-06 4.2068664e-06 4.241177e-06 4.082405e-06
0002d0 b3 f0 0f b7 5c ac 06 b9 8b 02 a9 35 e7 aa f2 38
       -8.579506e-06 -0.00012843445 1.2592221e-06 0.00011571292
0002e0 9c 37 7d b9 68 b7 aa b9 b0 1e 84 b9 61 4a c3 b9
       -0.00024148676 -0.00032561575 -0.00025199866 -0.00037248715
0002f0 4d 81 c6 b9 af 47 0a ba ef 4a cc b9 dc 37 15 b9
       -0.0003786184 -0.0005274964 -0.00038965742 -0.00014230557
000300 ad 98 3c b7 91 1e 0e 38 ca 8b 94 38 04 bc d8 38
       -1.1241221e-05 3.3883905e-05 7.083228e-05 0.00010334703
000310 91 42 3a 39 92 3f b4 38 37 6b b9 38 b0 87 1d b7
       0.0001776314 8.59491e-05 8.841458e-05 -9.389521e-06
000320 1b b8 30 b9 8d e8 f4 b7 89 bb c1 b7 e0 0d d9 b7
       -0.00016853253 -2.9195357e-05 -2.309472e-05 -2.5874877e-05
000330 c6 5e 22 b7 59 bc 26 37 8b 6a 55 38 3f 7a df 38
       -9.678019e-06 9.938224e-06 5.0882383e-05 0.00010656239
000340 e9 02 35 39 40 f6 34 39 28 1b 15 39 b4 33 da 38
       0.00017262589 0.00017257873 0.00014219864 0.000104046805
000350 77 70 13 39 90 25 29 39 4f 43 14 38 a4 1a ee 37
       0.00014060909 0.00016131089 3.5348636e-05 2.8384216e-05
000360 37 1f a1 36 c2 3f 5f 35 d5 0d 42 37 84 99 c8 35
       4.801808e-06 8.3166753e-07 1.1566522e-05 1.494584e-06
000370 f2 fb 31 35 8d 49 98 34 8f 97 94 34 d1 60 6f 34
       6.6304267e-07 2.8365722e-07 2.7677422e-07 2.2293831e-07
000380 51 c6 7d 34 62 9f 80 34 2e 16 1e ba 85 7c 3f ba
       2.3634608e-07 2.3957824e-07 -0.0006030527 -0.00073046266
000390 0c fc 0a ba 20 98 c2 b9 98 80 92 b9 40 1a e4 b9
       -0.000530184 -0.00037115905 -0.000279431 -0.00043507107
0003a0 96 f4 a2 b9 64 b9 a1 b9 cd df a2 b9 a4 88 aa b8
       -0.0003108128 -0.0003084644 -0.00031065792 -8.131683e-05
0003b0 f0 d4 00 38 40 96 8b 35 3a 89 7c 38 6a d2 47 38
       3.071589e-05 1.0400036e-06 6.0209284e-05 4.764126e-05
0003c0 9c f9 42 38 ee 2f 90 37 1c 2e b9 38 96 57 0f 38
       4.648567e-05 1.7188457e-05 8.830076e-05 3.4175428e-05
0003d0 5a 51 4c 37 27 26 f9 36 2b ee b8 37 db 27 10 38
       1.2178289e-05 7.42522e-06 2.2045415e-05 3.4369394e-05
0003e0 38 81 39 38 ff e6 4c 36 c4 9d 92 b6 32 9d b5 37
       4.422778e-05 3.0532826e-06 -4.3695054e-06 2.1650081e-05
0003f0 f4 12 a0 37 fd 8d 1d b7 10 2a 2b b7 29 43 04 b8
       1.9082312e-05 -9.390988e-06 -1.0202188e-05 -3.15338e-05
