results/test2/ParkParallelRC.onnx (onnx, 119209 bytes, 8 tensors)

network_body.observation_encoder.processors.0.normalizer.running_mean f4 [90]
000000 6e c9 7f 3f 6e c9 7f 3f 6e c9 7f 3f 21 82 5b 3f
       0.9991673 0.9991673 0.9991673 0.85745436
000010 cd 41 3d 3f ef a9 40 3f 7c 2c 45 3f 7f d8 4a 3f
       0.7392853 0.752593 0.77021 0.79236597
000020 22 40 21 3f 5c 69 ea 3e be 29 6e 3e 08 84 44 3e
       0.62988484 0.45783508 0.23258111 0.19190991
000030 58 01 36 3e 45 43 2a 3e d9 ad 20 3e 5a d2 18 3e
       0.1777395 0.16627224 0.15691318 0.14923993
000040 79 60 12 3e 00 1d 0d 3e d7 db 08 3e 0e 7c 05 3e
       0.14294614 0.13780594 0.13365112 0.13035604
000050 2a e5 02 3e 5b 05 01 3e 86 a0 ff 3d 41 7c fe 3d
       0.12782732 0.12599699 0.12481789 0.12426043
000060 b3 96 fe 3d 86 f0 ff 3d 1f 49 01 3e 6a 46 03 3e
       0.12431087 0.12497048 0.1262555 0.1281983
000070 5b fd 05 3e c3 80 09 3e 62 ea 0d 3e c9 5c 13 3e
       0.13084929 0.13428025 0.13858941 0.14390863
000080 48 06 1a 3e 19 25 22 3e d9 0d 2c 3e 91 35 38 3e
       0.15041459 0.15834464 0.16802157 0.17989184
000090 32 2d 47 3e ef b0 6a 3e 17 9e 7f 3e 03 7e 90 3e
       0.19450834 0.22919057 0.2496265 0.2822114
0000a0 e7 5d 9e 3e f1 d8 bc 3e 39 5c eb 3e f2 28 1d 3f
       0.30931017 0.36884263 0.45968798 0.613906
0000b0 39 48 6e 3f 85 96 7f 3f 6e c9 7f 3f 6e c9 7f 3f
       0.93078953 0.9983905 0.9991673 0.9991673
0000c0 6e c9 7f 3f 6e c9 7f 3f 6e c9 7f 3f 6e c9 7f 3f
       0.9991673 0.9991673 0.9991673 0.9991673
0000d0 6e c9 7f 3f 6e c9 7f 3f dc e0 77 3f 3d 29 65 3f
       0.9991673 0.9991673 0.96827483 0.8951605
0000e0 97 0a 56 3f cc b6 49 3f 0b 9d 3f 3f 70 53 37 3f
       0.8360991 0.7879455 0.74849004 0.7161169
0000f0 e2 8c 30 3f c7 0f 2b 3f 0d b1 26 3f 73 50 23 3f
       0.6896497 0.6682095 0.6511391 0.6379463
000100 15 d7 20 3f 29 34 1f 3f 1e 5d 1e 3f b9 4c 1e 3f
       0.6282819 0.62188965 0.61860836 0.6183582
000110 b6 02 1f 3f 5b 83 20 3f 43 d8 22 3f 3a 11 26 3f
       0.6211351 0.6270043 0.6361124 0.64870036
000120 f6 43 2a 3f 0b 8f 2f 3f aa 1b 36 3f 34 fe 3d 3f
       0.6650995 0.6857764 0.7113596 0.7421601
000130 3c c2 47 3f bc ab 53 3f 7e 44 62 3f 39 4e 74 3f
       0.78030753 0.8268392 0.8838576 0.9543186
000140 65 97 7f 3f 2f 97 7f 3f 03 97 7f 3f df 96 7f 3f
       0.99840385 0.9984006 0.998398 0.99839586
000150 c2 96 7f 3f aa 96 7f 3f 99 96 7f 3f 8d 96 7f 3f
       0.99839413 0.9983927 0.9983917 0.998391
000160 86 96 7f 3f 83 96 7f 3f
       0.99839056 0.9983904

network_body._body_endoder.seq_layers.0.weight f4 [128, 90]
000000 4f ab a2 bd 95 8c e5 3d e4 f1 ec 3d ff a0 cf bd
       -0.07942831 0.112084545 0.115695745 -0.101381294
000010 77 e4 c4 bd 8f 8c b8 bd 08 66 b1 3b 7e 9b 3f bd
       -0.09613889 -0.090111844 0.0054137744 -0.04677915
000020 52 c0 2f 3d 4a 0f 71 3d e1 b5 14 be 9f 5e 66 be
       0.04290802 0.05885247 -0.14522506 -0.22497033
000030 52 ec 22 3e b6 b1 06 3e 5c a7 ad bd b1 13 03 3e
       0.15910462 0.13153729 -0.08479187 0.1280048
000040 40 fb be bd 91 d4 2b bd 25 66 c4 bd e4 eb 11 bd
       -0.09325266 -0.041950766 -0.09589795 -0.035625353
000050 97 ab 8d bb 57 0a 64 3d 33 02 65 bd dc ed 04 be
       -0.0043234336 0.055673923 -0.0559103 -0.12981361
000060 9c 48 05 3e 0c 8c 70 bd 32 ab 1b 3d 15 84 97 3d
       0.1301598 -0.05872731 0.03800506 0.073982395
000070 21 9f bc 3d 16 73 14 3e b7 39 23 3e c7 2e 58 3d
       0.09210039 0.14497027 0.15939985 0.052778985
000080 07 20 c7 bd 56 0c d0 bd 46 75 fe 3c e4 1b f4 bc
       -0.097229056 -0.10158603 0.03106178 -0.029798456
000090 6f 87 3a 3d 73 53 75 3d 45 be d2 3c 26 e1 7d 3d
       0.045539316 0.059894037 0.025725493 0.061982296
0000a0 ea b7 15 3e 06 3e 35 bd 44 83 b3 3c 74 74 74 bd
       0.14620939 -0.044248603 0.021913178 -0.05968137
0000b0 0d d9 3e 3e ff d8 36 3e 2b f2 c1 bc e3 f2 62 3d
       0.18637486 0.17856215 -0.023675045 0.055407416
0000c0 ae 26 d0 3d 97 9a 85 3d 61 ec 91 3d 5c 2d f0 3d
       0.101636276 0.06523626 0.07125164 0.117274016
0000d0 76 12 bd bd 83 ce 10 be 04 29 7e 3d e2 b0 a5 be
       -0.09232037 -0.14141278 0.062050834 -0.32361513
0000e0 c9 70 8e 3d 6a 25 9f 3d 8b 8f 0b 3e 25 f9 9d 3d
       0.06955106 0.07770808 0.13628976 0.07713536
0000f0 dc 81 0b 3c 52 5f 4b bc cc 73 ac 3c 1f a4 b8 3d
       0.008514848 -0.012412863 0.02105131 0.090156786
000100 8a 5a 7d be c3 a0 d5 3c 18 95 b3 bd 53 81 cd 3d
       -0.24741569 0.026077634 -0.08768672 0.10034432
000110 5f c0 a4 3a ab 9c 71 3c 22 d9 83 3e f7 37 2c be
       0.0012569538 0.014746825 0.25751597 -0.16818224
000120 6a 8f 1b 3d fd 09 44 3d cd a9 5e 3e 4c 7c 5e bd
       0.037978567 0.047861088 0.21744461 -0.054317757
000130 f0 98 06 bd ca d4 b3 3d ed 1b e2 3a 33 a2 4b 3d
       -0.032860696 0.08780821 0.0017250754 0.049715232
000140 e9 70 76 bd 0f 31 55 3d e5 b9 0b 3e 5c b5 16 3d
       -0.060166273 0.05204874 0.13645132 0.03679405
000150 bd 0a 19 3e 41 49 7a 3d 0e 2e 94 3d 9a d8 d7 bc
       0.14945503 0.061105017 0.07235347 -0.0263484
000160 17 00 08 3e 56 67 ec 3c ce 1f 97 bd b4 23 1e 3e
       0.13281284 0.028857868 -0.07379113 0.15443307
000170 85 a5 35 3e 6e 3d 69 3c 4a 00 7e bb 62 71 8d bc
       0.17738922 0.014235837 -0.0038757497 -0.01726598
000180 6c 77 8a 3d b0 0b bf 3d db f0 02 3d 7d d1 fe bd
       0.06761059 0.09328401 0.03196798 -0.124423005
000190 9f eb b5 3d 3e 6c 2b 3e 34 25 00 3e 69 b7 09 bd
       0.08882832 0.1674051 0.12514192 -0.03362218
0001a0 6c 44 b7 3d fe b6 bf bd c3 9a 05 be 61 20 9c 3c
       0.08948597 -0.09361075 -0.13047318 0.019058408
0001b0 b5 41 ad bc ee 0e ec 3d 54 4c 8f 3d 06 64 e4 bc
       -0.021149496 0.11526285 0.0699698 -0.027879726
0001c0 19 ce 36 3d df b9 be bc 6d f4 89 bd 0a 8f 9c 3d
       0.044630144 -0.02328199 -0.06736074 0.0764447
0001d0 57 b5 2e 3c e7 2c c9 bd 6b 90 ee 3c 9e cd 9b 3d
       0.010663352 -0.098230176 0.029121598 0.07607578
0001e0 2e 52 6f bc 76 0c d0 3b bb a5 16 3d 7a 63 ae bd
       -0.0146069955 0.0063491417 0.036779147 -0.085150674
0001f0 f4 dd 9e bd b9 9b db bd d5 75 7f 3d d9 b0 0a bd
       -0.07757178 -0.10723061 0.062368233 -0.03386006
000200 ec 91 84 bc 39 f7 34 be 9f 12 ce 3d 77 d3 c0 3d
       -0.016182862 -0.17672433 0.100621454 0.09415334
000210 18 6d 1e be e0 8b 18 be ff 8a 5d be 06 a0 91 bd
       -0.15471303 -0.14897108 -0.21635054 -0.071106
000220 15 d9 85 3e a9 bc 61 3d 39 50 c5 3b 41 43 cd 3c
       0.26142183 0.05511156 0.006021526 0.025056483
000230 c2 1e a4 3d e5 ff 99 3c 85 37 fc 3d 2a a1 9a 3d
       0.08013679 0.018798778 0.12315277 0.07550271
000240 4a 76 02 3e a2 2e ce bb a6 a2 9c bd b1 62 05 3e
       0.12740436 -0.00629218 -0.0764821 0.13025929
000250 2d f3 38 be c6 98 58 3d 74 ca de bd 5d 76 47 3d
       -0.18061514 0.05288007 -0.108784586 0.048696864
000260 5c 2e 1d bd 01 43 19 bc d3 45 a9 3c 75 d8 02 be
       -0.03837429 -0.009354354 0.020663178 -0.12777884
000270 14 20 6c 3b b3 c3 6e be 31 c3 b6 3c db a4 ad bb
       0.0036029862 -0.23316841 0.022309871 -0.0052991933
000280 5a 1d df bd 7e e5 83 bd 76 ce 5b bc 06 97 75 3d
       -0.1089427 -0.064402565 -0.013415923 0.05995848
000290 a6 14 93 3d 55 63 36 3d 82 0f 4a be b2 60 91 3d
       0.07181673 0.044528324 -0.19732478 0.07098521
0002a0 f3 a0 20 be ea 8c c1 bc 8a 4f 10 bd cf ca 87 3e
       -0.15686397 -0.023626763 -0.035232104 0.26521918
0002b0 a4 36 bc 3d 29 97 82 be 39 32 2b bd e1 09 05 3e
       0.09190109 -0.2550595 -0.041795943 0.1299205
0002c0 24 c9 6b be 69 11 36 bd 04 2c 7b 3d 07 de b2 3d
       -0.23025948 -0.044450197 0.061321273 0.087337546
0002d0 30 6b 8f bd f8 d5 34 3d 68 3a 78 3e a1 c2 0d bd
       -0.07002866 0.04414937 0.2424103 -0.03460944
0002e0 4a 53 41 3d 69 7b 2e 3e 63 9a ed bc c7 ff 9c 3b
       0.04719857 0.17039265 -0.029004281 0.004791233
0002f0 99 6d e6 3b 4b 4a af bd a6 17 c5 bd 74 07 f7 3d
       0.007032108 -0.08559092 -0.09623651 0.120619684
000300 19 fa dd 3c 70 3e f4 bd d3 3c 37 bc 26 7b a0 bc
       0.027096795 -0.119259715 -0.011183935 -0.019589972
000310 f2 64 c5 bd ce cf 44 be f0 0e d6 bc 10 b6 15 3e
       -0.096383944 -0.19219896 -0.02613017 0.14620233
000320 70 9b 23 3e d0 03 e3 3c e8 f8 32 3c 42 6d 9d bd
       0.15977263 0.027711779 0.010923602 -0.07686855
000330 3e a5 cb 3d ca 96 d1 bd d7 2e d0 3b d2 66 c6 3b
       0.09943627 -0.10233839 0.00635324 0.0060547376
000340 27 f9 71 bd 94 2b 49 3e ae 91 16 3e d1 c4 e7 bd
       -0.0590755 0.1964553 0.1470401 -0.113168366
000350 ab ee 79 bd fd f9 07 3d 90 f9 45 3d ef 61 34 3d
       -0.061018627 0.03319739 0.048333704 0.04403871
000360 ce 7e 0b bc 17 b1 2f 3d f3 50 1a bd b6 2f 54 bd
       -0.008514119 0.042893495 -0.037674855 -0.051803313
000370 d0 cb b9 bc bf d2 55 be e7 cd e4 ba 2e fc db 3b
       -0.022680193 -0.20881175 -0.0017456383 0.006713412
000380 4e 17 0e be ed 7b 46 be 71 95 a8 3d 28 d0 c5 bd
       -0.13876078 -0.19383211 0.08231629 -0.09658843
000390 42 bd 3b be 3f fe e0 3c de df a9 3d 65 dc e8 3d
       -0.18333915 0.027464984 0.082946524 0.11370162
0003a0 23 72 ef 3d d2 6e a2 3e b8 0b 13 be 76 dc 23 3e
       0.11691692 0.31725174 -0.14359939 0.16002068
0003b0 51 1c a4 bd f8 fc 3f 3d 82 98 8c bd 08 b0 1e be
       -0.080132134 0.04687211 -0.06865026 -0.15496838
0003c0 82 82 95 bc 2d 42 64 3d be 5f 84 bd 0b 54 16 be
       -0.018250708 0.055727173 -0.06463574 -0.14680497
0003d0 4b 65 36 3e b0 bc 9b 3d 2b 51 1a 3e 52 fd af bb
       0.17812078 0.07604349 0.15070026 -0.0053707743
0003e0 63 4a 1a 3e d3 3d de bb 5b e7 dc bd a4 8d d9 3b
       0.15067439 -0.0067822724 -0.10786315 0.0066391993
0003f0 55 a2 a1 bd 24 e9 91 3c d8 77 8d bd a0 d4 be 3d
       -0.078922905 0.017811365 -0.06907624 0.09317899

network_body._body_endoder.seq_layers.0.bias f4 [128]
000000 00 00 00 00 00 00 00 00 00 00 00 00 00 00 00 00
       0.0 0.0 0.0 0.0
000010 00 00 00 00 00 00 00 00 00 00 00 00 00 00 00 00
       0.0 0.0 0.0 0.0
000020 00 00 00 00 00 00 00 00 00 00 00 00 00 00 00 00
       0.0 0.0 0.0 0.0
000030 00 00 00 00 00 00 00 00 00 00 00 00 00 00 00 00
       0.0 0.0 0.0 0.0
000040 00 00 00 00 00 00 00 00 00 00 00 00 00 00 00 00
       0.0 0.0 0.0 0.0
000050 00 00 00 00 00 00 00 00 00 00 00 00 00 00 00 00
       0.0 0.0 0.0 0.0
000060 00 00 00 00 00 00 00 00 00 00 00 00 00 00 00 00
       0.0 0.0 0.0 0.0
000070 00 00 00 00 00 00 00 00 00 00 00 00 00 00 00 00
       0.0 0.0 0.0 0.0
000080 00 00 00 00 00 00 00 00 00 00 00 00 00 00 00 00
       0.0 0.0 0.0 0.0
000090 00 00 00 00 00 00 00 00 00 00 00 00 00 00 00 00
       0.0 0.0 0.0 0.0
0000a0 00 00 00 00 00 00 00 00 00 00 00 00 00 00 00 00
       0.0 0.0 0.0 0.0
0000b0 00 00 00 00 00 00 00 00 00 00 00 00 00 00 00 00
       0.0 0.0 0.0 0.0
0000c0 00 00 00 00 00 00 00 00 00 00 00 00 00 00 00 00
       0.0 0.0 0.0 0.0
0000d0 00 00 00 00 00 00 00 00 00 00 00 00 00 00 00 00
       0.0 0.0 0.0 0.0
0000e0 00 00 00 00 00 00 00 00 00 00 00 00 00 00 00 00
       0.0 0.0 0.0 0.0
0000f0 00 00 00 00 00 00 00 00 00 00 00 00 00 00 00 00
       0.0 0.0 0.0 0.0
000100 00 00 00 00 00 00 00 00 00 00 00 00 00 00 00 00
       0.0 0.0 0.0 0.0
000110 00 00 00 00 00 00 00 00 00 00 00 00 00 00 00 00
       0.0 0.0 0.0 0.0
000120 00 00 00 00 00 00 00 00 00 00 00 00 00 00 00 00
       0.0 0.0 0.0 0.0
000130 00 00 00 00 00 00 00 00 00 00 00 00 00 00 00 00
       0.0 0.0 0.0 0.0
000140 00 00 00 00 00 00 00 00 00 00 00 00 00 00 00 00
       0.0 0.0 0.0 0.0
000150 00 00 00 00 00 00 00 00 00 00 00 00 00 00 00 00
       0.0 0.0 0.0 0.0
000160 00 00 00 00 00 00 00 00 00 00 00 00 00 00 00 00
       0.0 0.0 0.0 0.0
000170 00 00 00 00 00 00 00 00 00 00 00 00 00 00 00 00
       0.0 0.0 0.0 0.0
000180 00 00 00 00 00 00 00 00 00 00 00 00 00 00 00 00
       0.0 0.0 0.0 0.0
000190 00 00 00 00 00 00 00 00 00 00 00 00 00 00 00 00
       0.0 0.0 0.0 0.0
0001a0 00 00 00 00 00 00 00 00 00 00 00 00 00 00 00 00
       0.0 0.0 0.0 0.0
0001b0 00 00 00 00 00 00 00 00 00 00 00 00 00 00 00 00
       0.0 0.0 0.0 0.0
0001c0 00 00 00 00 00 00 00 00 00 00 00 00 00 00 00 00
       0.0 0.0 0.0 0.0
0001d0 00 00 00 00 00 00 00 00 00 00 00 00 00 00 00 00
       0.0 0.0 0.0 0.0
0001e0 00 00 00 00 00 00 00 00 00 00 00 00 00 00 00 00
       0.0 0.0 0.0 0.0
0001f0 00 00 00 00 00 00 00 00 00 00 00 00 00 00 00 00
       0.0 0.0 0.0 0.0

network_body._body_endoder.seq_layers.2.weight f4 [128, 128]
000000 5e c9 8a 3d c5 f6 86 3d a9 61 cd bd d8 12 71 bc
       0.06776689 0.06590036 -0.10028393 -0.014713965
000010 af 13 48 3e ff 9e 87 be 08 94 2c be fd ef 67 3d
       0.19538759 -0.26488492 -0.16853344 0.056625355
000020 a7 22 9f bd 77 75 cf 3c 3b b6 91 bb 0f 66 fb bd
       -0.07770281 0.025324566 -0.0044467724 -0.122753255
000030 31 ff 44 3b 9c c4 21 be f5 2c 47 3d 88 38 53 be
       0.0030059332 -0.15797657 0.04862686 -0.20627034
000040 fc ef fe bc 10 65 83 3c 50 fe 1f bd 6b f8 fa bb
       -0.031120293 0.016039401 -0.03906089 -0.0076590083
000050 a7 4e 2a 3d a3 f2 74 bd 3b 83 7e 3d a9 22 37 bd
       0.041578915 -0.05980171 0.06213687 -0.04471079
000060 e8 1e 15 3d 67 2a bf 3d 8e 60 83 3d 15 1b 23 3d
       0.036406428 0.093342595 0.06414901 0.03982075
000070 24 bd 98 3d 0e 22 c8 3d 0d 80 d7 bd 5f fe 9e 3d
       0.07457951 0.097721204 -0.105224706 0.07763361
000080 d3 46 33 3d 10 f2 0b bc 57 85 01 bd e6 ca c0 3d
       0.043768715 -0.008541599 -0.031621303 0.094137
000090 60 dd 0a be 5e f5 02 bd 70 4b c0 bc fd 3d d0 3c
       -0.1356101 -0.03197228 -0.023473471 0.025420183
0000a0 6e d2 c1 3d 9d e4 a2 ba fc 6e 7c 3b 68 c4 59 bd
       0.094639644 -0.0012427751 0.00385183 -0.053165823
0000b0 a8 17 c0 bd a8 88 92 3d b8 e5 59 3d 24 33 fe bd
       -0.09379512 0.07154971 0.053197592 -0.12412098
0000c0 cc 45 0d 3d 4c cc de 3d 2e 57 fb 3d b0 d9 c0 bc
       0.03449039 0.1087881 0.122724876 -0.023541301
0000d0 2f d9 ef 3d cf be 52 bd 1a d1 c1 3d d4 38 12 bc
       0.11711346 -0.0514515 0.09463711 -0.008924682
0000e0 d2 53 aa 3d 53 66 45 bc 3d b3 28 3d 5f 3c 96 bd
       0.08316769 -0.012048322 0.04118656 -0.073357336
0000f0 6e 71 84 3d 58 0d ff 3d 98 a2 94 3d 46 0a fe bc
       0.064669475 0.12453717 0.07257575 -0.031010758
000100 6e 14 b3 bc 69 22 88 3d 3d 28 f9 3c c0 5b d8 3d
       -0.021860328 0.06647188 0.030414695 0.10564375
000110 a4 d9 7e 3d f6 21 8a 3b 04 a0 3c 3d 84 99 60 3d
       0.062219277 0.0042154742 0.04605104 0.054833904
000120 6b 1e 9f bd 13 79 55 bc 1b 4a e7 bd f5 33 b0 3d
       -0.07769474 -0.013029355 -0.11293431 0.0860366
000130 7d 65 3b 3e f7 1b 0c be bc e0 e8 bb 2a 31 ac bd
       0.18300433 -0.13682543 -0.0071068686 -0.08407815
000140 d8 49 d5 3d 17 34 fa bd 60 61 ea 3d c0 75 20 3e
       0.10414475 -0.122169666 0.11444354 0.15669918
000150 f1 b5 08 be 55 c4 91 be 8d 2b 54 bd 8b 70 1e 3d
       -0.13350655 -0.28470102 -0.051799346 0.038681548
000160 18 ee a1 3d e6 1d d1 3d 22 26 0d be 3b c0 b2 bd
       0.07906741 0.10210781 -0.13784078 -0.08728071
000170 6c 7f 1a 3d 32 01 42 be 75 86 37 bc ae 52 a5 bd
       0.037719175 -0.18945768 -0.011201491 -0.080724105
000180 f0 89 52 3d 22 96 a6 bb 4c c9 e9 bd 5e 8e 2b bc
       0.05140108 -0.005083815 -0.114153475 -0.010470955
000190 0a 12 39 3e 00 c1 e1 3d a2 20 2a be e9 2e 04 be
       0.18073288 0.1102314 -0.16614011 -0.1290852
0001a0 88 fc 3c 3d bf ee 35 bc e1 23 f4 ba 5e 79 b9 3d
       0.04613927 -0.011104285 -0.0018626415 0.09056352
0001b0 fa 4f 5f 3c 30 c2 68 bd 2c be dd bd c8 d2 08 3c
       0.013629908 -0.056825817 -0.10827288 0.008351035
0001c0 4e 66 0a bd 17 a6 02 3d a0 b8 7d 3c 7e ac 95 bb
       -0.03378897 0.031896677 0.015485913 -0.004567682
0001d0 34 ea 90 bd 8b f1 c4 bc 1d 26 24 3e c7 db c5 bd
       -0.07075921 -0.024040958 0.16030164 -0.0966106
0001e0 01 4d 00 3d cf eb f9 3b 6e df 29 3d 4a d9 f0 bb
       0.031323437 0.0076269875 0.041472845 -0.0073501216
0001f0 5e 95 07 3e e8 38 e0 bd 79 19 b6 bd c0 66 2c 3b
       0.13240573 -0.10948354 -0.08891577 0.002630636
000200 5b 76 3d 3b c2 4c 29 bd 4e 19 44 3c 22 b3 ab 3b
       0.0028909657 -0.041332968 0.011968924 0.00523986
000210 46 cb 68 3d 45 95 84 3d ef 46 99 3d 96 7f 8d bc
       0.05683448 0.064737834 0.07484233 -0.017272752
000220 29 a2 69 ba 01 a5 9d 3d 45 1d 91 bd 29 fa 92 3c
       -0.00089124084 0.076974876 -0.07085661 0.017941551
000230 d8 68 97 bb 56 30 35 be 40 52 39 3e 44 07 36 bc
       -0.0046206526 -0.1769422 0.18097782 -0.011110131
000240 21 80 84 bc 1e 77 be 3d ff 22 f5 3d 1f 02 1f 3e
       -0.016174378 0.093000636 0.119695656 0.15528153
000250 6a a5 8c 3d 1c 6e ca bd 3c 64 0d bc 4b 08 67 3d
       0.06867488 -0.09884283 -0.008629855 0.056404393
000260 71 2e 83 3d fe 5b ac 3d bf 64 64 3d 02 17 4f 3d
       0.06405342 0.084159836 0.05576014 0.05055905
000270 4f 32 4b 3a 6e eb c4 bc 41 88 ac 3d c3 52 db 3d
       0.0007751332 -0.024038043 0.08424426 0.10709145
000280 95 39 3d 3e f8 94 d4 bc db 4d f5 bd 7e d6 ad 3d
       0.18478997 -0.02594994 -0.119777404 0.08488177
000290 3a 64 46 bd 7b d2 21 be ae a9 06 be 3d f1 10 3e
       -0.048435427 -0.15802948 -0.13150665 0.14154525
0002a0 47 f1 cf 3d 3b ed 7d bd f0 d9 f1 bd f7 3a 5c bd
       0.10153442 -0.06199382 -0.118091464 -0.05376717
0002b0 a8 14 51 bd 99 6d 63 bd 5e 2b 25 3d 1d 01 ed bd
       -0.05104509 -0.055524442 0.04032456 -0.11572478
0002c0 fd f2 7f 3d 04 f8 df bc 4c 5d 31 3a 19 6c 08 3d
       0.06248759 -0.027339943 0.00067659165 0.033306215
0002d0 07 0b 3b bd 4d 56 23 bd 7b 37 3c 3d 80 53 a9 3d
       -0.045664813 -0.039877225 0.045951348 0.082678795
0002e0 e2 2d 8d be 7d 89 d2 3c bf e7 09 3e 9c cf 4b be
       -0.27574068 0.025700325 0.1346731 -0.19903415
0002f0 0d 98 29 be 43 1f ad bc a3 7e b5 3d 9b b8 51 3e
       -0.16561909 -0.02113307 0.08862045 0.20480578
000300 0f 68 ec bb 59 5b 0e 3e 63 f9 89 bd e9 f4 17 3d
       -0.007214553 0.13902034 -0.0673702 0.0370988
000310 fe 58 e7 bd be b9 b0 3d d6 ad aa 3d b1 c7 36 3d
       -0.11296271 0.086291775 0.08333938 0.044624034
000320 44 7c b2 bb 99 03 eb bc 23 9e 05 bd 45 ee 45 bd
       -0.0054469425 -0.028688239 -0.032621514 -0.048322935
000330 7d 60 8e 3d f9 62 86 bc de a2 d0 bc c9 b2 bc bb
       0.069519974 -0.016404616 -0.025468286 -0.0057586175
000340 49 a0 ae 3d 79 85 14 3d 06 79 27 3d 8c 68 28 3d
       0.08526666 0.036260102 0.0408869 0.04111533
000350 12 18 1d be 20 01 fd bc aa 66 e6 bd 65 1a a6 3d
       -0.15341213 -0.030884326 -0.1125005 0.08110503
000360 2f 8f ee bd 4e 99 e0 bc df fa 6f bd 7a c8 9b 3c
       -0.11648404 -0.027416851 -0.05858886 0.019016493
000370 4a 51 07 3e 57 d7 5a bd 31 0e bc bd 27 af 09 bc
       0.13214603 -0.05342802 -0.09182394 -0.008403576
000380 2b bc ce 3c c7 2e e6 3c 4a 04 2d 3c a7 33 72 be
       0.02523621 0.028098477 0.010560105 -0.23652516
000390 8f b7 32 be 6f 3f 45 bd 18 09 95 bd ca 91 6e 3d
       -0.17452835 -0.048156198 -0.07277125 0.058244504
0003a0 56 b9 09 3e 08 b5 51 3d 6a fc c8 bd 6b 1f 11 bc
       0.13449606 0.051198035 -0.09813769 -0.008857588
0003b0 7e c0 8f 3d f3 4d 67 3d 96 6a 94 3d bb 03 ce 3c
       0.07019137 0.056470823 0.07246892 0.025148263
0003c0 5c 51 1a 3c 04 98 43 3d e5 a2 d3 bd 3c 27 50 bd
       0.009418812 0.047752395 -0.10333804 -0.050818667
0003d0 91 d2 51 3d f1 5c 8f bd 5a a1 aa 3c 12 bb 37 bd
       0.051226202 -0.07000149 0.020828892 -0.04485614
0003e0 84 77 dc bd ad 58 b3 bd f3 74 4c bd 66 ea b3 3d
       -0.10764983 -0.08757148 -0.04991622 0.08784942
0003f0 7d db d7 bd df fc a1 3d e2 40 85 3d cd 9e 9d 3c
       -0.10539911 0.079095595 0.06506516 0.019240761

action_model._continuous_distribution.log_sigma f4 [1, 2]
000000 00 00 00 00 00 00 00 00
       0.0 0.0

action_model._continuous_distribution.mu.weight f4 [2, 128]
000000 1a 0a 0d 3d 22 fe 7f 3c b5 df 91 3c 1e 92 98 bc
       0.03443346 0.015624555 0.017806867 -0.018624362
000010 f7 63 fc ba 0f 52 c5 bb 49 83 b8 bb d4 5a a5 3c
       -0.0019255866 -0.006021745 -0.005630885 0.020184912
000020 e4 61 bd 39 2d 83 75 bb 40 5a 14 bd 67 ee 97 3c
       0.00036121823 -0.003746222 -0.03621888 0.018546296
000030 75 9d a3 bc 74 0e 0f 3c 42 b2 5a bc b0 8e 84 ba
       -0.019972542 0.008731473 -0.013348164 -0.0010113325
000040 12 5b c3 bc 43 44 97 bc ac 0f 3f bc 95 ab 9c bb
       -0.023847137 -0.018465167 -0.011661451 -0.0047811964
000050 ed 0f c2 3b 15 f6 c4 3b 8f 49 45 bb cf 14 56 3c
       0.0059223087 0.0060107806 -0.0030103659 0.013066485
000060 9e 35 44 bc 52 d5 e7 3c a1 26 83 3b 20 a2 87 bc
       -0.011975674 0.028299961 0.0040024077 -0.0165568
000070 3d eb 14 3c ab 9d 7b bb d3 39 84 3b 94 11 96 bc
       0.009089288 -0.0038393538 0.0040352135 -0.018318929
000080 ba 5c 06 bc 59 59 06 3c b2 ed 9e bb 40 22 8b 3c
       -0.008200819 0.008200013 -0.004850113 0.016984105
000090 0a 7a f7 3b c1 11 39 3c 9b c8 eb bc 2b a9 df bb
       0.00755239 0.011295737 -0.02878218 -0.0068255863
0000a0 c1 d0 26 3c 18 d7 b9 3c 05 b2 95 3b a2 ff 62 bb
       0.010181607 0.022685573 0.0045683407 -0.0034637232
0000b0 28 f2 79 bc 60 fc 1e bc 83 1c fe bc 8b eb 48 bc
       -0.015255488 -0.009703726 -0.031019455 -0.012263189
0000c0 f4 5f b6 3c c7 30 8a 3a d6 36 00 bc 8f 45 4e bc
       0.02226255 0.0010543101 -0.007825574 -0.012589826
0000d0 da 07 8e 3c 5e fb 31 ba f2 cf 5a 3c 30 87 fa 3b
       0.017337728 -0.0006789471 0.013355242 0.00764551
0000e0 e2 1e f4 bb f2 b5 99 3a f0 16 5b ba 98 d5 91 bc
       -0.0074499706 0.0011727198 -0.0008357605 -0.017802045
0000f0 b9 d0 10 bc 2f 34 ce bb ce 6a 9c bc b3 6a b2 bb
       -0.008838826 -0.006292842 -0.019093897 -0.0054448484
000100 0b 81 85 bb f5 f5 5e 3c c7 a2 80 3b 6a aa aa bc
       -0.004074221 0.013608445 0.0039256546 -0.020833213
000110 bf d3 19 3b b5 51 e3 3b c2 a5 ad 3c 34 67 c8 3c
       0.0023472158 0.0069372305 0.021197204 0.024463274
000120 c0 a8 7a 3c 33 68 9d bc 1f 97 e2 3a 04 01 02 bc
       0.015299022 -0.019214725 0.0017287469 -0.007934812
000130 64 60 b6 3c 16 71 a5 3c 87 06 5f bc e7 68 6b bc
       0.02226276 0.020195525 -0.013612396 -0.014368272
000140 df 61 0f bd 77 ee bd 3a f2 9f a9 39 1c 0f be 39
       -0.035005447 0.0014490624 0.0003235336 0.0003625088
000150 58 4a 89 bc 65 be 6a 38 aa 66 4d 3b b4 21 10 3c
       -0.016759083 5.5967266e-05 0.003134171 0.008797098
000160 42 72 3a bc 61 03 4b bb 38 99 11 3b 19 75 84 3c
       -0.01137978 -0.0030977356 0.002221657 0.016169118
000170 aa 5d cd 3a 19 7f aa bb 93 91 be bc a2 ab 96 3c
       0.0015668173 -0.0052031395 -0.023262775 0.018392388
000180 fb 76 89 3b 18 84 9e bc 53 d0 bb bc ef 80 0a 3c
       0.004195092 -0.019350097 -0.022926485 0.008453592
000190 58 74 c1 3c c3 ab 16 3d 97 11 2e 3c 44 6a 9f 3c
       0.023615047 0.0367849 0.010624311 0.019459851
0001a0 a0 6a 6e 3c b0 37 b7 bc e1 e3 11 3d b8 05 d3 3a
       0.014551789 -0.022365421 0.035617713 0.0016099727
0001b0 c3 7b c2 3b f0 22 bc 3c bb 64 d0 bb 72 1e 98 bc
       0.0059351637 0.022965878 -0.0063596643 -0.018569205
0001c0 6b 9d 8c 3b 49 f8 c2 3c 1a 47 19 bd 4f 72 7f 3b
       0.0042912266 0.023800032 -0.037421323 0.0038978045
0001d0 be 03 a3 3c 0c 93 44 bb f7 4e aa 3b c8 d4 d1 bc
       0.019899245 -0.0029994873 0.0051974016 -0.025614157
0001e0 0b 2f 8a bc ab c4 40 bc 3e c9 8b 3c 07 f9 82 bc
       -0.016868135 -0.011765639 0.017063733 -0.015987886
0001f0 93 14 d3 bb da 44 58 3c ad 7d e1 3c ab 31 f3 3b
       -0.0064416616 0.013200009 0.027525747 0.0074216924
000200 7d 02 31 bb 8a 79 77 bc 36 41 82 3c f3 44 4e 3c
       -0.002700954 -0.015104661 0.015900236 0.012589681
000210 af 9f 82 3c 8f f8 89 b9 37 89 8a bc 67 e9 ad bb
       0.015945284 -0.00026315867 -0.016911132 -0.0053073647
000220 df 97 0f bc a7 b4 f4 bb c7 fd 21 3c bd 64 2c bc
       -0.008764236 -0.0074678245 0.009887165 -0.010522065
000230 54 72 06 bc 59 48 1d 3d 49 96 1e bb 2b ed be bc
       -0.008205969 0.038399074 -0.0024198464 -0.02330645
000240 1f 05 cc bc f4 24 08 3d e0 b1 0e 3d ff 50 e9 bc
       -0.024904786 0.033238366 0.034837604 -0.028481005
000250 63 4e 2d 3d d0 3c 77 bc eb 67 af bb 8e 58 13 3c
       0.042311084 -0.015090182 -0.005352964 0.008993281
000260 9b b8 84 3c b3 e2 a9 bc eb bf 95 3c 73 3a 91 bc
       0.016201308 -0.020737981 0.01827999 -0.017728066
000270 d4 56 0b bd 98 0c 45 bc cd 2d 33 3c 58 5f 39 3c
       -0.034018353 -0.012026928 0.010936213 0.011314236
000280 78 08 e6 3c 02 ff 51 3d cf 5a 3f 3c c7 40 46 bc
       0.02808021 0.051268585 0.011679365 -0.012100405
000290 1f 79 6f 3c c3 6f 2e bc 0a d0 1e 3c 5d 53 1b bc
       0.01461628 -0.010646763 0.009693155 -0.009480325
0002a0 5e 6f 99 3b b8 ed 77 ba 1e 2f 83 bc 15 e2 e6 bb
       0.0046824655 -0.0009457725 -0.016013678 -0.007045994
0002b0 43 14 bf bc 25 2e 15 3b ab 67 88 bc 28 b1 ed ba
       -0.023325091 0.00227631 -0.016650995 -0.0018134462
0002c0 0b 56 da 3b aa d5 6e bc 9f 48 bb 3c 73 0f 5a 3c
       0.006663089 -0.014577309 0.022861777 0.013309347
0002d0 4b 5e 9c bb 09 f7 32 3b 0b 06 ba 3c d2 1b 2f bd
       -0.004771983 0.002730789 0.02270796 -0.04275114
0002e0 17 96 c7 3a 97 73 c9 39 23 4b 16 bc d7 f9 0c bc
       0.0015227225 0.0003842383 -0.009173187 -0.008604488
0002f0 53 2b ad 39 30 ea 43 3c ba db 8d bc 7e 22 3e 3c
       0.0003302941 0.01195769 -0.017316688 0.011604903
000300 5f 26 3b 3b d6 74 16 bc 00 fd a2 bb 3f bc 98 3c
       0.0028556807 -0.009183129 -0.0049740076 0.01864445
000310 a2 90 5d 3c 97 a7 82 bc f1 c0 02 bc 24 99 8d bc
       0.013523253 -0.015949054 -0.007980571 -0.017284937
000320 ed ce da bc 96 6e c1 bb bc 47 10 3b dd b5 82 bc
       -0.026709998 -0.0059030754 0.0022015413 -0.01595586
000330 ae 82 8d 3b 92 fb ac 3a f2 25 7f 3c e8 0c 2d bc
       0.0043185567 0.0013197532 0.015573012 -0.010562159
000340 0a d1 4c bd 4f 8e ee 3b fd b9 85 bc 0a f4 c3 3c
       -0.050004043 0.007280148 -0.016324038 0.023920078
000350 c9 5f 30 bc 78 fd 6e 3c 6e c7 18 3c 7f 79 2c 3b
       -0.010765024 0.014586799 0.0093248915 0.0026317535
000360 11 3d 2d bc 1b 88 28 3c 8f 60 81 3c e3 70 80 bc
       -0.010573641 0.010286356 0.015793113 -0.015678829
000370 11 1f c1 3a 95 83 77 bb f5 75 23 bc 54 f2 bd 3c
       0.001473399 -0.0037767638 -0.009976854 0.02318684
000380 9f a4 06 bc e0 37 63 bc db 0c 3a 3c 28 6b bb bc
       -0.00821796 -0.013868302 0.011355604 -0.022878245
000390 c0 45 e8 bb 42 80 ed 3c fa 6f 0b bd d2 de a9 3c
       -0.007088393 0.028991822 -0.034042336 0.020736132
0003a0 16 2f 89 bc 5f 8e da 3b a3 72 df bc d7 13 84 3c
       -0.016746085 0.006669804 -0.027276343 0.016122742
0003b0 93 72 d0 3c 07 09 3a 3c 33 5c a1 bc be 53 08 3b
       0.025445258 0.011354691 -0.019697284 0.0020801867
0003c0 33 13 2f b9 63 a6 e7 3b 47 ee 83 3c ce 10 80 3c
       -0.00016696453 0.0070693954 0.01610483 0.015633013
0003d0 c6 80 47 3a 93 ef 00 bc d3 7b a9 3b e1 55 30 bb
       0.00076104363 -0.007869619 0.0051722317 -0.0026906657
0003e0 af 71 a7 b7 bd 9b 37 3c 95 1c 65 bb 05 2e 1c 3b
       -1.996089e-05 0.0112065645 -0.0034959663 0.002383114
0003f0 32 10 db 3c 3b 62 5e 3b df 65 29 3c 47 50 94 bc
       0.026741121 0.0033933062 0.010339229 -0.018104685

action_model._continuous_distribution.mu.bias f4 [2]
000000 00 00 00 00 00 00 00 00
       0.0 0.0

onnx::Div_51 f4 [90]
000000 29 1d 27 3d 29 1d 27 3d 29 1d 27 3d 94 c1 2b 3d
       0.040799294 0.040799294 0.040799294 0.041932657
000010 6b 0d 32 3d 1a a4 33 3d 69 d0 35 3d b1 3b 37 3d
       0.043469828 0.04385767 0.04438821 0.04473466
000020 e3 9b 3b 3e 68 f0 50 3e 0d d8 be 3d bc 51 f1 3c
       0.18321185 0.20404208 0.09318552 0.02945792
000030 a4 a0 f0 3c 37 1b f0 3c d9 b4 ef 3c 60 65 ef 3c
       0.029373474 0.029309852 0.02926104 0.029223144
000040 2d 27 ef 3c 76 f6 ee 3c 7c d0 ee 3c 58 b3 ee 3c
       0.029193485 0.029170256 0.029152147 0.029138252
000050 ac 9d ee 3c 7d 8e ee 3c 32 85 ee 3c 63 81 ee 3c
       0.029127918 0.029120678 0.029116247 0.02911443
000060 f3 82 ee 3c e4 89 ee 3c 85 96 ee 3c 5b a9 ee 3c
       0.029115176 0.029118486 0.029124508 0.02913349
000070 2e c3 ee 3c 3a e5 ee 3c 12 11 ef 3c 1c 49 ef 3c
       0.029145803 0.029162038 0.029182944 0.029209666
000080 96 90 ef 3c 3d ec ef 3c ed 62 f0 3c f6 fe f0 3c
       0.029243749 0.029287452 0.029344046 0.02941845
000090 8a fd f2 3c 40 0d 13 3d 7f d1 07 3d d6 a5 0d 3d
       0.029661912 0.035901308 0.033158775 0.03458198
0000a0 8d 84 00 3d 9c 66 05 3d ca b7 0e 3d 7f 4a 23 3d
       0.03137641 0.03256856 0.034843244 0.039865967
0000b0 e4 00 5f 3d d8 23 48 3d 29 1d 27 3d 29 1d 27 3d
       0.05444421 0.04886231 0.040799294 0.040799294
0000c0 29 1d 27 3d 29 1d 27 3d 29 1d 27 3d 29 1d 27 3d
       0.040799294 0.040799294 0.040799294 0.040799294
0000d0 29 1d 27 3d 29 1d 27 3d c8 36 25 3d 29 21 1f 3d
       0.040799294 0.040799294 0.040335447 0.038849983
0000e0 fa 6f 1a 3d 79 c4 16 3d df de 13 3d b8 92 11 3d
       0.037704445 0.036808465 0.03610122 0.035540313
0000f0 82 bf 0f 3d c0 4e 0e 3d 85 2f 0d 3d f1 55 0c 3d
       0.035094745 0.03474307 0.034469146 0.034261648
000100 06 b9 0b 3d 18 53 0b 3d 3d 20 0b 3d 7b 1e 0b 3d
       0.034112 0.03401479 0.03396629 0.033964615
000110 f7 4d 0b 3d 34 b0 0b 3d 23 49 0c 3d 41 1e 0d 3d
       0.0340099 0.034103587 0.034249436 0.03445268
000120 15 38 0e 3d 7e a2 0f 3d d7 6d 11 3d 6c ef 24 3d
       0.034721453 0.035067074 0.035505142 0.040267393
000130 10 27 2a 3d 91 71 30 3d e3 35 38 3d 04 fb 41 3d
       0.04154116 0.043077055 0.044973265 0.047358528
000140 57 1a 47 3d 3d 5a 47 3d 87 8e 47 3d 5e b9 47 3d
       0.048609104 0.048670042 0.04871991 0.048760764
000150 e6 db 47 3d 1f f7 47 3d a0 0b 48 3d f2 19 48 3d
       0.048793696 0.048819657 0.04883921 0.04885287
000160 cb 22 48 3d fd 25 48 3d
       0.048861306 0.048864353
