results/parallelRC2/ParkParallelRC/ParkParallelRC-1999741.onnx (onnx, 213786 bytes, 9 tensors)

network_body.observation_encoder.processors.0.normalizer.running_mean f4 [271]
0.99068457 0.99067986 0.9906745 0.9679396 0.9679322 0.96792626 0.8819836 0.8819789
0.88197595 0.76225895 0.76225525 0.76225215 0.655843 0.65583986 0.6558382 0.58070576
0.58070344 0.5807001 0.5055838 0.5055814 0.50557876 0.4193378 0.41933483 0.4193332
0.37857997 0.3785781 0.3785762 0.3504502 0.35044816 0.35044634 0.3281909 0.32818946
0.32818764 0.3142 0.3141978 0.31419596 0.30217507 0.30217305 0.3021722 0.29195988
0.29195794 0.29195577 0.28121236 0.2812103 0.28120822 0.26846546 0.26846308 0.26846167
0.25625575 0.25625417 0.2562512 0.24646588 0.24646427 0.2464627 0.23876262 0.23876116
0.238759 0.23293951 0.23293763 0.23293537 0.229012 0.22901033 0.22900838 0.22714536
0.22714318 0.22714184 0.2275223 0.22752078 0.22751874 0.23080759 0.23080575 0.23080416
0.23549983 0.23549852 0.23549616 0.24040468 0.24040306 0.24040137 0.24671766 0.24671575
0.24671392 0.25498882 0.25498697 0.2549855 0.26352978 0.2635279 0.26352525 0.2711904
0.27118832 0.2711862 0.2793444 0.27934206 0.27934042 0.28888038 0.28887776 0.28887603
0.29992342 0.29992208 0.2999185 0.31272307 0.3127215 0.31272012 0.3274614 0.3274589
0.32745644 0.3443389 0.3443374 0.3443347 0.36368653 0.36368442 0.363682 0.38509676
0.38509426 0.38509208 0.40488666 0.4048854 0.40488264 0.42416602 0.42416337 0.42416242
0.43904933 0.4390464 0.43904445 0.46063548 0.46063298 0.46063215 0.5094425 0.50943923
0.50943613 0.6048499 0.60484743 0.6048429 0.6674669 0.66746247 0.6674596 0.69766974
0.6976654 0.6976616 0.9942166 0.99421215 0.99420816 0.99660146 0.99659884 0.9965945
0.9991806 0.99917537 0.99916965 0.9993751 0.99936813 0.9993625 0.9994237 0.99941665
0.99941 0.9994886 0.9994781 0.9994713 0.9995452 0.9995319 0.99952745 0.9995979
0.99958366 0.9995755 0.99963284 0.99961764 0.9996098 0.99967146 0.9996543 0.9996444
0.9997689 0.999753 0.9997447 0.99983233 0.9998242 0.9998197 0.9998577 0.9998487
0.99984366 0.99989605 0.99986947 0.99986386 0.9999468 0.9999201 0.99990594 0.99998015
0.99995345 0.99993926 0.9999892 0.9999625 0.9999483 0.99998975 0.99996305 0.99994886
0.99998975 0.99996305 0.99994886 0.99998975 0.99996305 0.99994886 0.99998975 0.99996305
0.99994886 0.99998975 0.99996305 0.99994886 0.9999855 0.9999618 0.99994785 0.99998546
0.99996173 0.9999478 0.99998546 0.99996173 0.9999478 0.99998546 0.99996173 0.9999478
0.99998546 0.99996173 0.9999478 0.9999825 0.9999605 0.99994695 0.99997985 0.9999594
0.999946 0.9999776 0.99995816 0.99994516 0.99997556 0.999957 0.9999443 0.99997544
0.999957 0.99994427 0.9999754 0.99995697 0.9999442 0.9999753 0.99995697 0.9999442
0.9999736 0.99995583 0.9999433 0.99997354 0.9999558 0.9999433 0.99222475 0.9922233
0.9922165 0.93684393 0.9368323 0.9368229 0.85544205 0.85543084 0.85542434 0.8257928
00000000: 819d 7d3f 329d 7d3f d89c 7d3f e4ca 773f
00000010: 68ca 773f 04ca 773f adc9 613f 5fc9 613f
00000020: 2dc9 613f 6723 433f 2923 433f f522 433f
00000030: 54e5 273f 1fe5 273f 03e5 273f 22a9 143f
00000040: fba8 143f c3a8 143f f16d 013f c86d 013f
00000050: 9c6d 013f 72b3 d63e 0eb3 d63e d7b2 d63e
00000060: 3cd5 c13e fdd4 c13e bdd4 c13e 356e b33e
00000070: f16d b33e b46d b33e a308 a83e 7308 a83e
00000080: 3608 a83e d3de a03e 89de a03e 4bde a03e
00000090: b1b6 9a3e 6db6 9a3e 51b6 9a3e c47b 953e
000000a0: 837b 953e 3a7b 953e 11fb 8f3e ccfa 8f3e
000000b0: 86fa 8f3e 4e74 893e fe73 893e cf73 893e
000000c0: f433 833e bf33 833e 5b33 833e 8d61 7c3e
000000d0: 2161 7c3e b860 7c3e 307e 743e ce7d 743e
000000e0: 3d7d 743e b287 6e3e 3487 6e3e 9c86 6e3e
000000f0: 1f82 6a3e af81 6a3e 2c81 6a3e cb98 683e
00000100: 3998 683e df97 683e 9bfb 683e 35fb 683e
00000110: acfa 683e d358 6c3e 5858 6c3e ed57 6c3e
00000120: de26 713e 8626 713e e825 713e a52c 763e
00000130: 382c 763e c72b 763e 8ea3 7c3e 0ea3 7c3e
00000140: 93a2 7c3e e58d 823e a78d 823e 768d 823e
00000150: 60ed 863e 21ed 863e c8ec 863e 78d9 8a3e
00000160: 32d9 8a3e ebd8 8a3e 3b06 8f3e ec05 8f3e
00000170: b505 8f3e 21e8 933e c9e7 933e 8fe7 933e
00000180: 908f 993e 638f 993e eb8e 993e 3d1d a03e
00000190: 081d a03e da1c a03e 05a9 a73e b1a8 a73e
000001a0: 5fa8 a73e 304d b03e fe4c b03e a34c b03e
000001b0: 1f35 ba3e d834 ba3e 8734 ba3e 672b c53e
000001c0: 132b c53e ca2a c53e 4e4d cf3e 244d cf3e
000001d0: c74c cf3e 4a2c d93e f12b d93e d12b d93e
000001e0: 13cb e03e b1ca e03e 6fca e03e 6ad8 eb3e
000001f0: 16d8 eb3e fad7 eb3e d36a 023f 9c6a 023f
00000200: 686a 023f 71d7 1a3f 48d7 1a3f fcd6 1a3f
00000210: 1cdf 2a3f d2de 2a3f a2de 2a3f 7c9a 323f
00000220: 339a 323f f399 323f fb84 7e3f b084 7e3f
00000230: 6d84 7e3f 4621 7f3f 1a21 7f3f d120 7f3f
00000240: 4dca 7f3f f5c9 7f3f 95c9 7f3f 0cd7 7f3f
00000250: 97d6 7f3f 39d6 7f3f 3bda 7f3f c5d9 7f3f
00000260: 55d9 7f3f 7cde 7f3f ccdd 7f3f 5add 7f3f
00000270: 32e2 7f3f 53e1 7f3f 08e1 7f3f a6e5 7f3f
00000280: b7e4 7f3f 2ee4 7f3f f0e7 7f3f f1e6 7f3f
00000290: 6ee6 7f3f 78ea 7f3f 58e9 7f3f b2e8 7f3f
000002a0: dbf0 7f3f d0ef 7f3f 45ef 7f3f 03f5 7f3f
000002b0: 7bf4 7f3f 2ff4 7f3f adf6 7f3f 16f6 7f3f
000002c0: c1f5 7f3f 30f9 7f3f 72f7 7f3f 14f7 7f3f
000002d0: 83fc 7f3f c4fa 7f3f d6f9 7f3f b3fe 7f3f
000002e0: f3fc 7f3f 05fc 7f3f 4bff 7f3f 8bfd 7f3f
000002f0: 9dfc 7f3f 54ff 7f3f 94fd 7f3f a6fc 7f3f
00000300: 54ff 7f3f 94fd 7f3f a6fc 7f3f 54ff 7f3f
00000310: 94fd 7f3f a6fc 7f3f 54ff 7f3f 94fd 7f3f
00000320: a6fc 7f3f 54ff 7f3f 94fd 7f3f a6fc 7f3f
00000330: 0dff 7f3f 7ffd 7f3f 95fc 7f3f 0cff 7f3f
00000340: 7efd 7f3f 94fc 7f3f 0cff 7f3f 7efd 7f3f
00000350: 94fc 7f3f 0cff 7f3f 7efd 7f3f 94fc 7f3f
00000360: 0cff 7f3f 7efd 7f3f 94fc 7f3f dafe 7f3f
00000370: 69fd 7f3f 86fc 7f3f aefe 7f3f 57fd 7f3f
00000380: 76fc 7f3f 88fe 7f3f 42fd 7f3f 68fc 7f3f
00000390: 66fe 7f3f 2ffd 7f3f 5afc 7f3f 64fe 7f3f
000003a0: 2ffd 7f3f 59fc 7f3f 63fe 7f3f 2efd 7f3f
000003b0: 58fc 7f3f 62fe 7f3f 2efd 7f3f 58fc 7f3f
000003c0: 45fe 7f3f 1bfd 7f3f 49fc 7f3f 44fe 7f3f
000003d0: 1afd 7f3f 49fc 7f3f 7102 7e3f 5902 7e3f
000003e0: e701 7e3f 01d5 6f3f 3ed4 6f3f a0d3 6f3f
000003f0: 40fe 5a3f 84fd 5a3f 17fd 5a3f 2867 533f

network_body._body_endoder.seq_layers.0.weight f4 [128, 271]
0.10055313 0.034854386 0.047198255 -0.16662647 0.09255977 -0.10138502 0.07802395 -0.0577771
-0.066671886 -0.02128845 0.0166837 0.054977763 0.0026578107 0.040722296 0.11086957 0.08190782
0.026346087 0.03949692 0.073384605 0.0076899314 -0.031143196 0.066804536 0.097553894 0.031448446
0.13484928 0.03155971 0.15980256 0.055447094 -0.0036828741 -0.0040617883 0.09908828 0.05553368
0.045918997 0.07290872 -0.022312254 -0.06135439 -0.058306944 -0.057797953 -0.048696574 -0.00035478998
-0.06656954 -0.10187557 -0.06268261 0.042216588 -0.03949188 0.026721835 -0.07468109 -0.090508975
0.08797249 -0.024731526 0.05483188 0.14030352 -0.03959847 0.001516227 0.07348128 0.0598351
0.15523563 -0.13092709 -0.040621564 0.007839949 -0.07894814 0.010498617 -0.15269653 0.06085995
0.07761871 0.04159675 -0.07493823 0.010200804 -0.08872708 -0.13465646 0.046027865 -0.12060061
0.019909061 0.122020125 0.05627822 0.028230846 0.08144471 0.010815927 0.02885044 0.07169592
0.06600625 -0.11360664 0.1544165 0.03650056 0.091962025 -0.042091962 0.0009607259 -0.0073013357
-0.01424225 0.02092683 0.059847347 -0.004416301 0.12427246 -0.048253287 0.03894979 0.056027018
-0.017279943 0.07777082 0.0603996 -0.009500569 0.004772157 0.062423855 0.017555548 0.04405223
-0.054553706 -0.08128231 -0.08501335 -0.0072241523 0.03632575 -0.12388128 -0.054864738 0.04439154
0.062270332 0.015860587 -0.050657205 -0.07112906 0.06260521 0.046494726 -0.061924867 0.07776986
0.094278075 0.0009410983 0.01939291 0.098210156 0.040025435 0.067439534 0.053186238 0.010876146
-0.017091596 0.10424905 0.06658962 0.0672284 0.038379095 -0.041489303 -0.034308393 -0.09012714
-0.0058879424 -0.052890904 0.05700199 0.021004198 0.1133532 0.03599363 0.08180981 0.024514744
-0.010328059 0.04136845 -0.096420184 0.06769652 0.047584284 0.0522549 -0.019268109 -0.0025894155
0.081976615 -0.011770699 -0.046175327 -0.03483579 -0.021073738 -0.08611742 0.12323298 -0.03401568
0.026305627 0.04204861 0.030486768 -0.048854876 -0.0340738 -0.040529102 -0.032755792 -0.02816946
0.025573285 -0.055852056 -0.1514136 0.037066873 0.012418651 -0.02097313 -0.030617762 0.003407188
0.04043799 -0.031042384 -0.021958997 0.009580026 -0.018945133 -0.03978775 -0.025578555 0.014968102
0.033243008 -0.012976058 0.022125714 -0.18412851 -0.071200185 0.012935121 0.022554792 0.021361617
-0.1850132 -0.13778661 0.044574376 0.061199505 -0.061932854 0.12238039 -0.048186954 0.057290465
-0.06270402 -0.003858424 -0.08736224 0.0046483516 -0.07781381 -0.061385486 -0.04324835 0.020772103
-0.04931579 -0.058572114 -0.09644465 -0.15782385 0.062053304 -0.058169916 -0.060016155 -0.014428697
-0.0068570743 0.0028206808 -0.028294671 0.0024750312 -0.20602648 0.07964623 0.006288411 0.11705611
-0.086302474 -0.023808604 -0.04097293 -0.023407001 0.09957296 0.09544686 0.04952215 -0.059849247
-0.06867273 -0.023293464 -0.006787447 0.023869533 -0.026980523 -0.013171647 -0.07255207 -0.0683226
0.06489005 0.071976505 -0.14978229 -0.004982722 0.12198929 0.018258339 -0.0011332962 0.048893947
0.04697734 0.027665904 -0.11726476 0.01094414 0.056465168 0.106868446 0.05804528 0.015791291
00000000: cdee cd3d 79c3 0e3d f552 413d 21a0 2abe
00000010: fa8f bd3d f3a2 cfbd 05cb 9f3d aea7 6cbd
00000020: 458b 88bd 1e65 aebc 41ac 883c 5d30 613d
00000030: aa2e 2e3b 6ccc 263d 960f e33d 4abf a73d
00000040: c0d3 d73c 86c7 213d ab4a 963d d2fb fb3b
00000050: 0420 ffbc d1d0 883d 56ca c73d 16d0 003d
00000060: ee15 0a3e c144 013d 48a3 233e 7e1c 633d
00000070: 605c 71bb c018 85bb ccee ca3d 4977 633d
00000080: 8f15 3c3d 2b51 953d 30c8 b6bc be4e 7bbd
00000090: 43d3 6ebd 8cbd 6cbd 0f76 47bd 1b03 bab9
000000a0: 9c55 88bd 24a4 d0bd bd5f 80bd 4deb 2c3d
000000b0: 3dc2 21bd c0e7 da3c 66f2 98bd c55c b9bd
000000c0: ec2a b43d c599 cabc 6597 603d baab 0f3e
000000d0: 0132 22bd 23bc c63a 5a7d 963d a615 753d
000000e0: 17f6 1e3e c011 06be cc62 26bd 2173 003c
000000f0: 90af a1bd 6402 2c3c 7b5c 1cbe 4848 793d
00000100: 8ff6 9e3d 5b61 2a3d 3779 99bd 4621 273c
00000110: 8bb6 b5bd 62e3 09be b787 3c3d 74fd f6bd
00000120: 5418 a33c b0e5 f93d fe83 663d 6044 e73c
00000130: 7ccc a63d 4935 313c c257 ec3c 4fd5 923d
00000140: 492e 873d 99aa e8bd 5c1f 1e3e 9c81 153d
00000150: 9656 bc3d 9f68 2cbd 39d9 7b3a 0b40 efbb
00000160: 5358 69bc be6e ab3c 7e22 753d 9eb6 90bb
00000170: 8f82 fe3d 3da5 45bd d189 1f3d 967c 653d
00000180: ab8e 8dbc 4f46 9f3d 9265 773d 46a8 1bbc
00000190: c15f 9c3b 28b0 7f3d a7d0 8f3c 1c70 343d
000001a0: b573 5fbd 5777 a6bd 7b1b aebd 95b8 ecbb
000001b0: 4fca 143d 78b5 fdbd d9b9 60bd e7d3 353d
000001c0: 2d0f 7f3d 10ee 813c ee7d 4fbd 1dac 91bd
000001d0: 2937 803d 4171 3e3d eea4 7dbd ce45 9f3d
000001e0: dd14 c13d 0ab4 763a e1dd 9e3c 6822 c93d
000001f0: b6f1 233d bd1d 8a3d d0d9 593d dd31 323c
00000200: ad03 8cbc 8780 d53d 2460 883d 0baf 893d
00000210: 6633 1d3d b0f0 29bd f586 0cbd 9494 b8bd
00000220: a4ef c0bb 22a4 58bd eb7a 693d ff10 ac3c
00000230: b925 e83d 0e6e 133d e78b a73d 25d3 c83c
00000240: 0537 29bc f771 293d f277 c5bd 79a4 8a3d
00000250: bde7 423d 3c09 563d 27d8 9dbc 2fb3 29bb
00000260: 5be3 a73d e4d9 40bc 5722 3dbd f9af 0ebd
00000270: d5a2 acbc 545e b0bd 9361 fc3d 0754 0bbd
00000280: e67e d73c 2a3b 2c3d 63bf f93c 0d1c 48bd
00000290: f890 0bbd d801 26bd f02a 06bd a4c3 e6bc
000002a0: 117f d13c 20c5 64bd 2b0c 1bbe 6fd3 173d
000002b0: 9977 4b3c d7cf abbc 1ad2 fabc 214b 5f3b
000002c0: 4ea2 253d 994c febc 5be3 b3bc 8bf5 1c3c
000002d0: d332 9bbc 7bf8 22bd 1e8a d1bc c53c 753c
000002e0: d229 083d 8899 54bc fc40 b53c 2f8c 3cbe
000002f0: 67d1 91bd d4ed 533c d4c4 b83c 8ffe ae3c
00000300: 1a74 3dbe ef17 0dbe 9f93 363d 55ac 7a3d
00000310: 4ead 7dbd 92a2 fa3d af5f 45bd 68a9 6a3d
00000320: f76a 80bd 9ddd 7cbb f9ea b2bd 3351 983b
00000330: d95c 9fbd 596f 7bbd 2f25 31bd 422a aa3c
00000340: 5bff 49bd 50e9 6fbd c684 c5bd 939c 21be
00000350: 9b2b 7e3d 9443 6ebd 80d3 75bd 5766 6cbc
00000360: 4fb1 e0bb 2cdb 383b 3aca e7bc 2234 223b
00000370: 9bf8 52be 901d a33d 040f ce3b 1dbb ef3d
00000380: 5abf b0bd 430a c3bc 3bd3 27bd 0ac0 bfbc
00000390: e8ec cb3d a579 c33d bdd7 4a3d 7c24 75bd
000003a0: 4aa4 8cbd efd1 bebc 3b69 debb 0a8a c33c
000003b0: 4206 ddbc e4cd 57bc 2e96 94bd b8ec 8bbd
000003c0: 13e5 843d 6b68 933d 8760 19be 1a46 a3bb
000003d0: 85d5 f93d 8392 953c 1c8b 94ba 0545 483d
000003e0: 506b 403d 9ba3 e23c 8228 f0bd 0d4f 333c
000003f0: 0548 673d d8dd da3d e3c0 6d3d bd5c 813c

network_body._body_endoder.seq_layers.0.bias f4 [128]
-0.01533724 0.011090178 0.061944272 0.008383025 -0.032046944 0.016631212 -0.022363799 0.02265029
-0.0031142388 -0.03489881 0.010806078 0.036235813 0.04685837 0.030965166 0.054982495 0.008998446
0.02140992 0.050452147 0.013144433 0.010444454 0.02239098 0.013122799 -0.015942333 0.049347665
0.005925849 -0.056862995 0.079359226 0.029648306 0.060027793 0.034355666 -0.054757103 -0.0038672218
0.054747276 -0.036623396 0.007447077 0.011615838 0.0277641 0.017676573 0.0076067443 0.014813683
0.006324126 0.021896223 0.018324567 0.01341077 -0.059196904 0.048070297 0.032698072 0.03710198
0.050794803 0.023352696 0.029968332 0.030001335 0.034260318 0.0205869 0.030995527 0.049340144
0.011534588 0.07075386 -0.01715127 -0.020629244 0.033763096 0.029790819 0.05139123 0.022338737
-0.026862282 0.036350813 -0.01979133 0.021414103 0.034774777 0.04972989 -0.033689424 -0.0037635583
0.021617925 0.0074401144 -0.019286033 0.015253638 0.011518186 -0.0026489177 0.040711205 -0.0025504031
-0.009065484 0.013414351 -0.002689941 0.05041919 0.04352649 0.080671884 -0.001353965 0.07172845
0.012191792 0.076007515 0.008227195 0.040689133 0.017034188 -0.035877656 0.03162476 0.07124743
0.00721446 -0.023595471 -0.006024515 -0.034873586 0.003637247 0.047839824 0.02880931 0.03639089
0.026265236 0.019598711 0.013568191 0.032945517 0.057733197 0.011113124 0.045250226 0.042395465
-0.0363538 0.0205047 -0.04780624 -0.028629994 0.012578075 0.03986962 0.01867569 0.02627913
0.018645363 0.047015086 -0.04099677 -0.0036588456 0.023813032 0.054564532 -0.0056167473 0.07326903
00000000: 0c49 7bbc 94b3 353c 47b9 7d3d f558 093c
00000010: a843 03bd 2e3e 883c 4934 b7bc 1a8d b93c
00000020: 4218 4cbb 0ef2 0ebd fa0b 313c 016c 143d
00000030: 90ee 3f3d a9aa fd3c 5335 613d 386e 133c
00000040: db63 af3c e9a6 4e3d bf5b 573c 371f 2b3c
00000050: 4a6d b73c 0201 573c 7f99 82bc c720 4a3d
00000060: a02d c23b 2ce9 68bd 1787 a23d 01e1 f23c
00000070: b4df 753d 87b8 0c3d fc48 60bd 3771 7dbb
00000080: ae3e 603d 6a02 16bd 9c06 f43b 5b50 3e3c
00000090: 8a71 e33c 76ce 903c ff41 f93b 17b5 723c
000000a0: 9d3a cf3b b55f b33c 671d 963c d9b8 5b3c
000000b0: 7478 72bd 5ce5 443d 6aee 053d 3ff8 173d
000000c0: 360e 503d 274e bf3c 2680 f53c 5cc5 f53c
000000d0: 8c54 0c3d dca5 a83c 55ea fd3c e418 4a3d
000000e0: 92fb 3c3c 66e7 903d d280 8cbc a9fe a8bc
000000f0: 2c4b 0a3d e00b f43c 9c7f 523d baff b63c
00000100: 4a0e dcbc 97e4 143d 6d21 a2bc a16c af3c
00000110: ff6f 0e3d 92b1 4b3d ecfd 09bd 08a6 76bb
00000120: 1318 b13c 34cc f33b befd 9dbc 65ea 793c
00000130: c6b6 3c3c 7799 2dbb cbc0 263d aa24 27bb
00000140: 6587 14bc dec7 5b3c b949 30bb 5a84 4e3d
00000150: d548 323d 4d37 a53d 8777 b1ba 5ee6 923d
00000160: 15c0 473c d4a9 9b3d 5bcb 063c a6a9 263d
00000170: 488b 8b3c 73f4 12bd f788 013d 2cea 913d
00000180: 4767 ec3b 4a4b c1bc 4b69 c5bb 9bd7 0ebd
00000190: e15e 6e3b b1f3 433d 8101 ec3c 9d0e 153d
000001a0: 312a d73c 7a8d a03c 1e4d 5e3c e1f1 063d
000001b0: a579 6c3d d213 363c 4d58 393d dea6 2d3d
000001c0: b9e7 14bd 79f9 a73c 7ad0 43bd 7389 eabc
000001d0: 4514 4e3c 544e 233d c3fd 983c 5447 d73c
000001e0: 29be 983c e492 403d 3bec 27bd 3ec9 6fbb
000001f0: 8c13 c33c 0f7f 5f3d b10c b8bb 130e 963d

network_body._body_endoder.seq_layers.2.weight f4 [128, 128]
-0.06376109 -0.120343246 0.13687374 -0.04524617 0.008429044 -0.085660115 -0.061137877 -0.04178686
0.13619082 -0.015016255 0.1210095 -0.025517756 0.221838 0.06009332 0.08614259 -0.041543014
0.08525502 -0.02401116 0.106126115 -0.0654196 0.11907514 -0.08194597 0.018924102 -0.08112595
0.04183492 0.11422612 0.0152196335 0.06370116 -0.04035434 0.0919652 -0.070049115 0.055480894
-0.020517662 -0.013220545 -0.04521534 -0.09029862 -0.042549606 -0.044044483 -0.09460655 0.22175227
0.07041754 -0.022965547 -0.24491283 -0.08039898 0.06420196 0.0433645 0.110634215 0.043962125
0.20751485 -0.07689463 0.09522443 0.08262478 0.012656416 -0.03072802 0.07278808 0.08679413
0.07198482 -0.013702411 -0.01139052 -0.053993035 -0.17813063 0.08197644 0.0010369233 0.031052986
-0.007023019 0.006843853 -0.18381798 -0.021624299 0.13503797 0.057110142 0.12993102 -0.16828896
-0.08909131 0.09480799 -0.12741573 0.0061279833 0.014652747 -0.012877286 0.10663542 -0.07475251
-0.077013806 0.026501816 -0.08986577 0.06514599 0.09302815 -0.0925695 0.10842616 0.13352609
-0.061672285 0.0068764524 -0.07582793 0.14172682 -0.07876065 0.18188392 0.019343797 0.026065586
0.07490649 0.12844884 -0.0068233833 0.06625781 0.035913184 0.10660524 -0.046015788 0.06553447
-0.09485284 0.01793589 0.12539728 0.050152566 0.10559402 0.067618884 -0.08283973 -0.019636901
-0.033534624 -0.21731162 0.011432664 0.0027273404 -0.13846786 0.09953008 -0.101085484 0.14235936
0.015383548 0.08330331 0.13735156 0.044577613 -0.061522476 0.056059565 -0.024261221 0.0562641
-0.27075455 0.043748345 -0.033417586 -0.026574671 0.0032357313 0.012745339 0.0551465 -0.048066895
-0.022433324 0.036955897 -0.003157855 0.088043705 0.14177433 -0.015886469 -0.2291701 -0.05142955
-0.026378043 -0.17805159 0.035335 -0.083015524 0.07474713 0.08258311 0.08620253 0.102188796
-0.04598856 -0.080729544 -0.11142526 -0.20792595 0.15940745 -0.11358687 -0.17916314 -0.021966115
0.012916883 -0.12487624 0.085241854 -0.16655317 -0.08093604 -0.060479056 -0.16289973 0.010905885
0.035160862 0.0023990497 -0.003140685 0.12169126 0.0179594 -0.016688595 0.010762999 0.0045992616
0.12167537 0.04518278 0.20045152 0.023763537 0.08611777 0.11778555 -0.06558956 0.030123265
-0.04805835 -0.12278928 -0.094108045 0.08709669 0.053972334 0.23107405 -0.03103504 -0.048749488
-0.28972697 0.10367367 0.05321732 -0.23896621 -0.0700669 0.018811228 0.08392686 0.17725064
-0.100696936 0.087666795 0.07991718 -0.035380077 0.027661737 -0.060801584 0.015633704 -0.015738774
0.008242459 0.039063994 -0.11893596 -0.011608657 0.22978544 0.01277092 0.13191968 -0.13276364
-0.16349186 0.06876914 0.019900963 0.08776589 0.16476302 0.05272197 -0.05119332 -0.19980793
-0.02733113 -0.026085591 0.16967836 -0.0595592 -0.15171944 -0.18820533 -0.117171764 -0.053415526
0.23815884 -0.07028705 -0.0070934733 -0.13663268 0.049526647 -0.022960173 0.23306003 0.021398678
-0.10760165 -0.0034506405 0.07832361 -0.12346603 0.02554656 0.25775096 0.015948448 -0.05649569
0.0045999764 -0.13829218 -0.16669248 -0.10195283 0.09866392 0.057228487 0.012510576 0.061018936
00000000: 2d95 82bd 8576 f6bd a128 0c3e 0c54 39bd
00000010: f919 0a3c 926e afbd b66b 7abd b328 2bbd
00000020: 9b75 0b3e bd06 76bc d4d3 f73d 9d0a d1bc
00000030: 8029 633e 6a24 763d 876b b03d 0229 2abd
00000040: 2f9a ae3d 0db3 c4bc a658 d93d b6fa 85bd
00000050: abdd f33d 4ad3 a7bd b806 9b3c 5d25 a6bd
00000060: 185b 2b3d 62ef e93d c55b 793c c175 823d
00000070: 984a 25bd 4058 bc3d e975 8fbd ef3f 633d
00000080: a814 a8bc fc9a 58bc b833 39bd 7cee b8bd
00000090: 7f48 2ebd fd67 34bd 14c1 c1bd 0713 633e
000000a0: 1237 903d 3e22 bcbc 6eca 7abe 38a8 a4bd
000000b0: 517c 833d f99e 313d 3194 e23d a111 343d
000000c0: c67e 543e ef7a 9dbd 0705 c33d 2e37 a93d
000000d0: db5c 4f3c 54b9 fbbc eb11 953d 1fc1 b13d
000000e0: c76c 933d 1480 60bc 4e9f 3abc cd27 5dbd
000000f0: e067 36be 44e3 a73d 5fe9 873a d562 fe3c
00000100: 5a21 e6bb 6642 e03b c83a 3cbe 7125 b1bc
00000110: 6547 0a3e 53ec 693d a30c 053e f153 2cbe
00000120: 8175 b6bd b12a c23d 4579 02be 40cd c83b
00000130: 1312 703c 41fb 52bc ac63 da3d d817 99bd
00000140: 6ab9 9dbd 561a d93c 8b0b b8bd 436b 853d
00000150: 8b85 be3d 1495 bdbd 890e de3d 10bb 083e
00000160: 149c 7cbd dd53 e13b ac4b 9bbd d620 113e
00000170: 434d a1bd c73f 3a3e e276 9e3c 7f87 d53c
00000180: 9368 993d 1888 033e b096 dfbb 2db2 873d
00000190: b419 133d d953 da3d 0d7b 3cbd f036 863d
000001a0: 3542 c2bd 4aee 923c 2568 003e c76c 4d3d
000001b0: ad41 d83d c57b 8a3d e0a7 a9bd 91dd a0bc
000001c0: 9a5b 09bd f086 5ebe 1150 3b3c 2ebd 323b
000001d0: 85ca 0dbe 6dd6 cb3d e805 cfbd a7c6 113e
000001e0: 470b 7c3c ed9a aa3d e3a5 0c3e 0497 363d
000001f0: fefe 7bbd b79e 653d 78bf c6bc 2f75 663d
00000200: 57a0 8abe 7731 333d e1e0 08bd 20b3 d9bc
00000210: 900e 543b d4d1 503c 4ce1 613d cbe1 44bd
00000220: 17c6 b7bc 115f 173d 04f4 4ebb 4250 b43d
00000230: 4a2d 113e 5724 82bc 91ab 6abe cba7 52bd
00000240: c416 d8bc 2853 36be 6fbb 103d 0b04 aabd
00000250: 0615 993d 5521 a93d f48a b03d 5c48 d13d
00000260: 805e 3cbd 8855 a5bd ed32 e4bd 8aea 54be
00000270: b53b 233e 3ca0 e8bd 8b76 37be 48f2 b3bc
00000280: 56a1 533c 1dbf ffbd 4893 ae3d ea8c 2abe
00000290: cbc1 a5bd e3b8 77bd 30cf 26be 99ae 323c
000002a0: d604 103d 6039 1d3b f3d3 4dbb 4439 f93d
000002b0: 971f 933c 85b6 88bc 4a57 303c 67b5 963b
000002c0: f030 f93d 9411 393d 2a43 4d3e c0ab c23c
000002d0: 835e b03d 8d39 f13d d253 86bd 11c5 f63c
000002e0: d5d8 44bd f278 fbbd b8bb c0bd c05f b23d
000002f0: 1812 5d3d ad9e 6c3e 323d febc 8bad 47bd
00000300: 1857 94be dc52 d43d 68fa 593d 8fb3 74be
00000310: 3c7f 8fbd 011a 9a3c d8e1 ab3d 3181 353e
00000320: 323a cebd a68a b33d 9eab a33d b3ea 10bd
00000330: de9a e23c 150b 79bd 4112 803c 9aee 80bc
00000340: 610b 073c 9101 203d b294 f3bd 3d32 3ebc
00000350: e04c 6b3e 1f3d 513c f415 073e 31f3 07be
00000360: 696a 27be d6d6 8c3d 5807 a33c 9abe b33d
00000370: a3b7 283e fef2 573d 16b0 51bd 739a 4cbe
00000380: 89e5 dfbc 73b1 d5bc 2ac0 2d3e 59f4 73bd
00000390: 575c 1bbe e6b8 40be c0f7 efbd 3dca 5abd
000003a0: e9df 733e a8f2 8fbd 5e70 e8bb 70e9 0bbe
000003b0: 74dc 4a3d f916 bcbc 4aa7 6e3e 484c af3c
000003c0: 415e dcbd 2424 62bb 2168 a03d c2db fcbd
000003d0: 0547 d13c eff7 833e 52a6 823c 0668 67bd
000003e0: 66bb 963b 779c 0dbe 6fb1 2abe a5cc d0bd
000003f0: 4f10 ca3d 6b68 6a3d 29f9 4c3c feee 793d

network_body._body_endoder.seq_layers.2.bias f4 [128]
0.0070171766 0.058883086 -0.017344177 -0.02111348 0.03764027 0.03527612 0.0064949244 0.027178492
0.019561967 -0.017349422 0.014825645 0.02277426 0.0032744687 -0.007791863 0.028015718 -0.020559832
0.013819973 0.010312342 0.031032499 0.038842216 0.009052966 0.066280305 0.0060937232 0.033056296
0.024263227 0.014038766 0.012072519 0.029024716 0.003188888 0.016689336 -0.016793028 0.03285507
-0.0075208615 0.029120974 0.023312034 0.023552073 0.017828956 0.0026037318 -0.0011971771 0.008898881
0.0128946155 0.015992695 0.008425808 0.03551912 0.04707293 0.013629212 0.0036291154 0.012203731
0.0058285156 -0.0011623777 0.026956957 -0.005760615 0.029435644 0.02352721 0.026517872 0.02874747
0.06423166 0.02136315 -0.01420489 0.012114789 -0.003233581 0.013627567 0.041324146 0.018394489
0.04144277 0.030486824 0.0012374304 0.048578233 0.03270505 -0.029345172 0.016378732 0.036836043
-0.004584689 0.02016154 0.019494794 0.015234742 0.00561477 0.0101190675 0.059791856 0.0022820535
-0.00023966108 -0.0056599877 0.020793187 0.022193873 0.01642177 -0.0008202473 0.019872298 0.01360807
0.04027417 0.01212852 0.009879184 0.03589597 -0.0018829085 0.034346666 -0.014212748 0.011348433
0.013323849 0.021959255 0.020827858 0.0023751801 -0.016406247 0.09610391 -0.0047491444 0.0060242745
0.008134636 0.039650913 0.046149343 0.02560548 -0.00053382554 -0.012208669 0.028077768 0.051145118
0.02076424 0.025008712 0.042134084 -0.007191621 0.029803297 -0.009528735 0.03597557 0.02675218
-0.0016743252 0.00040964945 0.019115398 -0.009745959 0.060250383 0.011851272 0.008825863 -0.0012751785
00000000: 58f0 e53b 642f 713d 6015 8ebc 2df6 acbc
00000010: af2c 1a3d b17d 103d 60d3 d43b 6ea5 de3c
00000020: 6b40 a03c 6020 8ebc 43e7 723c 1691 ba3c
00000030: 7898 563b e252 ffbb 3881 e53c 186d a8bc
00000040: 2b6d 623c 19f5 283c de37 fe3c 0419 1f3d
00000050: e452 143c f8bd 873d dbad c73b 0a66 073d
00000060: adc3 c63c da02 663c d1cb 453c 3ec5 ed3c
00000070: aafc 503b 13b8 883c 8891 89bc 0a93 063d
00000080: 8f71 f6bb 1c8f ee3c e1f8 be3c 47f0 c03c
00000090: 080e 923c 5fa3 2a3b 99ea 9cba 9dcc 113c
000000a0: f043 533c 1d03 833c 660c 0a3c 7f7c 113d
000000b0: 8bcf 403d 0f4d 5f3c 74d6 6d3b 28f2 473c
000000c0: 22fd be3b ec5a 98ba d6d4 dc3c 8bc3 bcbb
000000d0: 0523 f13c 23bc c03c 023c d93c d07f eb3c
000000e0: e38b 833d c601 af3c a0bb 68bc 1c7d 463c
000000f0: 7dea 53bb 2946 5f3c 8243 293d 0ab0 963c
00000100: e5bf 293d 81bf f93c 4631 a23a f8f9 463d
00000110: bbf5 053d 4965 f0bc b12c 863c 64e1 163d
00000120: 293b 96bb d029 a53c 8cb3 9f3c 249b 793c
00000130: 1bfc b73b 72ca 253c 4ee8 743d 818e 153b
00000140: 884d 7bb9 6b77 b9bb 7956 aa3c edcf b53c
00000150: f386 863c dd05 57ba 3bcb a23c 62f4 5e3c
00000160: 87f6 243d b3b6 463c 4ddc 213c a707 133d
00000170: edcb f6ba 17af 0c3d 96dc 68bc c7ee 393c
00000180: 464c 5a3c e5e3 b33c 2f9f aa3c e9a8 1b3b
00000190: 6566 86bc 20d2 c43d b69e 9bbb 4767 c53b
000001a0: 2347 053c ff68 223d 1807 3d3d 95c2 d13c
000001b0: 6df0 0bba df06 48bc 5903 e63c 8b7d 513d
000001c0: c419 aa3c 12df cc3c ca94 2c3d b1a7 ebbb
000001d0: 0b26 f43c 691e 1cbc 1f5b 133d 6327 db3c
000001e0: 0875 dbba 38c6 d639 e597 9c3c 84ad 1fbc
000001f0: 1bc9 763d d62b 423c 5a9a 103c e423 a7ba

action_model._continuous_distribution.log_sigma f4 [1, 2]
-0.32124916 -0.4643755
00000000: c57a a4be a0c2 edbe

action_model._continuous_distribution.mu.weight f4 [2, 128]
-0.010836112 0.109524295 0.028135996 0.040631484 0.02209691 0.0063302033 0.060273476 -0.031935163
-0.0033855771 0.05671279 -0.0030113102 -0.021642331 -0.041595384 -0.003490114 0.012069087 0.0043682465
0.10524833 -0.017347103 0.008217915 -0.047871217 0.029207623 0.0017270494 0.051535632 0.049737662
-0.062763266 0.025177993 0.008970424 0.11918598 -0.03782129 -0.024448767 -0.02301646 0.06577402
0.039403085 0.05223195 -0.0061686547 -0.03133047 -0.0106157875 -0.021373946 0.06844778 0.034866482
-0.007852311 -0.0067157093 0.003282543 -0.017394558 -0.025955167 0.0503273 -0.039174303 0.070898935
0.103444554 0.059132095 -0.023787051 -0.027644997 -0.012410915 0.049129006 -0.029795576 0.025427736
0.08530711 0.050667144 0.027709503 0.025030343 -0.008105364 -0.022192348 0.0075006117 0.023292651
-0.034804385 -0.007403411 0.004093594 -0.045812387 0.08335967 0.0011037469 -0.023665568 0.0030368306
0.07345428 0.10675605 -0.0005829507 0.13736738 -0.040354386 0.06964252 0.14301138 -0.004690399
0.06510915 0.022576153 0.014896759 -0.05437742 0.01902356 0.09528227 -0.00074618 0.08707548
-0.04555526 0.037653916 -0.038762596 0.035750695 -0.063621804 -0.023246013 0.105408594 0.0015072541
-0.01453865 -0.020516261 -0.009788505 0.04732146 0.07373916 -0.072077185 0.008859202 -0.0078228135
0.018697863 0.03148028 0.079201385 -0.019785084 0.08952196 -0.036040746 0.02747755 0.015052656
0.089132145 0.016365035 0.050099265 0.009885344 -0.052872308 0.07988126 -0.04974136 0.06665825
0.039235722 0.018600479 -0.028759398 0.09351843 -0.06539589 0.09376091 0.024594931 0.012804384
0.0394904 0.047382556 -0.0055574197 0.0010930076 0.05092031 0.05544253 -0.05631106 0.013195478
0.018977074 -0.0022081507 0.016744541 -0.08054128 -0.05398025 -0.0759061 0.0329324 -0.04771249
0.0067153513 -0.06374469 0.053873897 0.013182085 -0.10839679 0.04485502 -0.040439595 0.030245785
-0.0015372 -0.0712502 0.019264402 -0.003983785 -0.06676621 0.035099134 -0.002373772 0.021904932
-0.0066871187 0.055520218 -0.09520169 0.012995283 0.035399247 0.035121705 -0.026060205 0.020607116
0.016890017 0.013703572 0.032695968 0.035909913 -0.04410921 -0.07692646 0.021218129 -0.057035
-0.03720519 -0.041304253 0.022661787 -0.01937299 0.044616327 0.06744243 0.051816583 0.049770165
-0.031438876 0.030969888 -0.030846588 0.046146695 0.0071553304 0.013193244 0.06147608 0.04323508
0.0012307729 -0.0138957575 -0.100392714 -0.0016885821 0.04401661 -0.016595596 0.02967111 0.07705222
-0.01966765 -0.05138795 0.016540438 -0.09247634 -0.06231254 -0.054880776 0.03514246 -0.040837348
-0.015077994 0.00030657125 0.044024356 -0.06921347 -0.0895902 -0.03076596 0.042995773 -0.048493553
0.027181754 0.010375775 -0.08863926 0.046053667 -0.034353998 0.02443672 -0.017231269 -0.07019412
0.009324104 0.023136182 0.027685022 -0.062467724 -0.041189108 -0.013080738 -0.059331257 0.025057012
-0.07092321 0.042419843 0.06114624 0.039006814 -0.010325886 -0.022385204 0.02262551 0.04725559
-0.09130851 0.049232733 -0.04145738 -0.060130022 0.061978914 0.00195734 -0.03387768 -0.1152407
-0.042997822 -0.05289014 0.016583381 -0.053316284 0.011284233 -0.043501157 0.025890691 -0.058333848
00000000: f389 31bc 464e e03d 767d e63c 336d 263d
00000010: 9404 b53c 986d cf3b 52e1 763d 72ce 02bd
00000020: 8fe0 5dbb ac4b 683d 6759 45bb 424b b1bc
00000030: ec5f 2abd 65ba 64bb 6bbd 453c 8223 8f3b
00000040: 708c d73d 831b 8ebc 6fa4 063c 9c14 44bd
00000050: d344 ef3c 295e e23a 0717 533d b8b9 4b3d
00000060: 078a 80bd 1442 ce3c aff8 123c c717 f43d
00000070: 7fea 1abd c848 c8bc 048d bcbc 88b4 863d
00000080: 2165 213d 2bf1 553d 6d22 cabb 6154 00bd
00000090: d7ed 2dbc 6a18 afbc 5a2e 8c3d 28d0 0e3d
000000a0: fba6 00bc 740f dcbb ef1f 573b 087f 8ebc
000000b0: ee9f d4bc 0024 4e3d 3c75 20bd 7633 913d
000000c0: bdda d33d 7f34 723d 10dd c2bc c377 e2bc
000000d0: 2757 4bbc 7f3b 493d da15 f4bc d44d d03c
000000e0: 7eb5 ae3d 5a88 4f3d 0aff e23c 6f0c cd3c
000000f0: 5ccc 04bc bacc b5bc b1c7 f53b 3bd0 be3c
00000100: 0b8f 0ebd 5098 f2bb 8e23 863b c5a5 3bbd
00000110: 7ab8 aa3d 9aab 903a 4bde c1bc 9005 473b
00000120: 336f 963d eaa2 da3d 29d1 18ba 09aa 0c3e
00000130: a44a 25bd bda0 8e3d 9371 123e ebb1 99bb
00000140: f257 853d a0f1 b83c 8911 743c dcba 5ebd
00000150: 4cd7 9b3c 5a23 c33d 4b9b 43ba a154 b23d
00000160: 2798 3abd fe3a 1a3d 87c5 1ebd 526f 123d
00000170: 264c 82bd 6c6e bebc 76e0 d73d 0e8f c53a
00000180: 8533 6ebc b811 a8bc f75f 20bc 26d4 413d
00000190: 8f04 973d 349d 93bd 3026 113c 422b 00bc
000001a0: 432c 993c 77f1 003d 5634 a23d 5414 a2bc
000001b0: 4a57 b73d 769f 13bd 9918 e13c 6a9f 763c
000001c0: ea8a b63d f70f 863c e334 4d3d 23f6 213c
000001d0: a290 58bd c998 a33d 99bd 4bbd 1f84 883d
000001e0: a3b5 203d 0860 983c d498 ebbc 9786 bf3d
000001f0: 48ee 85bd b805 c03d 4f7b c93c 7bc9 513c
00000200: b0c0 213d 3614 423d 041b b6bb 4043 8f3a
00000210: d191 503d b517 633d 6da6 66bd d931 583c
00000220: cf75 9b3c 9fb6 10bb d92b 893c d4f2 a4bd
00000230: 651a 5dbd a874 9bbd 20e4 063d 2c6e 43bd
00000240: 730c dc3b 938c 82bd e0aa 5c3d acf9 573c
00000250: 23ff ddbd e6b9 373d fda3 25bd 02c6 f73c
00000260: df7b c9ba a0eb 91bd 61d0 9d3c 698a 82bb
00000270: b9bc 88bd 1cc4 0f3d 4991 1bbb f971 b33c
00000280: 9e1f dbbb 2b69 633d 1bf9 c2bd 2bea 543c
00000290: cdfe 103d c7db 0f3d 367c d5bc 41d0 a83c
000002a0: ef5c 8a3c f284 603c 35ec 053d 4616 133d
000002b0: dcab 34bd 9f8b 9dbd a4d1 ad3c 889d 69bd
000002c0: 7864 18bd a62e 29bd 36a5 b93c 1bb4 9ebc
000002d0: 9cbf 363d 421f 8a3d a03d 543d cddb 4b3d
000002e0: 0dc6 00bd 90b4 fd3c fcb1 fcbc 5104 3d3d
000002f0: 4377 ea3b 7a28 583c 58ce 7b3d 4417 313d
00000300: e351 a13a 08ab 63bc b29a cdbd 6a53 ddba
00000310: c34a 343d 7df3 87bc d410 f33c 8ecd 9d3d
00000320: 0d1e a1bc 2c7c 52bd d07f 873c 3c64 bdbd
00000330: 6f3b 7fbd aaca 60bd 8af1 0f3d 1045 27bd
00000340: b109 77bc 4cbb a039 e252 343d cbbf 8dbd
00000350: 117b b7bd e508 fcbc 561c 303d 2da1 46bd
00000360: 45ac de3c 28ff 293c 8088 b5bd c5a2 3c3d
00000370: c7b6 0cbd 842f c83c 9728 8dbc efc1 8fbd
00000380: 20c4 183c 1788 bd3c b3cb e23c 28de 7fbd
00000390: e9b5 28bd 9750 56bc 5505 73bd 5d44 cd3c
000003a0: 3040 91bd 6ec0 2d3d 7b74 7a3d 9cc5 1f3d
000003b0: e82d 29bc 2d61 b7bc 2259 b93c 148f 413d
000003c0: f5ff babd 43a8 493d 37cf 29bd e64a 76bd
000003d0: 9add 7d3d b746 003b 52c3 0abd 5103 ecbd
000003e0: 7c1e 30bd 55a3 58bd dfd9 873c 2d62 5abd
000003f0: 81e1 383c 452e 32bd b718 d43c 79ef 6ebd

action_model._continuous_distribution.mu.bias f4 [2]
-0.020428432 0.0085798
00000000: 8759 a7bc 4a92 0c3c

onnx::Div_51 f4 [271]
0.05533994 0.055393256 0.055450577 0.099396676 0.0994272 0.09945468 0.18162252 0.18163358
0.18164553 0.24252027 0.2425269 0.24253345 0.2769851 0.2769892 0.27699274 0.28428712
0.2842899 0.28429285 0.27229568 0.2722981 0.272301 0.21890111 0.21890338 0.21890512
0.18816467 0.18816674 0.18816903 0.16262905 0.1626313 0.16263418 0.14065646 0.14065997
0.14066227 0.13430871 0.13431092 0.13431269 0.13140148 0.13140328 0.13140532 0.12992316
0.12992482 0.12992685 0.12690651 0.12690823 0.12690985 0.120354004 0.1203554 0.12035713
0.11306034 0.11306171 0.11306327 0.1074001 0.107401736 0.10740307 0.10296912 0.10297054
0.10297192 0.09948839 0.09948965 0.09949113 0.09675734 0.096758574 0.09675972 0.09472488
0.094726354 0.09472775 0.09338911 0.093390375 0.0933919 0.09301114 0.093012646 0.09301416
0.09317747 0.09317891 0.09318044 0.09240688 0.092408404 0.09241017 0.092057936 0.092059724
0.09206153 0.09222725 0.09222916 0.092230774 0.09319963 0.09320167 0.09320368 0.09533636
0.095338576 0.0953406 0.0985132 0.09851517 0.09851728 0.10274481 0.10274687 0.10274916
0.10816678 0.10816916 0.10817087 0.11496968 0.1149722 0.11497453 0.123400584 0.12340267
0.123405084 0.13391441 0.13391717 0.13391906 0.14727266 0.14727485 0.14727712 0.16261452
0.16261713 0.1626196 0.17360185 0.17360465 0.1736072 0.18628669 0.18628938 0.18629242
0.18921408 0.18921623 0.18921931 0.19661029 0.19661318 0.19661668 0.23236099 0.23236376
0.23236714 0.30918565 0.3091882 0.30919072 0.347488 0.3474909 0.34749347 0.35619125
0.35619408 0.35619667 0.04104479 0.04111552 0.04119078 0.029740619 0.029841227 0.029941529
0.021415098 0.021554975 0.021694241 0.02017659 0.020324757 0.020471564 0.019653808 0.019805789
0.019956715 0.018823573 0.018982043 0.019139346 0.017996902 0.018162541 0.018326966 0.01703878
0.01721366 0.01738694 0.016345976 0.016528232 0.016708648 0.015642177 0.015832614 0.016021077
0.01350374 0.013723993 0.013940783 0.010014053 0.0103097875 0.010596716 0.008279344 0.008634056
0.008974859 0.006558258 0.0070015634 0.007417774 0.004569375 0.0051845727 0.0057347855 0.0024210678
0.0034442008 0.004226504 0.0012192582 0.0027362565 0.0036725213 0.0010000605 0.002645875 0.0036056875
0.0010000605 0.002645875 0.0036056875 0.0010000605 0.002645875 0.0036056875 0.0010000605 0.002645875
0.0036056875 0.0010000605 0.002645875 0.0036056875 0.0012035765 0.0027293055 0.003667347 0.0012121836
0.0027331123 0.00367018 0.001215796 0.0027347154 0.0036713767 0.0012177753 0.0027355964 0.0036720317
0.0012190194 0.002736151 0.0036724445 0.0013801783 0.0028116514 0.0037290356 0.001505824 0.0028753977
0.003777344 0.0016482595 0.0029524835 0.0038363475 0.0017701956 0.003022247 0.0038902892 0.0017791315
0.0030274892 0.0038943617 0.0017862163 0.0030316564 0.0038976064 0.0017919315 0.0030350275 0.003900226
0.0019107633 0.00310667 0.00395623 0.0019158144 0.0031097778 0.0039586704 0.078684516 0.07872253
0.07875813 0.21168177 0.21169351 0.21170735 0.2997823 0.2997876 0.29979417 0.3203932
00000000: 22ac 623d 0ae4 623d 2520 633d 7c90 cb3d
00000010: 7da0 cb3d e5ae cb3d 41fb 393e 27fe 393e
00000020: 4901 3a3e 3c57 783e f958 783e b05a 783e
00000030: fed0 8d3e 87d1 8d3e fed1 8d3e 158e 913e
00000040: 728e 913e d58e 913e 576a 8b3e a86a 8b3e
00000050: 096b 8b3e 9d27 603e 3528 603e aa28 603e
00000060: 3dae 403e c8ae 403e 62af 403e 3b88 263e
00000070: d288 263e 9389 263e 3f08 103e 2b09 103e
00000080: c509 103e 3988 093e cd88 093e 4489 093e
00000090: 1c8e 063e 958e 063e 1e8f 063e 940a 053e
000000a0: 030b 053e 8b0b 053e c8f3 013e 3bf4 013e
000000b0: a8f4 013e 297c f63d e47c f63d cd7d f63d
000000c0: 2e8c e73d e68c e73d b78d e73d 95f4 db3d
000000d0: 71f5 db3d 24f6 db3d 79e1 d23d 38e2 d23d
000000e0: f1e2 d23d 92c0 cb3d 3bc1 cb3d 01c2 cb3d
000000f0: b628 c63d 5c29 c63d f629 c63d 1eff c13d
00000100: e4ff c13d 9f00 c23d ca42 bf3d 7443 bf3d
00000110: 4144 bf3d a07c be3d 6a7d be3d 357e be3d
00000120: d4d3 be3d 96d4 be3d 63d5 be3d d13f bd3d
00000130: 9e40 bd3d 8b41 bd3d df88 bc3d cf89 bc3d
00000140: c18a bc3d a4e1 bc3d a4e2 bc3d 7de3 bc3d
00000150: 73df be3d 84e0 be3d 92e1 be3d b63f c33d
00000160: df40 c33d ef41 c33d 4ac1 c93d 52c2 c93d
00000170: 6dc3 c93d df6b d23d f36c d23d 276e d23d
00000180: 8b86 dd3d cb87 dd3d b088 dd3d 3975 eb3d
00000190: 8b76 eb3d c477 eb3d 72b9 fc3d 8aba fc3d
000001a0: cebb fc3d dc20 093e 9521 093e 1422 093e
000001b0: a5ce 163e 38cf 163e d0cf 163e 6c84 263e
000001c0: 1b85 263e c185 263e afc4 313e 6bc5 313e
000001d0: 16c6 313e f0c1 3e3e a5c2 3e3e 71c3 3e3e
000001e0: 56c1 413e e6c1 413e b5c2 413e 3554 493e
000001f0: f754 493e e255 493e 0af0 6d3e c4f0 6d3e
00000200: a7f1 6d3e 954d 9e3e ea4d 9e3e 3f4e 9e3e
00000210: f2e9 b13e 54ea b13e aaea b13e b35e b63e
00000220: 125f b63e 695f b63e 951e 283d bf68 283d
00000230: aab7 283d 99a2 f33c 9775 f43c f047 f53c
00000240: b76e af3c 0f94 b03c 1fb8 b13c 6049 a53c
00000250: 1b80 a63c fbb3 a73c 0601 a13c c03f a23c
00000260: 447c a33c e533 9a3c 3b80 9b3c 1eca 9c3c
00000270: 3d6e 933c 9cc9 943c 6f22 963c e994 8b3c
00000280: a903 8d3c 0e6f 8e3c ffe7 853c 3766 873c
00000290: 93e0 883c 0624 803c 66b3 813c a23e 833c
000002a0: ca3e 5d3c 99da 603c e267 643c fc11 243c
000002b0: 62ea 283c d99d 2d3c 16a6 073c db75 0d3c
000002c0: 490b 133c a8e6 d63b 5f6d e53b cc10 f33b
000002d0: b2ba 953b 59e3 a93b deea bb3b c7aa 1e3b
000002e0: 1ab8 613b 7c7e 8a3b 84cf 9f3a c452 333b
000002f0: afae 703b 7614 833a 6b66 2d3b 664d 6c3b
00000300: 7614 833a 6b66 2d3b 664d 6c3b 7614 833a
00000310: 6b66 2d3b 664d 6c3b 7614 833a 6b66 2d3b
00000320: 664d 6c3b 7614 833a 6b66 2d3b 664d 6c3b
00000330: 53c1 9d3a 26de 323b df57 703b 22e2 9e3a
00000340: 041e 333b 6787 703b 585b 9f3a e938 333b
00000350: 7b9b 703b c29d 9f3a b147 333b 78a6 703b
00000360: 81c7 9f3a ff50 333b 65ad 703b 19e7 b43a
00000370: af43 383b d662 743b 125f c53a 2b71 3c3b
00000380: 518d 773b 690a d83a 747e 413b 3b6b 7b3b
00000390: e805 e83a e410 463b 39f4 7e3b bf31 e93a
000003a0: d768 463b 8c38 7f3b 791f ea3a c1ae 463b
000003b0: fc6e 7f3b 3edf ea3a 50e7 463b ef9a 7f3b
000003c0: 9472 fa3a 4699 4b3b 43a3 813b 101c fb3a
000003d0: 6acd 4b3b bcb7 813b 5925 a13d 4739 a13d
000003e0: f14b a13d 1bc3 583e 2fc6 583e d0c9 583e
000003f0: 117d 993e c37d 993e 9f7e 993e 940a a43e
