results/parallelRC2/ParkParallelRC/ParkParallelRC-6317347.onnx (onnx, 213786 bytes, 9 tensors)

network_body.observation_encoder.processors.0.normalizer.running_mean f4 [271]
0.93891823 0.9389048 0.93890494 0.87945276 0.8794482 0.879442 0.7927033 0.79269934
0.7926935 0.68890655 0.6889063 0.68890136 0.6128725 0.61286986 0.61286837 0.5607943
0.56079197 0.5607848 0.513731 0.51372814 0.5137247 0.46496615 0.4649649 0.46496212
0.43334553 0.43334392 0.4333394 0.40580514 0.4058026 0.40579978 0.37614694 0.37614283
0.376141 0.34830907 0.3483061 0.34830377 0.32459167 0.3245873 0.3245862 0.30503985
0.30503723 0.30503517 0.28489974 0.28489888 0.28489408 0.26581562 0.26581258 0.26580974
0.2461298 0.24612792 0.24612585 0.23392282 0.23392065 0.23391877 0.2272408 0.22723915
0.22723806 0.22408637 0.22408444 0.2240825 0.22297099 0.22296919 0.222967 0.22367382
0.2236717 0.2236691 0.22620003 0.22619787 0.22619617 0.23152699 0.2315253 0.23152348
0.24279578 0.2427936 0.24279127 0.25536168 0.25535956 0.25535786 0.26041052 0.26040864
0.2604067 0.26425385 0.2642515 0.26425013 0.26920912 0.26920715 0.26920432 0.27505383
0.27505174 0.2750494 0.2823895 0.28238854 0.28238538 0.2915874 0.29158583 0.2915834
0.30261832 0.30261496 0.30261284 0.31548256 0.31548125 0.31547937 0.33097765 0.33097485
0.33097324 0.34957358 0.34957224 0.34957007 0.3702719 0.37026942 0.37026715 0.3842666
0.38426277 0.38426197 0.3959216 0.3959226 0.39591902 0.41152874 0.41152844 0.41152552
0.43240908 0.43240693 0.4324048 0.47440675 0.47440472 0.4744025 0.57174206 0.5717401
0.57173777 0.6729613 0.6729607 0.67295444 0.72797984 0.7279771 0.7279713 0.7523455
0.7523412 0.75233746 0.9736474 0.9736334 0.9736278 0.98619395 0.98618627 0.98617977
0.9966633 0.996659 0.99665517 0.9983494 0.99834186 0.998335 0.99929833 0.9992952
0.99929255 0.9993378 0.9993347 0.9993316 0.9994263 0.9994166 0.99940866 0.9995547
0.9995443 0.9995349 0.9996122 0.9996018 0.9995924 0.9996567 0.999645 0.99963504
0.9997137 0.9997023 0.9996929 0.999793 0.9997792 0.9997684 0.99983376 0.9998192
0.99980766 0.9998872 0.999855 0.99984294 0.9999457 0.9999131 0.9998923 0.9999797
0.9999473 0.9999267 0.999938 0.9999052 0.99988514 0.9998157 0.9997827 0.9997627
0.9987907 0.9987581 0.9987386 0.99615496 0.9961227 0.9961055 0.9926777 0.9926474
0.9926295 0.9887015 0.988671 0.9886531 0.98455167 0.98452497 0.98450786 0.9816711
0.98164433 0.98162776 0.9799403 0.97991306 0.9798963 0.9785831 0.97855693 0.9785394
0.9773067 0.9772799 0.9772616 0.9761278 0.97610384 0.97608685 0.9735007 0.973479
0.97346294 0.97009724 0.97007704 0.9700599 0.9668465 0.96682817 0.9668131 0.9635591
0.9635396 0.96352565 0.9604564 0.9604365 0.9604237 0.95816225 0.9581425 0.9581279
0.9566355 0.95661616 0.9566041 0.955036 0.9550252 0.9550188 0.9486091 0.9486062
0.9485999 0.919557 0.9195516 0.9195474 0.88244206 0.8824372 0.8824304 0.8613391
00000000: f25c 703f 115c 703f 135c 703f d123 613f
00000010: 8423 613f 1c23 613f 9aee 4a3f 58ee 4a3f
00000020: f6ed 4a3f 2e5c 303f 2a5c 303f d75b 303f
00000030: 36e5 1c3f 0ae5 1c3f f1e4 1c3f 3790 0f3f
00000040: 1090 0f3f 988f 0f3f e083 033f b083 033f
00000050: 7683 033f 0b10 ee3e e10f ee3e 840f ee3e
00000060: 77df dd3e 41df dd3e a9de dd3e b1c5 cf3e
00000070: 5cc5 cf3e fdc4 cf3e 5596 c03e cb95 c03e
00000080: 8e95 c03e 9155 b23e 2d55 b23e df54 b23e
00000090: e130 a63e 4e30 a63e 2a30 a63e 2f2e 9c3e
000000a0: d72d 9c3e 922d 9c3e 61de 913e 44de 913e
000000b0: a3dd 913e fc18 883e 9618 883e 3718 883e
000000c0: 7309 7c3e f508 7c3e 6a08 7c3e 7789 6f3e
000000d0: e588 6f3e 6788 6f3e d0b1 683e 61b1 683e
000000e0: 18b1 683e e676 653e 6476 653e e275 653e
000000f0: 8252 643e 0952 643e 7651 643e c00a 653e
00000100: 320a 653e 8309 653e fba0 673e 6aa0 673e
00000110: f89f 673e 6915 6d3e f814 6d3e 7e14 6d3e
00000120: 759f 783e e39e 783e 469e 783e c4be 823e
00000130: 7dbe 823e 44be 823e 8754 853e 4854 853e
00000140: 0754 853e 484c 873e f94b 873e cb4b 873e
00000150: c7d5 893e 85d5 893e 26d5 893e dbd3 8c3e
00000160: 95d3 8c3e 46d3 8c3e 5b95 903e 3b95 903e
00000170: d194 903e f24a 953e bd4a 953e 6b4a 953e
00000180: caf0 9a3e 59f0 9a3e 12f0 9a3e ee86 a13e
00000190: c286 a13e 8386 a13e e775 a93e 8975 a93e
000001a0: 5375 a93e 4ffb b23e 22fb b23e d9fa b23e
000001b0: 4794 bd3e f493 bd3e a893 bd3e 97be c43e
000001c0: 17be c43e fcbd c43e 3cb6 ca3e 5eb6 ca3e
000001d0: e6b5 ca3e e5b3 d23e dbb3 d23e 79b3 d23e
000001e0: b964 dd3e 7164 dd3e 2964 dd3e 71e5 f23e
000001f0: 2de5 f23e e2e4 f23e b05d 123f 8f5d 123f
00000200: 685d 123f 3147 2c3f 2747 2c3f be46 2c3f
00000210: e35c 3a3f b55c 3a3f 545c 3a3f b799 403f
00000220: 6f99 403f 3099 403f f540 793f 0a40 793f
00000230: ac3f 793f 3577 7c3f b476 7c3f 4776 7c3f
00000240: 5325 7f3f 0b25 7f3f cb24 7f3f d493 7f3f
00000250: 5593 7f3f e292 7f3f 04d2 7f3f cfd1 7f3f
00000260: a3d1 7f3f 9ad4 7f3f 66d4 7f3f 32d4 7f3f
00000270: 67da 7f3f c4d9 7f3f 3fd9 7f3f d1e2 7f3f
00000280: 23e2 7f3f 85e1 7f3f 96e6 7f3f e7e5 7f3f
00000290: 4ae5 7f3f 80e9 7f3f bce8 7f3f 15e8 7f3f
000002a0: 3ded 7f3f 7dec 7f3f e0eb 7f3f 6ff2 7f3f
000002b0: 88f1 7f3f d2f0 7f3f 1bf5 7f3f 27f4 7f3f
000002c0: 65f3 7f3f 9cf8 7f3f 7ff6 7f3f b5f5 7f3f
000002d0: 71fc 7f3f 4efa 7f3f f1f8 7f3f abfe 7f3f
000002e0: 8cfc 7f3f 32fb 7f3f f0fb 7f3f caf9 7f3f
000002f0: 79f8 7f3f ecf3 7f3f c2f1 7f3f 73f0 7f3f
00000300: bfb0 7f3f 9cae 7f3f 55ad 7f3f 0304 7f3f
00000310: e601 7f3f c500 7f3f 2020 7e3f 241e 7e3f
00000320: f81c 7e3f 8b1b 7d3f 8b19 7d3f 5f18 7d3f
00000330: 940b 7c3f d409 7c3f b508 7c3f cc4e 7b3f
00000340: 0b4d 7b3f f54b 7b3f 5edd 7a3f 95db 7a3f
00000350: 7cda 7a3f 6c84 7a3f b582 7a3f 8f81 7a3f
00000360: c630 7a3f 042f 7a3f d12d 7a3f 83e3 793f
00000370: f1e1 793f d4e0 793f 5837 793f eb35 793f
00000380: de34 793f 4b58 783f f856 783f d855 783f
00000390: 4183 773f 0d82 773f 1081 773f cfab 763f
000003a0: 88aa 763f 9ea9 763f 78e0 753f 2bdf 753f
000003b0: 54de 753f 1f4a 753f d448 753f df47 753f
000003c0: 10e6 743f cce4 743f 02e4 743f 3d7d 743f
000003d0: 887c 743f 1d7c 743f 0cd8 723f dbd7 723f
000003e0: 71d7 723f 1668 6b3f bc67 6b3f 7567 6b3f
000003f0: b9e7 613f 68e7 613f f5e6 613f b880 5c3f

network_body._body_endoder.seq_layers.0.weight f4 [128, 271]
0.09613766 -0.004597209 0.026348755 -0.2246792 0.04013979 -0.16398016 0.01730319 -0.11786367
-0.12963787 -0.06725525 -0.030287376 -0.001346213 -0.033374533 0.0024049126 0.07261357 0.095875025
0.027607918 0.031125883 0.10294838 0.014815896 -0.033389606 0.069886215 0.102156274 0.044483792
0.12523346 0.027107645 0.16489913 0.038821038 -0.01591238 -0.01079717 0.08441616 0.05152841
0.04261084 0.053306326 -0.04021547 -0.07443658 -0.104604594 -0.10122748 -0.08681122 -0.046811208
-0.09758312 -0.12656333 -0.09695499 0.012389939 -0.059330054 -0.0044499175 -0.09728437 -0.117454134
0.058164105 -0.052171823 0.028769307 0.12452268 -0.053903684 -0.015420575 0.06168357 0.055738643
0.1551561 -0.14659335 -0.05137706 -0.0012512029 -0.106499456 -0.01502196 -0.17324468 0.024943573
0.04110026 0.009496944 -0.11110323 -0.028030287 -0.13131864 -0.1841451 -0.0073514436 -0.16590276
-0.017230963 0.08740453 0.028765295 0.0024989361 0.058942407 -0.0026091656 -0.0036516848 0.044609293
0.039485753 -0.14346844 0.124490134 0.0072263293 0.05165337 -0.07932163 -0.034967065 -0.05750265
-0.0633227 -0.0241531 0.012607805 -0.056319624 0.06859327 -0.09274016 -0.006513111 0.009533861
-0.0567796 0.039090518 0.023968428 -0.046598054 -0.03054304 0.029515266 -0.020718144 0.0060553425
-0.08971493 -0.10329505 -0.109106496 -0.029513417 0.021185283 -0.13980538 -0.064919785 0.026441514
0.047769178 0.0053446013 -0.069329955 -0.09277868 0.040367424 0.025814338 -0.08384418 0.058323354
0.06406673 -0.03344137 -0.012024886 0.067175984 0.003949103 0.03273131 0.014913895 -0.03309247
-0.0575712 0.08147323 0.037933405 0.040489536 0.01753256 -0.0681449 -0.059372064 -0.111743815
-0.034475677 -0.080024965 0.0400824 0.03672098 0.19548512 0.07001363 0.19816792 0.15019082
0.020292873 0.08036879 -0.05239893 0.08686781 0.058885172 0.055947054 0.0070769386 0.01661978
0.10081202 0.012627554 -0.029965406 -0.019874834 0.0046770247 -0.06836146 0.13944036 -0.010220595
0.040994193 0.05472925 0.054093383 -0.0335393 -0.020204157 -0.01603856 -0.016269648 -0.013196572
0.04902899 -0.040466897 -0.1374154 0.060069077 0.02879517 -0.005990117 -0.0023414935 0.022279758
0.055663675 -0.007220974 -0.0038715373 0.024722772 0.0046293186 -0.022564724 -0.011130276 0.03878517
0.05000369 0.00094567856 0.06150514 -0.15118653 -0.045309268 0.055075705 0.0670464 0.054721076
-0.14211518 -0.11399423 0.061874438 0.10210068 -0.0349492 0.14525801 -0.010344412 0.08165182
-0.041673966 0.025880584 -0.06804737 0.028396294 -0.054647084 -0.0425429 -0.012220294 0.039887533
-0.060759675 -0.060182597 -0.05187611 -0.12978826 0.088760555 -0.021982593 -0.041630954 0.005837772
0.024333239 0.016099336 -0.011594957 0.03806117 -0.1874279 0.08535787 0.051570844 0.14372307
-0.05094071 0.022565646 -0.022324918 -0.007055723 0.09439583 0.1303834 0.09955915 -0.03526926
-0.06878001 -0.019139227 0.035415605 0.053006437 0.00042660648 0.04661598 -0.029173028 -0.025426148
0.12472396 0.10776691 -0.116403036 0.058827177 0.17141859 0.07185466 0.018357683 0.06995142
0.0719444 0.022715053 -0.13222899 -0.0032354004 0.052742317 0.09264845 0.03903675 -0.032554615
00000000: d2e3 c43d 2fa4 96bb 58d9 d73c 4e12 66be
00000010: 9f69 243d 6aea 27be 6bbf 8d3c 8262 f1bd
00000020: cabf 04be 1fbd 89bd 3b1d f8bc 6a73 b0ba
00000030: bcb3 08bd bd9b 1d3b 6cb6 943d 205a c43d
00000040: 002a e23c b5fb fe3c 9ad6 d23d 5fbe 723c
00000050: 8ac3 08bd 8120 8f3d 4f37 d13d a334 363d
00000060: 333d 003e da10 de3c 51db 283e cf02 1f3d
00000070: ae5a 82bc 9de6 30bc 61e2 ac3d 740f 533d
00000080: b488 2e3d bc57 5a3d fab8 24bd 3572 98bd
00000090: ef3a d6bd 5a50 cfbd 15ca b1bd 1cbd 3fbd
000000a0: a9d9 c7bd d199 01be 5690 c6bd 2cff 4a3c
000000b0: 1204 73bd 9dd0 91bb 073d c7bd cb8b f0bd
000000c0: 7c3d 6e3d 1fb2 55bd 9cad eb3c bf05 ff3d
000000d0: 1cca 5cbd 94a6 7cbc e9a7 7c3d 344e 643d
000000e0: 3ee1 1e3e 911c 16be c170 52bd 67ff a3ba
000000f0: 631c dabd ab1e 76bc 0e67 31be 7756 cc3c
00000100: bf58 283d 1299 1b3c 178a e3bd c69f e5bc
00000110: 6578 06be 8890 3cbe 61e4 f0bb 6ae2 29be
00000120: f327 8dbc 2501 b33d 32a5 eb3c 31c5 233b
00000130: 986d 713d 89fe 2abb 1b51 6fbb 3cb8 363d
00000140: d0bb 213d 64e9 12be aff4 fe3d d8ca ec3b
00000150: 7c92 533d 6173 a2bd a039 0fbd e687 6bbd
00000160: 55af 81bd b9dc c5bc f890 4e3c 68af 66bd
00000170: a17a 8c3d 8eee bdbd ef6b d5bb e933 1c3c
00000180: ba91 68bd 611d 203d 7059 c43c 9add 3ebd
00000190: 6635 fabc 00ca f13c 19b9 a9bc e56b c63b
000001a0: 76bc b7bd 5b8c d3bd 3a73 dfbd 1fc6 f1bc
000001b0: c28c ad3c 2429 0fbe aaf4 84bd e09b d83c
000001c0: 9da9 433d c421 af3b ddfc 8dbd c002 bebd
000001d0: 5058 253d 9778 d33c 7fb6 abbd 78e4 6e3d
000001e0: 6b35 833d d1f9 08bd 0704 45bc 9093 893d
000001f0: 7a67 813b 4411 063d 6959 743c f88b 07bd
00000200: c7cf 6bbd 70db a63d 0f60 1b3d 5bd8 253d
00000210: 71a0 8f3c 8e8f 8bbd 1f30 73bd f1d9 e4bd
00000220: 5e36 0dbd 21e4 a3bd 712d 243d bd68 163d
00000230: 402d 483e 4e63 8f3d 88ec 4a3e 9fcb 193e
00000240: 3d3d a63c 6498 a43d 43a0 56bd c0e7 b13d
00000250: 9431 713d bd28 653d aae5 e73b 3426 883c
00000260: 8876 ce3d cde3 4e3c 037a f5bc 8cd0 a2bc
00000270: ba41 993b 1801 8cbd 74c9 0e3e 4874 27bc
00000280: 87e9 273d c72b 603d 0691 5d3d 8160 09bd
00000290: 3083 a5bc 4c63 83bc ed47 85bc 6f36 58bc
000002a0: 9fd2 483d 9ec0 25bd 9fb6 0cbe fe0a 763d
000002b0: d9e3 eb3c be48 c4bb be73 19bb 0a84 b63c
000002c0: 98ff 633d ec9d ecbb 9eb9 7dbb 6987 ca3c
000002d0: 8ab1 973b a8d9 b8bc c35b 36bc 33dd 1e3d
000002e0: abd0 4c3d 6ae7 773a d0ec 7b3d a4d0 1abe
000002f0: 3696 39bd 1097 613d 9f4f 893d 3523 603d
00000300: a486 11be cf75 e9bd 0d70 7d3d 291a d13d
00000310: e426 0fbd 84be 143e 9c7b 29bc 1239 a73d
00000320: 52b2 2abd 8503 d43c 6b5c 8bbd 589f e83c
00000330: 9fd5 5fbd 7741 2ebd a137 48bc 1c61 233d
00000340: 23df 78bd 0782 76bd 0b7c 54bd 37e7 04be
00000350: 18c8 b53d d714 b4bc 3885 2abd c84a bf3b
00000360: 8056 c73c c1e2 833c c6f8 3dbc 08e6 1b3d
00000370: 19ed 3fbe 1bd0 ae3d f33b 533d 242c 133e
00000380: 35a7 50bd 97db b83c bfe2 b6bc b233 e7bb
00000390: 9a52 c13d 3a83 053e abe5 cb3d 8076 10bd
000003a0: 89dc 8cbd dec9 9cbc f40f 113d 471d 593d
000003b0: 27aa df39 66f0 3e3d 46fc eebc 7f4a d0bc
000003c0: 476f ff3d e6b4 dc3d b764 eebd c4f4 703d
000003d0: 5b88 2f3e 8928 933d da62 963c b142 8f3d
000003e0: 9657 933d eb14 ba3c 0967 07be 0309 54bb
000003f0: 5408 583d 78be bd3d 00e5 1f3d fd57 05bd

network_body._body_endoder.seq_layers.0.bias f4 [128]
0.020957094 0.029342452 0.051226866 -0.038438827 -0.04868085 0.00135561 -0.031998917 0.035717204
-0.026083807 -0.07691891 -0.011000543 0.046403214 0.035669833 0.012135862 0.029199783 -0.005392859
0.02395911 0.059471752 0.034881186 0.016056221 0.010474602 0.028304135 -0.028418249 0.042992484
-0.024813121 -0.06415818 0.088095665 0.028976912 0.029153338 0.0449372 -0.053285223 -0.032307915
0.0052306144 -0.0469951 -0.0432542 -0.02140441 0.016155569 -0.022366954 -0.0077340873 -0.010398889
0.006475174 0.009954515 0.0089258915 0.03184649 -0.059536945 0.055853743 0.037939105 0.027960015
0.035095155 0.0020671985 0.019760868 0.03462087 0.052836567 0.009851401 0.025795989 0.036570832
0.0264911 0.07900383 -0.03743297 -0.0341051 0.024652768 0.024621952 0.021895807 0.022510797
-0.009765693 0.038116656 -0.025152044 0.01122173 0.03535114 0.11138563 -0.04060855 0.004113357
0.023905594 0.007597943 -0.054693796 0.011977483 -0.0024741786 -0.009045026 0.04860818 -0.0072170235
-0.01863882 -0.0051225964 -0.01769879 0.035612013 0.011664809 0.061729606 -0.01067683 0.1022522
-0.00547294 0.07938232 0.0010285643 0.022966601 -0.0064758984 -0.067255035 0.010976758 0.07174007
-0.0040204567 -0.048045587 -0.0067472914 -0.021953598 0.0064240475 0.06402148 0.044483654 0.02775139
0.009037916 0.049019415 -0.009684823 0.03884991 0.014921724 0.010873554 0.039602816 0.02617441
-0.057992198 0.012413871 -0.04266856 -0.02974434 -0.02942205 0.012198053 0.043310672 0.010751442
0.01987406 0.038928878 -0.06159863 -0.014403639 0.026537774 0.08476943 0.0071034003 0.08026656
00000000: 36ae ab3c 955f f03c 43d3 513d 0872 1dbd
00000010: 9265 47bd b9ae b13a 4c11 03bd 344c 123d
00000020: b5ad d5bc a987 9dbd 9f3b 34bc 4c11 3e3d
00000030: 881a 123d 7fd5 463c 6234 ef3c 95b6 b0bb
00000040: e545 c43c a798 733d 93df 0e3d 5688 833c
00000050: aa9d 2b3c 13de e73c 63cd e8bc e318 303d
00000060: e344 cbbc 5d65 83bd 806b b43d fd60 ed3c
00000070: fbd2 ee3c 1210 383d 9b41 5abd 4e55 04bd
00000080: 9365 ab3b ef7d 40bd 512b 31bd 4d58 afbc
00000090: af58 843c e73a b7bc 3a6e fdbb 1a60 2abc
000000a0: b22d d43b 4318 233c e73d 123c 7771 023d
000000b0: 03dd 73bd e5c6 643d 0966 1b3d 670c e53c
000000c0: f0bf 0f3d d679 073b 8be1 a13c 9dce 0d3d
000000d0: 286b 583d c567 213c 1c52 d33c 4ccb 153d
000000e0: dd03 d93c c3cc a13d 5053 19bd cab1 0bbd
000000f0: 9af4 c93c fab3 c93c d65e b33c 9068 b83c
00000100: 4900 20bc 3620 1c3d a90b cebc 59db 373c
00000110: 5bcc 103d 261e e43d 2755 26bd 57c9 863b
00000120: aad5 c33c 2af8 f83b 9a06 60bd 343d 443c
00000130: d425 22bb 9731 14bc 5f19 473d c87c ecbb
00000140: 70b0 98bc 74db a7bb 0efd 90bc e7dd 113d
00000150: c11d 3f3c 2fd8 7c3d dfed 2ebc 9a69 d13d
00000160: 5956 b3bb 3393 a23d e4d0 863a 7424 bc3c
00000170: c633 d4bb 02bd 89bd dcd7 333c 75ec 923d
00000180: 09be 83bb 73cb 44bd 6218 ddbb 08d8 b3bc
00000190: d180 d23b b21d 833d 7e34 363d e256 e33c
000001a0: c413 143c 95c8 483d 18ad 1ebc 1521 1f3d
000001b0: 3f7a 743c fe26 323c 9036 223d b76b d63c
000001c0: 3a89 6dbd 8c63 4b3c 3ac5 2ebd 67aa f3bc
000001d0: 8306 f1bc 58da 473c 8866 313d d126 303c
000001e0: edce a23c e373 1f3d d84e 7cbd 3efd 6bbc
000001f0: bf65 d93c 989b ad3d a4c3 e83b cb62 a43d

network_body._body_endoder.seq_layers.2.weight f4 [128, 128]
-0.078881346 -0.12676378 0.15933228 -0.06632894 0.0064780987 -0.08577114 -0.05953615 -0.07155027
0.118398815 -0.004048325 0.08914025 -0.022987602 0.22948083 0.07057831 0.073297426 -0.03435893
0.08446647 -0.02322293 0.13420027 -0.09161155 0.11838878 -0.07591283 0.021459976 -0.087885834
0.036637742 0.038556267 0.02044913 0.07929217 -0.01603442 0.10197795 -0.09040769 0.051755536
-0.021574657 -0.057493873 -0.08211848 -0.08396909 -0.0942781 -0.06388227 -0.09336193 0.18518874
0.06727897 5.933649e-05 -0.26746207 -0.05609334 0.046072923 0.08371498 0.095599644 0.07045946
0.21868186 -0.0627682 0.104253195 0.101528175 0.03298527 -0.059469137 0.067881346 0.10751438
0.06121717 -0.010092375 -0.034108613 -0.046451017 -0.22701979 0.05393252 -0.0073985634 0.04587967
-0.0041150437 0.042463437 -0.20078412 0.0017345842 0.14095832 0.0041064606 0.11272327 -0.17509982
-0.08786021 0.11883606 -0.13382702 -0.059431862 -0.00036819853 -0.045672283 0.12701575 -0.061985783
-0.111132696 0.03329375 -0.07918691 0.07639243 0.08255373 -0.06445806 0.100596055 0.13976899
-0.09103292 0.015537396 -0.095938206 0.16184823 -0.11630761 0.17825322 -0.01170239 0.022639398
0.060685437 0.082850926 -0.026556268 0.048968643 0.051385004 0.12774764 -0.07661683 0.042656746
-0.075331815 0.016460905 0.1307751 0.049102496 0.10818889 0.07435186 -0.09385372 -0.022090754
-0.043445703 -0.23802471 -0.025315572 0.0018152865 -0.11641199 0.09949015 -0.08012089 0.15108092
0.00033156355 0.07321953 0.11422392 0.057574745 -0.079096 0.06247109 -0.0097884815 0.05778141
-0.27761918 0.00018355605 -0.027853224 -0.036334105 -0.03836878 -0.026895924 0.03586662 -0.04225188
-0.05508696 -0.034309193 -0.021825664 0.11402002 0.109318286 0.005086213 -0.25357842 -0.02676188
-0.00965655 -0.18143667 0.05425594 -0.069021806 0.090218574 0.07274777 0.10540164 0.098045595
-0.043005608 -0.11613339 -0.08811041 -0.22612943 0.12626518 -0.13466133 -0.18854557 -0.031202048
0.0239199 -0.12872526 0.085879564 -0.18293428 -0.09449683 -0.056711115 -0.17822443 0.01231311
0.037051704 0.023781458 -0.020218974 0.06946881 0.018750018 0.010989565 -0.022827283 0.01588026
0.13080129 0.04840146 0.22116832 0.012071077 0.11273871 0.12969558 -0.06300177 0.022743791
-0.027689766 -0.10985782 -0.095251344 0.088895984 0.06620202 0.22062589 -0.041833874 -0.08371276
-0.2967072 0.08458914 0.07084995 -0.31361923 -0.009669523 0.09593239 0.064686075 0.19085896
-0.062246025 0.050412085 0.058724176 -0.025759645 0.069770895 -0.057562374 0.042162422 0.007953697
-0.009223883 0.028209615 -0.17160355 -0.009723071 0.21965513 0.018001942 0.09656971 -0.104326636
-0.16774853 0.04509792 0.045929078 0.08563114 0.16058269 0.0626536 -0.062635295 -0.20774668
-0.011999919 -0.04699505 0.15249167 -0.084306054 -0.15395984 -0.16072002 -0.110341236 -0.06387834
0.21391028 -0.0723021 -0.0057240454 -0.13747787 0.06143097 -0.03917841 0.22598067 0.01568427
-0.143668 0.004241763 0.050484702 -0.12713492 0.008981877 0.2521251 0.004152445 -0.044180848
-0.034277987 -0.1429298 -0.18624043 -0.116824105 0.11859439 0.07839046 -0.037406616 0.069783196
00000000: 8b8c a1bd 5dce 01be 0028 233e 78d7 87bd
00000010: 3b46 d43b c8a8 afbd 2edc 73bd f388 92bd
00000020: 147b f23d d0a7 84bb 2a8f b63d 7f50 bcbc
00000030: 06fd 6a3e 5c8b 903d f61c 963d f3bb 0cbd
00000040: c2fc ac3d 043e bebc cc6b 093e d69e bbbd
00000050: d175 f23d 3078 9bbd d5cc af3c 7dfd b3bd
00000060: 7511 163d 2ded 1d3d ef84 a73c ef63 a23d
00000070: 9e5a 83bc d1d9 d03d ab27 b9bd 9dfd 533d
00000080: 56bd b0bc b27e 6bbd bc2d a8bd fcf7 abbd
00000090: e014 c1bd b5d4 82bd 8a34 bfbd 1ea2 3d3e
000000a0: 8ec9 893d 12e0 7838 caf0 88be 21c2 65bd
000000b0: f6b6 3c3d c272 ab3d bfc9 c33d 0d4d 903d
000000c0: 23ee 5f3e 9d8c 80bd b382 d53d 01ee cf3d
000000d0: 901b 073d e995 73bd 6005 8b3d 8030 dc3d
000000e0: dbbe 7a3d 7d5a 25bc 79b5 0bbd 6c43 3ebd
000000f0: e077 68be 59e8 5c3d a66f f2bb 52ec 3b3d
00000100: 7dd7 86bb 24ee 2d3d 5a9a 4dbe fd5a e33a
00000110: 6157 103e 7d8f 863b 75db e63d 5e4d 33be
00000120: 0ef0 b3bd 5260 f33d f309 09be d36e 73bd
00000130: c50a c1b9 dc12 3bbd 6b10 023e cee4 7dbd
00000140: 8a99 e3bd 075f 083d bf2c a2bd a273 9c3d
00000150: ee11 a93d 9602 84bd 4e05 ce3d 9a1f 0f3e
00000160: 786f babd 9090 7e3c 407b c4bd 8bbb 253e
00000170: af32 eebd 0388 363e 62bb 3fbc 4276 b93c
00000180: 4b91 783d bfad a93d 888c d9bc 5893 483d
00000190: 1579 523d 47d0 023e 49e9 9cbd d7b8 2e3d
000001a0: 9147 9abd 05d9 863c e8e9 053e b31f 493d
000001b0: 2392 dd3d ca45 983d 6136 c0bd abf7 b4bc
000001c0: 1ff4 31bd c0bc 73be 9a62 cfbc e8ee ed3a
000001d0: 6969 eebd 7ec1 cb3d 6c16 a4bd f5b4 1a3e
000001e0: b5d5 ad39 1ff4 953d 3bee e93d 7fd3 6b3d
000001f0: 15fd a1bd b0e1 7f3d de5f 20bc 33ac 6c3d
00000200: 1a24 8ebe f478 4039 722c e4bc 12d3 14bd
00000210: 9528 1dbd d754 dcbc e0e8 123d 4f10 2dbd
00000220: dda2 61bd cc87 0cbd bccb b2bc 5483 e93d
00000230: 44e2 df3d 3faa a63b 08d5 81be bb3b dbbc
00000240: 8236 1ebc 89ca 39be 7a3b 5e3d 4e5b 8dbd
00000250: 84c4 b83d c8fc 943d d1dc d73d 21cc c83d
00000260: a626 30bd 58d7 edbd 3b73 b4bd 798e 67be
00000270: a94b 013e a9e4 09be 1712 41be 709b ffbc
00000280: abf3 c33c 8ed0 03be a0e1 af3d 2053 3bbe
00000290: 8e87 c1bd ea49 68bd 7780 36be edbc 493c
000002a0: 87c3 173d 55d1 c23c 43a2 a5bc aa45 8e3d
000002b0: a399 993c 940d 343c 4800 bbbc 5217 823c
000002c0: c6f0 053e 9c40 463d f379 623e c4c5 453c
000002d0: 8ee3 e63d ebce 043e 1207 81bd 3051 ba3c
000002e0: a6d5 e2bc 23fd e0bd 2313 c3bd 190f b63d
000002f0: ed94 873d c1eb 613e ff59 2bbd 9871 abbd
00000300: 02ea 97be 123d ad3d c719 913d b392 a0be
00000310: eb6c 1ebc 3378 c43d 227a 843d 8870 433e
00000320: b0f5 7ebd e77c 4e3d c388 703d e405 d3bc
00000330: 0be4 8e3d 86c6 6bbd 81b2 2c3d 3950 023c
00000340: c51f 17bc da17 e73c d7b8 2fbe 844d 1fbc
00000350: 46ed 603e cf78 933c 57c6 c53d 34a9 d5bd
00000360: 45c6 2bbe 99b8 383d 2120 3c3d 615f af3d
00000370: ca6f 243e 8850 803d ef46 80bd 8cbb 54be
00000380: 4f9b 44bc e27d 40bd c726 1c3e a7a8 acbd
00000390: a6a7 1dbe ca93 24be 96fa e1bd a6d2 82bd
000003a0: 4c0b 5b3e 2013 94bd c690 bbbb 00c7 0cbe
000003b0: 0a9f 7b3d 8a79 20bd 7a67 673e 4c7c 803c
000003c0: b41d 13be 7dfe 8a3b 0cc9 4e3d a82f 02be
000003d0: b928 133c 8b16 813e 3c11 883b faf6 34bd
000003e0: 1367 0cbd 315c 12be d0b5 3ebe 7a41 efbd
000003f0: 9ee1 f23d 2d8b a03d ae37 19bd 7eea 8e3d

network_body._body_endoder.seq_layers.2.bias f4 [128]
-0.015695434 0.050140887 -0.008888943 -0.031097522 0.015677918 0.02390785 0.005021582 0.012820459
-0.0048883962 -0.051683776 -0.03219442 0.028918583 0.009487888 -0.02770108 -0.0017739234 -0.027957201
-0.004357907 0.0437105 0.0070208595 0.03853926 0.018375311 0.05962835 0.0046526697 0.027242277
0.027673624 0.024619315 -0.010376582 0.030122072 0.010824897 0.00397276 -0.022493824 0.030096143
-0.06914838 0.027762178 0.06965525 0.01772769 -0.040811207 -0.02092209 0.0023094793 0.007868646
-0.0032706996 0.0036648165 -0.020791091 0.043005224 0.070059545 0.014912162 -0.019550605 0.030143281
0.018977368 -0.0097980825 0.02250713 0.009010505 -0.017042078 0.021880306 0.019444285 0.04701745
0.072798215 -0.0019076149 -0.038158994 -0.001960192 -0.03335285 -0.009632243 0.031226242 -0.0051977965
0.041390102 0.028322177 0.0036288374 0.04698801 0.031051781 -0.057677444 0.016416093 0.04828661
-0.011159547 0.017466895 -0.018010804 -0.009802729 0.023410471 0.026396867 0.055146776 0.009917389
0.006510472 -0.04553862 0.010927784 0.044756033 0.029666577 -0.013879369 -0.01667378 0.003849502
0.04633411 -0.017770695 0.024624145 0.041559093 0.010008239 0.045702 -0.0010195149 0.038559757
-0.004650267 -0.0045532193 -0.0018263381 0.022216143 -0.04234764 0.10888791 0.0042871884 -0.04452772
-0.00071565283 0.037245467 0.048324678 0.03068479 -0.019206436 0.0032987536 -0.028628714 0.053848576
0.037566528 0.031853292 0.03133332 0.0015655765 0.025565388 0.008164131 0.04330882 0.027837934
-0.03140263 0.014932112 0.0018794914 -0.030744998 0.07244215 -0.010556093 0.00013755624 0.005691513
00000000: b693 80bc 8860 4d3d eea2 11bc 3bc0 febc
00000010: fa6e 803c 65da c33c 158c a43b e70c 523c
00000020: d72e a0bb 5eb2 53bd 4cde 03bd aae6 ec3c
00000030: 1673 1b3c 60ed e2bc fe82 e8ba 8006 e5bc
00000040: c6cc 8ebb c809 333d 3d0f e63b 58db 1d3d
00000050: d287 963c db3c 743d 6c75 983b 322b df3c
00000060: ccb3 e23c 72ae c93c 8a02 2abc 90c2 f63c
00000070: e95a 313c ed2d 823b f844 b8bc 308c f63c
00000080: aa9d 8dbd 826d e33c 69a7 8e3d a939 913c
00000090: a729 27bd ce64 abbc a25a 173b 7eeb 003c
000000a0: 3c59 56bb 6b2d 703b 1452 aabc 3f26 303d
000000b0: 617b 8f3d 2452 743c 9728 a0bc 0bef f63c
000000c0: 6d76 9b3c 2388 20bc df60 b83c cca0 133c
000000d0: d49b 8bbc 543e b33c 9f49 9f3c 5f95 403d
000000e0: 3b17 953d ef08 faba 9b4c 1cbd 9176 00bb
000000f0: ff9c 08bd 8ed0 1dbc 2dce ff3c 4752 aabb
00000100: ab88 293d e903 e83c cad1 6d3b 8076 403d
00000110: 4e60 fe3c 2f3f 6cbd 0b7b 863c 2ec8 453d
00000120: 88d6 36bc bc16 8f3c 658b 93bc a09b 20bc
00000130: 51c7 bf3c 3e3e d83c 96e1 613d 8b7c 223c
00000140: cc55 d53b b486 3abd 730a 333c 1a52 373d
00000150: 5207 f33c 4b66 63bc 7397 88bc ed47 7c3b
00000160: d6c8 3d3d d993 91bc 93b8 c93c de39 2a3d
00000170: 99f9 233c 0532 3b3d 3ea1 85ba d6f0 1d3d
00000180: 4461 98bb 2c33 95bb bd61 efba a1fe b53c
00000190: b874 2dbd a000 df3d 8b7b 8c3b b362 36bd
000001a0: a69a 3bba b48e 183d 19f0 453d ab5e fb3c
000001b0: d156 9dbc e72f 583b c486 eabc 5390 5c3d
000001c0: 5cdf 193d 9978 023d 5e57 003d 0834 cd3a
000001d0: 816e d13c d9c2 053c 9764 313d 610c e43c
000001e0: 0ba0 00bd d1a5 743c 4459 f63a efdc fbbc
000001f0: 8d5c 943d 77f3 2cbc f93c 1039 df7f ba3b

action_model._continuous_distribution.log_sigma f4 [1, 2]
-0.7583833 -0.89960045
00000000: 6825 42bf 374c 66bf

action_model._continuous_distribution.mu.weight f4 [2, 128]
-0.01468872 0.120852344 0.060960155 0.05186565 0.014803703 0.004793947 0.07111848 -0.011206871
-0.0044038943 0.0486746 -0.0048681013 -0.022688681 -0.051463768 -0.013346981 0.014513049 0.003877809
0.10973866 -0.03436541 0.013347745 -0.046618752 0.03368594 0.009192472 0.08913468 0.04868202
-0.07612638 0.061998457 0.01762002 0.1306887 -0.06650369 -0.0141830845 -0.0025931455 0.10412828
0.034613073 0.048415072 -0.0028466848 -0.032976113 -0.0018378363 -0.004136715 0.10554862 0.028392913
9.92572e-05 0.006468079 0.0062594516 -0.021534113 0.0092109805 0.06269189 -0.014470829 0.06704163
0.13332412 0.0925039 -0.031834926 -0.07163061 -0.00419226 0.05528496 -0.0008161139 0.0314774
0.11560964 0.051990617 0.017006326 0.026014032 0.00041545826 -0.021305766 0.015969926 0.017230662
-0.037143845 -0.046266895 0.041366674 -0.048313133 0.07256369 -0.011895463 -0.018871715 -0.01065671
0.10807912 0.12627703 0.015717326 0.14566417 -0.059908237 0.11453475 0.1368312 -0.034867566
0.0667301 0.02861732 0.034759123 -0.076343894 0.024827575 0.10990613 0.030751623 0.10814002
-0.03388361 0.04181677 -0.058336806 0.04190839 -0.08656245 -0.006964413 0.116705075 0.008506934
0.005884066 -0.008027381 -0.018152583 0.09220636 0.076905705 -0.08272039 0.019070316 -0.00044254522
0.051748496 0.032229863 0.06506287 0.010627363 0.11311999 -0.06644112 0.024237629 0.018752266
0.11979702 0.006154575 0.07606091 -0.0058525447 -0.04626597 0.11468819 -0.079761095 0.107218795
0.056133073 0.037531458 -0.015511495 0.094067894 -0.060910765 0.09769825 0.024647538 0.0511498
0.016972883 0.03387181 -0.011321135 0.020412203 0.043098956 0.06560328 -0.02798492 0.00386879
0.005300982 0.018702429 0.00758735 -0.06923315 -0.08204322 -0.045476027 0.011825035 -0.004315857
0.020924522 -0.15152884 0.062001336 0.004939565 -0.08015594 0.0407725 0.0069389315 0.028427117
-0.008585691 -0.056502532 -0.007853929 0.00430496 -0.10493265 0.025735395 -0.002898556 0.02726196
0.014172646 0.04407773 -0.15523049 0.009744166 0.01037891 0.010155215 0.00922252 0.017844275
-0.00080568355 0.009793569 0.049059648 0.039836697 -0.09245788 -0.050002597 -0.003406926 -0.047666945
-0.003378032 0.0071657836 0.021572841 -0.028853228 0.010389989 0.061349213 0.041764714 0.049077768
-0.015840136 0.04097661 -0.015127252 0.03682599 -0.010459447 0.01401403 0.056573845 0.031956825
0.009220232 -0.02344584 -0.07197485 -0.0111187445 0.04615673 -0.055939134 0.012214635 0.089483246
0.010913724 -0.027858693 0.011147213 -0.08762961 -0.063097805 -0.044979844 0.030587848 -0.04965435
0.0076996842 0.0007743544 0.030954575 -0.09379687 -0.081127144 -0.022097182 0.009465203 -0.00566286
0.015494807 0.004901501 -0.1409887 0.040479016 -0.021856666 0.025523096 -0.008645196 -0.06897941
-0.00090633356 0.011988126 0.021656211 -0.031147465 -0.006271924 -0.0026114192 -0.044143833 -0.0014662896
-0.045257747 0.03846012 0.051266737 0.036499053 0.0023228575 -0.044702895 0.004979103 0.053751037
-0.20575966 0.043029867 0.0058947345 -0.1001528 0.058845676 -0.015400886 -0.021119159 -0.06330275
-0.004148053 -0.03553871 0.017277166 -0.036046095 0.014762239 -0.031793352 0.027784754 -0.03149951
00000000: f5a8 70bc 6f81 f73d 5bb1 793d 1371 543d
00000010: 3b8b 723c 8b16 9d3b 91a6 913d 069d 37bc
00000020: 8b4e 90bb 045f 473d 9884 9fbb 9ddd b9bc
00000030: accb 52bd 4cad 5abc 24c8 6d3c d722 7e3b
00000040: aabe e03d bfc2 0cbd 80b0 5a3c 4ef3 3ebd
00000050: 45fa 093d 069c 163c 3e8c b63d cc66 473d
00000060: 26e8 9bbd 18f2 7d3d dc57 903c 42d3 053e
00000070: 1633 88bd 2b60 68bc c3f1 29bb 3541 d53d
00000080: 70c6 0d3d e24e 463d 728f 3abb f611 07bd
00000090: 8ee3 f0ba 488d 87bb e029 d83d 4198 e83c
000000a0: 4e28 d038 2ef2 d33b 161c cd3b 4f68 b0bc
000000b0: a7e9 163c 9b64 803d 0e17 6dbc 1f4d 893d
000000c0: 1e86 083e af72 bd3d 5765 02bd 12b3 92bd
000000d0: 3a5f 89bb 7b72 623d 7af0 55ba 72ee 003d
000000e0: bfc4 ec3d 1df4 543d da50 8b3c 611b d53c
000000f0: ddd1 d939 6e89 aebc 5dd3 823c 5127 8d3c
00000100: 2524 18bd 5b82 3dbd 1a70 293d fee3 45bd
00000110: 469c 943d 30e5 42bc db98 9abc 7b99 2ebc
00000120: 9658 dd3d c44e 013e 9fc1 803c fd28 153e
00000130: 5762 75bd 3291 ea3d 7a1d 0c3e 4bd1 0ebd
00000140: caa9 883d df6e ea3c 955f 0e3d 305a 9cbd
00000150: 3363 cb3c 7716 e13d d4ea fb3c 8478 dd3d
00000160: 8ac9 0abd 1048 2b3d 93f2 6ebd 22a8 2b3d
00000170: a747 b1bd bb35 e4bb 1203 ef3d ab60 0b3c
00000180: 20cf c03b 4785 03bc bab4 94bc b0d6 bc3d
00000190: bd80 9d3d 4f69 a9bd 5a39 9c3c 6a05 e8b9
000001a0: 3bf6 533d 7603 043d af3f 853d 641e 2e3c
000001b0: 74ab e73d 4812 88bd fe8d c63c 5a9e 993c
000001c0: 2458 f53d 51ac c93b d3c5 9b3d b4c6 bfbb
000001d0: 6381 3dbd a4e1 ea3d c959 a3bd 8795 db3d
000001e0: cbeb 653d 96ba 193d ed23 7ebc aba6 c03d
000001f0: 917d 79bd 0516 c83d a2e9 c93c 7482 513d
00000200: b70a 8b3c 2bbd 0a3d 487c 39bc 7e37 a73c
00000210: 8888 303d 035b 863d a240 e5bc 878b 7d3b
00000220: dcb3 ad3b d635 993c 4e9f f83b 1cca 8dbd
00000230: 4706 a8bd 1245 3abd cbbd 413c 086c 8dbb
00000240: e769 ab3c 602a 1bbe 1df5 7d3d 13dc a13b
00000250: cc28 a4bd 1101 273d fa5f e33b fcdf e83c
00000260: 00ab 0cbc 336f 67bd c4ad 00bc 9f10 8d3b
00000270: eee6 d6bd 09d3 d23c b3f5 3dbb 7954 df3c
00000280: 6334 683c da8a 343d bef4 1ebe ffa5 1f3c
00000290: 4e0c 2a3c 0f62 263c 0d1a 173c 282e 923c
000002a0: 8234 53ba 3575 203c c5f2 483d ce2b 233d
000002b0: 8f5a bdbd 86cf 4cbd bc46 5fbb 6a3e 43bd
000002c0: f961 5dbb f3ce ea3b 87b9 b03c 9b5d ecbc
000002d0: c63a 2a3c 5049 7b3d 7a11 2b3d c505 493d
000002e0: 2cc3 81bc 17d7 273d 4bd8 77bc d9d6 163d
000002f0: 1a5e 2bbc 1a9b 653c fab9 673d 29e5 023d
00000300: 7510 173c 7e11 c0bc 8d67 93bd 652b 36bc
00000310: d70e 3d3d 6f20 65bd e41f 483c fe42 b73d
00000320: 7acf 323c ea37 e4bc cda2 363c 2777 b3bd
00000330: 6c39 81bd c93c 38bd 5e93 fa3c 5c62 4bbd
00000340: a24d fc3b 0bfe 4a3a 7394 fd3c 9318 c0bd
00000350: fd25 a6bd 2605 b5bc f013 1b3c 838f b9bb
00000360: eedd 7d3c c59c a03b 575f 10be 53cd 253d
00000370: c00c b3bc d015 d13c 95a4 0dbc 1445 8dbd
00000380: 0497 6dba d869 443c 5e68 b13c f828 ffbc
00000390: b684 cdbb 5824 2bbb 2ad0 34bd 8430 c0ba
000003a0: 3060 39bd 5c88 1d3d 12fd 513d 0880 153d
000003b0: 153b 183b 621a 37bd be27 a33b 0c2a 5c3d
000003c0: a9b2 52be 1640 303d 9e28 c13b e91c cdbd
000003d0: 2a08 713d ff53 7cbc 1602 adbc dfa4 81bd
000003e0: 64ec 87bb 0a91 11bd d888 8d3c 12a5 13bd
000003f0: 51dd 713c bf39 02bd da9c e33c a105 01bd

action_model._continuous_distribution.mu.bias f4 [2]
-0.04622445 0.0057475534
00000000: d955 3dbd f955 bc3b

onnx::Div_51 f4 [271]
0.158875 0.15889136 0.1589138 0.2126266 0.2126375 0.21264973 0.24967706 0.2496844
0.24969156 0.27506432 0.2750691 0.2750735 0.29413807 0.29414114 0.29414454 0.3024263
0.30242765 0.30243066 0.30109116 0.30109388 0.3010951 0.28743893 0.2874393 0.28744063
0.2787127 0.27871343 0.27871454 0.26840174 0.2684028 0.26840326 0.25148118 0.2514816
0.25148204 0.2333262 0.2333265 0.23332657 0.21949932 0.2194993 0.21949892 0.20855281
0.20855226 0.20855193 0.19132589 0.19132489 0.19132417 0.17112276 0.1711218 0.17112166
0.14007488 0.14007442 0.14007431 0.118578725 0.1185795 0.11857978 0.10849292 0.108493865
0.10849512 0.10566628 0.1056672 0.105668545 0.10412903 0.104130335 0.10413117 0.10320772
0.10320889 0.103210345 0.102699414 0.102700755 0.10270195 0.102674514 0.1026756 0.102676675
0.101844154 0.10184568 0.101847135 0.098609865 0.09861152 0.09861322 0.09726915 0.0972708
0.09727289 0.09749187 0.09749359 0.09749531 0.09916135 0.09916325 0.09916527 0.102276206
0.102278054 0.10228038 0.106706314 0.106708154 0.1067105 0.112542085 0.1125443 0.11254657
0.12007064 0.120072186 0.120074384 0.12966463 0.12966673 0.12966882 0.14172862 0.14173062
0.14173278 0.1570501 0.15705225 0.15705478 0.17406885 0.17407109 0.17407367 0.17804419
0.17804673 0.17804866 0.17468572 0.17468837 0.1746903 0.17446223 0.17446458 0.17446755
0.17673929 0.17674221 0.17674534 0.19889504 0.19889845 0.19890271 0.26702723 0.26703012
0.2670336 0.3132051 0.31320727 0.31321022 0.33146545 0.33146888 0.3314715 0.33126312
0.33126634 0.3312708 0.1197711 0.119797826 0.11982862 0.08789979 0.08793123 0.08796483
0.04319009 0.043255754 0.043321364 0.030827139 0.030919505 0.031011561 0.019931238 0.020074155
0.020215858 0.01856793 0.01872111 0.018873347 0.016345596 0.016518747 0.01669026 0.013744945
0.013950812 0.01415353 0.012397816 0.012625559 0.012848386 0.011282636 0.0115355095 0.01177917
0.009684416 0.0099744145 0.01025737 0.007481032 0.007854556 0.008209224 0.0060333465 0.0064887754
0.00691444 0.00434975 0.00497099 0.0055146245 0.0026845988 0.003614145 0.004338606 0.0014151608
0.0027750575 0.003660451 0.006249715 0.0066898586 0.0071028564 0.011382611 0.011633352 0.011875502
0.030222718 0.03031413 0.030407125 0.053822406 0.05387048 0.053919487 0.07428819 0.07431986
0.07435514 0.09206627 0.09209043 0.09211444 0.10740577 0.10742543 0.10744711 0.11696031
0.11697771 0.11699646 0.122298345 0.12231476 0.122332685 0.12620711 0.12622267 0.1262399
0.12966011 0.1296746 0.12969065 0.13261484 0.13262945 0.13264513 0.13886766 0.13888155
0.13889602 0.14628349 0.14629641 0.14631018 0.15271597 0.15272835 0.15274149 0.15912043
0.15913178 0.15914443 0.1645796 0.16459015 0.16460213 0.16898632 0.16899645 0.16900766
0.17185867 0.17186826 0.17187963 0.17481638 0.17482726 0.1748401 0.18391384 0.18392585
0.18393719 0.22376026 0.22376914 0.22377865 0.26512727 0.26513395 0.2651408 0.28330687
00000000: 21b0 223e 6bb4 223e 4dba 223e caba 593e
00000010: a5bd 593e dac0 593e 58ab 7f3e 44ad 7f3e
00000020: 25af 7f3e 3bd5 8c3e dbd5 8c3e 6fd6 8c3e
00000030: 4499 963e ab99 963e 1d9a 963e 9fd7 9a3e
00000040: ccd7 9a3e 31d8 9a3e 9f28 9a3e fa28 9a3e
00000050: 2329 9a3e 322b 933e 3e2b 933e 6b2b 933e
00000060: 6eb3 8e3e 87b3 8e3e acb3 8e3e f46b 893e
00000070: 186c 893e 276c 893e 24c2 803e 32c2 803e
00000080: 41c2 803e 10ed 6e3e 24ed 6e3e 29ed 6e3e
00000090: 6ec4 603e 6dc4 603e 53c4 603e de8e 553e
000000a0: b98e 553e a38e 553e efea 433e acea 433e
000000b0: 7cea 433e ce3a 2f3e 8e3a 2f3e 843a 2f3e
000000c0: ca6f 0f3e ab6f 0f3e a46f 0f3e 67d9 f23d
000000d0: cfd9 f23d f5d9 f23d 8931 de3d 0832 de3d
000000e0: b132 de3d 9067 d83d 0c68 d83d c068 d83d
000000f0: 9a41 d53d 4942 d53d b942 d53d 925e d33d
00000100: 2f5f d33d f25f d33d 1254 d23d c654 d23d
00000110: 6655 d23d 0447 d23d 9647 d23d 2648 d23d
00000120: ab93 d03d 7894 d03d 3b95 d03d f8f3 c93d
00000130: d6f4 c93d baf5 c93d 0c35 c73d ea35 c73d
00000140: 0237 c73d d1a9 c73d b8aa c73d 9fab c73d
00000150: 1b15 cb3d 1a16 cb3d 2917 cb3d 3076 d13d
00000160: 2877 d13d 6078 d13d d788 da3d ce89 da3d
00000170: 098b da3d 777c e63d a07d e63d d17e e63d
00000180: 99e7 f53d 68e8 f53d 8fe9 f53d cec6 043e
00000190: 5bc7 043e e7c7 043e 4f21 113e d521 113e
000001a0: 6622 113e bed1 203e 4ed2 203e f8d2 203e
000001b0: 1b3f 323e b13f 323e 5e40 323e 3751 363e
000001c0: e251 363e 6352 363e d0e0 323e 82e1 323e
000001d0: 04e2 323e 3aa6 323e d8a6 323e 9fa7 323e
000001e0: 25fb 343e e9fb 343e bbfc 343e 24ab 4b3e
000001f0: 09ac 4b3e 27ad 4b3e cbb7 883e 2cb8 883e
00000200: a1b8 883e 6b5c a03e b45c a03e 175d a03e
00000210: d7b5 a93e 4ab6 a93e a2b6 a93e 529b a93e
00000220: be9b a93e 549c a93e 8d4a f53d 9058 f53d
00000230: b568 f53d ce04 b43d 4a15 b43d e826 b43d
00000240: 18e8 303d f22c 313d be71 313d 3289 fc3c
00000250: e74a fd3c f50b fe3c d646 a33c 8e72 a43c
00000260: ba9b a53c c61b 983c 035d 993c 479c 9a3c
00000270: 33e7 853c 5352 873c 03ba 883c 7a32 613c
00000280: f291 643c 35e4 673c 3620 4b3c 6fdb 4e3c
00000290: 0982 523c ceda 383c 6fff 3c3c 6bfd 403c
000002a0: 63ab 1e3c ba6b 233c 870e 283c 7223 f53b
000002b0: 65b0 003c fb7f 063c 61b3 c53b cb9f d43b
000002c0: 8792 e23b 5988 8e3b b0e3 a23b 06b4 b43b
000002d0: 18f0 2f3b 4bdb 6c3b dd2a 8e3b eb7c b93a
000002e0: bddd 353b 2de4 6f3b 69ca cc3b 9a36 db3b
000002f0: 14bf e83b 217e 3a3c d199 3e3c 7791 423c
00000300: a295 f73c 5755 f83c 5d18 f93c e274 5c3d
00000310: 4ba7 5c3d aeda 5c3d 6824 983d 0335 983d
00000320: 8247 983d 3e8d bc3d e899 bc3d 7fa6 bc3d
00000330: 8ef7 db3d dd01 dc3d 3b0d dc3d e388 ef3d
00000340: 0292 ef3d d79b ef3d 8e77 fa3d 2980 fa3d
00000350: 8f89 fa3d 703c 013e 8440 013e 0845 013e
00000360: 9fc5 043e 6bc9 043e a0cd 043e 2fcc 073e
00000370: 04d0 073e 20d4 073e 5333 0e3e f736 0e3e
00000380: c23a 0e3e 57cb 153e bace 153e 56d2 153e
00000390: 9361 1c3e d264 1c3e 4468 1c3e 77f0 223e
000003a0: 71f3 223e c2f6 223e 8e87 283e 528a 283e
000003b0: 768d 283e c00a 2d3e 680d 2d3e 5810 2d3e
000003c0: b8fb 2f3e 3cfe 2f3e 3701 303e 1103 333e
000003d0: eb05 333e 4809 333e e953 3c3e 0f57 3c3e
000003e0: 085a 3c3e 6921 653e bd23 653e 3b26 653e
000003f0: c3be 873e a3bf 873e 89c0 873e 990d 913e
