results/parallelRC2/ParkParallelRC/ParkParallelRC-3499854.onnx (onnx, 213786 bytes, 9 tensors)

network_body.observation_encoder.processors.0.normalizer.running_mean f4 [271]
00000000: c541 783f a440 783f 0241 783f fbe3 6e3f
00000010: 7de3 6e3f 3ce3 6e3f 5fb3 573f 4eb3 573f
00000020: 17b3 573f 8abe 393f 72be 393f 11be 393f
00000030: 09ec 223f ceeb 223f caeb 223f 4ef6 123f
00000040: 21f6 123f c8f5 123f c86c 033f 8c6c 033f
00000050: 756c 033f bd2c e53e 3f2c e53e 272c e53e
00000060: acd5 d13e 31d5 d13e e4d4 d13e 5938 c23e
00000070: 0e38 c23e a637 c23e a134 b33e 4734 b33e
00000080: 1334 b33e 3375 a63e fc74 a63e a674 a63e
00000090: 7414 9c3e 1a14 9c3e f813 9c3e 4e37 943e
000000a0: 1d37 943e d436 943e 129a 8d3e cf99 8d3e
000000b0: 6399 8d3e 5657 873e f856 873e d356 873e
000000c0: 2ac4 813e fac3 813e 9cc3 813e 7ac0 7a3e
000000d0: f0bf 7a3e 8bbf 7a3e 46fe 733e f3fd 733e
000000e0: 57fd 733e 8410 6f3e 0410 6f3e 8e0f 6f3e
000000f0: 0c24 6c3e c423 6c3e 3b23 6c3e 44bf 6b3e
00000100: a0be 6b3e 45be 6b3e 871c 6d3e 051c 6d3e
00000110: 8b1b 6d3e 48a7 713e d8a6 713e 58a6 713e
00000120: 9e52 773e 2f52 773e 8d51 773e 4b1b 7d3e
00000130: d81a 7d3e 661a 7d3e a0fb 803e 50fb 803e
00000140: 0afb 803e 14d1 833e f0d0 833e aad0 833e
00000150: 1807 873e ce06 873e 6b06 873e b855 8a3e
00000160: 3655 8a3e d654 8a3e c530 8e3e 9b30 8e3e
00000170: fe2f 8e3e 0ed9 923e b2d8 923e 7fd8 923e
00000180: 854a 983e 204a 983e e049 983e 0190 9e3e
00000190: ea8f 9e3e 848f 9e3e ede6 a53e 7ae6 a53e
000001a0: 33e6 a53e e46d ae3e a16d ae3e 516d ae3e
000001b0: 7f07 b83e 2d07 b83e c706 b83e 930e c13e
000001c0: 150e c13e ce0d c13e b434 c93e 8434 c93e
000001d0: 0434 c93e e9b9 d23e b1b9 d23e 3cb9 d23e
000001e0: 2caa dd3e e1a9 dd3e 87a9 dd3e c71d f03e
000001f0: 801d f03e 731d f03e cfd3 0b3f a9d3 0b3f
00000200: 53d3 0b3f 059c 283f 059c 283f 9d9b 283f
00000210: 8287 383f 2f87 383f fb86 383f 51fc 3e3f
00000220: 0bfc 3e3f 95fb 3e3f f971 7c3f ed6f 7c3f
00000230: a46f 7c3f 4847 7f3f d146 7f3f 6146 7f3f
00000240: 47da 7f3f d3d9 7f3f 55d9 7f3f f5e7 7f3f
00000250: 9be7 7f3f 3ce7 7f3f 2ce9 7f3f c1e8 7f3f
00000260: 67e8 7f3f b1ea 7f3f 3eea 7f3f dce9 7f3f
00000270: edeb 7f3f 65eb 7f3f 10eb 7f3f 1bed 7f3f
00000280: 8cec 7f3f 21ec 7f3f e7ed 7f3f 53ed 7f3f
00000290: e9ec 7f3f c9ee 7f3f 27ee 7f3f afed 7f3f
000002a0: 0ef1 7f3f 6ff0 7f3f 03f0 7f3f fcf4 7f3f
000002b0: 38f4 7f3f b0f3 7f3f a6f6 7f3f d3f5 7f3f
000002c0: 42f5 7f3f 29f9 7f3f 2ff7 7f3f 95f6 7f3f
000002d0: 7cfc 7f3f 81fa 7f3f 57f9 7f3f abfe 7f3f
000002e0: b0fc 7f3f 86fb 7f3f 43ff 7f3f 48fd 7f3f
000002f0: 1efc 7f3f 4cff 7f3f 51fd 7f3f 27fc 7f3f
00000300: 4dff 7f3f 51fd 7f3f 27fc 7f3f 4dff 7f3f
00000310: 51fd 7f3f 27fc 7f3f 4dff 7f3f 51fd 7f3f
00000320: 27fc 7f3f 4dff 7f3f 51fd 7f3f 27fc 7f3f
00000330: 0dff 7f3f 43fd 7f3f 1dfc 7f3f 0cff 7f3f
00000340: 42fd 7f3f 1cfc 7f3f 07ff 7f3f 3dfd 7f3f
00000350: 18fc 7f3f 07ff 7f3f 3dfd 7f3f 17fc 7f3f
00000360: 07ff 7f3f 3dfd 7f3f 17fc 7f3f d5fe 7f3f
00000370: 28fd 7f3f 09fc 7f3f a9fe 7f3f 16fd 7f3f
00000380: f9fb 7f3f 83fe 7f3f 01fd 7f3f ebfb 7f3f
00000390: 59fe 7f3f e6fc 7f3f d5fb 7f3f 57fe 7f3f
000003a0: e6fc 7f3f d4fb 7f3f 56fe 7f3f e5fc 7f3f
000003b0: d3fb 7f3f 55fe 7f3f e5fc 7f3f d3fb 7f3f
000003c0: 37fe 7f3f d2fc 7f3f c4fb 7f3f 36fe 7f3f
000003d0: d1fc 7f3f c4fb 7f3f 3f7a 7e3f f279 7e3f
000003e0: 7679 7e3f 5813 743f ad12 743f 1212 743f
000003f0: f685 653f 3b85 653f bf84 653f 7631 5e3f
0.96975356 0.96973634 0.96974194 0.9331662 0.9331587 0.9331548 0.84258074 0.8425797
0.84257644 0.72556365 0.7255622 0.72555643 0.6364141 0.6364106 0.63641036 0.5740708
0.5740681 0.5740628 0.5133786 0.51337504 0.5133737 0.44760695 0.4476032 0.44760248
0.4098333 0.40982965 0.40982735 0.37933615 0.3793339 0.3793308 0.3500109 0.35000822
0.35000667 0.3251129 0.32511127 0.3251087 0.30484354 0.30484086 0.30483985 0.28948444
0.28948298 0.2894808 0.2765661 0.2765641 0.27656087 0.2643382 0.2643354 0.2643343
0.25344974 0.2534483 0.2534455 0.24487486 0.24487281 0.2448713 0.23827466 0.23827343
0.2382711 0.23346144 0.23345953 0.23345777 0.23060626 0.23060519 0.23060314 0.23022181
0.23021936 0.23021801 0.23155414 0.2315522 0.23155038 0.23598969 0.23598802 0.23598611
0.2415261 0.24152444 0.24152203 0.24717443 0.24717271 0.24717101 0.25191975 0.25191736
0.25191528 0.2574545 0.25745344 0.25745136 0.263726 0.2637238 0.26372084 0.27018523
0.27018136 0.2701785 0.27771583 0.27771458 0.2777099 0.28681225 0.2868095 0.28680798
0.29744354 0.29744053 0.29743862 0.3096924 0.30969173 0.3096887 0.32402745 0.32402402
0.3240219 0.34068215 0.34068015 0.34067777 0.3594322 0.35942975 0.3594267 0.37706432
0.37706056 0.37705845 0.39298022 0.3929788 0.39297497 0.41157463 0.41157296 0.41156948
0.43293893 0.4329367 0.43293402 0.46897718 0.46897507 0.46897468 0.5462007 0.5461984
0.5461933 0.65863067 0.65863067 0.6586245 0.7208177 0.72081274 0.72080964 0.74603754
0.7460334 0.74602634 0.9861141 0.98608285 0.9860785 0.9971814 0.9971743 0.99716765
0.9994244 0.9994175 0.99941 0.99963313 0.99962777 0.9996221 0.9996517 0.9996453
0.9996399 0.99967486 0.999668 0.99966216 0.9996937 0.9996856 0.9996805 0.9997117
0.99970317 0.9996968 0.99972385 0.99971503 0.9997087 0.9997373 0.99972767 0.9997205
0.99977195 0.9997625 0.99975604 0.9998319 0.99982023 0.9998121 0.9998573 0.99984473
0.9998361 0.99989563 0.9998655 0.9998563 0.99994636 0.99991614 0.9998984 0.9999797
0.99994946 0.9999317 0.99998873 0.9999585 0.99994075 0.9999893 0.99995905 0.9999413
0.99998933 0.99995905 0.9999413 0.99998933 0.99995905 0.9999413 0.99998933 0.99995905
0.9999413 0.99998933 0.99995905 0.9999413 0.9999855 0.9999582 0.9999407 0.99998546
0.99995816 0.99994063 0.99998516 0.99995786 0.9999404 0.99998516 0.99995786 0.99994034
0.99998516 0.99995786 0.99994034 0.9999822 0.9999566 0.9999395 0.99997956 0.99995553
0.99993855 0.9999773 0.9999543 0.9999377 0.9999748 0.9999527 0.9999364 0.99997467
0.9999527 0.99993634 0.9999746 0.9999526 0.9999363 0.99997455 0.9999526 0.9999363
0.99997276 0.9999515 0.9999354 0.9999727 0.9999514 0.9999354 0.9940528 0.99404824
0.99404085 0.95342016 0.95340997 0.95340073 0.89657533 0.8965642 0.8965568 0.8679422

network_body._body_endoder.seq_layers.0.weight f4 [128, 271]
00000000: e939 ef3d a8a8 bc3c b82e 793d 359d 49be
00000010: 42f3 8a3d dbad 09be 4d94 693d 0bfa a4bd
00000020: 8ffa bcbd b13c 24bd a909 abbb 2a63 023d
00000030: 22ac 5abc bac3 b53c 8656 bb3d 4e5b a13d
00000040: 8db0 af3c 2424 053d d185 973d bf93 2abb
00000050: e4d5 40bd 77c1 923d 8a6f c83d b074 003d
00000060: 23db 0c3e d05c f33c 6645 203e c942 373d
00000070: 057d 5dbc 88cb 47bc 0668 c83d 6446 663d
00000080: 9c6b 423d 1281 913d 9505 e1bc 22d1 82bd
00000090: a482 97bd 51dc 99bd 21ba 8bbd d73a bbbc
000000a0: f431 b0bd 2c63 f8bd 7e31 b0bd cb63 9f3c
000000b0: 37a9 79bd 203f fa3b bba7 babd fca3 dbbd
000000c0: dbbe 883d 923d 38bd b2b8 163d 8d16 003e
000000d0: 9035 53bd 46f5 30bc d2b8 793d cd41 463d
000000e0: 60d9 133e 81af 15be c096 5fbd ba58 cdbb
000000f0: badb bfbd a24d edba 7d43 27be 5c32 453d
00000100: 19c1 833d c5f3 e43c 9771 c0bd cc52 08bc
00000110: 7a73 e7bd 4e47 24be f89a be3c fa88 0bbe
00000120: 4f68 0c3c 0a6f ef3d 114d 603d 5a4c 2e3c
00000130: 48e8 8d3d 4c76 583b 42da 343c 3872 693d
00000140: 3220 513d 0d7e 07be 9c06 0c3e 7d43 9d3c
00000150: 8ba1 8d3d b77e 82bd aebb 9ebc a545 08bd
00000160: c7e4 21bd f2d8 4fbb 1d40 fd3c bc14 0abd
00000170: 7b4e c13d b737 96bd 2eb7 573c bf90 fa3c
00000180: 4d8b 2bbd c669 5f3d 7c81 1e3d f482 08bd
00000190: 1474 89bc ae87 2c3d a166 79bb 84ee bb3c
000001a0: f9b0 94bd 09f7 b6bd 4220 c3bd 180c 7fbc
000001b0: e996 073d d1d4 01be cff0 5cbd dab5 1b3d
000001c0: f27a 663d d19a 533c 7450 85bd 5e88 b1bd
000001d0: 69e9 423d ee22 0f3d 8917 9cbd 31d6 833d
000001e0: 7066 993d fba7 abbc c555 efb9 96ac a33d
000001f0: 6c51 913c 4cd5 3d3d 77d2 143d 394f 1ebc
00000200: 1d8b 10bd cc3f b83d ffd6 413d b4e2 483d
00000210: 2fb9 b63c 6e89 80bd 4f7e 61bd e9ad d7bd
00000220: e198 d6bc d45f 95bd 2453 5a3d c017 2b3d
00000230: 7118 403e 43a3 373d ec72 e03d 3da2 863d
00000240: b003 de3b acc7 543d 865e b3bd 6729 ab3d
00000250: 99d2 6b3d 10ee 803d dac5 6cbb 3a59 ea3b
00000260: 934c bd3d 78fc 623b 7496 16bd 0ff6 c9bc
00000270: 7531 cebb 1dd3 9dbd 4b34 083e 3672 9ebc
00000280: 5737 113d 0ca6 543d db51 383d 2893 23bd
00000290: d537 c8bc bbfc d2bc 77ee bfbc 07e6 94bc
000002a0: 6a05 253d 8fed 3ebd bb0a 11be b02d 583d
000002b0: d9a1 bb3c aeb6 25bc f9df 6abc 385a 6e3c
000002c0: 18a5 543d 0acd 69bc 2e5b 12bc ea14 b83c
000002d0: 52cf 67bb 1590 dabc f8c9 47bc e7d2 f53c
000002e0: 72b0 433d 9552 b93a 4d26 3e3d f124 24be
000002f0: acff 4bbd 54e1 1d3d e2d7 3e3d b486 2f3d
00000300: fa43 23be 76f4 e8bd 474e 873d 86bc b13d
00000310: f533 1bbd 8f53 133e 8606 b9bc d192 a63d
00000320: d7ca 28bd bb47 b23c d5aa 81bd 002f d63c
00000330: bed9 43bd 0270 22bd 6cfa 9fbc 02f5 4f3d
00000340: dbff e1bc 65c1 0ebd 972b 89bd fa91 0bbe
00000350: 7d4d ae3d 4f23 ebbc 6201 1ebd 3883 0c3c
00000360: 8336 b93c ff06 c63c 512f b0bb 31f4 023d
00000370: 801a 3dbe a40c d23d 74ac 123d 60bc 0d3e
00000380: 8ed0 81bd 3067 bb3b 25ac a0bc 2e42 f8b9
00000390: 8083 083e 43ed f63d 19c1 a63d 58df d5bc
000003a0: 1a2e 32bd 2f85 0d3c b2d4 dc3c 75df 483d
000003b0: 1538 a23b d38a a83c a111 42bd 110f 15bd
000003c0: 17fe c93d 6ef5 c63d 0a5c f1bd 8394 eb3c
000003d0: 45b1 163e 5a93 4d3d 16b3 0cbc 8129 233d
000003e0: b2b9 353d fe2a 7e3c 4529 06be 9456 aaba
000003f0: a448 823d c54a dd3d 913e 5b3d b7d7 67bb
0.11680967 0.02302964 0.06083557 -0.19688876 0.06784679 -0.13445227 0.057026196 -0.080555044
-0.09227478 -0.040096942 -0.0052196574 0.03183285 -0.013346704 0.022188056 0.091473624 0.07878743
0.02144649 0.03250517 0.0739857 -0.0026028005 -0.047078982 0.07165807 0.097868994 0.031361282
0.13755469 0.029707342 0.15651473 0.044741426 -0.0135185765 -0.012194522 0.09785466 0.056219473
0.047465906 0.07104696 -0.027468482 -0.06387545 -0.073979646 -0.07512725 -0.06822611 -0.022855205
-0.08603278 -0.121282905 -0.0860319 0.019456765 -0.06095239 0.0076369196 -0.09114023 -0.10724637
0.06677028 -0.044980593 0.036797233 0.12508602 -0.051564753 -0.010800665 0.060967274 0.048402596
0.1443839 -0.1461773 -0.054587126 -0.0062666805 -0.093680814 -0.0018104801 -0.16334338 0.04814373
0.06433315 0.02794827 -0.093966655 -0.008320522 -0.11301322 -0.16042826 0.023267254 -0.13626471
0.008569791 0.11691101 0.054760996 0.010638321 0.0692907 0.0033029495 0.011038365 0.056993693
0.051056094 -0.13231678 0.13674396 0.01919722 0.069155775 -0.06371825 -0.019376602 -0.033269543
-0.03952482 -0.0031715003 0.03091436 -0.03371118 0.09438797 -0.073348455 0.013166232 0.030586598
-0.041880894 0.054544233 0.038697705 -0.03332801 -0.016778983 0.04212158 -0.0038055556 0.022940882
-0.07260317 -0.08933837 -0.09527637 -0.015566848 0.033102904 -0.1267884 -0.05394059 0.038015224
0.056269594 0.012915329 -0.06509486 -0.08668588 0.04758588 0.03494542 -0.076216765 0.06437338
0.074902415 -0.020954123 -0.00045649536 0.079919025 0.01773902 0.046345994 0.036333527 -0.009662443
-0.03528892 0.08996543 0.047324177 0.049044326 0.0223051 -0.06276213 -0.055052098 -0.105312176
-0.026195945 -0.072936684 0.053301945 0.041770697 0.18759324 0.044833433 0.109594196 0.06573913
0.006775342 0.051948234 -0.08758263 0.08357506 0.05757389 0.06295407 -0.003612867 0.00715175
0.09243121 0.0034635346 -0.036764577 -0.024653463 -0.006292517 -0.07706282 0.13301198 -0.01934157
0.035453167 0.051916167 0.04499994 -0.03993526 -0.024440685 -0.025755277 -0.023429139 -0.018176092
0.040288366 -0.046613272 -0.1416425 0.052777946 0.022904323 -0.010114355 -0.014335626 0.014547877
0.05191526 -0.0142700765 -0.008932872 0.02247091 -0.0035371375 -0.026680032 -0.012194149 0.030007793
0.047775693 0.0014138991 0.046423245 -0.16029717 -0.049804375 0.038544968 0.0465926 0.042853072
-0.159439 -0.11374752 0.06606727 0.08678536 -0.037891347 0.14387344 -0.022586118 0.08133472
-0.04120907 0.02176272 -0.06331412 0.026145458 -0.047815077 -0.0396576 -0.01952859 0.050770767
-0.027587822 -0.034852404 -0.06697767 -0.13629904 0.085108735 -0.02870336 -0.038575538 0.008576207
0.022609001 0.024173258 -0.0053767343 0.03197116 -0.1846714 0.10256317 0.035808995 0.1384139
-0.06338607 0.005719088 -0.019613335 -0.00047351554 0.13331413 0.12056973 0.08142299 -0.026107475
-0.043500997 0.0086377105 0.02695689 0.04904123 0.004950533 0.020574009 -0.047380093 -0.03639132
0.09862917 0.09714781 -0.11785133 0.02875734 0.1471606 0.050189354 -0.008587619 0.039834503
0.044366546 0.01551318 -0.1310168 -0.0012995773 0.06361511 0.10805277 0.053526465 -0.0035376379

network_body._body_endoder.seq_layers.0.bias f4 [128]
00000000: f53a 4a3c 2509 a53c a2bc 703d 2098 2ebc
00000010: acd7 54bd e8d6 fd3a e1ea fabc 0a63 263d
00000020: 9af3 65bc 7a01 76bd 8971 54bb 867d 033d
00000030: ae05 263d 4bdd ba3c acd5 1d3d c7ea f2ba
00000040: b0d5 bd3c 2d8e 413d 58fb ad3c a521 f93b
00000050: a6bf af3c a32f 863c 3810 8bbc 66a4 2b3d
00000060: 0931 38bb 76ed 85bd fbc7 b83d d83b b63c
00000070: 10bc 433d f57b 393d 2e6e 5dbd ae28 39bc
00000080: 55b1 383d 9b58 d8bc 218a 11bc b8cf 52bb
00000090: 0851 db3c c96a 8e3c c6f5 1e3c 331d 8d3b
000000a0: 06ea af3b 44f9 d83c 7d5a 203d 2768 d03c
000000b0: fa09 6bbd 0928 753d ec45 193d 37d3 043d
000000c0: e81e 243d 0dbc de3c 8395 f33c 98e3 ef3c
000000d0: e4e4 383d 20d4 973c 3d1a 123d 98cb 043d
000000e0: f936 283c 5a90 973d f623 85bc 8016 bdbc
000000f0: 39aa e13c 54aa 963c 021d 373d 153b ea3c
00000100: 4608 3abc 6707 373d 279e d8bc b37a 5a3c
00000110: 9073 173d 7baa b43d 0e07 f6bc db9a b8bb
00000120: 71db 3d3c 25e9 0c3c fa6e 29bd c3f7 2b3c
00000130: a877 b73b 677a 04bc 24e4 373d baa6 be3a
00000140: 699e 78bc dbfa 3c3c adee 4fbc 8784 443d
00000150: bd02 4f3d 8cc3 993d 11b7 acbb 7f45 bd3d
00000160: 6c80 dc3a 495b 993d f8af 7e3a e0bc 273d
00000170: f946 a73c 0ad1 5ebd b80a af3c ed99 9e3d
00000180: dc8b 453b 838b 10bd 9d87 93bb bd49 12bd
00000190: 8323 4f3c 3c5c 593d 4e91 213d bedc 273d
000001a0: e469 e73b b162 ec3c db0f 233c 8309 133d
000001b0: 8584 3a3d de7c e03c 9639 7f3d 6440 283d
000001c0: 3c1d 21bd 5ce1 e53b 840d 38bd 71a5 a8bc
000001d0: 96b9 1dbc 6b88 a43c ae10 173d 9307 e03c
000001e0: 3c66 923c 0176 3d3d 8347 7dbd 9a43 53bc
000001f0: 5906 203d a054 773d 8239 e83a 50e6 ab3d
0.012343158 0.020145962 0.058773644 -0.010656387 -0.051963493 0.0019366415 -0.030629577 0.040621795
-0.01403513 -0.060060002 -0.0032416305 0.03210213 0.04053276 0.022810599 0.03853385 -0.0018533104
0.023173183 0.04725473 0.021238014 0.0076028877 0.02145369 0.016380137 -0.016975507 0.04190483
-0.00281054 -0.06539433 0.09022518 0.022245333 0.047786772 0.04528423 -0.054060154 -0.011301203
0.045090992 -0.026409438 -0.00888303 -0.0032167267 0.026772037 0.017384904 0.009702152 0.0043064593
0.005368474 0.026486047 0.039148796 0.025440289 -0.05738256 0.059852634 0.0374202 0.032427993
0.040068537 0.027189279 0.029734379 0.02928333 0.045140162 0.018533766 0.035669554 0.032420725
0.010267013 0.0740058 -0.0162525 -0.023082018 0.027546989 0.018391766 0.0447054 0.028592626
-0.011354512 0.044684794 -0.0264426 0.013334918 0.036975443 0.08821579 -0.03003266 -0.0056336946
0.011587963 0.008600508 -0.0413656 0.010496083 0.005598981 -0.008085824 0.044895306 0.0014545538
-0.015174487 0.011534418 -0.012691182 0.04797795 0.05053972 0.07508001 -0.0052708467 0.09241771
0.0016822941 0.074881144 0.00097155524 0.04095161 0.020419585 -0.054398574 0.021367416 0.07744203
0.0030143177 -0.0352893 -0.0045022503 -0.035714854 0.012642744 0.053066477 0.039445214 0.040982
0.0070621837 0.028855653 0.009952511 0.035897743 0.045536537 0.027403291 0.062310778 0.041077033
-0.03933452 0.0070153903 -0.044934765 -0.020586701 -0.009626767 0.02008458 0.03688114 0.027347362
0.017871015 0.046255115 -0.061835777 -0.012894535 0.039068554 0.06038344 0.0017717334 0.08393538

network_body._body_endoder.seq_layers.2.weight f4 [128, 128]
00000000: 1bc6 95bd f119 05be 3749 153e 6038 54bd
00000010: 2465 8a3c 7da9 9cbd cb67 1dbd a9e5 adbd
00000020: d9b2 033e 02e1 113c 8bab 013e 9405 98bc
00000030: 68f1 703e 21de 8d3d 5cbe ab3d 62d0 d0bc
00000040: 80da b43d 8600 1ebd 3116 053e 0806 a5bd
00000050: db70 f63d 208f 96bd 4411 f93c 8ec7 a6bd
00000060: dbeb 6a3d 4d6e a53d 490b d23c d01c bf3d
00000070: 9b07 b9bc d209 d23d 6786 aabd 99d2 873d
00000080: 67c0 58bc 4cc4 17bd e75b 52bd 392e 9dbd
00000090: b2d4 83bd 3423 65bd 04b4 a2bd 8ef6 653e
000000a0: 55ed 963d ac58 a9bb 5156 7cbe 0c3f 55bd
000000b0: 977e 723d 87b2 903d 175f ce3d d995 853d
000000c0: c43b 633e 8ab9 4abd 42ce cf3d 0e0a b93d
000000d0: 37a2 c93c 1168 66bd b3d0 c23d 7c20 f33d
000000e0: a210 8e3d 744d 3abc 11b3 3ebc 4d7c 36bd
000000f0: 272e 54be 33e7 bc3d 7f3e 4cbb 230a 1c3d
00000100: d88e e2bb 2e37 9c3c cd8b 26be 56f7 853b
00000110: a8ef 123e e49f 46bc a9c4 043e 2b76 21be
00000120: a67f b0bd a27f ff3d 840a e6bd 946f 18bd
00000130: 24c6 623c aedc 4fbc 6706 fc3d 5b6c 75bd
00000140: 8ac8 ccbd 51e6 e53c b5b1 abbd 8c5f 973d
00000150: 7326 c13d 6299 b7bd 4d8c cf3d 3a97 003e
00000160: c0ba a4bd 3018 043d 42ae a7bd e463 1d3e
00000170: 43a0 cebd 43e2 533e 3797 3abb ca98 a93c
00000180: 1f91 873d f0bb f83d 7a4a 94bc 0dac 763d
00000190: 50ae 303d 1ab5 fe3d 73be 7fbd 7d9a 563d
000001a0: 5745 6bbd ff2e da3c dece 023e 1d07 4e3d
000001b0: acf7 c73d 5b9c 843d 5655 b6bd fc48 babc
000001c0: 8cd6 21bd abd4 57be 3eaf 8a3b a829 3b3b
000001d0: 7f27 ebbd fe90 e13d 6953 b2bd ec64 193e
000001e0: 27b6 213c f9eb 9f3d 0a40 143e ad8d 783d
000001f0: 698e 9bbd afaa 7d3d 5fff c5bc 1399 4a3d
00000200: 7d5b 8bbe 757a 323d d70c 15bd 2494 05bd
00000210: c7e8 08bb a0f7 c8bb 6174 363d 5ea5 93bc
00000220: a29b cdbc 3222 343c fa62 cfbc 4be2 d33d
00000230: a8b7 f83d 81c2 10b9 813e 51be 7816 8ebc
00000240: ff31 85bc 1b61 35be 062f 573d a365 80bd
00000250: 3331 b03d 0fca a53d 2305 c93d 3d58 db3d
00000260: 5394 2abd 471a a5bd 8ec5 e4bd af68 7bbe
00000270: 7535 123e 1a8a dfbd c4da 34be 3469 18bd
00000280: c131 3f3c 2a8a ffbd 6877 b33d 5318 37be
00000290: 5f95 a9bd 15d7 5dbd 100b 31be a042 733c
000002a0: b8ea 2e3d 85f3 223c b0e8 debb 9d23 003e
000002b0: 159e 903c 6ee5 05bc 8ba7 f3bb b47b 963b
000002c0: f197 f33d a6fb 523d 5c74 4d3e 03c9 d73c
000002d0: 4f44 e53d 33a3 f13d 92df 95bd 5640 333d
000002e0: 1e01 09bd becb dabd 6456 96bd bbeb 9e3d
000002f0: a13d 933d 36d7 523e 950e 0bbd ae9d 8ebd
00000300: e16b 95be 7744 c53d 4845 703d a7c9 81be
00000310: 8d59 47bd 05d7 933d 4d44 973d 8296 2b3e
00000320: 6072 8abd 0054 bb3d 0f7b 913d 1132 8abc
00000330: 7472 5b3d fbe4 40bd de74 013d 0811 e53b
00000340: b06b 123c 8cb4 273d e103 13be 64f5 39bc
00000350: ae06 663e e613 6a3c fc03 fe3d 6cb4 b3bd
00000360: 52c3 24be cd99 503d 8412 0e38 af7d b03d
00000370: a788 203e ef7f 6f3d 65ab 40bd 96d9 51be
00000380: 947e 54bc 121f 02bd d2ff 323e 2c73 6dbd
00000390: 6a67 20be caa0 32be 47f6 ebbd b24d 55bd
000003a0: 7eb8 5f3e 2ed7 5cbd 2a29 d0bb b206 05be
000003b0: de43 743d c8a5 37bd 8d6a 633e 4c1b df3c
000003c0: e9af ebbd 5bed c9bb 5b90 9f3d 43ae 02be
000003d0: aeb7 513c 09ab 7c3e 1214 433c 8901 62bd
000003e0: 9d78 2ebb 0eaf 13be 7668 32be 503d e8bd
000003f0: 0dcc c23d b9bb a13d cc56 e3bb 31c3 863d
-0.07313176 -0.12998177 0.1457871 -0.051811576 0.01689393 -0.07649515 -0.038429063 -0.0849107
0.12861194 0.008903744 0.12663095 -0.018557347 0.23529589 0.06927133 0.083859175 -0.02548999
0.08830738 -0.038574718 0.12996747 -0.08057791 0.12033244 -0.07351518 0.03040374 -0.08143531
0.057353836 0.08077679 0.025640147 0.093316674 -0.022586634 0.10255779 -0.083264165 0.06631965
-0.013229466 -0.037052438 -0.051357176 -0.07674832 -0.06437053 -0.055941775 -0.079444915 0.22457334
0.07369486 -0.005168041 -0.24642302 -0.05206208 0.059202757 0.070653014 0.10076731 0.06522722
0.22190768 -0.04949335 0.101467624 0.09035121 0.024613483 -0.05625159 0.095124625 0.1187143
0.06936766 -0.011371005 -0.011639372 -0.044552136 -0.2072073 0.09223785 -0.003116518 0.038095605
-0.006914001 0.01906928 -0.16264267 0.0040883226 0.14349234 -0.012123082 0.12965645 -0.15767734
-0.08618097 0.12475516 -0.112324744 -0.037215784 0.013841186 -0.0126868915 0.12305909 -0.05991779
-0.09999187 0.028063925 -0.08383504 0.07391271 0.09431162 -0.08964802 0.10134182 0.12557688
-0.08043432 0.03224963 -0.08187534 0.15370136 -0.10089161 0.20691781 -0.0028471479 0.020702738
0.066194765 0.12145221 -0.01810192 0.060222674 0.043134987 0.12436886 -0.062437486 0.052393425
-0.057439175 0.026633738 0.12774226 0.050299753 0.097640365 0.06475135 -0.08902995 -0.02273988
-0.03951125 -0.2107722 0.0042323163 0.0028558765 -0.11482143 0.11013983 -0.087073155 0.14979905
0.009870089 0.0780868 0.14477554 0.060681988 -0.07595522 0.061930355 -0.024169622 0.04946239
-0.27218238 0.043573815 -0.0363892 -0.03261198 -0.00208907 -0.006133035 0.04454458 -0.01802319
-0.025098626 0.010994481 -0.02531575 0.10345896 0.12144405 -0.00013805369 -0.20434 -0.017344698
-0.016259192 -0.17712824 0.05253508 -0.06269386 0.08603134 0.0809518 0.09815433 0.107101895
-0.04164536 -0.08061653 -0.11170493 -0.24551652 0.14278205 -0.10915013 -0.17661577 -0.037209705
0.011669577 -0.124775246 0.08763009 -0.17880373 -0.082804434 -0.054160196 -0.17289376 0.014847428
0.042704314 0.009945755 -0.006802641 0.12513585 0.017653504 -0.008172376 -0.007435744 0.0045923833
0.11894215 0.051509522 0.20063919 0.026340967 0.111946695 0.11798706 -0.07318033 0.043762527
-0.03344833 -0.10683392 -0.073406965 0.07759806 0.07189489 0.20589909 -0.033949453 -0.06963669
-0.29183868 0.09632199 0.05865982 -0.2534916 -0.048669387 0.07218746 0.07386074 0.16756633
-0.067600965 0.09146881 0.0710355 -0.016869577 0.053575948 -0.047093373 0.031605594 0.0069905557
0.0089368075 0.040943667 -0.14356948 -0.01135001 0.22463486 0.014286971 0.12403104 -0.08774647
-0.16090134 0.050927926 3.3872682e-05 0.08617722 0.15677129 0.058471616 -0.047038455 -0.20493159
-0.012969632 -0.031767912 0.174804 -0.057971165 -0.1566445 -0.17444149 -0.11521583 -0.05207605
0.21847722 -0.05391615 -0.0063525634 -0.12990835 0.059635036 -0.044835836 0.22208615 0.027234696
-0.115081616 -0.006162328 0.077912055 -0.12761788 0.01280014 0.2467462 0.011906641 -0.055177245
-0.0026622184 -0.14422247 -0.17422661 -0.113398194 0.09511576 0.078971334 -0.006937837 0.065801986

network_body._body_endoder.seq_layers.2.bias f4 [128]
00000000: 0ba0 8fbb 38c1 7f3d 1cb8 9cbc f3b4 a0bc
00000010: 25ff f73c 1f67 d93c 244b dd39 6f65 d13c
00000020: 2722 573c 8716 08bd a1eb 73bb babb c83c
00000030: acec db3b 11d1 d9bb c6ff be3c 452f 06bd
00000040: 2ce5 483c 7736 c73c 0114 5e3c e7d9 3d3d
00000050: 9267 973b 40b7 533d 5253 5f3b 8456 ca3c
00000060: a4e2 f33c 6356 713c 4250 023b 2d30 fb3c
00000070: 4a05 053c 935a 093c f2ed f6bb 77ae 2d3d
00000080: 4a0f a5bc 2b6d f03c 3f4e 463d bb19 b73c
00000090: fbce 4cbb 285a 1ebc bb37 0a3b 5af6 843c
000000a0: 63d1 a5bb f975 893c d3f6 46bc 8b21 df3c
000000b0: 9ec3 6f3d 479a 6c3c de76 54bb 8165 433c
000000c0: f31a ba3b c1af 0d3a d8ea a63c 846f 563c
000000d0: 22ea 443c 6907 a43c 9fb0 a83c 214d 203d
000000e0: 5dcc 823d 60b5 943c 66a3 75bc 95e6 33bb
000000f0: fde9 ecbb 4a1e b23b 834a dd3c d5fd cc3b
00000100: cf70 3b3d 0d84 093d bf40 843a 1900 5e3d
00000110: 91cf 033d f4b6 06bd 503d 313c 3cb6 1a3d
00000120: 011c 91bb a0d6 af3c 406b c03b db71 4ebc
00000130: 2c7f e83c 59fa 643c 195c 893d 5ce1 5c3c
00000140: 52bb 04bc b872 b2bc 5545 ac3c ab2f 013d
00000150: 3b3d ca3c f62c b1bc a614 79ba 789c 693c
00000160: bc28 273d 88c4 0bbc dd23 6e3c e68d 0a3d
00000170: 62cb 353c 2d1a 163d 96c6 90bc 046f 733c
00000180: bfa1 5e3c 4b79 f93b 31cc 993a 19d1 053c
00000190: e98c 2ebd a008 df3d a10b 3fbc 966f edbb
000001a0: 84ef 043c 8301 363d 9a24 4f3d 6b1e fc3c
000001b0: c57d 78bc 23a6 603b 1db0 f43b b15d 653d
000001c0: 0a36 e33c e88e 023d 153e 1c3d 3d6d 46bc
000001d0: 1d41 cf3c 64c3 76ba d125 443d 3443 ca3c
000001e0: 14f6 33bc 7f50 2ebb 92b9 483c 39cd 91bc
000001f0: ee67 8e3d 2bf2 d9bb c4cf aabb 9267 51bb
-0.0043830923 0.062440127 -0.019130759 -0.019617533 0.03027303 0.02653843 0.0004220839 0.025561063
0.013130701 -0.03322461 -0.0037219303 0.024503578 0.006711563 -0.006647237 0.023315322 -0.032759923
0.01226167 0.024317963 0.013554574 0.046350386 0.004620501 0.051688433 0.0034076762 0.024699457
0.029771157 0.014730069 0.0019884263 0.03066262 0.008118937 0.008383411 -0.0075356895 0.04240271
-0.020148892 0.02934893 0.048414465 0.022351136 -0.00312513 -0.00966505 0.0021090347 0.01623075
-0.005060361 0.016779887 -0.012143808 0.027237674 0.058536164 0.014441079 -0.0032419483 0.011926056
0.005679482 0.00054049125 0.020375654 0.013088111 0.012018712 0.020023065 0.020592032 0.039136056
0.063866355 0.018152893 -0.0149925705 -0.002745067 -0.007230042 0.0054357396 0.027013069 0.006255845
0.04576188 0.0335732 0.0010090097 0.054199312 0.032180373 -0.03288932 0.010817841 0.03777145
-0.004428387 0.021464646 0.00587216 -0.012600387 0.028380953 0.013975703 0.06707019 0.013481464
-0.008101301 -0.021783218 0.021029154 0.0315396 0.0246874 -0.021627884 -0.0009501673 0.014258496
0.04081033 -0.008530743 0.014534918 0.03382673 0.0110958535 0.036646057 -0.017672818 0.014858011
0.013588368 0.007613336 0.0011733827 0.008167529 -0.04261485 0.10890317 -0.011660487 -0.007245968
0.008113746 0.044435035 0.050572015 0.030776223 -0.015166705 0.0034278713 0.0074672834 0.055997554
0.027735729 0.031874567 0.038145144 -0.012111005 0.025299603 -0.0009413271 0.047887627 0.024690248
-0.010983963 -0.0026598272 0.012251275 -0.017798053 0.06953417 -0.006651183 -0.005212756 -0.0031952602

action_model._continuous_distribution.log_sigma f4 [1, 2]
00000000: 3014 f2be acc1 2fbf
-0.47281027 -0.68654895

action_model._continuous_distribution.mu.weight f4 [2, 128]
00000000: 23e2 9bbc 2aca ed3d c5bf 4b3d 9059 753d
00000010: 4e53 823c a6b4 d93a 03f3 9f3d 5dd2 b7bc
00000020: 3fc3 af3b 84e4 6a3d dfc1 5b3c af3b c5bc
00000030: 812d 66bd 8031 843a d1cd 743c bbfd 843c
00000040: 2a0f f13d cf42 f3bc 564f 773b 7cde 2ebd
00000050: 8ae1 163d c6e8 983b 1f6f 8c3d b262 643d
00000060: 9125 85bd ae16 443d 1226 6a3c 5abc 063e
00000070: 66e0 87bd 727d 81bc 58e3 0fbd 685a d33d
00000080: 7e61 4e3d 6bc4 4d3d c5c9 c4bc fcba f1bc
00000090: 5367 123c f3b3 a7bc a44e c83d f1f1 063d
000000a0: 87cb 023c 6446 debb fbd9 1fbb cad9 f0bc
000000b0: ade7 0bbd a094 6d3d 537f 17bd 0143 b03d
000000c0: 3b5a 0a3e aff9 bd3d 6637 e3bc de4c 91bd
000000d0: 1b05 b13c db80 503d 8c1e 72bc 4183 023d
000000e0: c1a3 d73d 6dad 6a3d 517d db3c 19c8 d63c
000000f0: b8c8 8ebb 660e d2bc fd24 473c adfc 823c
00000100: dcf5 06bd a98c a6bc 53f9 a53c 721d 35bd
00000110: 6eb6 a23d d036 11bc 25de 1abc de0f 1abc
00000120: 2c53 d63d ad4a 033e 9666 e73b 0ba0 143e
00000130: e60c 9dbd 6373 e73d d15f 133e d5a1 26bd
00000140: 5cdb aa3d 3308 1c3d dde5 a73c 768b b7bd
00000150: 688a e33c 5c8e de3d ef8e dc3c 8baa eb3d
00000160: 411b 22bd a07c 513d c81e 7fbd 7c67 2d3d
00000170: 350a 97bd 1d07 cfbc d5d6 f53d 310d e6bb
00000180: 639f 42bb a441 81bc f0c4 acbc e5f5 8e3d
00000190: 4aa7 b93d 8158 9abd b05b a03c e066 0f3c
000001a0: 738a 273d 988c fd3c 8dc6 9a3d 6d93 19bc
000001b0: e0a4 e03d 6e66 3fbd 7f36 123d 2208 343c
000001c0: 9066 ca3d 66fb 873c 52e4 983d b697 bfba
000001d0: a2a0 4abd 285c d53d 992c 6cbd 16c1 ba3d
000001e0: a643 483d d58c 043d 0ed5 d3bc 265a d33d
000001f0: e988 7bbd 060d c73d a9d5 b83c 6fc8 203d
00000200: 8865 0d3d 809c 273d a352 873b 55e1 e03c
00000210: dfff 7a3d f51c 7e3d d341 23bd 3558 293c
00000220: bec6 8a3c e4c7 5d3c 1851 e13b b392 91bd
00000230: 0745 8dbd e431 62bd b7a2 193d be6e bfbc
00000240: 2f15 143c 2769 00be 829e 7a3d 7a0a fe3b
00000250: 430b c8bd 67bf 333d ab81 08bc 5520 2e3d
00000260: 69e2 01bc eed9 8dbd ca07 6dbb 508a 1e3c
00000270: d284 a9bd 1d60 d13c 3ca1 97bc c3be a43c
00000280: 96fe c13b a444 7f3d 52c4 02be 9e56 923a
00000290: 2155 683c ea5e c73c 1486 073b 20ec fd3c
000002a0: 686b a73b 8590 813c 4758 353d bb3b 1d3d
000002b0: 1c49 9bbd a906 8abd 1395 8a3c 99d6 33bd
000002c0: 5d04 b2bb 4716 c8bc da7e 8c3c 54a2 85bc
000002d0: 979c 3c3c a288 993d 166e 583d 649a 713d
000002e0: e333 9dbc 8596 1f3d d3f6 abbc 95d8 423d
000002f0: 6ea1 83bb 36e3 443c 08df 853d 0ec0 5a3d
00000300: 45eb e4b8 d4b5 eabb 9d89 bbbd 78a7 80bc
00000310: 3386 543d 5058 0dbd 8ddf 6d3c 3c2a b73d
00000320: fbf7 813c 2148 10bd cff8 833c 09f5 b5bd
00000330: b877 59bd c407 1ebd 0e61 083d c447 d3bc
00000340: 685f 2bbc adff 0a3c a86d 523d afd4 92bd
00000350: ad71 bcbd 828b bcbc 459f f63c f4f2 7ebc
00000360: a6e6 ad3c d7b6 473c 6018 f0bd 15cf 473d
00000370: 6f48 08bd a09b cf3c 7d70 12bc 2efe 73bd
00000380: df1b 5dbb edb4 c53c 9849 af3c 08c9 50bd
00000390: c66b bbbc aab0 90bc d7a0 45bd e83c 6a3c
000003a0: 93c6 6cbd 307a 473d 1a11 7c3d c3f8 523d
000003b0: 3880 0d3c 9ee8 19bd 4ba8 833c a675 7b3d
000003c0: dd5e 2dbe 08f1 5b3d 9c9e d7bc 90fe 8abd
000003d0: 532f 803d 21aa 993c 1154 f8bc 4bee cabd
000003e0: bebe e1bc b9f2 2cbd 38bd 223c ea94 21bd
000003f0: 751f 993b c292 18bd 7eed 143d 398b 51bd
-0.019028729 0.11610825 0.049743433 0.059899867 0.015908863 0.0016609624 0.07810023 -0.022439176
0.0053638513 0.057346836 0.013412922 -0.02407631 -0.05619574 0.0010085553 0.014941649 0.01623427
0.117704704 -0.029694943 0.0037736497 -0.042692646 0.036836185 0.0046664206 0.06857132 0.055758186
-0.06501306 0.04787319 0.014291303 0.13157788 -0.066345975 -0.015806887 -0.03512892 0.10319978
0.050385945 0.050236147 -0.024021992 -0.029508106 0.008935767 -0.020471549 0.097806245 0.032945577
0.007983095 -0.0067832936 -0.00243914 -0.029400725 -0.03415649 0.058003068 -0.03698666 0.0860653
0.13510983 0.09276139 -0.027736377 -0.070947394 0.02160888 0.050904136 -0.014777791 0.031863455
0.105292805 0.057294298 0.026793154 0.02621846 -0.0043574236 -0.025641631 0.012154815 0.015989626
-0.032949314 -0.020330744 0.020260489 -0.044217534 0.07944952 -0.008863166 -0.009452377 -0.009403197
0.104650825 0.12821455 0.0070617897 0.14514177 -0.07668476 0.11301305 0.1439202 -0.04068168
0.08342621 0.038093757 0.02049535 -0.08962147 0.027775958 0.10866997 0.026923625 0.11507138
-0.039576773 0.051144242 -0.062285215 0.04233502 -0.07374994 -0.025271947 0.120038666 -0.0070206155
-0.0029697053 -0.01577837 -0.02109 0.069804944 0.09065111 -0.07536412 0.01957497 0.008752555
0.04090352 0.03095083 0.07557402 -0.009373528 0.109689474 -0.046728544 0.035696503 0.010988267
0.098828435 0.016599368 0.07465424 -0.0014617357 -0.049469598 0.10417968 -0.05765972 0.091188595
0.04889264 0.03236087 -0.025858428 0.10319929 -0.061409865 0.09719281 0.022562819 0.03925365
0.034520656 0.040920734 0.004129724 0.027451197 0.061279174 0.062039334 -0.039857697 0.010335972
0.01694047 0.013536427 0.006876122 -0.07108059 -0.068979315 -0.05522336 0.037508693 -0.023368236
0.009038254 -0.12540112 0.06118632 0.0077527137 -0.09767773 0.043883707 -0.0083316965 0.042511303
-0.007927516 -0.069263324 -0.0036167973 0.009676531 -0.082772866 0.025558526 -0.0185095 0.020110494
0.0059202416 0.06232132 -0.12770203 0.001116473 0.014180453 0.02433725 0.0020679282 0.030996382
0.0051092394 0.015815983 0.04427364 0.03838704 -0.07582304 -0.067395516 0.016916787 -0.04390583
-0.005432649 -0.024424685 0.017150331 -0.016312756 0.011511943 0.07496764 0.05283936 0.05898513
-0.01918978 0.038961906 -0.020991718 0.04756983 -0.0040170467 0.012017062 0.065366805 0.053405814
-0.000109157096 -0.007162789 -0.09157107 -0.015704855 0.051885795 -0.03450805 0.014518631 0.089436024
0.015865317 -0.035225037 0.016109852 -0.08884627 -0.05309269 -0.038581625 0.033295684 -0.025791056
-0.010459758 0.008483809 0.051374108 -0.071694724 -0.092013694 -0.023015741 0.030105243 -0.015560854
0.021228146 0.0121895885 -0.11723399 0.048781473 -0.033272203 0.025342762 -0.008937952 -0.059568577
-0.0033738536 0.024134124 0.021397397 -0.05097297 -0.022878539 -0.017662365 -0.048249092 0.014296748
-0.057806563 0.04870051 0.061539747 0.05150677 0.008636527 -0.037575357 0.01607146 0.061391495
-0.16930719 0.053696662 -0.026320748 -0.06786835 0.062590264 0.018757882 -0.030313523 -0.09908732
-0.027556773 -0.042223666 0.009932809 -0.039448656 0.0046729394 -0.037249334 0.036359303 -0.051158164

action_model._continuous_distribution.mu.bias f4 [2]
00000000: 0ea4 15bd 6f46 0f39
-0.036533408 0.00013663781

onnx::Div_51 f4 [271]
00000000: 72b0 ec3d 32bf ec3d 95d2 ec3d d91c 233e
00000010: 9b21 233e f126 233e 91a1 573e 09a4 573e
00000020: dea6 573e 06d4 803e d0d4 803e a3d5 803e
00000030: 835f 8e3e fa5f 8e3e 9560 8e3e 9308 923e
00000040: fa08 923e 7809 923e 7ffc 8d3e f7fc 8d3e
00000050: 5efd 8d3e 236b 7d3e de6b 7d3e 936c 7d3e
00000060: 50b4 693e 09b5 693e a5b5 693e 6f25 553e
00000070: 0a26 553e cc26 553e 2e31 3a3e e031 3a3e
00000080: 8732 3a3e 5e9e 223e 079f 223e 8f9f 223e
00000090: d8da 123e 50db 123e f4db 123e 971e 0a3e
000000a0: 221f 0a3e ab1f 0a3e 0da9 033e 88a9 033e
000000b0: 04aa 033e 337e f93d 077f f93d 1880 f93d
000000c0: 7ad0 eb3d 64d1 eb3d 3cd2 eb3d a229 e13d
000000d0: 942a e13d 952b e13d b6af d83d 89b0 d83d
000000e0: 59b1 d83d 4cc9 d13d 16ca d13d 0bcb d13d
000000f0: 0193 cc3d dd93 cc3d b594 cc3d f059 c93d
00000100: d45a c93d cf5b c93d 661d c73d 4e1e c73d
00000110: 561f c73d 496c c73d 3b6d c73d 496e c73d
00000120: 461a c93d 461b c93d 461c c93d b427 c73d
00000130: bb28 c73d d529 c73d a8e9 c63d a5ea c63d
00000140: dceb c63d 34df c73d 49e0 c73d 4ee1 c73d
00000150: af94 ca3d d695 ca3d 1a97 ca3d 365f cf3d
00000160: 7560 cf3d d861 cf3d b722 d63d e423 d63d
00000170: 7425 d63d 5114 df3d ba15 df3d 0f17 df3d
00000180: cea9 ea3d 3aab ea3d 64ac ea3d f85c f93d
00000190: 765e f93d 0760 f93d 0fdb 053e cfdb 053e
000001a0: a6dc 053e e558 113e c459 113e b85a 113e
000001b0: dbc1 1e3e b8c2 1e3e c5c3 1e3e cab8 273e
000001c0: 8fb9 273e 74ba 273e 52f3 293e 33f4 293e
000001d0: 12f5 293e 3a6d 2e3e 266e 2e3e 136f 2e3e
000001e0: df7a 303e ed7b 303e e97c 303e 83aa 3f3e
000001f0: caab 3f3e 8ead 3f3e d703 733e d904 733e
00000200: 0206 733e f660 9b3e 6161 9b3e de61 9b3e
00000210: af65 a93e 2c66 a93e ac66 a93e 03c2 aa3e
00000220: 92c2 aa3e 36c3 aa3e 9620 aa3d 3b39 aa3d
00000230: ba55 aa3d 00a8 023d 4b14 033d b17b 033d
00000240: 9dbf 903c a254 923c dce5 933c fd13 7a3c
00000250: 4cbb 7d3c 30aa 803c 349a 733c 6e59 773c
00000260: b40a 7b3c 754e 693c 5437 6d3c 3c10 713c
00000270: 1311 5f3c 0d27 633c 062b 673c 8033 533c
00000280: 3383 573c 74bd 5b3c 469f 4a3c ea1c 4f3c
00000290: 3e82 533c 55f0 413c 389f 463c c22d 4b3c
000002a0: 4c74 273c 73dc 2c3c 5b1b 323c 039f f83b
000002b0: 1a88 033c b259 0a3c 11c6 cd3b 9ef1 de3b
000002c0: 93e2 ee3b 1c53 a33b 3c8a b83b db82 cb3b
000002d0: 45e0 643b 7508 8f3b 03cf a63b ae34 f93a
000002e0: 1314 543b 2b68 883b 8a55 8a3a a906 393b
000002f0: 3f5b 7c3b 4d74 6f3a d9c0 353b 89f7 793b
00000300: 302e 6f3a 14bb 353b 57f3 793b fad5 6e3a
00000310: d4b3 353b 11ee 793b cb64 6e3a 89aa 353b
00000320: 50e7 793b ecca 6d3a ef9d 353b 26de 793b
00000330: 327e 6e3a 9dac 353b d5e8 793b d132 703a
00000340: 8cd0 353b f302 7a3b f69c 883a bfb4 383b
00000350: 3f1f 7c3b 4df1 893a f7f3 383b 914d 7c3b
00000360: f183 8a3a 860f 393b c461 7c3b 63dd 983a
00000370: 23dd 3b3b c871 7e3b eb39 a43a c23e 3e3b
00000380: a21a 803b 2e3a b13a a723 413b a02e 813b
00000390: 351c cf3a 096f 483b 42ee 833b 7075 d03a
000003a0: 6ac8 483b 3610 843b 367f d13a 820d 493b
000003b0: 802a 843b 1b55 d23a 5045 493b b63f 843b
000003c0: 58a3 dc3a ac02 4c3b 4f4b 853b 724b dd3a
000003d0: 2930 4c3b b75c 853b 7583 7f3d a5bc 7f3d
000003e0: 0cf4 7f3d f651 333e 9256 333e 8b5b 333e
000003f0: 272a 823e 772b 823e d82c 823e 9dee 8f3e
0.11557092 0.11559905 0.11563603 0.15928973 0.15930788 0.15932824 0.21057726 0.21058668
0.21059749 0.2516176 0.25162363 0.25162992 0.27807245 0.278076 0.2780806 0.28522167
0.28522474 0.2852285 0.27731702 0.2773206 0.27732366 0.247479 0.2474818 0.24748449
0.2282269 0.22822966 0.22823198 0.20815061 0.20815292 0.20815581 0.18182823 0.18183088
0.18183337 0.15880725 0.15880977 0.1588118 0.14341295 0.14341474 0.14341718 0.13488232
0.13488439 0.13488643 0.12857457 0.1285764 0.12857825 0.12182274 0.12182432 0.12182635
0.11514373 0.115145475 0.115147084 0.10994269 0.10994449 0.10994641 0.10580389 0.105805464
0.105807014 0.102434725 0.10243623 0.102438055 0.09988976 0.0998914 0.09989301 0.09831607
0.09831777 0.09831964 0.09722404 0.09722577 0.09722774 0.09737451 0.09737631 0.09737832
0.098194644 0.09819655 0.09819846 0.0972437 0.097245656 0.09724776 0.09712535 0.09712724
0.09712955 0.097593695 0.09759576 0.0975977 0.098916404 0.0989186 0.098921016 0.10125582
0.101258196 0.10126084 0.1045584 0.10456064 0.10456362 0.10892547 0.10892816 0.1089307
0.11458169 0.1145844 0.11458662 0.121759355 0.1217622 0.12176519 0.13071845 0.13072132
0.13072452 0.14194067 0.14194399 0.14194763 0.15503637 0.15503967 0.15504368 0.16379085
0.16379379 0.1637972 0.16596726 0.16597061 0.16597393 0.17033854 0.17034206 0.17034559
0.17234372 0.17234774 0.1723515 0.18717389 0.18717876 0.1871855 0.23731934 0.23732318
0.2373276 0.30347413 0.30347732 0.30348104 0.3308539 0.33085763 0.33086145 0.33351144
0.3335157 0.3335206 0.083069965 0.08311697 0.08317132 0.0318985 0.032001775 0.032100383
0.017669493 0.017862622 0.018053941 0.015263555 0.01548655 0.015706152 0.014868308 0.015097005
0.015322376 0.014239897 0.014478523 0.014713343 0.013614911 0.013864291 0.014109379 0.0128906965
0.013153839 0.013411868 0.012367075 0.012641171 0.01290947 0.011837085 0.012122922 0.012401046
0.010220598 0.010550606 0.01087078 0.007587315 0.008028055 0.008444237 0.006279715 0.0068037054
0.0072901933 0.0049842726 0.005631713 0.0062106675 0.0034923714 0.004365022 0.0050905957 0.0019012892
0.0032360598 0.0041628084 0.0010554057 0.002823273 0.0038506535 0.00091344566 0.0027733354 0.0038141927
0.0009124009 0.0027729915 0.0038139427 0.00091108645 0.0027725594 0.0038136283 0.0009093999 0.0027720055
0.0038132258 0.000907107 0.0027712544 0.0038126796 0.0009097784 0.0027721294 0.0038133163 0.00091628457
0.0027742712 0.003814873 0.0010422755 0.0028183905 0.0038470773 0.0010524184 0.0028221586 0.0038498382
0.0010567886 0.0028238012 0.0038510421 0.0011662658 0.0028665743 0.0038825143 0.0012529468 0.0029029106
0.003909425 0.0013521367 0.0029470713 0.0039423257 0.0015801253 0.003058376 0.0040262053 0.001590414
0.0030637034 0.004030253 0.0015983346 0.0030678217 0.0040333867 0.0016047092 0.003071148 0.0040359152
0.0016833348 0.0031129522 0.0040678154 0.0016883446 0.0031156635 0.0040698904 0.062381227 0.062435765
0.0624886 0.17511734 0.17513493 0.1751539 0.25422785 0.25423786 0.25424838 0.28111735
