results/parallelRC2/ParkParallelRC/ParkParallelRC-1499833.onnx (onnx, 213786 bytes, 9 tensors)

network_body.observation_encoder.processors.0.normalizer.running_mean f4 [271]
000000 35 74 7e 3f c8 73 7e 3f 59 73 7e 3f 39 81 79 3f
       0.9939607 0.9939542 0.99394757 0.97462803
000010 af 80 79 3f 34 80 79 3f 68 d8 62 3f fc d7 62 3f
       0.9746198 0.9746125 0.8861146 0.88610816
000020 98 d7 62 3f f8 87 43 3f 8e 87 43 3f 31 87 43 3f
       0.8861022 0.76379347 0.76378715 0.7637816
000030 cf 52 26 3f 6e 52 26 3f 27 52 26 3f 81 5f 12 3f
       0.64970106 0.6496953 0.64969105 0.5717698
000040 4c 5f 12 3f ed 5e 12 3f 11 46 ff 3e 9c 45 ff 3e
       0.5717666 0.57176095 0.49858144 0.49857795
000050 29 45 ff 3e 16 f9 cb 3e bc f8 cb 3e 7c f8 cb 3e
       0.49857453 0.39838475 0.39838207 0.39838016
000060 4c 5f b5 3e ee 5e b5 3e 9b 5e b5 3e e3 7d a8 3e
       0.35424268 0.35423988 0.3542374 0.32908544
000070 a7 7d a8 3e 39 7d a8 3e a3 6c a0 3e 63 6c a0 3e
       0.32908365 0.32908037 0.31332883 0.31332693
000080 15 6c a0 3e c6 81 9b 3e 6c 81 9b 3e 2d 81 9b 3e
       0.3133246 0.30372447 0.3037218 0.3037199
000090 e4 a6 96 3e 84 a6 96 3e 43 a6 96 3e fb 73 92 3e
       0.29424202 0.29423916 0.29423723 0.2860411
0000a0 ac 73 92 3e 56 73 92 3e b9 0f 8e 3e 5a 0f 8e 3e
       0.28603876 0.2860362 0.2774637 0.27746087
0000b0 09 0f 8e 3e b1 f8 87 3e 62 f8 87 3e 1f f8 87 3e
       0.27745846 0.26556924 0.2655669 0.2655649
0000c0 9c b9 81 3e 57 b9 81 3e 13 b9 81 3e 2f 5d 79 3e
       0.2533692 0.25336716 0.25336513 0.24351953
0000d0 7e 5c 79 3e 06 5c 79 3e a6 62 71 3e 36 62 71 3e
       0.24351689 0.2435151 0.23572788 0.23572621
0000e0 b5 61 71 3e ee 53 6b 3e 54 53 6b 3e c7 52 6b 3e
       0.23572429 0.22981235 0.22981006 0.22980796
0000f0 56 40 67 3e e3 3f 67 3e 62 3f 67 3e 3b 75 65 3e
       0.22583136 0.22582965 0.22582772 0.22408001
000100 ad 74 65 3e 47 74 65 3e 07 5e 66 3e 94 5d 66 3e
       0.2240779 0.22407638 0.22496806 0.22496635
000110 10 5d 66 3e 9b 47 6a 3e 02 47 6a 3e 90 46 6a 3e
       0.22496438 0.22878878 0.2287865 0.2287848
000120 9d 8a 6f 3e 33 8a 6f 3e 85 89 6f 3e e5 9a 75 3e
       0.2339272 0.23392563 0.23392303 0.23984869
000130 53 9a 75 3e fa 99 75 3e 07 63 7e 3e 90 62 7e 3e
       0.23984651 0.23984519 0.24842463 0.24842286
000140 01 62 7e 3e 43 d4 84 3e 0e d4 84 3e bf d3 84 3e
       0.24842073 0.25943193 0.25943035 0.259428
000150 c6 72 8a 3e 7a 72 8a 3e 38 72 8a 3e 58 42 8f 3e
       0.2704069 0.27040464 0.27040267 0.27980304
000160 25 42 8f 3e d8 41 8f 3e 38 30 94 3e e7 2f 94 3e
       0.27980152 0.27979922 0.28943038 0.28942797
000170 ac 2f 94 3e 88 d2 99 3e 3d d2 99 3e f1 d1 99 3e
       0.2894262 0.30043435 0.30043212 0.30042985
000180 81 38 a0 3e 43 38 a0 3e e5 37 a0 3e 88 85 a7 3e
       0.3129311 0.31292924 0.31292644 0.32719064
000190 5f 85 a7 3e 26 85 a7 3e 77 d5 af 3e 25 d5 af 3e
       0.32718942 0.32718772 0.34342548 0.34342304
0001a0 d0 d4 af 3e e7 40 b9 3e a4 40 b9 3e 33 40 b9 3e
       0.3434205 0.3618233 0.3618213 0.36181793
0001b0 bc f6 c3 3e 62 f6 c3 3e 13 f6 c3 3e 36 3a d0 3e
       0.3827418 0.38273913 0.38273677 0.4066941
0001c0 cc 39 d0 3e 82 39 d0 3e ae 7e db 3e 3f 7e db 3e
       0.40669096 0.40668875 0.42870086 0.42869756
0001d0 e1 7d db 3e 4b 6f e5 3e eb 6e e5 3e 64 6e e5 3e
       0.42869475 0.44811472 0.44811186 0.44810784
0001e0 e4 0c ec 3e 39 0c ec 3e b8 0b ec 3e d0 22 f6 3e
       0.46103585 0.46103075 0.4610269 0.48073435
0001f0 3b 22 f6 3e db 21 f6 3e cd 2d 07 3f 82 2d 07 3f
       0.4807299 0.48072705 0.5280426 0.52803814
000200 55 2d 07 3f 9f 04 21 3f 56 04 21 3f fc 03 21 3f
       0.52803546 0.62897676 0.6289724 0.62896705
000210 23 8a 32 3f dd 89 32 3f 81 89 32 3f a3 16 3c 3f
       0.6974203 0.6974161 0.69741064 0.7347204
000220 54 16 3c 3f ed 15 3c 3f b5 c5 7e 3f 7e c5 7e 3f
       0.7347157 0.73470956 0.99520427 0.995201
000230 45 c5 7e 3f b9 1c 7f 3f 75 1c 7f 3f 14 1c 7f 3f
       0.9951976 0.996532 0.99652797 0.9965222
000240 ce c7 7f 3f 3a c7 7f 3f a8 c6 7f 3f 80 cd 7f 3f
       0.9991425 0.9991337 0.999125 0.99922943
000250 e1 cc 7f 3f 63 cc 7f 3f 2a d0 7f 3f 8e cf 7f 3f
       0.99921995 0.99921244 0.9992701 0.9992608
000260 f4 ce 7f 3f 3d d4 7f 3f 3f d3 7f 3f a4 d2 7f 3f
       0.9992516 0.99933225 0.9993171 0.9993079
000270 4f d9 7f 3f 1c d8 7f 3f b6 d7 7f 3f 05 de 7f 3f
       0.9994096 0.9993913 0.99938524 0.9994815
000280 b9 dc 7f 3f fc db 7f 3f 94 e0 7f 3f 8d df 7f 3f
       0.9994617 0.99945045 0.99952054 0.99950486
000290 02 df 7f 3f 31 e3 7f 3f 00 e2 7f 3f 55 e1 7f 3f
       0.9994966 0.9995604 0.99954224 0.99953204
0002a0 75 ea 7f 3f 45 e9 7f 3f a9 e8 7f 3f 27 f5 7f 3f
       0.9996713 0.99965316 0.99964386 0.9998345
0002b0 0f f4 7f 3f 3d f3 7f 3f d1 f6 7f 3f 3a f6 7f 3f
       0.9998178 0.9998053 0.99985987 0.99985087
0002c0 e5 f5 7f 3f 54 f9 7f 3f 96 f7 7f 3f 38 f7 7f 3f
       0.9998458 0.9998982 0.9998716 0.999866
0002d0 9d fc 7f 3f de fa 7f 3f f0 f9 7f 3f c5 fe 7f 3f
       0.9999483 0.9999217 0.9999075 0.9999812
0002e0 05 fd 7f 3f 17 fc 7f 3f 54 ff 7f 3f 94 fd 7f 3f
       0.9999545 0.99994034 0.99998975 0.99996305
0002f0 a6 fc 7f 3f 54 ff 7f 3f 94 fd 7f 3f a6 fc 7f 3f
       0.99994886 0.99998975 0.99996305 0.99994886
000300 54 ff 7f 3f 94 fd 7f 3f a6 fc 7f 3f 54 ff 7f 3f
       0.99998975 0.99996305 0.99994886 0.99998975
000310 94 fd 7f 3f a6 fc 7f 3f 54 ff 7f 3f 94 fd 7f 3f
       0.99996305 0.99994886 0.99998975 0.99996305
000320 a6 fc 7f 3f 54 ff 7f 3f 94 fd 7f 3f a6 fc 7f 3f
       0.99994886 0.99998975 0.99996305 0.99994886
000330 0d ff 7f 3f 7f fd 7f 3f 95 fc 7f 3f 0c ff 7f 3f
       0.9999855 0.9999618 0.99994785 0.99998546
000340 7e fd 7f 3f 94 fc 7f 3f 0c ff 7f 3f 7e fd 7f 3f
       0.99996173 0.9999478 0.99998546 0.99996173
000350 94 fc 7f 3f 0c ff 7f 3f 7e fd 7f 3f 94 fc 7f 3f
       0.9999478 0.99998546 0.99996173 0.9999478
000360 0c ff 7f 3f 7e fd 7f 3f 94 fc 7f 3f da fe 7f 3f
       0.99998546 0.99996173 0.9999478 0.9999825
000370 69 fd 7f 3f 86 fc 7f 3f ae fe 7f 3f 57 fd 7f 3f
       0.9999605 0.99994695 0.99997985 0.9999594
000380 76 fc 7f 3f 88 fe 7f 3f 42 fd 7f 3f 68 fc 7f 3f
       0.999946 0.9999776 0.99995816 0.99994516
000390 66 fe 7f 3f 2f fd 7f 3f 5a fc 7f 3f 64 fe 7f 3f
       0.99997556 0.999957 0.9999443 0.99997544
0003a0 2f fd 7f 3f 59 fc 7f 3f 63 fe 7f 3f 2e fd 7f 3f
       0.999957 0.99994427 0.9999754 0.99995697
0003b0 58 fc 7f 3f 62 fe 7f 3f 2e fd 7f 3f 58 fc 7f 3f
       0.9999442 0.9999753 0.99995697 0.9999442
0003c0 45 fe 7f 3f 1b fd 7f 3f 49 fc 7f 3f 44 fe 7f 3f
       0.9999736 0.99995583 0.9999433 0.99997354
0003d0 1a fd 7f 3f 49 fc 7f 3f bd a6 7e 3f ac a6 7e 3f
       0.9999558 0.9999433 0.9947317 0.9947307
0003e0 14 a6 7e 3f ae 47 76 3f f9 46 76 3f 7d 46 76 3f
       0.99472165 0.96203125 0.96202046 0.96201307
0003f0 1c 23 69 3f 77 22 69 3f 0e 22 69 3f 42 71 63 3f
       0.910692 0.91068214 0.9106759 0.8884469

network_body._body_endoder.seq_layers.0.weight f4 [128, 271]
000000 75 11 d0 3d 02 ba 06 3d 67 64 2f 3d 55 f8 16 be
       0.1015958 0.032892235 0.04282036 -0.14743169
000010 32 f9 d6 3d b9 39 bc bd 85 19 aa 3d b7 25 55 bd
       0.10496749 -0.09190697 0.08305649 -0.05203792
000020 d2 27 7b bd 00 90 a9 bc 2f 20 8a 3c bb d6 63 3d
       -0.061317272 -0.020698547 0.01686105 0.055624705
000030 7b 23 1d 3b 30 04 25 3d 05 49 e3 3d b4 95 a5 3d
       0.0023977447 0.040287197 0.11097912 0.08085194
000040 02 e3 cf 3c 7e d9 1e 3d bd 9c 90 3d 56 50 a8 3b
       0.0253768 0.038781635 0.070611455 0.00513653
000050 2e e2 06 bd 6f b6 83 3d 68 5a c2 3d de 0e ec 3c
       -0.032930546 0.06431281 0.094899 0.028815683
000060 e9 79 0a 3e 7f 89 03 3d f2 f8 23 3e e8 f4 4c 3d
       0.13523068 0.03211355 0.16012934 0.05003825
000070 b3 d6 00 bc 10 4f cd bb 2d 41 ae 3d b8 e5 31 3d
       -0.007863688 -0.0062655285 0.08508525 0.043431967
000080 f5 24 18 3d e6 da 7d 3d 9c 81 09 bd 73 74 95 bd
       0.03714462 0.061976336 -0.03357087 -0.072976016
000090 fd 26 65 bd bd 2b 68 bd 49 07 45 bd b4 c1 14 3c
       -0.055945385 -0.056682337 -0.04810265 0.009079386
0000a0 da f3 66 bd d0 82 bc bd ee 4b 59 bd a7 4f 56 3d
       -0.0563849 -0.09204638 -0.053050928 0.052322056
0000b0 89 15 f3 bc 58 6e 0c 3d c2 c6 87 bd 51 d9 a7 bd
       -0.029673355 0.03428492 -0.06629707 -0.08195747
0000c0 3d 12 bf 3d 27 cd 9a bc d0 4f 79 3d 37 af 13 3e
       0.093296506 -0.018896652 0.06086713 0.14422308
0000d0 14 62 10 bd f8 19 be 3b 7e 2b 9f 3d c6 60 83 3d
       -0.035249785 0.0058014356 0.07771967 0.064149424
0000e0 aa 2c 23 3e 44 bc 01 be 16 66 14 bd 95 86 40 3c
       0.15935007 -0.12669474 -0.03623017 0.011750837
0000f0 3f 4f 9d bd e3 97 53 3c 82 31 18 be 39 21 75 3d
       -0.076811306 0.012914631 -0.14862636 0.059846137
000100 04 6e 9d 3d 6b 1d 27 3d 3a 8d 9c bd a1 93 19 3c
       0.076869994 0.04079954 -0.07644124 0.009373576
000110 8a 01 b1 bd 60 57 07 be 41 f8 3c 3d f4 36 f9 bd
       -0.08642872 -0.13216925 0.04613519 -0.121686846
000120 9b 9b 4e 3c 6c 44 ef 3d be ff 53 3d 39 7c b4 3c
       0.012610341 0.11682972 0.051757567 0.02203189
000130 9e 34 9e 3d ef 52 d4 3b a5 47 c0 3c 6d b1 88 3d
       0.0772488 0.006479613 0.023471663 0.06674466
000140 bf a8 7a 3d 4d 74 f3 bd 3c 0b 19 3e 8f 7e 01 3d
       0.061196085 -0.11887417 0.14945692 0.031614836
000150 29 52 b1 3d 27 13 41 bd 51 fc 81 bb f4 14 4f bc
       0.08658249 -0.047137406 -0.003966846 -0.012639273
000160 37 cf 9d bc 63 51 82 3c 8a 80 62 3d 43 b9 0f bc
       -0.019263847 0.015907949 0.055298366 -0.008772197
000170 e6 59 f5 3d b8 8a 55 bd 56 49 10 3d 6f ad 55 3d
       0.119800374 -0.052134246 0.03522619 0.052167352
000180 46 2e a6 bc 34 50 99 3d 0d ef 6a 3d 07 37 46 bc
       -0.020285737 0.07486001 0.057356883 -0.0120980805
000190 5f 59 0d 3b f1 50 74 3d 4b 47 71 3c 79 9c 27 3d
       0.0021568162 0.059647504 0.01472647 0.04092071
0001a0 9d 2f 6d bd e0 c7 ac bd a9 35 b5 bd a1 4f 32 bc
       -0.057906736 -0.08436561 -0.088481255 -0.010883243
0001b0 55 d5 07 3d db 7d 02 be 69 99 70 bd eb 67 34 3d
       0.033162434 -0.12743323 -0.058740053 0.044044416
0001c0 a3 c6 79 3d e4 fd 70 3c 36 39 49 bd 10 12 90 bd
       0.06098045 0.01470897 -0.049126826 -0.07034695
0001d0 58 25 81 3d 79 81 48 3d 51 1f 77 bd 32 ec a1 3d
       0.06305951 0.0489516 -0.0603326 0.07906379
0001e0 4d 3f c9 3d 81 f2 81 3b 8c d6 b8 3c b2 98 d5 3d
       0.09826527 0.0039656763 0.022563241 0.10429515
0001f0 a6 9f 36 3d 6d 48 93 3d 98 aa 5a 3d be 17 16 3c
       0.044585846 0.071915485 0.053385347 0.009160934
000200 78 98 9d bc ed 0d e5 3d 28 51 94 3d 10 ea 94 3d
       -0.019237742 0.11184297 0.07242042 0.072712064
000210 1a 18 3b 3d 3e 3b 11 bd af 10 ea bc 75 6f ab bd
       0.045677282 -0.03545689 -0.028572408 -0.08370868
000220 f1 9c 33 ba 82 fb 43 bd 33 a2 1c 3d dd b8 6f 3c
       -0.0006851694 -0.04784728 0.038240623 0.014631477
000230 6e 9b d7 3d ac f1 c3 3c 00 58 90 3d 50 55 70 3c
       0.10527693 0.023918949 0.07048035 0.014668778
000240 5c 81 76 bc 42 2d 19 3d be f0 cd bd aa b3 84 3d
       -0.01504549 0.037396677 -0.100556836 0.06479581
000250 88 1c 37 3d 07 0d 49 3d 85 fb b2 bc 53 7d ad bb
       0.044704944 0.04908469 -0.02184845 -0.005294481
000260 53 f4 a1 3d b3 42 65 bc 3b 96 46 bd 0d d3 18 bd
       0.07907929 -0.013992953 -0.048483115 -0.03731065
000270 b7 01 bb bc 8f d8 b4 bd 2e 11 f7 3d 62 b2 11 bd
       -0.022827966 -0.08830368 0.12063824 -0.03557051
000280 b1 9f c6 3c 05 72 21 3d c3 8e ed 3c fb 3d 50 bd
       0.024246069 0.039415378 0.028998738 -0.05084036
000290 f9 0f 16 bd 47 c0 2c bd f5 78 0e bd e8 cd fd bc
       -0.036636326 -0.042175557 -0.034783322 -0.030981973
0002a0 84 c8 c5 3c 3f d3 6b bd fa 9f 1d be e1 d2 11 3d
       0.024143465 -0.057574507 -0.15393057 0.0356015
0002b0 87 3b 31 3c ad 67 c1 bc 63 e6 03 bd 2f 35 dc 3a
       0.010817415 -0.023609007 -0.032202136 0.0016800518
0002c0 f5 05 1a 3d 88 fa 05 bd 73 30 c5 bc 6a 0d cd 3b
       0.037603337 -0.03270963 -0.024070954 0.0062577026
0002d0 76 00 a7 bc 51 5e 2b bd a5 a9 e5 bc 1b ee 5d 3c
       -0.020385962 -0.041837994 -0.028034994 0.013545538
0002e0 8e 60 fd 3c fc bc 81 bc 5e 72 7d 3c e4 00 44 be
       0.03092983 -0.015837185 0.015469162 -0.19140965
0002f0 bd 35 a3 bd 6d 99 ab 3b 39 62 73 3c da d5 5f 3c
       -0.07969234 0.0052367956 0.014854961 0.013661826
000300 1b 56 45 be 6a fa 14 be dc 09 17 3d 03 24 5b 3d
       -0.19271128 -0.1454865 0.036874637 0.05350114
000310 92 9b 8e bd 9e dd ea 3d 01 e8 64 bd 8d 1f 4b 3d
       -0.069632664 0.114680514 -0.05588532 0.049590636
000320 eb 2f 90 bd 69 58 3d bc e6 af c2 bd a1 fa 47 bb
       -0.070403896 -0.011556723 -0.09506206 -0.0030514377
000330 71 21 af bd a5 7c 8d bd ef ae 50 bd d5 2f 56 3c
       -0.085513 -0.0690854 -0.05094808 0.0130729275
000340 0f 89 69 bd a1 b9 87 bd 64 49 d5 bd 17 7f 29 be
       -0.057015475 -0.06627203 -0.10414389 -0.16552387
000350 db a1 5e 3d 6e e6 86 bd bc ae 8a bd c9 46 b5 bc
       0.054353576 -0.0658692 -0.06771609 -0.02212848
000360 3c 7d 6e bc d7 e0 9f bb e6 6e 13 bd 7f 31 ab bb
       -0.014556225 -0.004879098 -0.035994433 -0.0052244063
000370 1c db 5a be 95 58 93 3d c0 fa b8 ba 1d f6 df 3d
       -0.21372646 0.0719463 -0.0014112815 0.10935614
000380 55 84 c0 bd ee 0e 01 bd ff 5c 47 bd b7 d3 fe bc
       -0.0940024 -0.03150838 -0.048672672 -0.031106813
000390 fa 27 bc 3d a1 b4 b3 3d fd 4d 2b 3d 29 57 8a bd
       0.091873124 0.087746866 0.041822422 -0.06754906
0003a0 4f 69 9c bd a1 e5 fd bc f2 5b 6d bc 63 76 84 3c
       -0.076372735 -0.030993285 -0.0144872535 0.016169732
0003b0 e7 0c 0e bd a0 fa aa bc 2f 5b a4 bd a8 b1 9b bd
       -0.034680273 -0.02087146 -0.080252044 -0.076022446
0003c0 3f 40 6a 3d 6e a3 83 3d 15 43 21 be 73 ca 4f bc
       0.057190176 0.06427656 -0.15748246 -0.012682545
0003d0 87 10 ea 3d b7 fd 2c 3c d6 2b 79 bc 5a 83 0a 3d
       0.114289336 0.010558537 -0.015208205 0.033816673
0003e0 6e c6 1a 3d 9b b8 9a 3c 60 aa 03 be a8 a3 82 ba
       0.037786894 0.018886855 -0.12857962 -0.0009966986
0003f0 c4 39 67 3d 1b ae d9 3d b2 87 67 3d b4 e4 a0 3c
       0.056451574 0.10628911 0.056525894 0.019640304

network_body._body_endoder.seq_layers.0.bias f4 [128]
000000 35 f4 b7 bc 2a 8f 56 bc bd 03 4f 3d 10 ec 6e 3c
       -0.022455314 -0.013095656 0.050540674 0.014582649
000010 03 bc ce bc cb 7a 9d 3c 0c 9e 79 bc 3c a3 bd 3c
       -0.025236135 0.019223591 -0.015235435 0.023149125
000020 5f 56 70 3c b5 b5 fa bc bd 7b b4 3c 30 4f 14 3d
       0.01466903 -0.030604223 0.02203166 0.03620833
000030 55 cb 57 3d 50 c4 2a 3d 77 07 5f 3d 68 eb b6 3c
       0.052684147 0.041691124 0.05445048 0.022329047
000040 7e 0f e2 3c 26 80 6e 3d dd a7 73 3c a5 36 2a 3c
       0.027595278 0.05822768 0.014871565 0.010389005
000050 47 20 ec 3c fa d4 83 3c 50 26 3f bc f7 23 5c 3d
       0.028823985 0.016092766 -0.011666849 0.053745236
000060 ed 3d 7a 3c a5 e2 0d bd c5 a5 98 3d ce 22 f8 3c
       0.015273553 -0.034639973 0.07453493 0.030290034
000070 1d af 80 3d 52 e2 f9 3c ed 23 2f bd 9a 96 62 3a
       0.062834 0.030503426 -0.04275887 0.0008643657
000080 cc 48 7c 3d 64 72 1c bd c4 a0 80 3c 02 e7 6f 3c
       0.061592862 -0.03819503 0.015701659 0.014642479
000090 da 86 c7 3c 40 26 ef 3c 20 fa fe 3b b7 85 9a 3c
       0.024356294 0.029193044 0.007781282 0.018862588
0000a0 72 da 0e bc d1 e3 b7 3c 8e da 6a 3c ea cf b5 3c
       -0.008719074 0.022447499 0.014334334 0.022193868
0000b0 a2 93 74 bd f9 18 45 3d 6d e7 16 3d f9 02 1c 3d
       -0.059711106 0.04811952 0.0368418 0.038088772
0000c0 66 9c 4c 3d 65 7b fe 3c ff ba f6 3c 4f 5b 03 3d
       0.04995384 0.031064698 0.030118464 0.0320695
0000d0 5c 49 16 3d 0d ef d3 3c 0d 4a fc 3c 41 ef 7d 3d
       0.036691055 0.025870824 0.030797029 0.06199575
0000e0 9a d9 13 3c d7 9a 99 3d 9c b3 a8 bc cb 5f ab bc
       0.009024048 0.075002365 -0.020593457 -0.020919701
0000f0 fc 7d 08 3d 85 a5 07 3d af fc 63 3d 0d 59 ba 3c
       0.033323273 0.033116836 0.0556609 0.02274754
000100 8d 83 31 bd 7a ca 29 3c 67 17 d2 bb 69 5c cd 3c
       -0.043338347 0.010363216 -0.006411481 0.025068479
000110 f1 c3 2d 3d 42 48 59 3d 32 71 18 bd 63 bc f4 3a
       0.042423192 0.053047426 -0.037217326 0.0018671866
000120 75 fa d9 3c 69 db f1 3b d9 23 02 bc 73 7d 71 3c
       0.026608685 0.007380892 -0.007943117 0.014739382
000130 8e 82 b8 3c 1c 35 53 3a 89 28 2e 3d 1f 53 4c 3b
       0.02252319 0.0008056925 0.042519126 0.0031177474
000140 71 57 53 3b a7 be 85 3c 0c 52 e8 ba 42 2a 3f 3d
       0.0032248164 0.016326262 -0.0017724647 0.04667116
000150 58 a0 01 3d b2 4f a7 3d 67 cb 50 3a bc 46 46 3d
       0.031647056 0.081694975 0.00079648796 0.0484073
000160 e6 c6 9a 3c 8a 49 9d 3d e1 90 11 3c 89 c3 08 3d
       0.01889367 0.07680042 0.0088846395 0.0333896
000170 6c 6f 7a 3c 88 76 6b bc 83 87 01 3d 19 1c 66 3d
       0.015285354 -0.014371522 0.031623375 0.05617914
000180 01 41 8b 3c 46 2f b2 bc c6 11 27 bb 40 7e 3d bd
       0.01699877 -0.021751057 -0.0025492772 -0.04626298
000190 3e a9 03 3b 93 bf 3f 3d c9 25 bc 3c de 86 de 3c
       0.002008989 0.04681356 0.022967236 0.027163919
0001a0 b0 51 ce 3c 64 e2 9b 3c 30 90 b5 3c f5 68 15 3d
       0.025185436 0.01902885 0.02216348 0.036477048
0001b0 37 1c 8a 3d bc 90 8c 3b 5d b7 01 3d 6a a3 46 3d
       0.06743663 0.0042897146 0.03166901 0.048495688
0001c0 7d 00 d3 bc 2d e5 f0 3c e8 cd 32 bd 2b b7 2b bd
       -0.025757069 0.029406155 -0.0436534 -0.04192273
0001d0 e7 3c 03 3d 8c 82 39 3d f1 aa 47 3b ea 72 fa 3c
       0.032040503 0.045290515 0.003046688 0.030572373
0001e0 96 df a6 3c 74 70 06 3d 68 0e bd bc bd ed a8 ba
       0.020370286 0.032822087 -0.023078158 -0.0012888234
0001f0 cb d6 5d 3c 2b fa 7e 3d 94 a7 17 bd 75 22 7c 3d
       0.01353998 0.062250298 -0.03702505 0.0615563

network_body._body_endoder.seq_layers.2.weight f4 [128, 128]
000000 c5 d2 39 bd 31 6a f1 bd f6 04 02 3e 65 56 44 bd
       -0.04536702 -0.117878325 0.12697205 -0.047933955
000010 58 aa b1 b9 ad 48 ac bd af c2 90 bd c0 56 36 bd
       -0.00033886987 -0.08412299 -0.07068383 -0.044516325
000020 f8 28 fc 3d 71 7a b3 bc af 35 07 3e e0 a4 4b bd
       0.12312502 -0.02190897 0.13204072 -0.049717784
000030 24 76 51 3e c1 4e 8e 3d 8e 85 89 3d 8c 08 9a bd
       0.20455223 0.06948615 0.06714927 -0.075211614
000040 6a 83 9f 3d 6d 5b 66 bc 6a 78 9a 3d f8 40 91 bd
       0.07788737 -0.014059884 0.075424984 -0.0709247
000050 ab 80 e3 3d a8 23 a9 bd c9 e0 cb 3b ae e3 b8 bd
       0.11108526 -0.08258754 0.006221865 -0.090278015
000060 27 99 50 3d a3 8e cf 3d f6 89 28 3c 32 a2 33 3d
       0.050927307 0.10134628 0.010286799 0.043855853
000070 a5 65 28 bd d2 b2 a8 3d e3 78 8e bd eb 72 35 3d
       -0.04111256 0.08237232 -0.06956651 0.044299047
000080 80 6f b2 bc 3c d3 37 bc 16 d7 2f bd 14 42 be bd
       -0.021781683 -0.011219796 -0.04292973 -0.09289947
000090 6a a7 82 bd cf ea 63 bd 98 6c df bd e3 5c 73 3e
       -0.06379588 -0.055643853 -0.109093845 0.23765902
0000a0 c7 36 a9 3d df ed cb bc 93 df 7b be ab a8 cf bd
       0.08262401 -0.0248937 -0.24597006 -0.10139593
0000b0 29 94 89 3d b5 4c 20 3d 9b 94 bd 3d 97 05 c6 3c
       0.067177124 0.039135654 0.0925686 0.024172587
0000c0 84 2e 51 3e 7a 56 65 bd d1 ff a2 3d 39 2b 8f 3d
       0.204279 -0.055990674 0.07958949 0.06990666
0000d0 96 26 5f ba c9 54 bc bc e6 a6 9d 3d ec 6e a4 3d
       -0.00085125247 -0.022989647 0.07697849 0.08028969
0000e0 9b 60 cf 3d d6 f8 ed bc a5 50 09 bd 38 bd 8d bd
       0.10125848 -0.029049318 -0.033524174 -0.06920856
0000f0 de bf 3c be d2 e2 93 3d 81 cf 43 3c 3f 39 aa 3c
       -0.18432567 0.07220997 0.011951328 0.02077925
000100 5e 24 e8 3b fb d8 41 3c 1b 13 51 be 77 01 12 bd
       0.0070844134 0.011831517 -0.20417444 -0.03564593
000110 03 28 09 3e ff 8e b7 3d bf 77 e6 3d 03 2f 32 be
       0.1339417 0.08962821 0.112533085 -0.17400746
000120 ef f9 c8 bd ee 55 83 3d 70 49 09 be 7b f5 83 bb
       -0.09813296 0.06412874 -0.1340692 -0.0040270663
000130 bb ee ff 3c 44 3d 12 bd 2b d0 b0 3d 4e 09 a8 bd
       0.031241765 -0.03570296 0.08633455 -0.082049
000140 12 de 94 bd 07 86 a9 3c a8 0e b0 bd c8 53 81 3d
       -0.07268919 0.020693792 -0.085965455 0.06314808
000150 9c be b7 3d 7a 56 67 bd 05 ed ce 3d 50 a5 30 3e
       0.08971903 -0.056478955 0.10103802 0.17250562
000160 17 c3 6b bd ac 84 07 bc 43 55 83 bd 3c c8 08 3e
       -0.0575591 -0.0082713775 -0.06412747 0.13357633
000170 4d 1e a5 bd 7f 93 33 3e c2 58 32 3d a8 eb 18 3d
       -0.0806242 0.17536734 0.043541677 0.037334114
000180 cd 04 d5 3d dc e2 e8 3d 5a 36 40 bd f3 e1 8c 3d
       0.10401306 0.11371395 -0.046926834 0.06879034
000190 0f 61 d3 3c 83 62 ad 3d 3d 6f 3d 3c 64 89 5f 3d
       0.025803117 0.08466055 0.011562166 0.054574385
0001a0 78 8d 97 bd bf 83 21 bb 04 a5 04 3e de 27 0b 3d
       -0.0740003 -0.0024645177 0.12953573 0.033973567
0001b0 3b 42 e7 3d dc 8c 85 3d 24 ab 94 bd 9b c3 f8 bc
       0.11291929 0.065210074 -0.07259205 -0.03036671
0001c0 ab 36 c9 bc fb a0 66 be 48 ee fc b9 42 29 29 3c
       -0.0245622 -0.22522347 -0.0004824272 0.010324778
0001d0 ce 62 17 be e0 12 8a 3d 2e b4 be bd 7a f9 08 3e
       -0.14783785 0.06741881 -0.0931171 0.13376418
0001e0 56 5b ca bc 68 85 c1 3d 4a af 1a 3e ca 6a 71 3d
       -0.024701755 0.09449273 0.1510593 0.058939733
0001f0 c1 58 09 bd a2 f5 85 3d 8d b5 d8 bc ea 7c c5 3d
       -0.033531908 0.06540991 -0.026453758 0.09642966
000200 e2 52 84 be 3d b5 ed 3c c8 f8 0d bd 43 b4 87 bc
       -0.25844485 0.029017085 -0.034661084 -0.016565448
000210 80 98 dc 3b 4a 0a aa 3c 58 6e 8a 3d f9 da 58 bd
       0.0067320466 0.02075686 0.06759328 -0.052943204
000220 48 78 17 bc 23 74 23 3d 3a 8b 06 3c 29 af ca 3d
       -0.009244986 0.03990568 0.008211905 0.098966904
000230 3a 12 2e 3e 3d 7b f7 bb af 02 48 be 2b 44 5c bd
       0.1699914 -0.007552533 -0.19532274 -0.053775948
000240 ee 49 ff bc 2d 79 3c be f3 81 fb 3c 27 b7 9f bd
       -0.031163182 -0.184056 0.030701613 -0.077986054
000250 06 10 8d 3d 4b fd a2 3d 64 da b2 3d d9 ab e9 3d
       0.06887822 0.07958468 0.08733061 0.114097305
000260 06 f8 1c bd 48 f3 9d bd 2a d6 eb bd 12 e3 49 be
       -0.03832247 -0.07712418 -0.11515458 -0.19715527
000270 e6 da 28 3e 2f b3 c7 bd 06 3c 33 be 36 c3 70 3a
       0.16489753 -0.097509734 -0.17503366 0.0009184362
000280 3e 1a 1d 3d 49 62 02 be 5c d9 c3 3d 1c 5d 27 be
       0.038355105 -0.12732805 0.095629424 -0.16344112
000290 7c cb 9a bd 4d ce 72 bd 59 b1 15 be 43 07 aa 3c
       -0.07558343 -0.059278775 -0.14618434 0.020755416
0002a0 12 10 1e 3d a7 ca ef bb ee 54 4c bb be e2 fb 3d
       0.038589545 -0.007317859 -0.0031178552 0.12299107
0002b0 9f 57 4c 3c 71 7a 84 bc b5 56 a1 3c a7 8a a7 3c
       0.012472062 -0.016171666 0.019694665 0.020451857
0002c0 c3 2a f9 3d d0 ca 40 3d d3 1c 52 3e 32 d8 9e 3c
       0.12166359 0.047068417 0.20518808 0.0193902
0002d0 22 bc ba 3d af 3c ec 3d fc 17 69 bd ac 59 5e 3d
       0.09117915 0.11535012 -0.05690764 0.054284737
0002e0 0b 9b 3c bd 1d 15 fe bd e6 85 b2 bd 33 ad c9 3d
       -0.046046298 -0.12406371 -0.08716945 0.09847488
0002f0 5d 90 62 3d b6 e2 7a 3e 05 d8 ce bc b4 a2 fa bc
       0.055313457 0.24500546 -0.02524949 -0.030595161
000300 f8 48 94 be 35 46 f9 3d 35 46 89 3d 4b 93 74 be
       -0.2896192 0.12171594 0.06702844 -0.23884313
000310 82 0a 92 bd 65 31 55 3c 15 1e ac 3d 33 c9 43 3e
       -0.071309105 0.013012265 0.08404175 0.1911972
000320 55 58 c5 bd 97 52 bc 3d 33 3e b4 3d 9f 58 08 bd
       -0.096359886 0.0919544 0.08800926 -0.03328764
000330 91 2e dd 3b 8c 26 72 bd 3e 2c 4a 3c 9c 46 ca bc
       0.006749936 -0.059118792 0.01233965 -0.024691872
000340 b5 1a 8c 3c e3 9b 1a 3d 06 44 ef bd c9 d9 a6 bb
       0.017102579 0.03774632 -0.11682896 -0.00509188
000350 ec d6 71 3e 7b bc 41 3c f9 5f 0b 3e 82 a6 09 be
       0.23617142 0.011824722 0.1361083 -0.13442424
000360 73 29 25 be 50 89 bf 3d 12 2b 18 3c 0d 82 c2 3d
       -0.16129093 0.09352362 0.0092876125 0.094974615
000370 2d f0 35 3e ee 8d 89 3d 31 ce 77 bd 45 c9 45 be
       0.17767401 0.06716524 -0.060499374 -0.1931506
000380 fc ee 0e bd ee b4 de bc d0 fc 27 3e b0 98 99 bd
       -0.034895882 -0.027185883 0.16405034 -0.07499826
000390 26 a0 16 be 3b fd 48 be ad 2f f6 bd ca e9 36 bd
       -0.1470953 -0.1962785 -0.12020812 -0.044656552
0003a0 1f 49 76 3e b5 58 8e bd 56 78 ea ba 4b 0c 0e be
       0.24051331 -0.06950513 -0.0017888646 -0.13871877
0003b0 85 83 59 3d cb 0d ba bc 50 76 65 3e 89 97 c3 3c
       0.053103942 -0.022711655 0.22408414 0.023875969
0003c0 c1 8a d5 bd 6e fd 3c bb bf 0f a1 3d 15 d4 f5 bd
       -0.10426856 -0.002883758 0.078643315 -0.12003342
0003d0 3d 88 da 3c 75 69 8c 3e 85 be 6a 3c 11 ad 71 bd
       0.026676292 0.27424207 0.01432765 -0.05900294
0003e0 a9 6b 82 39 47 09 f0 bd fb f3 17 be 70 07 c8 bd
       0.00024875745 -0.117205195 -0.14839165 -0.097670436
0003f0 24 39 b0 3d 55 5e 5f 3d e5 a6 f7 3b 7d 60 70 3d
       0.08604649 0.05453332 0.007557737 0.05868577

network_body._body_endoder.seq_layers.2.bias f4 [128]
000000 85 21 c3 3c e4 10 84 3d da 77 04 bc 8e 96 0f bc
       0.023819694 0.06448534 -0.008085215 -0.008763922
000010 52 f7 20 3d d2 07 2d 3d 00 ec 11 3c a3 1e c9 3c
       0.039298363 0.042243786 0.008906364 0.024550742
000020 1f ab ec 3c b1 be 37 bc 0f b0 d5 3c fc 7c a1 3c
       0.02889019 -0.011214898 0.026084928 0.019712918
000030 d9 fa 93 bc 06 61 2d bc 8c c2 1a 3d 0f 18 9d bc
       -0.01806395 -0.010582214 0.03778319 -0.019176511
000040 03 95 93 3c ca 45 b9 bb 83 91 eb 3c 8c 8c 0f 3d
       0.01801539 -0.0056540715 0.028755909 0.035046145
000050 a8 66 2d 3c a1 92 8e 3d db 3a ca 3b 9f ef ef 3c
       0.010583557 0.06961561 0.006171567 0.029289065
000060 a7 0b 12 3c e7 6d 86 3c 4a fc d9 3c 6d fa ee 3c
       0.008913911 0.016409827 0.026609559 0.029172147
000070 c6 ad a8 bc 34 b2 d8 3c b9 78 ae bc 09 08 f2 3c
       -0.020590674 0.026452161 -0.0212978 0.029544847
000080 07 7f 8e 3b d6 92 0d 3d d5 38 4d 3c f2 97 b5 3c
       0.004348639 0.03456386 0.012525757 0.02216718
000090 d3 1a f6 3c 4a c0 58 3c 78 cc 00 3b 68 b0 85 3c
       0.030042088 0.013229439 0.0019653123 0.016319469
0000a0 b3 55 ab 3c 96 af c0 3c 91 a5 b8 3c 8d bf 12 3d
       0.020914888 0.023521226 0.022539886 0.03582721
0000b0 16 8c e0 3c 0f d2 6e 3c 72 c4 cf 3b 79 0a 8c 3c
       0.027410548 0.014576449 0.006340557 0.017094838
0000c0 82 d9 57 3c 0e c4 01 3b 76 a6 1a 3d 72 78 a7 bc
       0.0131744165 0.0019800696 0.037756406 -0.020443175
0000d0 8d 9c 0f 3d 96 d2 02 3d 61 e9 e8 3c a3 e4 05 3d
       0.035061408 0.03193911 0.028431596 0.032688748
0000e0 23 c0 89 3d 08 f1 c5 3c 8d 83 00 bc 2c 33 bb 3c
       0.067261 0.024162784 -0.007843864 0.02285155
0000f0 db 7c 05 3c 09 6c eb 3c e7 98 5b 3d 86 0e 08 3d
       0.008147444 0.028738039 0.053612616 0.033216976
000100 4a b7 f0 3c 93 4b ba 3c f4 0e 23 3b d7 c6 2e 3d
       0.029384274 0.022741115 0.002488074 0.042670097
000110 f7 b9 23 3d b2 d0 ac bc 8c f4 e7 3c 98 a9 28 3d
       0.03997227 -0.021095607 0.028314851 0.041177362
000120 f2 01 0e bb 2a e5 b1 3c 88 56 fd 3c c3 61 a7 3c
       -0.002166864 0.02171572 0.03092505 0.020432359
000130 34 bc a7 bb 39 83 86 3c 04 aa 66 3d b7 e0 94 ba
       -0.005118871 0.016419994 0.056314483 -0.0011358474
000140 f1 ad e9 3b 68 ad 09 3c e2 8c 00 3d 60 ba 42 bb
       0.007131331 0.00840316 0.031384356 -0.002971314
000150 5e 8a 85 3c 0a 56 20 3c 90 57 df 3c cf 70 93 3c
       0.01630133 0.009786138 0.027263433 0.017998127
000160 f5 9f 40 3d ca 7a ef 3c 52 b1 36 bc cc af 20 3d
       0.047027547 0.029233355 -0.011150675 0.039230153
000170 8d 8f f6 bc d3 79 3c 3d d5 10 f2 bb 21 69 b1 3b
       -0.030097747 0.046014618 -0.0073872604 0.0054141437
000180 1f 07 98 3c 6d e4 e3 3c d7 05 ae 3c 1c f7 93 3b
       0.018558083 0.027818883 0.021243019 0.0045155417
000190 7d e9 29 bc d7 a3 85 3d 5a 9f 3a bb cd 69 6a 3c
       -0.010370609 0.065253906 -0.0028476329 0.014307451
0001a0 e1 27 14 3c 35 ad 22 3d 9f f7 42 3d 98 59 06 3d
       0.009042711 0.039715964 0.04759943 0.032800287
0001b0 ea 65 2f 3c 4e 70 5c bc 44 a8 1f 3d 42 ff 4e 3d
       0.010705451 -0.01345451 0.03897883 0.0505364
0001c0 c6 14 3d 3c 6e af 1b 3d 1c b3 48 3d 27 50 79 bc
       0.011540597 0.0380091 0.048998937 -0.015216864
0001d0 26 14 31 3d f3 a3 06 bb 9a 97 3d 3c 0b 13 f4 3c
       0.043232106 -0.0020544499 0.011571789 0.029794237
0001e0 ac 9a 72 3b da 55 06 3b c5 f4 9b 3c c3 87 6c ba
       0.003701846 0.002049795 0.019037614 -0.00090229156
0001f0 8e 2d 44 3d db cc a4 3c 1c f4 50 3c d2 bb 97 3a
       0.047895007 0.020117214 0.012753513 0.001157636

action_model._continuous_distribution.log_sigma f4 [1, 2]
000000 78 ca 72 be bf 8d d5 be
       -0.23710048 -0.41709706

action_model._continuous_distribution.mu.weight f4 [2, 128]
000000 26 b8 5c bc 78 2a d7 3d 43 98 bb 3c d1 aa 9a 3c
       -0.013471639 0.10506147 0.022899752 0.01888028
000010 10 c8 ca 3c b3 ef 0a 3c d1 53 59 3d f3 cd de bc
       0.0247536 0.00848 0.05305845 -0.027197814
000020 b1 68 5d ba 44 31 4d 3d 4a 98 da 3b c0 6a 5f bc
       -0.0008446081 0.05009581 0.0066709863 -0.013636291
000030 9d a1 b7 bc 82 83 05 3b 18 01 69 3b 77 09 79 3b
       -0.02241593 0.0020372574 0.003555363 0.0038000026
000040 f0 d2 bd 3d ae 95 e7 b9 61 fe 42 3c ee 54 04 bd
       0.09268749 -0.00044171273 0.011901469 -0.032307558
000050 7e 97 f0 3c f4 6e 22 3c 0e 15 16 3d 3b 13 19 3d
       0.029369112 0.009914149 0.036641173 0.037371855
000060 fc a0 5e bd 59 5e 8b 3c 49 af 86 3c 73 4c e8 3d
       -0.054352745 0.017012762 0.016441004 0.113427065
000070 1a 8d 58 bb a4 12 a8 bc 54 2e 0d bd b6 b6 45 3d
       -0.0033043087 -0.020516701 -0.03446801 0.04826995
000080 d8 84 21 3d 1b 33 32 3d 95 69 15 3c 81 ed ea bc
       0.03943333 0.04350577 0.009119411 -0.028677704
000090 72 55 21 bc 96 3e fb bc 26 06 22 3d cf 90 f4 3c
       -0.009847032 -0.030669492 0.039556645 0.029854206
0000a0 bc bd e3 b9 16 f2 ca bb d4 6a 09 3c 40 6b 74 bc
       -0.00043438177 -0.0061934097 0.008387286 -0.0149181485
0000b0 c5 4e 8b bc d1 ac 33 3d c6 6c 43 bd 09 86 88 3d
       -0.017005334 0.043865982 -0.047711156 0.0666619
0000c0 4f ac a1 3d 90 59 42 3d 97 f7 ce bc 5a 32 7f bc
       0.078941934 0.047448695 -0.025264544 -0.01557597
0000d0 f3 39 59 bc 48 fc 37 3d e3 f7 d5 bc 54 01 b0 3c
       -0.013258445 0.04491833 -0.026119178 0.021485008
0000e0 00 2f b3 3d 28 5f 25 3d d4 34 03 3d 52 30 dc 3c
       0.08749199 0.04037395 0.032032803 0.02687851
0000f0 a8 9a 78 bc 58 be bb bc 88 c8 19 3c b0 ee a9 3c
       -0.015173592 -0.022917911 0.009386189 0.020743698
000100 db 3e e7 bc d9 5c ff 39 9f 7f b4 b9 3d 16 25 bd
       -0.028228214 0.00048706567 -0.0003442736 -0.04030441
000110 0b 92 a4 3d 80 b7 d5 bb 9f 56 f4 bc 79 a8 6e 3b
       0.08035668 -0.006522119 -0.02982646 0.0036416335
000120 74 5a 7b 3d c9 9c cd 3d 9f 98 2a bb 35 e5 0f 3e
       0.06136556 0.1003967 -0.002603091 0.1405228
000130 dd f1 b3 bc a1 a0 7c 3d e9 dd f8 3d 3b 4f 02 3c
       -0.021965915 0.061676625 0.12151701 0.00795346
000140 d6 a8 77 3d f2 2d a3 3a 6c db 89 3c 70 eb 19 bd
       0.06046375 0.0012449606 0.016828261 -0.037578046
000150 fc e0 88 3c e6 1a d2 3d b8 30 95 bb 6c fa a7 3d
       0.016708843 0.10259037 -0.004552927 0.08202061
000160 62 2b 25 bd af 69 13 3d 6f 5c 87 bc 13 f7 0c 3d
       -0.040324576 0.03598946 -0.016523568 0.034415316
000170 50 d8 27 bd c3 ea ca bc a2 54 d1 3d c8 47 1a 3b
       -0.040977776 -0.024770146 0.102212206 0.002354132
000180 85 be 59 bc c6 b0 b7 bc 99 55 14 bc c7 1e 46 3d
       -0.013290052 -0.02242316 -0.009053611 0.048369195
000190 ff 87 91 3d 82 b7 6c bd dc 64 06 3c c7 c0 70 ba
       0.07106017 -0.057792194 0.008202758 -0.00091839995
0001a0 45 00 09 3c 84 4d 19 3d df 7d 95 3d b5 89 d0 bc
       0.008361881 0.03742744 0.07299399 -0.025456289
0001b0 93 1b 8b 3d 06 02 4d bd d8 07 fb 3c 48 f8 a1 3c
       0.06792369 -0.050050758 0.030643389 0.01977171
0001c0 dd 6f be 3d a7 b3 61 3c 9a 7a 59 3d 27 07 51 3c
       0.0929868 0.013775743 0.053095438 0.012758053
0001d0 bd 38 5d bd e6 19 75 3d 0f ea f1 bc 24 89 8a 3d
       -0.054009188 0.05983915 -0.029530553 0.06764439
0001e0 d7 69 0d 3d 79 f5 25 3c 39 24 44 bc 49 81 ad 3d
       0.034524765 0.010129326 -0.011971527 0.08471925
0001f0 08 7f 7b bd e6 03 c1 3d 70 c3 c5 3c 91 56 a2 bb
       -0.061400443 0.09424572 0.024141043 -0.004954167
000200 7d 58 44 3d f1 d0 0a 3d 22 00 79 bc 8c 35 99 bc
       0.04793595 0.03389067 -0.015197786 -0.018702291
000210 96 6a 3e 3d e5 e1 47 3d ed 52 87 bd de 89 b5 3c
       0.046488367 0.048799414 -0.06607614 0.022160467
000220 e0 90 7f 3c 7f 84 e9 bc 96 7d 90 3c ad df a8 bd
       0.015598506 -0.028505562 0.017638009 -0.08245788
000230 80 83 43 bd dc c0 aa bd dc d1 ce 3c 23 31 82 bd
       -0.04773283 -0.08337566 0.025246553 -0.06357028
000240 8c 72 8f 3b fb 63 69 bd 81 e8 38 3d 77 1a 04 3d
       0.0043776687 -0.056980114 0.045143608 0.0322518
000250 ae 55 e4 bd 08 0e 1b 3d 52 f8 3f bd 62 76 6c 3c
       -0.111491546 0.037855178 -0.046867676 0.014432522
000260 de 73 cc 3c d7 bb 98 bd 54 35 d4 3b 71 90 8a bc
       0.024957594 -0.074577026 0.006476084 -0.016914578
000270 32 28 42 bd 02 64 15 3d 12 9d d5 3a 62 06 c6 3b
       -0.047401614 0.036472328 0.0016297421 0.0060432414
000280 21 ae 2c bc ca 89 41 3d 54 9a c2 bd bf 8e 93 3c
       -0.010539562 0.047250547 -0.09502092 0.018012403
000290 41 73 e0 3c ed 62 09 3d b6 a9 4f bd 39 36 79 3c
       0.027398707 0.03354161 -0.05069896 0.015210682
0002a0 1d 75 8a 3c 3c 71 60 3c 35 7a 02 3d 4a 2e 09 3d
       0.016901547 0.013698872 0.031854827 0.03349141
0002b0 89 e4 14 bd 49 6f a5 bd 6d 1a 03 3d d5 ea 88 bd
       -0.03635076 -0.080778666 0.032007623 -0.06685416
0002c0 db 6e 92 bd 86 55 50 bd 16 c8 06 3d ce d9 83 bc
       -0.0715005 -0.05086281 0.03290566 -0.016095068
0002d0 2b c2 15 3d 77 68 77 3d 8a 06 47 3d ab 51 37 3d
       0.036562126 0.06040236 0.04859022 0.04475562
0002e0 ce 95 1c bd 9b 2f bf 3c 51 ae 07 bd 6a 71 25 3d
       -0.038228802 0.02333813 -0.033125225 0.040391363
0002f0 c2 72 bc 3c 69 c7 94 3c 78 48 6f 3d a9 bd 22 3d
       0.02300394 0.018161492 0.05841872 0.039731655
000300 8a 7a 2a 3c c6 01 13 3b ce 54 d6 bd 49 70 c1 3c
       0.010405192 0.0022431477 -0.10465394 0.023613112
000310 13 d0 09 3d 33 53 33 3c af 5a 18 3d 1c ce 90 3d
       0.0336457 0.010945129 0.037195858 0.07070562
000320 e5 f2 17 bd dc 68 76 bd 04 2d 78 3c d2 8e ba bd
       -0.037096877 -0.060158595 0.015147451 -0.09109272
000330 38 16 86 bd 93 19 8c bd e3 da e8 3c bd 9f 49 bd
       -0.06547207 -0.068408154 0.028424686 -0.049224604
000340 30 96 eb bc 02 1b 8f 3b d3 79 e9 3c 9a 1d 76 bd
       -0.028758138 0.0043672333 0.028500473 -0.060086824
000350 b1 4b b4 bd be 07 0e bd 42 61 26 3d e4 e3 6a bd
       -0.088034995 -0.034675352 0.040620096 -0.05734624
000360 f9 e0 0f 3d f0 9c b5 3b 84 a0 92 bd af d2 1b 3d
       0.03512666 0.00554239 -0.07159522 0.03804272
000370 bf 5d 65 bc 5e 64 c6 3c 81 9f f3 bc a1 b5 93 bd
       -0.013999402 0.02421778 -0.029739143 -0.07212377
000380 dc ea 74 3c ff d4 94 3c f2 28 a2 3c 9a 42 8c bd
       0.014948573 0.01816797 0.019794915 -0.06848641
000390 2a 69 3f bd 00 0b 6d 3b b9 6b 7c bd cf 44 82 3c
       -0.04673115 0.0036169887 -0.06162617 0.015901951
0003a0 30 32 99 bd a6 cf fc 3c 82 28 5d 3d 0b ae 20 3d
       -0.07480276 0.030860733 0.05399371 0.03922848
0003b0 1c 23 1e bd 8c cd 21 3c 13 d7 80 3c b9 56 27 3d
       -0.0386077 0.009875666 0.015727555 0.04085419
0003c0 c8 ad 76 bd ae d9 36 3d eb 69 50 bd 30 59 2f bd
       -0.060224324 0.04464119 -0.05088226 -0.042809665
0003d0 7f 58 86 3d fe 13 0e bc a2 28 4c bc f4 be fc bd
       0.06559848 -0.008671759 -0.0124608595 -0.12341109
0003e0 0c d1 49 bd c1 fb 60 bd 12 20 82 3c 6c 2c 84 bd
       -0.04927163 -0.05492759 0.015884433 -0.06453785
0003f0 5b 6b d5 3c bc d2 49 bd 50 cd 9c 3c 36 4e 8c bd
       0.026052168 -0.049273238 0.01914087 -0.06850855

action_model._continuous_distribution.mu.bias f4 [2]
000000 d3 d9 d1 b9 d1 8f b4 3c
       -0.00040025878 0.022041233

onnx::Div_51 f4 [271]
000000 08 87 1b 3d 03 f4 1b 3d c7 60 1c 3d ec 5f a3 3d
       0.037970573 0.038074505 0.03817823 0.0797728
000010 fc 78 a3 3d f3 91 a3 3d 06 43 31 3e 16 47 31 3e
       0.0798206 0.07986822 0.17310724 0.17312273
000020 9b 4b 31 3e d8 dc 75 3e f5 de 75 3e 18 e1 75 3e
       0.17313997 0.24010026 0.24010833 0.24011648
000030 ac a9 8d 3e 44 aa 8d 3e cd aa 8d 3e 5d 7f 91 3e
       0.27668512 0.27668965 0.27669373 0.28417483
000040 ba 7f 91 3e 23 80 91 3e 90 0e 8d 3e e2 0e 8d 3e
       0.2841776 0.28418073 0.27550173 0.27550417
000050 39 0f 8d 3e 48 41 53 3e 1f 42 53 3e c8 42 53 3e
       0.27550676 0.20630372 0.20630692 0.20630944
000060 1e 40 2b 3e db 40 2b 3e 89 41 2b 3e dc 46 15 3e
       0.16723678 0.16723959 0.16724218 0.14577812
000070 a5 47 15 3e 9e 48 15 3e 9b bd 0d 3e bc be 0d 3e
       0.14578111 0.14578483 0.1384186 0.1384229
000080 77 bf 0d 3e d5 cc 0c 3e 7b cd 0c 3e fc cd 0c 3e
       0.1384257 0.13750012 0.1375026 0.13750452
000090 1a 41 0b 3e a9 41 0b 3e 37 42 0b 3e a3 7e 0a 3e
       0.13599053 0.13599266 0.13599478 0.1352487
0000a0 17 7f 0a 3e 98 7f 0a 3e c9 7f 08 3e 44 80 08 3e
       0.13525043 0.13525236 0.13329996 0.1333018
0000b0 b8 80 08 3e d9 b0 01 3e 40 b1 01 3e c6 b1 01 3e
       0.13330352 0.12665118 0.12665272 0.12665471
0000c0 27 d0 f2 3d 00 d1 f2 3d fa d1 f2 3d 48 c8 e5 3d
       0.11856108 0.1185627 0.11856456 0.11219841
0000d0 4e c9 e5 3d 37 ca e5 3d dd 77 db 3d da 78 db 3d
       0.112200364 0.1122021 0.107162215 0.1071641
0000e0 b8 79 db 3d 4c 43 d3 3d 33 44 d3 3d 16 45 d3 3d
       0.107165754 0.1031557 0.10315742 0.103159115
0000f0 09 b4 cc 3d e7 b4 cc 3d b1 b5 cc 3d c5 bf c7 3d
       0.099952765 0.09995442 0.099955924 0.09753374
000100 d2 c0 c7 3d ab c1 c7 3d 44 a6 c4 3d 32 a7 c4 3d
       0.097535744 0.09753736 0.09602025 0.096022025
000110 23 a8 c4 3d 57 55 c3 3d 57 56 c3 3d 65 57 c3 3d
       0.09602382 0.09537762 0.095379524 0.095381536
000120 df 39 c2 3d e2 3a c2 3d f9 3b c2 3d 34 8b c0 3d
       0.09483694 0.09483887 0.09484095 0.09401551
000130 4e 8c c0 3d 7c 8d c0 3d 7e 47 bf 3d b5 48 bf 3d
       0.09401761 0.09401986 0.09339808 0.0934004
000140 04 4a bf 3d 3d 65 be 3d 96 66 be 3d cd 67 be 3d
       0.09340289 0.092966534 0.092969105 0.09297142
000150 a8 e0 be 3d 1d e2 be 3d a3 e3 be 3d 57 3d c2 3d
       0.093201935 0.093204714 0.09320762 0.09484356
000160 e2 3e c2 3d 6c 40 c2 3d 32 17 c8 3d ad 18 c8 3d
       0.0948465 0.09484944 0.09770049 0.097703315
000170 59 1a c8 3d 13 4d d0 3d ad 4e d0 3d 68 50 d0 3d
       0.097706504 0.10170951 0.10171256 0.10171586
000180 77 3a db 3d 3b 3c db 3d be 3d db 3d e7 54 e9 3d
       0.10704511 0.107048474 0.10705136 0.11393147
000190 a5 56 e9 3d 62 58 e9 3d 18 2c fb 3d c6 2d fb 3d
       0.11393479 0.11393811 0.122642696 0.1226459
0001a0 7b 2f fb 3d 12 eb 08 3e 10 ec 08 3e ea ec 08 3e
       0.122649156 0.13370922 0.133713 0.13371626
0001b0 14 96 17 3e 00 97 17 3e ea 97 17 3e f3 a4 29 3e
       0.14803344 0.14803696 0.14804044 0.1656683
0001c0 f0 a5 29 3e e5 a6 29 3e 62 d0 36 3e 63 d1 36 3e
       0.16567206 0.16567571 0.17852929 0.17853312
0001d0 56 d2 36 3e e7 0f 43 3e b1 10 43 3e 88 11 43 3e
       0.17853674 0.19049035 0.19049336 0.19049656
0001e0 80 e6 42 3e fe e6 42 3e ae e7 42 3e 73 6c 46 3e
       0.19033241 0.19033429 0.19033691 0.19377308
0001f0 2e 6d 46 3e 0c 6e 46 3e 7b 89 67 3e 55 8a 67 3e
       0.19377586 0.19377917 0.22611038 0.22611363
000200 55 8b 67 3e 0a 33 9b 3e 83 33 9b 3e 0b 34 9b 3e
       0.22611745 0.30312377 0.30312738 0.30313143
000210 15 f8 ac 3e 9f f8 ac 3e 28 f9 ac 3e 2b f4 af 3e
       0.33783022 0.33783433 0.3378384 0.34365973
000220 b5 f4 af 3e 43 f5 af 3e 64 60 0c 3d a4 d9 0c 3d
       0.34366384 0.34366807 0.034271613 0.034387246
000230 65 52 0d 3d fa 1b fb 3c 29 2b fc 3c 38 39 fd 3c
       0.034502406 0.030652989 0.0307823 0.030911073
000240 90 87 bd 3c 3e f0 be 3c bb 56 c0 3c e8 d4 b9 3c
       0.02313593 0.023307916 0.023478856 0.02268453
000250 c2 44 bb 3c 4f b1 bc 3c d5 85 b6 3c 78 fc b7 3c
       0.022859935 0.023033766 0.022280613 0.022459254
000260 6d 70 b9 3c 67 15 b1 3c fe 96 b2 3c cd 15 b4 3c
       0.022636617 0.02161665 0.021800514 0.021983052
000270 70 51 a9 3c 64 e4 aa 3c 8f 74 ac 3c 04 4f a0 3c
       0.020668715 0.020860858 0.021051673 0.019568928
000280 a6 f8 a1 3c 6e 9e a3 3c 94 bb 99 3c 52 77 9b 3c
       0.019771885 0.019973006 0.018766202 0.018977795
000290 92 2e 9d 3c d6 26 93 3c 32 f6 94 3c 5c c0 96 3c
       0.019187246 0.017962854 0.018183801 0.018402271
0002a0 f1 a0 7d 3c 52 e9 80 3c e3 f9 82 3c 31 a9 3b 3c
       0.015480266 0.015736256 0.015988296 0.011453913
0002b0 c7 4b 41 3c a2 c5 46 3c 0f 7c 1a 3c de 48 21 3c
       0.011797852 0.01213208 0.009428992 0.009844033
0002c0 ab cf 27 3c 61 c7 f2 3b d7 f0 01 3c 66 f5 09 3c
       0.010242383 0.0074090217 0.007930956 0.008420324
0002d0 0c 11 a7 3b 11 0e bf 3b 23 5e d4 3b df b0 27 3b
       0.0050984677 0.0058305343 0.0064809485 0.00255876
0002e0 5c f8 79 3b 55 9a 9b 3b 4f 5b 97 3a 2b 39 48 3b
       0.0038142418 0.0047486224 0.0011547598 0.0030551653
0002f0 8f 6d 88 3b 4f 5b 97 3a 2b 39 48 3b 8f 6d 88 3b
       0.004163451 0.0011547598 0.0030551653 0.004163451
000300 4f 5b 97 3a 2b 39 48 3b 8f 6d 88 3b 4f 5b 97 3a
       0.0011547598 0.0030551653 0.004163451 0.0011547598
000310 2b 39 48 3b 8f 6d 88 3b 4f 5b 97 3a 2b 39 48 3b
       0.0030551653 0.004163451 0.0011547598 0.0030551653
000320 8f 6d 88 3b 4f 5b 97 3a 2b 39 48 3b 8f 6d 88 3b
       0.004163451 0.0011547598 0.0030551653 0.004163451
000330 87 28 b6 3a 6d 89 4e 3b ce c2 8a 3b 03 76 b7 3a
       0.0013897576 0.0031515018 0.0042346483 0.0013996962
000340 2c d3 4e 3b 40 de 8a 3b fa 01 b8 3a 3a f2 4e 3b
       0.0031558974 0.00423792 0.0014038675 0.0031577484
000350 d7 e9 8a 3b a9 4e b8 3a 4b 03 4f 3b 2f f0 8a 3b
       0.0042393017 0.0014061528 0.0031587656 0.004240058
000360 de 7e b8 3a 0a 0e 4f 3b 30 f4 8a 3b f6 e2 d0 3a
       0.0014075895 0.0031594061 0.004240535 0.001593678
000370 ab c4 54 3b 57 18 8d 3b 19 e7 e3 3a 97 97 59 3b
       0.0032465856 0.00430588 0.0017387598 0.0033201927
000380 44 ec 8e 3b c2 75 f9 3a ef 6c 5f 3b c9 27 91 3b
       0.004361661 0.0019032287 0.003409203 0.0044297916
000390 16 f5 05 3b 6e b4 64 3b 47 32 93 3b 32 a2 06 3b
       0.0020440272 0.0034897584 0.0044920775 0.0020543453
0003a0 fc 19 65 3b ba 59 93 3b 71 2b 07 3b b6 6a 65 3b
       0.0034958115 0.00449678 0.0020625258 0.0035006232
0003b0 28 79 93 3b 29 9a 07 3b 05 ac 65 3b 88 92 93 3b
       0.004500527 0.0020691252 0.0035045159 0.004503552
0003c0 3b 98 10 3b e9 17 6b 3b 00 b1 95 3b 15 fa 10 3b
       0.0022063393 0.0035872406 0.004568219 0.0022121717
0003d0 1e 54 6b 3b a3 c8 95 3b 04 85 84 3d d4 a1 84 3d
       0.0035908292 0.004571037 0.06470683 0.06476179
0003e0 52 be 84 3d d0 0b 2c 3e 60 0f 2c 3e 84 13 2c 3e
       0.06481613 0.16801381 0.1680274 0.1680432
0003f0 21 51 7a 3e 0f 53 7a 3e 55 55 7a 3e b5 a8 88 3e
       0.2444501 0.24445747 0.24446614 0.26691213
