results/test/Park90RC.onnx (onnx, 119209 bytes, 8 tensors)

network_body.observation_encoder.processors.0.normalizer.running_mean f4 [90]
0	0x3f7fe21a	0.9995438
1	0x3f7fe21a	0.9995438
2	0x3f7fe21a	0.9995438
3	0x3f7fe21a	0.9995438
4	0x3f7fe21a	0.9995438
5	0x3f7fe21a	0.9995438
6	0x3f7fe21a	0.9995438
7	0x3f7fe21a	0.9995438
8	0x3f7fe21a	0.9995438
9	0x3f7fe21a	0.9995438
10	0x3f7fe21a	0.9995438
11	0x3f7fe21a	0.9995438
12	0x3f7fe21a	0.9995438
13	0x3f7fe21a	0.9995438
14	0x3f7fe21a	0.9995438
15	0x3f7fe21a	0.9995438
16	0x3f7fe21a	0.9995438
17	0x3f7fe21a	0.9995438
18	0x3f7fe21a	0.9995438
19	0x3f7fe21a	0.9995438
20	0x3f7fe21a	0.9995438
21	0x3f7fe21a	0.9995438
22	0x3f7fe21a	0.9995438
23	0x3f7fe21a	0.9995438
24	0x3f7fe21a	0.9995438
25	0x3f7fe21a	0.9995438
26	0x3f7fe21a	0.9995438
27	0x3f7fe21a	0.9995438
28	0x3f7fe21a	0.9995438
29	0x3f7fe21a	0.9995438
30	0x3f7fe21a	0.9995438
31	0x3f7fe21a	0.9995438
32	0x3f7fe21a	0.9995438
33	0x3f7fe21a	0.9995438
34	0x3f7fe21a	0.9995438
35	0x3f7fe21a	0.9995438
36	0x3f7fe21a	0.9995438
37	0x3f7fe21a	0.9995438
38	0x3f7fe21a	0.9995438
39	0x3f7fe21a	0.9995438
40	0x3f7fe21a	0.9995438
41	0x3f7fe21a	0.9995438
42	0x3f7fe21a	0.9995438
43	0x3f7fe21a	0.9995438
44	0x3f7fe21a	0.9995438
45	0x3f7fe21a	0.9995438
46	0x3f7fe21a	0.9995438
47	0x3f7fe21a	0.9995438
48	0x3f7fe21a	0.9995438
49	0x3f7fe21a	0.9995438
50	0x3f7fe21a	0.9995438
51	0x3f7d0b6b	0.9884555
52	0x3f775a94	0.96622586
53	0x3f72e199	0.94875485
54	0x3f6f328c	0.93436503
55	0x3f6a5317	0.91533035
56	0x3f65e382	0.89800274
57	0x3f62500a	0.8840338
58	0x3f5f68b3	0.87269133
59	0x3f5c73d9	0.8611427
60	0x3f589a14	0.84610105
61	0x3f500275	0.8125375
62	0x3f47e104	0.7807772
63	0x3f419a4e	0.75626075
64	0x3f427ad8	0.75968695
65	0x3f568a72	0.83805
66	0x3f54024c	0.82816005
67	0x3f61b28f	0.88163084
68	0x3f5d274e	0.863881
69	0x3f50864a	0.8145491
70	0x3f47f634	0.7811005
71	0x3f465e1e	0.7748736
72	0x3f504ac6	0.81364095
73	0x3f53f1dc	0.82790923
74	0x3f57acf2	0.8424827
75	0x3f4c2d66	0.7975677
76	0x3f51d7fa	0.8197018
77	0x3f5bf97d	0.85927564
78	0x3f69500e	0.9113778
79	0x3f73b0dd	0.95191747
80	0x3f777220	0.96658516
81	0x3f7b9a3c	0.9828222
82	0x3f7f7111	0.997819
83	0x3f7fe21a	0.9995438
84	0x3f7fe21a	0.9995438
85	0x3f7fe21a	0.9995438
86	0x3f7fe21a	0.9995438
87	0x3f7fe21a	0.9995438
88	0x3f7fe21a	0.9995438
89	0x3f7fe21a	0.9995438

network_body._body_endoder.seq_layers.0.weight f4 [128, 90]
0	0xbcbd23dc	-0.023088388
1	0xbde4eb7f	-0.1117773
2	0x3cdbf758	0.026851341
3	0x3d3270e0	0.043564677
4	0xbd80bba9	-0.06285793
5	0x3d247c7d	0.040157784
6	0x3d9c8c5c	0.07643959
7	0x3e6a8172	0.22900942
8	0x3bb2b46e	0.005453638
9	0xbb85e91f	-0.004086628
10	0x3daea7b9	0.08528084
11	0xbdddb541	-0.10825587
12	0x3d1d5e6e	0.038420133
13	0xbe1f6880	-0.15567207
14	0xbd5f8b6c	-0.054576322
15	0x3e133721	0.14376499
16	0x3d5fde54	0.054655388
17	0x3e81ac44	0.2532674
18	0x3de3164d	0.11088238
19	0x3d5c9a55	0.05385812
20	0x3db551e3	0.08853509
21	0x3bd743ca	0.0065693604
22	0xbc5eb348	-0.013592549
23	0xbd7908a9	-0.060799275
24	0x3d88c2f8	0.06677812
25	0xbd8f5097	-0.06997793
26	0x3e3ac21e	0.18238112
27	0xbd0cec21	-0.034404878
28	0xbdd95ddb	-0.10613605
29	0x3da9264e	0.08259259
30	0x3bc3e4d4	0.005978206
31	0xbd0cfde2	-0.03442181
32	0x3d8f6ed7	0.07003563
33	0x3dbca1bb	0.09210535
34	0xbd2e3e6c	-0.04254
35	0x3cd0dd83	0.02549625
36	0xbd15a0f0	-0.036530435
37	0xbe4b6719	-0.19863547
38	0x3cc8f340	0.024530053
39	0x3db8d1e6	0.0902441
40	0x3c9a6aa9	0.018849688
41	0xbde6f161	-0.11276508
42	0xbd62ac62	-0.05534018
43	0xbdce5a20	-0.10075784
44	0xbc2f5416	-0.0107012
45	0xbddd83a7	-0.10816126
46	0x3c5ae358	0.013359867
47	0x3e191872	0.14950731
48	0xbe18b762	-0.14913705
49	0xbe168a44	-0.14701182
50	0xbdb87e05	-0.09008411
51	0xbddc0090	-0.10742295
52	0xbd2b25d8	-0.041784137
53	0x3e317d33	0.17332916
54	0xbd040ef1	-0.03224081
55	0xbe42ebdf	-0.1903529
56	0xbd5e9cac	-0.054348633
57	0x3e83ac83	0.25717553
58	0xbbb65292	-0.0055640424
59	0x3e0e6b96	0.13908228
60	0x3df3d02e	0.119049415
61	0x3cb7a809	0.022418993
62	0xbdba3726	-0.0909255
63	0xbd6b38c0	-0.057427168
64	0x3e204679	0.15651883
65	0x3d275fd8	0.040862888
66	0xbdd69582	-0.10477735
67	0x3d0d4d1a	0.034497358
68	0x3c428c98	0.0118743405
69	0xbc920baa	-0.017827827
70	0xbce7954d	-0.028269434
71	0xbc817773	-0.015804028
72	0xbc8161a8	-0.015793636
73	0xbcc6cfb0	-0.024268955
74	0xbc0a914c	-0.008457493
75	0x3db5f5d1	0.088847764
76	0x3e4f8860	0.20266867
77	0x3cc3d9eb	0.023907622
78	0xbd02e446	-0.03195598
79	0x3c1548d1	0.009111599
80	0xbcb92492	-0.022600446
81	0x3dd7c2d0	0.105352044
82	0xbd9c0a6d	-0.07619176
83	0x3e6853cc	0.22688216
84	0xbe101660	-0.14071035
85	0xbd8c79eb	-0.068591915
86	0x3d1548ba	0.03644631
87	0x3e165ad1	0.14683081
88	0xbdf72a05	-0.120685615
89	0xbda23004	-0.079193145
90	0x3d369059	0.044571254
91	0x3e14d389	0.1453382
92	0xbdb37e2f	-0.08764302
93	0xbc81af7c	-0.015830748
94	0x3da722b6	0.081609175
95	0x3d71d966	0.059045218
96	0x3dff462d	0.12464557
97	0x3d428645	0.04749133
98	0xbc8d1612	-0.017222438
99	0xbe68e8f3	-0.22745113
100	0x3cf80a64	0.030278392
101	0xbe389433	-0.18025284
102	0x3cd02215	0.025406877
103	0x3bf6fea7	0.007537681
104	0x3dcf6e1b	0.10128423
105	0xbdc56314	-0.09638038
106	0xbe2d9a83	-0.16953473
107	0x3d9b9e00	0.075984955
108	0x3da7bddf	0.08190512
109	0x3e4bd75f	0.19906376
110	0xbd57d022	-0.052688725
111	0xbdbc6ce5	-0.092004575
112	0x3db15268	0.08658296
113	0xbda977a8	-0.08274776
114	0xbe1f93aa	-0.15583673
115	0x3d8492b5	0.06473295
116	0x3e33af63	0.17547373
117	0x3d1ded9c	0.03855668
118	0xbe09818a	-0.13428321
119	0xbdae8c84	-0.08522895
120	0xbe3e9f4a	-0.18615451
121	0x3d9238fa	0.07139774
122	0x3c61d04f	0.013782575
123	0x3c0846f6	0.0083177
124	0xbe007e6c	-0.12548226
125	0x3d922a3e	0.07136963
126	0x3c7c4fb1	0.015399859
127	0x3d58a1fc	0.052888855
128	0x3e0e7605	0.13912208
129	0xbde91be4	-0.11382273
130	0x3e03db0d	0.1287653
131	0xbd6fd6bf	-0.058554407
132	0xbe7b8337	-0.24561773
133	0xbc713bf2	-0.014723765
134	0x3e0349ab	0.12821071
135	0x3d601b9c	0.05471383
136	0x3e666a4a	0.22501484
137	0x3c80dba4	0.015729733
138	0xbd4409b0	-0.0478608
139	0xbb21994f	-0.002465803
140	0x3d634a0c	0.05549054
141	0xbd71919a	-0.058976747
142	0x3d2791fe	0.040910713
143	0xbe27aa83	-0.16373639
144	0x3ce55e1d	0.027998978
145	0xbde8bcd5	-0.11364142
146	0x3e2e2b49	0.170087
147	0xbe1f6bf4	-0.15568525
148	0x3d823a43	0.06358769
149	0x3c82c1fb	0.015961638
150	0xbc65d1e5	-0.014027094
151	0x3d42e82c	0.047584698
152	0x3d7404b9	0.059574816
153	0xbe10f316	-0.1415523
154	0x3b9ddeb2	0.004817807
155	0xbdf23220	-0.11825967
156	0x3c7e097b	0.01550519
157	0xbe090658	-0.13381326
158	0x3d9cc846	0.076553866
159	0xbe13b7f2	-0.14425638
160	0x3c0ff8a7	0.008787311
161	0x3e224587	0.15846835
162	0x3d4c90bb	0.049942713
163	0xbe2ad4c0	-0.1668272
164	0x3e0fd551	0.14046218
165	0x3daa4b87	0.08315187
166	0x3d7eb3b0	0.062183082
167	0xbe534c62	-0.20634606
168	0x3c9a3ac8	0.018826857
169	0x3d3b3266	0.04570236
170	0xbe42c0d1	-0.19018866
171	0x3e01c4dd	0.12672754
172	0xbdc6eda5	-0.09713296
173	0x3d4ff2f4	0.050768808
174	0x3e150e14	0.14556152
175	0xbd16a41b	-0.036777597
176	0xbcb3429a	-0.021882344
177	0xbdc7e35b	-0.097601615
178	0x3e12f5a4	0.14351517
179	0x3e2a1944	0.166112
180	0xbd0677fa	-0.032829262
181	0xbd596540	-0.053075075
182	0xbb66d0ed	-0.0035219744
183	0x3c186115	0.00930049
184	0xbd5977fe	-0.05309295
185	0xbdf418c3	-0.119187854
186	0xbe4c22ea	-0.19935194
187	0x3d55c9f2	0.052194543
188	0x3da70ede	0.081571326
189	0x3d05f17a	0.032700993
190	0x3d4452af	0.047930416
191	0xbbec876f	-0.0072182934
192	0x3cbdae03	0.023154264
193	0x3dafbede	0.08581327
194	0x3e672f5c	0.2257666
195	0x3e2c82fb	0.1684684
196	0x3d0e41ad	0.034730602
197	0xbe287895	-0.16452248
198	0xbdbaa550	-0.09113562
199	0xbdab4881	-0.083634384
200	0x3d9cbbf0	0.07653034
201	0x3d6052a9	0.05476633
202	0x3e22081c	0.15823406
203	0x3ceb84e9	0.0287499
204	0x3dd5f997	0.10447996
205	0xbd31fb88	-0.04345277
206	0x3df08d52	0.11745705
207	0xbddc2ee4	-0.10751131
208	0x3c08ecaf	0.008357211
209	0xbc1878db	-0.009306158
210	0xbdaf660a	-0.08564384
211	0xbd40e0f3	-0.04708953
212	0xbca8f5b5	-0.020624975
213	0xbe1d68f3	-0.15372066
214	0x3c5d112d	0.013492865
215	0xbd74b95f	-0.059747096
216	0xbdec7a19	-0.11546726
217	0xbddf6803	-0.109085105
218	0xbcbf104c	-0.0233232
219	0x3d1049ea	0.03522674
220	0x3d7fb047	0.06242397
221	0xbce7408f	-0.028229026
222	0x3e4448a6	0.19168338
223	0x3d2f918c	0.042863414
224	0x3c9d15a3	0.019175356
225	0x3e150cbc	0.14555639
226	0xbdb24a71	-0.08705605
227	0x3d5dcbb1	0.054149333
228	0xbd261446	-0.040546678
229	0x3b0832fc	0.0020782342
230	0xbe9428da	-0.28937417
231	0x3d8f39cd	0.069934465
232	0xbd965618	-0.0734064
233	0xbd00aa27	-0.03141227
234	0xbd28adaa	-0.041181244
235	0x3d9f5ff1	0.07781971
236	0xbccc241e	-0.024919566
237	0x3de8f039	0.11373944
238	0xba385fe1	-0.000703333
239	0xbd83d143	-0.06436398
240	0xbd21b67c	-0.03948067
241	0xbe348a43	-0.17630868
242	0x3e340997	0.17581783
243	0x3ca36fa3	0.019950693
244	0xbdd991d6	-0.10623519
245	0x3d5cf3cb	0.053943437
246	0xbc949d7d	-0.018141503
247	0xbd5311a7	-0.051530506
248	0xbd8a8620	-0.067638636
249	0xbc85b5b6	-0.016321998
250	0x3d2173d3	0.0394171
251	0x3d818dba	0.0632586
252	0xbd97714c	-0.073946565
253	0xbda9fcac	-0.083001465
254	0x3d3cfa9d	0.04613744
255	0xbdde91b6	-0.10867636

network_body._body_endoder.seq_layers.0.bias f4 [128]
0	0x00000000	0.0
1	0x00000000	0.0
2	0x00000000	0.0
3	0x00000000	0.0
4	0x00000000	0.0
5	0x00000000	0.0
6	0x00000000	0.0
7	0x00000000	0.0
8	0x00000000	0.0
9	0x00000000	0.0
10	0x00000000	0.0
11	0x00000000	0.0
12	0x00000000	0.0
13	0x00000000	0.0
14	0x00000000	0.0
15	0x00000000	0.0
16	0x00000000	0.0
17	0x00000000	0.0
18	0x00000000	0.0
19	0x00000000	0.0
20	0x00000000	0.0
21	0x00000000	0.0
22	0x00000000	0.0
23	0x00000000	0.0
24	0x00000000	0.0
25	0x00000000	0.0
26	0x00000000	0.0
27	0x00000000	0.0
28	0x00000000	0.0
29	0x00000000	0.0
30	0x00000000	0.0
31	0x00000000	0.0
32	0x00000000	0.0
33	0x00000000	0.0
34	0x00000000	0.0
35	0x00000000	0.0
36	0x00000000	0.0
37	0x00000000	0.0
38	0x00000000	0.0
39	0x00000000	0.0
40	0x00000000	0.0
41	0x00000000	0.0
42	0x00000000	0.0
43	0x00000000	0.0
44	0x00000000	0.0
45	0x00000000	0.0
46	0x00000000	0.0
47	0x00000000	0.0
48	0x00000000	0.0
49	0x00000000	0.0
50	0x00000000	0.0
51	0x00000000	0.0
52	0x00000000	0.0
53	0x00000000	0.0
54	0x00000000	0.0
55	0x00000000	0.0
56	0x00000000	0.0
57	0x00000000	0.0
58	0x00000000	0.0
59	0x00000000	0.0
60	0x00000000	0.0
61	0x00000000	0.0
62	0x00000000	0.0
63	0x00000000	0.0
64	0x00000000	0.0
65	0x00000000	0.0
66	0x00000000	0.0
67	0x00000000	0.0
68	0x00000000	0.0
69	0x00000000	0.0
70	0x00000000	0.0
71	0x00000000	0.0
72	0x00000000	0.0
73	0x00000000	0.0
74	0x00000000	0.0
75	0x00000000	0.0
76	0x00000000	0.0
77	0x00000000	0.0
78	0x00000000	0.0
79	0x00000000	0.0
80	0x00000000	0.0
81	0x00000000	0.0
82	0x00000000	0.0
83	0x00000000	0.0
84	0x00000000	0.0
85	0x00000000	0.0
86	0x00000000	0.0
87	0x00000000	0.0
88	0x00000000	0.0
89	0x00000000	0.0
90	0x00000000	0.0
91	0x00000000	0.0
92	0x00000000	0.0
93	0x00000000	0.0
94	0x00000000	0.0
95	0x00000000	0.0
96	0x00000000	0.0
97	0x00000000	0.0
98	0x00000000	0.0
99	0x00000000	0.0
100	0x00000000	0.0
101	0x00000000	0.0
102	0x00000000	0.0
103	0x00000000	0.0
104	0x00000000	0.0
105	0x00000000	0.0
106	0x00000000	0.0
107	0x00000000	0.0
108	0x00000000	0.0
109	0x00000000	0.0
110	0x00000000	0.0
111	0x00000000	0.0
112	0x00000000	0.0
113	0x00000000	0.0
114	0x00000000	0.0
115	0x00000000	0.0
116	0x00000000	0.0
117	0x00000000	0.0
118	0x00000000	0.0
119	0x00000000	0.0
120	0x00000000	0.0
121	0x00000000	0.0
122	0x00000000	0.0
123	0x00000000	0.0
124	0x00000000	0.0
125	0x00000000	0.0
126	0x00000000	0.0
127	0x00000000	0.0

network_body._body_endoder.seq_layers.2.weight f4 [128, 128]
0	0xbdf3d541	-0.11905909
1	0x39d32f95	0.00040280508
2	0xbd92360c	-0.07139215
3	0xbe041749	-0.12899508
4	0x3e328b9a	0.17436066
5	0xbd952fe3	-0.07284524
6	0x3e33bdc5	0.1755286
7	0xbd9ca4dd	-0.07648633
8	0xbd15c098	-0.036560625
9	0x3d6c23b9	0.057651255
10	0xbda3f5f0	-0.08005893
11	0xbd29c69a	-0.041449167
12	0x3db5e402	0.0888138
13	0x3dd12313	0.10211768
14	0x3c29aa3b	0.0103555275
15	0x3d39b999	0.045343015
16	0xbcd78a58	-0.026311085
17	0xbd23c7a5	-0.039985318
18	0xbdcc8dc8	-0.0998798
19	0x3ba9e7b3	0.0051850914
20	0x3e519aae	0.20469162
21	0xbd4aa3fd	-0.049472798
22	0x3d38b9fa	0.045099236
23	0x3d9176e3	0.07102754
24	0xbcac4ea3	-0.02103359
25	0xbe11962a	-0.1421744
26	0xbd889580	-0.0666914
27	0xbc964cda	-0.018347193
28	0x3ddfe335	0.10932008
29	0x3e28789e	0.16452262
30	0x3d932fef	0.07186877
31	0xbe104c2c	-0.14091557
32	0xbca9112d	-0.020638073
33	0x3da769c1	0.08174468
34	0x3e16826f	0.14698194
35	0xbad10409	-0.0015946637
36	0x3e146746	0.1449252
37	0x3d8ed583	0.06974318
38	0x3dad9ed3	0.08477559
39	0xbe1dfb66	-0.15427932
40	0xbdc523e8	-0.09625989
41	0x3e37af02	0.17937854
42	0x3e0fd8b8	0.14047515
43	0xbcac7e30	-0.021056265
44	0x3d6e1dde	0.058133952
45	0xbbb58fe2	-0.005540834
46	0x3d8fd7f7	0.07023614
47	0x3c5aa246	0.013344353
48	0x3d0aede9	0.033918295
49	0xbd2c66ee	-0.04209035
50	0xbe3e70b2	-0.18597677
51	0xbba08c68	-0.00489955
52	0x3c5c0390	0.013428584
53	0x3e0c25ad	0.13686247
54	0xbd8443c5	-0.064582385
55	0x3b3c8fc4	0.0028772214
56	0xbde6c3c5	-0.11267809
57	0x3dc681da	0.09692736
58	0xbcef39b9	-0.029202329
59	0x3d848f6c	0.06472668
60	0x3cd66eb4	0.026175834
61	0x3cefbe3e	0.02926552
62	0x3da1a1ed	0.07892213
63	0x3e1e1edb	0.15441458
64	0x3da47809	0.080307074
65	0xbd9fd782	-0.07804777
66	0x3babe63a	0.005245951
67	0xbde2df97	-0.11077803
68	0x3def4bc8	0.11684376
69	0x3d9a6c90	0.07540238
70	0xbd46ce0e	-0.048536353
71	0xbdf93f40	-0.12170267
72	0x3d81045b	0.06299659
73	0x3c4c807f	0.012481808
74	0xbc51b06d	-0.012798411
75	0xbcd011ec	-0.02539917
76	0x3dbf86af	0.09351861
77	0x3dd89f81	0.10577298
78	0xbd3a7056	-0.04551729
79	0x3e0c813d	0.13721175
80	0xbb7f1c22	-0.003892668
81	0x3c9358a9	0.017986612
82	0x3d8f2dc8	0.06991154
83	0x3b2edafc	0.0026680818
84	0xb9d7304d	-0.00041043982
85	0xbd52e9cb	-0.051492494
86	0xbe0891f9	-0.13336934
87	0x3e115df0	0.1419599
88	0x3e2612da	0.16218129
89	0x3d417452	0.047230072
90	0xbd522db8	-0.051313132
91	0x3d954834	0.07289162
92	0x3e42160d	0.18953724
93	0xbc5d0960	-0.013491005
94	0xbe0bd214	-0.13654357
95	0xbda87943	-0.08226254
96	0x3d8fcf1f	0.07021927
97	0x3cc307f8	0.02380751
98	0xbdf67935	-0.12034837
99	0xbda2a13d	-0.0794091
100	0x3d862c52	0.06551422
101	0x3bb1c53c	0.0054251235
102	0xbcdc1f3a	-0.026870359
103	0x3dae8033	0.08520546
104	0x3d30ead5	0.043192703
105	0xbd50cb0c	-0.05097489
106	0xbd3279ed	-0.04357331
107	0xbdc78184	-0.097415
108	0x3cce6e77	0.025199158
109	0xbd1b714a	-0.037949838
110	0xbbfde2d7	-0.0077479887
111	0x3e1eae23	0.15496115
112	0x3bdae10c	0.0066796597
113	0xbe1c7525	-0.15279062
114	0xbd7806ca	-0.06055335
115	0x3d0faa6f	0.035074648
116	0xbd73d50a	-0.05952934
117	0xbc992168	-0.018692687
118	0x3d95c526	0.07312994
119	0x3c8cc99f	0.017185984
120	0xbcdf1678	-0.027232394
121	0xbd49eba3	-0.049296986
122	0xbdbdbd95	-0.092646755
123	0xbdcd9205	-0.10037617
124	0xbcb73931	-0.022366138
125	0x3c89153c	0.016733758
126	0x3b8bc562	0.004265473
127	0xbc8309d9	-0.015995907
128	0xbe393bc7	-0.1808921
129	0x3beb33e9	0.007177819
130	0x3e21868d	0.15773983
131	0x3b87a425	0.0041394406
132	0xbd77b259	-0.06047282
133	0xbe71e90d	-0.23624058
134	0xbce70395	-0.02819995
135	0xbe020957	-0.12698875
136	0x3d4cca47	0.049997594
137	0xbd6ebbcd	-0.05828457
138	0x3dfe0744	0.124037296
139	0x3d6c6241	0.05771089
140	0x3dbf21bf	0.093326084
141	0x3e27da23	0.16391806
142	0xbd69b75d	-0.057059634
143	0x3d4fb962	0.050713904
144	0xbd9e988f	-0.07743942
145	0x3b86d593	0.0041148155
146	0xbe300c72	-0.17192248
147	0x3cda049a	0.026613522
148	0xbe063d9e	-0.13109443
149	0xbe14731a	-0.14497033
150	0x3e371fc8	0.17883217
151	0x3c927d19	0.017881917
152	0x3b9ce6f5	0.0047882744
153	0xbd1eb45e	-0.03874623
154	0x3d84d2f5	0.06485549
155	0xbd1f6022	-0.03891004
156	0xbd0fc87b	-0.035103302
157	0xbe1bfb18	-0.15232503
158	0xb9386ec3	-0.0001758887
159	0x3986ca46	0.00025709177
160	0x3df4a8ce	0.119462594
161	0xbe7143fb	-0.23561089
162	0xbd309111	-0.043107096
163	0x3de078e3	0.10960557
164	0xbdead6a7	-0.11466723
165	0xbdd55405	-0.10416416
166	0x3e3b2bff	0.18278502
167	0xbd88ffa4	-0.066893846
168	0x3d8202f1	0.06348217
169	0x38975639	7.216301e-05
170	0x3e6c6cf0	0.23088431
171	0xbb982a95	-0.004643748
172	0xbdb861f8	-0.09003061
173	0xbc39be39	-0.0113368565
174	0xbd586e3c	-0.052839503
175	0x3d420fa7	0.04737821
176	0xbda0cf87	-0.07852083
177	0xbd3d3b1d	-0.046198953
178	0xbcb58f1f	-0.022162972
179	0xbe05221e	-0.13001296
180	0x3de04e2e	0.109524116
181	0x3cf7b89a	0.030239392
182	0x3dd53247	0.1040998
183	0xbc87f886	-0.016597997
184	0x3c2ffe80	0.01074183
185	0xbd85f1df	-0.06540274
186	0x3c9f4d66	0.019446086
187	0x3e2996a8	0.16561377
188	0x3d89555a	0.06705733
189	0x3dac7621	0.08420969
190	0xbcec81c3	-0.028870469
191	0x3cc4a37d	0.024003739
192	0xbda49e0a	-0.08037956
193	0xbe0fe387	-0.14051639
194	0x3db4544a	0.08805139
195	0xbd8ebbe6	-0.069694325
196	0xbd85dd35	-0.065363325
197	0xbbd73128	-0.006567139
198	0xbdcc0fd9	-0.0996396
199	0xbba811f8	-0.005129095
200	0xbd7b7788	-0.06139329
201	0x3bebc3ba	0.0071949633
202	0xbe0588ac	-0.13040417
203	0xbd0fd0fd	-0.035111416
204	0xbdad848d	-0.08472548
205	0xbdb468c2	-0.088090435
206	0x3d910293	0.07080569
207	0xbdc30e7d	-0.09524248
208	0x3dcaa923	0.098955415
209	0xbd828dab	-0.06374677
210	0xbdc85728	-0.09782249
211	0xbd97c59c	-0.07410738
212	0xbd758ff9	-0.059951756
213	0xbd65a934	-0.056069568
214	0xbd77a877	-0.060463395
215	0x3bed1af2	0.007235878
216	0x3d1f22ad	0.03885143
217	0xbe0c6367	-0.13709794
218	0x3c048777	0.008088938
219	0xbd8a87de	-0.06764196
220	0x3b61d323	0.0034458123
221	0x3d6891fd	0.05677985
222	0xbc6829e2	-0.014170142
223	0xbe1d61c7	-0.1536933
224	0x3da7f979	0.0820188
225	0x3d96fd5f	0.073725455
226	0x3e008643	0.12551217
227	0xbdca62cd	-0.09882126
228	0xbbc82faf	-0.0061092
229	0xbe25a7dc	-0.16177315
230	0xbd13d64f	-0.036093052
231	0x3d314729	0.043280754
232	0xbdc6bfd8	-0.0970456
233	0x3e12a2c3	0.14319901
234	0xbe41ea8b	-0.18937127
235	0x3ddb9b34	0.10722962
236	0x3cc9111d	0.024544293
237	0x3e1af0e6	0.15130958
238	0xbd78e459	-0.060764644
239	0x3df3cfeb	0.119048916
240	0x3df55c3f	0.11980485
241	0x3cdcd905	0.026958952
242	0x3d2f6f60	0.042830825
243	0x3e16c0c5	0.14721973
244	0xbcc3239a	-0.023820687
245	0xbdb8e30c	-0.09027681
246	0xbc3e5a3f	-0.011618196
247	0xbd987c0f	-0.07445537
248	0xbe0af995	-0.1357177
249	0x3d0e1faf	0.034698185
250	0xbe0f39ae	-0.13986847
251	0x3cdc5536	0.0268961
252	0x3d32ddca	0.043668546
253	0x3d95e165	0.07318381
254	0xbd8ae59b	-0.06782075
255	0xbd366703	-0.044531833

action_model._continuous_distribution.log_sigma f4 [1, 2]
0	0x00000000	0.0
1	0x00000000	0.0

action_model._continuous_distribution.mu.weight f4 [2, 128]
0	0x3b779ba8	0.0037781987
1	0x3d3cf303	0.04613019
2	0xbb3fc709	-0.0029262921
3	0xbbeb7e78	-0.007186707
4	0x3c4bf25e	0.012447922
5	0x3c19fb48	0.009398289
6	0x3c50841d	0.012726811
7	0x3bbfcd0c	0.005853301
8	0xbb96c772	-0.0046014125
9	0xbb585ae5	-0.0033013162
10	0x3c111e33	0.008857298
11	0x3c43937b	0.011937018
12	0x3d1e1c67	0.038601305
13	0x3c367835	0.011137058
14	0xbcb489dc	-0.022038393
15	0x3a0f3594	0.0005463001
16	0xbcc89cd2	-0.02448884
17	0x3b3f72f4	0.0029212805
18	0xbc987c0a	-0.018613834
19	0xbc06bab7	-0.008223227
20	0xbd4322a9	-0.047640476
21	0xb7ed50a2	-2.829015e-05
22	0x3c7c61a7	0.0154041415
23	0x3c0ed5d7	0.008717976
24	0x3cf42998	0.02980499
25	0x3c0d91e5	0.008640741
26	0x3c6232c5	0.01380605
27	0x3c17cea4	0.009265576
28	0x3973db73	0.00023256037
29	0xbc1e42fe	-0.009659527
30	0xbc2979e0	-0.010343999
31	0xbb873808	-0.0041265525
32	0xbce5ec00	-0.028066635
33	0x3c238bc5	0.009982054
34	0x3af448b3	0.0018637389
35	0x3bf65243	0.0075171306
36	0xbcbd4463	-0.023103898
37	0xbc2e8ab0	-0.010653183
38	0xbbddf6e5	-0.006773817
39	0x3d19b1c8	0.03752306
40	0x3cca8025	0.024719307
41	0x3c90478a	0.017612237
42	0xbc63908b	-0.013889442
43	0x3ccfdd9f	0.025374232
44	0xbb31cab6	-0.0027128882
45	0x3c70f145	0.014705961
46	0x3c52feb7	0.012878112
47	0x3c5b00fa	0.013366932
48	0xbcd8e7b3	-0.02647767
49	0xbc643217	-0.013927958
50	0xbd0e49c5	-0.03473832
51	0xbca10bff	-0.01965904
52	0x3cde95f8	0.02717112
53	0xbab91029	-0.0014119196
54	0xbc69f8ff	-0.014280557
55	0x3cd1cfea	0.025611836
56	0x3cb804b7	0.022463186
57	0xbab93bac	-0.0014132163
58	0xbc8a96cc	-0.016917609
59	0x3c4249ef	0.011858447
60	0xbc49c6d9	-0.012315475
61	0xbc86eeeb	-0.016471347
62	0x3cc6b862	0.024257842
63	0xbbeaaccd	-0.0071617127
64	0x3c86f974	0.01647637
65	0x3c7f0cf5	0.015567054
66	0xbbe4dadf	-0.0069840993
67	0x3cb6062a	0.022219736
68	0x3bd0f64d	0.0063770176
69	0x3c8aa840	0.016925931
70	0x3be03e60	0.006843373
71	0xbbfe80a8	-0.007766802
72	0x3c8cb10d	0.017174268
73	0x38587af5	5.1612926e-05
74	0x3a4d5767	0.00078331534
75	0x3b2e8f99	0.0026635884
76	0xbc8b082a	-0.016971666
77	0x3c563b7f	0.013075708
78	0xbb100259	-0.0021974056
79	0xbc887b23	-0.016660279
80	0xbce3d902	-0.027813438
81	0xbc971811	-0.018444093
82	0xbc5bab95	-0.013407608
83	0x3bda5c80	0.006663859
84	0xbcec347b	-0.028833618
85	0xbc4dbcc8	-0.012557216
86	0x3babb077	0.005239542
87	0xbb65ad8a	-0.0035046064
88	0x3b81bc97	0.0039592492
89	0xbd2cecfa	-0.042218186
90	0x3ce64bed	0.028112376
91	0x3baf2445	0.0053449
92	0x3ca3adfe	0.019980427
93	0xb8a684fd	-7.940268e-05
94	0xbc8c0066	-0.017090034
95	0xbb1dd1fb	-0.0024081457
96	0x3c05b0ac	0.008159798
97	0x3bfc4ac0	0.0076993406
98	0xbb1c01cc	-0.0023804782
99	0x3bec34dd	0.00720845
100	0x3d111c13	0.035427164
101	0xbc90ff37	-0.01769982
102	0xbc41365d	-0.011792746
103	0xbba085df	-0.004898771
104	0x3d057e60	0.032591224
105	0xbc901242	-0.017586831
106	0x3949a89b	0.00019231664
107	0xbb45b323	-0.0030166588
108	0x3c8dde16	0.017317813
109	0xbc1e61c8	-0.009666868
110	0xbcc53ef9	-0.02407788
111	0xbbc10f0a	-0.0058916854
112	0xbc8f0d8c	-0.017462514
113	0x3ca7455c	0.020418815
114	0xbc2729ac	-0.010202806
115	0xb9323369	-0.00016994555
116	0x3c01637f	0.007897257
117	0x3c89465a	0.016757179
118	0x3bfcc64b	0.007714068
119	0x3c88bd3c	0.016691796
120	0x3cf3f26b	0.02977868
121	0x3bd324d8	0.006443601
122	0x3d55eb0b	0.052226108
123	0xbbd8fa52	-0.0066216374
124	0x3c620927	0.013796127
125	0xbc093280	-0.008373857
126	0x3c6972cf	0.014248564
127	0x3c7fcd43	0.015612903
128	0x3c4dbced	0.01255725
129	0xbc9dc115	-0.019257108
130	0x3b92bc14	0.004477987
131	0x3beff09b	0.0073223836
132	0xb9fc0b9a	-0.0004807383
133	0x3c95764b	0.018244883
134	0x3cab3cb4	0.020902969
135	0x3c6a33ed	0.014294607
136	0xbc66858f	-0.014069929
137	0xbd11b15a	-0.035569526
138	0x3bfbd93a	0.0076858075
139	0x3caa1678	0.020762667
140	0x3aebff92	0.0018005243
141	0xbc3d557f	-0.011556028
142	0xbca0a71e	-0.019610938
143	0x3cbbdbee	0.02293202
144	0xbd2bb833	-0.041923713
145	0xbcc9ff9b	-0.024658015
146	0x3c2ec0de	0.0106661
147	0xbb44cc16	-0.0030028871
148	0xbc30b29b	-0.01078477
149	0xbb4bec63	-0.003111624
150	0x3cb60d4c	0.022223137
151	0x3c2cdd8e	0.01055087
152	0xbb63ddf2	-0.003476974
153	0x3d156a13	0.036478113
154	0xba9c4027	-0.0011920974
155	0xbc428f08	-0.011874922
156	0x3bf2c5f7	0.007408853
157	0x3cc1d47b	0.023660889
158	0x3b4b5b97	0.0031029934
159	0xbc5ab9f3	-0.013349998
160	0xb9be6f84	-0.0003632271
161	0xbc52d598	-0.0128683075
162	0x3c5690e7	0.013096071
163	0xbb3825eb	-0.0028098773
164	0xbba3db9c	-0.0050005447
165	0x3c3d6b53	0.011561233
166	0xbc12222f	-0.008919283
167	0x3cde0997	0.027104182
168	0xbc3edb81	-0.0116490135
169	0xbc250b33	-0.010073471
170	0x3bf1f8aa	0.0073843794
171	0xbc333553	-0.010938006
172	0x3c9a149b	0.018808654
173	0x3cde2a70	0.027119845
174	0x3a7eebdb	0.0009724476
175	0xbaef9caf	-0.0018280948
176	0x3c8b421a	0.016999293
177	0x3c3bd5b6	0.011464527
178	0x3cea696f	0.028614728
179	0x3cbd7854	0.023128666
180	0xbcd6c1db	-0.026215484
181	0x3b2e53a6	0.0026600151
182	0x3b8f6b0e	0.0043767756
183	0xbc00ff92	-0.007873433
184	0x3c470c44	0.01214892
185	0x3c5855e0	0.013204068
186	0xbc4cb2c3	-0.012493792
187	0xbcd24c30	-0.025671095
188	0x3c0de042	0.008659424
189	0x3be2fbb5	0.0069269785
190	0x3c96089a	0.018314648
191	0x3c7d20c5	0.015449707
192	0xbc73ccbd	-0.014880356
193	0xba2e0fbc	-0.0006639918
194	0x3ca2ad85	0.019858131
195	0xbbadcad2	-0.005303719
196	0x3bdac4c8	0.00667629
197	0x3ca35f6e	0.019942965
198	0x3bffc8c0	0.0078059137
199	0x3be093f7	0.0068535763
200	0x3d2d6542	0.042332895
201	0x3cb63329	0.022241192
202	0xbb69d1a3	-0.0035677932
203	0x3d3dde93	0.04635484
204	0x3d0536a7	0.032522824
205	0xbc6030aa	-0.013683477
206	0x3c966b59	0.018361734
207	0xbc7fb58b	-0.015607248
208	0xbcb7d14c	-0.022438668
209	0xbbe6fd8d	-0.0070492686
210	0x3c9e2d29	0.019308643
211	0xbca8edae	-0.020621147
212	0x3c635f77	0.013877741
213	0xbcca740b	-0.024713537
214	0xbad4bf07	-0.0016231247
215	0x3bac29e0	0.0052540153
216	0xbb760963	-0.0037542216
217	0xbb99bfe4	-0.0046920646
218	0xbc2bed60	-0.010493606
219	0xbd1c70e8	-0.038193613
220	0xbc0f29df	-0.00873801
221	0xbd14e7c6	-0.03635385
222	0x3c840b6e	0.016118731
223	0x3c5af120	0.013363153
224	0xbc857609	-0.016291635
225	0x3c6f7202	0.014614584
226	0xbcba5a1b	-0.022748044
227	0xbd1bc36c	-0.038028166
228	0x3c43dc53	0.011954385
229	0x3cbe426b	0.02322503
230	0xbd00900b	-0.03138737
231	0xbcce7325	-0.02520139
232	0x3bd99aa3	0.0066407486
233	0x3c250d33	0.010073948
234	0x3d31da9f	0.043421384
235	0xbc2cbfe6	-0.010543799
236	0xbc9cc84d	-0.01913848
237	0xbbebf1c2	-0.0072004506
238	0xbbfd2e13	-0.0077264397
239	0xbce9823f	-0.028504489
240	0x3ba49440	0.0050225556
241	0x3d0aad65	0.03385677
242	0xbd175036	-0.03694173
243	0xbb2d7520	-0.0026467517
244	0x3bce5c48	0.006297622
245	0x3c096b84	0.00838745
246	0xbc2a0215	-0.010376473
247	0xba404201	-0.0007334054
248	0xbb7fafa0	-0.0039014593
249	0xbd11f10b	-0.035630267
250	0x3cca28fb	0.024677744
251	0xbc915824	-0.017742224
252	0x3c501675	0.012700667
253	0x3be97fbb	0.0071258224
254	0x3c60b16b	0.013714175
255	0xbcc99fdf	-0.024612365

action_model._continuous_distribution.mu.bias f4 [2]
0	0x00000000	0.0
1	0x00000000	0.0

onnx::Div_51 f4 [90]
0	0x3cf76b8b	0.030202648
1	0x3cf76b8b	0.030202648
2	0x3cf76b8b	0.030202648
3	0x3cf76b8b	0.030202648
4	0x3cf76b8b	0.030202648
5	0x3cf76b8b	0.030202648
6	0x3cf76b8b	0.030202648
7	0x3cf76b8b	0.030202648
8	0x3cf76b8b	0.030202648
9	0x3cf76b8b	0.030202648
10	0x3cf76b8b	0.030202648
11	0x3cf76b8b	0.030202648
12	0x3cf76b8b	0.030202648
13	0x3cf76b8b	0.030202648
14	0x3cf76b8b	0.030202648
15	0x3cf76b8b	0.030202648
16	0x3cf76b8b	0.030202648
17	0x3cf76b8b	0.030202648
18	0x3cf76b8b	0.030202648
19	0x3cf76b8b	0.030202648
20	0x3cf76b8b	0.030202648
21	0x3cf76b8b	0.030202648
22	0x3cf76b8b	0.030202648
23	0x3cf76b8b	0.030202648
24	0x3cf76b8b	0.030202648
25	0x3cf76b8b	0.030202648
26	0x3cf76b8b	0.030202648
27	0x3cf76b8b	0.030202648
28	0x3cf76b8b	0.030202648
29	0x3cf76b8b	0.030202648
30	0x3cf76b8b	0.030202648
31	0x3cf76b8b	0.030202648
32	0x3cf76b8b	0.030202648
33	0x3cf76b8b	0.030202648
34	0x3cf76b8b	0.030202648
35	0x3cf76b8b	0.030202648
36	0x3cf76b8b	0.030202648
37	0x3cf76b8b	0.030202648
38	0x3cf76b8b	0.030202648
39	0x3cf76b8b	0.030202648
40	0x3cf76b8b	0.030202648
41	0x3cf76b8b	0.030202648
42	0x3cf76b8b	0.030202648
43	0x3cf76b8b	0.030202648
44	0x3cf76b8b	0.030202648
45	0x3cf76b8b	0.030202648
46	0x3cf76b8b	0.030202648
47	0x3cf76b8b	0.030202648
48	0x3cf76b8b	0.030202648
49	0x3cf76b8b	0.030202648
50	0x3cf76b8b	0.030202648
51	0x3d1266cc	0.035742566
52	0x3d7e9462	0.062153228
53	0x3db42518	0.087961376
54	0x3de1b4cf	0.110208146
55	0x3e0093bd	0.12556358
56	0x3e10457d	0.14089008
57	0x3e1e11ce	0.1543648
58	0x3e2a06a8	0.16604102
59	0x3e2fa4c8	0.17152703
60	0x3e3684a8	0.17824042
61	0x3e2743f4	0.16334516
62	0x3e15e8ce	0.14639589
63	0x3e086f81	0.13323785
64	0x3deb0173	0.11474886
65	0x3dedb449	0.11606652
66	0x3df1ca45	0.11806158
67	0x3de44143	0.1114526
68	0x3dfa9c2c	0.12236819
69	0x3e203d95	0.15648492
70	0x3e1b857f	0.15187643
71	0x3e107801	0.14108278
72	0x3e130746	0.14358243
73	0x3e074ad0	0.13212132
74	0x3de76657	0.11298817
75	0x3d32d094	0.043655947
76	0x3d51df28	0.05123821
77	0x3d6d0ca5	0.057873387
78	0x3d963cb1	0.07335795
79	0x3d97bd83	0.07409193
80	0x3d687e5c	0.05676113
81	0x3d230a93	0.039805006
82	0x3cfdd2f7	0.030984385
83	0x3cf76b8b	0.030202648
84	0x3cf76b8b	0.030202648
85	0x3cf76b8b	0.030202648
86	0x3cf76b8b	0.030202648
87	0x3cf76b8b	0.030202648
88	0x3cf76b8b	0.030202648
89	0x3cf76b8b	0.030202648
