results/parallelRC1/ParkParallelRC/ParkParallelRC-7999818.onnx (onnx, 119662 bytes, 9 tensors)

network_body.observation_encoder.processors.0.normalizer.running_mean f4 [90]
0	0x3f65269e	0.8951205
1	0x3f4a7cc2	0.79096615
2	0x3f33abb8	0.70183897
3	0x3f1c3b0c	0.610276
4	0x3f0cf780	0.55065155
5	0x3f028453	0.5098316
6	0x3ef538aa	0.47894794
7	0x3ee7dcdb	0.45285687
8	0x3edae0b0	0.42749548
9	0x3ecbcf4b	0.3980659
10	0x3eb9d312	0.36293846
11	0x3ead5d7e	0.3386039
12	0x3ea34d13	0.3189474
13	0x3e98e421	0.2986155
14	0x3e91e22a	0.28492862
15	0x3e8ac2f8	0.27101874
16	0x3e7e0940	0.24808216
17	0x3e64d4e4	0.22346836
18	0x3e5e3501	0.21699907
19	0x3e5cc129	0.2155806
20	0x3e5e2fad	0.21697874
21	0x3e6084fb	0.21925728
22	0x3e637735	0.22213443
23	0x3e6592e7	0.2241932
24	0x3e6654e5	0.22493322
25	0x3e67bbdf	0.22630261
26	0x3e6e1507	0.23250209
27	0x3e743667	0.23848878
28	0x3e79e62f	0.24404214
29	0x3e818e30	0.25303793
30	0x3e88a612	0.26689202
31	0x3e90e2d2	0.2829805
32	0x3e9a0097	0.30078575
33	0x3ea47995	0.3212401
34	0x3eb0162d	0.3439192
35	0x3ebe49ae	0.37165588
36	0x3ecf70d7	0.40515777
37	0x3edc0904	0.42975628
38	0x3edf9100	0.43665314
39	0x3ee349f6	0.44392365
40	0x3eea04aa	0.45706683
41	0x3efde26d	0.49586812
42	0x3f23c0fe	0.6396636
43	0x3f39ce35	0.7258027
44	0x3f4497be	0.7679404
45	0x3f484b0e	0.78239524
46	0x3f7eef5d	0.9958399
47	0x3f7fe407	0.9995732
48	0x3f7ffa04	0.9999087
49	0x3f7ffe80	0.9999771
50	0x3f7fff56	0.99998987
51	0x3f7fff56	0.99998987
52	0x3f7fff56	0.99998987
53	0x3f7fff56	0.99998987
54	0x3f7fff56	0.99998987
55	0x3f7fff56	0.99998987
56	0x3f7fff56	0.99998987
57	0x3f7fff56	0.99998987
58	0x3f7fff56	0.99998987
59	0x3f7fff56	0.99998987
60	0x3f7fff56	0.99998987
61	0x3f7fdff5	0.99951106
62	0x3f7f91a3	0.998316
63	0x3f7e2605	0.99276763
64	0x3f7c2005	0.9848636
65	0x3f78d605	0.9720157
66	0x3f75328f	0.9578027
67	0x3f737541	0.9510079
68	0x3f71da8b	0.94474095
69	0x3f7060cf	0.9389772
70	0x3f6f4b53	0.9347431
71	0x3f6e4455	0.93073016
72	0x3f6a7d0b	0.9159705
73	0x3f65a340	0.89702225
74	0x3f61184c	0.879277
75	0x3f5ef545	0.87093
76	0x3f5d82f2	0.8652793
77	0x3f5c2298	0.85990286
78	0x3f5a5078	0.85279036
79	0x3f56ad10	0.8385782
80	0x3f520ebf	0.8205375
81	0x3f4ffa7f	0.812416
82	0x3f4efdbc	0.8085592
83	0x3f4e1feb	0.8051745
84	0x3f4d75dc	0.80257964
85	0x3f4cdac4	0.8002131
86	0x3f4c50fe	0.79811084
87	0x3f4bb1ee	0.79568374
88	0x3f4afaa7	0.79288715
89	0x3f49f854	0.78894544

network_body._body_endoder.seq_layers.0.weight f4 [128, 90]
0	0xbd02336d	-0.031787325
1	0xbe1c9128	-0.15289748
2	0xbd9e11b8	-0.07718223
3	0x3d8d20ef	0.06891047
4	0xbd7f865e	-0.062384002
5	0xbe312f35	-0.17303164
6	0xbb3f1210	-0.0029155053
7	0xbe30047f	-0.17189215
8	0x3d8681e4	0.065677434
9	0x3da34f05	0.07974056
10	0xbd88cc61	-0.06679607
11	0xbe0495cb	-0.12947766
12	0xbcd734a3	-0.026270216
13	0xbc4bfa66	-0.012449836
14	0xbdb5354c	-0.08848056
15	0xbd5a91c3	-0.053361665
16	0xbd68eeef	-0.05686849
17	0x3e4b0301	0.19825365
18	0x3d71dc0b	0.05904774
19	0x3dafd607	0.08585744
20	0xbd3d61d9	-0.046235893
21	0xbe1567c1	-0.1459036
22	0xbe0463d3	-0.12928705
23	0x3ddeba72	0.10875405
24	0x3d2b1290	0.04176575
25	0xbd77c997	-0.060494985
26	0xbd79a0d5	-0.060944397
27	0xbd326616	-0.043554388
28	0xbea8cd93	-0.3296934
29	0xbd5bd61f	-0.053671
30	0xbde09086	-0.10965066
31	0x3ad8c529	0.001653825
32	0xbdf5510f	-0.11978351
33	0x3dc64f87	0.096831374
34	0xbcf46552	-0.02983347
35	0x3d02ab32	0.031901546
36	0xbe23f657	-0.1601194
37	0x3d103bdf	0.035213348
38	0x3d972c20	0.07381463
39	0x3d34cb5b	0.044139247
40	0xbe249a82	-0.16074565
41	0xbdf1fab0	-0.11815393
42	0x3d2fccfa	0.04292009
43	0xbc93ce96	-0.018042844
44	0xbeb076e7	-0.34465715
45	0x3b3bef1d	0.0028676458
46	0xbda19876	-0.07890408
47	0x3e035d1b	0.12828486
48	0xbe2b1565	-0.1670738
49	0xbde8305a	-0.11337347
50	0xbdc76704	-0.097364455
51	0x3cb45103	0.022011286
52	0x3df3d0d4	0.11905065
53	0x3e13b75e	0.14425418
54	0xbe176e15	-0.14788087
55	0xbddaf7de	-0.10691808
56	0xbe0c1b79	-0.13682355
57	0x3e753625	0.23946436
58	0x3d66cf05	0.056349773
59	0x3c831c4c	0.016004704
60	0xbc8995cd	-0.016795063
61	0x3d080119	0.03320417
62	0xbd7e5faf	-0.06210297
63	0x3baa4844	0.005196603
64	0xbcc9b5a0	-0.024622738
65	0xbc42ed97	-0.011897466
66	0x3de1239a	0.109931186
67	0x3e49055a	0.19630948
68	0xbdd901c7	-0.10596042
69	0xbca68245	-0.02032579
70	0xbe31948d	-0.17341824
71	0x3e3cf53e	0.18452927
72	0xbc8cf983	-0.01720882
73	0xbe40062e	-0.18752357
74	0xbe60599c	-0.21909183
75	0xbe206921	-0.15665103
76	0x3dc63744	0.0967851
77	0xbd74be86	-0.05975201
78	0xbe38423c	-0.17994016
79	0xbe015c0b	-0.12632768
80	0x3dfcfa62	0.12352444
81	0xbe3119b7	-0.17294966
82	0xbd923986	-0.07139878
83	0xbddf0a44	-0.1089063
84	0xbe393ada	-0.18088856
85	0xbc407741	-0.011747182
86	0xbe06c86d	-0.13162394
87	0xbd07ed04	-0.03318502
88	0xbe0a48a5	-0.13504274
89	0xbe786d98	-0.24260557
90	0x3cfd79b7	0.030941827
91	0xbd7a561b	-0.061117273
92	0x3d97d94c	0.07414493
93	0x3e5f71b0	0.21820712
94	0x3d45c2df	0.048281547
95	0x3dd5dc37	0.10442393
96	0xbd82d5b0	-0.06388414
97	0xbd0aa17f	-0.03384542
98	0x3d3f3789	0.04668382
99	0xbd4c2621	-0.04984105
100	0x3de0dbae	0.109794006
101	0xbd25f720	-0.04051888
102	0x3de90755	0.113783516
103	0xbc8e103d	-0.017341727
104	0x3de206b1	0.110364325
105	0x3de30d2f	0.11086499
106	0x3e05b2ff	0.13056563
107	0x3d3dddda	0.046354152
108	0x3c7b82d6	0.015351018
109	0x3dd88389	0.10571963
110	0xbe100d5a	-0.14067593
111	0xbdbbb4f7	-0.09165376
112	0xbd1ec2d3	-0.038760018
113	0xbcd87228	-0.026421621
114	0xbd40b0df	-0.047043677
115	0xbd72d937	-0.059289183
116	0xbde330fb	-0.11093327
117	0xbdf12761	-0.11775089
118	0xbd7d8d14	-0.06190212
119	0xbe4a9774	-0.19784337
120	0xbc351d5e	-0.011054365
121	0xbe83af01	-0.25719455
122	0xbe04435c	-0.1291632
123	0x3cde3178	0.027123198
124	0xbd31b804	-0.04338838
125	0x3e012450	0.12611508
126	0xbdc80609	-0.09766776
127	0xbe45af3a	-0.19305125
128	0xbe33213b	-0.17493145
129	0x3d9de1cf	0.07709085
130	0x3d922061	0.07135082
131	0xbc8964b3	-0.01677165
132	0x3e27ce17	0.16387211
133	0x3d7890c5	0.060684938
134	0x3da2c6b4	0.07948056
135	0x3cdd43fe	0.02700996
136	0xbe25f7e8	-0.1620785
137	0xbc7252a2	-0.014790209
138	0x3d07a4f9	0.033116315
139	0xbc3f83f9	-0.01168918
140	0xbcaa6750	-0.020801216
141	0xbe18571f	-0.14876984
142	0xbe100a33	-0.1406639
143	0xbbfd9149	-0.0077382666
144	0xbd770fe8	-0.060317904
145	0x3e019ec9	0.12658228
146	0xbd19a1a0	-0.037507653
147	0xbdfa3c6d	-0.122185566
148	0xbcad8dc8	-0.02118577
149	0xbe3c2e77	-0.183771
150	0x3d50ef86	0.051009677
151	0xbd99d471	-0.07511223
152	0x3c9f2d2c	0.01943072
153	0x3d41668e	0.047216944
154	0xbc0b2784	-0.008493308
155	0x3d2bb649	0.041921888
156	0xbe0a1b6f	-0.13487028
157	0xbd40fb1d	-0.04711448
158	0xbde9ef01	-0.114225395
159	0xbda5fec3	-0.081052326
160	0xbe201a5f	-0.1563506
161	0x3d43d573	0.047810983
162	0xbcfea4f1	-0.03108451
163	0xbe3366e6	-0.17519721
164	0x3df4cabd	0.11952732
165	0x3daa53d0	0.08316767
166	0xbc07827b	-0.008270855
167	0x3cd17cf1	0.025572272
168	0x3cda377d	0.026637787
169	0x3e121451	0.14265563
170	0xbd93a9ff	-0.072101586
171	0x3dc229bf	0.09480619
172	0x3e130d6f	0.14360593
173	0xbd3ed3dd	-0.046588767
174	0x3db36fc3	0.08761551
175	0x3d759231	0.059953872
176	0xbd43a4df	-0.047764655
177	0x3da959b2	0.08269061
178	0x3d63138e	0.05543857
179	0x3e593495	0.21211465
180	0x3e536307	0.20643245
181	0x3e1aae11	0.15105464
182	0x3df1f8da	0.11815043
183	0xbd25bce5	-0.040463347
184	0xbcd9e6b7	-0.026599271
185	0x3e3dcdb2	0.18535498
186	0xbcd4a0a4	-0.025955506
187	0x3df558ab	0.11979803
188	0x3e7b56bb	0.24544804
189	0x3ded7107	0.11593824
190	0x3d5a3d77	0.053281274
191	0x3daabe94	0.08337131
192	0x3d4ea7c4	0.050452963
193	0x3e51b641	0.2047968
194	0x3d498455	0.049198467
195	0xbe04b484	-0.12959486
196	0xbe3f2e92	-0.18670109
197	0xbd38175d	-0.044944156
198	0xbe0ba541	-0.13637258
199	0x3dfb6f50	0.122770905
200	0xbe10a433	-0.14125137
201	0xbe4cc745	-0.1999789
202	0xbdbe8b99	-0.0930397
203	0xbc951639	-0.018199073
204	0xbe51ca7a	-0.20487395
205	0xbc1ce9eb	-0.009577255
206	0x3db82da8	0.08993083
207	0x3d91e67f	0.07124042
208	0xbec739cb	-0.3891128
209	0xbe40e69e	-0.18837973
210	0xbd97492a	-0.07387002
211	0xbd0e6792	-0.03476674
212	0x3c6dca1d	0.01451352
213	0x3cbb5197	0.022866054
214	0xbc2173bd	-0.009854254
215	0x3d38a45c	0.04507862
216	0x3da4ee0f	0.080532186
217	0x3d6806f9	0.056647275
218	0xbd456f03	-0.048201572
219	0x3d94fb77	0.072745256
220	0x3de223bd	0.11041973
221	0x3d078728	0.03308788
222	0xbcc77dc0	-0.024351954
223	0x3e164aa9	0.14676918
224	0x3e05b54a	0.13057438
225	0xbdb29f74	-0.087218195
226	0x3e9046eb	0.28179106
227	0x3e17dee5	0.14831121
228	0xbe794366	-0.24342117
229	0xbe5f58a4	-0.21811157
230	0xbdcf9ee3	-0.10137727
231	0xbe72c17f	-0.23706625
232	0x3c874710	0.016513377
233	0xbc857309	-0.016290205
234	0xbd2c50fe	-0.042069428
235	0xbe6fc523	-0.23415045
236	0xbde63197	-0.11239927
237	0xbea01586	-0.3126642
238	0xbeaab02c	-0.33337533
239	0xbd980bbf	-0.074241154
240	0xbe01028e	-0.12598631
241	0xbc5b1f4e	-0.013374163
242	0xbd313564	-0.043263808
243	0xbcfa1dd1	-0.030531796
244	0xbe7ba63e	-0.24575135
245	0xbc9eb0ee	-0.019371476
246	0xbcc8281f	-0.024433194
247	0xbe1bf504	-0.15230185
248	0xbc8aff4f	-0.016967444
249	0xbe882b1b	-0.26595387
250	0xbe02ef66	-0.12786636
251	0xbd7d6785	-0.061866302
252	0x3cfbbbb2	0.030729149
253	0xbda4f046	-0.08053641
254	0x3d84433a	0.06458135
255	0x3c8b36c4	0.016993888

network_body._body_endoder.seq_layers.0.bias f4 [128]
0	0xbbb51863	-0.0055265888
1	0x3c20cfeb	0.0098151965
2	0xbdb7ddd4	-0.08977857
3	0xbc80e40b	-0.01573374
4	0x3d15a149	0.036530767
5	0xbaf09800	-0.0018355846
6	0x3d62d22f	0.055376228
7	0x3d8d5f6f	0.06902968
8	0x3d852769	0.065016575
9	0x3bf2bd88	0.007407848
10	0x3d2b0e31	0.04176158
11	0x3d821224	0.06351116
12	0x3bcc29ca	0.0062305676
13	0x3bed9e34	0.0072515253
14	0xbcc7b6c0	-0.024379134
15	0x3c65eda7	0.0140337115
16	0x3d46b852	0.048515625
17	0x3ad8c26f	0.0016537438
18	0xbcba32e9	-0.022729354
19	0x3c8efcc5	0.017454514
20	0x3dd6c4f2	0.10486783
21	0x3d4cafc6	0.049972318
22	0x3da5066a	0.08057864
23	0x3dd155d2	0.10221447
24	0xbd947fa2	-0.072509065
25	0x3d0f2967	0.034951594
26	0x3c80b174	0.015709616
27	0xbd27fca3	-0.041012418
28	0x3d892c12	0.06697859
29	0x3d5be683	0.05368663
30	0xbcba9c05	-0.022779474
31	0x3d706087	0.058685806
32	0xbd19c1c6	-0.037538312
33	0xbd805285	-0.06265739
34	0x3d348eeb	0.04408161
35	0xbc007d9c	-0.007842448
36	0x3b94d1d8	0.004541617
37	0xbd918706	-0.07105832
38	0xba8e4e88	-0.0010857144
39	0x3c57436f	0.013138636
40	0xba9243ef	-0.0011159162
41	0x3cb9ddd7	0.02268879
42	0x3dd5b210	0.10434353
43	0x3d6a821a	0.05725298
44	0x3d164dfb	0.03669546
45	0x3c0928bc	0.008371528
46	0x3d031f67	0.03201237
47	0x3d6a167f	0.05715036
48	0xbcf39c16	-0.029737514
49	0xbd67c24b	-0.056581777
50	0x3c964f3b	0.018348327
51	0x3ca9b28e	0.020715024
52	0x3bd7b6cc	0.0065830704
53	0x3bcaaa8e	0.0061848825
54	0xbbafa209	-0.0053598923
55	0xbd5b40c8	-0.053528577
56	0x3d80a322	0.06281115
57	0xbbd4b264	-0.0064909924
58	0x3d300e06	0.042982124
59	0x3d1f34bb	0.038868647
60	0x3dbaf0d6	0.09127967
61	0x3d33f6f2	0.043936677
62	0x3bc5eba2	0.0060400525
63	0x3cfa1565	0.03052778
64	0xbc2e0fdb	-0.010623897
65	0x3bed63af	0.007244549
66	0x3d1d1402	0.03834916
67	0xbdbc2d65	-0.09188346
68	0xbcc0b1bc	-0.02352225
69	0xbcfc2106	-0.030777466
70	0x3cd7d891	0.026348384
71	0x3d40421d	0.04693805
72	0x3ba756ae	0.0051067686
73	0xbc5bb6e9	-0.013410308
74	0x3d475ab5	0.04867049
75	0x3d64c498	0.05585155
76	0x3c841cb3	0.016126966
77	0xbd0ed151	-0.03486759
78	0x3d5122fd	0.051058758
79	0x3c9dbb63	0.019254392
80	0x3d862f17	0.065519504
81	0x3cfd8a6e	0.030949797
82	0x3d8ee9d3	0.06978192
83	0x3d24c400	0.040225983
84	0x3cec900d	0.028877283
85	0x3ce570dc	0.028007917
86	0x3d762ab1	0.060099307
87	0xbc090c9d	-0.008364824
88	0xbd3941ad	-0.04522865
89	0x3de6580e	0.11247264
90	0x3d35793f	0.044305082
91	0x3c00d791	0.007863895
92	0xbdaff750	-0.08592093
93	0x3d0bc928	0.034127384
94	0x3d206ae1	0.039164428
95	0xbce99046	-0.028511178
96	0x3d953484	0.07285407
97	0x3d2139f7	0.03936192
98	0x3d9451ed	0.072421886
99	0x3c8c4ffc	0.017127983
100	0x3d9a60f5	0.07538024
101	0x3d9f008b	0.077637754
102	0x3d13dc18	0.03609857
103	0xbdb9122c	-0.09036669
104	0x3c9de5d8	0.019274637
105	0x3cf17772	0.029475901
106	0xbd4a05de	-0.049322
107	0x3d15ea80	0.03660059
108	0xbd940070	-0.07226646
109	0x3d76faab	0.06029765
110	0xbcd3f98f	-0.025875835
111	0x3ca0fcde	0.019651826
112	0xbbaf8699	-0.0053566215
113	0x3d6eda93	0.058313917
114	0x3dc8078b	0.09767064
115	0x3bf5163b	0.0074794567
116	0x3d6caea0	0.057783723
117	0xbc93f6ac	-0.018061958
118	0x3c969d19	0.018385457
119	0xbd6f5e19	-0.058439348
120	0x3d35e6d1	0.044409577
121	0x3c227f5d	0.009918061
122	0xbd43a7e5	-0.04776754
123	0x3dc27426	0.0949481
124	0xbcd3db39	-0.02586137
125	0xbda07028	-0.07833892
126	0x3d30e184	0.04318382
127	0xbc77183c	-0.0150814615

network_body._body_endoder.seq_layers.2.weight f4 [128, 128]
0	0xbde95805	-0.113937415
1	0x3d94b988	0.0726195
2	0x3d836a37	0.06416743
3	0xbe08b080	-0.1334858
4	0x3bff2504	0.007786395
5	0xbd6a3136	-0.057175837
6	0x3dd715cf	0.105022065
7	0xbd87a934	-0.0662407
8	0xbd474413	-0.048648905
9	0x3c48311c	0.01221874
10	0xbe34bb63	-0.17649607
11	0x3d9ebc49	0.07750756
12	0x3d563239	0.05229399
13	0x3d892d73	0.06698122
14	0x3d5e91a3	0.05433811
15	0x3cca333a	0.02468263
16	0x3e14dd39	0.14537515
17	0xbd4ba8a2	-0.049721368
18	0xbd8adbb0	-0.06780183
19	0xbdcc619c	-0.09979555
20	0x3d874866	0.06605606
21	0x3e4c8760	0.19973516
22	0xbd52cbb3	-0.051463794
23	0xbda3d40f	-0.07999431
24	0xbdcf2975	-0.10115329
25	0xbda3bd09	-0.0799504
26	0xbdf20277	-0.118168764
27	0x3d1f5330	0.038897693
28	0x3c0c6b69	0.00857053
29	0xbe4b04a2	-0.19825986
30	0xbdbf0b59	-0.09328336
31	0xbd6bb95d	-0.057549823
32	0xbdae93eb	-0.08524307
33	0xbcaf721b	-0.021416714
34	0x3da2b589	0.07944781
35	0xbcae5323	-0.021279877
36	0xbda45248	-0.080235064
37	0xbc52351c	-0.012830045
38	0xbe0c4627	-0.13698636
39	0xbb997e17	-0.0046842205
40	0xbe12bbc1	-0.14329435
41	0xbc919ca4	-0.017774887
42	0xbd01ca59	-0.031687114
43	0xbd6e6630	-0.058202922
44	0xbe2cde24	-0.16881615
45	0xbdcd14e7	-0.100137524
46	0xbc45db0c	-0.012076151
47	0x3de795c8	0.113078654
48	0xbe79a0fc	-0.24377817
49	0xbe3694e4	-0.17830235
50	0xbda0ddb1	-0.07854784
51	0xbd8c9777	-0.06864827
52	0x3d996454	0.07489839
53	0x3cf48cca	0.02985229
54	0x3d963401	0.07334138
55	0xbe0fa44d	-0.1402752
56	0xbc67ca6a	-0.01414738
57	0xbeb86a6c	-0.36018693
58	0x3e12377c	0.14278978
59	0x3d1bb857	0.038017597
60	0xbd625a0e	-0.055261664
61	0x3cbb30d3	0.02285043
62	0x3c4f0884	0.012636308
63	0x3e094b95	0.13407739
64	0x3e2118d3	0.15732126
65	0x3dccb5ad	0.099955894
66	0xbcaf85b4	-0.02142606
67	0xbdc403cb	-0.09571036
68	0xbe457f97	-0.19286953
69	0xbc9aeb7e	-0.01891112
70	0x3daf6ebc	0.08566043
71	0xbd72be40	-0.059263468
72	0x3e5ca182	0.21545985
73	0xbdebc999	-0.11513061
74	0xbd5a67a4	-0.053321496
75	0xbe0c0225	-0.13672693
76	0x3d7ef813	0.0622483
77	0x3d4e806f	0.050415453
78	0x3de31f15	0.11089913
79	0xbd56c5e5	-0.05243482
80	0xbd4784a0	-0.048710465
81	0xbcfc1692	-0.030772481
82	0xbe7c9b12	-0.2466853
83	0x3cc3b71f	0.02389103
84	0xbcde75a3	-0.027155703
85	0xbc5f4867	-0.013628102
86	0x3cc146e7	0.02359338
87	0xbe2342ad	-0.15943404
88	0xbe4e55cd	-0.20149918
89	0x3e07e936	0.13272557
90	0x3e34d2ce	0.1765854
91	0xbd7976fb	-0.060904484
92	0x3d5ec657	0.05438837
93	0xbe0bb230	-0.13642192
94	0xbde6c041	-0.11267138
95	0xbde204e1	-0.11036087
96	0xbdef5073	-0.11685266
97	0xbd521200	-0.051286697
98	0xbc3d7dc1	-0.011565627
99	0xbe292fbd	-0.16522117
100	0x3db282de	0.08716367
101	0x3e138947	0.14407836
102	0xbd49d1fa	-0.049272515
103	0x3c9c5591	0.01908377
104	0x3db2022f	0.08691823
105	0x3e44ab88	0.19206059
106	0xbd589198	-0.052873224
107	0xbd935d81	-0.07195569
108	0xbe021016	-0.12701449
109	0x3deade4b	0.1146818
110	0x3c859edb	0.0163111
111	0xbe05b1b1	-0.13056065
112	0x3db04247	0.086063914
113	0x3d03812f	0.03210562
114	0x3de99083	0.114045165
115	0xbe59c1a0	-0.21265268
116	0x3e10a8e4	0.14126927
117	0x3dd7f2f1	0.10544384
118	0xbd79279b	-0.060828786
119	0x3cd92848	0.026508465
120	0xbce71b58	-0.02821128
121	0x3d93ef93	0.072234295
122	0xbc2dd3cf	-0.010609581
123	0x3dd012b2	0.10159816
124	0xbcca4764	-0.024692245
125	0x3de3031e	0.11084579
126	0xbcc7dfb4	-0.024398662
127	0x3d2cdcad	0.04220264
128	0xbd3610a3	-0.04444946
129	0xbd1a22de	-0.03763091
130	0xbd291bcf	-0.041286286
131	0x3d1d7f59	0.038451526
132	0x3d9e2fdc	0.07723972
133	0x3dddc100	0.108278275
134	0xbc367c78	-0.011138074
135	0x3d2f03ce	0.042728238
136	0xbe489c87	-0.1959096
137	0x3c590361	0.0132454345
138	0xbe47c225	-0.19507654
139	0x3bd96667	0.0066345218
140	0x3d93006f	0.07177817
141	0x3a9323e4	0.0011225906
142	0x3bc47344	0.005995186
143	0x3cce5858	0.02518861
144	0x3e681c98	0.22667158
145	0xbdb4a869	-0.08821184
146	0xbd825e40	-0.06365633
147	0x3d17ebab	0.037089985
148	0xbd0c31cc	-0.034227178
149	0x3d08cc1a	0.03339777
150	0x3e33e6f9	0.17568578
151	0x3cd42782	0.025897745
152	0xbd900157	-0.070315056
153	0xbd6f7eb0	-0.058470428
154	0xbcca8b84	-0.02472473
155	0xbda2d4af	-0.079507224
156	0xbd0ddef6	-0.03463646
157	0xbd11b097	-0.0355688
158	0xbcfacf66	-0.030616473
159	0xbd911085	-0.07083229
160	0xbd76e17e	-0.06027364
161	0xbc76f0b1	-0.015072034
162	0x3d6005ab	0.054692905
163	0xbda4146e	-0.08011709
164	0x3d4d5e2b	0.050138634
165	0xbe95e6e0	-0.29277706
166	0xbe205e53	-0.15660982
167	0xbe550edb	-0.20806448
168	0xbd02bdb3	-0.031919193
169	0x3db94b5f	0.09047579
170	0xbe1b428e	-0.15162107
171	0x3d844028	0.06457549
172	0xbe208900	-0.15677261
173	0xbe899f3b	-0.26879296
174	0xbbabb2ce	-0.005239821
175	0x3da11d4f	0.07866918
176	0xbd8586ce	-0.065198526
177	0xbe49cdbd	-0.19707389
178	0x3d3b8ca6	0.04578843
179	0xbe1f0655	-0.15529759
180	0x3d1e00f5	0.03857513
181	0x3b11df06	0.0022258176
182	0x3ccf71b1	0.025322767
183	0xbe46556e	-0.19368526
184	0xbdfbf94b	-0.12303408
185	0xbe82e332	-0.2556396
186	0xbbe6c0a7	-0.007042009
187	0x3dd753ff	0.10514068
188	0xbd3d8689	-0.04627088
189	0x3c075027	0.008258856
190	0x3de35924	0.111009866
191	0x3d3ed460	0.046589255
192	0x3e1eb922	0.1550031
193	0x3df238a0	0.118272066
194	0x3d3398f5	0.043847043
195	0xbe28b200	-0.16474152
196	0xbdb46e0f	-0.088100545
197	0x3c7630f0	0.015026316
198	0x3d7cf716	0.061759077
199	0x3e286fd3	0.16448908
200	0x3de60c12	0.11232771
201	0x3d568f4a	0.052382745
202	0x3d4bf8e2	0.0497979
203	0xbda9dcba	-0.082940534
204	0x3de20a3e	0.1103711
205	0xbe97c72f	-0.29644153
206	0xbd46c535	-0.048527915
207	0x3d2a3d93	0.041562628
208	0xbd250c32	-0.040294833
209	0x3df57860	0.1198585
210	0xbde3d937	-0.11125415
211	0xbd1b2198	-0.037873834
212	0xbe22b923	-0.15890937
213	0xbd64fca6	-0.055905007
214	0x3d43362f	0.047659095
215	0xbd606baa	-0.054790176
216	0xbe01ac18	-0.12663305
217	0x3e11a6d8	0.14223802
218	0xbdac61cf	-0.08417093
219	0x3d4393e3	0.047748458
220	0x3c71bbb5	0.0147542255
221	0xbde94fd6	-0.113921806
222	0x3df0dced	0.11760888
223	0x3d80cc07	0.06288915
224	0x3e59bbc7	0.21263038
225	0x3da027b6	0.07820074
226	0x3d2bca09	0.041940723
227	0xbe676ee0	-0.22600889
228	0x3d5f9739	0.054587577
229	0xba15fab6	-0.0005721258
230	0x3d45a4a2	0.04825271
231	0xbd51aa2d	-0.051187683
232	0x3e1ecda9	0.1550814
233	0x3ce8a5e9	0.028399425
234	0xbcf3a313	-0.029740846
235	0xbdc31cef	-0.09527003
236	0x3d3cc837	0.046089377
237	0x3c3e5f69	0.011619427
238	0xbd091801	-0.033470158
239	0xbe595d98	-0.2122711
240	0x3d84f1a3	0.06491401
241	0xbd17d7e0	-0.03707111
242	0xbd136cb1	-0.035992328
243	0xbe06dd0d	-0.13170262
244	0x3e13ee27	0.14446317
245	0xbe3016e1	-0.17196228
246	0xbe3a2688	-0.18178761
247	0x3cc9d494	0.024637498
248	0xbd0da25d	-0.03457867
249	0xbe52debe	-0.20592782
250	0xbdf44e7f	-0.119290344
251	0xbcb8e580	-0.022570372
252	0xbdc75d6a	-0.09734614
253	0xbb752646	-0.0037406846
254	0xbd06fa22	-0.03295339
255	0x3d51104e	0.05104094

network_body._body_endoder.seq_layers.2.bias f4 [128]
0	0x3c789b09	0.015173682
1	0x3cc090f4	0.023506619
2	0x3d00c788	0.031440288
3	0x3ca108f0	0.019657582
4	0x3d7e1559	0.062032077
5	0xbb9ec6cb	-0.0048454753
6	0x3d121691	0.035666052
7	0x3d40c85a	0.04706607
8	0x3994ff5a	0.00028419012
9	0x3c86f679	0.01647495
10	0x3d0a0dbd	0.033704508
11	0xbccf02ab	-0.025269827
12	0x3d32a7cd	0.04361706
13	0x3bb00be5	0.0053725117
14	0x3cb1b0bc	0.021690719
15	0x3c81d689	0.015849369
16	0xbc5d8883	-0.013521316
17	0x3c9de408	0.019273773
18	0x3c6cb22e	0.014446778
19	0x3d9b1fef	0.0757445
20	0x3d789fad	0.060699154
21	0x3cd34951	0.025791796
22	0x3cd8785c	0.02642458
23	0x3cd33f7e	0.025787111
24	0x3d2d7bf0	0.042354524
25	0xbca66d79	-0.020315873
26	0xbcbb7823	-0.022884434
27	0x3cf93035	0.030418495
28	0x3cb09655	0.021556059
29	0x3d846663	0.06464841
30	0x3d8095d8	0.062785804
31	0x3d2b394d	0.041802693
32	0x3cef4de2	0.029211942
33	0x3d36ef68	0.04466191
34	0xbcef2805	-0.029193887
35	0xba07b2e8	-0.00051765004
36	0x3cf654f7	0.030069811
37	0x3cd86660	0.026416004
38	0xbc06e6e7	-0.008233762
39	0x3d59203e	0.053009264
40	0x3d366e07	0.044538524
41	0x3d727e73	0.059202623
42	0x3cc87d8d	0.02447393
43	0x3caa638b	0.020799419
44	0x3b6c27f0	0.0036034547
45	0xbb6214ab	-0.0034497182
46	0x3cb4443f	0.022005199
47	0x3d29d6bc	0.041464552
48	0x3c4fad9a	0.012675667
49	0x3d0e27e1	0.034706
50	0x3d3bb2ee	0.045824938
51	0x3d568678	0.052374333
52	0x3d1ad566	0.03780117
53	0x3d8c90f8	0.06863588
54	0xbcdcdf5e	-0.026961979
55	0x3d834699	0.0640995
56	0x3cf278c7	0.029598607
57	0x3d0b4951	0.034005467
58	0x3b0084a9	0.0019610322
59	0x3d281f45	0.041045446
60	0x3caf24d5	0.021379868
61	0x3d7f9015	0.062393267
62	0x3c2dbead	0.010604543
63	0x3d3d1890	0.046166003
64	0x3cefdcc5	0.029280076
65	0x3c232503	0.009957555
66	0x3da54d64	0.08071402
67	0x3c0486a6	0.008088743
68	0x3d1d535d	0.03840958
69	0x3ca7b6aa	0.020472843
70	0x3d5b5217	0.053545084
71	0x3d789feb	0.060699385
72	0x3cf68d7c	0.030096762
73	0xbcfd3097	-0.030906959
74	0xbc09e2ed	-0.00841592
75	0x3db47ad7	0.08812492
76	0x3bfc10a5	0.007692414
77	0x3d3d17b0	0.04616517
78	0x3dbd9b96	0.09258191
79	0xbc63bee6	-0.013900494
80	0x3c16aeb9	0.009196931
81	0x3d435102	0.047684677
82	0x3d252feb	0.0403289
83	0x3d52d99d	0.051477063
84	0x3ccfb2d3	0.025353825
85	0x3d0d5743	0.034507047
86	0x3d283342	0.04106451
87	0x3d6f37c3	0.058402788
88	0x3c2ca4a4	0.0105373
89	0x3d5b43b3	0.05353136
90	0x3d34e092	0.04415948
91	0xbcd37156	-0.025810879
92	0x3d0dc9d4	0.034616306
93	0xbb809625	-0.0039241486
94	0x3c508a6e	0.012728317
95	0x3c4990df	0.012302606
96	0x3d64437f	0.05572843
97	0x3c705344	0.01466829
98	0x3ccc1192	0.024910722
99	0x3cca12e7	0.024667216
100	0x3c849fa8	0.016189411
101	0x3d25cdca	0.04047946
102	0xbd4dd354	-0.050250366
103	0x3d1217cf	0.035667237
104	0x3add50cd	0.0016885042
105	0x3d28873d	0.0411446
106	0xbd258301	-0.04040814
107	0x3d6088b0	0.054817855
108	0x3d5811bc	0.052751288
109	0x3d207868	0.03917733
110	0x3bf49858	0.00746445
111	0xbd85d0bb	-0.06533953
112	0x3d365585	0.04451515
113	0x3cda4594	0.026644506
114	0x3af626fc	0.0018779929
115	0x3c918aee	0.017766442
116	0x3d0b03cd	0.03393917
117	0x3c851d0f	0.016249208
118	0x3d5cc8f2	0.053902574
119	0x3ccb8510	0.024843723
120	0x3d039617	0.03212556
121	0x3c2a6c8a	0.010401854
122	0xbbd649d3	-0.0065395623
123	0x3c4e4aef	0.012591108
124	0x3cd8fac0	0.026486754
125	0xbd5c46aa	-0.053778328
126	0x3d3510b6	0.04420539
127	0x3b3f77f5	0.0029215787

action_model._continuous_distribution.log_sigma f4 [1, 2]
0	0xbf987ed8	-1.191371
1	0xbf912222	-1.1338542

action_model._continuous_distribution.mu.weight f4 [2, 128]
0	0x3d3d6c6a	0.04624597
1	0x3d13db16	0.03609761
2	0xbb540809	-0.0032353422
3	0x3dfff63f	0.124981396
4	0xbc27e2dc	-0.010246959
5	0x3d97c1df	0.07410025
6	0xbcbdc95e	-0.023167308
7	0xbc52deb4	-0.012870479
8	0x3d8a8571	0.06763733
9	0x3ceb05a5	0.028689215
10	0xbc0d4251	-0.008621768
11	0xbd1a7298	-0.03770694
12	0xbd167377	-0.03673121
13	0x3cd19023	0.025581425
14	0x3ccdfbfb	0.025144568
15	0xb958e83c	-0.0002068588
16	0x3ca0f472	0.01964781
17	0xbca4a289	-0.020097034
18	0x3c4629e0	0.012094945
19	0xbcb6fc78	-0.022337183
20	0x3d253440	0.040333033
21	0x3bd9de0a	0.0066487836
22	0x3daa713c	0.08322379
23	0x3c410dcc	0.011783075
24	0x3e173f04	0.14770132
25	0xbd405c67	-0.04696312
26	0xbd71f0be	-0.05906748
27	0x3e01f45c	0.12690872
28	0x3db2bbb4	0.08727208
29	0xbb069f10	-0.0020541586
30	0xbd1c2a4f	-0.038126286
31	0xb9701b86	-0.00022898437
32	0x3c871dbf	0.016493676
33	0x3c49b69a	0.012311602
34	0xbd894446	-0.06702475
35	0x3c213668	0.009839632
36	0x3b04ccdb	0.0020263705
37	0x3ce1aa21	0.027546944
38	0x3c1d7ec5	0.009612744
39	0xbda29fce	-0.079406366
40	0x3b9fa1d1	0.004871585
41	0x3cf8712f	0.030327408
42	0xbd85d204	-0.06534198
43	0x3d370fa2	0.044692643
44	0xbc60f1ae	-0.013729496
45	0xbc298a7c	-0.010347959
46	0x3cbc5bb9	0.022992956
47	0x3dadc3fc	0.08484647
48	0x3d9f0aef	0.07765757
49	0x3c24bb82	0.010054471
50	0x3d29fe89	0.04150251
51	0x3d16843e	0.03674721
52	0x3dcf96c1	0.10136176
53	0x3d929673	0.07157602
54	0xbe05087e	-0.12991521
55	0xbd0b0a8b	-0.0339456
56	0x3cbb1bdb	0.022840431
57	0xbd138fab	-0.036025684
58	0x3ce29cd5	0.027662674
59	0x3d424567	0.04742947
60	0x39c7db64	0.00038119697
61	0x3cdf1653	0.027232325
62	0xbc7ce027	-0.015434301
63	0x3d12bf12	0.03582675
64	0xbb87d26e	-0.004144958
65	0x3de70da8	0.112819016
66	0xbd66c9a6	-0.05634465
67	0x3b976d49	0.004621182
68	0x3c745405	0.01491261
69	0x3cc4845d	0.023988897
70	0xbb8bccd4	-0.004266361
71	0xbdaade25	-0.08343152
72	0xbc1673d2	-0.009182887
73	0xbdbb40d1	-0.09143222
74	0x3d38a9f0	0.04508394
75	0xbd4c73a6	-0.04991498
76	0x3b76fdde	0.0037687938
77	0xbbbe8756	-0.005814473
78	0xbcde6591	-0.02714804
79	0xbd4f4cad	-0.050610233
80	0xbdc2426f	-0.094853275
81	0xbd1a40c7	-0.037659433
82	0x3caefe20	0.02136141
83	0xbba683c3	-0.005081625
84	0x3de26ced	0.11055932
85	0x3d5f3a8c	0.054499194
86	0x3d174973	0.03693528
87	0x3bf65fbf	0.007518738
88	0x3cd8880a	0.026432056
89	0xbd590b9d	-0.05298959
90	0xbd872091	-0.065980084
91	0x3b4baa45	0.003107683
92	0x3d227163	0.039658915
93	0xbd66367f	-0.056204315
94	0x3bafd101	0.0053654914
95	0xbb0c3fbd	-0.0021400296
96	0x3d30029b	0.042971235
97	0xbdcb983a	-0.09941144
98	0xbdee8153	-0.116457604
99	0xbc35dc4e	-0.011099888
100	0x3e04ad8e	0.12956831
101	0xbc870bb7	-0.016485078
102	0x3d3c1ef6	0.045927964
103	0x3d12dd8b	0.03585581
104	0x3db3231a	0.087469295
105	0x3d494822	0.049141057
106	0xbbe98dfa	-0.0071275206
107	0x3c5c2336	0.013436129
108	0xbcccd100	-0.025002003
109	0x3d9ed754	0.07755914
110	0x3c3ff4b5	0.011716058
111	0xbd53720d	-0.05162244
112	0x3bead9cd	0.007167077
113	0x3d9e7da0	0.07738805
114	0x3d52bf6a	0.051452078
115	0x3c9b3d48	0.01895012
116	0xbb282ff0	-0.0025663339
117	0xbd1bac49	-0.0380061
118	0x3b98de65	0.0046651834
119	0xbc684f29	-0.0141790295
120	0x3d6101b9	0.054933283
121	0xbbc45e2b	-0.005992671
122	0x3cbb6254	0.022874035
123	0x3d76de10	0.06027037
124	0x3d1c8ed7	0.03822216
125	0xbc632bcf	-0.013865425
126	0x3ceaa766	0.028644275
127	0x3c03eca7	0.008052028
128	0xbd6508a6	-0.05591645
129	0xbcdf9786	-0.027293932
130	0xbe0366d6	-0.12832198
131	0xbd6f9d7f	-0.05849981
132	0x3c5072d4	0.01272269
133	0xbc6f9e65	-0.014625167
134	0x3cdf84f9	0.027285086
135	0x3d21eac8	0.039530545
136	0xbd037bef	-0.032100614
137	0xbe245bfb	-0.16050713
138	0x3d32e5fc	0.04367636
139	0xbcc9a362	-0.02461404
140	0x3d40c13d	0.047059286
141	0xbcd0bad3	-0.02547971
142	0x3d089659	0.033346508
143	0xbb699057	-0.0035639012
144	0xbc63cdcd	-0.013904047
145	0xbe21cbc6	-0.1580039
146	0x3bac42b8	0.005256977
147	0xbe053353	-0.1300786
148	0x3da8e4ba	0.08246751
149	0x3cd49469	0.025949674
150	0x3d10673b	0.0352547
151	0x3c953c9a	0.018217374
152	0xbe22070d	-0.15823002
153	0xbd66f224	-0.056383267
154	0x3d08ac62	0.033367522
155	0xbe16ae7a	-0.14714995
156	0xbe2a574c	-0.16634864
157	0x3e01d27e	0.12677953
158	0xbc16ab28	-0.00919608
159	0x3d250196	0.040284716
160	0x3d1f7fb2	0.03894014
161	0x3d82218b	0.06354054
162	0xbc6b032d	-0.014344019
163	0xbde108aa	-0.10987981
164	0x3d27f84b	0.041008275
165	0x3db1884b	0.08668574
166	0xbdf7500c	-0.120758146
167	0x3cc2e6be	0.023791667
168	0x3d527b5a	0.05138717
169	0x3d9f35bd	0.07773922
170	0xbe29944b	-0.16560476
171	0xbe251e1b	-0.16124766
172	0xbbe32bae	-0.0069326973
173	0xbdce4be6	-0.1007307
174	0xbe1bc351	-0.15211226
175	0xbd667e65	-0.056272883
176	0x3c518ab6	0.012789419
177	0x3d4ee0af	0.050507244
178	0xbe0ed928	-0.13950026
179	0x3d85d36d	0.06534467
180	0xbd17cdb0	-0.037061393
181	0x3d65c6b7	0.056097712
182	0xbd659cac	-0.056057617
183	0x3dba62ff	0.09100913
184	0x3d937900	0.07200813
185	0x3c1bff9c	0.009521391
186	0x3cabc016	0.020965617
187	0x3d3f896a	0.046761908
188	0xbdbcc5d3	-0.092174195
189	0x3d3b1204	0.045671478
190	0xbdde0138	-0.10840076
191	0x3d3597dd	0.04433428
192	0x3d48f427	0.049060967
193	0xbc2b0a26	-0.010439431
194	0x3d75e9bf	0.06003737
195	0xbe03cb42	-0.12870505
196	0x3d2c3ac7	0.042048242
197	0x3caaa64c	0.02083125
198	0x3d43a50c	0.047764823
199	0xbe03eaee	-0.12882587
200	0x3d338d20	0.04383576
201	0xbc58fb65	-0.013243531
202	0xbdc0f54e	-0.09421788
203	0xbe3ebf84	-0.18627745
204	0x3d17bbba	0.037044264
205	0x3d49566e	0.04915469
206	0xbe2988f1	-0.16556145
207	0xbdd3bffd	-0.10339353
208	0x3c8bdb4c	0.017072342
209	0xbe0b4dd8	-0.13603914
210	0x3d629e93	0.05532701
211	0xbdfb677c	-0.122755975
212	0x3d0c67ce	0.034278683
213	0x3ceb3c8b	0.028715393
214	0x3d67dfc6	0.05660989
215	0x3d6e1386	0.058124088
216	0xbe2c5894	-0.16830665
217	0x3d586c35	0.05283757
218	0x3d08891a	0.033333875
219	0x3d3230b1	0.043503467
220	0xbc280ac3	-0.010256472
221	0xbd3f0ca0	-0.0466429
222	0x3d3ebd4b	0.046567243
223	0xbc8f498c	-0.017491125
224	0x3d951038	0.07278484
225	0xbce07129	-0.027397709
226	0xbd50bfcf	-0.050964173
227	0xbd04c6b2	-0.032416053
228	0x3d81bc91	0.06334794
229	0x3d71c42f	0.059024986
230	0xbc98e83f	-0.018665431
231	0xbe3fef9f	-0.18743752
232	0xbd52555b	-0.051350933
233	0x3cfb51d0	0.03067866
234	0xbc86b2f1	-0.016442748
235	0x3d6f0055	0.058349926
236	0x3d7b8c69	0.061413202
237	0xbc23f315	-0.010006686
238	0xbd377a92	-0.044794627
239	0x3b993370	0.0046753213
240	0x3d85b474	0.06528559
241	0xbc549905	-0.012975936
242	0xbc6a0a1d	-0.014284638
243	0x3d7591a0	0.059953332
244	0x3d6a9e78	0.057280034
245	0xbd9dc85e	-0.07704233
246	0x3d65cc0a	0.05610279
247	0xbe0d4ab3	-0.13798027
248	0x3d3fe068	0.04684487
249	0x3ba3e070	0.0050011203
250	0xbcf2f68e	-0.029658582
251	0xbe1c13c0	-0.15241909
252	0xbcd1f5f0	-0.025629967
253	0xbcfb2dee	-0.03066155
254	0x3d92a795	0.0716087
255	0xbddd8035	-0.10815469

action_model._continuous_distribution.mu.bias f4 [2]
0	0xbc941b9c	-0.018079571
1	0x3d2a28d9	0.04154286

onnx::Div_51 f4 [90]
0	0x3e2d8982	0.16946986
1	0x3e85c2a4	0.26125062
2	0x3e99a8f8	0.30011725
3	0x3ea01e9b	0.3127335
4	0x3ea67dda	0.32517892
5	0x3eaa9b32	0.3332153
6	0x3eac84bd	0.3369502
7	0x3eac92a9	0.33705643
8	0x3eaa7a94	0.33296645
9	0x3ea4ec86	0.32211703
10	0x3e9a0d21	0.30088142
11	0x3e9290e8	0.2862618
12	0x3e8bd772	0.2731281
13	0x3e8347db	0.2564076
14	0x3e7d8178	0.2475642
15	0x3e6ff228	0.23432219
16	0x3e4a91ee	0.1978223
17	0x3e0fcac9	0.140422
18	0x3e01a021	0.1265874
19	0x3dfce0f4	0.12347594
20	0x3dfa11bd	0.122104146
21	0x3df8205f	0.12115549
22	0x3df8330f	0.12119114
23	0x3df8c7d1	0.12147487
24	0x3df38cf2	0.118921176
25	0x3de7c2cf	0.11316454
26	0x3de12cc2	0.10994865
27	0x3de10e3a	0.109890416
28	0x3de5b772	0.1121663
29	0x3deda401	0.11603547
30	0x3df87dfc	0.121334046
31	0x3e03aa5e	0.12857959
32	0x3e0d883e	0.13821504
33	0x3e1a5a93	0.15073614
34	0x3e2b1c5f	0.16710041
35	0x3e4033db	0.18769781
36	0x3e58d99b	0.2117676
37	0x3e69368f	0.22774719
38	0x3e63d997	0.22250973
39	0x3e5c3e7c	0.21508211
40	0x3e5682c9	0.20948328
41	0x3e6387a6	0.22219715
42	0x3ea28132	0.31739193
43	0x3eadaee3	0.3392249
44	0x3eb19393	0.34682903
45	0x3eb0efe0	0.3455801
46	0x3d0a8947	0.033822324
47	0x3bff5c85	0.0077930116
48	0x3b46eb66	0.003035271
49	0x3a5af9f3	0.00083532854
50	0x3a0312aa	0.00050000346
51	0x3a0312aa	0.00050000346
52	0x3a0312aa	0.00050000346
53	0x3a0312aa	0.00050000346
54	0x3a0312aa	0.00050000346
55	0x3a0312aa	0.00050000346
56	0x3a0312aa	0.00050000346
57	0x3a0312aa	0.00050000346
58	0x3a0312aa	0.00050000346
59	0x3a0312aa	0.00050000346
60	0x3a0312aa	0.00050000346
61	0x3c5f446f	0.013627156
62	0x3d19cbff	0.03754806
63	0x3d9e0f6f	0.077177875
64	0x3de361c4	0.11102632
65	0x3e1845c2	0.1487036
66	0x3e38a01c	0.18029827
67	0x3e46627e	0.1937351
68	0x3e521784	0.20516783
69	0x3e5c27a2	0.21499494
70	0x3e632d7a	0.22185317
71	0x3e6981b4	0.22803384
72	0x3e7e62c7	0.24842368
73	0x3e8aea3f	0.2713184
74	0x3e946696	0.28984517
75	0x3e9858e0	0.29755306
76	0x3e9aaafd	0.3020858
77	0x3e9cbe36	0.3061387
78	0x3e9f5375	0.3111836
79	0x3ea4845b	0.3213223
80	0x3eaa70d0	0.33289194
81	0x3eacc3cd	0.33743134
82	0x3eadeed3	0.3397127
83	0x3eaec2c3	0.34132966
84	0x3eaf54fb	0.34244522
85	0x3eaf9471	0.3429294
86	0x3eaf9572	0.34293705
87	0x3eaf9a81	0.34297565
88	0x3eafcd88	0.34336495
89	0x3eb03e9e	0.34422773
