results/parallelRC1/ParkParallelRC/ParkParallelRC-7499966.pt (torch, 704670 bytes, 44 tensors)

network_body.observation_encoder.processors.0.normalizer.running_mean f4 [90]
0	0x3f6589ec	0.8966358
1	0x3f4a92f4	0.7913048
2	0x3f33a12c	0.70167804
3	0x3f1c23e8	0.6099229
4	0x3f0d4b1b	0.55192727
5	0x3f037c67	0.513617
6	0x3ef757b8	0.48309112
7	0x3ee9f8d1	0.45697644
8	0x3edce87f	0.4314613
9	0x3ecd9d47	0.40159056
10	0x3ebb28bb	0.36554512
11	0x3eae9864	0.3410064
12	0x3ea4d020	0.32190037
13	0x3e9a7e6b	0.30174574
14	0x3e939aa0	0.28828907
15	0x3e8c70e6	0.27429885
16	0x3e8039e9	0.25044182
17	0x3e65fbfd	0.22459407
18	0x3e5f1a33	0.21787338
19	0x3e5d675f	0.21621464
20	0x3e5e8806	0.21731576
21	0x3e60be2e	0.21947548
22	0x3e63aded	0.22234316
23	0x3e65cadc	0.22440666
24	0x3e6683ba	0.22511187
25	0x3e67d4a8	0.22639716
26	0x3e6e3523	0.23262458
27	0x3e7460de	0.23865077
28	0x3e7a0df6	0.24419388
29	0x3e81ae4a	0.25328285
30	0x3e88e70a	0.2673877
31	0x3e913c4a	0.2836631
32	0x3e9a5466	0.30142516
33	0x3ea4c26f	0.3217959
34	0x3eb07701	0.34465793
35	0x3ebedb2d	0.37276593
36	0x3ed069ad	0.40705624
37	0x3edd6bc8	0.43246293
38	0x3ee10e8d	0.43956414
39	0x3ee4b4ab	0.4466909
40	0x3eeb4a0a	0.45954925
41	0x3efed9cb	0.49775538
42	0x3f2454b5	0.6419175
43	0x3f3abd46	0.7294506
44	0x3f45b859	0.7723442
45	0x3f498ee3	0.7873365
46	0x3f7efd03	0.99604815
47	0x3f7fe7d4	0.99963117
48	0x3f7ffa80	0.9999161
49	0x3f7ffe80	0.9999771
50	0x3f7fff56	0.99998987
51	0x3f7fff56	0.99998987
52	0x3f7fff56	0.99998987
53	0x3f7fff56	0.99998987
54	0x3f7fff56	0.99998987
55	0x3f7fff56	0.99998987
56	0x3f7fff56	0.99998987
57	0x3f7fff56	0.99998987
58	0x3f7fff56	0.99998987
59	0x3f7fff56	0.99998987
60	0x3f7fff56	0.99998987
61	0x3f7fdff5	0.99951106
62	0x3f7f89bd	0.99819547
63	0x3f7e0822	0.9923116
64	0x3f7bde04	0.98385644
65	0x3f785b95	0.97014743
66	0x3f747a55	0.95499164
67	0x3f729f55	0.9477437
68	0x3f70e91d	0.941057
69	0x3f6f565b	0.93491143
70	0x3f6e2e61	0.9303952
71	0x3f6d15c6	0.9261135
72	0x3f690de7	0.9103684
73	0x3f63e17c	0.89015937
74	0x3f5f0900	0.8712311
75	0x3f5cc178	0.8623271
76	0x3f5b367d	0.8563002
77	0x3f59be99	0.85056454
78	0x3f57cd72	0.8429786
79	0x3f551a8b	0.83243626
80	0x3f528478	0.8223338
81	0x3f513a85	0.8172992
82	0x3f505538	0.81380033
83	0x3f4f7ebf	0.81052774
84	0x3f4ed8c0	0.80799484
85	0x3f4e3ea4	0.8056433
86	0x3f4db4e2	0.8035413
87	0x3f4d12e5	0.80106956
88	0x3f4c5571	0.79817873
89	0x3f4b4ad0	0.7941103

network_body.observation_encoder.processors.0.normalizer.running_variance f4 [90]
0	0x484e7042	211393.03
1	0x48f8feff	509943.97
2	0x4924b783	674680.2
3	0x49333777	734071.44
4	0x49430f63	798966.2
5	0x494f17f8	848255.5
6	0x4954bcb5	871371.3
7	0x4955850d	874576.8
8	0x4950e217	855585.44
9	0x4943d94f	802196.94
10	0x492af65b	700261.7
11	0x491b32ad	635690.8
12	0x490e7780	583544.0
13	0x48fbd5d2	515758.56
14	0x48eb0b0e	481368.44
15	0x48d295c1	431278.03
16	0x48959610	306352.5
17	0x48147ab6	152042.84
18	0x47f01b8b	122935.086
19	0x47e45827	116912.305
20	0x47deed69	114138.82
21	0x47db0bfb	112151.96
22	0x47dacdf6	112027.92
23	0x47db9c4b	112440.586
24	0x47d2124d	107556.6
25	0x47bd3380	96871.0
26	0x47b1cefa	91037.95
27	0x47b12f11	90718.13
28	0x47b86521	94410.26
29	0x47c537a0	100975.25
30	0x47d782d2	110341.64
31	0x47f1f86b	123888.836
32	0x480be07c	143233.94
33	0x48267449	170449.14
34	0x484c8ee8	209467.62
35	0x48811e0b	264432.34
36	0x48a4dc3d	337633.9
37	0x48bfacdd	392550.9
38	0x48b7c065	376323.16
39	0x48ac2d8c	352620.38
40	0x48a36e55	334706.66
41	0x48b66019	373504.78
42	0x4937da59	753061.56
43	0x49518c97	858313.44
44	0x495a2594	893529.25
45	0x4957ec52	884421.1
46	0x45ef18b8	7651.09
47	0x43808b71	257.0894
48	0x4232979b	44.648052
49	0x40b2a043	5.582063
50	0x3fffff6e	1.9999826
51	0x3fffff6e	1.9999826
52	0x3fffff6e	1.9999826
53	0x3fffff6e	1.9999826
54	0x3fffff6e	1.9999826
55	0x3fffff6e	1.9999826
56	0x3fffff6e	1.9999826
57	0x3fffff6e	1.9999826
58	0x3fffff6e	1.9999826
59	0x3fffff6e	1.9999826
60	0x3fffff6e	1.9999826
61	0x44b9ab94	1485.3618
62	0x463033b3	11276.925
63	0x473a050d	47621.05
64	0x47c05d03	98490.02
65	0x482c5802	176480.03
66	0x487d081e	259104.47
67	0x4891fc74	298979.62
68	0x48a3a16d	335115.4
69	0x48b3957d	367787.9
70	0x48bf25fa	391471.8
71	0x48c9de53	413426.6
72	0x48ef3a46	489938.2
73	0x490e64a0	583242.0
74	0x49222e6d	664294.8
75	0x492ac0ba	699403.6
76	0x492fde15	720353.3
77	0x49347d6b	739286.7
78	0x493a4e58	763109.5
79	0x4942442c	795714.75
80	0x49493eac	824298.75
81	0x494c918a	837912.6
82	0x494f1ed1	848365.06
83	0x495110fb	856335.7
84	0x495279b0	862107.0
85	0x49532242	864804.1
86	0x49533900	865168.0
87	0x49536d39	866003.56
88	0x49542f8f	869112.94
89	0x4955ae9b	875241.7

network_body.processors.0.normalizer.running_mean f4 [90]
0	0x3f6589ec	0.8966358
1	0x3f4a92f4	0.7913048
2	0x3f33a12c	0.70167804
3	0x3f1c23e8	0.6099229
4	0x3f0d4b1b	0.55192727
5	0x3f037c67	0.513617
6	0x3ef757b8	0.48309112
7	0x3ee9f8d1	0.45697644
8	0x3edce87f	0.4314613
9	0x3ecd9d47	0.40159056
10	0x3ebb28bb	0.36554512
11	0x3eae9864	0.3410064
12	0x3ea4d020	0.32190037
13	0x3e9a7e6b	0.30174574
14	0x3e939aa0	0.28828907
15	0x3e8c70e6	0.27429885
16	0x3e8039e9	0.25044182
17	0x3e65fbfd	0.22459407
18	0x3e5f1a33	0.21787338
19	0x3e5d675f	0.21621464
20	0x3e5e8806	0.21731576
21	0x3e60be2e	0.21947548
22	0x3e63aded	0.22234316
23	0x3e65cadc	0.22440666
24	0x3e6683ba	0.22511187
25	0x3e67d4a8	0.22639716
26	0x3e6e3523	0.23262458
27	0x3e7460de	0.23865077
28	0x3e7a0df6	0.24419388
29	0x3e81ae4a	0.25328285
30	0x3e88e70a	0.2673877
31	0x3e913c4a	0.2836631
32	0x3e9a5466	0.30142516
33	0x3ea4c26f	0.3217959
34	0x3eb07701	0.34465793
35	0x3ebedb2d	0.37276593
36	0x3ed069ad	0.40705624
37	0x3edd6bc8	0.43246293
38	0x3ee10e8d	0.43956414
39	0x3ee4b4ab	0.4466909
40	0x3eeb4a0a	0.45954925
41	0x3efed9cb	0.49775538
42	0x3f2454b5	0.6419175
43	0x3f3abd46	0.7294506
44	0x3f45b859	0.7723442
45	0x3f498ee3	0.7873365
46	0x3f7efd03	0.99604815
47	0x3f7fe7d4	0.99963117
48	0x3f7ffa80	0.9999161
49	0x3f7ffe80	0.9999771
50	0x3f7fff56	0.99998987
51	0x3f7fff56	0.99998987
52	0x3f7fff56	0.99998987
53	0x3f7fff56	0.99998987
54	0x3f7fff56	0.99998987
55	0x3f7fff56	0.99998987
56	0x3f7fff56	0.99998987
57	0x3f7fff56	0.99998987
58	0x3f7fff56	0.99998987
59	0x3f7fff56	0.99998987
60	0x3f7fff56	0.99998987
61	0x3f7fdff5	0.99951106
62	0x3f7f89bd	0.99819547
63	0x3f7e0822	0.9923116
64	0x3f7bde04	0.98385644
65	0x3f785b95	0.97014743
66	0x3f747a55	0.95499164
67	0x3f729f55	0.9477437
68	0x3f70e91d	0.941057
69	0x3f6f565b	0.93491143
70	0x3f6e2e61	0.9303952
71	0x3f6d15c6	0.9261135
72	0x3f690de7	0.9103684
73	0x3f63e17c	0.89015937
74	0x3f5f0900	0.8712311
75	0x3f5cc178	0.8623271
76	0x3f5b367d	0.8563002
77	0x3f59be99	0.85056454
78	0x3f57cd72	0.8429786
79	0x3f551a8b	0.83243626
80	0x3f528478	0.8223338
81	0x3f513a85	0.8172992
82	0x3f505538	0.81380033
83	0x3f4f7ebf	0.81052774
84	0x3f4ed8c0	0.80799484
85	0x3f4e3ea4	0.8056433
86	0x3f4db4e2	0.8035413
87	0x3f4d12e5	0.80106956
88	0x3f4c5571	0.79817873
89	0x3f4b4ad0	0.7941103

network_body.processors.0.normalizer.running_variance f4 [90]
0	0x484e7042	211393.03
1	0x48f8feff	509943.97
2	0x4924b783	674680.2
3	0x49333777	734071.44
4	0x49430f63	798966.2
5	0x494f17f8	848255.5
6	0x4954bcb5	871371.3
7	0x4955850d	874576.8
8	0x4950e217	855585.44
9	0x4943d94f	802196.94
10	0x492af65b	700261.7
11	0x491b32ad	635690.8
12	0x490e7780	583544.0
13	0x48fbd5d2	515758.56
14	0x48eb0b0e	481368.44
15	0x48d295c1	431278.03
16	0x48959610	306352.5
17	0x48147ab6	152042.84
18	0x47f01b8b	122935.086
19	0x47e45827	116912.305
20	0x47deed69	114138.82
21	0x47db0bfb	112151.96
22	0x47dacdf6	112027.92
23	0x47db9c4b	112440.586
24	0x47d2124d	107556.6
25	0x47bd3380	96871.0
26	0x47b1cefa	91037.95
27	0x47b12f11	90718.13
28	0x47b86521	94410.26
29	0x47c537a0	100975.25
30	0x47d782d2	110341.64
31	0x47f1f86b	123888.836
32	0x480be07c	143233.94
33	0x48267449	170449.14
34	0x484c8ee8	209467.62
35	0x48811e0b	264432.34
36	0x48a4dc3d	337633.9
37	0x48bfacdd	392550.9
38	0x48b7c065	376323.16
39	0x48ac2d8c	352620.38
40	0x48a36e55	334706.66
41	0x48b66019	373504.78
42	0x4937da59	753061.56
43	0x49518c97	858313.44
44	0x495a2594	893529.25
45	0x4957ec52	884421.1
46	0x45ef18b8	7651.09
47	0x43808b71	257.0894
48	0x4232979b	44.648052
49	0x40b2a043	5.582063
50	0x3fffff6e	1.9999826
51	0x3fffff6e	1.9999826
52	0x3fffff6e	1.9999826
53	0x3fffff6e	1.9999826
54	0x3fffff6e	1.9999826
55	0x3fffff6e	1.9999826
56	0x3fffff6e	1.9999826
57	0x3fffff6e	1.9999826
58	0x3fffff6e	1.9999826
59	0x3fffff6e	1.9999826
60	0x3fffff6e	1.9999826
61	0x44b9ab94	1485.3618
62	0x463033b3	11276.925
63	0x473a050d	47621.05
64	0x47c05d03	98490.02
65	0x482c5802	176480.03
66	0x487d081e	259104.47
67	0x4891fc74	298979.62
68	0x48a3a16d	335115.4
69	0x48b3957d	367787.9
70	0x48bf25fa	391471.8
71	0x48c9de53	413426.6
72	0x48ef3a46	489938.2
73	0x490e64a0	583242.0
74	0x49222e6d	664294.8
75	0x492ac0ba	699403.6
76	0x492fde15	720353.3
77	0x49347d6b	739286.7
78	0x493a4e58	763109.5
79	0x4942442c	795714.75
80	0x49493eac	824298.75
81	0x494c918a	837912.6
82	0x494f1ed1	848365.06
83	0x495110fb	856335.7
84	0x495279b0	862107.0
85	0x49532242	864804.1
86	0x49533900	865168.0
87	0x49536d39	866003.56
88	0x49542f8f	869112.94
89	0x4955ae9b	875241.7

network_body._body_endoder.seq_layers.0.weight f4 [128, 90]
0	0xbd2ecb6a	-0.04267446
1	0xbe2788f1	-0.16360833
2	0xbdbabb44	-0.09117749
3	0x3d63cbe0	0.055614352
4	0xbd9dd559	-0.077067085
5	0xbe2f787c	-0.17135805
6	0x3b19382b	0.0023379426
7	0xbe299bdb	-0.1656336
8	0x3d75da3a	0.06002257
9	0x3d9079c4	0.07054475
10	0xbd82b24f	-0.06381666
11	0xbe04d84b	-0.12973134
12	0xbd03562f	-0.032064613
13	0xbcbd2c8c	-0.02309253
14	0xbdca34a1	-0.098733194
15	0xbd7b7985	-0.061395187
16	0xbd85c0e8	-0.065309346
17	0x3e40c750	0.18826032
18	0x3d40e36e	0.047091894
19	0x3d9fde31	0.078060515
20	0xbd4fbae1	-0.05071533
21	0xbe170e80	-0.14751625
22	0xbe01c9b4	-0.126746
23	0x3dea23f9	0.114326425
24	0x3d420551	0.04736835
25	0xbd60d301	-0.05488873
26	0xbd675429	-0.056476746
27	0xbd0f4bc1	-0.034984354
28	0xbea56990	-0.323071
29	0xbd3991ae	-0.045304947
30	0xbdc71db1	-0.0972246
31	0x3cc2a4aa	0.023760159
32	0xbde73851	-0.112900384
33	0x3de18e39	0.11013455
34	0xbc841a96	-0.016125958
35	0x3d398978	0.045297116
36	0xbe161847	-0.14657699
37	0x3d43488b	0.047676604
38	0x3dae3916	0.08506982
39	0x3d62baeb	0.05535404
40	0xbe1814f3	-0.14851741
41	0xbdcc5ae2	-0.09978272
42	0x3d729a1e	0.05922901
43	0xbb759d1a	-0.0037477673
44	0xbeaab567	-0.33341524
45	0x3c5f306c	0.0136223845
46	0xbdaf3efd	-0.08556936
47	0x3defb5ff	0.11704635
48	0xbe40744e	-0.18794367
49	0xbde94a2b	-0.113910995
50	0xbdc8dc2c	-0.098076195
51	0x3cae7c71	0.021299573
52	0x3df25bac	0.11833891
53	0x3e12fcd3	0.14354257
54	0xbe1828a0	-0.14859247
55	0xbddc6d06	-0.10762982
56	0xbe0cd604	-0.13753515
57	0x3e747b9a	0.23875275
58	0x3d63e489	0.05563787
59	0x3c7a8f72	0.015292989
60	0xbc8f6a5b	-0.017506769
61	0x3d0516ab	0.03249232
62	0xbd80a05c	-0.06280586
63	0x3b9356cc	0.004496431
64	0xbccf7362	-0.025323573
65	0xbc4e6ea4	-0.012599621
66	0x3ddfb3b6	0.10922949
67	0x3e484d67	0.19560777
68	0xbdda71b5	-0.10666219
69	0xbcac41a0	-0.021027386
70	0xbe324c61	-0.17411949
71	0x3e3c3e3e	0.18383119
72	0xbc927992	-0.017880235
73	0xbe40b1be	-0.18817803
74	0xbe6100bb	-0.21972935
75	0xbe210bb2	-0.15727118
76	0x3dc4febb	0.096188985
77	0xbd77084e	-0.060310654
78	0xbe38c869	-0.180452
79	0xbdf37343	-0.11887219
80	0x3e17a67c	0.14809602
81	0xbe21a5f4	-0.15785962
82	0xbd72eeef	-0.059309896
83	0xbdc8715f	-0.09787249
84	0xbe2e2cae	-0.17009231
85	0xba78d7f9	-0.00094926317
86	0xbdf74d34	-0.12075272
87	0xbcb5f0d9	-0.022209572
88	0xbdfdd495	-0.123940624
89	0xbe6e05d2	-0.23244408
90	0x3ce13787	0.027492298
91	0xbd829d7c	-0.06377694
92	0x3d963bb9	0.0733561
93	0x3e60422e	0.21900246
94	0x3d51898e	0.051156573
95	0x3dd4b155	0.10385386
96	0xbd82c747	-0.063856654
97	0xbd090527	-0.03345218
98	0x3d3967cf	0.045265015
99	0xbd583c42	-0.05279184
100	0x3dda3901	0.10655404
101	0xbd2baab6	-0.04191085
102	0x3de6d720	0.112715006
103	0xbca1e119	-0.019760655
104	0x3de160dc	0.110048026
105	0x3de47801	0.111557014
106	0x3e078bc1	0.13236906
107	0x3d4156dd	0.04720198
108	0x3c81d13e	0.015846845
109	0x3dd81b40	0.105520725
110	0xbe0fd258	-0.14045084
111	0xbdbe766d	-0.09299932
112	0xbd1f2855	-0.038856823
113	0xbcdd184d	-0.026989127
114	0xbd46aa6b	-0.048502367
115	0xbd783163	-0.060593974
116	0xbde90b65	-0.113791265
117	0xbdf19ef2	-0.117978945
118	0xbd85fe69	-0.065426655
119	0xbe4d13e3	-0.20027117
120	0xbc3eff99	-0.011657619
121	0xbe7d6355	-0.24744923
122	0xbe102a5f	-0.14078663
123	0x3cd6fcc7	0.02624358
124	0xbd28450d	-0.041081477
125	0x3e03e10e	0.1287882
126	0xbdc21c5e	-0.09478067
127	0xbe44b95e	-0.19211337
128	0xbe346e1e	-0.17620131
129	0x3d9b700a	0.07589729
130	0x3d90a9be	0.07063626
131	0xbc7ff4bd	-0.015622315
132	0x3e2a9c70	0.16661239
133	0x3d81cb44	0.06337598
134	0x3dab5f1e	0.083677515
135	0x3cf2d969	0.029644685
136	0xbe314c49	-0.17314257
137	0xbbef72a0	-0.0073073655
138	0x3c31191a	0.010809207
139	0xbc2ba77a	-0.010476941
140	0xbc9eb968	-0.019375518
141	0xbe16e174	-0.14734441
142	0xbe0e9488	-0.13923848
143	0xbbced99f	-0.0063125635
144	0xbd7138ea	-0.058892168
145	0x3e031474	0.12800771
146	0xbd13caa2	-0.036081918
147	0xbdf75106	-0.12076001
148	0xbca1dfe0	-0.019760072
149	0xbe3ab8cc	-0.18234557
150	0x3d56c684	0.052435413
151	0xbd96e8e7	-0.07368641
152	0x3caa6367	0.020799352
153	0x3d4705bd	0.048589457
154	0xbbe966b4	-0.007122839
155	0x3d315262	0.043291457
156	0xbe08b49c	-0.13350147
157	0xbd3b5fc8	-0.04574564
158	0xbde7216e	-0.11285673
159	0xbda33150	-0.0796839
160	0xbe1eb3bb	-0.15498249
161	0x3d496fad	0.049178768
162	0xbcf374de	-0.029718813
163	0xbe32018a	-0.173834
164	0x3df79552	0.120890275
165	0x3dad1d9d	0.08452914
166	0xbbe28e2a	-0.00691392
167	0x3cdc86b0	0.026919693
168	0x3ce523c7	0.027971162
169	0x3e171ee0	0.14757872
170	0xbd8ab582	-0.06772901
171	0x3dc4b186	0.096041724
172	0x3e131487	0.143633
173	0xbd4042b6	-0.04693862
174	0x3db1fe89	0.08691127
175	0x3d72a796	0.059241854
176	0xbd45e26e	-0.048311643
177	0x3da9132f	0.08255612
178	0x3d6248e3	0.05524529
179	0x3e5b9138	0.21442115
180	0x3e5a89d7	0.21341644
181	0x3e22bc2b	0.15892093
182	0x3e04f5bc	0.12984365
183	0xbcf44ad2	-0.029820833
184	0xbc4a2e10	-0.012340084
185	0x3e498245	0.196786
186	0xbca19314	-0.019723453
187	0x3dfda76d	0.123854496
188	0x3e798554	0.24367267
189	0x3df0d82c	0.117599815
190	0x3d65817c	0.05603169
191	0x3dbd6e81	0.092495926
192	0x3d72487a	0.05915115
193	0x3e5e6fe7	0.21722375
194	0x3d7b2f23	0.06132425
195	0xbdee5fd6	-0.11639373
196	0xbe327995	-0.17429192
197	0xbcf4c6f7	-0.02988003
198	0xbdf98511	-0.121835835
199	0x3e0a3a72	0.13498858
200	0xbdff4b7a	-0.12465568
201	0xbe351df5	-0.17687209
202	0xbda6c76b	-0.08143505
203	0xbc0c3ee2	-0.008559914
204	0xbe4dc7a5	-0.2009569
205	0xbbc2c07d	-0.0059433565
206	0x3dc1b80b	0.094589315
207	0x3d91fe31	0.07128561
208	0xbec63480	-0.3871193
209	0xbe4002e7	-0.18751107
210	0xbd9ca4b1	-0.076486
211	0xbd015d21	-0.031582955
212	0x3c1eacb4	0.00968473
213	0x3c8d9069	0.017280774
214	0xbc707b94	-0.014677901
215	0x3d25024b	0.04028539
216	0x3d9b6369	0.0758732
217	0x3d4600e0	0.04834068
218	0xbd6e9c42	-0.058254488
219	0x3d80b49f	0.06284451
220	0x3dca2d12	0.09871878
221	0x3cc89d3d	0.02448904
222	0xbd039989	-0.032128844
223	0x3e0edeba	0.13952151
224	0x3dfb23b0	0.12262666
225	0xbdc42173	-0.095766924
226	0x3e8dbded	0.27683964
227	0x3e1a9567	0.15096055
228	0xbe6e4480	-0.23268318
229	0xbe5bdf03	-0.21471791
230	0xbdc7e82a	-0.09761079
231	0xbe6ee626	-0.23329982
232	0x3ca6219b	0.020279696
233	0xbc4d30f9	-0.012523883
234	0xbd1ce3a3	-0.03830303
235	0xbe6be9ca	-0.23038402
236	0xbdde7ade	-0.10863279
237	0xbe9e27d9	-0.30889776
238	0xbea8c27f	-0.3296089
239	0xbd905506	-0.07047467
240	0xbdfa4e61	-0.12221981
241	0xbc1d67bd	-0.009607253
242	0xbd223c33	-0.03960819
243	0xbcdbf847	-0.026851786
244	0xbe77e498	-0.24208295
245	0xbc80a5c4	-0.015704043
246	0xbcaa1f67	-0.020766927
247	0xbe183414	-0.14863616
248	0xbc59f0fc	-0.013302084
249	0xbe864aba	-0.26228887
250	0xbdfe5d72	-0.12420167
251	0xbd6e5b44	-0.058192506
252	0x3d0d11c9	0.03444079
253	0xbd9d3a61	-0.076771505
254	0x3d8c12c1	0.068395145
255	0x3caaa0cf	0.020828633

network_body._body_endoder.seq_layers.0.bias f4 [128]
0	0xbbcc44a7	-0.00623377
1	0x3c37b983	0.011213663
2	0xbdb04008	-0.08605963
3	0xbc625b39	-0.0138156945
4	0x3d237dd9	0.03991494
5	0xbb73e5ba	-0.0037215785
6	0x3d5f383b	0.054496985
7	0x3d8eeac6	0.06978373
8	0x3d81cc21	0.063377626
9	0x3bf428dc	0.00745116
10	0x3d27c2e0	0.04095733
11	0x3d8ac4d2	0.06775822
12	0x3badb541	0.005301148
13	0x3b983bb6	0.00464579
14	0xbcd14be6	-0.025548887
15	0x3c485277	0.012226692
16	0x3d3ee882	0.046608455
17	0xba439cd5	-0.00074620295
18	0xbcb882d9	-0.02252333
19	0x3c8a14a4	0.016855545
20	0x3dd4a22d	0.10382495
21	0x3d502451	0.050815884
22	0x3da72554	0.08161417
23	0x3dcec9a6	0.10097055
24	0xbd948aa6	-0.072530076
25	0x3d1187cb	0.035529893
26	0x3c870290	0.016480714
27	0xbd3675e3	-0.04454602
28	0x3d8a10be	0.067414746
29	0x3d5d7602	0.05406762
30	0xbcbf7025	-0.023368904
31	0x3d59126d	0.052996088
32	0xbd2a2d4c	-0.041547105
33	0xbd6c61ae	-0.057710342
34	0x3d3289fd	0.043588627
35	0xbc13c649	-0.009019443
36	0x3bcef91a	0.0063163163
37	0xbd90fccb	-0.070794664
38	0xbb566d13	-0.0032718822
39	0x3c269227	0.010166681
40	0x3b6186df	0.0034412665
41	0x3cc2553b	0.023722282
42	0x3ddc2351	0.107489236
43	0x3d61df49	0.055144582
44	0x3d1e97de	0.03871905
45	0x3c15bdb3	0.009139466
46	0x3d01e7c6	0.031715177
47	0x3d84f5ca	0.06492193
48	0xbcd82a87	-0.026387466
49	0xbd72bfdb	-0.059265
50	0x3c85b531	0.01632175
51	0x3ca75086	0.020424139
52	0x3bea6d1f	0.0071541215
53	0x3bbfbd9e	0.0058514616
54	0xbb84c02b	-0.0040512285
55	0xbd58a787	-0.05289414
56	0x3d80e955	0.062945046
57	0xbc329bac	-0.010901373
58	0x3d370c8a	0.044689693
59	0x3d20bb0a	0.039240874
60	0x3dbb3f81	0.09142972
61	0x3d3bad00	0.045819283
62	0x3b729a5c	0.0037018275
63	0x3d07e80f	0.033180293
64	0xbc5fb95e	-0.013655035
65	0x3c052001	0.008125306
66	0x3d2815d6	0.04103645
67	0xbdbe062e	-0.092785224
68	0xbcb8d0c9	-0.022560494
69	0xbcda350a	-0.02663662
70	0x3cef51a8	0.029213741
71	0x3d3b17cd	0.045676995
72	0x374d87c0	1.2250559e-05
73	0xbc370f1b	-0.011173035
74	0x3d476a5d	0.04868542
75	0x3d61e956	0.055154167
76	0x3c8539c1	0.01626289
77	0xbd17b0a9	-0.03703371
78	0x3d5e3e20	0.054258466
79	0x3c956bc8	0.01823987
80	0x3d882ba9	0.066489525
81	0x3d0201e1	0.031740073
82	0x3d8ff76d	0.070296146
83	0x3d1c05ca	0.03809146
84	0x3cf73590	0.030176908
85	0x3d09a24c	0.033602044
86	0x3d7743c3	0.060367357
87	0xbc5212c1	-0.012821854
88	0xbd4a4d58	-0.049390167
89	0x3de825bc	0.11335322
90	0x3d39eb9a	0.045390703
91	0x3c199d6a	0.009375909
92	0xbdb93704	-0.090436965
93	0x3d0f5280	0.034990788
94	0x3d24559a	0.0401207
95	0xbcf21ce4	-0.029554792
96	0x3d952f9c	0.072844714
97	0x3d25e0a5	0.04049744
98	0x3d958127	0.073000245
99	0x3c8e31ae	0.017357673
100	0x3d9e39b0	0.07725847
101	0x3da00f34	0.078154
102	0x3d101ef2	0.03518576
103	0xbdab0289	-0.08350093
104	0x3cc855c8	0.024454966
105	0x3d0fc251	0.035097424
106	0xbd57fafe	-0.0527296
107	0x3cf38e79	0.029731022
108	0xbd9b8c60	-0.07595134
109	0x3d76304f	0.060104664
110	0xbce0ebf6	-0.027456265
111	0x3cbce71c	0.02305942
112	0xba819c27	-0.0009888456
113	0x3d6f6497	0.05844554
114	0x3dc76ec8	0.09737927
115	0x3b937363	0.004499839
116	0x3d748f37	0.059706893
117	0xbcb40448	-0.021974698
118	0x3c9609b4	0.018315174
119	0xbd5bac13	-0.0536309
120	0x3d309b25	0.043116707
121	0x3c0b1c0d	0.008490575
122	0xbd512f6d	-0.05107062
123	0x3dbfa0f7	0.093568735
124	0xbcf2dd5c	-0.029646568
125	0xbd901f5c	-0.07037231
126	0x3d2cd619	0.042196367
127	0xbc609e01	-0.013709546

network_body._body_endoder.seq_layers.2.weight f4 [128, 128]
0	0xbdd8d41d	-0.105873324
1	0x3daa3364	0.08310583
2	0x3d8d145a	0.068886474
3	0xbdfdbbcb	-0.12389334
4	0x3c51c8a8	0.012804188
5	0xbd4ad87e	-0.04952287
6	0x3dd4a28d	0.103825666
7	0xbd8bdc9a	-0.06829186
8	0xbd302379	-0.04300258
9	0x3cead974	0.028668143
10	0xbe2a4614	-0.16628295
11	0x3db8ef21	0.09029985
12	0x3d7da6c5	0.061926622
13	0x3d821cd1	0.063531525
14	0x3d866782	0.06562711
15	0x3d1d03bd	0.038333643
16	0x3e16bb1d	0.14719816
17	0xbd266768	-0.04062596
18	0xbd8f86a0	-0.070080996
19	0xbdc59aee	-0.09648691
20	0x3d88cba6	0.06679468
21	0x3e4cf029	0.20013489
22	0xbd43a1f7	-0.047761884
23	0xbd89c422	-0.067268625
24	0xbdc6aced	-0.09700952
25	0xbd9f4284	-0.07776359
26	0xbdebbfc0	-0.11511183
27	0x3d476d53	0.048688244
28	0x3bdbe1c0	0.006710261
29	0xbe49efe3	-0.19720416
30	0xbda4fe1c	-0.0805628
31	0xbd26ab44	-0.040690675
32	0xbda9a1b8	-0.082827985
33	0xbcaa035d	-0.020753557
34	0x3dab1e73	0.08355417
35	0xbc7f31be	-0.015575824
36	0xbd9fe15c	-0.07806656
37	0xbc26c557	-0.010178885
38	0xbdffc08c	-0.12487897
39	0x3c35e566	0.011102056
40	0xbe103638	-0.14083183
41	0xba80880d	-0.0009806171
42	0xbd06085a	-0.03272281
43	0xbd215389	-0.039386306
44	0xbe2e3207	-0.17011271
45	0xbdb29cc4	-0.08721307
46	0xbc2ae2c8	-0.010430045
47	0x3df2cab3	0.11855068
48	0xbe7a392a	-0.24435869
49	0xbe1fd284	-0.15607649
50	0xbda35cc0	-0.07976675
51	0xbd8daf81	-0.0691824
52	0x3d97c266	0.074101254
53	0x3d132468	0.03592339
54	0x3d9fd57c	0.07804391
55	0xbe03123c	-0.12799925
56	0xbc30c66b	-0.010789494
57	0xbeb28e4e	-0.34874195
58	0x3e114d6d	0.14189692
59	0x3d0eee92	0.034895487
60	0xbd63d750	-0.05562526
61	0x3cf53eac	0.02993711
62	0x3cd0e757	0.025500936
63	0x3e0ab9bf	0.13547419
64	0x3e1cbe22	0.15306905
65	0x3dccf07a	0.10006805
66	0xbbe3e602	-0.0069549093
67	0xbda87cbd	-0.08226917
68	0xbe44fa6f	-0.19236158
69	0xbc8278b8	-0.015926704
70	0x3da7c23b	0.081913434
71	0xbd4ec09b	-0.05047665
72	0x3e5c14d8	0.21492326
73	0xbde92891	-0.113846906
74	0xbd3cc588	-0.046086818
75	0xbdfeb2a7	-0.12436419
76	0x3d86ccaf	0.06582009
77	0x3d59e2a7	0.05319467
78	0x3dfbea50	0.12300551
79	0xbd3f574d	-0.046714116
80	0xbd1b863c	-0.037969813
81	0xbd06f07a	-0.03294418
82	0xbe7b458d	-0.2453825
83	0x3ccf45d2	0.025301848
84	0xbccb7b12	-0.024838958
85	0xbc8a6030	-0.016891569
86	0x3cd0d65f	0.025492845
87	0xbe36ebdc	-0.1786341
88	0xbe48c94b	-0.19608037
89	0x3e1867cb	0.14883344
90	0x3e39b1de	0.18134257
91	0xbd61dfd0	-0.055145085
92	0x3d7f99fa	0.062402703
93	0xbe07d509	-0.1326486
94	0xbddf572a	-0.10905297
95	0xbdd235f8	-0.102642
96	0xbdd5066f	-0.10401618
97	0xbd481d67	-0.048856165
98	0xbc1c1974	-0.009527553
99	0xbe244bda	-0.1604456
100	0x3dbfd734	0.093672186
101	0x3e17acf2	0.14812067
102	0xbd158f7b	-0.036513787
103	0x3d03c51d	0.032170404
104	0x3dcc27d7	0.09968536
105	0x3e4c4fdc	0.19952339
106	0xbd620f6d	-0.055190492
107	0xbd6a8c52	-0.057262726
108	0xbdfdd16b	-0.12393459
109	0x3e05eb85	0.13078125
110	0x3ccba952	0.024861012
111	0xbe06fff3	-0.13183574
112	0x3da56f9a	0.08077927
113	0x3d0b93ba	0.03407643
114	0x3de941b0	0.11389482
115	0xbe53f625	-0.20699365
116	0x3e166d43	0.14690118
117	0x3deba3c4	0.11505845
118	0xbd746606	-0.05966761
119	0x3ce79c97	0.02827291
120	0xbc4d2d0d	-0.012522948
121	0x3d9f3b9e	0.07775043
122	0xba974bd9	-0.001154299
123	0x3de0ca78	0.10976118
124	0xbc88c4ed	-0.016695464
125	0x3dcee0cb	0.101014696
126	0xbca99e53	-0.020705378
127	0x3d5e62ad	0.054293323
128	0xbd16f728	-0.0368568
129	0xbd05e3de	-0.032688014
130	0xbd20fcd3	-0.039303612
131	0x3d30285b	0.043007236
132	0x3da38e6d	0.0798615
133	0x3de60df1	0.11233128
134	0xbc5f0599	-0.013612174
135	0x3d24cca4	0.040234223
136	0xbe46d7e1	-0.19418289
137	0x3cdd5bb2	0.027021263
138	0xbe3f9604	-0.1870957
139	0x3c5f19e1	0.01361701
140	0x3d9fe270	0.078068614
141	0xbb8e93df	-0.0043511237
142	0x3c25f710	0.010129705
143	0x3cfabb8d	0.03060701
144	0x3e685ae1	0.22690918
145	0xbda338fc	-0.07969853
146	0xbd8592f9	-0.065221734
147	0x3d28cf96	0.041213594
148	0xbd0fd8fb	-0.035119038
149	0x3d12594a	0.035729684
150	0x3e33f4bb	0.17573826
151	0x3ccf69e7	0.025319053
152	0xbd8a68c6	-0.06758265
153	0xbd74e4eb	-0.059788626
154	0xbcc5cf92	-0.024146829
155	0xbd933ccd	-0.07189331
156	0xbd181b47	-0.03713539
157	0xbd10cddf	-0.035352584
158	0xbca4fae0	-0.020139158
159	0xbd7fae4f	-0.062422093
160	0xbd624bc4	-0.055248037
161	0xbc654fd9	-0.013996088
162	0x3d68858f	0.056767996
163	0xbd8ea343	-0.069647335
164	0x3d55d145	0.052201528
165	0xbe936e0d	-0.287949
166	0xbe191b10	-0.1495173
167	0xbe427278	-0.18988979
168	0xbcfe44d4	-0.03103868
169	0x3dd8ca75	0.105854906
170	0xbe21ae42	-0.1578913
171	0x3da5754b	0.080790125
172	0xbe22b361	-0.1588874
173	0xbe8447d7	-0.2583606
174	0xbb986573	-0.0046507656
175	0x3da8b6af	0.08237969
176	0xbd8e59d6	-0.069507286
177	0xbe38927b	-0.18024628
178	0x3d2667f8	0.040626496
179	0xbe20cb9b	-0.1570267
180	0x3d1c69eb	0.03818695
181	0x3b9e0132	0.00482192
182	0x3cf75da5	0.03019602
183	0xbe3c5a55	-0.18393834
184	0xbdf687a1	-0.12037588
185	0xbe7aa5b7	-0.24477278
186	0xbbd6ea8f	-0.0065587233
187	0x3dd5254b	0.10407504
188	0xbd45a159	-0.048249576
189	0x3c6ddf0e	0.014518512
190	0x3dfb17f7	0.1226043
191	0x3d429ac4	0.047510877
192	0x3e1e5ba1	0.15464641
193	0x3df6e04c	0.120545
194	0x3d6a2e58	0.057173103
195	0xbe231dcf	-0.1592934
196	0xbdb8ea03	-0.09029009
197	0x3c40ae30	0.01176028
198	0x3d6b1265	0.05739059
199	0x3e2b983f	0.16757296
200	0x3def6118	0.11688441
201	0x3d662d43	0.05619551
202	0x3d622f52	0.05522091
203	0xbd98403e	-0.07434128
204	0x3de9ba5d	0.11412499
205	0xbe952fd5	-0.29138055
206	0xbd227b18	-0.039668173
207	0x3d455ac7	0.048182275
208	0xbd05908b	-0.03260855
209	0x3df5b095	0.11996571
210	0xbde59930	-0.11210859
211	0xbd2ea56f	-0.04263824
212	0xbe21f18f	-0.15814804
213	0xbd803ca8	-0.06261569
214	0x3d45faf3	0.048335027
215	0xbda56472	-0.08075799
216	0xbdff2d2b	-0.12459787
217	0x3e1b6ecb	0.15178983
218	0xbda45271	-0.08023537
219	0x3d4e7a74	0.05040975
220	0x3ca94953	0.020664847
221	0xbdfd4c90	-0.12368119
222	0x3df2d320	0.11856675
223	0x3d8c3192	0.06845392
224	0x3e5d5478	0.21614254
225	0x3da728a0	0.081620455
226	0x3d34c86d	0.044136453
227	0xbe5c766d	-0.21529551
228	0x3d6cb6a5	0.05779137
229	0x3b8b024a	0.0042422162
230	0x3d7ac803	0.061225902
231	0xbd270ff4	-0.0407867
232	0x3e27c434	0.1638344
233	0x3ce9c630	0.028536886
234	0xbd1bf7be	-0.038078062
235	0xbdad77e1	-0.08470131
236	0x3d3e0a28	0.046396405
237	0x3ca79774	0.02045796
238	0xbcde346b	-0.027124604
239	0xbe5b961b	-0.2144398
240	0x3d685667	0.056723025
241	0xbd178ffa	-0.03700254
242	0xbd13bc3b	-0.036068182
243	0xbe05fe8a	-0.1308538
244	0x3e198316	0.14991412
245	0xbe25758d	-0.16158123
246	0xbe3820a0	-0.17981195
247	0x3cea8dbe	0.028632041
248	0xbcc33e0e	-0.0238333
249	0xbe5055fe	-0.20345303
250	0xbde159d8	-0.110034645
251	0xbc95d270	-0.018288821
252	0xbdbbbfbf	-0.09167432
253	0xbc2ddb92	-0.010611432
254	0xbd07ee73	-0.033186387
255	0x3d688b7c	0.056773648

network_body._body_endoder.seq_layers.2.bias f4 [128]
0	0x3cc16710	0.023608714
1	0x3ce48542	0.027895574
2	0x3cddf0fa	0.027092446
3	0x3ca7bcfe	0.02047586
4	0x3d7db8f6	0.06194397
5	0xbb3bf0c7	-0.002867745
6	0x3d0d2611	0.03446013
7	0x3d3c7fa3	0.04602016
8	0x3b61d42a	0.0034458735
9	0x3c8b7003	0.017021185
10	0x3d028564	0.031865492
11	0xbcea191c	-0.028576426
12	0x3d31cb55	0.043406803
13	0x3b9094a4	0.0044122506
14	0x3cbc0393	0.022950923
15	0x3cbf8692	0.023379598
16	0xbb877f00	-0.0041350126
17	0x3cab4a74	0.020909525
18	0x3c956d6f	0.018240659
19	0x3da928a6	0.08259706
20	0x3d74057b	0.05957554
21	0x3cd4f01e	0.025993403
22	0x3ce718c1	0.028210046
23	0x3cf26a59	0.029591726
24	0x3d1f93de	0.038959377
25	0xbcb5185f	-0.022106348
26	0xbcbd508d	-0.023109699
27	0x3d0d1038	0.034439296
28	0x3cbd2195	0.023087302
29	0x3d824481	0.06360722
30	0x3d6e5024	0.058181897
31	0x3d2f2683	0.042761337
32	0x3ceea56d	0.029131616
33	0x3d340c44	0.04395701
34	0xbd0911d5	-0.03346427
35	0xba5b66a7	-0.00083694834
36	0x3ceb8d41	0.028753879
37	0x3ccb8f02	0.024848465
38	0xbc1721ae	-0.009224338
39	0x3d5288b5	0.051399905
40	0x3d330982	0.04371024
41	0x3d70575f	0.058677074
42	0x3cc61ab6	0.024182659
43	0x3cac84ad	0.021059358
44	0xb90df829	-0.00013539255
45	0xbb92fe33	-0.0044858693
46	0x3caf57b1	0.02140412
47	0x3d270c61	0.04078329
48	0x3c606333	0.013695526
49	0x3d0d1f6f	0.034453806
50	0x3d3bb55f	0.045827266
51	0x3d551959	0.052026127
52	0x3d1f1d13	0.038846087
53	0x3d8cacd8	0.06868905
54	0xbd076bb9	-0.033061717
55	0x3d80989e	0.062791094
56	0x3d062b27	0.032755997
57	0x3d0850ba	0.03328011
58	0x3beb5e0a	0.007182841
59	0x3d235001	0.03987122
60	0x3c9fc2c2	0.019502047
61	0x3d80d6f8	0.06291002
62	0x3c30a771	0.010782109
63	0x3d427f49	0.04748467
64	0x3ce31c26	0.027723383
65	0x3c39af75	0.011333336
66	0x3da4d1ec	0.08047852
67	0x3bce476e	0.006295136
68	0x3d229bcc	0.03969936
69	0x3cb5fe7f	0.02221608
70	0x3d595973	0.05306382
71	0x3d4dd289	0.05024961
72	0x3cf1c1de	0.029511388
73	0xbd0db8e8	-0.03460017
74	0xbbdf69a8	-0.006818015
75	0x3dae836b	0.0852116
76	0x3c8ed2b3	0.017434454
77	0x3d3cc468	0.046085745
78	0x3dbfc020	0.09362817
79	0xbc3e7991	-0.011625663
80	0x3c19af3a	0.009380156
81	0x3d247454	0.04015
82	0x3d26633b	0.040621977
83	0x3d3af868	0.045647055
84	0x3cd4350a	0.025904197
85	0x3d1151b0	0.035478294
86	0x3d2ac35e	0.041690223
87	0x3d700030	0.05859393
88	0x3bf1f53b	0.00738397
89	0x3d55eeb6	0.052229606
90	0x3d2a5e52	0.041593857
91	0xbcea7052	-0.028618012
92	0x3d1cced5	0.038283188
93	0xbbcba412	-0.006214627
94	0x3c483ad5	0.012221058
95	0x3c82c039	0.0159608
96	0x3d60021d	0.054689515
97	0x3c39e038	0.011344962
98	0x3c9f2129	0.019424992
99	0x3ccf3f45	0.025298724
100	0x3cbd54d0	0.02311173
101	0x3d222e1b	0.03959475
102	0xbd43fbc3	-0.04784752
103	0x3d04a5dd	0.032384742
104	0x3b9f29b7	0.0048572677
105	0x3d2fd639	0.042928908
106	0xbd1e83b5	-0.038699824
107	0x3d5eb6b9	0.054373477
108	0x3d503ed0	0.050841153
109	0x3d27c406	0.040958427
110	0x3c3e830e	0.011627926
111	0xbd87aa94	-0.06624332
112	0x3d3152ac	0.043291733
113	0x3cf50f32	0.029914472
114	0x3bdb2b2a	0.006688495
115	0x3c94e06f	0.018173425
116	0x3d07383c	0.033012614
117	0x3c6d782c	0.014493983
118	0x3d5cdc89	0.053921256
119	0x3cd2994e	0.025707867
120	0x3d054996	0.03254088
121	0x3c4b2565	0.012399052
122	0xbb78352c	-0.003787349
123	0x3c35a677	0.011087052
124	0x3d012bdf	0.03153598
125	0xbd5218b1	-0.05129308
126	0x3d33e8fe	0.04392337
127	0x3aa6f45c	0.001273762

action_model._continuous_distribution.log_sigma f4 [1, 2]
0	0xbf92853f	-1.1446913
1	0xbf8d3c70	-1.1034069

action_model._continuous_distribution.mu.weight f4 [2, 128]
0	0x3d3fcc0c	0.046825454
1	0x3d180559	0.037114475
2	0xbbab246e	-0.0052228486
3	0x3e00d891	0.12582614
4	0xbc279e0b	-0.0102305515
5	0x3d963ef4	0.07336226
6	0xbcd55f72	-0.026046488
7	0xbc6fdd02	-0.014640095
8	0x3d8c01e3	0.06836297
9	0x3d02cbad	0.03193252
10	0xbc05c980	-0.008165717
11	0xbd37007f	-0.044678207
12	0xbd298f6e	-0.04139655
13	0x3c89ddbb	0.016829362
14	0x3cd1aa63	0.025593942
15	0xbb97d740	-0.004633814
16	0x3cb7ba9b	0.022427848
17	0xbc9a7318	-0.01885371
18	0x3c2d077f	0.010560869
19	0xbc81ed4b	-0.01586022
20	0x3d3395cf	0.04384404
21	0x3c23f052	0.010006027
22	0x3da801d3	0.08203473
23	0x3c5ee372	0.013604032
24	0x3e0db69d	0.13839193
25	0xbd3a1438	-0.04542944
26	0xbd80dc50	-0.06292021
27	0x3e0242d3	0.12720804
28	0x3db2073a	0.086927846
29	0xbabd6b0e	-0.001445146
30	0xbd1e9a04	-0.0387211
31	0xbb48bf5f	-0.0030631644
32	0x3c90f5cc	0.01769533
33	0x3c479582	0.0121816415
34	0xbd8c8f8a	-0.068633154
35	0x3c0a6c56	0.008448681
36	0x3b4f8221	0.0031663256
37	0x3cdb5b53	0.026776945
38	0x3c58e5b1	0.013238356
39	0xbda25e0d	-0.07928095
40	0x3b5d55d6	0.0033773086
41	0x3d04d01b	0.032425027
42	0xbd808480	-0.06275272
43	0x3d3797fb	0.044822674
44	0xbc32c752	-0.0109117795
45	0xbc1993db	-0.00937363
46	0x3ccc81f5	0.024964312
47	0x3da8005a	0.08203192
48	0x3d9a1ef6	0.075254366
49	0x3c20f058	0.009822927
50	0x3d3113d3	0.043231796
51	0x3d1cfcba	0.038326956
52	0x3dd19a21	0.10234476
53	0x3d95ba35	0.07310907
54	0xbe049c4a	-0.12950245
55	0xbd0add47	-0.033902433
56	0x3cb3ab1b	0.021932175
57	0xbd1e6ac6	-0.038676046
58	0x3cdf3fb7	0.027252061
59	0x3d3d366c	0.04619448
60	0x3b17c2bc	0.0023156842
61	0x3cee443e	0.029085275
62	0xbc6525cd	-0.013986063
63	0x3d12baac	0.035822555
64	0xbbc0ccb8	-0.0058837794
65	0x3dda22e8	0.10651189
66	0xbd6b8d2f	-0.05750769
67	0x3ba06948	0.004895363
68	0x3c8eca11	0.017430337
69	0x3caac0db	0.020843914
70	0xbba41782	-0.005007685
71	0xbdae4402	-0.08509065
72	0xbc217a4a	-0.009855816
73	0xbdbc72e0	-0.09201598
74	0x3d231867	0.039818194
75	0xbd52b348	-0.051440507
76	0xb9d4a046	-0.00040555204
77	0xbbbec811	-0.0058221896
78	0xbce14ef9	-0.027503477
79	0xbd31ca06	-0.043405555
80	0xbdcc0cb8	-0.099633634
81	0xbcfa7536	-0.030573469
82	0x3cafbe54	0.02145306
83	0xbbbf770c	-0.005843049
84	0x3de7b1b7	0.11313193
85	0x3d6cb5fd	0.057790745
86	0x3d1a2751	0.03763515
87	0x3c087fa5	0.008331214
88	0x3cd7ac03	0.026327139
89	0xbd5dbddf	-0.054136153
90	0xbd8b01e2	-0.067874685
91	0xba8c18c0	-0.0010688528
92	0x3d12ac46	0.035808824
93	0xbd559350	-0.05214244
94	0x3bd79f96	0.0065803034
95	0xbbda4077	-0.006660517
96	0x3d44dd34	0.04806252
97	0xbdcba5f4	-0.099437624
98	0xbddc9a19	-0.10771579
99	0xbc492e19	-0.012279057
100	0x3e048f1e	0.1294522
101	0xbcbab53a	-0.022791494
102	0x3d3c3f99	0.04595909
103	0x3d0fedae	0.03513878
104	0x3db847dd	0.08998082
105	0x3d4fe94f	0.05075961
106	0xbc87d01c	-0.016578726
107	0x3c77aad8	0.015116416
108	0xbcc65f79	-0.024215447
109	0x3d9f9abb	0.07793184
110	0x3c39994b	0.011328052
111	0xbd4f3074	-0.050583318
112	0x3c0b90b6	0.0085183885
113	0x3da4fa98	0.080556095
114	0x3d641bbe	0.05569052
115	0x3caf9aa3	0.021436041
116	0x3a783810	0.0009468803
117	0xbd241120	-0.040055394
118	0x3b835655	0.0040080943
119	0xbc99cd54	-0.018774666
120	0x3d7aaa16	0.061197363
121	0xbc6a909c	-0.014316704
122	0x3cd2adc2	0.02571762
123	0x3d65b840	0.056083918
124	0x3d1fa9ef	0.03898042
125	0xbc945b96	-0.018110078
126	0x3cee86ea	0.029117066
127	0x3bc8ae6c	0.0061243083
128	0xbd60bcf9	-0.05486772
129	0xbcc8be47	-0.024504794
130	0xbdfe7cb4	-0.12426129
131	0xbd5eaa12	-0.05436141
132	0x3c5756de	0.013143269
133	0xbc359cff	-0.011084794
134	0x3d03e86e	0.032204084
135	0x3d2ac02b	0.041687172
136	0xbcebd710	-0.028789073
137	0xbe249a98	-0.16074598
138	0x3d3c2567	0.045934107
139	0xbc900229	-0.017579155
140	0x3d3d0644	0.046148553
141	0xbc951f99	-0.018203543
142	0x3d0a6693	0.03378923
143	0xbb271053	-0.0025491908
144	0xbcb1298d	-0.021626258
145	0xbe20b261	-0.15693046
146	0x3bc6ad39	0.00606313
147	0xbe0ba60d	-0.13637562
148	0x3d9eaa5e	0.07747339
149	0x3cbe7c2e	0.023252573
150	0x3d05ea7f	0.032694336
151	0x3cbf4bb9	0.023351537
152	0xbe1e0f8a	-0.15435615
153	0xbd785f2a	-0.06063763
154	0x3cffe90e	0.031239059
155	0xbe16cc83	-0.14726453
156	0xbe290b26	-0.16508159
157	0x3dfe1e82	0.12408163
158	0xbb820229	-0.0039675427
159	0x3d269700	0.04067135
160	0x3d1162c1	0.03549457
161	0x3d727e59	0.059202526
162	0xbc4279df	-0.011869877
163	0xbddf2cdc	-0.10897228
164	0x3d1484dd	0.03625952
165	0x3dac5f14	0.08416572
166	0xbdf71c62	-0.120659605
167	0x3cf70d61	0.030157747
168	0x3d52e28d	0.051485587
169	0x3d9a8796	0.07545392
170	0xbe28de57	-0.16491066
171	0xbe248321	-0.16065647
172	0xbc23d6be	-0.009999929
173	0xbdcbd316	-0.09952371
174	0xbe1c37a3	-0.15255599
175	0xbd5f98d3	-0.054589104
176	0x3c808e30	0.0156928
177	0x3d486174	0.048921064
178	0xbe0cd68e	-0.13753721
179	0x3d80886b	0.0627602
180	0xbd0d9480	-0.03456545
181	0x3d50a7f9	0.05094144
182	0xbd60195f	-0.054711696
183	0x3db4d054	0.08828798
184	0x3d9804df	0.07422804
185	0x3c86f358	0.016473457
186	0x3d0880c4	0.033325925
187	0x3d41ccba	0.047314383
188	0xbdb87880	-0.090073586
189	0x3d309682	0.043112285
190	0xbddbdb8e	-0.10735236
191	0x3d2b81a4	0.04187168
192	0x3d41ce7e	0.047316067
193	0xbbc1d15b	-0.0059148497
194	0x3d72dfbe	0.05929541
195	0xbe03b7bb	-0.12863056
196	0x3d265342	0.040606745
197	0x3c76886a	0.015047172
198	0x3d3ec435	0.046573836
199	0xbdf6188f	-0.12016403
200	0x3d272500	0.04080677
201	0xbc3a6d57	-0.011378608
202	0xbdba5408	-0.09098059
203	0xbe3e0f58	-0.1856054
204	0x3d552b4f	0.052043255
205	0x3d4d7fa7	0.050170567
206	0xbe2909a3	-0.16507582
207	0xbde4645d	-0.11151955
208	0x3c9a9c06	0.018873226
209	0xbe08a10b	-0.13342683
210	0x3d5622e8	0.052279383
211	0xbdf2f9b8	-0.11864036
212	0x3d03f7c1	0.0322187
213	0x3cf02fde	0.0293197
214	0x3d5ebd16	0.054379545
215	0x3d68d794	0.056846216
216	0xbe2bcbc1	-0.16776945
217	0x3d64753b	0.055775862
218	0x3d1e65f8	0.038671464
219	0x3d3c7b58	0.046016067
220	0xbb9a2223	-0.0047037764
221	0xbd5fb219	-0.054613207
222	0x3d2e0010	0.04248053
223	0xbc9dcc4e	-0.01926246
224	0x3d82a23d	0.06378601
225	0xbcd7a4f3	-0.026323771
226	0xbd836833	-0.06416359
227	0xbcfa2b64	-0.030538268
228	0x3d76de66	0.06027069
229	0x3d699f50	0.057036698
230	0xbc6619b9	-0.014044219
231	0xbe3dcf5f	-0.18536137
232	0xbd472856	-0.04862245
233	0x3cdb6043	0.0267793
234	0xbc0b132d	-0.008488459
235	0x3d643a31	0.05571956
236	0x3d6be536	0.05759164
237	0xbb1a041e	-0.002350099
238	0xbd1b513e	-0.037919275
239	0xbb76e24d	-0.0037671507
240	0x3d71d5ef	0.059041914
241	0xbc01b62b	-0.007916967
242	0xbc6c18a7	-0.014410174
243	0x3d6dac46	0.05802562
244	0x3d68bb52	0.056819268
245	0xbd9b269a	-0.07575722
246	0x3d603111	0.054734293
247	0xbe0adfae	-0.1356189
248	0x3d1fe3ee	0.03903573
249	0x3c4bb2d7	0.012432775
250	0xbcd3e653	-0.025866663
251	0xbe199298	-0.14997327
252	0xbcb6eaf1	-0.022328826
253	0xbce74158	-0.0282294
254	0x3d90f2cb	0.07077559
255	0xbdd3b6b9	-0.10337586

action_model._continuous_distribution.mu.bias f4 [2]
0	0xbc5e5d4f	-0.013572051
1	0x3d2288ed	0.039681364

exp_avg f4 [128, 90]
0	0xb9c02a61	-0.00036652668
1	0xb99d0741	-0.00029950778
2	0xb9fa4d2c	-0.00047741213
3	0xba2464d7	-0.000627113
4	0xb95df08c	-0.00021165813
5	0xb76391bd	-1.3564187e-05
6	0xb982b43a	-0.00024929811
7	0xb95e5980	-0.00021204911
8	0xb99b6bf8	-0.00029644347
9	0xb9a07b0b	-0.00030609252
10	0xb96bfad4	-0.00022504787
11	0xb94ad516	-0.00019343602
12	0xb91f285a	-0.00015178454
13	0xb8e9df68	-0.000111519184
14	0xb8a83003	-8.019807e-05
15	0xb88f3745	-6.829066e-05
16	0xb8a88879	-8.036284e-05
17	0xb916a7fb	-0.00014367692
18	0xb9462d22	-0.00018899565
19	0xb904680a	-0.00012627259
20	0xb8982a64	-7.255821e-05
21	0xb8cda69c	-9.806195e-05
22	0xb8ab9383	-8.1813916e-05
23	0xb89bd5f4	-7.430828e-05
24	0xb876db9d	-5.88555e-05
25	0xb8a3a58a	-7.80328e-05
26	0xb8a35094	-7.7874545e-05
27	0xb86f31ab	-5.7028297e-05
28	0xb90e6575	-0.00013579971
29	0xb974dff1	-0.00023353078
30	0x36521eba	3.1310324e-06
31	0x39d3b056	0.00040376437
32	0x398a41c8	0.00026370422
33	0x386082ea	5.3527685e-05
34	0x397421d3	0.00023282254
35	0x39812662	0.00024633395
36	0x39961a23	0.00028629703
37	0x398f8dcb	0.0002738073
38	0x397e0691	0.00024225774
39	0x398986a4	0.0002623099
40	0x39901bb2	0.00027486455
41	0x39a72b3b	0.0003188493
42	0x39b58382	0.0003462099
43	0x39c8b568	0.0003828213
44	0x39cc7a5f	0.00039001086
45	0x39892cac	0.0002616396
46	0xb88bed85	-6.672278e-05
47	0xb8a3453e	-7.785343e-05
48	0x3534fc44	6.742232e-07
49	0x350b9925	5.200439e-07
50	0x34ce7eff	3.8462892e-07
51	0x34ce7eff	3.8462892e-07
52	0x34ce7eff	3.8462892e-07
53	0x34ce7eff	3.8462892e-07
54	0x34ce7eff	3.8462892e-07
55	0x34ce7eff	3.8462892e-07
56	0x34ce7eff	3.8462892e-07
57	0x34ce7eff	3.8462892e-07
58	0x34ce7eff	3.8462892e-07
59	0x34ce7eff	3.8462892e-07
60	0x34ce7eff	3.8462892e-07
61	0x3536cf74	6.810217e-07
62	0x35750033	9.12699e-07
63	0x35fe001b	1.8924505e-06
64	0x36396bf3	2.7629983e-06
65	0x368012f8	3.8169055e-06
66	0x369f5cc9	4.749371e-06
67	0x36ac3ea0	5.13329e-06
68	0x36b78306	5.469078e-06
69	0x36c16ee7	5.764759e-06
70	0x36c8808b	5.975429e-06
71	0x36cf1ba4	6.1722985e-06
72	0x36e6caa9	6.878127e-06
73	0x37019c8b	7.725447e-06
74	0x370e607a	8.486322e-06
75	0x37145a84	8.842562e-06
76	0x37189427	9.0944e-06
77	0x371c9feb	9.335558e-06
78	0x3721fd04	9.655258e-06
79	0x3a7eae3e	0.0009715295
80	0x392841bd	0.00016046218
81	0x39029017	0.00012451444
82	0x39159909	0.00014266757
83	0x391015d6	0.00013741045
84	0x390a4152	0.0001318504
85	0x3907f46c	0.00012965658
86	0x39071f9c	0.00012886379
87	0x390de70d	0.00013532881
88	0x395c98b1	0.00021037717
89	0x39858b15	0.0002547136
90	0xba88e0af	-0.0010442937
91	0xba4e7efd	-0.0007877199
92	0xba115d05	-0.0005545172
93	0xb982bfdb	-0.00024938476
94	0xb9312fc4	-0.0001689783
95	0x37005522	7.649216e-06
96	0xb92ebe1e	-0.00016664757
97	0xb960241f	-0.00021375761
98	0xb93e4061	-0.00018143795
99	0xb8e5a010	-0.00010949385
100	0xb97806e0	-0.00023653684
101	0xb99d7481	-0.00030032176
102	0xb996692a	-0.00028688583
103	0xb984e362	-0.00025346415
104	0xb971cb0e	-0.00023059195
105	0xb9705d79	-0.00022923005
106	0xb969606b	-0.0002225653
107	0xb98cb243	-0.00026835696
108	0xb98632c6	-0.000255963
109	0xb9bc5db5	-0.00035927971
110	0xb9e67916	-0.00043959235
111	0xb9debb8e	-0.0004248288
112	0xb9d6c83c	-0.00040966447
113	0xba000874	-0.0004884072
114	0xb9f431a7	-0.000465763
115	0xba12d1dd	-0.000560073
116	0xba1c644e	-0.00059658743
117	0xba2436aa	-0.0006264249
118	0xba3ab385	-0.00071220874
119	0xba5dc2d6	-0.0008459514
120	0xb9d9aaa7	-0.0004151661
121	0x399e2c7a	0.00030169246
122	0xb9c0a420	-0.00036743376
123	0x39fa68ea	0.00047761883
124	0x39e140d1	0.00042963636
125	0x39e3717e	0.00043381372
126	0x39ebb192	0.00044954993
127	0x39e66f2b	0.00043951845
128	0x39d8ad24	0.0004132773
129	0x398d8587	0.000269931
130	0x3933931e	0.00017125576
131	0x38c77a3a	9.511826e-05
132	0x397e925b	0.0002427785
133	0xb72dd77a	-1.0361773e-05
134	0xb946aea5	-0.00018947812
135	0xb901f1bb	-0.0001239245
136	0x395ba962	0.00020948568
137	0x3956587c	0.00020441593
138	0x374e2391	1.2286838e-05
139	0x371eff95	9.477041e-06
140	0x36eb317d	7.009307e-06
141	0x36eb317d	7.009307e-06
142	0x36eb317d	7.009307e-06
143	0x36eb317d	7.009307e-06
144	0x36eb317d	7.009307e-06
145	0x36eb317d	7.009307e-06
146	0x36eb317d	7.009307e-06
147	0x36eb317d	7.009307e-06
148	0x36eb317d	7.009307e-06
149	0x36eb317d	7.009307e-06
150	0x36eb317d	7.009307e-06
151	0x3750376c	1.241067e-05
152	0x378b805c	1.6629863e-05
153	0x38109fe9	3.4481203e-05
154	0x385327b4	5.0343297e-05
155	0x3891d8f1	6.954547e-05
156	0x38b57a22	8.6535016e-05
157	0x38c425c6	9.353044e-05
158	0x38d0fa5e	9.9648474e-05
159	0x38dc471e	0.00010503664
160	0x38e45372	0.0001088743
161	0x38ebd956	0.00011246155
162	0x3903690b	0.00012532265
163	0x3913991e	0.00014076053
164	0x3922226e	0.0001546235
165	0x3928f064	0.00016111281
166	0x392dc09f	0.00016570323
167	0x39325be5	0.00017009636
168	0x39387726	0.00017591994
169	0x39df68eb	0.00042612044
170	0x3832d5f7	4.2637777e-05
171	0x3892d94d	7.002298e-05
172	0x38a8f555	8.056561e-05
173	0x38a9fac8	8.1052596e-05
174	0x38a2899f	7.750396e-05
175	0x38a1d3f9	7.716561e-05
176	0x38a38c38	7.7985635e-05
177	0x38984146	7.260083e-05
178	0xb7cfdbbe	-2.4778648e-05
179	0xb8e566ba	-0.00010938705
180	0xb976e625	-0.00023546124
181	0xb8c42716	-9.3532886e-05
182	0xb7cec9fc	-2.465117e-05
183	0x39776225	0.00023592317
184	0xb89e9ada	-7.5628705e-05
185	0xb91c1979	-0.00014886809
186	0xb8877017	-6.45818e-05
187	0x37b3075d	2.1341892e-05
188	0x389eb24e	7.567239e-05
189	0xb93f15d6	-0.00018223314
190	0x37af11af	2.086986e-05
191	0xb8ebc1a5	-0.00011241742
192	0xb8abfc72	-8.200937e-05
193	0xb7ee27a4	-2.839027e-05
194	0x3794e066	1.7747469e-05
195	0x3798d03a	1.8216775e-05
196	0x33283365	3.916229e-08
197	0xb7efaaa3	-2.857048e-05
198	0xb86bb9fc	-5.6201578e-05
199	0xb8bcdf5f	-9.006145e-05
200	0xb9834a3d	-0.0002504158
201	0xb8bd0a64	-9.014158e-05
202	0xb94c8ace	-0.00019506665
203	0xb93e58f3	-0.00018152948
204	0xb975a032	-0.00023424698
205	0xb937f4cc	-0.00017543434
206	0xb939b483	-0.0001771022
207	0xb935fe2e	-0.00017356194
208	0xb8fc601a	-0.00012034197
209	0xb8fae95e	-0.00011964397
210	0xb83701b0	-4.363217e-05
211	0x39118361	0.0001387722
212	0xb88fb163	-6.851812e-05
213	0x391e3fd8	0.00015091838
214	0x39094770	0.0001309195
215	0x39086c26	0.00013010259
216	0x3901ae44	0.00012367318
217	0x391d55f7	0.00015004711
218	0x3918f57d	0.00014587301
219	0x38f70d53	0.0001178036
220	0x38c62a2c	9.449231e-05
221	0x36edbcb6	7.0851193e-06
222	0x38829f96	6.228608e-05
223	0x37da8b15	2.605239e-05
224	0xb8090590	-3.2668526e-05
225	0xb7a0bf6d	-1.9162626e-05
226	0xb68028e4	-3.8194576e-06
227	0xb61dcc8b	-2.3513883e-06
228	0xb516a996	-5.6126134e-07
229	0xb4e86b1e	-4.3291305e-07
230	0xb4abe579	-3.2018195e-07
231	0xb4abe579	-3.2018195e-07
232	0xb4abe579	-3.2018195e-07
233	0xb4abe579	-3.2018195e-07
234	0xb4abe579	-3.2018195e-07
235	0xb4abe579	-3.2018195e-07
236	0xb4abe579	-3.2018195e-07
237	0xb4abe579	-3.2018195e-07
238	0xb4abe579	-3.2018195e-07
239	0xb4abe579	-3.2018195e-07
240	0xb4abe579	-3.2018195e-07
241	0xb5182e9e	-5.669225e-07
242	0xb54be4d8	-7.5956405e-07
243	0xb5d36211	-1.5749266e-06
244	0xb61a501d	-2.299442e-06
245	0xb6552be7	-3.1765028e-06
246	0xb6849fc2	-3.952505e-06
247	0xb68f585d	-4.272019e-06
248	0xb698b8ee	-4.5514817e-06
249	0xb6a0fab3	-4.797557e-06
250	0xb6a6dc86	-4.972858e-06
251	0xb6ac5bf9	-5.1367065e-06
252	0xb6c011bb	-5.72411e-06
253	0xb6d7bab4	-6.4292344e-06
254	0xb6ecf937	-7.0623605e-06
255	0xb6f6ebe7	-7.358834e-06
