results/parallelRC1/ParkParallelRC/ParkParallelRC-8499898.onnx (onnx, 119662 bytes, 9 tensors)

network_body.observation_encoder.processors.0.normalizer.running_mean f4 [90]
0.89199513 0.7886174 0.6997858 0.6071231 0.54560804 0.50412065 0.47339305 0.44751772
0.42244345 0.39352494 0.3592695 0.33502096 0.31500328 0.29477668 0.2810859 0.26739305
0.24537554 0.22193553 0.2157734 0.21467729 0.2164681 0.21895172 0.22190014 0.22401854
0.22486393 0.22637841 0.23261322 0.23863512 0.24428113 0.25329182 0.26703656 0.28310546
0.3011277 0.32206172 0.3448501 0.37251055 0.40556827 0.42960846 0.43628764 0.4435246
0.4566465 0.49610233 0.64063513 0.72551155 0.76707333 0.7810939 0.9952465 0.99948674
0.9998927 0.99997693 0.99998975 0.9999898 0.9999898 0.9999898 0.99998987 0.99998987
0.99998987 0.99998987 0.99998987 0.99998987 0.99998987 0.99951106 0.99842167 0.993215
0.9857542 0.9736586 0.96028477 0.9538902 0.9479901 0.942566 0.9385825 0.9348052
0.92091304 0.90308344 0.8863799 0.8785232 0.8732044 0.8681448 0.8614502 0.84807503
0.8310851 0.82055295 0.80801433 0.80366623 0.800986 0.798592 0.79648 0.794084
0.79134625 0.7874898
00000000: cb59 643f d4e2 493f 2a25 333f 6b6c 1b3f
00000010: f8ac 0b3f 0d0e 013f 9360 f23e 0b21 e53e
00000020: 824a d83e 1a7c c93e 2cf2 b73e de87 ab3e
00000030: 1c48 a13e f8ec 963e 7eea 8f3e bee7 883e
00000040: ba43 7b3e 1143 633e b4f3 5c3e 5dd4 5b3e
00000050: d0a9 5d3e e134 603e ca39 633e 1e65 653e
00000060: bb42 663e becf 673e 2932 6e3e c45c 743e
00000070: d524 7a3e 77af 813e 04b9 883e 33f3 903e
00000080: 692d 9a3e 46e5 a43e 3190 b03e b4b9 be3e
00000090: a5a6 cf3e a4f5 db3e 1861 df3e a815 e33e
000000a0: 92cd e93e 2001 fe3e aa00 243f 20bb 393f
000000b0: eb5e 443f c5f5 473f 7ac8 7e3f 5dde 7f3f
000000c0: f8f8 7f3f 7dfe 7f3f 54ff 7f3f 55ff 7f3f
000000d0: 55ff 7f3f 55ff 7f3f 56ff 7f3f 56ff 7f3f
000000e0: 56ff 7f3f 56ff 7f3f 56ff 7f3f 56ff 7f3f
000000f0: 56ff 7f3f f5df 7f3f 9098 7f3f 5743 7e3f
00000100: 635a 7c3f b141 793f 39d5 753f 2632 743f
00000110: 7baf 723f 014c 713f f146 703f 654f 6f3f
00000120: f5c0 6b3f 7a30 673f cbe9 623f e5e6 603f
00000130: 538a 5f3f bd3e 5e3f 0088 5c3f 721b 593f
00000140: fec1 543f c20f 523f 07da 4e3f 12bd 4d3f
00000150: 6b0d 4d3f 8670 4c3f 1de6 4b3f 1749 4b3f
00000160: ab95 4a3f ee98 493f

network_body._body_endoder.seq_layers.0.weight f4 [128, 90]
-0.03115113 -0.13959002 -0.06325693 0.08212605 -0.07942035 -0.17730312 -0.012997451 -0.17522785
0.06380495 0.08298688 -0.07892994 -0.11770482 -0.0070117535 0.0032621499 -0.08044569 -0.049905285
-0.0544234 0.20136636 0.06255505 0.08831689 -0.04750976 -0.14571492 -0.1230089 0.11130797
0.044072974 -0.05871762 -0.059694912 -0.04195242 -0.32770377 -0.051640138 -0.10678754 0.0072081923
-0.106759496 0.108184725 -0.023649938 0.037769444 -0.15408611 0.040704135 0.07797677 0.043479092
-0.16759191 -0.12708405 0.03964377 -0.021731969 -0.34681866 -0.0007052128 -0.06986012 0.14184144
-0.17753449 -0.11659011 -0.11736464 0.010441169 0.10748082 0.13268466 -0.15132816 -0.11036556
-0.14027084 0.23601706 0.052902024 0.012557061 -0.020242665 0.029756151 -0.065463826 0.0018282167
-0.027989708 -0.015263799 0.10656575 0.19294392 -0.109325185 -0.02369018 -0.17678222 0.18116628
-0.020563425 -0.19087185 -0.22243245 -0.15998463 0.09346236 -0.06305419 -0.18320644 -0.1289716
0.1214066 -0.17100236 -0.07463964 -0.111838825 -0.18460333 -0.015640493 -0.13563819 -0.037420325
-0.14033145 -0.24709551 0.032949097 -0.059714716 0.07585556 0.21605454 0.051373776 0.10493895
-0.064810395 -0.029430285 0.051167496 -0.046308897 0.10929574 -0.037811164 0.115258306 -0.014064993
0.11372253 0.114946984 0.1359428 0.051176123 0.021054648 0.109837666 -0.13511804 -0.08908811
-0.034839906 -0.025625696 -0.046773463 -0.058739863 -0.10970892 -0.115518756 -0.060040615 -0.19528541
-0.0049459375 -0.24793781 -0.11328025 0.023456672 -0.041887503 0.12871143 -0.0950206 -0.1913909
-0.1699857 0.083634265 0.07465407 -0.013357098 0.16796443 0.06333124 0.08380666 0.03429958
-0.15264082 -0.00058769085 0.04382067 -0.0033668762 -0.0078062234 -0.14960657 -0.1415004 -0.008574838
-0.06135916 0.1255414 -0.03854885 -0.12322674 -0.022226997 -0.1848118 0.04996848 -0.07615361
0.018412815 0.04619692 -0.009512418 0.040902194 -0.13589 -0.048133716 -0.11524463 -0.082071245
-0.15736914 0.046792064 -0.032102767 -0.17621458 0.118509986 0.08215065 -0.009286555 0.024559014
0.025628213 0.14164938 -0.07317348 0.0951416 0.15893243 -0.03491331 0.09894105 0.071105
-0.036263417 0.09446231 0.06912713 0.22314563 0.20106931 0.15223378 0.11714028 -0.038996343
-0.03504692 0.17917396 -0.033694163 0.11427937 0.23557411 0.1152663 0.050242826 0.08982786
0.053640883 0.20414108 0.045066945 -0.13352458 -0.1924048 -0.051830087 -0.14066076 0.12337275
-0.13954102 -0.19613323 -0.08677199 -0.015661255 -0.20138219 -0.0062748455 0.09439476 0.07578892
-0.38463947 -0.18406737 -0.064936794 -0.022814268 0.025339693 0.024495024 -0.003981652 0.051417854
0.08635397 0.06112899 -0.041087165 0.07904634 0.11562973 0.037245978 -0.016412903 0.15236555
0.13399309 -0.08561217 0.28502104 0.16467836 -0.25012833 -0.2163387 -0.10016868 -0.23428397
0.019295778 -0.013507739 -0.04093276 -0.23301387 -0.11126258 -0.31152803 -0.33223915 -0.07310446
-0.12484991 -0.012237212 -0.042159438 -0.029427035 -0.24464501 -0.018265326 -0.02332783 -0.15119685
-0.015862169 -0.2648494 -0.12676133 -0.060761 0.031835422 -0.07942821 0.06569304 0.018109348
00000000: a830 ffbc b0f0 0ebe d98c 81bd b431 a83d
00000010: 23a7 a2bd f38e 35be 43f3 54bc ee6e 33be
00000020: 2bac 823d 06f5 a93d 05a6 a1bd 3a0f f1bd
00000030: dac2 e5bb cbc9 553b b6c0 a4bd 7c69 4cbd
00000040: 12eb 5ebd fc32 4e3e dd1c 803d 7cdf b43d
00000050: 9899 42bd 4b36 15be 17ec fbbd 6ff5 e33d
00000060: dd85 343d e381 70bd a782 74bd 4dd6 2bbd
00000070: cac8 a7be 9c84 53bd 6db3 dabd b332 ec3b
00000080: b9a4 dabd f48f dd3d 84bd c1bc 22b4 1a3d
00000090: c0c8 1dbe 61b9 263d 49b2 9f3d 2217 323d
000000a0: 379d 2bbe 5222 02be 8161 223d 3e07 b2bc
000000b0: 3792 b1be 08de 38ba d312 8fbd e23e 113e
000000c0: 9acb 35be ccc6 eebd df5c f0bd 7011 2b3c
000000d0: e71e dc3d 7dde 073e c5f5 1abe 5707 e2bd
000000e0: 29a3 0fbe 75ae 713e cbaf 583d 22bc 4d3c
000000f0: f2d3 a5bc 2cc3 f33c e611 86bd c6a0 ef3a
00000100: ac4a e5bc 0315 7abc 253f da3d 1793 453e
00000110: e2e5 dfbd e911 c2bc 6606 35be a783 393e
00000120: a174 a8bc e973 43be 55c5 63be 03d3 23be
00000130: 3269 bf3d 8e22 81bd 789a 3bbe 2211 04be
00000140: 06a4 f83d 3e1b 2fbe abdc 98bd c10b e5bd
00000150: a808 3dbe 7e20 80bc bde4 0abe 0e46 19bd
00000160: 0cb3 0fbe 9b06 7dbe a2f5 063d 6b97 74bd
00000170: 295a 9b3d 673d 5d3e 4f6d 523d 3bea d63d
00000180: 50bb 84bd c817 f1bc 0295 513d 66ae 3dbd
00000190: 72d6 df3d e1df 1abd 8c0c ec3d db70 66bc
000001a0: 5ce7 e83d 5369 eb3d 9734 0b3e 0e9e 513d
000001b0: cc7a ac3c 92f2 e03d 625c 0abe d473 b6bd
000001c0: 4ab4 0ebd fbec d1bc 8895 3fbd 3699 70bd
000001d0: 12af e0bd 1995 ecbd 26ed 75bd e6f8 47be
000001e0: 8811 a2bb 69e3 7dbe 7aff e7bd 3528 c03c
000001f0: 3b92 2bbd eecc 033e 299a c2bd fafb 43be
00000200: bb10 2ebe 7148 ab3d 3ce4 983d bbd7 5abc
00000210: defe 2b3e cfb3 813d d3a2 ab3d b77d 0c3d
00000220: e04d 1cbe 440f 1aba 4e7d 333d cfa6 5cbb
00000230: 59cb ffbb 7732 19be 7be5 10be 7a7d 0cbc
00000240: be53 7bbd ed8d 003e 66e5 1dbd 4d5e fcbd
00000250: 6415 b6bc 4e3f 3dbe c0ab 4c3d 6df6 9bbd
00000260: 79d6 963c fb38 3d3d f9d9 1bbc 0f89 273d
00000270: c026 0bbe dc27 45bd 6005 ecbd f814 a8bd
00000280: 6025 21be 09a9 3f3d 317e 03bd 9871 34be
00000290: 5db5 f23d 9a3e a83d a326 18bc fc2f c93c
000002a0: 42f2 d13c 890c 113e fadb 95bd 99d9 c23d
000002b0: 2fbf 223e 4201 0fbd 9ba1 ca3d 809f 913d
000002c0: f388 14bd 7575 c13d 8692 8d3d 4a80 643e
000002d0: 1de5 4d3e 2ce3 1b3e 3ee7 ef3d a1ba 1fbd
000002e0: 5c8d 0fbd 6179 373e e402 0abd 4d0b ea3d
000002f0: 573a 713e bd10 ec3d 6ccb 4d3d abf7 b73d
00000300: 8bb6 5b3d 5c0a 513e 1e98 383d abba 08be
00000310: c405 45be c94b 54bd 6009 10be daaa fc3d
00000320: d7e3 0ebe 26d7 48be 83b5 b1bd 084c 80bc
00000330: 2237 4ebe 389d cdbb 0a52 c13d 3937 9b3d
00000340: 77ef c4be 287c 3cbe 95fd 84bd fde4 babc
00000350: 3095 cf3c caa9 c83c 8578 82bb 879b 523d
00000360: 5ada b03d 6462 7a3d 044b 28bd 0ce3 a13d
00000370: 48cf ec3d 3d8f 183d 5a74 86bc b705 1c3e
00000380: 7c35 093e 6f55 afbd 47ee 913e 72a1 283e
00000390: d210 80be e487 5dbe 3d25 cdbd 23e8 6fbe
000003a0: 2e12 9e3c 904f 5dbc 1ca9 27bd 309b 6ebe
000003b0: a3dd e3bd 9a80 9fbe 401b aabe cbb7 95bd
000003c0: 4fb1 ffbd 967e 48bc 60af 2cbd f710 f1bc
000003d0: 3984 7abe 2aa1 95bc 011a bfbc 59d3 1abe
000003e0: 61f1 81bc 579a 87be b9cd 01be 87e0 78bd
000003f0: dc65 023d 42ab a2bd 138a 863d 0e5a 943c

network_body._body_endoder.seq_layers.0.bias f4 [128]
-0.008935096 0.00878445 -0.088656515 -0.015973339 0.039314695 0.003953892 0.055021327 0.06923454
0.06368686 0.004105912 0.039649036 0.05932993 0.011490712 0.008140051 -0.025338788 0.018197972
0.048066467 0.00035493926 -0.025925046 0.014398477 0.10258835 0.04891536 0.07996133 0.10021731
-0.07647453 0.033683836 0.024584645 -0.04223118 0.06616519 0.05497501 -0.025779402 0.05201503
-0.04002065 -0.0637667 0.042880766 0.0005521494 0.004659906 -0.07704878 -0.0036320314 0.011526716
-0.0030395824 0.015050016 0.0993505 0.05472745 0.03715107 0.006813608 0.026920753 0.056312952
-0.026101764 -0.062548436 0.016249994 0.021939378 0.0053243577 0.0046727927 -0.00029782334 -0.05646363
0.061647866 -0.010159304 0.03968196 0.03724713 0.09170117 0.04338219 0.0044347146 0.025886824
-0.014252972 0.0048907725 0.03537719 -0.08675863 -0.023596428 -0.030843925 0.023679817 0.02896352
0.0073550087 -0.0127407545 0.047131646 0.054835156 0.015808208 -0.035299934 0.05090642 0.015469982
0.07229322 0.030042574 0.06913013 0.038544487 0.03198701 0.026297787 0.060462005 -0.0060500596
-0.04070097 0.11201007 0.0449675 0.010828317 -0.08225191 0.030695304 0.038883075 -0.028778413
0.06986966 0.038577262 0.06979095 0.015448545 0.073869236 0.075711094 0.032669127 -0.09459465
0.019147987 0.02655954 -0.050624285 0.035929188 -0.06858954 0.058385372 -0.023823088 0.01735517
-0.011575684 0.05761508 0.09424742 0.0011273078 0.052925203 -0.019962212 0.01835777 -0.05954641
0.039349232 0.002392706 -0.05190166 0.09337156 -0.02193341 -0.081986144 0.048247445 -0.017776998
00000000: 8264 12bc a7ec 0f3c 8c91 b5bd 85da 82bc
00000010: 7208 213d a68f 813b 0b5e 613d d7ca 8d3d
00000020: 426e 823d e38a 863b 0767 223d f103 733d
00000030: 8a43 3c3c d95d 053c 4a93 cfbc ea13 953c
00000040: 58e1 443d 2417 ba39 c360 d4bc 97e7 6b3c
00000050: d719 d23d 795b 483d c4c2 a33d bc3e cd3d
00000060: ae9e 9cbd 10f8 093d bd65 c93c 9afa 2cbd
00000070: 9d81 873d 7a2d 613d 532f d3bc b60d 553d
00000080: b1ec 23bd 1e98 82bd bea3 2f3d 1ebe 103a
00000090: 20b2 983b c0cb 9dbd 6007 6ebb 8dda 3c3c
000000a0: bb33 47bb 5894 763c 4678 cb3d e429 603d
000000b0: b82b 183d b044 df3b e988 dc3c 69a8 663d
000000c0: 5ed3 d5bc 6519 80bd b51e 853c 36ba b33c
000000d0: f377 ae3b 3a1e 993b 2c25 9cb9 6846 67bd
000000e0: 7982 7c3d 3673 26bc 8d89 223d 7290 183d
000000f0: d3cd bb3d 86b1 313d 1551 913b 9b10 d43c
00000100: 4c85 69bc c642 a03b ace7 103d 82ae b1bd
00000110: 4c4d c1bc 66ac fcbc 2dfc c13c e744 ed3c
00000120: 4902 f13b 99be 50bc 1d0d 413d d49a 603d
00000130: 3780 813c aa96 10bd 4083 503d cf75 7d3c
00000140: 780e 943d d81b f63c 1994 8d3d d3e0 1d3d
00000150: d004 033d 756e d73c 02a7 773d 943f c6bb
00000160: 0fb6 26bd 8965 e53d d72f 383d 4169 313c
00000170: b073 a8bd b874 fb3c dc43 1f3d b5c0 ebbc
00000180: d317 8f3d 3103 1e3d 8fee 8e3d e51b 7d3c
00000190: c148 973d 6b0e 9b3d 10d0 053d d7ba c1bd
000001a0: 3ddc 9c3c 6493 d93c 695b 4fbd 7c2a 133d
000001b0: ac78 8cbd 8025 6f3d a328 c3bc 6e2c 8e3c
000001c0: f0a7 3dbc cafd 6b3d cb04 c13d 2cc2 933a
000001d0: 19c8 583d cb87 a3bc 0963 963c f0e6 73bd
000001e0: a92c 213d f2ce 1c3b d696 54bd 9739 bf3d
000001f0: b2ad b3bc 5ae8 a7bd 1d9f 453d 11a1 91bc

network_body._body_endoder.seq_layers.2.weight f4 [128, 128]
-0.119837075 0.068266094 0.055600967 -0.13795209 0.005987417 -0.05612391 0.105612986 -0.068330206
-0.050579526 0.0069164773 -0.1756716 0.068418056 0.04750956 0.062564254 0.045824815 0.021372736
0.1452677 -0.042453356 -0.06742726 -0.10199604 0.060250953 0.2040637 -0.053087402 -0.06428039
-0.091819 -0.07939293 -0.117388554 0.01873249 0.0041204086 -0.20464626 -0.104233675 -0.04551407
-0.07999346 -0.026053362 0.08269673 -0.007599133 -0.081287235 -0.012676637 -0.12954931 0.0025140485
-0.14324585 -0.03076115 -0.049996875 -0.066830516 -0.17280021 -0.107085295 -0.011886936 0.11475912
-0.25105497 -0.1868594 -0.08402146 -0.071797825 0.06940643 0.033455703 0.07550989 -0.14755079
-0.021648338 -0.37007987 0.143125 0.037295043 -0.058441572 0.009834824 0.005506675 0.13322507
0.1629667 0.10279105 -0.013234839 -0.10160905 -0.19637018 -0.011382612 0.08115237 -0.05968002
0.22532634 -0.10623066 -0.060925737 -0.14299464 0.060190927 0.051998936 0.111588806 -0.047590747
-0.051423583 -0.022454226 -0.24665615 0.014125845 -0.031212702 -0.0077913264 0.020251216 -0.18198422
-0.20785247 0.12905309 0.1698854 -0.061366986 0.050356444 -0.1251193 -0.11547173 -0.117911085
-0.10611129 -0.04976613 -0.007354565 -0.15881383 0.08615738 0.14275864 -0.048220687 0.012907027
0.07502309 0.18525109 -0.045101743 -0.06643992 -0.12904046 0.10224639 0.0133716455 -0.13153255
0.082390085 0.028473612 0.11387397 -0.21881193 0.14529836 0.096759014 -0.05996381 0.02510648
-0.04277347 0.06331946 -0.017890478 0.10070473 -0.026901064 0.09945015 -0.027403764 0.028879607
-0.046795946 -0.032503184 -0.050135497 0.03687949 0.07754509 0.11172962 -0.01267008 0.040991195
-0.19845842 0.018611936 -0.19267495 0.0008234179 0.07205293 0.006765764 0.0074945353 0.030327687
0.22580145 -0.07989143 -0.06784526 0.032809995 -0.04204027 0.036490213 0.17349893 0.038318247
-0.060525622 -0.051932395 -0.023127563 -0.09703601 -0.041126467 -0.042795297 -0.030851712 -0.05792016
-0.053272653 -0.020183368 0.058568943 -0.06473282 0.04956148 -0.29274848 -0.14463459 -0.19587304
-0.031845372 0.08662805 -0.16232885 0.063643955 -0.16288479 -0.26790178 -0.0062168 0.07773267
-0.07027388 -0.19617316 0.038851738 -0.15952696 0.031578902 0.0030956094 0.031643238 -0.19486912
-0.13029557 -0.25960907 -0.009122289 0.10377222 -0.050919887 -0.0011620836 0.10055793 0.04028195
0.15898143 0.1184457 0.053149533 -0.1638239 -0.09171289 0.027467327 0.055380013 0.17026195
0.12490328 0.060831234 0.042490795 -0.08746156 0.1077913 -0.28602064 -0.047992405 0.04655788
-0.0457047 0.12630342 -0.11271842 -0.038494624 -0.16280298 -0.047269195 0.043807995 -0.09121673
-0.1279057 0.1439074 -0.090072945 0.04739813 0.016743489 -0.112019084 0.11652223 0.060742546
0.22678256 0.07963898 0.04511237 -0.21538797 0.053031296 -0.001789748 0.04952133 -0.04905136
0.14771412 0.03164233 -0.021251088 -0.08005715 0.04886572 0.006418611 -0.03385294 -0.21109854
0.052385718 -0.041491874 -0.037588395 -0.13265193 0.14449137 -0.17693882 -0.18212676 0.023443313
-0.03746442 -0.20870188 -0.12196415 -0.023889568 -0.09416001 -0.016789963 -0.035840206 0.040407173
00000000: 246d f5bd 18cf 8b3d d7bd 633d 5043 0dbe
00000010: 1832 c43b 2fe2 65bd 9f4b d83d b5f0 8bbd
00000020: 7a2c 4fbd 9ea3 e23b 42e3 33be c41e 8c3d
00000030: 6299 423d b021 803d cdb2 3b3d e015 af3c
00000040: 0ec1 143e 92e3 2dbd 4e17 8abd 4de3 d0bd
00000050: b4c9 763d 13f6 503e 2d72 59bd 70a5 83bd
00000060: 9a0b bcbd c398 a2bd 6969 f0bd e174 993c
00000070: 7e04 873b ca8e 51be 7778 d5bd f66c 3abd
00000080: 9cd3 a3bd dc6d d5bc e75c a93d 2602 f9bb
00000090: ec79 a6bd abb1 4fbc 93a8 04be bcc2 243b
000000a0: 0aaf 12be cffe fbbc 86c9 4cbd 70de 88bd
000000b0: 8af2 30be 894f dbbd 6cc1 42bc d406 eb3d
000000c0: 478a 80be 1258 3fbe 7113 acbd bd0a 93bd
000000d0: f524 8e3d d908 093d eea4 9a3d 8e17 17be
000000e0: db57 b1bc 1c7b bdbe 5c8f 123e b0c2 183d
000000f0: 6e60 6fbd 3e22 213c 5771 b43b 276c 083e
00000100: bee0 263e 1d84 d23d f0d6 58bc 6818 d0bd
00000110: 4415 49be 237e 3abc 3733 a63d 0973 74bd
00000120: f3bb 663e 768f d9bd 448d 79bd 306d 12be
00000130: c38a 763d d6fc 543d ac88 e43d 84ee 42bd
00000140: 89a1 52bd edf1 b7bc 6e93 7cbe 1770 673c
00000150: c8b1 ffbc 624e ffbb e1e5 a53c 125a 3abe
00000160: 47d7 54be 7e26 043e 70f6 2d3e f35b 7bbd
00000170: 8f42 4e3d 461f 00be 717c ecbd 5e7b f1bd
00000180: e050 d9bd 92d7 4bbd 90fe f0bb 18a0 22be
00000190: 4873 b03d 522f 123e 0e83 45bd ff77 533c
000001a0: b5a5 993d 76b2 3d3e 9bbc 38bd a711 88bd
000001b0: 2f23 04be 8e66 d13d bf14 5b3c 78b0 06be
000001c0: 22bc a83d 7e41 e93c c236 e93d 3c10 60be
000001d0: 18c9 143e 9729 c63d 9d9c 75bd 1bac cd3c
000001e0: 3c33 2fbd a2ad 813d 0d8f 92bc 483e ce3d
000001f0: 9f5f dcbc 85ac cb3d dc7d e0bc ed94 ec3c
00000200: 1bad 3fbd 0f22 05bd e15a 4dbd f30e 173d
00000210: f6cf 9e3d 80d2 e43d 2b96 4fbc 62e6 273d
00000220: af38 4bbe 0f78 983c 954c 45be a4da 573a
00000230: 7d90 933d 58b3 dd3b b894 f53b c571 f83c
00000240: 7f38 673e 1e9e a3bd 75f2 8abd c663 063d
00000250: 6b32 2cbd c376 153d b4a9 313e 98f3 1c3d
00000260: b7e9 77bd 10b7 54bd 0476 bdbc d1ba c6bd
00000270: 3a74 28bd 1f4a 2fbd bbbc fcbc b13d 6dbd
00000280: 6d34 5abd 9757 a5bc fde5 6f3d a492 84bd
00000290: fa00 4b3d 21e3 95be 171b 14be f192 48be
000002a0: 4b70 02bd 0c6a b13d 8939 26be c357 823d
000002b0: 45cb 26be 6c2a 89be 4cb6 cbbb 4e32 9f3d
000002c0: c1eb 8fbd 9ee1 48be 0023 1f3d 095b 23be
000002d0: e158 013d b5df 4a3b 579c 013d c58b 47be
000002e0: 346c 05be 7beb 84be a775 15bc 8886 d43d
000002f0: 5f91 50bd 0e51 98ba 51f1 cd3d b0fe 243d
00000300: 07cc 223e a993 f23d 53b3 593d 74c1 27be
00000310: f8d3 bbbd 2903 e13c 27d6 623d 2659 2e3e
00000320: 4acd ff3d 2c2a 793d d40a 2e3d 0c1f b3bd
00000330: afc1 dc3d 4c71 92be af93 44bd 7ab3 3e3d
00000340: da34 3bbd af55 013e ead8 e6bd 8aac 1dbd
00000350: d3b5 26be 589d 41bd 0370 333d d6cf babd
00000360: b6f9 02be 765c 133e 2a78 b8bd 8b24 423d
00000370: a429 893c 436a e5bd 35a3 ee3d 2dcd 783d
00000380: b039 683e c319 a33d c0c7 383d aa8e 5cbe
00000390: 5837 593d fa95 eaba e1d6 4a3d 14ea 48bd
000003a0: 5f42 173e 639b 013d c316 aebc 01f5 a3bd
000003b0: 6c27 483d 3653 d23b 61a9 0abd 372a 58be
000003c0: 6892 563d 62f3 29bd 4af6 19bd e8d5 07be
000003d0: 8cf5 133e 732f 35be 707f 3abe 310c c03c
000003e0: 4b74 19bd f2b5 55be 57c8 f9bd 0eb4 c3bc
000003f0: f7d6 c0bd 1b8b 89bc 2ecd 12bd fe81 253d

network_body._body_endoder.seq_layers.2.bias f4 [128]
0.012839955 0.022368243 0.032266397 0.017244514 0.056187462 -0.010456104 0.031989668 0.046114445
-0.0015298343 0.016670762 0.032913823 -0.028039068 0.044594884 0.004217493 0.021192726 0.008907699
-0.012600013 0.019466171 0.01327318 0.07501961 0.06185637 0.022605257 0.026968224 0.025065389
0.042038713 -0.020956848 -0.020111402 0.027679723 0.01713604 0.06604226 0.05901474 0.045156952
0.029382326 0.04511115 -0.03223198 -0.0021021136 0.029565537 0.02645773 -0.013800729 0.04722918
0.047044292 0.060701538 0.027389597 0.01597292 0.008386097 -0.005524561 0.021950547 0.03760123
0.009806518 0.034945454 0.042182986 0.053390414 0.036938168 0.06903696 -0.026714941 0.06483273
0.030471154 0.027634356 0.005849232 0.044373542 0.018979639 0.062485844 0.0038760107 0.048477866
0.028902974 0.0066951234 0.08012937 0.009351111 0.036620684 0.014730676 0.055042304 0.060223017
0.030549781 -0.029388722 -0.01627034 0.091856346 0.0058277673 0.04743459 0.09433195 -0.0132250935
0.007788468 0.045305543 0.04188007 0.049294736 0.021928987 0.02964376 0.042375866 0.058904663
0.010823056 0.049454294 0.039020974 -0.02674834 0.0313908 -0.00048588106 0.010776621 0.009822327
0.053777914 0.017174441 0.031095933 0.027711352 0.01631722 0.04023258 -0.05489512 0.035136145
0.0012716281 0.04092408 -0.041642543 0.05575835 0.053440526 0.034738246 0.0075411056 -0.06914842
0.045202967 0.022192515 -0.0005358097 0.016685216 0.036110945 0.019888883 0.05275324 0.019843105
0.030399485 0.004314423 -0.009473123 0.010917811 0.025178269 -0.056051217 0.045716606 -0.003470745
00000000: ad5e 523c 9b3d b73c c529 043d 5e44 8d3c
00000010: d324 663d 1450 2bbc 9907 033d 80e2 3c3d
00000020: b984 c8ba 1f91 883c a5d0 063d 30b2 e5bc
00000030: 20a9 363d e532 8a3b 5e9c ad3c 99f1 113c
00000040: 4970 4ebc 8577 9f3c c177 593c e2a3 993d
00000050: 1b5d 7d3d a92e b93c 77ec dc3c ee55 cd3c
00000060: c930 2c3d b2ad abbc abc0 a4bc 96c0 e23c
00000070: e160 8c3c 2a41 873d 71b9 713d 7ff6 383d
00000080: 34b3 f03c 78c6 383d ae05 04bd 9dc3 09bb
00000090: 6d33 f23c e2bd d83c 741c 62bc 6273 413d
000000a0: 84b1 403d 2da2 783d 2660 e03c a4d9 823c
000000b0: d765 093c 6007 b5bb a2d1 b33c bf03 1a3d
000000c0: 85ab 203c f722 0f3d 11c8 2c3d e8af 5a3d
000000d0: 7a4c 173d 4063 8d3d 4bd9 dabc 06c7 843d
000000e0: a49e f93c 7261 e23c eaaa bf3b 08c1 353d
000000f0: 307b 9b3c 28f1 7f3d ab04 7e3b ba90 463d
00000100: eec5 ec3c c462 db3b de1a a43d 6735 193c
00000110: 92ff 153d ef58 713c 0a74 613d 69ac 763d
00000120: 8943 fa3c 9ec0 f0bc 6049 85bc 2e1f bc3d
00000130: dbf6 be3b c64a 423d 1c31 c13d 10ae 58bc
00000140: 6836 ff3b 4e92 393d 708a 2b3d 47e9 493d
00000150: 6ba4 b33c 78d7 f23c 5192 2d3d 0446 713d
00000160: 3053 313c 9690 4a3d 75d4 1f3d 561f dbbc
00000170: a493 003d dabd feb9 6d90 303c d3ed 203c
00000180: 3b46 5c3d 6ab1 8c3c e6bc fe3c eb02 e33c
00000190: b1ab 853c ebca 243d b5d9 60bd ebea 0f3d
000001a0: c2ac a63a 02a0 273d 5f91 2abd de62 643d
000001b0: 74e4 5a3d b149 0e3d 611b f73b b09d 8dbd
000001c0: bf26 393d 14cd b53c 9575 0cba 6faf 883c
000001d0: 12e9 133d 03ee a23c c813 583d 028e a23c
000001e0: 5708 f93c 0160 8d3b 2835 1bbc 9ee0 323c
000001f0: a842 ce3c f695 65bd 5641 3b3d 7075 63bb

action_model._continuous_distribution.log_sigma f4 [1, 2]
-1.2443159 -1.1606781
00000000: be45 9fbf 1a91 94bf

action_model._continuous_distribution.mu.weight f4 [2, 128]
0.04601091 0.039089132 0.004454003 0.12709324 -0.007937829 0.070359655 -0.016909959 -0.010443313
0.06899643 0.021901414 -0.0037543543 -0.02826693 -0.037285853 0.031031245 0.032471802 -0.004941632
0.013843462 -0.018029235 0.0037196428 -0.025769873 0.040970188 -0.00039507452 0.09733709 0.014493681
0.1638512 -0.043442413 -0.06334072 0.12878203 0.085512735 -0.00021504887 -0.031093195 -0.0007249483
0.01858675 0.014765178 -0.060646985 0.0061783283 0.004227485 0.026592238 0.0063003926 -0.07445886
0.0034397265 0.033515155 -0.06438995 0.040958297 -0.01227589 -0.012704321 0.016928378 0.08473564
0.08626339 0.009530049 0.038605925 0.03773863 0.10188637 0.074432254 -0.12520975 -0.033281684
0.018586209 -0.029957993 0.038580135 0.06496753 -0.0056335866 0.030089675 -0.0146235945 0.03537501
-0.0018207094 0.116187304 -0.053747207 0.002916357 0.015525396 0.010980526 -0.0040902724 -0.08535917
-0.010435342 -0.08684555 0.05440851 -0.049068768 0.0012867772 -0.006359404 -0.024322484 -0.049565468
-0.094549276 -0.038901594 0.02131905 0.00033291942 0.115009345 0.05202858 0.037165318 0.008425097
0.023299053 -0.046674054 -0.055930488 -0.0022094697 0.044589743 -0.060593814 0.0015800842 -0.0062988442
0.048170295 -0.09523139 -0.12485366 -0.008332301 0.1373508 -0.016734231 0.04138056 0.033554826
0.09121096 0.050473735 0.00684216 0.0135830445 -0.023550212 0.08179201 0.024807278 -0.049826924
0.0049040955 0.07730633 0.052497774 0.015452576 -0.007841679 -0.036132947 0.0015860787 -0.009376019
0.063439295 -0.002814868 0.024274971 0.06960411 0.040554207 -0.005480411 0.029401848 0.007930883
-0.05885217 -0.030121334 -0.1291299 -0.060913466 0.008798523 -0.018547265 0.027739707 0.04095642
-0.03322361 -0.15781723 0.04306745 -0.025383415 0.048546437 -0.020764105 0.023605958 -0.0024792387
-0.012700693 -0.1579074 0.003938734 -0.12981933 0.082607746 0.025740905 0.028147679 0.01561643
-0.1558996 -0.058608502 0.040547475 -0.14163733 -0.16069028 0.12682216 -0.012172967 0.0422308
0.038707506 0.058000732 -0.014879487 -0.105969585 0.040973924 0.08915441 -0.1148201 0.020638976
0.056944974 0.07645889 -0.16543896 -0.15556784 -0.031369034 -0.09414043 -0.1482782 -0.054919314
0.009169194 0.04708737 -0.13363962 0.064291604 -0.04059716 0.052876547 -0.058671642 0.09223672
0.07166981 0.010927566 0.021724723 0.03134474 -0.08781109 0.04396995 -0.1027428 0.044526245
0.046137214 -0.0052585723 0.061089344 -0.12478448 0.039276168 0.009604551 0.04785842 -0.13091385
0.042326026 -0.015424025 -0.093252815 -0.18609415 0.038058877 0.05058917 -0.16328385 -0.108618446
0.02109087 -0.12831214 0.055829547 -0.11589872 0.02820149 0.021480426 0.05647201 0.05989262
-0.16433112 0.052969478 0.03107316 0.048607808 -0.016258052 -0.051327206 0.03636729 -0.012233426
0.069578566 -0.029240526 -0.049408067 -0.032718424 0.08161247 0.05278383 -0.026482843 -0.18156935
-0.054954335 0.028800696 -0.013854384 0.057232253 0.060983717 -0.013380116 -0.044874683 0.0080145225
0.06266767 -0.021837203 -0.01907168 0.057258867 0.061953515 -0.076735176 0.050851904 -0.13464317
0.038033713 0.003834174 -0.031792063 -0.15439895 -0.030033775 -0.032817625 0.07197755 -0.10433929
00000000: f075 3c3d ed1b 203d e3f2 913b bb24 023e
00000010: ab0d 02bc b918 903d c186 8abc 6e1a 2bbc
00000020: 004e 8d3d 986a b33c 9d0b 76bb 0c90 e7bc
00000030: 0db9 18bd 3d35 fe3c 2701 053d 6aed a1bb
00000040: b0cf 623c 0cb2 93bc 40c5 733b 571b d3bc
00000050: 5bd0 273d 0122 cfb9 ab58 c73d e776 6d3c
00000060: 9cc8 273e acf0 31bd c8b8 81bd 70df 033e
00000070: 4d21 af3d be7e 61b9 28b7 febc 750a 3eba
00000080: 3d43 983c a5e9 713c f968 78bd 9373 ca3b
00000090: b786 8a3b f7d7 d93c 8673 ce3b e37d 98bd
000000a0: 096d 613b 3047 093d e1de 83bd e3c3 273d
000000b0: d120 49bc c925 50bc 62ad 8a3c e189 ad3d
000000c0: dcaa b03d ec23 1c3c 3f21 1e3d d293 1a3d
000000d0: cda9 d03d f06f 983d fc36 00be 6052 08bd
000000e0: 1b42 983c 776a f5bc 3406 1e3d b20d 853d
000000f0: f399 b8bb 9f7e f63c cd97 6fbc 63e5 103d
00000100: dfa4 eeba 9cf3 ed3d 0826 5cbd 5a20 3f3b
00000110: 3b5e 7e3c aae7 333c b107 86bb cad0 aebd
00000120: fff8 2abc 14dc b1bd 75db 5e3d 55fc 48bd
00000130: 14a9 a83a 8c62 d0bb f23f c7bc 2905 4bbd
00000140: 0da3 c1bd 4757 1fbd 4aa5 ae3c b08b ae39
00000150: 058a eb3d ec1b 553d a93a 183d 6b09 0a3c
00000160: a8dd be3c 4b2d 3fbd 5e17 65bd c0cc 10bb
00000170: bca3 363d 3831 78bd d41a cf3a 8966 cebb
00000180: 374e 453d ad08 c3bd 47b3 ffbd 3484 08bc
00000190: b0a5 0c3e 3a16 89bc a97e 293d c970 093d
000001a0: d0cc ba3d 8cbd 4e3d 3334 e03b 6b8b 5e3c
000001b0: 60ec c0bc 9282 a73d a238 cb3c 5117 4cbd
000001c0: 89b2 a03b c852 9e3d e807 573d cd2c 7d3c
000001d0: 637a 00bc 2400 14bd f8e3 cf3a e09d 19bc
000001e0: 76ec 813d a679 38bb 4edc c63c 9a8c 8e3d
000001f0: 2b1c 263d 0595 b3bb 25dc f03c 89f0 013c
00000200: f90e 71bd 04c1 f6bc a13a 04be 6680 79bd
00000210: ae27 103c 6ff0 97bc 623e e33c ebc1 273d
00000220: 7b15 08bd d79a 21be 7f67 303d e1f0 cfbc
00000230: a1d8 463d 7c19 aabc 4861 c13c b97a 22bb
00000240: 9116 50bc 7ab2 21be 7f10 813b 5cef 04be
00000250: 402e a93d 97de d23c f695 e63c 0edc 7f3c
00000260: 25a4 1fbe 780f 70bd 1c15 263d 6009 11be
00000270: fe8b 24be abdd 013e 2071 47bc 34fa 2c3d
00000280: c38b 1e3d 2d92 6d3d 18c9 73bc 9506 d9bd
00000290: 46d4 273d 9696 b63d cd26 ebbd 1213 a93c
000002a0: 223f 693d 7b96 9c3d d568 29be 2d4d 1fbe
000002b0: d17c 00bd b3cc c0bd 3ed6 17be 13f3 60bd
000002c0: 633a 163c b0de 403d d3d8 08be 51ab 833d
000002d0: 3549 26bd 1495 583d ad51 70bd 9be6 bc3d
000002e0: 9fc7 923d 8909 333c 0cf8 b13c 5863 003d
000002f0: 4dd6 b3bd d619 343d d16a d2bd 2761 363d
00000300: 60fa 3c3d 1a50 acbb d238 7a3d 018f ffbd
00000310: 0ce0 203d 685c 1d3c 3107 443d 480e 06be
00000320: 0e5e 2d3d 0db5 7cbc 55fb bebd 778f 3ebe
00000330: a0e3 1b3d 9736 4f3d e233 27be 5973 debd
00000340: c3c6 ac3c 4264 03be 86ad 643d 4f5c edbd
00000350: d006 e73c b8f7 af3c 324f 673d f751 753d
00000360: 6b46 28be 86f6 583d 248d fe3c fb18 473d
00000370: 9b2f 85bc 7a3c 52bd def5 143d b56e 48bc
00000380: 357f 8e3d d489 efbc 1d60 4abd c103 06bd
00000390: 7024 a73d db33 583d 8cf2 d8bc 51ed 39be
000003a0: cc17 61bd 70ef eb3c 80fd 62bc 5e6c 6a3d
000003b0: 10ca 793d 4638 5bbc 84ce 37bd 584f 033c
000003c0: e857 803d efe3 b2bc 363c 9cbc 4688 6a3d
000003d0: f8c2 7d3d 5527 9dbd 164a 503d e6df 09be
000003e0: 3dc9 1b3d c446 7b3b 6538 02bd c21a 1ebe
000003f0: 6409 f6bc c66b 06bd f768 933d d6af d5bd

action_model._continuous_distribution.mu.bias f4 [2]
-0.016486093 0.042860966
00000000: d80d 87bc fb8e 2f3d

onnx::Div_51 f4 [90]
0.17206135 0.2624838 0.30088884 0.31252086 0.32341883 0.33032727 0.33354312 0.33326796
0.32885048 0.3177892 0.2966263 0.2816142 0.26785812 0.25129968 0.24252035 0.2295443
0.19411966 0.13882941 0.12545468 0.122390985 0.121124044 0.12028032 0.120382324 0.12069293
0.11825325 0.11280842 0.10980838 0.10985857 0.11217631 0.116054595 0.12134648 0.12855804
0.13811454 0.15052228 0.16686824 0.18744147 0.21118598 0.2265705 0.22091961 0.213316
0.20777917 0.22136767 0.31763476 0.33899754 0.3468668 0.3458798 0.03788032 0.009584422
0.0038724055 0.00086744444 0.0005656999 0.00053283654 0.00053224165 0.0005312992 0.000485072 0.000485072
0.000485072 0.000485072 0.000485072 0.000485072 0.000485072 0.013221107 0.036429472 0.07489139
0.10776951 0.14441334 0.17519587 0.18830243 0.19946529 0.2090678 0.21577515 0.22182357
0.24181475 0.26432925 0.28262106 0.2902606 0.29477406 0.29882073 0.30387157 0.31403267
0.3257081 0.33217427 0.33982944 0.34216288 0.34334233 0.34384322 0.34384987 0.34384087
0.34411696 0.34478426
00000000: da30 303e 4764 863e 1a0e 9a3e bc02 a03e
00000010: 2797 a53e a820 a93e 2ac6 aa3e 19a2 aa3e
00000020: 175f a83e 44b5 a23e 67df 973e bd2f 903e
00000030: b324 893e 5aaa 803e 4157 783e a90d 6b3e
00000040: 4ec7 463e 4c29 0e3e 3177 003e 20a8 fa3d
00000050: e20f f83d 8755 f63d 028b f63d db2d f73d
00000060: c32e f23d 1a08 e73d 37e3 e03d 88fd e03d
00000070: b1bc e53d 08ae ed3d 8184 f83d b8a4 033e
00000080: e66d 0d3e 8322 1a3e 82df 2a3e a8f0 3f3e
00000090: 2341 583e 1902 683e c038 623e 826f 5a3e
000000a0: 10c4 543e 35ae 623e 06a1 a23e 1691 ad3e
000000b0: 8698 b13e 2817 b13e 6528 1b3d fb07 1d3c
000000c0: 2fc8 7d3b 3665 633a 7a4b 143a 0eae 0b3a
000000d0: 2286 0b3a e346 0b3a 4351 fe39 4351 fe39
000000e0: 4351 fe39 4351 fe39 4351 fe39 4351 fe39
000000f0: 4351 fe39 589d 583c 1237 153d a860 993d
00000100: 43b6 dc3d 17e1 133e 8c66 333e 5ad2 403e
00000110: a140 4c3e df15 563e 29f4 5c3e b825 633e
00000120: 499e 773e 2a56 873e b5b3 903e 0a9d 943e
00000130: a0ec 963e 08ff 983e 0e95 9b3e e4c8 a03e
00000140: 36c3 a63e bf12 aa3e 20fe ad3e f92f af3e
00000150: 91ca af3e 380c b03e 170d b03e e90b b03e
00000160: 1930 b03e 9087 b03e
