results/parallelRC1/ParkParallelRC/ParkParallelRC-9999930.pt (torch, 704670 bytes, 44 tensors)

network_body.observation_encoder.processors.0.normalizer.running_mean f4 [90]
0	0x3f61fcd6	0.8827642
1	0x3f480550	0.78133106
2	0x3f317386	0.693169
3	0x3f195160	0.59889793
4	0x3f08155c	0.5315759
5	0x3ef9d852	0.48797852
6	0x3eea68a2	0.45782954
7	0x3edd6e5f	0.4324827
8	0x3ed0f5d4	0.40812552
9	0x3ec2ddc0	0.38059807
10	0x3eb292bd	0.34877577
11	0x3ea699bd	0.32539168
12	0x3e9c24a8	0.30496716
13	0x3e91d202	0.28480536
14	0x3e8acd19	0.27109602
15	0x3e8411a7	0.25794718
16	0x3e73e115	0.2381633
17	0x3e5ec755	0.21755727
18	0x3e5933d5	0.21211179
19	0x3e58d28e	0.2117407
20	0x3e5b9d3f	0.21446703
21	0x3e5eee0b	0.21770494
22	0x3e6243d7	0.22096191
23	0x3e64b8ca	0.22336116
24	0x3e65fdfe	0.22460172
25	0x3e680f44	0.22662073
26	0x3e6ed427	0.23323117
27	0x3e752775	0.23940833
28	0x3e7b53c8	0.24543679
29	0x3e826708	0.25469232
30	0x3e8976eb	0.2684854
31	0x3e91d722	0.28484446
32	0x3e9b9c30	0.303926
33	0x3ea708df	0.32623956
34	0x3eb2f7d2	0.34954697
35	0x3ec14c77	0.3775365
36	0x3ed1e644	0.4099599
37	0x3edd5dbd	0.4323558
38	0x3ee086c8	0.4385283
39	0x3ee465f5	0.44609037
40	0x3eeb293b	0.45929894
41	0x3f008541	0.5020333
42	0x3f2597f9	0.64685017
43	0x3f3a7eba	0.7284962
44	0x3f44eb46	0.769215
45	0x3f483cda	0.7821785
46	0x3f7e566a	0.9935061
47	0x3f7fd062	0.9992734
48	0x3f7ff703	0.99986285
49	0x3f7ffe59	0.9999748
50	0x3f7fff53	0.9999897
51	0x3f7fff54	0.99998975
52	0x3f7fff55	0.9999898
53	0x3f7fff55	0.9999898
54	0x3f7fff56	0.99998987
55	0x3f7fff56	0.99998987
56	0x3f7fff56	0.99998987
57	0x3f7fff56	0.99998987
58	0x3f7fff56	0.99998987
59	0x3f7fff56	0.99998987
60	0x3f7fff56	0.99998987
61	0x3f7fdff5	0.99951106
62	0x3f7fac47	0.9987225
63	0x3f7e86eb	0.9942462
64	0x3f7ce631	0.98788744
65	0x3f7a4452	0.977605
66	0x3f775b4e	0.96623695
67	0x3f75f7a6	0.96081007
68	0x3f74aefb	0.955795
69	0x3f7380bf	0.95118326
70	0x3f72a2b4	0.94779515
71	0x3f71d099	0.9445892
72	0x3f6eca64	0.93277574
73	0x3f6ae936	0.917621
74	0x3f6746bc	0.9034231
75	0x3f6590ff	0.8967437
76	0x3f6468dd	0.8922251
77	0x3f634ef4	0.8879235
78	0x3f61da06	0.882233
79	0x3f5ef106	0.8708652
80	0x3f5b3d61	0.8564053
81	0x3f5707ae	0.83996093
82	0x3f4f8be4	0.8107283
83	0x3f4dc076	0.803718
84	0x3f4d0a7c	0.8009412
85	0x3f4c6dfc	0.7985532
86	0x3f4be5e9	0.7964769
87	0x3f4b5179	0.7942119
88	0x3f4aabf2	0.7916862
89	0x3f49c2ca	0.7881285

network_body.observation_encoder.processors.0.normalizer.running_variance f4 [90]
0	0x489d308f	321924.47
1	0x492c7837	706435.44
2	0x495fbf8c	916472.75
3	0x496d5056	972037.4
4	0x49775537	1.01307544e+06
5	0x497d44c5	1.0373883e+06
6	0x49804d8c	1.0510575e+06
7	0x497edfea	1.0439666e+06
8	0x4976db73	1.0111272e+06
9	0x496564ce	939596.9
10	0x49476c40	816836.0
11	0x493283f0	731199.0
12	0x491ef7fd	651135.8
13	0x490ae80a	568960.6
14	0x4900eb39	528051.56
15	0x48e6eb1b	472920.84
16	0x48a6c5e2	341551.06
17	0x4831a875	181921.83
18	0x48130336	150540.84
19	0x480c2688	143514.12
20	0x4809d778	141149.88
21	0x4808a21a	139912.4
22	0x48095253	140617.3
23	0x480a4736	141596.84
24	0x4805649c	136594.44
25	0x47f600b1	125953.38
26	0x47eba7e7	120655.805
27	0x47ed3c1b	121464.21
28	0x47f7f603	126956.02
29	0x4804d1a5	136006.58
30	0x481136a3	148698.55
31	0x4822d3b1	166734.77
32	0x483b861e	192024.47
33	0x485e6023	227712.55
34	0x4888ead9	280406.78
35	0x48ad04eb	354343.34
36	0x48da00f3	446471.6
37	0x48f6640b	504608.34
38	0x48e7d6b2	474805.56
39	0x48d8c2ce	443926.44
40	0x48ce7c77	422883.72
41	0x48f378cd	498630.4
42	0x497763e8	1.0133105e+06
43	0x498aca02	1.1369602e+06
44	0x4991a3fb	1.1930874e+06
45	0x49912cd9	1.1892751e+06
46	0x46adb226	22233.074
47	0x449eabf7	1269.3739
48	0x431b9798	155.59216
49	0x410d8c25	8.846715
50	0x4042a8f4	3.041562
51	0x402e406f	2.7226827
52	0x401a1a67	2.4078615
53	0x40198ed0	2.3993416
54	0x3fffff6e	1.9999826
55	0x3fffff6e	1.9999826
56	0x3fffff6e	1.9999826
57	0x3fffff6e	1.9999826
58	0x3fffff6e	1.9999826
59	0x3fffff6e	1.9999826
60	0x3fffff6e	1.9999826
61	0x44b9cbad	1486.3649
62	0x46304f30	11283.797
63	0x473a746d	47732.426
64	0x47c1515e	98978.734
65	0x482dfa9b	178154.42
66	0x48805f40	262906.0
67	0x48947c1e	304096.94
68	0x48a6cfe1	341631.03
69	0x48b77636	375729.7
70	0x48c39572	400555.56
71	0x48ceddcc	423662.38
72	0x48f69517	505000.72
73	0x4913ea86	605864.4
74	0x4929c5b5	695387.3
75	0x49336de5	734942.3
76	0x493951d1	759069.06
77	0x493eb625	781154.3
78	0x494597bc	809339.75
79	0x4953d4ba	867659.6
80	0x49650659	938085.56
81	0x49773b5a	1.0126616e+06
82	0x498b5cfa	1.1416632e+06
83	0x498ee808	1.170689e+06
84	0x498fff9f	1.1796359e+06
85	0x49907424	1.1833645e+06
86	0x49907736	1.1834628e+06
87	0x49906425	1.1828526e+06
88	0x49907098	1.183251e+06
89	0x4990ad36	1.1851908e+06

network_body.processors.0.normalizer.running_mean f4 [90]
0	0x3f61fcd6	0.8827642
1	0x3f480550	0.78133106
2	0x3f317386	0.693169
3	0x3f195160	0.59889793
4	0x3f08155c	0.5315759
5	0x3ef9d852	0.48797852
6	0x3eea68a2	0.45782954
7	0x3edd6e5f	0.4324827
8	0x3ed0f5d4	0.40812552
9	0x3ec2ddc0	0.38059807
10	0x3eb292bd	0.34877577
11	0x3ea699bd	0.32539168
12	0x3e9c24a8	0.30496716
13	0x3e91d202	0.28480536
14	0x3e8acd19	0.27109602
15	0x3e8411a7	0.25794718
16	0x3e73e115	0.2381633
17	0x3e5ec755	0.21755727
18	0x3e5933d5	0.21211179
19	0x3e58d28e	0.2117407
20	0x3e5b9d3f	0.21446703
21	0x3e5eee0b	0.21770494
22	0x3e6243d7	0.22096191
23	0x3e64b8ca	0.22336116
24	0x3e65fdfe	0.22460172
25	0x3e680f44	0.22662073
26	0x3e6ed427	0.23323117
27	0x3e752775	0.23940833
28	0x3e7b53c8	0.24543679
29	0x3e826708	0.25469232
30	0x3e8976eb	0.2684854
31	0x3e91d722	0.28484446
32	0x3e9b9c30	0.303926
33	0x3ea708df	0.32623956
34	0x3eb2f7d2	0.34954697
35	0x3ec14c77	0.3775365
36	0x3ed1e644	0.4099599
37	0x3edd5dbd	0.4323558
38	0x3ee086c8	0.4385283
39	0x3ee465f5	0.44609037
40	0x3eeb293b	0.45929894
41	0x3f008541	0.5020333
42	0x3f2597f9	0.64685017
43	0x3f3a7eba	0.7284962
44	0x3f44eb46	0.769215
45	0x3f483cda	0.7821785
46	0x3f7e566a	0.9935061
47	0x3f7fd062	0.9992734
48	0x3f7ff703	0.99986285
49	0x3f7ffe59	0.9999748
50	0x3f7fff53	0.9999897
51	0x3f7fff54	0.99998975
52	0x3f7fff55	0.9999898
53	0x3f7fff55	0.9999898
54	0x3f7fff56	0.99998987
55	0x3f7fff56	0.99998987
56	0x3f7fff56	0.99998987
57	0x3f7fff56	0.99998987
58	0x3f7fff56	0.99998987
59	0x3f7fff56	0.99998987
60	0x3f7fff56	0.99998987
61	0x3f7fdff5	0.99951106
62	0x3f7fac47	0.9987225
63	0x3f7e86eb	0.9942462
64	0x3f7ce631	0.98788744
65	0x3f7a4452	0.977605
66	0x3f775b4e	0.96623695
67	0x3f75f7a6	0.96081007
68	0x3f74aefb	0.955795
69	0x3f7380bf	0.95118326
70	0x3f72a2b4	0.94779515
71	0x3f71d099	0.9445892
72	0x3f6eca64	0.93277574
73	0x3f6ae936	0.917621
74	0x3f6746bc	0.9034231
75	0x3f6590ff	0.8967437
76	0x3f6468dd	0.8922251
77	0x3f634ef4	0.8879235
78	0x3f61da06	0.882233
79	0x3f5ef106	0.8708652
80	0x3f5b3d61	0.8564053
81	0x3f5707ae	0.83996093
82	0x3f4f8be4	0.8107283
83	0x3f4dc076	0.803718
84	0x3f4d0a7c	0.8009412
85	0x3f4c6dfc	0.7985532
86	0x3f4be5e9	0.7964769
87	0x3f4b5179	0.7942119
88	0x3f4aabf2	0.7916862
89	0x3f49c2ca	0.7881285

network_body.processors.0.normalizer.running_variance f4 [90]
0	0x489d308f	321924.47
1	0x492c7837	706435.44
2	0x495fbf8c	916472.75
3	0x496d5056	972037.4
4	0x49775537	1.01307544e+06
5	0x497d44c5	1.0373883e+06
6	0x49804d8c	1.0510575e+06
7	0x497edfea	1.0439666e+06
8	0x4976db73	1.0111272e+06
9	0x496564ce	939596.9
10	0x49476c40	816836.0
11	0x493283f0	731199.0
12	0x491ef7fd	651135.8
13	0x490ae80a	568960.6
14	0x4900eb39	528051.56
15	0x48e6eb1b	472920.84
16	0x48a6c5e2	341551.06
17	0x4831a875	181921.83
18	0x48130336	150540.84
19	0x480c2688	143514.12
20	0x4809d778	141149.88
21	0x4808a21a	139912.4
22	0x48095253	140617.3
23	0x480a4736	141596.84
24	0x4805649c	136594.44
25	0x47f600b1	125953.38
26	0x47eba7e7	120655.805
27	0x47ed3c1b	121464.21
28	0x47f7f603	126956.02
29	0x4804d1a5	136006.58
30	0x481136a3	148698.55
31	0x4822d3b1	166734.77
32	0x483b861e	192024.47
33	0x485e6023	227712.55
34	0x4888ead9	280406.78
35	0x48ad04eb	354343.34
36	0x48da00f3	446471.6
37	0x48f6640b	504608.34
38	0x48e7d6b2	474805.56
39	0x48d8c2ce	443926.44
40	0x48ce7c77	422883.72
41	0x48f378cd	498630.4
42	0x497763e8	1.0133105e+06
43	0x498aca02	1.1369602e+06
44	0x4991a3fb	1.1930874e+06
45	0x49912cd9	1.1892751e+06
46	0x46adb226	22233.074
47	0x449eabf7	1269.3739
48	0x431b9798	155.59216
49	0x410d8c25	8.846715
50	0x4042a8f4	3.041562
51	0x402e406f	2.7226827
52	0x401a1a67	2.4078615
53	0x40198ed0	2.3993416
54	0x3fffff6e	1.9999826
55	0x3fffff6e	1.9999826
56	0x3fffff6e	1.9999826
57	0x3fffff6e	1.9999826
58	0x3fffff6e	1.9999826
59	0x3fffff6e	1.9999826
60	0x3fffff6e	1.9999826
61	0x44b9cbad	1486.3649
62	0x46304f30	11283.797
63	0x473a746d	47732.426
64	0x47c1515e	98978.734
65	0x482dfa9b	178154.42
66	0x48805f40	262906.0
67	0x48947c1e	304096.94
68	0x48a6cfe1	341631.03
69	0x48b77636	375729.7
70	0x48c39572	400555.56
71	0x48ceddcc	423662.38
72	0x48f69517	505000.72
73	0x4913ea86	605864.4
74	0x4929c5b5	695387.3
75	0x49336de5	734942.3
76	0x493951d1	759069.06
77	0x493eb625	781154.3
78	0x494597bc	809339.75
79	0x4953d4ba	867659.6
80	0x49650659	938085.56
81	0x49773b5a	1.0126616e+06
82	0x498b5cfa	1.1416632e+06
83	0x498ee808	1.170689e+06
84	0x498fff9f	1.1796359e+06
85	0x49907424	1.1833645e+06
86	0x49907736	1.1834628e+06
87	0x49906425	1.1828526e+06
88	0x49907098	1.183251e+06
89	0x4990ad36	1.1851908e+06

network_body._body_endoder.seq_layers.0.weight f4 [128, 90]
0	0xbd436b84	-0.047709957
1	0xbe0fce1d	-0.1404347
2	0xbda3f971	-0.080065615
3	0x3d9a9d9f	0.07549595
4	0xbd9ae089	-0.07562358
5	0xbe4774dc	-0.19478172
6	0xbd0684ff	-0.03284168
7	0xbe42c30a	-0.19019714
8	0x3d71890a	0.05896858
9	0x3db1f04a	0.086884096
10	0xbdb0558f	-0.08610069
11	0xbdeb2bdb	-0.11482974
12	0xbbe6d805	-0.0070447945
13	0xb9e245c0	-0.00043158047
14	0xbdb57d8b	-0.08861836
15	0xbd76e8a0	-0.060280442
16	0xbd853362	-0.06503941
17	0x3e43d7e8	0.1912533
18	0x3d5d9197	0.054093923
19	0x3da1efa0	0.07907033
20	0xbd75e5ef	-0.060033735
21	0xbe1decc8	-0.15422356
22	0xbe093a15	-0.13401063
23	0x3dd77489	0.10520274
24	0x3d0f5c1d	0.034999955
25	0xbd8803ef	-0.06641375
26	0xbd896402	-0.06708528
27	0xbd4a639a	-0.049411394
28	0xbeac20e1	-0.33618835
29	0xbd70211e	-0.058625333
30	0xbdfa7cb5	-0.12230817
31	0x3c47357a	0.012158746
32	0xbdb81f54	-0.0899035
33	0x3dea8d64	0.11452749
34	0xbc70bdea	-0.014693717
35	0x3d3577d1	0.04430372
36	0xbe170188	-0.14746678
37	0x3d60fc38	0.054928035
38	0x3db7d920	0.0897696
39	0x3d3e542d	0.046466995
40	0xbe2d4f62	-0.16924813
41	0xbe11c99f	-0.14237069
42	0x3d09be45	0.03362872
43	0xbcece9b4	-0.028920032
44	0xbeb52400	-0.35379028
45	0xbc102a9d	-0.008799222
46	0xbdb883e1	-0.09009529
47	0x3e13cd4a	0.1443378
48	0xbe1cc205	-0.15308388
49	0xbdf3f4e0	-0.119119406
50	0xbdef206c	-0.11676106
51	0x3c748ff3	0.014926898
52	0x3ddf62e9	0.109075375
53	0x3e09808a	0.1342794
54	0xbe195be8	-0.14976466
55	0xbdded384	-0.10880187
56	0xbe0e094c	-0.13870734
57	0x3e734852	0.23758057
58	0x3d5f1775	0.05446573
59	0x3c675a99	0.014120721
60	0xbc9904c0	-0.018679023
61	0x3d00493d	0.031319845
62	0xbd82f0de	-0.06393598
63	0x3b5ca54d	0.0033667863
64	0xbcd8a93e	-0.026447888
65	0xbc60c938	-0.013719849
66	0x3ddd6803	0.10810854
67	0x3e472782	0.19448665
68	0xbddcbd01	-0.10778237
69	0xbcb56f6b	-0.022147855
70	0xbe33720f	-0.17523979
71	0x3e3b17eb	0.18270843
72	0xbc9bd27f	-0.01902127
73	0xbe41dfc7	-0.1893302
74	0xbe6230ff	-0.22089003
75	0xbe223eea	-0.15844312
76	0x3dc29164	0.09500387
77	0xbd7bf470	-0.06151241
78	0xbe3a0689	-0.18166555
79	0xbe027c1b	-0.12742655
80	0x3dffc51e	0.12488769
81	0xbe4f13e7	-0.20222436
82	0xbdb1ff2f	-0.086912505
83	0xbdf8bc57	-0.12145298
84	0xbe459d8d	-0.19298382
85	0xbcc31185	-0.023812065
86	0xbe135c58	-0.14390695
87	0xbd3bb580	-0.04582739
88	0xbe185f9d	-0.14880224
89	0xbe8324a7	-0.256139
90	0x3d154920	0.03644669
91	0xbd5a854c	-0.053349778
92	0x3db6661b	0.08906194
93	0x3e6ae9bb	0.22940724
94	0x3d6e8311	0.058230463
95	0x3dd85cfb	0.105646096
96	0xbd8dd163	-0.06924703
97	0xbcfc159d	-0.030772025
98	0x3d60c9c2	0.05487991
99	0xbd37fccb	-0.044918817
100	0x3de3a3c7	0.111152224
101	0xbd0aada2	-0.033856995
102	0x3dfe83eb	0.12427505
103	0xbbd35cbc	-0.006450264
104	0x3df5cf6d	0.12002454
105	0x3df2bb81	0.1185217
106	0x3e0d232f	0.13782953
107	0x3d6329f5	0.055459935
108	0x3cd8968e	0.026438978
109	0x3df26115	0.11834923
110	0xbdff34e8	-0.12461263
111	0xbda61792	-0.081099644
112	0xbcb6ebed	-0.022329295
113	0xbc85c8f4	-0.016331173
114	0xbd2683da	-0.040653087
115	0xbd510505	-0.051030178
116	0xbdd055d6	-0.10172622
117	0xbdddc799	-0.10829086
118	0xbd71526c	-0.058916494
119	0xbe48067a	-0.1953372
120	0xbbcac4de	-0.006188019
121	0xbe6c31fe	-0.23065946
122	0xbdeed070	-0.1166085
123	0xb7f01aea	-2.8622762e-05
124	0xbd2f9c59	-0.042873714
125	0x3dfe2d7c	0.12411019
126	0xbdc9766a	-0.09837039
127	0xbe44cce8	-0.1921879
128	0xbe31f5c4	-0.17378908
129	0x3d9c17cd	0.07621727
130	0x3d8d6330	0.06903684
131	0xbcca4b85	-0.024694214
132	0x3e26c3b2	0.1628559
133	0x3d61b1b1	0.0551011
134	0x3d9852b0	0.074376464
135	0x3cdf7fc8	0.02728261
136	0xbe0af8ad	-0.13571425
137	0x3ca93a3a	0.020657647
138	0x3d847ba7	0.06468897
139	0xbc680384	-0.014160994
140	0xbc387354	-0.011257965
141	0xbe244a0a	-0.16043869
142	0xbe170752	-0.14748886
143	0xbc6e9920	-0.014562875
144	0xbd89c42f	-0.06726872
145	0x3df5019b	0.11963197
146	0xbd3619ee	-0.044458322
147	0xbe043c54	-0.12913638
148	0xbce67ea7	-0.028136564
149	0xbe434c68	-0.19072115
150	0x3d347738	0.04405901
151	0xbda810eb	-0.08206352
152	0x3c4fef14	0.012691278
153	0x3d259c1c	0.04043208
154	0xbc7a48ad	-0.015276116
155	0x3d0ff0bc	0.03514169
156	0xbe110ca3	-0.14164977
157	0xbd5cbeec	-0.053893015
158	0xbdf7d079	-0.1210031
159	0xbdb3df94	-0.087828785
160	0xbe270ade	-0.16312739
161	0x3d281409	0.041034732
162	0xbd1b11b7	-0.03785869
163	0xbe3a55ee	-0.18196842
164	0x3de6edc3	0.11275818
165	0x3d9c7734	0.07639924
166	0xbc765ed2	-0.015037255
167	0x3c9a1508	0.018808857
168	0x3ca2d893	0.019878661
169	0x3e0b29bd	0.1359014
170	0xbda0e3b2	-0.078559294
171	0x3d9f5b54	0.07781091
172	0x3e259bcc	0.16172713
173	0xbd0aca5d	-0.033884395
174	0x3dce66ed	0.10078225
175	0x3d95c414	0.073127896
176	0xbd114a80	-0.03547144
177	0x3dc31208	0.095249236
178	0x3d8d2b82	0.06893064
179	0x3e61c3c6	0.22047338
180	0x3e4ceb91	0.20011736
181	0x3e289eb2	0.16466787
182	0x3dfcdaf8	0.123464525
183	0xbd20affb	-0.039230328
184	0xbcfea76c	-0.031085692
185	0x3e3d7064	0.18499905
186	0xbcb1fedf	-0.021727977
187	0x3e016c0d	0.12638874
188	0x3e7332b0	0.23749804
189	0x3de43108	0.111421645
190	0x3d494f1d	0.049147714
191	0x3dd4e04f	0.10394346
192	0x3d9220e6	0.07135181
193	0x3e5ad8a5	0.21371706
194	0x3d44350b	0.04790215
195	0xbe1150e1	-0.14191009
196	0xbe497033	-0.19671707
197	0xbd784c28	-0.060619503
198	0xbe143e6f	-0.14476942
199	0x3dfa81ea	0.122318104
200	0xbe123370	-0.14277434
201	0xbe4bdf94	-0.19909507
202	0xbdb0590c	-0.08610734
203	0xbc7d1c77	-0.015448681
204	0xbe547f9d	-0.20751806
205	0xbc66cd5a	-0.014087046
206	0x3dae5bce	0.08513604
207	0x3d8a7116	0.06759851
208	0xbec7ab2b	-0.38997778
209	0xbe43a8ec	-0.19107407
210	0xbd8b64b5	-0.06806318
211	0x3b95946f	0.004564814
212	0x3d056a0b	0.032571834
213	0x3c836403	0.0160389
214	0x3b001aab	0.0019547145
215	0x3d679eb3	0.05654783
216	0x3dbd8003	0.09252932
217	0x3d881dc1	0.066463
218	0xbd1944bb	-0.037419062
219	0x3da8bece	0.08239518
220	0x3df3ba71	0.11900795
221	0x3d37f971	0.04491562
222	0xbc85f654	-0.01635281
223	0x3e172636	0.1476067
224	0x3e0a9406	0.13533029
225	0xbdb40be0	-0.087913275
226	0x3e9281dd	0.28614703
227	0x3e35a29a	0.17737809
228	0xbe55d8a5	-0.20883425
229	0xbe480824	-0.19534355
230	0xbd98de95	-0.07464329
231	0xbe5fa933	-0.21841888
232	0x3cdb7064	0.02678699
233	0xbbc50713	-0.006012806
234	0xbd02792c	-0.03185384
235	0xbe654f1c	-0.22393459
236	0xbdd14590	-0.10218346
237	0xbe9ada8c	-0.30244863
238	0xbea57532	-0.32315975
239	0xbd831fae	-0.06402527
240	0xbded1934	-0.11577073
241	0xbb4ee897	-0.003157174
242	0xbd087f03	-0.033324253
243	0xbca85b00	-0.020551205
244	0xbe716dcf	-0.23577045
245	0xbc19e6e7	-0.00939343
246	0xbc6ce093	-0.01445784
247	0xbe11bdfd	-0.14232631
248	0xbbe52a31	-0.006993555
249	0xbe830ff3	-0.25598106
250	0xbdf17243	-0.11789372
251	0xbd548eeb	-0.05189411
252	0x3d26b452	0.04069931
253	0xbd908624	-0.07056835
254	0x3d98aca2	0.07454802
255	0x3cdcdb01	0.026959898

network_body._body_endoder.seq_layers.0.bias f4 [128]
0	0xbbf1e1a3	-0.0073816343
1	0x3b4126b8	0.002947254
2	0xbda32dd4	-0.079677254
3	0xbc5652d7	-0.013081274
4	0x3d23b730	0.039969623
5	0xb9d2e567	-0.0004022524
6	0x3d544932	0.051827617
7	0x3d8d861e	0.069103464
8	0x3d8e3560	0.06943774
9	0xbb377120	-0.0027991012
10	0x3d247b57	0.04015669
11	0x3d722f2b	0.059127014
12	0xba82bda6	-0.0009974733
13	0x3b610ca0	0.00343398
14	0xbd0eb30b	-0.034838717
15	0x3c75c96f	0.015001639
16	0x3d265d7f	0.04061651
17	0xbbaae7d9	-0.0052156267
18	0xbcb81f9c	-0.02247601
19	0x3c560eb8	0.013065033
20	0x3dd48247	0.10376411
21	0x3d4ef052	0.050522156
22	0x3da1b25a	0.07895346
23	0x3dc97237	0.09836238
24	0xbdb042a2	-0.08606459
25	0x3d183578	0.037160367
26	0x3c826212	0.015915904
27	0xbd3f67b9	-0.046729777
28	0x3d82ccec	0.06386742
29	0x3d5e58da	0.054283954
30	0xbd2399b6	-0.039941512
31	0x3d3977d8	0.045280308
32	0xbd393093	-0.04521234
33	0xbd7af22b	-0.061266106
34	0x3d2daca9	0.04240099
35	0xbb9ee7da	-0.004849416
36	0x3bbd45ce	0.0057761436
37	0xbd951808	-0.07279974
38	0xbc31fbab	-0.010863225
39	0x3c6af544	0.014340702
40	0xba614746	-0.00085936894
41	0x3c5074cc	0.012723159
42	0x3dde6a5a	0.10860129
43	0x3d686bb1	0.056743328
44	0x3d13ce7b	0.036085587
45	0xb9e18795	-0.0004301636
46	0x3cec80ac	0.02886995
47	0x3d4faf66	0.050704382
48	0xbcbbef52	-0.022941265
49	0xbd5fbdc9	-0.054624353
50	0x3c824882	0.015903715
51	0x3c98275e	0.01857346
52	0x3adb1b3e	0.0016716493
53	0x3ba890e9	0.0051442278
54	0xbc2a920d	-0.010410798
55	0xbd5aee94	-0.053450182
56	0x3d826d34	0.06368485
57	0xbc1a82b9	-0.009430581
58	0x3d1b3d6b	0.03790037
59	0x3d147b0b	0.036250155
60	0x3db585db	0.088634215
61	0x3d47bf54	0.04876645
62	0x3b4ac75a	0.0030941577
63	0x3ca90e3e	0.020636674
64	0xbc3a9c4a	-0.011389801
65	0x3b8a72e1	0.0042251204
66	0x3d14b732	0.03630752
67	0xbdbd28b1	-0.09236277
68	0xbcb001b3	-0.021485185
69	0xbcf5adc9	-0.029990094
70	0x3ca76cb3	0.020437574
71	0x3ccc3b30	0.024930567
72	0x3c106434	0.008812953
73	0xbc2f8e63	-0.0107151
74	0x3d521848	0.051292688
75	0x3d5c052f	0.05371588
76	0x3c617f75	0.013763298
77	0xbd0fe8f5	-0.035134275
78	0x3d6fb16f	0.058518823
79	0x3c8b6164	0.017014213
80	0x3d93f7c8	0.07224995
81	0x3d003f6e	0.03131049
82	0x3d85a80a	0.065261915
83	0x3d19935b	0.037494045
84	0x3cd4df4d	0.025985384
85	0x3c730b86	0.01483429
86	0x3d73ba5b	0.059503894
87	0x3a4a4594	0.00077160564
88	0xbd36ad81	-0.04459906
89	0x3ddf0dea	0.10891326
90	0x3d430b14	0.047617987
91	0x3c2192d1	0.009861664
92	0xbdbdc9d2	-0.0926701
93	0x3cce76b8	0.025203094
94	0x3d180e00	0.037122726
95	0xbce98e80	-0.028510332
96	0x3d8b50e2	0.068025365
97	0x3d19d111	0.037552897
98	0x3d86bf92	0.06579508
99	0x3c863c8d	0.016386295
100	0x3d91b1bb	0.071139775
101	0x3d9d00dc	0.076661795
102	0x3d074198	0.03302154
103	0xbdcc7496	-0.099831745
104	0x3c897d04	0.016783245
105	0x3c8154e1	0.015787544
106	0xbd552d67	-0.052045252
107	0x3d1ce503	0.03830434
108	0xbdab77a7	-0.08372431
109	0x3d5e5a74	0.05428548
110	0xbcc9232d	-0.024552906
111	0x3cadad2f	0.021200744
112	0xbcdbd592	-0.026835237
113	0x3d633bd6	0.055476986
114	0x3dbe2aff	0.092855446
115	0x3b2ff947	0.0026851462
116	0x3d584f04	0.05280973
117	0xbc8734b4	-0.016504623
118	0x3c6edd50	0.014579132
119	0xbd77ea12	-0.06052596
120	0x3cfb62f3	0.030686831
121	0x3bd9addf	0.0066430415
122	0xbd3b2121	-0.04568589
123	0x3dc1c5c7	0.09461551
124	0xbcc61a9f	-0.024182616
125	0xbd9d89b4	-0.076922804
126	0x3d2fec5f	0.04295003
127	0xbc3ac2dc	-0.011398997

network_body._body_endoder.seq_layers.2.weight f4 [128, 128]
0	0xbe03b75d	-0.12862916
1	0x3d9232c8	0.07138592
2	0x3d7c0cf2	0.061535783
3	0xbe10aa59	-0.14127482
4	0x3c2e9f3f	0.010658084
5	0xbd6b7394	-0.05748327
6	0x3dcd14de	0.10013746
7	0xbd9a26c8	-0.07526928
8	0xbd431636	-0.047628604
9	0x3c1d07f5	0.009584417
10	0xbe3809e2	-0.1797252
11	0x3d8b9cb0	0.06816995
12	0x3d3f260f	0.046667155
13	0x3d992a39	0.074787565
14	0x3d721166	0.059098624
15	0x3ce6fe8a	0.028197546
16	0x3e0f0611	0.13967158
17	0xbcbf88fc	-0.023380749
18	0xbdab8ae5	-0.083761014
19	0xbddd8784	-0.10816863
20	0x3d7d08da	0.06177602
21	0x3e556cd5	0.20842297
22	0xbd781e06	-0.060575508
23	0xbd4f563f	-0.05061936
24	0xbdaf4ea2	-0.0855992
25	0xbdb009a5	-0.085955895
26	0xbdef8d71	-0.116969
27	0x3c985306	0.018594276
28	0xbb7c3097	-0.003848111
29	0xbe5defe4	-0.21673542
30	0xbdce954b	-0.10087069
31	0xbd2dc049	-0.042419706
32	0xbd950103	-0.072755836
33	0xbd109013	-0.03529365
34	0x3da9b6ac	0.08286795
35	0xbbb19ecf	-0.005420543
36	0xbdb33dfa	-0.087520555
37	0xbc4c25d5	-0.012460192
38	0xbdf308ee	-0.118669376
39	0x3c0512db	0.008122171
40	0xbe1c5568	-0.15266955
41	0xbcc5f138	-0.024162874
42	0xbd5cc453	-0.053898167
43	0xbd87695a	-0.06611891
44	0xbe3a1d4c	-0.18175238
45	0xbdca7d78	-0.098872125
46	0xbc53b7e8	-0.012922265
47	0x3de2742c	0.11057314
48	0xbe89f7a2	-0.2694674
49	0xbe3ecb14	-0.18632156
50	0xbdb3625a	-0.087589934
51	0xbda66bdc	-0.08126041
52	0x3d6e95ed	0.05824845
53	0x3ce6e294	0.028184213
54	0x3d9b4f63	0.07583501
55	0xbe140048	-0.14453232
56	0xbc8268eb	-0.01591917
57	0xbebcb2db	-0.36855206
58	0x3e0cf491	0.1376517
59	0x3d06cb80	0.032908916
60	0xbd89d931	-0.06730879
61	0x3bf88814	0.007584581
62	0xbc09386a	-0.008375267
63	0x3dfba985	0.12288193
64	0x3e420737	0.18948065
65	0x3dcd556e	0.1002606
66	0xbc13a670	-0.00901185
67	0xbdc5877e	-0.09644984
68	0xbe5d5f35	-0.2161835
69	0x3b293f4c	0.0025825081
70	0x3d97a31b	0.07404157
71	0xbd7f0ad5	-0.06226619
72	0x3e717c57	0.23582588
73	0xbdcb95b2	-0.099406615
74	0xbd6d58d3	-0.057946038
75	0xbe26c081	-0.16284372
76	0x3d473149	0.048630986
77	0x3d3db247	0.046312597
78	0x3dd7f0cc	0.10543975
79	0xbd1fac82	-0.038982876
80	0xbd83902b	-0.06423982
81	0xbc80068c	-0.015628122
82	0xbe811d80	-0.2521782
83	0x3bf0f69a	0.007353616
84	0xbd1eea5d	-0.038797725
85	0xbb87ec92	-0.0041480744
86	0x3c84dd26	0.016218733
87	0xbe5e1fb0	-0.21691775
88	0xbe5b14ac	-0.21394604
89	0x3e036b7d	0.12833972
90	0x3e1dd29d	0.15412374
91	0xbd814d2b	-0.06313547
92	0x3d3ce6e0	0.046118617
93	0xbe05a60b	-0.13051622
94	0xbdf933ab	-0.12168058
95	0xbdee9ef1	-0.116514094
96	0xbdd5b643	-0.10435154
97	0xbd47db7d	-0.048793305
98	0xbc17f513	-0.009274739
99	0xbe256bf4	-0.16154462
100	0x3da88285	0.082280196
101	0x3e115400	0.141922
102	0xbd5deb5f	-0.054179545
103	0x3c6a71c0	0.014309347
104	0x3da646b7	0.081189565
105	0x3e5be03c	0.21472257
106	0xbd12c134	-0.035828784
107	0xbd849577	-0.06473821
108	0xbe005a07	-0.12534343
109	0x3ddb7860	0.10716319
110	0x3bd993e7	0.006639946
111	0xbe1b5854	-0.15170413
112	0x3d746212	0.05966384
113	0x3cb331d5	0.021874348
114	0x3deab916	0.114610836
115	0xbe57c1db	-0.21070044
116	0x3e13f026	0.14447078
117	0x3dc1e257	0.09466999
118	0xbd83d6de	-0.06437467
119	0x3d0098da	0.03139577
120	0xbd0e0eb2	-0.034681983
121	0x3d8d1790	0.0688926
122	0xbc9fe8b9	-0.01952015
123	0x3dc7cb02	0.097555175
124	0xbcaa7e90	-0.020812303
125	0x3db8c0a5	0.09021119
126	0xbd156513	-0.036473345
127	0x3cd81c2d	0.026380623
128	0xbd60679e	-0.054786317
129	0xbceb6dbd	-0.02873885
130	0xbd3344bc	-0.043766722
131	0x3d2d2ee2	0.04228104
132	0x3dbc4725	0.09193257
133	0x3dfbeefa	0.123014405
134	0xbc77dd48	-0.015128441
135	0x3d16c082	0.036804684
136	0xbe3f065d	-0.18654771
137	0x3c91f075	0.017814854
138	0xbe4f3591	-0.20235278
139	0x3bf822b1	0.007572495
140	0x3db8e375	0.09027759
141	0x3cc7cea2	0.024390522
142	0x3c9fc5c4	0.019503482
143	0x3d1ec538	0.0387623
144	0x3e698b2a	0.22806993
145	0xbd61afcd	-0.055099297
146	0xbdc66335	-0.09686891
147	0x3cb520e9	0.02211042
148	0xbd5997ae	-0.05312317
149	0x3d0c300d	0.034225512
150	0x3e2fdeeb	0.1717488
151	0x3d97c9fa	0.07411571
152	0xbd61f917	-0.05516919
153	0xbd607067	-0.054794695
154	0xbc4e3a84	-0.012587193
155	0xbddc6354	-0.10761133
156	0xbd4ad883	-0.049522888
157	0xbd5b402d	-0.053528
158	0xbc62b169	-0.013836243
159	0xbd2b5d9e	-0.041837327
160	0xbd39401a	-0.045227148
161	0xbd134122	-0.035950787
162	0x3d8854f3	0.06656828
163	0xbd7015f4	-0.058614686
164	0x3d499c98	0.049221605
165	0xbe98d601	-0.29850772
166	0xbe0d3f27	-0.13793622
167	0xbe4d58b7	-0.20053373
168	0xbd03c648	-0.032171518
169	0x3dbcd766	0.092207715
170	0xbe36423c	-0.17798704
171	0x3d7d555b	0.06184898
172	0xbe2fd795	-0.17172082
173	0xbe839718	-0.25701213
174	0xbaa12081	-0.0012293012
175	0x3dac53d6	0.08414428
176	0xbd95e246	-0.07318549
177	0xbe506285	-0.20350082
178	0x3d392ce4	0.045208827
179	0xbe2ac003	-0.16674809
180	0x3cc46626	0.02397449
181	0x3c08be25	0.008346115
182	0x3d19f7cb	0.03758983
183	0xbe4754ea	-0.19465986
184	0xbe0931c8	-0.13397896
185	0xbe85399a	-0.2602051
186	0xbcc5645d	-0.024095709
187	0x3dc1e0cc	0.09466705
188	0xbd728721	-0.0592109
189	0xbc548beb	-0.012972812
190	0x3db08d0e	0.08620654
191	0x3cd86b8e	0.026418474
192	0x3e25baa5	0.1618448
193	0x3ddfb4fd	0.10923193
194	0x3d695516	0.05696591
195	0xbe1b8941	-0.15189077
196	0xbddcc9ed	-0.10780702
197	0x3d1b8830	0.037971675
198	0x3d4c383c	0.049858317
199	0x3e342ba7	0.17594777
200	0x3dfed77a	0.12443443
201	0x3d6d2543	0.057896864
202	0x3d0193ec	0.03163521
203	0xbde38cdf	-0.111108534
204	0x3dc09765	0.09403876
205	0xbe98ef54	-0.29870093
206	0xbd244c38	-0.04011175
207	0x3d933283	0.07187369
208	0xbd549174	-0.051896527
209	0x3df4b076	0.1194772
210	0xbdf57e4c	-0.1198698
211	0xbd313db4	-0.043271735
212	0xbe27a83b	-0.16372769
213	0xbcdbc3dd	-0.026826793
214	0x3d313419	0.043262575
215	0xbe1825df	-0.14858197
216	0xbe021619	-0.12703742
217	0x3e1eb3ec	0.15498322
218	0xbddafdf9	-0.10692973
219	0x3d626b4b	0.055278104
220	0x3c6bee5b	0.01440009
221	0xbdce5250	-0.100742936
222	0x3dd7cde7	0.1053732
223	0x3d884e39	0.06655545
224	0x3e754c7e	0.2395496
225	0x3d9456ef	0.07243144
226	0x3d13409a	0.03595028
227	0xbe65d6ea	-0.22445264
228	0x3d6f3ade	0.05840575
229	0xbb0ce66d	-0.002149965
230	0x3d3688ce	0.04456406
231	0xbd5332e7	-0.051562216
232	0x3e1f67e4	0.15566975
233	0x3d7ac83d	0.06122612
234	0xbc8de81d	-0.017322594
235	0xbdacbd58	-0.08434552
236	0x3d6fb359	0.05852065
237	0x3ba7e8a6	0.0051241694
238	0xbd079d9c	-0.033109292
239	0xbe7548a2	-0.23953488
240	0x3d1c4cab	0.038159054
241	0xbd3b6957	-0.045754757
242	0xbd1e4a05	-0.03864481
243	0xbe019347	-0.12653838
244	0x3e19e800	0.15029907
245	0xbe337552	-0.17525223
246	0xbe40d871	-0.18832566
247	0x3cc01226	0.023446154
248	0xbd0ab420	-0.033863187
249	0xbe57ac5d	-0.21061845
250	0xbe07628b	-0.13221185
251	0xbcce2823	-0.025165623
252	0xbda6e740	-0.08149576
253	0xbd2f6359	-0.042819355
254	0xbd01a424	-0.031650677
255	0x3d190f8f	0.037368353

network_body._body_endoder.seq_layers.2.bias f4 [128]
0	0x3be099fa	0.006854293
1	0x3ca21dcb	0.019789597
2	0x3d0814dd	0.03322302
3	0x3c8a1add	0.016858513
4	0x3d1f591c	0.03890334
5	0xbc20ebad	-0.0098218145
6	0x3ced8909	0.028996008
7	0x3d3e483d	0.04645561
8	0xbb58f37d	-0.0033104115
9	0x3cd78ac1	0.02631128
10	0x3cff75d1	0.031184109
11	0xbd063135	-0.03276177
12	0x3d470f8c	0.04859881
13	0x3c520421	0.012818367
14	0x3cafaedb	0.021445682
15	0x3b4d5b15	0.0031334807
16	0xbc22b40c	-0.009930622
17	0x3c9bf20d	0.019036317
18	0xbab8a5c1	-0.0014087484
19	0x3da5a475	0.08088008
20	0x3d852420	0.06501031
21	0x3c4e159a	0.012578392
22	0x3ccfbe83	0.025359398
23	0x3c9364e3	0.017992442
24	0x3d3266dd	0.04355513
25	0xbcad2832	-0.02113733
26	0xbcc02fc4	-0.023460276
27	0x3d0692a9	0.03285471
28	0x3ce1e0da	0.027573038
29	0x3d8a821f	0.067631
30	0x3d5e8792	0.05432851
31	0x3d3f3cef	0.04668897
32	0x3cee1208	0.029061332
33	0x3d386e03	0.04502679
34	0xbd0d2f01	-0.034468655
35	0x3a2851e5	0.00064208946
36	0x3cf4830a	0.02984764
37	0x3cea889f	0.0286296
38	0xbc2a0143	-0.010376277
39	0x3d282643	0.041052114
40	0x3d44c388	0.048038036
41	0x3d812f0b	0.06307801
42	0x3d0d40a6	0.03448548
43	0x3cc5ce2e	0.024146166
44	0x3befe73e	0.0073212674
45	0xbbca40e7	-0.0061722877
46	0x3cf01da3	0.029311007
47	0x3d181ceb	0.037136953
48	0x3c4447fb	0.011980052
49	0x3d09d072	0.033646055
50	0x3d2ac600	0.041692734
51	0x3d5e568e	0.054281764
52	0x3d1e94f8	0.038716286
53	0x3d8e4ce2	0.06948258
54	0xbccd7795	-0.025081435
55	0x3d843042	0.06454517
56	0x3cfb9733	0.030711746
57	0x3caf607f	0.021408318
58	0x3b4d0e28	0.0031288955
59	0x3d3b0f44	0.045668855
60	0x3c9e5e51	0.019332083
61	0x3d7e5809	0.062095676
62	0x3b852e0a	0.004064326
63	0x3d52aeb5	0.051436145
64	0x3ce26649	0.027636664
65	0x3aefaf81	0.0018286557
66	0x3d9c9812	0.076461926
67	0x3c4a80ce	0.012359811
68	0x3d09be4e	0.033628754
69	0x3c656a18	0.0140023455
70	0x3d61ca8a	0.055124797
71	0x3d2a85e8	0.04163161
72	0x3cf3c8b5	0.02975879
73	0xbcbddce3	-0.023176616
74	0xbcabb9a1	-0.020962538
75	0x3dc51e98	0.09624976
76	0x3c05eff7	0.008174888
77	0x3d3d823e	0.046266787
78	0x3dc6165c	0.096722335
79	0xbc3a48ea	-0.011369923
80	0x3b88af3c	0.00417128
81	0x3d3098ff	0.04311466
82	0x3d35da95	0.04439791
83	0x3d319439	0.043354247
84	0x3cc8ddbf	0.0245198
85	0x3ceff6fc	0.029292576
86	0x3d3dde77	0.046354737
87	0x3d704d95	0.058667738
88	0x3cbb0b4e	0.022832539
89	0x3d3c0d4b	0.045911115
90	0x3d0c6fa0	0.03428614
91	0xbcef1552	-0.029184971
92	0x3cd67841	0.026180388
93	0xba01d424	-0.0004952571
94	0x3c089561	0.008336396
95	0x3b37daaf	0.002805393
96	0x3d643df9	0.055723164
97	0x3cacc773	0.021091199
98	0x3cf1d0bb	0.029518476
99	0x3ceb20cd	0.028702164
100	0xbbf8457f	-0.007576644
101	0x3d24c2c1	0.040224794
102	0xbd576518	-0.052586645
103	0x3d2f09eb	0.042734068
104	0x3b400322	0.0029298742
105	0x3d27a0c6	0.04092481
106	0xbd828598	-0.06373137
107	0x3d650615	0.055914003
108	0x3d5a8aca	0.053355016
109	0x3cf92a7a	0.030415762
110	0x3b6d0d8a	0.00361714
111	0xbd90f8b1	-0.07078684
112	0x3d3da6e2	0.04630173
113	0x3cb5f750	0.022212654
114	0xbab0df87	-0.0013494351
115	0x3c6e3f9d	0.014541534
116	0x3d12360b	0.03569607
117	0x3cd69839	0.026195632
118	0x3d4e7e50	0.05041343
119	0x3cbca289	0.023026722
120	0x3cfd2fea	0.030906636
121	0xbbe38a0a	-0.006943946
122	0xbc3f07aa	-0.011659542
123	0x3c817f13	0.015807664
124	0x3cbb6cf7	0.022879107
125	0xbd80d8dd	-0.062913634
126	0x3d470049	0.048584256
127	0xbba7c7ee	-0.005120269

action_model._continuous_distribution.log_sigma f4 [1, 2]
0	0xbfae5914	-1.3620934
1	0xbfa1f534	-1.2652955

action_model._continuous_distribution.mu.weight f4 [2, 128]
0	0x3d34072c	0.043952152
1	0x3d2db928	0.042412907
2	0x3adfc04e	0.0017070861
3	0x3e06e910	0.13174844
4	0xbb03f0ad	-0.0020132468
5	0x3d95f58a	0.073222235
6	0xbcbbe2dd	-0.022935325
7	0xbc6202c5	-0.013794606
8	0x3d97770f	0.073957555
9	0x3c946853	0.018116152
10	0xbc0eac5e	-0.008708088
11	0xbd11f492	-0.03563363
12	0xbd417435	-0.047229964
13	0x3d280c3c	0.041027293
14	0x3cd37061	0.025810422
15	0xbb18af5e	-0.0023297886
16	0x3d0ecf98	0.034865946
17	0xbc7ed2e6	-0.015553212
18	0xbb4e4460	-0.003147386
19	0xbcecf4aa	-0.028925259
20	0x3d23a6a5	0.039953846
21	0xbc315afd	-0.010824916
22	0x3dbc89e8	0.09205991
23	0x3c8de4a7	0.017320944
24	0x3e36bc57	0.17845283
25	0xbd4d6360	-0.0501436
26	0xbd833014	-0.064056545
27	0x3df9de2b	0.12200578
28	0x3da3a52d	0.07990489
29	0xbb2ee59a	-0.0026687146
30	0xbcef8854	-0.029239811
31	0xbc0534b0	-0.008130237
32	0x3c63932b	0.013890068
33	0x3c7a41dd	0.015274492
34	0xbd858815	-0.06520096
35	0x3b32a50d	0.0027259022
36	0x3b205eab	0.002447049
37	0x3cfc08d2	0.030765925
38	0xbbe7984c	-0.0070677157
39	0xbd86eb8e	-0.06587897
40	0xbba6182a	-0.0050687985
41	0x3d008246	0.03137424
42	0xbd7fbd8b	-0.06243662
43	0x3d0f6d21	0.035016183
44	0x3c3a44d2	0.011368947
45	0xbcb06c40	-0.021535993
46	0x3c42d7e0	0.011892289
47	0x3db1d3fc	0.08683011
48	0x3db7d199	0.089755245
49	0x3c3fc16c	0.01170383
50	0x3cf9fa6d	0.03051492
51	0x3d0e5e71	0.034758035
52	0x3dd8fa50	0.10594618
53	0x3d9890f7	0.07449525
54	0xbe05b121	-0.1305585
55	0xbd096636	-0.03354474
56	0x3ce5435c	0.027986221
57	0xbce9791e	-0.028500136
58	0x3cea2ff7	0.028587325
59	0x3d980c6f	0.074242465
60	0xbbdb31cc	-0.006689286
61	0x3ce2b0b2	0.027672146
62	0xbca36391	-0.019944938
63	0x3d0e55ca	0.034749784
64	0xbbdb4f07	-0.0066927704
65	0x3de9ee4d	0.114224054
66	0xbd5a50f6	-0.053299867
67	0xbba7b6ad	-0.005118212
68	0x3c53dd90	0.012931243
69	0x3b80611e	0.0039178273
70	0xbbeed3ac	-0.007288417
71	0xbda53845	-0.08067373
72	0xbc2b48fc	-0.010454413
73	0xbdc25c6c	-0.09490284
74	0x3d70e27b	0.05880974
75	0xbd458593	-0.04822309
76	0x3b48a76e	0.0030617374
77	0xbc171f79	-0.009223812
78	0xbcab97a0	-0.020946324
79	0xbd454d55	-0.048169453
80	0xbdc7cf37	-0.0975632
81	0xbd06b433	-0.032886695
82	0x3ca9c184	0.020722158
83	0x3c208015	0.009796162
84	0x3e0769d2	0.13223961
85	0x3d677725	0.05651011
86	0x3d0dabc2	0.03458763
87	0x3beee278	0.007290181
88	0x3c748033	0.014923143
89	0xbd3218c1	-0.04348064
90	0xbd552a44	-0.05204226
91	0x3c3166f2	0.010827767
92	0x3d0f4938	0.034981936
93	0xbd954e34	-0.07290307
94	0x3c1b29b6	0.009470394
95	0x381a4722	3.678271e-05
96	0x3d5c1324	0.05372919
97	0xbdd36e10	-0.10323727
98	0xbe0068f2	-0.12540033
99	0xbae0a3a4	-0.0017138612
100	0x3e0243ac	0.12721127
101	0xbc961ad4	-0.01832334
102	0x3d3161bf	0.04330611
103	0x3d0c8584	0.034307018
104	0x3db63359	0.088965125
105	0x3d45c75a	0.04828582
106	0xbb0ae716	-0.0021194867
107	0x3c49630e	0.012291683
108	0xbcc60841	-0.024173858
109	0x3da481df	0.080325834
110	0x3cb0dfca	0.021591086
111	0xbd4fde4a	-0.0507491
112	0x3c32f919	0.010923647
113	0x3d981e1b	0.07427617
114	0x3d4adfce	0.049529843
115	0x3cadc99b	0.021214297
116	0xbc4dbb13	-0.012556809
117	0xbd166aeb	-0.03672306
118	0x3b21bd9d	0.0024679669
119	0xbb621d7e	-0.0034502442
120	0x3d7fb2e2	0.062426455
121	0x3bc4714b	0.005994951
122	0x3cd5b6f3	0.026088214
123	0x3d95dc78	0.07317442
124	0x3d27e9c4	0.04099442
125	0xbb23b582	-0.0024980013
126	0x3cd6fda2	0.026243988
127	0x39e8c94e	0.00044400472
128	0xbd465e8b	-0.048430007
129	0xbcf1c298	-0.029511735
130	0xbe0e6936	-0.13907322
131	0xbd74ef67	-0.059798624
132	0x3b4fc34b	0.0031702097
133	0xbcb8941d	-0.022531563
134	0x3d0df498	0.03465709
135	0x3d28ee76	0.04124304
136	0xbd115395	-0.0354801
137	0xbe25df4c	-0.16198462
138	0x3d34366d	0.043997217
139	0xbc4d9674	-0.012548078
140	0x3d603cc9	0.05474547
141	0xbbf1b7fb	-0.0073766685
142	0x3ca77d6e	0.020445552
143	0x3b27b079	0.0025587364
144	0xbc04831c	-0.0080879
145	0xbe25176e	-0.16122219
146	0x3ba1628d	0.0049250782
147	0xbe060553	-0.13087969
148	0x3da9a1a1	0.082827814
149	0x3c9dd3bf	0.019266007
150	0x3d101250	0.035173714
151	0x3c2226a6	0.00989691
152	0xbe2af049	-0.16693224
153	0xbd63caa8	-0.05561319
154	0x3cf67606	0.030085575
155	0xbe1274a3	-0.14302306
156	0xbe249de2	-0.16075853
157	0x3e028dee	0.12749454
158	0xbba075b0	-0.004896842
159	0x3d3edb6c	0.046595976
160	0x3d1c6665	0.03818359
161	0x3d6085a1	0.05481494
162	0xbc20f436	-0.009823849
163	0xbddd4449	-0.1080404
164	0x3d16bf55	0.036803562
165	0x3da6520a	0.081211165
166	0xbdeec83d	-0.11659286
167	0x3c9b2f8b	0.018943569
168	0x3d7281b8	0.05920574
169	0x3d9e0789	0.07716281
170	0xbe2d0f45	-0.16900356
171	0xbe1fec39	-0.15617456
172	0xbd3a6990	-0.04551083
173	0xbdbd2ff3	-0.09237661
174	0xbe1a35cb	-0.15059583
175	0xbd697c7c	-0.057003483
176	0x3c5f1380	0.013615489
177	0x3d366f24	0.044539586
178	0xbe08e5b2	-0.13368872
179	0x3d85f6ce	0.06541215
180	0xbd2120e8	-0.039338022
181	0x3d5a7959	0.053338382
182	0xbd6019c4	-0.054712072
183	0x3dc04604	0.093883544
184	0x3d89781f	0.067123644
185	0x3c843548	0.016138688
186	0x3d0383df	0.032108184
187	0x3cd4a388	0.025956884
188	0xbdb98b3e	-0.090597615
189	0x3d2e17ad	0.042503048
190	0xbde06e07	-0.10958486
191	0x3d383288	0.044970065
192	0x3d3595eb	0.044332426
193	0xbbca1a03	-0.0061676516
194	0x3d77fae2	0.060541995
195	0xbe00de1c	-0.12584728
196	0x3d19bef1	0.03753561
197	0x3c1eee7b	0.009700413
198	0x3d43902d	0.04774492
199	0xbe0f25c5	-0.13979252
200	0x3d213781	0.039359573
201	0xbc2b2372	-0.010445463
202	0xbdc2533c	-0.09488532
203	0xbe432f6f	-0.19061063
204	0x3d0a0565	0.03369655
205	0x3d4b81a1	0.04968417
206	0xbe2d8876	-0.16946587
207	0xbde76ffe	-0.11300658
208	0x3cb3d06b	0.021949967
209	0xbe0b79bf	-0.13620661
210	0x3d666a5c	0.056253776
211	0xbdf5c5c2	-0.1200061
212	0x3d08504b	0.0332797
213	0x3c952863	0.018207734
214	0x3d6c4794	0.05768545
215	0x3d75c285	0.05999996
216	0xbe2a67da	-0.16641179
217	0x3d66618e	0.05624538
218	0x3d0e57a0	0.034751534
219	0x3d2c6684	0.042089954
220	0xba308727	-0.00067340065
221	0xbd6bdc67	-0.05758324
222	0x3cf00dba	0.02930342
223	0xbbb4f7d4	-0.0055227075
224	0x3d89ef61	0.06735111
225	0xbcccaebe	-0.024985667
226	0xbd74d24e	-0.059770875
227	0xbd17bd3b	-0.0370457
228	0x3dacb86d	0.08433614
229	0x3d53b8c2	0.05168987
230	0xbc9b105b	-0.018928697
231	0xbe39d691	-0.18148257
232	0xbd643efe	-0.055724137
233	0x3cfe1f5a	0.031020809
234	0x3b1f3e96	0.0024298779
235	0x3d692a4b	0.0569251
236	0x3d7a4bf3	0.061107587
237	0xbbbae482	-0.00570351
238	0xbcf23738	-0.029567346
239	0x3bf71951	0.0075408597
240	0x3d7faf95	0.062423307
241	0xbc6114b2	-0.013737844
242	0xbc4d7104	-0.012539152
243	0x3d56fc47	0.052486684
244	0x3d717af0	0.058955133
245	0xbda1a90f	-0.078935735
246	0x3d53f5ab	0.05174796
247	0xbe0f6703	-0.1400414
248	0x3d3ab47b	0.045582276
249	0x3c118640	0.008882105
250	0xbd08892d	-0.033333946
251	0xbe239761	-0.15975715
252	0xbcdd0e6f	-0.026984422
253	0xbcc76b59	-0.02434318
254	0x3d9860fc	0.07440373
255	0xbdd1ffe1	-0.10253883

action_model._continuous_distribution.mu.bias f4 [2]
0	0xbc6d2262	-0.0144735295
1	0x3d351842	0.044212587

exp_avg f4 [128, 90]
0	0x3a31e2d6	0.00067858153
1	0x39cda613	0.00039224382
2	0x398d2c8c	0.00026926806
3	0x39289cbb	0.00016080115
4	0x38625fe2	5.3971897e-05
5	0x39923a7c	0.00027890864
6	0x395d428f	0.00021100997
7	0x39ab494a	0.00032670266
8	0x39a20589	0.00030903172
9	0x398ec892	0.00027233787
10	0x39d88106	0.0004129486
11	0x39fce0e2	0.00048232736
12	0x39a41b9e	0.00031301094
13	0x3955d4a3	0.00020392476
14	0x39408839	0.00018361294
15	0x39299513	0.0001617263
16	0x394c6d73	0.00019495729
17	0x397a2dde	0.00023858945
18	0x398d717b	0.00026978165
19	0x3992b0b6	0.0002797895
20	0x39915c75	0.0002772544
21	0x39d66bc0	0.0004089754
22	0x39d481af	0.00040532413
23	0x39dcb6de	0.00042097917
24	0x39dc7956	0.00042052072
25	0x39e2dd70	0.00043271063
26	0x39e1d01d	0.000430704
27	0x39e67099	0.0004395291
28	0x39ec829b	0.00045110736
29	0x39bfbd63	0.00036571463
30	0x39a58dad	0.0003157681
31	0x39f6063d	0.00046925424
32	0x39633fd4	0.00021672185
33	0x39583144	0.00020617718
34	0x39472f22	0.00018995677
35	0x3933974b	0.00017127131
36	0x391def8c	0.00015061925
37	0x38e631a3	0.000109765
38	0x38c417c1	9.350433e-05
39	0x398d656d	0.00026969184
40	0x39893daa	0.0002617662
41	0x3994fff6	0.00028419466
42	0x39872a78	0.00025780848
43	0x39aa9c53	0.00032541397
44	0x39babecb	0.00035618836
45	0x39bcc85b	0.0003600743
46	0x3a2dc489	0.0006628712
47	0x3b294480	0.0025828183
48	0xb6f57adc	-7.3158717e-06
49	0xb6bd40ae	-5.6401686e-06
50	0xb6840155	-3.9340616e-06
51	0xb68ab702	-4.1340254e-06
52	0xb692a592	-4.370414e-06
53	0xb692e838	-4.378173e-06
54	0xb69ff774	-4.7673766e-06
55	0xb69ff774	-4.7673766e-06
56	0xb69ff774	-4.7673766e-06
57	0xb69ff774	-4.7673766e-06
58	0xb69ff774	-4.7673766e-06
59	0xb69ff774	-4.7673766e-06
60	0xb69ff774	-4.7673766e-06
61	0xb70d9217	-8.438269e-06
62	0xb706574c	-8.007348e-06
63	0xb793106f	-1.7531418e-05
64	0xb7d6fa01	-2.5627205e-05
65	0xb81422c2	-3.531832e-05
66	0xb837d80c	-4.383181e-05
67	0xb8466a14	-4.730567e-05
68	0xb8532848	-5.0343835e-05
69	0xb85e5a84	-5.3013224e-05
70	0xb8664c2a	-5.4907207e-05
71	0xb86daecc	-5.6667996e-05
72	0xb8840ec3	-6.297e-05
73	0xb893bed0	-7.045048e-05
74	0xb8a1ad3b	-7.709345e-05
75	0xb8a82491	-8.017675e-05
76	0xb8acb08e	-8.234485e-05
77	0xb8b10689	-8.441235e-05
78	0xb8b6bef0	-8.714001e-05
79	0xb8c188ec	-9.228461e-05
80	0xb8fe35d8	-0.00012121693
81	0x36531d81	3.1458624e-06
82	0x39c4cbd4	0.00037535897
83	0x39b9f2c1	0.00035466815
84	0x39b62240	0.00034739263
85	0x39b55530	0.0003458648
86	0x39b636f1	0.0003475468
87	0x39b92281	0.00035311657
88	0x39ba3082	0.00035512826
89	0x39bd1ef5	0.00036071954
90	0x39e8a9e1	0.00044377058
91	0x399d07bb	0.00029951133
92	0x399abd6f	0.00029514308
93	0x3974336c	0.0002328881
94	0x39a3e44f	0.00031259886
95	0x398130c3	0.00024641128
96	0x394f2091	0.0001975319
97	0x39ae4444	0.00033238728
98	0x39a5538f	0.00031533508
99	0x3981900a	0.00024712115
100	0x3984823a	0.00025274028
101	0x3965c5b1	0.00021912788
102	0x395ba25b	0.0002094595
103	0x395d2395	0.00021089458
104	0x394730e4	0.00018996332
105	0x3950dec7	0.00019919417
106	0x3961c07d	0.0002152938
107	0x39893095	0.00026166873
108	0x398b9866	0.00026625692
109	0x39a696b5	0.00031774273
110	0x39c4eb7b	0.0003755948
111	0x39ba57d6	0.00035542127
112	0x39950a52	0.00028427184
113	0x399f3b8d	0.00030371212
114	0x39a09d68	0.00030634855
115	0x399ce024	0.00029921636
116	0x39a1e459	0.00030878445
117	0x39a022fe	0.0003054365
118	0x39a8d681	0.00032203275
119	0x398504bd	0.00025371267
120	0x394a406a	0.00019288217
121	0x3a00c800	0.0004912615
122	0xb986abdf	-0.00025686526
123	0xb9862a4d	-0.00025589988
124	0xb98a8968	-0.00026423787
125	0xb990afd2	-0.00027596817
126	0xb99d1a8d	-0.00029965155
127	0xb9c4f883	-0.0003756919
128	0xb9ab2d9e	-0.0003264965
129	0xb99d0139	-0.00029946284
130	0xb99a7560	-0.0002946062
131	0xb9654a21	-0.00021866757
132	0xb997eebc	-0.00028978835
133	0xb979b6db	-0.0002381461
134	0xb9617dcb	-0.00021504534
135	0xb95d4b6d	-0.000211043
136	0xb9c63e2a	-0.0003781182
137	0x38370696	4.3636734e-05
138	0xb6ca32ee	-6.025998e-06
139	0xb69be2ae	-4.645749e-06
140	0xb659765d	-3.2404416e-06
141	0xb664840c	-3.405151e-06
142	0xb671954a	-3.5998696e-06
143	0xb67202fc	-3.6062547e-06
144	0xb683c33a	-3.9268316e-06
145	0xb683c33a	-3.9268316e-06
146	0xb683c33a	-3.9268316e-06
147	0xb683c33a	-3.9268316e-06
148	0xb683c33a	-3.9268316e-06
149	0xb683c33a	-3.9268316e-06
150	0xb683c33a	-3.9268316e-06
151	0xb6e9386b	-6.950509e-06
152	0xb6dd4c32	-6.5951835e-06
153	0xb772428f	-1.4439821e-05
154	0xb7b11126	-2.110803e-05
155	0xb7f4069e	-2.9090148e-05
156	0xb8176c9a	-3.610235e-05
157	0xb8236ce3	-3.8963637e-05
158	0xb82debbe	-4.1465966e-05
159	0xb8372480	-4.3664593e-05
160	0xb83daf83	-4.522457e-05
161	0xb843c4c5	-4.667488e-05
162	0xb8598a2c	-5.1865514e-05
163	0xb87361cd	-5.80268e-05
164	0xb8852a62	-6.3498286e-05
165	0xb88a7dcd	-6.603785e-05
166	0xb88e3c89	-6.782363e-05
167	0xb891ced0	-6.9526606e-05
168	0xb89684ea	-7.1773145e-05
169	0xb89f67de	-7.6010576e-05
170	0xb8b60fab	-8.681355e-05
171	0xb888e37a	-6.527356e-05
172	0xb94a15ee	-0.0001927239
173	0xb94ad5c6	-0.00019343858
174	0xb9539ac6	-0.00020180186
175	0xb95b63a9	-0.00020922594
176	0xb9655dc4	-0.00021874072
177	0xb969841c	-0.00022269826
178	0xb9686e8c	-0.00022166426
179	0xb95b9daf	-0.00020944209
180	0x39d2cf11	0.00040208598
181	0x39a292d9	0.00031008458
182	0x397c5d54	0.0002406736
183	0x39676d93	0.00022070696
184	0x38e4f4cc	0.00010917484
185	0x39aad684	0.00032584753
186	0x3985ea73	0.00025542415
187	0x39be7644	0.0003632774
188	0x39973658	0.00028841454
189	0x39966817	0.00028687782
190	0x397cded9	0.0002411561
191	0x392dd51c	0.00016577955
192	0x38704b26	5.7290446e-05
193	0x38e5dfe3	0.00010961273
194	0x39278d52	0.00015979007
195	0x3934e777	0.00017252365
196	0x395832e9	0.00020618331
197	0x3992a40b	0.00027969512
198	0x3990838d	0.00027563833
199	0x3986a339	0.00025680082
200	0x395ec950	0.00021246565
201	0x397eaab2	0.00024286917
202	0x397b2533	0.00023951083
203	0x394f077a	0.00019743844
204	0x394c3489	0.00019474527
205	0x3952ce29	0.00020103961
206	0x39395c87	0.00017677444
207	0x393b2dff	0.00017850845
208	0x392e51db	0.00016624427
209	0x3889ccbe	6.570805e-05
210	0xb7aa87cc	-2.0328815e-05
211	0x39d0a4de	0.00039795687
212	0xb962913c	-0.00021607144
213	0xb969bc4a	-0.00022290755
214	0xb96daebe	-0.00022667178
215	0xb9759d0f	-0.0002342353
216	0xb9809900	-0.00024528056
217	0xb999f484	-0.00029364612
218	0xb98b7311	-0.00026597877
219	0xb97b7c07	-0.00023983429
220	0xb95165da	-0.00019969736
221	0xb92e75c2	-0.00016637801
222	0xb9531ae8	-0.00020132551
223	0xb9207c6e	-0.00015305143
224	0xb9043d49	-0.00012611331
225	0xb903ca6d	-0.00012568543
226	0x38487c64	4.7799564e-05
227	0x39069bc5	0.00012837265
228	0xb59cdcd3	-1.1687174e-06
229	0xb571dde7	-9.0102407e-07
230	0xb528b418	-6.284695e-07
231	0xb5314760	-6.60415e-07
232	0xb53b6a84	-6.981793e-07
233	0xb53bbfa8	-6.9941825e-07
234	0xb54c7037	-7.6159216e-07
235	0xb54c7037	-7.6159216e-07
236	0xb54c7037	-7.6159216e-07
237	0xb54c7037	-7.6159216e-07
238	0xb54c7037	-7.6159216e-07
239	0xb54c7037	-7.6159216e-07
240	0xb54c7037	-7.6159216e-07
241	0xb5b4edb5	-1.3480227e-06
242	0xb5abb079	-1.2791853e-06
243	0xb63bf2f0	-2.800658e-06
244	0xb6895ed2	-4.0939567e-06
245	0xb6bd518e	-5.642133e-06
246	0xb6eaf435	-7.002173e-06
247	0xb6fd936a	-7.557149e-06
248	0xb706ee2d	-8.042477e-06
249	0xb70e15a2	-8.468896e-06
250	0xb7132926	-8.771463e-06
251	0xb717e151	-9.052762e-06
252	0xb728c54b	-1.0059516e-05
253	0xb73cd1c0	-1.1254509e-05
254	0xb74e9fca	-1.2315761e-05
255	0xb756e325	-1.280828e-05
