results/parallelRC1/ParkParallelRC/ParkParallelRC-12842909.pt (torch, 704803 bytes, 44 tensors)

network_body.observation_encoder.processors.0.normalizer.running_mean f4 [90]
000000 a0 e9 60 3f 3a 2c 48 3f fe ad 31 3f d9 3b 18 3f
       0.87856483 0.78192484 0.69406116 0.5946632
000010 a0 db 05 3f ed 31 f5 3e 14 a5 e5 3e 14 7b d8 3e
       0.52288246 0.47889653 0.44852507 0.422814
000020 b9 db cb 3e f1 0f be 3e 96 c1 ae 3e f2 9e a2 3e
       0.39816073 0.37121537 0.3413207 0.3176189
000030 a5 5a 97 3e 04 1e 8d 3e 81 22 86 3e bc 97 7f 3e
       0.29561344 0.27561963 0.261982 0.24960226
000040 77 4e 6e 3e c1 f0 5c 3e dd 41 58 3e 62 51 58 3e
       0.2327212 0.21576215 0.21118875 0.21124795
000050 22 a9 5b 3e 08 c4 5f 3e 69 76 63 3e 58 2e 66 3e
       0.21451238 0.21852124 0.22213139 0.22478616
000060 01 d1 67 3e b0 7e 6a 3e 31 c6 71 3e 96 13 78 3e
       0.22638322 0.2289989 0.2361076 0.24226221
000070 8f 83 7e 3e c1 ff 83 3e e2 d2 8a 3e 64 11 93 3e
       0.24854873 0.25781062 0.27114016 0.28724205
000080 02 f5 9c 3e ab 43 a8 3e 4b 1c b4 3e 28 2f c2 3e
       0.30655676 0.32864127 0.35177836 0.37926602
000090 20 bf d1 3e c6 d9 db 3e 41 23 df 3e bb 96 e3 3e
       0.4096613 0.42939585 0.43581584 0.44450936
0000a0 1e 23 eb 3e e9 e5 01 3f 59 d7 25 3f 52 79 3a 3f
       0.4592523 0.5074144 0.6478172 0.7284137
0000b0 ba 6c 45 3f a6 a7 48 3f fc ee 7c 3f d2 a0 7f 3f
       0.7711903 0.7838081 0.9880216 0.9985477
0000c0 f1 dc 7f 3f 04 f4 7f 3f 3c fa 7f 3f 78 fc 7f 3f
       0.99946505 0.99981713 0.999912 0.9999461
0000d0 47 fe 7f 3f 53 ff 7f 3f 54 ff 7f 3f 54 ff 7f 3f
       0.9999737 0.9999897 0.99998975 0.99998975
0000e0 54 ff 7f 3f 54 ff 7f 3f 55 ff 7f 3f 56 ff 7f 3f
       0.99998975 0.99998975 0.9999898 0.99998987
0000f0 56 ff 7f 3f f5 df 7f 3f 72 b2 7f 3f aa db 7e 3f
       0.99998987 0.99951106 0.9988166 0.9955393
000100 09 95 7d 3f 6b 88 7b 3f b2 44 79 3f 96 30 78 3f
       0.99055535 0.9825503 0.97370446 0.96949136
000110 ec 2f 77 3f 83 44 76 3f b8 97 75 3f 05 f4 74 3f
       0.965575 0.9619829 0.9593463 0.95684844
000120 70 99 72 3f 16 94 6f 3f af bf 6c 3f eb 6a 6b 3f
       0.9476538 0.93585336 0.92479986 0.9196002
000130 55 84 6a 3f b0 a8 69 3f 9a 86 68 3f 60 42 66 3f
       0.9160817 0.9127302 0.90830386 0.8994503
000140 87 60 63 3f 15 cb 5f 3f 5a 2a 56 3f bb 47 51 3f
       0.88819164 0.87419254 0.83658373 0.81750077
000150 99 cc 4d 3f 66 fa 4c 3f 8a 61 4c 3f b3 c4 4b 3f
       0.80390316 0.8006958 0.7983633 0.79597014
000160 21 1a 4b 3f 59 2e 4a 3f
       0.79336745 0.7897697

network_body.observation_encoder.processors.0.normalizer.running_variance f4 [90]
000000 8f 15 d6 48 3b b8 5d 49 91 7e 8e 49 32 d4 93 49
       438444.47 908163.7 1.1673141e+06 1.2110142e+06
000010 9a 80 96 49 64 a7 98 49 29 93 99 49 1f 5d 97 49
       1.2329152e+06 1.2505405e+06 1.2580851e+06 1.2399719e+06
000020 bc 3f 91 49 38 ea 85 49 a8 0f 68 49 80 ea 4b 49
       1.1898795e+06 1.097031e+06 950522.5 835240.0
000030 dd 7b 2f 49 67 da 17 49 fa 46 0c 49 d0 6f fb 48
       718781.8 621990.44 574575.6 514942.5
000040 e9 12 b9 48 24 fb 52 48 f2 93 32 48 73 b2 2a 48
       379031.28 216044.56 182863.78 174793.8
000050 f0 63 28 48 df 3b 28 48 13 15 2a 48 39 99 2b 48
       172431.75 172271.48 174164.3 175716.89
000060 a5 28 26 48 0a 76 1b 48 fa 2c 16 48 2c d5 17 48
       170146.58 159192.16 153779.9 155476.69
000070 04 db 1e 48 64 0a 2a 48 19 a0 39 48 27 b0 4f 48
       162668.06 174121.56 190080.39 212672.61
000080 ba 93 6e 48 e9 63 8d 48 4d 1f ae 48 f2 c7 db 48
       244302.9 289567.28 356602.4 450111.56
000090 a8 af 08 49 d5 7d 16 49 77 fd 0c 49 f7 76 05 49
       559866.5 616413.3 577495.44 546671.44
0000a0 5d 51 01 49 f1 d9 21 49 7e 5a 9c 49 1f a7 ad 49
       529685.8 662943.06 1.2808478e+06 1.4225639e+06
0000b0 cb 73 b7 49 5c 73 b7 49 34 7f 61 47 c6 53 a4 45
       1.5028414e+06 1.5028275e+06 57727.203 5258.4717
0000c0 dd 01 e2 44 1a 70 61 44 93 fc f7 43 67 22 aa 43
       1808.0582 901.7516 495.97324 340.26877
0000d0 8a de 0e 43 dc 1d 84 40 1e d1 6c 40 be 66 6a 40
       142.8693 4.128645 3.7002635 3.662521
0000e0 f2 28 67 40 b6 9e 62 40 6e e3 2f 40 6e ff ff 3f
       3.611874 3.540937 2.7482562 1.9999826
0000f0 6e ff ff 3f 46 ef b9 44 30 4f 30 46 aa bf 3a 47
       1.9999826 1487.4773 11283.797 47807.664
000100 b1 f3 c1 47 ad 0e 2f 48 05 9a 81 48 0a 25 96 48
       99303.38 179258.7 265424.16 307496.3
000110 1b ec a8 48 b8 09 ba 48 46 87 c6 48 6f 2f d2 48
       345952.84 381005.75 406586.2 430459.47
000120 69 77 fb 48 93 95 17 49 ed cf 2e 49 0f 31 39 49
       515003.28 620889.2 716030.8 758544.94
000130 eb 98 3f 49 fa 7f 45 49 b7 16 4d 49 b9 d7 5c 49
       784782.7 808959.6 840043.44 904571.56
000140 f4 2a 70 49 d1 31 83 49 8a df 9f 49 b8 5c ad 49
       983727.25 1.0747461e+06 1.3096812e+06 1.420183e+06
000150 70 59 b6 49 d8 9d b7 49 ff ca b7 49 22 b2 b7 49
       1.493806e+06 1.504187e+06 1.5056319e+06 1.5048362e+06
000160 8a 8a b7 49 76 6b b7 49
       1.5035692e+06 1.5025748e+06

network_body.processors.0.normalizer.running_mean f4 [90]
000000 a0 e9 60 3f 3a 2c 48 3f fe ad 31 3f d9 3b 18 3f
       0.87856483 0.78192484 0.69406116 0.5946632
000010 a0 db 05 3f ed 31 f5 3e 14 a5 e5 3e 14 7b d8 3e
       0.52288246 0.47889653 0.44852507 0.422814
000020 b9 db cb 3e f1 0f be 3e 96 c1 ae 3e f2 9e a2 3e
       0.39816073 0.37121537 0.3413207 0.3176189
000030 a5 5a 97 3e 04 1e 8d 3e 81 22 86 3e bc 97 7f 3e
       0.29561344 0.27561963 0.261982 0.24960226
000040 77 4e 6e 3e c1 f0 5c 3e dd 41 58 3e 62 51 58 3e
       0.2327212 0.21576215 0.21118875 0.21124795
000050 22 a9 5b 3e 08 c4 5f 3e 69 76 63 3e 58 2e 66 3e
       0.21451238 0.21852124 0.22213139 0.22478616
000060 01 d1 67 3e b0 7e 6a 3e 31 c6 71 3e 96 13 78 3e
       0.22638322 0.2289989 0.2361076 0.24226221
000070 8f 83 7e 3e c1 ff 83 3e e2 d2 8a 3e 64 11 93 3e
       0.24854873 0.25781062 0.27114016 0.28724205
000080 02 f5 9c 3e ab 43 a8 3e 4b 1c b4 3e 28 2f c2 3e
       0.30655676 0.32864127 0.35177836 0.37926602
000090 20 bf d1 3e c6 d9 db 3e 41 23 df 3e bb 96 e3 3e
       0.4096613 0.42939585 0.43581584 0.44450936
0000a0 1e 23 eb 3e e9 e5 01 3f 59 d7 25 3f 52 79 3a 3f
       0.4592523 0.5074144 0.6478172 0.7284137
0000b0 ba 6c 45 3f a6 a7 48 3f fc ee 7c 3f d2 a0 7f 3f
       0.7711903 0.7838081 0.9880216 0.9985477
0000c0 f1 dc 7f 3f 04 f4 7f 3f 3c fa 7f 3f 78 fc 7f 3f
       0.99946505 0.99981713 0.999912 0.9999461
0000d0 47 fe 7f 3f 53 ff 7f 3f 54 ff 7f 3f 54 ff 7f 3f
       0.9999737 0.9999897 0.99998975 0.99998975
0000e0 54 ff 7f 3f 54 ff 7f 3f 55 ff 7f 3f 56 ff 7f 3f
       0.99998975 0.99998975 0.9999898 0.99998987
0000f0 56 ff 7f 3f f5 df 7f 3f 72 b2 7f 3f aa db 7e 3f
       0.99998987 0.99951106 0.9988166 0.9955393
000100 09 95 7d 3f 6b 88 7b 3f b2 44 79 3f 96 30 78 3f
       0.99055535 0.9825503 0.97370446 0.96949136
000110 ec 2f 77 3f 83 44 76 3f b8 97 75 3f 05 f4 74 3f
       0.965575 0.9619829 0.9593463 0.95684844
000120 70 99 72 3f 16 94 6f 3f af bf 6c 3f eb 6a 6b 3f
       0.9476538 0.93585336 0.92479986 0.9196002
000130 55 84 6a 3f b0 a8 69 3f 9a 86 68 3f 60 42 66 3f
       0.9160817 0.9127302 0.90830386 0.8994503
000140 87 60 63 3f 15 cb 5f 3f 5a 2a 56 3f bb 47 51 3f
       0.88819164 0.87419254 0.83658373 0.81750077
000150 99 cc 4d 3f 66 fa 4c 3f 8a 61 4c 3f b3 c4 4b 3f
       0.80390316 0.8006958 0.7983633 0.79597014
000160 21 1a 4b 3f 59 2e 4a 3f
       0.79336745 0.7897697

network_body.processors.0.normalizer.running_variance f4 [90]
000000 8f 15 d6 48 3b b8 5d 49 91 7e 8e 49 32 d4 93 49
       438444.47 908163.7 1.1673141e+06 1.2110142e+06
000010 9a 80 96 49 64 a7 98 49 29 93 99 49 1f 5d 97 49
       1.2329152e+06 1.2505405e+06 1.2580851e+06 1.2399719e+06
000020 bc 3f 91 49 38 ea 85 49 a8 0f 68 49 80 ea 4b 49
       1.1898795e+06 1.097031e+06 950522.5 835240.0
000030 dd 7b 2f 49 67 da 17 49 fa 46 0c 49 d0 6f fb 48
       718781.8 621990.44 574575.6 514942.5
000040 e9 12 b9 48 24 fb 52 48 f2 93 32 48 73 b2 2a 48
       379031.28 216044.56 182863.78 174793.8
000050 f0 63 28 48 df 3b 28 48 13 15 2a 48 39 99 2b 48
       172431.75 172271.48 174164.3 175716.89
000060 a5 28 26 48 0a 76 1b 48 fa 2c 16 48 2c d5 17 48
       170146.58 159192.16 153779.9 155476.69
000070 04 db 1e 48 64 0a 2a 48 19 a0 39 48 27 b0 4f 48
       162668.06 174121.56 190080.39 212672.61
000080 ba 93 6e 48 e9 63 8d 48 4d 1f ae 48 f2 c7 db 48
       244302.9 289567.28 356602.4 450111.56
000090 a8 af 08 49 d5 7d 16 49 77 fd 0c 49 f7 76 05 49
       559866.5 616413.3 577495.44 546671.44
0000a0 5d 51 01 49 f1 d9 21 49 7e 5a 9c 49 1f a7 ad 49
       529685.8 662943.06 1.2808478e+06 1.4225639e+06
0000b0 cb 73 b7 49 5c 73 b7 49 34 7f 61 47 c6 53 a4 45
       1.5028414e+06 1.5028275e+06 57727.203 5258.4717
0000c0 dd 01 e2 44 1a 70 61 44 93 fc f7 43 67 22 aa 43
       1808.0582 901.7516 495.97324 340.26877
0000d0 8a de 0e 43 dc 1d 84 40 1e d1 6c 40 be 66 6a 40
       142.8693 4.128645 3.7002635 3.662521
0000e0 f2 28 67 40 b6 9e 62 40 6e e3 2f 40 6e ff ff 3f
       3.611874 3.540937 2.7482562 1.9999826
0000f0 6e ff ff 3f 46 ef b9 44 30 4f 30 46 aa bf 3a 47
       1.9999826 1487.4773 11283.797 47807.664
000100 b1 f3 c1 47 ad 0e 2f 48 05 9a 81 48 0a 25 96 48
       99303.38 179258.7 265424.16 307496.3
000110 1b ec a8 48 b8 09 ba 48 46 87 c6 48 6f 2f d2 48
       345952.84 381005.75 406586.2 430459.47
000120 69 77 fb 48 93 95 17 49 ed cf 2e 49 0f 31 39 49
       515003.28 620889.2 716030.8 758544.94
000130 eb 98 3f 49 fa 7f 45 49 b7 16 4d 49 b9 d7 5c 49
       784782.7 808959.6 840043.44 904571.56
000140 f4 2a 70 49 d1 31 83 49 8a df 9f 49 b8 5c ad 49
       983727.25 1.0747461e+06 1.3096812e+06 1.420183e+06
000150 70 59 b6 49 d8 9d b7 49 ff ca b7 49 22 b2 b7 49
       1.493806e+06 1.504187e+06 1.5056319e+06 1.5048362e+06
000160 8a 8a b7 49 76 6b b7 49
       1.5035692e+06 1.5025748e+06

network_body._body_endoder.seq_layers.0.weight f4 [128, 90]
000000 4e 3b 40 bd bb b6 00 be ed de 9c bd 57 00 d3 3d
       -0.046931557 -0.12569706 -0.07659707 0.10302799
000010 67 61 48 bd 4c 49 40 be 0e e5 7c bd a4 9f 62 be
       -0.048921015 -0.1877796 -0.06174188 -0.2213121
000020 6f c9 49 3d 82 56 c2 3d 41 6d a0 bd dd ce fd bd
       0.049264368 0.09489156 -0.078333385 -0.12392972
000030 5f 39 7b bc a7 aa 5f ba 06 1b aa bd 73 a8 83 bd
       -0.015333503 -0.0008532204 -0.083059356 -0.064286135
000040 12 69 99 bd bf 7e 3c 3e c7 96 59 3d 4a 46 a9 3d
       -0.07490744 0.18407725 0.053122308 0.0826536
000050 51 b1 49 bd 6b 84 10 be 34 b7 fe bd 24 36 dd 3d
       -0.049241368 -0.14113013 -0.12437287 0.10801342
000060 65 01 17 3d b2 7d 85 bd 99 71 83 bd 5e 8a 3a bd
       0.036866564 -0.06518115 -0.064181514 -0.045542113
000070 18 4a ac be 8f e6 60 bd e7 93 ed bd 8c 65 63 3c
       -0.3365028 -0.054907378 -0.11600476 0.013879191
000080 84 df a7 bd 2c cf 00 3e de 6b 03 bb b5 f7 4d 3d
       -0.08196929 0.1257903 -0.0020053308 0.05028506
000090 98 c3 0e be 70 4a 87 3d 01 c1 c9 3d f8 0c 4f 3d
       -0.139418 0.06605995 0.09851266 0.050549477
0000a0 65 c2 2b be 32 2f 11 be 72 c5 12 3d 54 9c c8 bc
       -0.16773374 -0.1417816 0.03583283 -0.024488606
0000b0 5e 85 b2 be 49 0a b3 ba 52 11 c2 bd 48 f8 2a 3e
       -0.34867376 -0.0013659681 -0.0947596 0.16696274
0000c0 8d 58 21 be e2 97 ee bd 51 51 d9 bd af 9a ad 3c
       -0.15756436 -0.11650063 -0.10611213 0.021191923
0000d0 89 9e ea 3d 4c 86 0b 3e 42 8a 17 be 1e 2e db bd
       0.114560194 0.13625449 -0.14798835 -0.107021555
0000e0 43 35 0c be 65 1e 75 3e 0c c1 6d 3d 5a 9a 4f 3c
       -0.13692193 0.23937376 0.058045432 0.012671078
0000f0 b8 e4 a4 bc 72 b2 f4 3c 3b 1b 86 bd 91 58 fe 3a
       -0.020128593 0.029870246 -0.065481625 0.0019405057
000100 65 93 e4 bc da ae 78 bc d6 6b da 3d 3a a9 45 3e
       -0.027902314 -0.015178407 0.10665099 0.19302836
000110 2b ba df bd a7 60 c1 bc 0b f0 34 be 8e 99 39 3e
       -0.109241806 -0.023605658 -0.17669694 0.18124983
000120 ab c5 a7 bc 2e 5e 43 be db af 63 be b7 bd 23 be
       -0.020479998 -0.19078895 -0.22235052 -0.15990339
000130 e9 93 bf 3d 97 f7 80 bd 62 85 3b be fb fa 03 be
       0.093543835 -0.06297224 -0.183126 -0.1288871
000140 41 13 fc 3d 04 fa 52 be 1b 29 cc bd b8 94 fb bd
       0.1230836 -0.20603186 -0.09968778 -0.12284225
000150 cb fd 41 be 56 54 a4 bc 09 75 0f be 9b 91 2b bd
       -0.1894447 -0.020059746 -0.14009489 -0.041886907
000160 fd 8b 14 be 7b 14 81 be 41 0f b4 3c 06 34 52 bd
       -0.14506526 -0.25210938 0.02197993 -0.051319145
000170 9b 9f a8 3d 95 6d 75 3e dc 08 90 3d ea f7 f5 3d
       0.08233567 0.23967583 0.0703294 0.120101765
000180 e1 be 6a bd a3 50 18 bd d9 38 74 3d 5f 78 13 bd
       -0.057310943 -0.037186276 0.059624527 -0.036003467
000190 c9 9c 00 3e 20 73 c9 bc 8c 9c 03 3e c4 33 09 bb
       0.12559809 -0.024591029 0.12852687 -0.0020935396
0001a0 14 7b fd 3d c5 ae 01 3e 01 1c 15 3e 7c 7a 87 3d
       0.12376991 0.12664326 0.14561464 0.06615159
0001b0 5c 5f ff 3c 1d 54 fa 3d 23 6e f6 bd c8 13 a5 bd
       0.0311734 0.122230746 -0.12032726 -0.080604136
0001c0 b7 1d e9 bc eb 7d c1 bc 91 bd 2b bd 3a 8a 43 bd
       -0.028456552 -0.023619613 -0.04192883 -0.047739245
0001d0 25 d8 cf bd 89 09 dd bd 00 30 8c bd b8 6d 51 be
       -0.10148648 -0.10792834 -0.06845093 -0.2045201
0001e0 eb 78 92 bb 6a e6 5b be bc 57 de bd 6b fd 18 3a
       -0.004469981 -0.21474615 -0.10856578 0.0005836102
0001f0 33 08 2f bd d6 dd f2 3d f0 ea d6 bd 21 c7 4b be
       -0.04273243 0.11858718 -0.104940295 -0.1990018
000200 a7 fe 38 be 3c e1 8d 3d 36 3a 62 3d 35 9d 1f bd
       -0.18065892 0.06927726 0.055231296 -0.038968284
000210 79 f4 1a 3e aa 91 31 3d 28 7b 73 3d 90 80 3d 3c
       0.15132321 0.043351807 0.059443623 0.011566296
000220 98 fe 2a be 6c 6b ab 3a e4 ec 78 3d de 3f de bc
       -0.16698682 0.0013078279 0.06077279 -0.027130064
000230 1f 2b 5b 3b 38 ea 0e be 2b f8 07 be 5b 20 c2 bb
       0.003344245 -0.13956535 -0.13278262 -0.005924267
000240 ec bf 70 bd c3 30 03 3e ca 65 13 bd 88 26 f7 bd
       -0.05877678 0.1281157 -0.035985745 -0.12067896
000250 71 64 8c bc 79 bf 3f be ad a9 42 3d 12 f7 a0 bd
       -0.017137738 -0.18725385 0.047525097 -0.07859625
000260 87 51 82 3c a3 56 33 3d 4f 6a 43 bc ee ad 1d 3d
       0.015908016 0.043783795 -0.011927201 0.03849595
000270 97 9e 0d be 97 07 4f bd 31 f4 f0 bd de 04 ad bd
       -0.13830028 -0.050544348 -0.11765326 -0.08448194
000280 4a 9d 23 be 6c c9 35 3d a3 5c 0d bd 1b e9 36 be
       -0.1597797 0.044381544 -0.034512173 -0.1786236
000290 d8 c6 ed 3d c4 4f a3 3d 3e 9c 3f bc ed 74 b5 3c
       0.11610192 0.079741985 -0.011694966 0.022150481
0002a0 79 37 be 3c 1a 95 0e 3e 06 3a 9a bd 9b f9 b4 3d
       0.02321981 0.13924065 -0.07530598 0.08836671
0002b0 04 42 1d 3e 83 86 21 bd 2b 9e bf 3d a2 8c 6c 3d
       0.15357214 -0.03943492 0.0935634 0.057751305
0002c0 40 33 4e bd c2 f0 a3 3d 16 74 5e 3d d8 67 55 3e
       -0.050341845 0.08004905 0.054309927 0.20840394
0002d0 3a 14 44 3e 52 0e 1d 3e 81 a3 be 3d 16 15 74 bd
       0.19148341 0.15337494 0.0930853 -0.05959042
0002e0 ce c7 41 bd 18 35 2c 3e 07 5e 35 bd 5d 49 d4 3d
       -0.04730969 0.16817129 -0.044279125 0.103655554
0002f0 ae f8 58 3e 05 c0 a8 3d 67 9d d9 3c 5b 99 90 3d
       0.21188614 0.0823975 0.026564313 0.070605
000300 4e b1 3d 3d 7e 57 46 3e 6b 70 de 3c 52 db 21 be
       0.04631167 0.19369313 0.027153214 -0.1580632
000310 38 66 57 be c9 29 ad bd c8 39 38 be 67 50 c6 3d
       -0.21035087 -0.084552355 -0.17990792 0.09683304
000320 1c b5 2d be c1 72 5f be 4b bb d6 bd d1 b2 f4 bc
       -0.16963619 -0.21821119 -0.10484942 -0.029870423
000330 63 b8 67 be 68 28 02 bd 32 1e 85 3d a0 1f 36 3d
       -0.22628932 -0.031776816 0.064999 0.044463754
000340 62 e1 d3 be a3 97 48 be 61 3d 89 bd 3f 09 eb 3c
       -0.4138289 -0.19589095 -0.0670116 0.028690932
000350 8d 7d 61 3d cb 86 0e 3d 90 fd 9c 3c 0b bc 8e 3d
       0.055051375 0.034796517 0.019163877 0.0696946
000360 a7 02 d5 3d 86 44 a8 3d 1c 6f a5 bc 79 50 cc 3d
       0.104008965 0.08216195 -0.020194583 0.099762864
000370 91 ba 0a 3e 33 17 77 3d b6 34 15 3b a3 4d 35 3e
       0.13547732 0.06032486 0.0022767014 0.17705397
000380 27 43 2a 3e d4 a7 69 bd 9b c5 a6 3e fa db 50 3e
       0.16627179 -0.05704482 0.32572636 0.20396414
000390 96 04 49 be b0 f6 50 be 10 d5 65 bd dd 2d 5a be
       -0.19630656 -0.20406604 -0.056111395 -0.21306558
0003a0 9d 4a a9 3c ba c2 09 bc e6 1f 0d bd 75 fc 67 be
       0.020665461 -0.008408243 -0.03445425 -0.22654898
0003b0 0d aa d6 bd 0a 37 9c be 18 de a6 be 48 ce 92 bd
       -0.10481653 -0.3051074 -0.3259132 -0.07168251
0003c0 c4 c7 fc bd 1a 32 31 bc e2 2e 29 bd 97 0e e6 bc
       -0.1234279 -0.010815168 -0.041304477 -0.028083129
0003d0 66 2e 79 be ff 04 8b bc 4d 7d b4 bc 16 80 19 be
       -0.24334106 -0.016970156 -0.022032404 -0.14990267
0003e0 4d b1 6e bc 22 f1 86 be 2b 7b 00 be d9 96 73 bd
       -0.014568639 -0.26355845 -0.12546985 -0.05947003
0003f0 ed ad 07 3d 61 09 a0 bd 69 29 89 3d f8 cd 9e 3c
       0.033124853 -0.07814289 0.066973515 0.019385323

network_body._body_endoder.seq_layers.0.bias f4 [128]
000000 f2 c1 10 bc 4d 55 d0 3b e5 c7 b2 bd e2 aa c0 bc
       -0.008835303 0.006357825 -0.08729533 -0.023518983
000010 f8 0d e1 3c 30 bc b3 39 f9 99 3f 3d 00 2d 89 3d
       0.027472481 0.0003428175 0.0467777 0.06698036
000020 7c 4f 8c 3d 27 9f 25 bb 31 55 0b 3d c7 33 70 3d
       0.06851098 -0.0025271864 0.03401679 0.05864313
000030 2c c3 83 ba 8a 19 99 bb 56 1c 09 bd 37 34 8c 39
       -0.0010052673 -0.004672234 -0.03347429 0.00026741784
000040 16 b9 0d 3d 00 31 ca bc 1f 5c bb bc 02 04 93 ba
       0.03460034 -0.024681568 -0.022871075 -0.0011216404
000050 a4 8f de 3d 64 1a 51 3d a9 ef 94 3d cd 40 bf 3d
       0.10867241 0.05105056 0.07272274 0.09338532
000060 91 b6 b5 bd ff 39 f8 3c db 53 fa 3b 9e 09 3b bd
       -0.088727124 0.030301092 0.007639391 -0.04566347
000070 ae ec 80 3d 13 06 5a 3d 74 41 23 bd 39 8f 1b 3d
       0.06295143 0.05322845 -0.039857343 0.037978385
000080 44 15 75 bd 03 84 8a bd 2a ab 1f 3d 86 6b 33 bc
       -0.059834734 -0.067634605 0.038981594 -0.010950929
000090 d8 4a 6c 3b c3 d1 87 bd cf 65 28 bc 9a f3 b2 3b
       0.0036055353 -0.06631806 -0.010278179 0.0054611685
0000a0 69 e9 15 bc 7c 59 31 3c 73 fb d4 3d 42 da 61 3d
       -0.009149888 0.010824557 0.10399523 0.055139787
0000b0 fa 9c 10 3d 13 87 9c 3b ac 99 89 3c 7d 48 42 3d
       0.035305955 0.0047768443 0.01679691 0.04743241
0000c0 5f 01 ba bc 9d eb 7a bd 07 85 80 3c ff db 89 3c
       -0.022705732 -0.061259855 0.015688432 0.016828535
0000d0 22 96 cc bb 91 13 76 bb be ce 99 bc d1 4b 98 bd
       -0.006243483 -0.0037548284 -0.01877534 -0.07436336
0000e0 b0 d3 84 3d 78 11 23 bc e5 57 a3 3c 99 43 11 3d
       0.06485689 -0.009952895 0.019939372 0.035464857
0000f0 29 3b ac 3d 46 b5 58 3d 0a 1c 85 bb 79 4d 23 3b
       0.084097214 0.05290725 -0.0040621804 0.0024918003
000100 49 2a 57 bc 98 c5 4a bb 75 f7 bf 3c bf 51 c7 bd
       -0.01313264 -0.003094053 0.023433426 -0.09732389
000110 7b 3d ad bc 78 28 38 bd 63 d4 ac 3c 42 23 7a 3c
       -0.02114748 -0.04496047 0.021097368 0.015267195
000120 bb 8f 25 3a 27 8c 89 bc f4 fb 6d 3d ce ef 58 3d
       0.0006315668 -0.016790463 0.05810161 0.05296307
000130 34 a1 e8 3b b9 6b 17 bd 4a 39 69 3d 80 73 27 3c
       0.007099295 -0.036967967 0.0569394 0.010220408
000140 df b2 a0 3d 5e d5 02 3d 04 f3 75 3d 55 0f ff 3c
       0.07846617 0.031941764 0.06004621 0.03113524
000150 5d 5c dc 3c c0 e1 ae ba 0e 3c 57 3d 64 c1 22 3b
       0.026899511 -0.0013342425 0.052547507 0.0024834508
000160 42 f3 6e bd 04 ec d9 3d 86 61 3a 3d 9c 52 0f 3b
       -0.058337457 0.106407195 0.04550316 0.0021869307
000170 22 41 d0 bd 83 14 b9 3c c0 6a cd 3c 63 f8 c9 bc
       -0.10168673 0.022592789 0.025075316 -0.024654573
000180 3f 7b 73 3d f6 3b 02 3d 0a c8 7a 3d 51 13 c5 3b
       0.05944371 0.031795464 0.06122593 0.0060142656
000190 af ec 80 3d 67 66 9d 3d d9 a5 bb 3c 08 e1 c9 bd
       0.06295144 0.07685547 0.02290623 -0.098573744
0001a0 d4 13 2e 3c ae ce 01 3d 29 ba 62 bd d6 57 0c 3d
       0.010624845 0.031691246 -0.055353317 0.034263454
0001b0 0f 78 bd bd b8 9e 80 3d 30 af f9 bc 10 a3 5f 3c
       -0.09251415 0.06280273 -0.030479044 0.013649717
0001c0 e4 a7 0d bd d5 59 4f 3d 4b 88 c5 3d c9 b2 b5 bb
       -0.03458394 0.05062278 0.096451364 -0.0055449945
0001d0 cd bb 34 3d 03 68 45 bc fa 52 6b 3c 9e b5 86 bd
       0.044124413 -0.012048724 0.014363045 -0.065776095
0001e0 21 51 d6 3c 64 9f e6 39 ab 72 4c bd 71 c9 cb 3d
       0.026161732 0.00043987774 -0.049914043 0.09950531
0001f0 4b 2f af bc de cb a9 bd 53 0a 22 3d 78 7d e1 bb
       -0.021384856 -0.08290838 0.039560627 -0.006881412

network_body._body_endoder.seq_layers.2.weight f4 [128, 128]
000000 4d 5a d1 bd 87 d9 1e 3d 22 68 50 3d a4 d1 1a be
       -0.10222302 0.03878167 0.05088056 -0.15119034
000010 96 a2 0d 3c 56 8a 6c bd 34 a4 d5 3d 6d 33 8c bd
       0.008644721 -0.057749115 0.1043171 -0.06845746
000020 86 42 68 bd 59 de 8b 3c 09 51 31 be 1e 43 93 3d
       -0.056704067 0.017073797 -0.17316069 0.07190536
000030 52 38 82 3c b9 27 d2 3d 36 86 3f 3d c0 85 b8 bc
       0.015895996 0.10261483 0.046758853 -0.022524714
000040 a8 00 ff 3d 8a 9f 3e bd 80 ad e1 bd da c1 e7 bd
       0.12451297 -0.046538867 -0.110194206 -0.11316271
000050 cf 80 a5 3d 2f cb 52 3e 83 8a 87 bd a1 06 a3 bd
       0.08081209 0.20585321 -0.06618216 -0.07960249
000060 7b e9 c3 bd be b9 df bd 13 f4 05 be c8 9c 33 3d
       -0.09566017 -0.109240994 -0.13081388 0.04385069
000070 d0 f5 88 3b 41 c8 5a be df 01 ac bd 99 15 8a bd
       0.0041796938 -0.21365453 -0.083987944 -0.06742401
000080 f1 62 73 bd 26 8b 1c bd 1a c9 c2 3d 43 2d e4 bc
       -0.05942053 -0.03821864 0.09511013 -0.027853614
000090 f1 6e b0 bd ee 42 2d bc 38 76 17 be fb 43 0c 3c
       -0.086149104 -0.010575039 -0.1479119 0.00856113
0000a0 d7 16 1c be a5 75 cf bc ce ef 13 bd b0 7b 95 bd
       -0.15243088 -0.025324652 -0.036117367 -0.07298982
0000b0 e8 62 38 be b8 e7 a5 bd 5e c9 dc bc 39 39 cb 3d
       -0.1800648 -0.081008375 -0.026951488 0.09923024
0000c0 0b 6f 85 be a2 a8 3e be b1 0e 90 bd a5 ee ae bd
       -0.26061282 -0.18619016 -0.07034052 -0.085416116
0000d0 6d e3 a0 3d 0a cd 85 3c cd 66 a8 3d fb fa 02 be
       0.07855878 0.016333122 0.08222733 -0.12791054
0000e0 28 d2 f2 3b 59 d1 b5 be 60 ce 0c 3e ed cc 12 3d
       0.0074103065 -0.35511282 0.13750601 0.035839964
0000f0 2e 23 6f bd 7a 2a 0e 3d 0b 0e c5 bb 18 2f e0 3d
       -0.05838316 0.034708478 -0.006013637 0.109464824
000100 21 01 45 3e 02 60 dc 3d 2b a9 02 bd 18 53 cc bd
       0.19238712 0.107604995 -0.031899612 -0.099767864
000110 42 f3 5b be b3 93 da bc 0e 91 9e 3d 47 ce 94 bd
       -0.21479514 -0.026681757 0.07742511 -0.07265907
000120 17 d7 8c 3e a8 56 fa bd da f7 02 bd 89 3e 37 be
       0.2750785 -0.122235596 -0.03197465 -0.17894949
000130 eb ee 6a 3d ce 5d 64 3d 74 0a d8 3d 58 5d 21 bd
       0.057356756 0.05575352 0.10548869 -0.03939566
000140 11 07 03 bd 41 9f fe bc e9 f1 83 be bd db 4c bc
       -0.03198916 -0.031081798 -0.257705 -0.012503562
000150 09 f8 2b bd 46 7f 09 3c 94 e6 bb 3c 0d a2 5b be
       -0.04198459 0.008392161 0.022937097 -0.21448536
000160 a0 cd 3a be 4d fc e9 3d 5a 17 1d 3e 50 73 9e bd
       -0.18242502 0.11425076 0.15340939 -0.07736838
000170 d3 d2 64 3d ee 8c 1e be 97 9e 03 be 44 52 d2 bd
       0.05586512 -0.15483448 -0.12853466 -0.10269597
000180 77 08 0f be 46 ba 23 bd e5 86 3f bc fa 5d 33 be
       -0.13968073 -0.039972566 -0.011689876 -0.17516318
000190 a8 ab 98 3d 55 38 22 3e 42 9c 6c bd 14 03 96 3b
       0.07454616 0.15841801 -0.057766207 0.0045780037
0001a0 c0 3a 9a 3d 5a fd 7c 3e c6 36 2a bd 73 0f ed bd
       0.07530737 0.24706021 -0.041556142 -0.11575212
0001b0 74 5e e9 bd 17 81 d7 3d ed 5e bf 3b c3 76 35 be
       -0.11394969 0.10522669 0.0058401735 -0.17721085
0001c0 27 76 ed 3c fe 2d d3 3c fb 45 fb 3d 73 0b 44 be
       0.028987003 0.025778767 0.12269207 -0.19144993
0001d0 42 d9 0e 3e c8 5a f9 3d 38 9e 90 bd 8d 3a 00 3d
       0.13950065 0.12175518 -0.07061428 0.03130584
0001e0 1b f5 16 bd 25 d4 a7 3d 88 70 49 3b 34 f3 e1 3d
       -0.036854845 0.0819476 0.003073724 0.110327154
0001f0 3b 79 72 bc 12 3d f6 3d 55 5b 58 bd de 7d 3f 3d
       -0.014799411 0.12023367 -0.052821476 0.046750896
000200 49 eb 35 bd eb a3 2c bd dd 76 2d bd 91 69 01 3d
       -0.04441384 -0.04214851 -0.042349685 0.031594817
000210 bb d4 be 3d 12 7d ef 3d 65 cc a7 bb 0c dd 51 3d
       0.09317919 0.11693777 -0.0051208013 0.051236197
000220 80 dc 49 be 2d 3c f9 3a fe ab 55 be f5 45 9c ba
       -0.1971302 0.0019015126 -0.20866391 -0.0011922704
000230 07 b8 b2 3d 6a 1d 57 3d 9a 6b de 3b ef 92 1f 3c
       0.08726507 0.052518286 0.0067877294 0.009739622
000240 ad 05 60 3e 00 5a 82 bd 52 5d ea bd 1b 82 bd 3c
       0.21877165 -0.063648224 -0.11443581 0.023133328
000250 62 28 5f bd 5e d1 1c 3d bf c8 32 3e 7c ee 93 3d
       -0.05448187 0.038285606 0.17459391 0.07223222
000260 f4 7e 5b bd 7f 52 83 bd 33 0c 8a bc 42 c5 e3 bd
       -0.05358787 -0.06412219 -0.01685152 -0.11121608
000270 13 16 33 bd fc 17 5b bd ce f9 c3 bb 3a f9 3c bd
       -0.043722223 -0.05348967 -0.005980707 -0.04613612
000280 63 ed c4 bc 57 6d 0c bd 98 ed b1 3d 0c 74 68 bd
       -0.024038976 -0.034283962 0.086878955 -0.056751296
000290 b8 48 8a 3d a7 31 9f be 8f 15 16 be 63 d6 46 be
       0.06752151 -0.3109257 -0.14656661 -0.1941772
0002a0 a1 31 b4 bc a2 c6 c6 3d ea ff 33 be ac 6f 3a 3d
       -0.021996321 0.09705855 -0.17578092 0.045516655
0002b0 18 d3 2e be 62 9f 7b be 60 0b 18 bc 64 90 93 3d
       -0.17072713 -0.24572518 -0.009280056 0.07205275
0002c0 52 28 7c bd 83 7c 5f be 01 01 31 3d d5 35 24 be
       -0.06156189 -0.21824841 0.043213848 -0.1603616
0002d0 08 45 2a 3d 35 8c 6d 3b aa ed 33 3d 0f 63 39 be
       0.04156974 0.00362469 0.043927826 -0.18104194
0002e0 ea 90 14 be 30 d7 85 be aa e9 a5 bc 1a ae d5 3d
       -0.14508405 -0.26140738 -0.020253021 0.10433598
0002f0 3c 1d 54 bd 87 56 83 bc 0b 88 bb 3d 57 93 43 3c
       -0.051785693 -0.01603247 0.091568075 0.011936984
000300 07 51 2b 3e ef a8 ef 3d 17 96 48 3d 3e bb 1c be
       0.16730128 0.117021434 0.04897126 -0.15305802
000310 e8 e7 cd bd 70 39 09 3d bb da 5f 3d 2e ff 38 3e
       -0.10053998 0.033502042 0.054651957 0.18066093
000320 d0 fe 1e 3e 56 01 7e 3d 03 e9 72 3c ea 2b 01 be
       0.15526891 0.062012993 0.014826062 -0.12614408
000330 f3 5a ce 3d 5f 11 96 be ff 0a 43 bd 32 cc b4 3d
       0.10075941 -0.29310128 -0.04761791 0.0882801
000340 c3 50 7c bd 94 8c f9 3d d1 45 fa bd b9 bb 1c bd
       -0.061600458 0.12185016 -0.12220348 -0.038264964
000350 de 48 2e be 7e b0 64 bb e8 8e 46 3d 1e ad 21 be
       -0.17019984 -0.0034895237 0.04847613 -0.15788695
000360 28 fc f1 bd fb 78 11 3e 17 63 d3 bd f0 d7 48 3d
       -0.11815673 0.14206307 -0.10321634 0.04903406
000370 60 b5 83 3b d9 9f f1 bd 17 cf e4 3d d0 0f 91 3d
       0.0040194243 -0.11798067 0.11172312 0.07083094
000380 12 e8 74 3e 85 ae 9b 3d f2 c6 e9 3c 56 76 69 be
       0.23916653 0.07601646 0.028537247 -0.22799048
000390 ba a0 79 3d 2e 0f 69 ba 54 26 57 3d 8b 49 7f bd
       0.060944296 -0.00088905066 0.052526787 -0.062325995
0003a0 67 3a 1d 3e 1d e3 ad 3d f3 fe 8c bc 24 2e e8 bd
       0.1535431 0.08490584 -0.017211413 -0.113369256
0003b0 a9 ef 6c 3d 37 87 45 bc 76 16 ee bb 29 c6 7f be
       0.057845745 -0.0120561635 -0.007265861 -0.24977936
0003c0 6f e9 5e 3c aa d6 2d bd 7f 15 f4 bc 19 82 09 be
       0.01360546 -0.042441048 -0.029795406 -0.13428535
0003d0 23 16 18 3e e2 5a 30 be fb 1a 45 be 47 8e d1 3c
       0.14852194 -0.17222169 -0.19248573 0.025580538
0003e0 d9 6c 58 bd bb bc 57 be 27 5d ff bd 0c 54 16 bd
       -0.05283818 -0.21068089 -0.12468939 -0.036701247
0003f0 57 a0 98 bd d5 f1 04 bd 7b 1e 23 bd 9b 1b 18 3d
       -0.074524574 -0.03245719 -0.03982399 0.0371357

network_body._body_endoder.seq_layers.2.bias f4 [128]
000000 0c 30 b7 3c e0 12 a9 3c d6 f6 d9 3c 76 84 2a 3c
       0.022361778 0.020638883 0.026606958 0.010407558
000010 41 b2 bc 3c 82 7e f9 bb 4b 6e c2 3c e9 0c 11 3d
       0.023034217 -0.007613958 0.023734232 0.035412703
000020 21 53 93 bb 80 29 d5 3c a3 ae 95 3c a9 7d 02 bd
       -0.0044959937 0.026020765 0.01827175 -0.03185812
000030 74 ea 47 3d f0 2b 06 3c e8 28 9a 3c 25 90 ce 3b
       0.048807576 0.008189186 0.018818334 0.0063038045
000040 5f 82 db bc 67 81 c7 3c 5d b5 c9 bc ce e9 cb 3d
       -0.026795564 0.024353696 -0.024622614 0.09956704
000050 06 ae 82 3d 0b 80 b0 bb 9b 06 a4 3c 9b 85 4c 3b
       0.063808486 -0.0053863577 0.020022681 0.0031207565
000060 29 53 38 3d 2d f5 97 bc ea a6 d3 bc 5d 0c 00 3d
       0.045001183 -0.018549526 -0.025836427 0.03126179
000070 e5 c5 db 3c f3 46 8f 3d 69 11 3b 3d 85 6f 18 3d
       0.026827762 0.06995954 0.0456709 0.03721573
000080 29 9d d3 3c 14 ba 28 3d 77 20 fe bc 7b 93 d3 3b
       0.025831776 0.041193083 -0.03102134 0.00645679
000090 a7 3a d4 3c 35 f8 5e 3c 94 e6 83 bc 59 61 41 3d
       0.025906874 0.013608982 -0.01610116 0.04721198
0000a0 83 05 2c 3d 6a 12 81 3d ed f8 94 3c df 28 c0 3c
       0.041997444 0.0630234 0.018185103 0.023456989
0000b0 c9 d6 f7 3b 6b a8 94 3c c7 7b f7 3c 0a 36 16 3d
       0.007563446 0.018146714 0.030210389 0.03667263
0000c0 53 ac d9 3b 64 ed d5 3c fa da 2f 3d 6d 73 4e 3d
       0.006642857 0.026114173 0.04293344 0.050403047
0000d0 92 a4 17 3d ca 8b 81 3d b8 93 9e bc 7a 07 82 3d
       0.03702218 0.06325491 -0.019357547 0.06349082
0000e0 75 3f de 3c aa fa 8e 3c 77 ed 46 bc f0 2f 30 3d
       0.027129868 0.01745351 -0.012141577 0.043014467
0000f0 0d 69 9e 3c 55 88 68 3d 16 6d 00 3d df f5 54 3d
       0.019337201 0.05677064 0.031354032 0.051992293
000100 9c 9d c4 3c 1c 09 20 bb 5a dd 99 3d 41 29 9c 3c
       0.024000935 -0.0024419492 0.075129226 0.01906264
000110 39 0c a4 3c 74 b9 92 3b 04 7b 4d 3d 08 f3 26 3d
       0.02002536 0.004477674 0.050166145 0.040759116
000120 ea 36 89 3c f5 fb 90 bc 41 db 69 bc 82 5b c0 3d
       0.016749818 -0.017698267 -0.014273466 0.09392454
000130 b9 01 b9 bb 20 15 17 3d d7 57 ba 3d 8e 3e 25 bc
       -0.0056459573 0.03688538 0.09098785 -0.010085715
000140 ee 6d bb 3b 19 36 12 3d e2 b8 3a 3d 21 37 40 3d
       0.0057198917 0.035696123 0.045586474 0.046927575
000150 9f e6 a6 3c 26 f3 86 3c ee 94 38 3d de c4 68 3d
       0.02037364 0.016473364 0.045063905 0.056828372
000160 bb 57 d9 3c 7d ca 2a 3d 28 8f 0c 3d d2 07 0b bd
       0.026531091 0.041697014 0.034316212 -0.033943005
000170 57 1c 94 3c bf cb 3f 3b 9d 64 e0 bb 15 f3 b6 3b
       0.01807992 0.002926573 -0.0068479315 0.005583177
000180 85 6d 48 3d bb 49 d6 3c f2 bf 12 3d 00 6c c1 3c
       0.04893257 0.026158204 0.035827585 0.023611069
000190 53 52 5b 3b 8c 7d 1a 3d f4 33 68 bd fe 5c 3b 3d
       0.0033465817 0.037717387 -0.05669017 0.04574298
0001a0 2f c6 92 ba 3f 61 08 3d 85 23 b2 bd 10 c8 59 3d
       -0.0011197979 0.033295866 -0.08698181 0.05316931
0001b0 e7 d7 52 3d 17 58 b4 3c d2 bf 0a bc bc a8 8e bd
       0.05147543 0.02201466 -0.008468585 -0.06965777
0001c0 48 94 39 3d 7a 72 ae 3c cd 0c 56 bc eb 8d 01 3c
       0.045307428 0.021294821 -0.013064575 0.007907371
0001d0 8d 61 ca 3c 66 93 55 3c 44 b7 47 3d f9 9b bc 3c
       0.024704719 0.013035631 0.04875876 0.023023592
0001e0 66 d4 72 3c 66 07 de bb 45 ab 40 bc d2 8b 63 3c
       0.014821148 -0.0067757843 -0.011759584 0.013888316
0001f0 34 1f a2 3c 17 5e 96 bd 57 4e 46 3d 63 2e 22 bc
       0.01979027 -0.07342165 0.048414554 -0.009898755

action_model._continuous_distribution.log_sigma f4 [1, 2]
000000 a1 32 b7 bf 16 e3 a8 bf
       -1.4312326 -1.3194301

action_model._continuous_distribution.mu.weight f4 [2, 128]
000000 35 23 30 3d d1 63 3a 3d ea 76 ac 3c 6c 83 03 3e
       0.043002326 0.04550535 0.021052796 0.12843102
000010 dd d7 a5 bb 1f b2 99 3d 0c 79 9a bc 30 5b 50 bb
       -0.0050611333 0.07504677 -0.018856548 -0.0031792633
000020 8a 0f 95 3d 77 fc 52 3c 26 23 c8 ba 71 e9 0d bd
       0.072783545 0.012877575 -0.0015269264 -0.034646455
000030 d3 a9 33 bd 02 19 40 3d 5b 63 ee 3c 0c 8e d0 38
       -0.04386313 0.04689885 0.02910011 9.944671e-05
000040 1f 02 07 3d 90 b6 84 bc ba a8 e9 3b b1 f2 0e bd
       0.032961007 -0.016200334 0.0071307095 -0.034899417
000050 51 cc 14 3d 16 09 1a bc c2 48 b7 3d 3d ad 30 3c
       0.036327664 -0.00940158 0.08949424 0.010783491
000060 db 88 38 3e c0 a2 59 bd f5 e9 57 bd 4e da e6 3d
       0.18020956 -0.053133726 -0.052713353 0.11272107
000070 b6 f5 a0 3d 0e 60 90 3a e5 a6 6f bc 50 41 49 b9
       0.07859366 0.0011014955 -0.014627193 -0.00019193185
000080 b4 97 7b 3c cb b5 99 3c 36 8e 8b bd d6 28 8a 3b
       0.015355993 0.018763443 -0.06814234 0.004216294
000090 a0 ad 31 3b 6d 4b e0 3c 17 db 21 3c 98 e6 81 bd
       0.0027111545 0.027379716 0.009878895 -0.063428104
0000a0 d0 2f 59 3b 84 e0 08 3d d7 1c 84 bd 64 86 06 3d
       0.003314007 0.03341724 -0.06450813 0.03284301
0000b0 f8 2a 89 3c 25 0b 1e bc 7f bc 0b 3c db 6c a9 3d
       0.016744122 -0.009646212 0.008528828 0.08272716
0000c0 0a 56 bf 3d 7a ce 85 3c 67 d7 29 3d 27 70 1b 3d
       0.093425825 0.016333807 0.04146519 0.037948754
0000d0 67 f3 d4 3d cf e4 90 3d c2 66 08 be 06 72 fc bc
       0.10397988 0.07074892 -0.13320449 -0.03081609
0000e0 43 ec 9a 3c d1 be 97 bc 67 ca f8 3c 41 b6 9d 3d
       0.018911486 -0.018523606 0.03036995 0.07700778
0000f0 75 21 2d 3a b1 9c fd 3c 9d a8 8a ba 64 59 21 3d
       0.0006604412 0.030958505 -0.0010578815 0.03939189
000100 83 f6 89 3b 48 dd e8 3d c3 33 4b bd 24 de bd bb
       0.0042102947 0.11370331 -0.04960991 -0.0057943035
000110 b2 9e 92 3c 6b c3 3c 3c 26 35 f1 ba 0f 85 9e bd
       0.017897937 0.011521201 -0.001840268 -0.07740223
000120 b0 66 ae b9 c9 23 c6 bd 8a ca 8f 3d 8c 2a 59 bd
       -0.00033264374 -0.09674794 0.07021053 -0.05301909
000130 b9 df 77 bb 4c 8b f5 ba fb da c7 bc 7f 6a 81 bd
       -0.0037822558 -0.001873353 -0.02439641 -0.06319141
000140 67 9f b4 bd c8 d8 8c bc 1b 1f a8 3c d7 a4 03 3d
       -0.08819466 -0.017193213 0.020522645 0.032139625
000150 f6 dc 11 3e 2f 84 64 3d 67 d0 15 3d 13 20 59 3c
       0.14244446 0.055790123 0.0365757 0.013252276
000160 73 aa 27 3c e9 50 1b bd e6 1d 53 bd bc e5 2d 3c
       0.010233509 -0.03791896 -0.051542185 0.010613855
000170 d6 65 09 3d a6 a6 a8 bd eb 95 24 3c 8e 29 90 ba
       0.033544384 -0.08234911 0.010045509 -0.0010998712
000180 5b 86 64 3d 6d ad d9 bd 29 3e f7 bd c2 68 c5 3a
       0.055792194 -0.106287815 -0.12072403 0.0015061127
000190 af d6 0d 3e 3b 23 97 bb d2 7e 35 3d 86 66 0d 3d
       0.13851427 -0.004612354 0.0443104 0.034521602
0001a0 45 15 b8 3d 33 3e 49 3d 63 5c 15 bb 4a 0a 5c 3c
       0.08988432 0.049131583 -0.0022790662 0.0134301875
0001b0 52 06 9a bc b8 6f bd 3d bf 5d 71 3c 45 13 3e bd
       -0.018801842 0.09249824 0.0147318235 -0.046405096
0001c0 c4 23 f6 3b 51 71 b4 3d 88 a1 4b 3d 85 c9 ab 3c
       0.007511588 0.08810676 0.049714595 0.020970115
0001d0 58 54 ac bb d0 da 1c bd b7 21 0f 3c f4 56 67 ba
       -0.005259078 -0.038294613 0.008736066 -0.00088249077
0001e0 d1 62 8c 3d 70 5b 14 38 c5 d5 ac 3c d3 a2 92 3d
       0.06854785 3.5371108e-05 0.021098027 0.071599625
0001f0 50 ea 21 3d db ee a9 bb 34 92 fa 3c df 4f 76 3c
       0.0395301 -0.0051859445 0.030587293 0.015033691
000200 8e 0c 62 bd 5f 01 b2 bc c3 93 07 be f0 86 66 bd
       -0.055187754 -0.02172917 -0.1323996 -0.05628103
000210 6f 5a bf 3a e6 13 a6 bc e3 11 00 3d b2 1c 09 3d
       0.0014599095 -0.02027316 0.031267058 0.03347463
000220 e0 27 f3 bc 0d c0 1d be f2 74 f4 3c 99 f2 19 bc
       -0.0296821 -0.15405293 0.02984092 -0.009396219
000230 5a 23 4f 3d e6 ef de ba 2e 56 c8 3c 88 e2 83 3b
       0.050570823 -0.0017008751 0.024455156 0.0040248074
000240 e7 da ee bb 0a f9 1e be ed a9 77 3b d3 80 0d be
       -0.007289279 -0.15524688 0.0037790493 -0.13818674
000250 3e fd a6 3d 5a a0 e6 3c 6a 30 2c 3d af 2c 0b 3c
       0.08153771 0.028152633 0.04203836 0.00849454
000260 2c 71 2b be 6a e9 49 bd 51 85 d2 3c 29 95 1b be
       -0.1674239 -0.049294867 0.025698336 -0.15193619
000270 11 74 1c be ad 4b 07 3e eb 51 78 ba cf 16 0e 3d
       -0.15278651 0.13212462 -0.0009472656 0.03468972
000280 74 6a 21 3d 5d b1 5d 3d b8 7a 09 bc 2d ce d8 bd
       0.039408162 0.054124225 -0.008391075 -0.105862
000290 82 1f 11 3d 7f e7 a1 3d 23 df d5 bd cb 64 40 3c
       0.03543044 0.079054825 -0.104429506 0.011742781
0002a0 d0 97 48 3d 28 5f 9f 3d 65 de 29 be 46 70 14 be
       0.048972905 0.077818215 -0.16588743 -0.14495954
0002b0 3e 56 50 bd dc 62 da bd 78 57 19 be f6 99 3c bd
       -0.050863497 -0.10663387 -0.14974773 -0.046045266
0002c0 c2 28 04 3d 70 b5 3e 3d a3 b3 fb bd 59 f0 7f 3d
       0.032265432 0.04655975 -0.12290122 0.062485073
0002d0 d9 a0 84 bc 10 37 4f 3d af c6 58 bd b7 4e c8 3d
       -0.01618998 0.05058962 -0.052923854 0.09780639
0002e0 c7 0d 85 3d 41 7e 8f 3c c7 da 64 3c b8 33 10 3d
       0.064967684 0.017516257 0.013968176 0.035205573
0002f0 84 f9 ae bd de 67 28 3d 2e 65 ef bd a8 d8 44 3d
       -0.08543685 0.04111468 -0.1168922 0.048058182
000300 b2 41 37 3d 2f 2e 91 bc 0d 22 87 3d 2a a4 f3 bd
       0.044740386 -0.017722217 0.065982915 -0.11896546
000310 12 be 01 3d 81 f5 50 3c 1d 27 58 3d a7 a0 00 be
       0.031675406 0.012753845 0.052771676 -0.12561284
000320 20 ff d1 3c 89 a9 2c bc 75 b2 ba bd 6e 0a 40 be
       0.025634348 -0.010538467 -0.09116069 -0.18753979
000330 d0 84 ab 3c ac f6 2a 3d fe 76 2d be 84 65 d3 bd
       0.020937353 0.04173915 -0.16939923 -0.10322097
000340 93 88 fb 3c 15 2c 01 be 2c c8 6e 3d 5d 25 e9 bd
       0.030704772 -0.12614472 0.058296368 -0.113840796
000350 b7 39 27 3d 5d 69 be 3c a7 98 72 3d b8 b5 81 3d
       0.040826526 0.0232436 0.059227612 0.06333488
000360 ee 74 25 be 3c 1c 51 3d ba 1b e7 3c 44 83 29 3d
       -0.16157886 0.051052317 0.028211463 0.04138495
000370 0d b4 a0 3b ff c2 3b bd 63 b0 e3 3c 1e 4c 55 3b
       0.004904276 -0.04584026 0.027794069 0.003254659
000380 42 55 8d 3d b4 df c6 bc 1b 8f 4f bd 1f 35 09 bd
       0.06901027 -0.024276592 -0.050673585 -0.033497926
000390 f1 19 0e 3e cf ee 5f 3d aa a6 83 bb 50 59 34 be
       0.13877083 0.054671105 -0.0040176706 -0.17612195
0003a0 f9 dc 29 bd af 92 f4 3c 08 1f dc 3b 94 d3 68 3d
       -0.0414705 0.0298551 0.0067175664 0.0568424
0003b0 9e 1d 87 3d 52 63 87 bb 55 e5 0f bc cf 36 85 3c
       0.06597446 -0.004131713 -0.008782704 0.016261486
0003c0 ee 7a 7b 3d 2c f3 42 3c 76 41 a1 bb f6 a0 47 3d
       0.06139653 0.011898797 -0.0049211336 0.04873749
0003d0 fb 42 22 3d 90 08 8c bd 59 bd 4e 3d ad 7d 09 be
       0.03961466 -0.06837571 0.050473545 -0.13426848
0003e0 17 a5 23 3d a4 28 08 3b 48 7f bc bc ec bc 1f be
       0.039952364 0.0020776177 -0.023009911 -0.15599412
0003f0 02 a9 a8 bc a2 07 e2 bb 80 d5 9d 3d 51 5d b0 bd
       -0.020588402 -0.0068978826 0.077067375 -0.08611549

action_model._continuous_distribution.mu.bias f4 [2]
000000 ea f3 ae bc 8c 62 28 3d
       -0.021356542 0.041109607

exp_avg f4 [128, 90]
000000 89 c1 23 39 12 a8 2b 39 9d 98 58 39 e6 20 37 39
       0.00015616989 0.00016370442 0.00020656218 0.00017464496
000010 d1 c9 8f b9 2a 8b fa b9 0d a6 7c b9 9f b2 a4 39
       -0.0002742545 -0.000477874 -0.00024094452 0.000314136
000020 cb be de 39 75 22 de b8 48 ef 41 38 a9 e5 c5 38
       0.00042485291 -0.00010592203 4.6237634e-05 9.4364696e-05
000030 ab cd 76 38 0f 15 a0 34 f1 3c a1 b7 bf ed 9e b7
       5.8842514e-05 2.9817645e-07 -1.9221074e-05 -1.8945777e-05
000040 86 c9 5e b6 c2 69 41 38 de df ad 37 1d 28 b3 38
       -3.319788e-06 4.611328e-05 2.0727453e-05 8.542857e-05
000050 a1 a6 87 38 2d 53 28 38 66 47 e3 38 35 1d 02 39
       6.468339e-05 4.0131785e-05 0.000108375025 0.00012408647
000060 14 5b 0b 39 f7 45 0a 39 c6 ec 35 39 0f d4 4b 39
       0.00013290002 0.0001318677 0.0001734971 0.00019438587
000070 11 ce 59 39 61 39 bb 38 29 b3 87 39 bf 3b 22 39
       0.00020771498 8.9275425e-05 0.0002588269 0.00015471781
000080 ab cc 9f 39 09 1e 8e 39 39 ca 94 39 88 c1 94 39
       0.00030479333 0.00027106729 0.00028379427 0.00028372952
000090 78 a1 59 39 cf 44 43 39 ea f0 86 39 c9 de 89 39
       0.00020754884 0.00018622282 0.00025737967 0.00026296664
0000a0 24 0d a1 39 f7 0d ae 39 cd 58 04 3a 6f 3a 45 3a
       0.00030718104 0.0003319827 0.0005048633 0.0007523661
0000b0 2c a6 71 3a 06 b3 6f 3a 16 88 40 3a a9 1f 1a b8
       0.0009218182 0.0009143803 0.0007344497 -3.6745947e-05
0000c0 8f a1 c1 b7 8e 73 3b b7 44 33 f3 b6 b9 d4 b3 b6
       -2.3082624e-05 -1.1172973e-05 -7.2479324e-06 -5.35938e-06
0000d0 fd 62 87 b6 b2 36 1c b7 0b 0e 24 b7 dd e5 24 b7
       -4.0348373e-06 -9.311059e-06 -9.778431e-06 -9.828681e-06
0000e0 cf 0c 26 b7 83 b4 27 b7 f4 40 3d b7 87 8d 5c b7
       -9.897353e-06 -9.996004e-06 -1.1280401e-05 -1.3145974e-05
0000f0 87 8d 5c b7 e1 1d c3 b7 37 76 ab b7 fc fe 1c b8
       -1.3145974e-05 -2.3259725e-05 -2.0439837e-05 -3.743077e-05
000100 8f a4 66 b8 eb 94 9e b8 a5 63 c4 b8 a6 b1 d3 b8
       -5.498953e-05 -7.561765e-05 -9.3645685e-05 -0.00010094354
000110 a2 33 e1 b8 e2 fb ec b8 64 51 f5 b8 3c 11 fd b8
       -0.000107384534 -0.00011300274 -0.000116976706 -0.0001206719
000120 f4 54 0c b9 4c 9e 1c b9 33 f9 2a b9 49 99 31 b9
       -0.00013383088 -0.0001493629 -0.00016305297 -0.00016937139
000130 e3 3e 36 b9 b3 ab 3a b9 c3 79 40 b9 79 64 4b b9
       -0.000173803 -0.00017802305 -0.00018355907 -0.00019397018
000140 66 e0 58 b9 ff 56 69 b9 1d 9f 89 b9 c7 2f de b9
       -0.0002068296 -0.0002225302 -0.00026249225 -0.00042378737
000150 7c 9c 6e 3a 66 00 71 3a 2b a5 71 3a 4c 90 71 3a
       0.00091022975 0.000919348 0.00092180324 0.00092149223
000160 48 a3 70 3a c0 fd 6f 3a e2 9b 99 b8 de 5e 4e 38
       0.0009179604 0.0009154938 -7.324644e-05 4.920258e-05
000170 ac b2 c4 38 de 0a 99 b9 e7 cc 51 39 a3 bc 32 39
       9.3792885e-05 -0.0002919053 0.00020008125 0.00017045675
000180 9a 38 94 39 28 70 4c 39 c9 16 3e 36 e3 2f ed b8
       0.0002827093 0.00019496738 2.832547e-06 -0.0001130996
000190 eb 02 d2 38 51 6a 43 39 74 1c 95 39 ee 30 29 39
       0.00010014124 0.00018636255 0.00028440694 0.00016135324
0001a0 9a 7d c6 38 42 bc 16 36 37 75 06 b8 d8 42 0d b9
       9.464771e-05 2.2461322e-06 -3.2057254e-05 -0.00013471709
0001b0 dd 37 4c 38 8e 4a b3 37 45 d8 1d 39 92 dc c6 39
       4.8689417e-05 2.137318e-05 0.00015053253 0.0003792984
0001c0 d7 03 94 39 4f e6 55 39 3b d1 32 39 50 b7 08 39
       0.0002823162 0.0002039906 0.00017053347 0.0001303826
0001d0 8f 2f c1 38 63 9f 84 38 c0 63 0c 38 bf 42 40 b8
       9.2118156e-05 6.3239386e-05 3.34715e-05 -4.583853e-05
0001e0 39 b9 5e 38 2e ff d4 b8 5f f1 1d 39 8d 64 85 39
       5.3101427e-05 -0.00010156479 0.00015062605 0.00025442653
0001f0 2a 6a 8c 39 f3 f9 92 39 3a 8e 93 39 ed 14 6e 39
       0.0002678198 0.00028033517 0.00028143992 0.00022705244
000200 c3 0a 64 39 e5 8f 6b 39 a9 68 3d 39 17 e5 71 39
       0.00021747783 0.00022464951 0.00018063434 0.00023068894
000210 0a 10 97 39 fa b7 81 39 b6 4d 5d 39 43 cc e9 39
       0.00028812914 0.0002474187 0.00021105152 0.0004459341
000220 e7 6b f6 39 6e 32 ef b6 04 41 96 b6 62 75 11 b6
       0.0004700117 -7.128626e-06 -4.477917e-06 -2.167501e-06
000230 20 b8 bc b5 93 8b 8b b5 7b 1d 52 b5 13 70 f2 b5
       -1.4060679e-06 -1.0396928e-06 -7.8273996e-07 -1.8063023e-06
000240 61 9b fe b5 78 ea ff b5 fc d9 00 b6 c8 22 02 b6
       -1.8969696e-06 -1.906722e-06 -1.920037e-06 -1.9391755e-06
000250 6d db 12 b6 18 25 2b b6 18 25 2b b6 30 68 97 b6
       -2.1883418e-06 -2.5502577e-06 -2.5502577e-06 -4.5122797e-06
000260 16 0d 85 b6 61 a7 f3 b6 b6 f9 32 b7 47 1d 76 b7
       -3.9652323e-06 -7.26145e-06 -1.0667767e-05 -1.4669559e-05
000270 23 65 98 b7 78 45 a4 b7 e9 c0 ae b7 55 e5 b7 b7
       -1.8166907e-05 -1.9582672e-05 -2.0832247e-05 -2.1922091e-05
000280 02 5d be b7 6c 60 c4 b7 7d ca d9 b7 3b 11 f3 b7
       -2.2693075e-05 -2.340992e-05 -2.5962707e-05 -2.8975881e-05
000290 3a ac 04 b8 77 d0 09 b8 97 6b 0d b8 97 da 10 b8
       -3.163165e-05 -3.2857493e-05 -3.371722e-05 -3.4535853e-05
0002a0 c4 5b 15 b8 7d d4 1d b8 18 4b 28 b8 83 f1 34 b8
       -3.560983e-05 -3.7629612e-05 -4.0124258e-05 -4.314027e-05
0002b0 7a 73 cd b8 00 bd ef b8 15 7c 06 3a e0 be 02 3a
       -9.796671e-05 -0.00011431612 0.0005130184 0.0004987549
0002c0 4b 0b e8 39 32 36 ea 39 d6 bc f7 39 cc 60 04 3a
       0.00044258902 0.00044672337 0.00047252205 0.0005049824
0002d0 b2 84 04 3a 8c 63 d8 39 38 08 08 3a af b6 1c 3a
       0.00050551735 0.000412729 0.0005189213 0.000597815
0002e0 63 f5 e8 39 e0 b0 c7 39 3d 7b dd 39 f3 33 07 3a
       0.00044433316 0.0003808802 0.00042244224 0.00051575823
0002f0 c6 ae 03 3a 45 30 b3 39 93 32 8c 39 9d c3 5b 39
       0.00050232967 0.00034177504 0.00026740562 0.00020958339
000300 79 e5 0e 39 a5 79 be 38 3f d6 83 39 60 d1 90 39
       0.0001362766 9.082564e-05 0.00025145893 0.00027621817
000310 b5 34 04 39 0d 57 12 39 f8 dc 2b 39 86 6d ac 39
       0.00012608136 0.00013956074 0.00016390148 0.00032887998
000320 41 35 b1 39 59 4b 66 39 8e 71 23 39 b0 cf 57 39
       0.00033799748 0.00021962578 0.00015587194 0.00020581367
000330 6c c7 48 39 61 8c 47 39 81 b8 d6 38 5d e1 9b 38
       0.00019147777 0.00019030414 0.00010238682 7.432953e-05
000340 e8 f1 fc 38 f0 9f 26 ba 7a 3d a5 b9 71 d9 79 ba
       0.00012061355 -0.000635623 -0.00031517056 -0.00095309975
000350 71 0f 03 ba b4 78 ab b9 8f fc af b9 0a fa b7 b9
       -0.00049995544 -0.00032705592 -0.00033566772 -0.00035090774
000360 1e b5 d1 b9 41 3e bc b9 21 be b8 b9 16 10 bf b9
       -0.0003999853 -0.00035904537 -0.00035236872 -0.00036442344
000370 1f e7 a9 b9 77 bd 20 b9 bd a7 a4 b9 3a 0e 47 b9
       -0.0003240639 -0.0001532937 -0.00031405492 -0.00018983419
000380 2b 55 b6 b8 53 16 15 37 c0 4f 4b b9 e9 bd d2 b7
       -8.6943e-05 8.88629e-06 -0.00019389298 -2.5122385e-05
000390 38 61 84 b7 a8 27 00 b7 c6 44 a6 b6 d3 e3 75 b6
       -1.5780897e-05 -7.638628e-06 -4.955192e-06 -3.6640456e-06
0003a0 a0 1e 39 b6 e5 98 d5 b6 97 51 e0 b6 b7 78 e1 b6
       -2.7584974e-06 -6.365694e-06 -6.6852185e-06 -6.7195756e-06
0003b0 fe 0b e3 b6 4f 4f e5 b6 15 63 01 b7 0b c9 16 b7
       -6.7665233e-06 -6.8339646e-06 -7.7120685e-06 -8.987506e-06
0003c0 0b c9 16 b7 39 65 85 b7 48 72 6a b7 32 ab d6 b7
       -8.987506e-06 -1.5901971e-05 -1.3974095e-05 -2.5590507e-05
0003d0 33 af 1d b8 1a d6 58 b8 25 44 86 b8 d1 ba 90 b8
       -3.7594884e-05 -5.169781e-05 -6.402311e-05 -6.901252e-05
0003e0 e9 f6 99 b8 0f 05 a2 b8 b9 b7 a7 b8 fe 03 ad b8
       -7.341599e-05 -7.725704e-05 -7.9974016e-05 -8.2500264e-05
0003f0 ec e1 bf b8 e0 26 d6 b8 bd c7 e9 b8 e2 d6 f2 b8
       -9.149671e-05 -0.00010211556 -0.0001114751 -0.00011579484
