results/parallelRC1/ParkParallelRC/ParkParallelRC-9499998.onnx (onnx, 119662 bytes, 9 tensors)

network_body.observation_encoder.processors.0.normalizer.running_mean f4 [90]
00000000: b32c 623f dad6 473f 592b 313f 4223 193f
00000010: 4877 083f fd86 fb3e e2fb eb3e caec de3e
00000020: 8f58 d23e a60b c43e 8e62 b33e 4446 a73e
00000030: 03f1 9c3e 38c5 923e 45da 8b3e 361a 853e
00000040: a159 753e 7971 5f3e bab3 593e a135 593e
00000050: 2ede 5b3e 0810 5f3e 3766 623e e9db 643e
00000060: e11b 663e c220 683e a6ea 6e3e b94f 753e
00000070: 277b 7b3e ef82 823e 08a9 893e 1819 923e
00000080: a1d8 9b3e ab4d a73e c14f b33e 14bb c13e
00000090: 5a82 d23e 3c28 de3e ee3d e13e 0be3 e43e
000000a0: a49c eb3e e0bb 003f 7417 263f 6b3d 3b3f
000000b0: 27ba 453f db20 493f 7b83 7e3f c1d8 7f3f
000000c0: 95f8 7f3f 7cfe 7f3f 53ff 7f3f 54ff 7f3f
000000d0: 55ff 7f3f 55ff 7f3f 56ff 7f3f 56ff 7f3f
000000e0: 56ff 7f3f 56ff 7f3f 56ff 7f3f 56ff 7f3f
000000f0: 56ff 7f3f f5df 7f3f c6a5 7f3f 3f71 7e3f
00000100: e5bb 7c3f 02f7 793f 52e7 763f 6370 753f
00000110: 5416 743f 31d8 723f c1ee 713f 2e11 713f
00000120: 7ee2 6d3f 15cd 693f b8f9 653f fa2c 643f
00000130: 20f5 623f 58cc 613f e843 603f b633 5d3f
00000140: 774f 593f 9ecb 563f c787 503f 62b6 4e3f
00000150: c702 4e3f 5067 4d3f 93df 4c3f 5e49 4c3f
00000160: 1ba0 4b3f 82b0 4a3f
0.88349456 0.7806221 0.6920677 0.59819424 0.5330701 0.49126425 0.4609061 0.4354003
0.4108319 0.38290137 0.3503613 0.32670796 0.30652627 0.2866609 0.27314964 0.2599656
0.23959972 0.2182063 0.21259966 0.21211864 0.21471474 0.21783459 0.22109304 0.22349514
0.22471572 0.22668746 0.23331699 0.23956193 0.24558698 0.2549052 0.26886773 0.2853477
0.30438712 0.32676443 0.35021785 0.37838042 0.41115075 0.4339007 0.4399256 0.4470447
0.46017945 0.50286674 0.64879537 0.7314059 0.7723717 0.7856576 0.99419373 0.99940115
0.9998868 0.9999769 0.9999897 0.99998975 0.9999898 0.9999898 0.99998987 0.99998987
0.99998987 0.99998987 0.99998987 0.99998987 0.99998987 0.99951106 0.99862325 0.9939155
0.98724204 0.9764253 0.96446717 0.95874614 0.9534657 0.9486113 0.94504935 0.9416684
0.92923725 0.91328555 0.89834166 0.8913113 0.8865528 0.8820243 0.87603617 0.8640703
0.8488688 0.83904445 0.8145718 0.80747044 0.8047299 0.8023577 0.8002865 0.7979945
0.79541177 0.7917558

network_body._body_endoder.seq_layers.0.weight f4 [128, 90]
00000000: c901 2bbd 5a0c 0ebe 4ebf a1bd e7ae 983d
00000010: a8c5 adbd 967a 49be aefa f7bc 86f9 4dbe
00000020: 8a09 613d f15c a43d c2b3 a6bd 0115 edbd
00000030: e078 3dbc 717a 12bb af8e b1bd a1c1 6fbd
00000040: 7da8 87bd 83f0 413e 1da3 4f3d c86d 9d3d
00000050: 8d2f 77bd 6183 1dbe 762f 07be 615b d33d
00000060: 9057 083d 6e8e 8bbd ccfb 8abd 9732 4abd
00000070: 4c5e abbe 6e60 6fbd 6880 ffbd 2977 483c
00000080: b8a6 cbbd 7f7a eb3d 1363 87bc 78d7 2c3d
00000090: bc16 19be 60c0 543d bd82 b13d fb5f 323d
000000a0: 4c36 2dbe db72 0ebe 5250 113d 1a6e d6bc
000000b0: d403 b4be 75be edbb 7299 aabd 822d 143e
000000c0: 27ab 1abe 9294 f0bd b879 f1bd e436 353c
000000d0: ed55 d73d e379 053e 3d63 1dbe 36e2 e6bd
000000e0: a110 12be fd40 6f3e 06fa 4e3d 2de5 263c
000000f0: 643f b9bc 5957 e03c 41cb 8abd 9c97 00ba
00000100: 224c f8bc f305 90bc e07f d53d 8f33 433e
00000110: dea4 e4bd 5f0e d5bc ec65 37be 2624 373e
00000120: 5d6f bbbc 34d3 45be 4424 66be e531 26be
00000130: 75ab ba3d fadf 85bd 26f9 3dbe 826e 06be
00000140: e1f0 f33d e2b2 3ebe 00d0 aebd 6191 f4bd
00000150: a789 43be cdf4 b2bc 3661 11be 7dac 33bd
00000160: ba3c 16be 620f 82be 8e78 0b3d ab18 6bbd
00000170: a9b0 b23d b480 683e 90e4 753d edff e43d
00000180: 2569 81bd 5eae 03bd 86b9 553d de66 41bd
00000190: 0374 e33d d79a 12bd 667e f53d 7d0a 14bc
000001a0: 2d0a f33d 8694 ee3d 3a38 0c3e dc67 5d3d
000001b0: f3a6 cc3c 355f ee3d bebf 01be c81a acbd
000001c0: 9397 d8bc cfc4 9ebc 208a 2bbd 9ab7 5bbd
000001d0: d4fc d5bd 8f26 e0bd 2eb2 78bd 26d2 49be
000001e0: fca5 dbbb 177e 78be d14e dbbd a189 f63b
000001f0: b129 26bd 31e3 013e 5fe7 c3bd ae9b 43be
00000200: dfae 31be 556e 993d 016f 883d e805 c3bc
00000210: c345 283e 2d32 643d bc2d a03d 76d7 f53c
00000220: 645c 15be 2c7b c23c 1b58 783d c094 1abc
00000230: a508 68bc 4f6e 21be 2029 14be 89b6 40bc
00000240: 9306 84bd 37bf fa3d b49e 2abd 935d 01be
00000250: 3088 cfbc a86d 40be 72f2 3f3d 3553 a2bd
00000260: 9c3f 7c3c 5ac6 303d 2292 4dbc 921d 1b3d
00000270: 8c41 0ebe 8f92 51bd b43a f2bd c849 aebd
00000280: f73f 24be 583f 333d 23e7 0fbd 748b 37be
00000290: 0082 ec3d 600b a23d 9cbf 49bc f763 b03c
000002a0: 8c26 b93c 52f3 0d3e d513 9cbd 1f55 b63d
000002b0: 97a0 263e a978 07bd 5ba8 cf3d 0ddb 963d
000002c0: bfac 0ebd bbaa c33d 28b2 8c3d 10de 623e
000002d0: f47c 503e 7220 283e 963f f93d c6d2 0cbd
000002e0: 1958 05bd 945f 3e3e a438 b5bc 7d31 023e
000002f0: bd86 773e f6d0 f43d b930 653d 5bb4 c43d
00000300: 3c09 803d e5c2 573e 278d 3b3d 3842 0bbe
00000310: 3642 45be 6826 5abd aa43 0ebe 8145 013e
00000320: 4295 0ebe 2f13 47be 407e b3bd 7d1d 6cbc
00000330: 30fe 50be 4d53 15bc cf71 b93d a843 943d
00000340: bda3 c5be 4943 3ebe ee35 8abd 81de 99bc
00000350: 2fd3 ff3c 943b 4d3c c940 82bb 7c23 503d
00000360: b67f b03d afd7 723d 54b7 40bd 6dc1 903d
00000370: b9e8 d93d 0d38 003d c247 c8bc 9033 0f3e
00000380: b34e 003e b437 c6bd 65e5 903e d149 333e
00000390: 61a0 51be 5b8c 4ebe ce93 afbd 91bb 5fbe
000003a0: 01f8 d93c 6de9 cabb cd4a 03bd a283 65be
000003b0: 5aae d1bd adf4 9abe 538f a5be 8388 83bd
000003c0: fe81 edbd fa02 5cbb 6b39 09bd 57d7 a9bc
000003d0: 6b9d 71be 09df 1cbc 3ad4 6fbc 5ced 11be
000003e0: d610 ebbb 9227 83be bfd0 f1bd 094c 55bd
000003f0: 96f7 253d 81e4 90bd 5e4e 983d bf62 db3c
-0.04174975 -0.13871899 -0.078978166 0.07455235 -0.084849656 -0.19675669 -0.0302709 -0.20114717
0.054940738 0.0802554 -0.08139755 -0.11576272 -0.011564463 -0.0022350813 -0.08669793 -0.05853427
-0.066239335 0.18939404 0.050692666 0.07686955 -0.060348082 -0.15382148 -0.13201699 0.103201635
0.03328663 -0.06814276 -0.06786308 -0.049364652 -0.3347038 -0.058441572 -0.124756634 0.012235441
-0.099439085 0.11497974 -0.016526734 0.042197675 -0.14950079 0.051941276 0.086675145 0.043548565
-0.16915244 -0.13911001 0.03547699 -0.026175547 -0.3515917 -0.0072553703 -0.083300486 0.14470485
-0.15104352 -0.117470875 -0.11790794 0.01106045 0.10514436 0.13034777 -0.15369888 -0.11273615
-0.14264156 0.23364635 0.05053141 0.010186476 -0.022613235 0.0273854 -0.06777049 -0.0004905404
-0.03030974 -0.017580962 0.10424781 0.19062637 -0.111642584 -0.02600783 -0.17909974 0.17884883
-0.02288025 -0.19318849 -0.22474772 -0.16229971 0.09114734 -0.06536861 -0.18552074 -0.13128093
0.119111784 -0.18622926 -0.085357666 -0.11941791 -0.19095479 -0.021845246 -0.1419724 -0.04386567
-0.14671603 -0.2540236 0.034050517 -0.057396572 0.087251015 0.22705346 0.060032427 0.111816265
-0.06318883 -0.03214871 0.052178882 -0.047217242 0.11106112 -0.035792198 0.11986999 -0.009035704
0.11867175 0.11649422 0.13693324 0.054054126 0.024981951 0.11639253 -0.126708 -0.084035456
-0.026439464 -0.019380955 -0.041879773 -0.053641893 -0.10448614 -0.109448545 -0.0607168 -0.19709072
-0.0067031365 -0.2426685 -0.107083924 0.007523731 -0.040567104 0.12684323 -0.09565615 -0.19102356
-0.17351864 0.07491747 0.06661797 -0.023806527 0.16432862 0.055711914 0.07821223 0.030009966
-0.14586025 0.023740374 0.0606309 -0.009434879 -0.014162217 -0.15764736 -0.14468813 -0.01176227
-0.064465664 0.122435026 -0.041655257 -0.12633352 -0.025333494 -0.1879183 0.046862073 -0.07926027
0.015396025 0.043157913 -0.012547048 0.037869997 -0.13892192 -0.05116516 -0.11827603 -0.085101664
-0.16040026 0.04376158 -0.03513254 -0.17924291 0.11548233 0.07912326 -0.01231375 0.021532042
0.022601388 0.1386235 -0.0762097 0.08902954 0.16272198 -0.033074055 0.10139533 0.07365999
-0.034832712 0.09554049 0.06869918 0.22155023 0.20360166 0.16418627 0.12170331 -0.034380697
-0.03255472 0.18591148 -0.022121735 0.12714191 0.24172492 0.11953919 0.05595467 0.096047126
0.06251761 0.2107044 0.04578891 -0.13599479 -0.19263539 -0.053259283 -0.13893 0.1262417
-0.13924125 -0.19440912 -0.08764315 -0.014411327 -0.20409465 -0.009114099 0.090549104 0.07239467
-0.38601485 -0.18580355 -0.067485675 -0.018782856 0.03122863 0.012526412 -0.003975008 0.05081509
0.08618109 0.059287723 -0.047049835 0.07068143 0.106400914 0.031303454 -0.02444828 0.13984513
0.12530021 -0.09678593 0.28300014 0.17508627 -0.20471336 -0.20170729 -0.085731134 -0.21848895
0.026607515 -0.0061923773 -0.032053757 -0.22413495 -0.10238333 -0.30264798 -0.3233591 -0.06422522
-0.1159706 -0.003357111 -0.033502024 -0.020732565 -0.23595206 -0.00957466 -0.014638001 -0.14250702
-0.007173638 -0.25616127 -0.11807393 -0.052074466 0.04051932 -0.07074834 0.07436822 0.026780484

network_body._body_endoder.seq_layers.0.bias f4 [128]
00000000: 24d2 38bc fb3c bb3b b691 a3bd a602 86bc
00000010: 932f 1b3d 9ab0 2b39 7464 5f3d f0f7 8f3d
00000020: f41c 8c3d daa4 d0ba ebbc 233d 4fea 6e3d
00000030: edd9 2c3b c036 c03b f088 ecbc 12bc 9d3c
00000040: f592 2b3d 0e06 88bb 402d cabc a439 833c
00000050: a041 d33d d5c0 503d 15c0 a83d d187 d03d
00000060: 52e7 abbd 8092 1d3d 7b96 7e3c 594a 32bd
00000070: 17c5 873d da78 5d3d 05ef 10bd 1e0a 463d
00000080: 40cc 3abd 9695 7bbd 3a38 293d 9093 f5ba
00000090: 767d bf3b 866d 97bd 3655 2bbc 6e6a 613c
000000a0: 7917 9d39 e2bf 703c 2baa d33d 8517 663d
000000b0: b42f 163d 45b0 05bb ded2 f23c 7eda 6f3d
000000c0: 569c bbbc 92a8 66bd bf21 893c 279f a83c
000000d0: 120c 7c3b 2e41 d13b f4c0 e2bb 6bb5 6abd
000000e0: 9752 803d f58e 1dbc 79b0 2b3d 5dbd 133d
000000f0: 6161 b93d 79e5 3f3d 8e44 453b c67a c13c
00000100: 44aa 48bc fdfe 943b 04d4 1e3d cf7b babd
00000110: e09c b5bc 8367 e5bc 1e0b b63c f1d1 fe3c
00000120: 0f65 253c d5f9 14bc 35ca 4b3d 247f 5a3d
00000130: 114f 7e3c 8e5c 1ebd 5082 693d 56a0 6f3c
00000140: 0999 953d ffce 003d 2442 873d 1e82 1f3d
00000150: 904c e83c 3079 9a3c ba6a 7a3d e968 b6ba
00000160: 4cb2 3bbd f523 e13d c808 3e3d 9d1c f13b
00000170: 3742 b7bd 714f e23c 12ca 1d3d aaa3 f2bc
00000180: af81 8d3d 54fa 213d 4c17 8a3d 7c47 843c
00000190: df41 933d 8296 9d3d 719c 0a3d 895c cfbd
000001a0: 8809 893c 80c1 883c 7b95 4ebd fb96 063d
000001b0: 38b8 a2bd 8aa4 653d e1bf cbbc 238e b03c
000001c0: 0934 a8bc 5455 673d 9168 bf3d 5725 793b
000001d0: a418 5d3d c2a8 8dbc bb67 843c d1b6 66bd
000001e0: 3742 0a3d c6e8 f23b 2e57 4dbd c089 bc3d
000001f0: f7a3 c1bc 5e89 9bbd cad3 303d 7dd8 cebb
-0.01128057 0.0057140565 -0.079867765 -0.016358685 0.037887167 0.0001637362 0.05453916 0.07029712
0.0684146 -0.001591827 0.039975088 0.058328923 0.002637501 0.0058659017 -0.02887389 0.019254718
0.041888196 -0.0041511124 -0.02467978 0.016018696 0.10315251 0.05096515 0.08239762 0.10182155
-0.0839373 0.03846979 0.015538807 -0.043527935 0.06629389 0.05407033 -0.035384197 0.048349492
-0.045604944 -0.061421953 0.041313387 -0.0018735994 0.0058438135 -0.07393937 -0.010457328 0.013758285
0.00029962862 0.014694186 0.10335191 0.056174774 0.036666587 -0.0020399254 0.029641565 0.05855798
-0.022901695 -0.056313105 0.016739724 0.020583702 0.0038459343 0.006385944 -0.0069199745 -0.05730192
0.06265753 -0.009616603 0.041916344 0.036069263 0.09051777 0.0468497 0.0030100676 0.023618113
-0.012247626 0.0045469985 0.038776413 -0.09105646 -0.02216953 -0.02800346 0.022222098 0.031105967
0.010094895 -0.009092768 0.049753387 0.053343907 0.015521781 -0.038662486 0.05700904 0.014625629
0.0730458 0.031447407 0.06604412 0.03894245 0.02835682 0.018856615 0.06113694 -0.0013916764
-0.045824334 0.109931864 0.046395093 0.0073581473 -0.08948176 0.027625771 0.038522787 -0.029619057
0.06909501 0.039545372 0.06742725 0.016147368 0.07190298 0.07694723 0.0338406 -0.101250716
0.016728178 0.01669383 -0.050435524 0.03285883 -0.07945293 0.05606512 -0.024871768 0.021552151
-0.020532625 0.05647786 0.09346116 0.003801664 0.053978577 -0.017292384 0.016162744 -0.05632669
0.033754554 0.0074130027 -0.05013197 0.09205961 -0.023637755 -0.0759456 0.043170728 -0.0063124285

network_body._body_endoder.seq_layers.2.weight f4 [128, 128]
00000000: 120e f1bd c34e 923d e264 823d 6315 0fbe
00000010: 9ef4 123c 7159 5abd f6e7 d13d 8add 91bd
00000020: 2a81 43bd da8a 893c 1f06 35be f05b 873d
00000030: da16 223d d3ad a63d aae2 5e3d b983 f03c
00000040: c070 103e c870 cdbc c66f 9fbd b3ce d3bd
00000050: 14ff 7a3d 5c23 583e 557b 66bd b97e 85bd
00000060: 3db4 b1bd 87b3 b8bd 8e08 f2bd 1aa1 a13c
00000070: 0353 4aba 96df 53be 8196 cbbd 83ed 1fbd
00000080: 6612 9dbd 9c44 ddbc 81b7 b43d 2d04 8ebb
00000090: 4c2f a3bd 1902 50bc bce9 f8bd e32b 7e3c
000000a0: 4c4a 16be 5f19 b0bc d56c 42bd a59f 6ebd
000000b0: 82f8 35be fc20 bfbd 23ce 7abc e4b4 e83d
000000c0: 2cd3 86be fb9f 3ebe 974a b0bd 0055 9abd
000000d0: a128 823d c592 013d 7109 a93d ae16 15be
000000e0: df86 7ebc 3536 bebe c70c 0f3e f5aa 1f3d
000000f0: d663 80bd c3ca a43b 17ed 973a 615d 003e
00000100: 4986 383e 0225 d93d b972 9ebb df6b c3bd
00000110: b21c 55be 92ac 03bc 7255 9d3d f3df 84bd
00000120: b7b2 733e 829e cebd 8b94 71bd caf4 1bbe
00000130: fcd0 6a3d b3a0 603d 6be9 d93d a187 24bd
00000140: f0a0 72bd 3e1a 39bc 4fc1 7dbe d586 433c
00000150: c818 15bd efa4 e0bb 33c2 b43c c455 55be
00000160: fff1 53be c7f2 063e 94a3 273e 27aa 81bd
00000170: f5d2 5c3d 1e7c 07be 9bab f4bd ba0a eabd
00000180: a531 cdbd 86e0 35bd 471f c4bb b7e7 1abe
00000190: 58b8 a73d 1253 123e 3a57 3cbd 2bc7 6b3c
000001a0: b141 b13d afd2 463e 21d5 28bd 881b 73bd
000001b0: e6b0 fdbd 2dc3 e63d 8a6e 423c f8bb 13be
000001c0: 3942 7f3d 4915 db3c 1be8 ea3d 3fbe 58be
000001d0: 13ec 133e 5a2e ca3d 4813 69bd 5966 f83c
000001e0: 75bf f9bc dc66 893d da44 84bc 7251 c73d
000001f0: 2d8f 98bc 90a4 d73d bd80 0abd 2293 d13c
00000200: 3218 37bd 199e eebc d2f9 29bd efbf 2e3d
00000210: 4a28 b43d 3cc4 f83d 1c91 72bc 72a4 183d
00000220: 9414 40be f483 ca3c 8375 4abe 3ddf d43b
00000230: 525e 9f3d f7a3 cb3c bf20 5e3c 12ca 1a3d
00000240: fff1 683e 6dbc 5fbd 33b5 b5bd b74a de3c
00000250: b6fb 4cbd 8b2c 1d3d 7b74 303e dbfc 513d
00000260: 63b0 61bd e261 76bd 5fde 85bc 2a4e d5bd
00000270: 871c 45bd dc20 3cbd 100f 8ebc f8f9 37bd
00000280: 8ebe 51bd e658 e5bc af0f 883d b5e9 73bd
00000290: fdea 523d e5e9 97be 2bec 10be 2ad6 44be
000002a0: c803 03bd 668f bd3d a16c 2dbe 5ca7 8b3d
000002b0: 687d 2dbe efd0 80be d8aa 50bb 90dc aa3d
000002c0: a897 97bd bb9b 53be 2a10 343d f7de 27be
000002d0: 8e4d cb3c d54a 9a3b 40a4 263d 1a32 48be
000002e0: b981 06be 4dd4 88be 9c98 a8bc 5b41 cc3d
000002f0: 4f44 67bd a48b 49bc b1d7 ca3d 280b 013d
00000300: 3200 263e 1905 ed3d fefc 773d af4b 1cbe
00000310: ac78 d4bd 3233 f53c 9450 4c3d 5994 303e
00000320: cffc 013e 46ab 6c3d da07 053d 9620 d0bd
00000330: 3e7f cf3d ce49 94be 2afd 27bd bd45 803d
00000340: 207c 3ebd 6631 023e 0325 f0bd 4fc8 30bd
00000350: b95a 26be f97d 18bd eea2 3a3d f4bc 04be
00000360: 304a fdbd 5598 1e3e 08df cbbd 2ab2 583d
00000370: ee8d a23c 8a97 e0bd 6b1a dd3d 1cfe 873d
00000380: 63f3 733e 52ae 9f3d dcb7 2c3d 1b9d 60be
00000390: 2bdc 533d 45eb 6eba 3fa1 4f3d a4e5 53bd
000003a0: bf36 243e c73a 1e3d c5f1 8bbc 5e32 a9bd
000003b0: ac65 6c3d b54b 583c 96bd 0dbd 67dc 6ebe
000003c0: 92a2 253d d680 34bd 7a0d 1dbd 2f0a 05be
000003d0: 7212 183e 7324 34be 18f4 3abe f7a1 c63c
000003e0: df6a f9bc b8ab 56be fac6 02be f914 b8bc
000003f0: 9c7d a8bd 3e68 debc 01f3 08bd 7469 1a3d
-0.11770262 0.07143929 0.06366898 -0.13973002 0.008969454 -0.053307954 0.10249321 -0.07122333
-0.047730602 0.016789842 -0.17678116 0.066093326 0.039572574 0.08138623 0.054415382 0.029359685
0.1410551 -0.025078192 -0.07784991 -0.10342159 0.061278418 0.21107239 -0.056269962 -0.06518311
-0.08676956 -0.09018617 -0.11818038 0.01973014 -0.0007718058 -0.2069076 -0.09940816 -0.03904487
-0.07669525 -0.027010255 0.08824063 -0.004333994 -0.079680055 -0.012695813 -0.12153956 0.015513393
-0.1467678 -0.021496473 -0.04746707 -0.058257718 -0.1777058 -0.09332463 -0.015307936 0.11362627
-0.26332986 -0.18615715 -0.08607977 -0.07535744 0.063554056 0.03163411 0.08253754 -0.14559433
-0.015535085 -0.37150732 0.13969718 0.038981397 -0.06269042 0.005029054 0.0011591044 0.12535621
0.18019976 0.10602762 -0.0048354534 -0.09542059 -0.20811728 -0.008036749 0.07682313 -0.064880274
0.23798643 -0.10088827 -0.058979552 -0.15230098 0.05732821 0.054840755 0.10640224 -0.04016841
-0.059235513 -0.0112977605 -0.24780773 0.011934002 -0.036400586 -0.006855599 0.022065258 -0.20833498
-0.20697783 0.1317855 0.16370994 -0.06331282 0.05391212 -0.1323094 -0.11946794 -0.11427827
-0.100192346 -0.044403575 -0.005985174 -0.15127455 0.08189458 0.14289501 -0.045981623 0.014390747
0.08655108 0.19416307 -0.04121888 -0.059352428 -0.12387256 0.112676956 0.011867175 -0.14427173
0.062319014 0.026743548 0.11470052 -0.21166323 0.14445524 0.09872122 -0.056903154 0.03032224
-0.030486802 0.06709072 -0.016146112 0.09732331 -0.018622959 0.10529435 -0.03381418 0.025582854
-0.04470081 -0.029128121 -0.041498013 0.04266351 0.08796747 0.12146804 -0.014805105 0.037266202
-0.1875785 0.024721123 -0.1977139 0.0064963386 0.07781662 0.024858458 0.013557612 0.037790366
0.22748564 -0.054623056 -0.08872452 0.027135236 -0.050044738 0.038372558 0.17231934 0.051266532
-0.055099856 -0.060151942 -0.016341386 -0.10415299 -0.04812291 -0.045929775 -0.017341167 -0.044916123
-0.051207118 -0.027996492 0.066436164 -0.059549052 0.051493634 -0.29670635 -0.14152591 -0.19222322
-0.031986028 0.09255867 -0.1693597 0.06819031 -0.1694237 -0.25159404 -0.0031840112 0.0834285
-0.07401973 -0.20664875 0.043960728 -0.16393648 0.024817254 0.0047086277 0.040683985 -0.19550362
-0.13135423 -0.26724473 -0.020580582 0.09973403 -0.05646163 -0.012301359 0.09904421 0.03150478
0.16211012 0.11573238 0.060544007 -0.15263246 -0.10374579 0.029931638 0.049881533 0.1724409
0.12694095 0.057780527 0.03247819 -0.10162465 0.101316914 -0.28962559 -0.04101292 0.062633015
-0.046505094 0.12714157 -0.117258094 -0.04315978 -0.16245545 -0.037229512 0.045565538 -0.12962705
-0.12367666 0.15487798 -0.09954649 0.052904285 0.019843068 -0.10966404 0.107960545 0.066402644
0.23823313 0.07796921 0.04216753 -0.21934931 0.05172364 -0.00091140374 0.050690886 -0.051732674
0.16036509 0.038630273 -0.017083058 -0.0826156 0.05771415 0.013201644 -0.03460463 -0.23326264
0.040438242 -0.04406818 -0.03834293 -0.12992166 0.14850786 -0.1759203 -0.18257177 0.024247153
-0.030446468 -0.20963943 -0.12771216 -0.022470938 -0.08227083 -0.027149316 -0.03343487 0.037698224

network_body._body_endoder.seq_layers.2.bias f4 [128]
00000000: 8075 433c 8607 ba3c 35a5 023d 5041 a33c
00000010: d21e 3c3d dd5e 02bc ffcb 043d b15a 473d
00000020: 5825 ccba 04dc c23c cc0d 0a3d a144 05bd
00000030: 9c53 493d f125 563c 471b b83c ec86 6f3b
00000040: 369d 3bbc ae59 a23c 5e24 d23b 2368 a03d
00000050: 7946 873d 52cc 8a3c 5a5b ce3c cc37 a33c
00000060: 00f7 2a3d b62c aabc dd45 afbc 9a3f 023d
00000070: be29 ce3c b5b2 8e3d ec89 633d 1fe4 433d
00000080: 569b f53c aa32 3c3d e528 0fbd 4d8e 5a39
00000090: a164 fe3c 5be2 ea3c aa74 39bc b268 2f3d
000000a0: 2e89 493d e7d4 843d fc7f 093d 5c74 ac3c
000000b0: 3adb 593b 51a8 ddbb 5cc8 ed3c 51ca 1c3d
000000c0: 1b80 3f3c dca4 0d3d 6a04 333d 797b 663d
000000d0: 1f16 2a3d 0b01 913d d5ce d3bc d011 883d
000000e0: f7a8 0b3d 19d2 b93c 8133 563b c704 373d
000000f0: a687 9e3c a148 843d de27 733b 26f2 553d
00000100: 778a ee3c e1f1 443b 90c4 9f3d 059b 3c3c
00000110: 699b 133d 7a4b 713c 9028 683d e8fe 4d3d
00000120: f426 f83c 78cf c0bc 3dc3 9bbc 9746 c63d
00000130: 332e 283c 5426 443d 3fa0 c43d 4dfe 5fbc
00000140: 2e80 923b a365 353d ea76 3f3d 31a2 383d
00000150: 56aa b83c 3a00 ed3c d33a 443d da1d 7d3d
00000160: 890b 9c3c a3cb 463d 7eab 153d b8c0 d3bc
00000170: fb2c e93c 23a2 b7b8 4a5a 173c 36a6 2b3b
00000180: b7ec 633d f216 ae3c 1b46 043d 9f58 e93c
00000190: d379 de39 fa3b 283d 13bd 55bd 6e96 223d
000001a0: bea0 c33b 316c 2c3d 9858 56bd 8286 6d3d
000001b0: 43f3 603d 0a83 073d 1c4c d83a b7ab 8cbd
000001c0: 01f1 453d 4fd5 c13c 8662 613a f959 883c
000001d0: 4baf 173d 6a25 cd3c 378a 543d c3d1 b83c
000001e0: 6ff8 f73c 0bf8 a4bb 1200 1abc 463f 243c
000001f0: 2c5c d93c 27d1 80bd 8741 4e3d 07dd a5bb
0.01192987 0.022708666 0.031895835 0.019928604 0.04592783 -0.0079571875 0.03242111 0.048670474
-0.0015575094 0.023786552 0.033704564 -0.032536153 0.049152 0.013070569 0.022473944 0.0036548926
-0.011451056 0.019818153 0.0064130267 0.078323625 0.066052385 0.01694313 0.025190044 0.019924067
0.041739464 -0.020773273 -0.021395618 0.031798936 0.025166389 0.069676794 0.055551454 0.047824975
0.029981297 0.045946755 -0.03495111 0.00020843111 0.031053843 0.028672388 -0.011319319 0.042824455
0.04920309 0.064859204 0.03356932 0.021051578 0.0033242241 -0.0067644496 0.029026203 0.03827888
0.011688258 0.03458105 0.04370538 0.056270096 0.041525003 0.07080277 -0.025855461 0.066440225
0.034096684 0.02268319 0.0032684507 0.04468229 0.019351792 0.06459165 0.003710262 0.052232884
0.02911876 0.0030051398 0.07801163 0.011511569 0.036036883 0.014727468 0.05667931 0.050291926
0.030292012 -0.023536429 -0.019013995 0.09681433 0.010264921 0.047888115 0.09600877 -0.01367147
0.0044708466 0.04428638 0.046744265 0.045076553 0.02254216 0.028930772 0.04790766 0.061796047
0.01904847 0.048534047 0.0365405 -0.025848731 0.028463831 -8.75632e-05 0.009237835 0.0026191599
0.05564567 0.021251176 0.03229342 0.02848464 0.00042433906 0.041072823 -0.05218227 0.039694242
0.0059700897 0.042095367 -0.052330583 0.057989605 0.054919492 0.033083953 0.0016502175 -0.068686895
0.048325542 0.023661284 0.000859775 0.016644465 0.037032407 0.025042254 0.051889624 0.02256096
0.03026983 -0.005034452 -0.009399431 0.010024851 0.026533209 -0.06289893 0.05035546 -0.005061749

action_model._continuous_distribution.log_sigma f4 [1, 2]
00000000: 3f16 afbf 2353 a5bf
-1.3678664 -1.2915996

action_model._continuous_distribution.mu.weight f4 [2, 128]
00000000: 7e48 2c3d 8f28 2a3d 5113 33bc 1b64 063e
00000010: 6e7c 9dbb fb1e 953d 631e b5bc 478b 5bbc
00000020: 8f6a 933d 5c22 8b3c d31a 04bc e61b 14bd
00000030: 31bc 2bbd 8025 273d 4ce0 cd3c 77aa 8cba
00000040: dbbd 053d 80b1 84bc 131c f53a c908 d1bc
00000050: ba6d 203d 55c8 1fbc 430e bb3d cc56 813c
00000060: 1702 243e 270b 51bd 60ad 86bd 1ae3 fa3d
00000070: a7f1 a63d 3d25 d6ba 2cad 05bd 1a1d b5bb
00000080: 48aa 733c 7043 703c a163 87bd 3b04 0e3b
00000090: ea7e 2738 5879 fb3c 2202 9fbb a4e7 89bd
000000a0: 1762 19bb 2302 013d ec96 7ebd 476b 083d
000000b0: ddbe 7439 4fb1 8bbc f063 1f3c 9501 b33d
000000c0: f96c b63d b394 263c eb1f f23c 3e1f 133d
000000d0: 3c48 dc3d 7809 963d 8794 06be de8c 04bd
000000e0: 11dc c93c 70ea e8bc 7e47 f13c eb0a 933d
000000f0: 9185 17bc 26a6 e23c 803c babc afcf 0b3d
00000100: 4135 9bbb 0cf6 de3d fd6d 58bd f4c0 03bc
00000110: 24e7 763c 259e 6e3b c2da d0bb 451f bcbd
00000120: 0f75 07bc 3fee c2bd 7d3c 503d 0ce0 48bd
00000130: 50ad d33a 1014 ecbb c550 c4bc 2f30 3dbd
00000140: f78d c2bd bc24 35bd 43ca a63c b9a5 85bb
00000150: e3f4 013e 8d6c 503d c1e0 0f3d 5550 023c
00000160: 67a2 533c fb8b 32bd f368 58bd dd21 113c
00000170: f578 233d c3fc 8cbd c3c4 993b 2f3a 243b
00000180: c76a 503d 73f2 d2bd 5b96 03be abc3 51bb
00000190: d406 093e 661e 8fbc 0e1e 2f3d 749b 023d
000001a0: 9855 bd3d 715c 433d 3cdb 3ebb 3602 4a3c
000001b0: 014a c1bc de8d a63d c2b6 913c 534a 59bd
000001c0: c609 143c b359 993d cf73 4a3d 21d0 a03c
000001d0: d61d 41bc eab7 0dbd f1e4 343b b326 fdbb
000001e0: 7a5f 7d3d 79c0 5f3b 6902 e83c 2210 783d
000001f0: 3888 313d b2bf f7bb b027 e03c 77af 0dba
00000200: 82bc 66bd e180 fdbc ea60 0dbe e3d4 7bbd
00000210: 246b c43b 6375 afbc 4213 093d 2c39 2e3d
00000220: 1782 0fbd 9ed3 25be 0ee1 393d 1762 76bc
00000230: 14b6 583d a094 82bc d9df 6f3c 881b 213b
00000240: 431d 80bb 2345 25be 6643 f03b 7e8f 06be
00000250: 9f1f a03d fb2f 8f3c 3a20 f73c 4fb7 133c
00000260: 1a4e 28be c11b 63bd c776 f03c fc25 14be
00000270: ec46 26be a05f 023e f211 8abb b233 363d
00000280: b44d 0f3d bb4b 553d 579b 25bc 283c e1bd
00000290: aeb1 173d 742e a33d fcab f0bd e3c4 a13c
000002a0: 42b7 6c3d 9b7d 993d 9940 2dbe 6418 22be
000002b0: bb07 28bd 7901 bfbd 1d3c 1dbe af35 64bd
000002c0: f716 553c f51b 2e3d aa15 0bbe e398 7f3d
000002d0: 9471 2abd 07d3 4c3d 0718 61bd 3ba1 c03d
000002e0: 4660 8c3d 9020 6d3c 97e0 d03c 53ff ac3c
000002f0: b2f3 babd 7bde 223d 6d71 d9bd 9402 343d
00000300: 36da 313d bc0e 21bc 47a1 7e3d b8d8 02be
00000310: 2659 093d 8ab7 c43b febd 473d a26c 0cbe
00000320: 9bc2 133d af9a 35bc a581 c7bd 86a7 43be
00000330: 9169 0e3d 1bc5 4b3d 0b16 2dbe d5b1 e8bd
00000340: c054 d13c 30f8 09be 1aa7 653d ef8d f8bd
00000350: 8c66 d03c 5ce5 a23c 4e3a 653d 65f3 773d
00000360: 8be9 2bbe 50dd 683d d723 113d 44a1 363d
00000370: 7f85 a7bb 69a6 5ebd c9f6 cb3c 216d dfbb
00000380: 92b3 813d 4b3e d1bc 8fb3 64bd 8281 23bd
00000390: 37ee ab3d 5c83 503d 5289 96bc 87eb 3bbe
000003a0: f13a 5ebd 9770 dd3c b258 1e3a 167c 623d
000003b0: a84f 793d cdfe 67bc fd8a f9bc 7fa2 e73b
000003c0: 0e20 773d bf48 96bc 4eb2 d1bc f4b8 513d
000003d0: b189 723d 1499 a7bd 1ba4 483d 1481 0fbe
000003e0: d5c3 ee3c 4494 7fba 1afe 06bd 85e3 21be
000003f0: 908b f0bc 4e60 c8bc 3182 943d 28d7 d4bd
0.04206132 0.041542586 -0.010929898 0.13124125 -0.004806093 0.072813 -0.022109216 -0.0133999055
0.07198059 0.016984157 -0.008063036 -0.03615942 -0.04192752 0.040807247 0.025131367 -0.0010731955
0.032651763 -0.01619792 0.0018700383 -0.025516884 0.039167143 -0.009752353 0.091335796 0.015788458
0.16016422 -0.051036026 -0.065760374 0.122503474 0.0815156 -0.0016338002 -0.032635853 -0.005527151
0.014872141 0.014664516 -0.066107996 0.0021670002 3.99341e-05 0.03069751 -0.004852549 -0.06733635
-0.0023404413 0.03149618 -0.06215565 0.033305433 0.00023340755 -0.01705232 0.009728417 0.08740536
0.08907504 0.010167289 0.029556235 0.035918467 0.10755965 0.07326025 -0.13142596 -0.032360904
0.024641069 -0.028432101 0.029453035 0.07179817 -0.009248153 0.027667116 -0.022733927 0.03413361
-0.004736573 0.108867735 -0.052839268 -0.008041609 0.015069757 0.003641018 -0.006373734 -0.09185652
-0.008267655 -0.09518098 0.050838936 -0.049041793 0.0016149674 -0.00720454 -0.023964295 -0.04618853
-0.09499734 -0.044224486 0.020360118 -0.0040785936 0.12691073 0.050884772 0.03512645 0.007953723
0.012917138 -0.043590527 -0.052834462 0.008858171 0.039910275 -0.06884148 0.0046926453 0.0025059094
0.05088308 -0.1030015 -0.12850325 -0.0032007496 0.13381511 -0.01747055 0.04275327 0.031886533
0.09244841 0.04769558 -0.0029122373 0.012329629 -0.023594858 0.08132528 0.017787341 -0.053049397
0.009035533 0.07487812 0.04942685 0.019630494 -0.011786899 -0.034599222 0.002760228 -0.0077255606
0.06185863 0.0034141822 0.028321462 0.06056226 0.0433428 -0.0075606937 0.027362674 -0.00054048694
-0.05633212 -0.030945243 -0.13806501 -0.06148232 0.0059942175 -0.021418279 0.03346563 0.042534992
-0.035036173 -0.16194007 0.045380645 -0.015038035 0.05290802 -0.01594001 0.014640772 0.002458306
-0.0039097383 -0.16139655 0.0073322533 -0.13140675 0.07818531 0.017478934 0.030166734 0.009015872
-0.16436043 -0.05544639 0.029353512 -0.14467615 -0.16237992 0.1273179 -0.004213565 0.044482894
0.034986213 0.052074175 -0.010107837 -0.10997802 0.037034683 0.079678446 -0.117515534 0.019747203
0.057791956 0.074946605 -0.16919173 -0.15829617 -0.041022997 -0.09326453 -0.15354963 -0.05571526
0.0130059635 0.04250713 -0.13582483 0.062401664 -0.041612223 0.05000594 -0.054954555 0.09405752
0.068543 0.014473096 0.025497718 0.021117842 -0.091285124 0.039762955 -0.106173374 0.04394777
0.043420993 -0.009830173 0.062165525 -0.12777984 0.033532284 0.006003325 0.048765175 -0.13713315
0.036074262 -0.011084243 -0.097415246 -0.19106874 0.034768645 0.04974852 -0.1690294 -0.11362044
0.025553107 -0.13473582 0.056067564 -0.12136447 0.025439523 0.019884758 0.055963807 0.060534853
-0.16788308 0.056851685 0.03543457 0.04458739 -0.0051123495 -0.05435792 0.02489795 -0.006818429
0.063330784 -0.025542399 -0.055835303 -0.03991843 0.08395045 0.050906524 -0.018376026 -0.18351565
-0.05425543 0.027031226 0.00060404383 0.05529412 0.06086698 -0.01415987 -0.030461783 0.0070689316
0.060333304 -0.018345235 -0.025597718 0.051201776 0.059213344 -0.08183494 0.04898463 -0.14014083
0.029146114 -0.00097495713 -0.032957174 -0.15809448 -0.029363424 -0.024459984 0.072513945 -0.103926

action_model._continuous_distribution.mu.bias f4 [2]
00000000: 5401 6dbc 667b 3a3d
-0.014465649 0.04552784

onnx::Div_51 f4 [90]
00000000: fdb3 363e 1513 883e 990a 9b3e 93b9 9f3e
00000010: a8a4 a33e 5f5f a63e b49c a73e cf28 a73e
00000020: 709f a43e 3ec8 9e3e 270c 943e 522c 8c3e
00000030: c0ab 843e 8389 783e e99c 6f3e 16c8 623e
00000040: 9972 403e 80a3 0b3e 9c92 fd3d 6b83 f73d
00000050: 7054 f53d b804 f43d b576 f43d 8939 f53d
00000060: 84b9 f03d f7c9 e63d f39c e13d 2136 e23d
00000070: 8f36 e73d d348 ef3d 2629 fa3d f870 043e
00000080: 1526 0e3e efc8 1a3e 4dbe 2b3e 460a 413e
00000090: 01c4 583e fdc5 663e aafa 5f3e 3407 583e
000000a0: 9ea8 523e 2c3a 643e 84bf a23e 324d ac3e
000000b0: 8736 b03e 36c4 af3e e330 323d 00de 253c
000000c0: 7d16 773b d14e 5c3a 5326 143a a456 0c3a
000000d0: c6f9 033a f2bd 033a 0e8f f039 0e8f f039
000000e0: 0e8f f039 0e8f f039 0e8f f039 0e8f f039
000000f0: 0e8f f039 64ec 4c3c b329 0d3d 9425 913d
00000100: 37f7 d03d b61f 0c3e 6727 2a3e 13f7 363e
00000110: 74e4 413e 684e 4b3e d3e3 513e 5cd5 573e
00000120: 8089 6b3e e2ea 803e 7208 8a3e 08dd 8d3e
00000130: 9e24 903e d231 923e 55c4 943e caf2 993e
00000140: 51f5 9f3e a664 a33e 63c5 ab3e 1304 ae3e
00000150: 7fb0 ae3e 73fa ae3e 2300 af3e 1bfd ae3e
00000160: db14 af3e 7c53 af3e
0.17842098 0.26577058 0.30281523 0.3119627 0.3196156 0.32494637 0.32736742 0.32648322
0.3215289 0.31012148 0.28915522 0.27377564 0.25912285 0.24271207 0.233997 0.22146639
0.18793716 0.13636589 0.12381479 0.12085613 0.11978996 0.119149625 0.11936704 0.119738646
0.11754134 0.112689905 0.11016264 0.110454805 0.11289703 0.11683812 0.1221488 0.12933719
0.13881715 0.15115713 0.16771813 0.18851575 0.2116852 0.22536464 0.21872965 0.21096498
0.20572135 0.22287816 0.3178674 0.33652645 0.344166 0.34329385 0.043503653 0.01012373
0.0037702613 0.00084040785 0.00056514627 0.00053534866 0.00050344726 0.00050255575 0.0004588295 0.0004588295
0.0004588295 0.0004588295 0.0004588295 0.0004588295 0.0004588295 0.012507532 0.034463596 0.070872456
0.102034025 0.13683972 0.16616593 0.17867689 0.18934804 0.19854128 0.20497064 0.21077484
0.23001671 0.251792 0.26959568 0.27707696 0.28152937 0.28553635 0.2905604 0.30068046
0.3124185 0.31912726 0.33549032 0.33987483 0.3411903 0.34175453 0.34179792 0.3417748
0.341956 0.3424338
